miniproject2/experiments/ensemblyVAE/modelSeed366nD1.pt (torch, 144013 bytes, 37 tensors)

prior.mean f4 [2]
000000 00 00 00 00 00 00 00 00
       0.0 0.0

prior.std f4 [2]
000000 00 00 80 3f 00 00 80 3f
       1.0 1.0

decoders.0.decoder_net.0.weight f4 [512, 2]
000000 70 92 f5 3e 26 22 f9 3d 35 32 3b bd 30 cc 90 3e
       0.47963285 0.121647164 -0.045702178 0.28280783
000010 64 50 50 be 64 0c 08 be fb 75 a6 be d3 44 de 3e
       -0.20343167 -0.13285977 -0.32511887 0.43411884
000020 50 ab 23 bf 73 7a 56 be 55 9d e6 be e6 54 c0 be
       -0.6393328 -0.20945148 -0.4504191 -0.37564772
000030 c6 9a d5 3e 71 99 fd be 24 88 1b bf ad 76 61 3e
       0.41719645 -0.4953113 -0.6075461 0.22017927
000040 6e 07 66 be 27 4d 87 3e ff 74 18 bf f5 5f bc 3c
       -0.22463772 0.2642605 -0.5955352 0.022994975
000050 a0 41 83 be 30 95 0a 3d fd 73 47 be 85 90 a9 3e
       -0.25636005 0.033833683 -0.1947784 0.33118072
000060 ba 41 88 be dd ac cc 3c 19 a3 c1 3e 3c b9 01 bd
       -0.26612645 0.024984771 0.37819746 -0.031670794
000070 da 04 05 3f d0 3a fa be 69 f8 43 3d a2 57 09 3f
       0.5196053 -0.48872995 0.047844324 0.5364934
000080 00 f0 f8 3e fe 10 3d 3e 40 77 d7 be 18 7b c2 be
       0.48620605 0.18463513 -0.42083168 -0.37984538
000090 db 52 66 3d f1 fa 19 3f b9 42 af 3e b4 b2 94 bc
       0.05623136 0.6014853 0.34230593 -0.018151619
0000a0 77 4d f6 bc bb a9 0d bf 1d 67 99 3e 30 99 af 3e
       -0.030066235 -0.55337113 0.29961482 0.3429656
0000b0 e9 37 96 be 28 c8 db be 45 6d e3 bd 51 14 b9 be
       -0.2933953 -0.42926145 -0.11104826 -0.36148313
0000c0 f5 dd 25 3e 1f a0 05 3f ef d2 08 bf 0d 8b 28 3f
       0.16197951 0.5219745 -0.5344686 0.65837175
0000d0 1c 90 11 3f 3d 11 24 3f a5 7e d2 3e 7e f4 02 be
       0.5686052 0.64088804 0.41112247 -0.12788579
0000e0 4b 22 bc bc e9 45 16 bf d2 ec e1 be 8f 68 93 bd
       -0.02296557 -0.58700424 -0.44125992 -0.07197677
0000f0 58 57 bc be cc d2 f3 bd 1d ba 55 3e 90 89 95 be
       -0.36785388 -0.11905441 0.20871778 -0.29206514
000100 de d3 bd 3e e8 ce 2a bf ef 24 a1 be 7f 59 34 3e
       0.37075704 -0.66721964 -0.3147349 0.17612265
000110 58 90 94 3e 95 24 17 bf a5 20 18 bf dc 17 91 be
       0.29016376 -0.59040195 -0.5942481 -0.28338516
000120 c3 9e aa be 4c 6b b5 3e 74 f4 be 3e c0 16 12 3f
       -0.3332425 0.35433424 0.37295878 0.57065964
000130 59 aa 8e be 63 bd 1c bf c1 94 3e bd 79 c6 2e 3f
       -0.2786434 -0.6122648 -0.04652858 0.68271595
000140 34 c1 a5 3e 65 22 df 3e d3 6e c1 3d 18 e8 9a bd
       0.32373965 0.43580928 0.09444966 -0.075637996
000150 de 32 ee 3e df 47 b3 3e 3a 7a 0d 3e c2 bb 6d be
       0.46523184 0.3501577 0.13816157 -0.23216155
000160 44 b2 42 3e b4 64 51 be 5d 0a b4 bd ef ab eb 3e
       0.19013315 -0.20448571 -0.08791039 0.46029612
000170 8a 1f 0c 3d 05 12 92 3e 69 be f1 3e 3a 01 18 bf
       0.034209765 0.28529373 0.47215584 -0.5937687
000180 74 53 2b 3f 67 50 e1 3d 17 49 aa 3d 15 ae c4 3e
       0.66924214 0.11001664 0.08314722 0.38414064
000190 26 a3 f0 be d1 17 34 3d ed 95 3f 3e 75 c7 2c 3f
       -0.46999472 0.043968026 0.18709536 0.6749185
0001a0 3f 24 13 3f 95 08 8f 3e b8 05 32 3f c0 55 f5 3d
       0.5747718 0.27936235 0.69539976 0.11979246
0001b0 15 61 b3 be e9 dd 79 be 90 6d 2b bf 6c 42 76 3e
       -0.35035005 -0.24401058 -0.66964054 0.24048775
0001c0 38 cf ec be 42 4a 1d 3f a5 38 cf be fb fb fe 3e
       -0.46251845 0.61441433 -0.40472904 0.4980162
0001d0 f1 09 8e 3e 9f 96 12 3f 18 80 21 3f 55 de 2a bf
       0.2774196 0.5726108 0.6308608 -0.667455
0001e0 89 2a a5 be 22 9f 21 be 7b 48 49 3e 93 7c 0c bf
       -0.32259014 -0.1578336 0.19656555 -0.54877585
0001f0 27 88 15 bf 78 b5 cc bd e2 ca d1 3d b9 09 4c ba
       -0.58410877 -0.0999555 0.10243775 -0.0007783431
000200 f2 00 ca 3e 60 ec 69 be 3d 72 af 3e 29 7f 11 3e
       0.39453846 -0.22844076 0.34266844 0.14208664
000210 97 12 cc 3e 10 c5 40 bc e8 68 15 bf 95 ec 5c 3e
       0.39857933 -0.011765733 -0.583632 0.21574624
000220 40 e5 9a be 9a ac 80 3e f4 b6 a7 be fe b2 64 3e
       -0.3025303 0.25131685 -0.3275677 0.22333905
000230 ef b9 85 3c 18 8f 17 bf 12 3f 1c be 56 7d 1f 3f
       0.016324012 -0.5920272 -0.15258434 0.6230062
000240 4e 36 da bc bf ed cb 3e 68 30 60 be 58 0c f0 3d
       -0.026637223 0.39829823 -0.21893466 0.117211044
000250 80 59 28 3f 4a 33 f4 be 5a 4f e3 be d1 18 ed be
       0.65761566 -0.4769538 -0.44396478 -0.46307996
000260 7b f6 89 bd 74 da 3d 3e 06 ed 1e 3f 30 b8 ef 3e
       -0.067364655 0.18540365 0.6208042 0.4682021
000270 6a 6b 2e 3f 54 fe 0a be ce 70 0c bf b9 c2 ce bd
       0.6813265 -0.13573581 -0.54859626 -0.10095734
000280 73 30 16 3f c1 6d ed be 00 d8 2c bf d2 79 96 3c
       0.5866768 -0.46372798 -0.6751709 0.018368635
000290 ce 1a a1 bb aa 35 b1 3e 45 e1 12 bf 60 40 01 bf
       -0.0049165254 0.34611255 -0.57374984 -0.50488853
0002a0 e3 bd 2e 3f 51 3e 94 3b 74 95 84 be 52 f0 81 3d
       0.68258494 0.0045240303 -0.25895274 0.063446656
0002b0 ea 99 8d be 70 c5 b9 be 63 f7 c4 be 9a e4 01 bc
       -0.2765649 -0.36283445 -0.3846999 -0.007928038
0002c0 29 3d e3 be ff a0 10 bf 0b e2 f7 be e2 3c b6 3d
       -0.443826 -0.5649566 -0.48414645 0.08898331
0002d0 21 ce 04 bf e1 45 31 3f 6e fe 15 bf 84 22 16 3f
       -0.5187703 0.6924725 -0.58591354 0.58646417
0002e0 48 fb 2d 3f 85 99 1b 3f 41 90 2a 3e d0 a3 26 bf
       0.6796155 0.6078113 0.16656591 -0.6509371
0002f0 39 67 fe bd 25 3b 2d bf cc c7 c3 be e2 b6 c1 be
       -0.12422032 -0.6766837 -0.3823837 -0.3783484
000300 00 72 4e be e6 ba 2e 3e 5b 79 8e 3d 1d 74 57 3e
       -0.20160675 0.17063484 0.069567405 0.21040387
000310 93 34 9a 3c 57 aa 22 3f ab 5d 48 be c1 d6 cd 3e
       0.018823897 0.6354117 -0.19566981 0.40202907
000320 0d 46 8b 3e 75 d2 32 bf 71 7e 14 3f b3 29 0d 3e
       0.27201882 -0.6985238 0.58005434 0.13785438
000330 ed 20 e7 be b1 18 48 be af a1 d2 3d 6c 9c 59 3e
       -0.45142308 -0.19540669 0.10284745 0.21251076
000340 bb 03 f0 3e bb 54 48 be f2 bf 55 bc c3 63 23 3f
       0.46877846 -0.19563572 -0.013046252 0.638241
000350 f8 7f 0d bf 2c b8 a2 be 96 48 12 bf 58 d7 57 3c
       -0.5527339 -0.31781137 -0.5714201 0.013173901
000360 0d d9 31 3f e1 69 6f 3e 31 cd f3 3e 81 1e 32 3f
       0.6947182 0.23380233 0.47617486 0.69577795
000370 b6 da 17 3f 48 bc 24 3d b6 20 20 bf 8a 61 1a 3f
       0.593181 0.04021862 -0.6254991 0.6030508
000380 41 b5 de be bb e5 51 be 27 7a 22 3f 05 07 c5 3e
       -0.4349766 -0.20497791 0.6346764 0.38481918
000390 27 27 d3 3e 0c f3 b2 be e6 31 ed be 1f da 7a 3d
       0.41240808 -0.34951055 -0.46327132 0.061243173
0003a0 f8 02 1c 3f 9b 93 0f bf 93 19 61 bd 99 d9 23 3f
       0.6094203 -0.56084603 -0.05495603 0.640039
0003b0 b4 c0 2d bf be 7c 0f 3f 45 bb ce 3d 62 7f 93 3e
       -0.67872167 0.56049716 0.100943126 0.28808123
0003c0 38 3d 2e be 5a 9c d5 bd 5c d4 dd bc b6 c5 57 3e
       -0.1701554 -0.10430212 -0.0270788 0.21071514
0003d0 c2 5c cf 3d 97 82 60 3e 11 29 56 bc 58 48 04 bf
       0.10125114 0.21924816 -0.013071314 -0.5167289
0003e0 09 58 0b 3d 57 b6 10 3e 05 26 e4 3e 95 f9 b9 3e
       0.034019504 0.14132057 0.44560257 0.36323228
0003f0 b8 ba a9 3e 87 ef c1 be dc 8f 89 be 73 3b 8f 3e
       0.33150268 -0.37878057 -0.26867568 0.27975044

decoders.0.decoder_net.0.bias f4 [512]
000000 44 82 1e 3f 4c f6 c4 be 86 26 2e bf e8 72 07 3f
       0.6191752 -0.3846916 -0.6802753 0.5290971
000010 53 1f db bb 78 a9 b3 3e 70 24 fb 3d 86 68 a8 3e
       -0.0066870837 0.35090232 0.12262809 0.32892245
000020 7a 0b e9 3c f3 6b 0c 3f 25 92 b9 3e 4e 83 d9 3e
       0.028447855 0.5485222 0.36244312 0.4248299
000030 19 46 2e bc 13 e2 0f 3f 71 95 d0 be c7 39 ca 3e
       -0.01063683 0.56204337 -0.40739015 0.39497206
000040 a8 08 21 3e d3 88 27 3f ff 40 6e 3e 02 58 cc be
       0.15725958 0.6544315 0.23266982 -0.39910895
000050 60 fa 37 bf c8 cc 10 bf e6 49 0e 3e e9 ff d2 be
       -0.71866417 -0.5656247 0.13895378 -0.4121087
000060 35 85 35 bf c3 19 08 3f f3 2a 48 be 69 d3 1b 3f
       -0.7090638 0.5316431 -0.19547634 0.6086946
000070 27 ea 1b 3f 48 3a b2 be 3e e5 19 3c 31 fd 96 3a
       0.60904163 -0.3481009 0.0093930345 0.0011519549
000080 36 19 f9 3e 59 08 8d be ac 6d 26 3f 2a 75 c2 bd
       0.48652047 -0.2754543 0.65011096 -0.094950035
000090 26 69 8c 3d f4 04 00 3f a4 22 30 3f 47 54 ea be
       0.06855993 0.5000756 0.6880286 -0.45767424
0000a0 df d0 07 3f 0b 7d 39 3d 16 df 19 3f b4 43 aa 3e
       0.53053087 0.045285266 0.6010603 0.33254778
0000b0 9d 16 0d bf 31 5e ce be ef 40 0a bf b2 8c 1b 3f
       -0.5511263 -0.40306237 -0.5400533 0.6076156
0000c0 3c 36 20 bf d9 36 92 be 35 2f 2b 3f 88 5f 06 bf
       -0.62582755 -0.2855747 0.6686891 -0.5248952
0000d0 d9 4d 33 bf 52 54 31 3f f5 98 22 3f 47 95 16 3f
       -0.7004066 0.6926929 0.63514644 0.5882153
0000e0 fc 37 62 be c8 bd ff 3d 44 ee 79 3e 89 d0 da 3d
       -0.22091669 0.1248737 0.24407297 0.10684306
0000f0 9b fd f4 3d ec 83 0f 3f 78 ec 03 bd 05 90 25 3e
       0.11962434 0.5606067 -0.032207936 0.1616822
000100 31 f4 07 bd 34 13 16 3f 11 a0 15 3f 85 a6 d6 3e
       -0.033191863 0.5862305 0.58447367 0.4192392
000110 9d cf d0 be 2a 35 be 3e 05 53 0c be d5 5a ed be
       -0.40783396 0.37149936 -0.13703544 -0.46358362
000120 a0 0d 12 3f 2d 41 f5 be 48 2a d7 3e c0 f9 b3 3d
       0.5705204 -0.47901288 0.42024446 0.087878704
000130 76 55 0e 3e 62 30 cb 3e 8e 01 00 bf c4 7e 09 bf
       0.13899788 0.3968535 -0.5000237 -0.53709054
000140 d2 ed ff be 90 06 3a 3e c9 4d b4 be f6 e4 fd be
       -0.4998613 0.18166566 -0.35215595 -0.49588746
000150 2c e6 02 bf c2 15 b7 be 50 c9 12 3f c9 e7 2f 3e
       -0.51132464 -0.35758787 0.5733843 0.17178263
000160 d6 bd 8a be ac c4 01 3f 99 10 89 be 05 26 2d bf
       -0.27097958 0.5069072 -0.26770476 -0.6763614
000170 f5 ae f2 3c d9 e3 c0 bc 82 64 d9 be 99 7e d8 3e
       0.029624442 -0.023546146 -0.42459494 0.42284086
000180 0a 81 12 bf 8f 53 07 3f ff cf b9 3e a1 79 22 3f
       -0.5722815 0.52861875 0.362915 0.6346684
000190 90 12 b6 bd 17 2a 05 be e3 02 ea be d8 40 85 be
       -0.08890259 -0.13004337 -0.45705327 -0.26026034
0001a0 b2 6d 2e 3f a4 de 78 3e 4e 36 20 bf 18 61 48 3d
       0.6813613 0.2430368 -0.6258286 0.04892072
0001b0 da 9a 0d 3f 11 12 81 bc 7e 94 cc 3e f7 3c 06 3f
       0.5531441 -0.015755685 0.3995704 0.52436775
0001c0 7a 72 a1 be fb 9f ff 3e ba a4 0e bf b2 24 b4 be
       -0.3153265 0.49926743 -0.557201 -0.35184246
0001d0 b0 fb 26 3f 33 83 2e 3f cd 6f 00 bf 10 b2 65 be
       0.65227795 0.68168944 -0.50170594 -0.22431207
0001e0 a8 d8 95 3e ed fa f7 3d d2 d3 df 3e d0 a4 1a 3e
       0.29266858 0.12108407 0.43716294 0.15101933
0001f0 93 fc a1 3e 23 81 05 bf 86 58 c2 be ca d7 a4 be
       0.3163801 -0.5215017 -0.37958163 -0.32195884
000200 8f 40 09 3f 01 25 ba be 4d 1d 06 be 6c f6 fb bd
       0.53614134 -0.36356357 -0.13097115 -0.123028606
000210 86 d6 80 be 7a b9 76 be c2 ed 39 3d fb 71 30 3e
       -0.25163668 -0.24094191 0.04539276 0.1723098
000220 b9 25 25 bf 1b 2c 9c be ca 45 de 3e ae d3 2a 3f
       -0.64510685 -0.305024 0.4341262 0.6672925
000230 15 e4 dc bd 61 3f 55 3d f3 bb ab be 66 69 a8 be
       -0.10785691 0.052062396 -0.3354183 -0.32892913
000240 87 b7 17 3f 91 f8 30 bf 4c d3 02 be d6 f1 01 bf
       0.59264416 -0.6912928 -0.12775916 -0.5075964
000250 64 64 7c 3e e8 14 18 be 32 ae 86 3e dc 85 80 3c
       0.24647671 -0.14851725 0.26304775 0.01568883
000260 6d 62 a1 bc 01 d6 b8 3e ad ac 90 3d 2e 23 fd be
       -0.019700253 0.36100772 0.07064185 -0.49440902
000270 62 fe ac 3e 0d bd 9f 3e a4 1a cf 3e 1a 90 40 3e
       0.3378783 0.31198922 0.40450013 0.1880497
000280 01 4a 42 3e bf 8f 3b be c6 c7 fc be 47 bf a4 bd
       0.18973543 -0.18316554 -0.49371165 -0.08044296
000290 11 5d cc 3e 73 a1 23 3f d4 7b ec be 55 66 2d 3f
       0.39914754 0.63918227 -0.46188223 0.6773427
0002a0 25 d0 1d 3e 60 de e6 be 5b 44 f7 3e 73 43 ea 3e
       0.15411432 -0.45091534 0.4829434 0.45754585
0002b0 16 ca 76 be 85 9f c8 be 74 0f ee be ec 35 e0 be
       -0.24100527 -0.39184204 -0.46496165 -0.4379114
0002c0 03 32 d0 bd 00 a1 64 be 8f db 70 3e 79 1e 8d bd
       -0.10165789 -0.22327042 0.23521255 -0.06890578
0002d0 78 67 ab 3e fc cb 25 3f 99 ef 44 be cb 67 84 be
       0.33477378 0.6476438 -0.19232024 -0.25860438
0002e0 bf 35 17 be e4 bf 1f 3f dd 2f 35 3e 9f cf a9 3c
       -0.14766596 0.62402177 0.1769404 0.020728884
0002f0 6a 00 18 3f 1b a6 37 be cf a0 71 be 4d e3 36 be
       0.5937563 -0.17934458 -0.235965 -0.17860146
000300 67 e3 b8 3e 25 60 39 3e 00 0a db 3e 2a f9 db be
       0.36110994 0.18103082 0.42781067 -0.42963535
000310 40 77 32 bf 68 73 90 be 8f e0 38 3c 9e 3c bc be
       -0.6971321 -0.28213048 0.011284008 -0.36764997
000320 c6 85 e7 3c 0e be 1a bf 32 6a ed be 08 1f 27 3e
       0.02826203 -0.6044625 -0.46370083 0.16320431
000330 6b eb 1f 3f cf 5a 6c 3e 3f e1 16 bf fd 61 ad be
       0.62468594 0.23081516 -0.5893745 -0.33863822
000340 05 ac 34 be 3e 9a 32 bf db b3 f6 3e 02 53 1a 3f
       -0.17643745 -0.69766605 0.48184094 0.6028291
000350 6e 05 15 bf f9 d5 9c be 71 97 d2 3e c1 66 ab 3e
       -0.5821141 -0.30631998 0.41131166 0.33476833
000360 71 13 33 3e 8b 6a 9f be 66 5d 09 bf 07 e0 7e be
       0.17487885 -0.31135973 -0.5365814 -0.24890147
000370 86 7e 1f 3f 44 af 1e bf 98 a9 33 3e 35 5e 03 3f
       0.62302434 -0.61986184 0.17545164 0.51315624
000380 50 13 2e 3e 2f fd 2a bf 5a 53 1b 3f ac 46 23 bf
       0.16999555 -0.6679258 0.6067406 -0.6377971
000390 ba a5 0f 3f 81 17 5c be fe 8b b9 3e 77 4a a0 be
       0.56112254 -0.21493341 0.36239618 -0.31306812
0003a0 10 d7 8e bc ac 21 69 3e ea 5a 29 bf 5b 45 d0 3d
       -0.017436534 0.22766751 -0.6615435 0.101694785
0003b0 f2 f1 69 3e 20 e4 a0 3e 5e 03 1a 3f 76 53 f9 be
       0.22846201 0.31424046 0.6016139 -0.48696488
0003c0 d2 b5 34 3f 80 e3 0c bf 5f 96 c7 be 48 85 f1 be
       0.70589936 -0.5503464 -0.38981912 -0.47171998
0003d0 17 fe 87 be 88 af b7 3e 7d 86 ea be 01 03 0e bf
       -0.26561043 0.35876107 -0.4580573 -0.55473334
0003e0 94 48 1c bf 0a 31 02 be 77 b1 0a be 3b 53 b2 3d
       -0.61048245 -0.1271402 -0.1354426 0.08707281
0003f0 d0 e1 35 3e dc 62 c0 3e 18 e1 c4 3c ef 49 c7 3e
       0.17761922 0.37575424 0.024033114 0.38923594

decoders.0.decoder_net.3.weight f4 [32]
000000 3f 49 7d 3f 20 30 7f 3f 0c b6 7f 3f b9 7e 80 3f
       0.9893989 0.9968281 0.99887156 1.0038673
000010 12 53 7e 3f ae 99 80 3f fe e7 80 3f 7e 73 80 3f
       0.99345505 1.0046899 1.0070798 1.0035245
000020 ee 76 7d 3f 49 c2 7d 3f 41 06 7e 3f e1 6d 80 3f
       0.990096 0.9912458 0.9922829 1.0033532
000030 43 57 7f 3f 1e 03 81 3f b1 ff 80 3f d9 98 80 3f
       0.99742526 1.0079076 1.0078031 1.0046645
000040 4a 45 7f 3f fe 6c 80 3f bd 5a 80 3f 3f 39 81 3f
       0.997151 1.0033262 1.0027691 1.0095595
000050 4b a5 7f 3f 94 01 81 3f e0 be 80 3f 8f 4d 7d 3f
       0.9986159 1.0078607 1.005825 0.9894647
000060 32 4a 7d 3f 84 39 81 3f 34 16 7f 3f 17 96 7d 3f
       0.9894134 1.0095677 0.99643254 0.99057144
000070 dd b1 7d 3f a6 17 7d 3f 23 2a 81 3f cd d9 80 3f
       0.9909952 0.9886421 1.0090984 1.0066468

decoders.0.decoder_net.3.bias f4 [32]
000000 3e 08 0d bc 0c 77 f6 3b 2f a1 72 3c fc f6 bf bb
       -0.008607922 0.0075215157 0.014808937 -0.0058583003
000010 d3 c7 ef bb 15 64 60 3c 98 77 d4 3b 58 da 56 bc
       -0.007317522 0.013695736 0.0064839832 -0.013113581
000020 a3 0b c6 3b 9f 52 67 bc 08 1a f5 bb f8 38 27 3c
       0.0060438677 -0.0141188195 -0.00747991 0.0102064535
000030 0f 28 b7 bb a5 d2 38 bc c3 4e 5d bc 06 4a 36 bc
       -0.005589492 -0.01128069 -0.013507548 -0.011126047
000040 19 33 fa bb f4 35 cd bb e5 b3 6f bc 1e b1 10 bc
       -0.007635486 -0.006262535 -0.014630293 -0.0088312905
000050 ca d8 59 bc dc 4f ad bb 33 e0 02 3c 88 bc 70 bc
       -0.013296315 -0.005289061 0.007988024 -0.014693387
000060 ad 32 3f 3c 4c f0 07 bb 1c 24 68 3c ff 94 0a 3c
       0.011669797 -0.0020742593 0.014168765 0.008458375
000070 45 72 42 3c e5 1a 1c 3c 7d 83 ba 3b d6 4f 0d bb
       0.011868064 0.0095278965 0.005691944 -0.0021562479

decoders.0.decoder_net.3.running_mean f4 [32]
000000 70 4e 55 3e 70 4e 55 3e 70 4e 55 3e 70 4e 55 3e
       0.20830703 0.20830703 0.20830703 0.20830703
000010 70 4e 55 3e 70 4e 55 3e 70 4e 55 3e 70 4e 55 3e
       0.20830703 0.20830703 0.20830703 0.20830703
000020 70 4e 55 3e 70 4e 55 3e 70 4e 55 3e 70 4e 55 3e
       0.20830703 0.20830703 0.20830703 0.20830703
000030 70 4e 55 3e 70 4e 55 3e 70 4e 55 3e 70 4e 55 3e
       0.20830703 0.20830703 0.20830703 0.20830703
000040 70 4e 55 3e 70 4e 55 3e 70 4e 55 3e 70 4e 55 3e
       0.20830703 0.20830703 0.20830703 0.20830703
000050 70 4e 55 3e 70 4e 55 3e 70 4e 55 3e 70 4e 55 3e
       0.20830703 0.20830703 0.20830703 0.20830703
000060 70 4e 55 3e 70 4e 55 3e 70 4e 55 3e 70 4e 55 3e
       0.20830703 0.20830703 0.20830703 0.20830703
000070 70 4e 55 3e 70 4e 55 3e 70 4e 55 3e 70 4e 55 3e
       0.20830703 0.20830703 0.20830703 0.20830703

decoders.0.decoder_net.3.running_var f4 [32]
000000 32 60 41 3e 0c e8 51 3e 9d a1 60 3e 15 e6 51 3e
       0.18884352 0.20498675 0.2193665 0.20497926
000010 a2 7d 4d 3e ae 58 57 3e 00 1d 4f 3e 5f 6a 4a 3e
       0.20067456 0.21029922 0.20225906 0.1976714
000020 e6 06 49 3e bf a0 47 3e 7d fb 58 3e 8a 87 4b 3e
       0.19631538 0.19494914 0.21189685 0.19875923
000030 ce 46 4f 3e 18 cb 54 3e cd 9d 4d 3e 99 54 4f 3e
       0.20241854 0.20780599 0.20079727 0.20247115
000040 1c b7 62 3e 41 56 55 3e 36 92 57 3e 43 75 5d 3e
       0.22140163 0.20833685 0.21051869 0.21626763
000050 2a f6 56 3e d0 b2 47 3e 36 a8 5d 3e 7a 9f 4e 3e
       0.20992342 0.19501805 0.21646199 0.20178023
000060 c2 42 52 3e ff ee 55 3e 27 3c 4b 3e d9 df 4b 3e
       0.20533279 0.20891951 0.19847165 0.1990961
000070 a3 94 55 3e 99 80 54 3e b3 6b 5f 3e 67 14 54 3e
       0.20857482 0.20752181 0.21818428 0.20710908

decoders.0.decoder_net.4.weight f4 [32, 32, 3, 3]
000000 e1 0f 5b bd 1d bf 00 bd 49 e4 ac 3c 75 97 c5 bc
       -0.05348194 -0.03143226 0.021104949 -0.024120072
000010 fd 96 92 3c 37 8f 63 ba 3f 9d f4 bc 90 5d 8d 3b
       0.017894262 -0.00086807035 -0.029860137 0.004314132
000020 93 8c 6f 3b 5c f9 39 3d ec 55 89 bc 6e 02 b5 3c
       0.0036552295 0.045403823 -0.016764604 0.022095885
000030 84 42 98 bc d6 86 a7 bc d2 c1 ce b8 61 93 12 3c
       -0.018586405 -0.020450037 -9.858947e-05 0.008946271
000040 1b 69 ae 3c 66 0d 76 bd 04 fa 4d 3b 08 53 83 bd
       0.021290353 -0.06007137 0.0031429539 -0.06412321
000050 91 bf 00 bd 8d a3 5d bc 6d dc 22 bd 45 89 6a bd
       -0.031432692 -0.013527763 -0.039760996 -0.057259817
000060 45 2b 08 bd 29 48 23 3c 42 ef 5c bd 2e 04 69 bc
       -0.03324439 0.009965935 -0.05393911 -0.014222188
000070 06 15 db 3c 01 1e 5b 3d 73 cd 57 3d da 20 41 3d
       0.026743423 0.05349541 0.052686166 0.04715047
000080 e3 27 c8 bc 66 c7 70 bc 96 bd 2d 3d 0d 2e 8e bc
       -0.024433082 -0.014695978 0.04241713 -0.017355943
000090 76 fa 01 bd 36 35 95 bc 0d 40 93 3c 10 1e 90 3d
       -0.031733 -0.01821385 0.017974878 0.07036984
0000a0 4c 46 3f bd 1e d0 d2 bc 2e 7c 08 bd 1f 17 6d 3b
       -0.0466979 -0.025734004 -0.033321552 0.0036177111
0000b0 b1 1f 04 3d 15 df 00 3d b0 25 f4 3c 09 4b e1 3c
       0.032256786 0.031462748 0.029803127 0.0275016
0000c0 bd 32 24 bd af 2d 1e 3d 58 50 54 bd cc af 03 3d
       -0.04008745 0.038617786 -0.051834434 0.032150075
0000d0 cc c5 73 bc 64 e3 bf 3c 9f 1d 47 bd ee 05 77 3c
       -0.014878701 0.023423858 -0.048612233 0.015077097
0000e0 65 26 2a 3c d1 20 90 bd 95 19 93 bc 1d 74 aa bc
       0.0103851305 -0.07037509 -0.017956534 -0.02080732
0000f0 7b cc c9 3c a1 26 12 bd b9 ac 00 bc e5 5e 6a bc
       0.024633637 -0.03568137 -0.00785368 -0.014304851
000100 75 00 14 bd d9 83 8e bb 0b b7 df bc 33 80 e7 3c
       -0.03613325 -0.0043492136 -0.027308961 0.028259372
000110 c0 11 65 bd ba 96 f6 3a e5 2e 31 bd 0c af 3d 3c
       -0.05592513 0.001881323 -0.043257613 0.011577379
000120 79 9b 66 bd 2c 8f 6f bd dc bf 79 3a 55 3a 1e 3d
       -0.056300614 -0.05848615 0.00095271855 0.03862985
000130 ba 44 3b bd 2b b9 17 bd d5 5e f3 ba 08 f7 1f bd
       -0.04571984 -0.037041824 -0.0018567691 -0.039053947
000140 e0 17 4e bc c5 fe 49 bd c9 a5 75 3c 23 82 05 bd
       -0.012578934 -0.049315233 0.01499314 -0.03259481
000150 30 b0 34 3d d5 a7 12 3d 35 ed 99 bc e0 5e c1 bc
       0.044113338 0.03580459 -0.018789867 -0.02360481
000160 cc b1 fb bc cc 3a 20 bd 7c ae 0a 3d 96 60 6b bd
       -0.030724429 -0.039118573 0.033857808 -0.05746516
000170 26 0f 3a bd bf 95 85 bd e5 25 71 3c 42 97 06 bd
       -0.045424603 -0.065227024 0.014718507 -0.032859094
000180 e0 d8 41 bd 01 2e 11 3d 0b a6 0a 3d a0 80 03 bd
       -0.04732597 0.035444263 0.033849757 -0.03210509
000190 7d e3 6f 3d 12 1e 9b 3c 0e 6c ea 3b f4 2f c6 bb
       0.05856656 0.018935237 0.0071539944 -0.006048197
0001a0 e0 f6 03 bc f8 49 c9 bc 56 5e be 3c 5b c5 3f bb
       -0.008054465 -0.024571404 0.023238342 -0.002926192
0001b0 a1 73 71 3d 38 1c 19 3d 48 05 81 3c 7d 3c b2 3c
       0.058948163 0.037380427 0.015749589 0.021757359
0001c0 f2 ed fa 3c ec ce c9 bc 3b a4 75 3d 78 3c f9 bc
       0.03063104 -0.0246348 0.059971076 -0.030424342
0001d0 26 d2 f2 bb 45 94 f7 bc d4 84 20 3d 4b 5d 2b 3d
       -0.0074103056 -0.030222068 0.039189175 0.041837018
0001e0 b4 22 57 bd 3e bd 0f 3d 3e 8c 01 bb 52 55 34 3d
       -0.05252333 0.035092585 -0.0019767429 0.04402668
0001f0 20 cd a0 bc 3c 0a 46 3d 38 18 ad 3c 85 67 10 bd
       -0.019629061 0.048349604 0.021129712 -0.035254974
000200 6f ea 74 bb c0 fa 0e bc 5a 3a f8 3c 83 a9 4b 3d
       -0.0037371179 -0.008726776 0.030301262 0.049722206
000210 00 ce 83 bc 29 fa 0e 3d c7 fe 6a 3c 40 fc 29 3d
       -0.01608944 0.03490654 0.01434297 0.04150033
000220 4e 6a 8d bd 11 58 0e 3b 2f 17 04 3d 9a 92 4f bc
       -0.06905042 0.0021719972 0.032248672 -0.01266923
000230 17 2d 58 3b 2a 35 7d 3c 80 d8 45 3d f1 b8 2a 3d
       0.003298586 0.01545457 0.048302174 0.04168028
000240 db 3a 32 bd d4 15 26 3d f2 c3 8a 3c b3 05 fd bc
       -0.04351316 0.04054816 0.016939137 -0.030886507
000250 26 98 24 bd f8 30 5c bd 60 07 5b bc 6d fe a7 3b
       -0.040184163 -0.053757638 -0.013368458 0.0051267655
000260 e4 bd 33 3d 74 79 41 3d 2c d1 1a bd f3 76 61 3d
       0.043882266 0.047234967 -0.037797138 0.05504508
000270 68 1d 32 bb 4a c4 39 3d 13 ed 32 3d e3 9f 3b 3d
       -0.0027178172 0.04535321 0.043683123 0.045806777
000280 14 12 08 bd 55 2c 4b bd 3f 8a a5 bc e0 03 12 3d
       -0.033220366 -0.049602825 -0.020207522 0.035648227
000290 d0 bc 6a 3c 6e 0e 14 bd 81 a7 9c 3c 4a c9 a9 3b
       0.014327243 -0.036146574 0.01912284 0.005181466
0002a0 66 9d 98 3c ba a8 44 3a 59 78 cd 3c 1a 4e bf bc
       0.01862974 0.0007501949 0.0250818 -0.023352671
0002b0 43 70 4e 3d 55 b6 db 3c b4 6e 72 3d 74 98 95 3c
       0.05040003 0.026820341 0.059187606 0.018261172
0002c0 db e4 35 bd 7a b1 a2 bb 59 50 77 3c e3 75 6a 3d
       -0.044407707 -0.0049650045 0.01509484 0.05724133
0002d0 83 ea 5c 3d 89 e3 95 bc 8d cc de 3c e3 ce 9d bc
       0.053934585 -0.018296974 0.027197147 -0.01926369
0002e0 2b 41 84 b8 13 29 ba bc 74 29 95 bc 53 41 04 bb
       -6.306389e-05 -0.022724664 -0.018208243 -0.0020180538
0002f0 96 ba 94 3c 02 2f 3b 3a 75 f3 c6 3c 88 d2 b6 ba
       0.018155377 0.00071404886 0.024286011 -0.0013948241
000300 ad f3 29 3d d3 99 00 bb f1 db 88 3c ea 0e 60 bd
       0.041492153 -0.0019622936 0.016706439 -0.054701723
000310 f8 73 29 bd 24 b5 01 ba e1 f1 7b 3d 70 55 6a 3d
       -0.041370362 -0.00049479515 0.06150997 0.057210386
000320 14 59 d9 3a a3 85 7c bb c1 6a f8 3c dc 0c d3 bc
       0.0016582333 -0.0038531802 0.030324342 -0.025762968
000330 2f 8f 99 bc d6 8a 42 3c a3 7c e1 bc c3 58 85 bd
       -0.018745033 0.011873921 -0.027525252 -0.065110706
000340 97 09 80 3b e1 88 56 bd 0f b8 6c bd c0 7e c3 3c
       0.003907393 -0.05237663 -0.05779272 0.02386415
000350 d6 e6 66 bd 2b d1 4a bd e4 b9 3a bd ca e7 d4 bb
       -0.056372486 -0.049515884 -0.045587435 -0.006497358
000360 53 26 67 3d a7 28 1e 3d 62 49 2a bd 9b ed e2 3a
       0.056433033 0.038612988 -0.04157389 0.0017313244
000370 e8 14 ed 3c 62 7a 75 bd 87 91 ee bc f8 19 4d bc
       0.028940633 -0.059931166 -0.029122127 -0.012518398
000380 4f 48 5f bd 17 73 ee bc c9 7a 3e bd f1 60 12 3d
       -0.05451232 -0.029107613 -0.046503816 0.03573698
000390 75 8f 08 bb 2e b1 21 bd 21 24 20 bd 1f aa 2f 3d
       -0.002083746 -0.039475612 -0.039096955 0.04288685
0003a0 83 c8 92 3c c2 eb 76 bc 98 c5 9f 3c b0 a0 a7 3c
       0.017917877 -0.0150708575 0.0195034 0.020462364
0003b0 68 e7 71 3d be 73 99 bc 19 90 5e 3d ec 76 14 bd
       0.059058577 -0.018731948 0.05433664 -0.036246225
0003c0 4f e2 2c 3d da e0 f0 3c 31 8a ee 3c e8 96 6f bc
       0.042208012 0.029404093 0.02911863 -0.014623381
0003d0 5c 9a fd bb 21 5d 13 bc 1b e4 b2 3c d0 ea 87 3d
       -0.0077393483 -0.008994372 0.021837285 0.06636584
0003e0 3b 73 ea bc f2 64 90 3b a4 0c 0d 3c ff 89 b1 3c
       -0.0286194 0.004406565 0.008608971 0.021672247
0003f0 4b f2 2e bd 48 d7 26 3b 9a f8 19 3b f1 02 71 bd
       -0.042711537 0.0025457907 0.0023494125 -0.058840696

decoders.0.decoder_net.4.bias f4 [32]
000000 1e d0 24 bd b7 3a 16 bb 14 88 14 3d 3e 74 77 bd
       -0.04023754 -0.002292318 0.036262587 -0.06041359
000010 2d d0 b2 bc 6d ac 73 bc 04 ba 3d 3b b9 89 4a bd
       -0.021827782 -0.0148726525 0.0028949985 -0.04944775
000020 5d 13 9c bc 8e cc 23 bd 50 fa 42 bd 7b fd 37 bd
       -0.019052202 -0.03999 -0.047601998 -0.044919472
000030 9d 29 42 3d 2d 10 2a 3d b6 81 da 3c 12 3b af bc
       0.047402967 0.041519333 0.02667318 -0.021390472
000040 1e cf d5 bc 18 4e a8 3c 3e ca aa 3c 8d 2f 65 bd
       -0.026099738 0.02054505 0.02084839 -0.05595355
000050 25 05 a7 bc 82 7a d4 3c a9 a1 3e bd e9 9b 9e bc
       -0.020388195 0.025937323 -0.04654089 -0.019361453
000060 7e f3 df bb 22 3e be 3b 2c 29 99 bc cb 9f 84 3d
       -0.0068344465 0.0058057467 -0.01869639 0.064757906
000070 ff 87 23 bd 90 60 5d 3c 17 25 62 bc 8f 72 03 3d
       -0.039924618 0.013511792 -0.013802788 0.032091673

decoders.0.decoder_net.6.weight f4 [32]
000000 51 0d 7c 3f b5 b8 7e 3f 84 1f 81 3f 11 6e 7e 3f
       0.9845782 0.9950059 1.0087743 0.993867
000010 c5 2a 7f 3f fe 22 7d 3f 40 21 81 3f fc d7 7c 3f
       0.99674636 0.9888152 1.0088272 0.98767066
000020 4d 02 7c 3f ae 76 80 3f ad 09 7d 3f b3 71 7f 3f
       0.9844101 1.0036218 0.9884289 0.99782866
000030 30 3c 7d 3f c3 f3 80 3f ba a7 80 3f f6 76 80 3f
       0.98919964 1.007439 1.0051186 1.0036304
000040 4c 23 81 3f 41 55 7c 3f cb b1 7d 3f ba 76 7c 3f
       1.0088897 0.9856759 0.99099416 0.9861866
000050 93 d6 7f 3f fd d9 80 3f ad 17 81 3f f6 d1 7d 3f
       0.9993679 1.0066525 1.008535 0.991485
000060 6c 3a 7f 3f e3 ed 7b 3f 5c f0 80 3f d7 27 80 3f
       0.9969852 0.9840986 1.0073352 1.0012158
000070 5d 95 7c 3f bb a1 7f 3f 4f c7 7b 3f 87 17 81 3f
       0.9866541 0.99856156 0.98350996 1.0085305

decoders.0.decoder_net.6.bias f4 [32]
000000 72 6d 6f bc b7 9c 66 3c 75 27 51 bc 05 95 3a bc
       -0.014613496 0.01407545 -0.012765755 -0.011388068
000010 87 78 8f 38 cb 55 4b bc 70 24 84 bc a9 8a 81 3c
       6.841221e-05 -0.012410591 -0.016130656 0.015813189
000020 d6 f3 84 bc 44 99 f9 ba f5 bd 02 bc 0e a6 72 bb
       -0.016229551 -0.0019042869 -0.00797986 -0.0037025246
000030 38 89 5a 3c 2d 75 e7 bb 73 27 2d bb e0 8f 14 bc
       0.01333838 -0.007063529 -0.0026421219 -0.009067506
000040 ff dc 87 bc f0 79 85 3c e1 f8 7c bc 27 4f 4f bc
       -0.016584871 0.016293496 -0.015440197 -0.012653149
000050 79 93 7a bc a6 03 90 3b 99 71 5a 3c 8b 72 89 bc
       -0.015293949 0.004394966 0.013332748 -0.016778251
000060 85 41 4f bc 72 2f 14 3c bc f0 78 3c 8d 8c b8 3b
       -0.012649898 0.009044515 0.015194114 0.0056319893
000070 f9 28 c7 3b 92 0f 4f 3b e4 71 bc 3b fe 0c 3f bc
       0.0060778824 0.0031594974 0.0057508815 -0.011660812

decoders.0.decoder_net.6.running_mean f4 [32]
000000 5a c7 f3 3d 5a c7 f3 3d 5a c7 f3 3d 5a c7 f3 3d
       0.11903258 0.11903258 0.11903258 0.11903258
000010 5a c7 f3 3d 5a c7 f3 3d 5a c7 f3 3d 5a c7 f3 3d
       0.11903258 0.11903258 0.11903258 0.11903258
000020 5a c7 f3 3d 5a c7 f3 3d 5a c7 f3 3d 5a c7 f3 3d
       0.11903258 0.11903258 0.11903258 0.11903258
000030 5a c7 f3 3d 5a c7 f3 3d 5a c7 f3 3d 5a c7 f3 3d
       0.11903258 0.11903258 0.11903258 0.11903258
000040 5a c7 f3 3d 5a c7 f3 3d 5a c7 f3 3d 5a c7 f3 3d
       0.11903258 0.11903258 0.11903258 0.11903258
000050 5a c7 f3 3d 5a c7 f3 3d 5a c7 f3 3d 5a c7 f3 3d
       0.11903258 0.11903258 0.11903258 0.11903258
000060 5a c7 f3 3d 5a c7 f3 3d 5a c7 f3 3d 5a c7 f3 3d
       0.11903258 0.11903258 0.11903258 0.11903258
000070 5a c7 f3 3d 5a c7 f3 3d 5a c7 f3 3d 5a c7 f3 3d
       0.11903258 0.11903258 0.11903258 0.11903258

decoders.0.decoder_net.6.running_var f4 [32]
000000 56 67 2c 3e 46 0c 2c 3e 18 15 2c 3e 69 3b 2c 3e
       0.16836295 0.16801557 0.16804922 0.16819538
000010 d7 3a 2c 3e d9 79 2c 3e e8 66 2c 3e e3 4e 2c 3e
       0.1681932 0.16843356 0.1683613 0.16826968
000020 99 1e 2c 3e ff 30 2c 3e 88 50 2c 3e 9c 45 2c 3e
       0.16808547 0.16815566 0.16827595 0.16823429
000030 21 5d 2c 3e 55 79 2c 3e 8c 4e 2c 3e 53 55 2c 3e
       0.16832401 0.1684316 0.16826838 0.16829424
000040 10 01 2c 3e a1 1c 2c 3e 7a a7 2c 3e fd 59 2c 3e
       0.1679728 0.16807796 0.16860762 0.16831203
000050 67 75 2c 3e 16 6c 2c 3e 80 30 2c 3e 99 a5 2c 3e
       0.1684166 0.16838107 0.16815376 0.16860045
000060 96 e9 2b 3e 0b 56 2c 3e 5e 5b 2c 3e 4c 76 2c 3e
       0.16788325 0.16829698 0.16831729 0.16842002
000070 5a b5 2c 3e a1 0d 2d 3e 90 17 2c 3e 3d c5 2b 3e
       0.16866055 0.1689973 0.16805863 0.16774459

decoders.0.decoder_net.7.weight f4 [32, 16, 3, 3]
000000 38 30 54 3c 5c 98 c0 bb 53 9f 3e 3d c6 ae 7f 3d
       0.012950949 -0.0058775377 0.046538662 0.062422536
000010 39 8b 01 bd 24 98 cb 3c b8 8c 6b bd a4 37 df ba
       -0.031626914 0.02485282 -0.057507247 -0.0017030132
000020 8a b4 87 3d 65 97 a3 bc 84 d3 83 3d 2a bf b9 bb
       0.06626232 -0.019969651 0.06436828 -0.0056685405
000030 62 56 30 3d 39 43 47 bd ee 52 a9 3c a8 2c 47 3d
       0.04305113 -0.048648093 0.020669427 0.048626572
000040 3f 02 5b bd 6f c9 52 bd d8 f7 6d bd 8f 09 92 bd
       -0.05346894 -0.051461633 -0.05809769 -0.071307294
000050 d1 a7 75 3d a9 6a af 3c e2 01 59 bd 69 75 3f bc
       0.059974495 0.021413164 -0.05298031 -0.011685708
000060 7a b0 8a bd 63 5e a8 bc 62 89 30 3d cf 2b d1 bc
       -0.067719415 -0.02055282 0.04309977 -0.025533585
000070 f4 4a bd bd 36 81 e7 bc de 6f 90 3d 41 94 44 bd
       -0.09242812 -0.028259855 0.07052587 -0.04799295
000080 b2 a3 9f bc 8e 41 01 bd 14 7c 55 3c 83 e3 a0 3c
       -0.019487236 -0.03155666 0.013030071 0.019639736
000090 7f 65 57 bd 47 1d 90 bd d7 88 c4 bc d0 a8 11 bd
       -0.05258703 -0.07036834 -0.023991032 -0.035561383
0000a0 ad 09 8e 3c b3 ac 43 bd d5 91 86 bd 7e 44 fe bb
       0.017338598 -0.04777212 -0.06570784 -0.0077596297
0000b0 d5 69 16 3b e5 7f b9 3d 67 d6 46 bd bc f9 f0 3c
       0.0022951264 0.09057597 -0.048544314 0.029415958
0000c0 48 f1 9f 3d fb 66 fe 3c f6 58 8b 3d fe 45 55 3d
       0.078096926 0.031054964 0.06804077 0.052068703
0000d0 0f 61 32 bd 9b f3 a7 bc ff 7b 1b 3d c0 d9 80 3b
       -0.043549594 -0.020501902 0.03796005 0.003932208
0000e0 88 75 56 3d 32 6a 95 3d e9 ea 36 3d 25 bb 5b bd
       0.05235818 0.07295646 0.04465762 -0.05364527
0000f0 a0 b7 7e 3c c9 0c 71 bd cf f3 22 3d 18 f1 03 3d
       0.015546709 -0.058850084 0.039783295 0.032212347
000100 7e 6a 22 bc e0 41 0e 3d 63 1a b8 3d f7 38 3d bd
       -0.009913085 0.034730792 0.08989408 -0.046196904
000110 24 30 11 bd 58 25 3f bd 87 15 98 3d 3e c3 15 3d
       -0.0354463 -0.046666473 0.07425981 0.03656315
000120 a1 40 e4 bc ba 36 f1 3c a6 ec 38 bd 22 cc a6 bd
       -0.027862849 0.029445041 -0.04514756 -0.08144404
000130 56 2d 3a 3d 7f ca de bb 95 30 25 bd 28 8a a3 bd
       0.045453392 -0.0067990418 -0.040329535 -0.079853356
000140 d8 67 fa bc c5 79 78 bc e8 4c d6 bc 4a e0 5d 3d
       -0.030567095 -0.015165751 -0.026159719 0.054168977
000150 ab 3a bb 3c 72 62 82 bd 89 ae 36 bc ee 63 4a 3d
       0.022855124 -0.06366433 -0.011150011 0.049411707
000160 c6 34 6b 3d f0 d8 a9 bc 7a 8e db 3c f8 a8 48 3d
       0.057423376 -0.020733327 0.026801337 0.048989266
000170 05 83 00 bd 64 22 6a 3a 92 62 a6 3c 6c c9 f8 3b
       -0.03137495 0.0008931516 0.020310674 0.0075923707
000180 89 25 44 bd d3 78 70 3c e1 e0 75 bd af e0 93 bd
       -0.04788736 0.014677244 -0.060028914 -0.07220589
000190 d4 ca 13 bd 5c 04 e0 bc 75 fa a9 bd 74 94 98 bd
       -0.036082104 -0.027345829 -0.08299724 -0.0745019
0001a0 f4 23 56 bd 3c ca 22 3d 62 7b 93 3d 2f 60 b7 3d
       -0.05228038 0.039743647 0.07201268 0.089538924
0001b0 64 6c 91 3c e2 d5 3f 3d ba cc 2e 3b 12 7a 35 3d
       0.01775188 0.046834834 0.002667232 0.04430587
0001c0 9f 6c 5d 3d ca d3 e9 bc 3c f7 d8 3c e2 9c 5e bd
       0.054058667 -0.028543372 0.026485078 -0.054348834
0001d0 ae 77 6f 3d 5f b1 b2 3d 8f ef 3b bd 4a 32 6c bd
       0.058463745 0.08725237 -0.045882758 -0.057665147
0001e0 fa 51 9a 3d 8d 44 34 bc db 46 09 bd d9 82 5b 3b
       0.07535167 -0.011002672 -0.03351484 0.003349474
0001f0 6b 2e 2b bc 41 75 90 bd c6 fc a4 bd 6f 08 65 3d
       -0.010448079 -0.070536144 -0.08056025 0.055916246
000200 bd 3f 59 3c 77 61 89 3d 5f 2f 72 3d 15 f4 d2 bc
       0.013259825 0.06708043 0.059127208 -0.025751153
000210 cd f6 80 bd 28 a9 0d bd d7 c6 17 bd 9f 2f 06 bd
       -0.062970735 -0.034585148 -0.037054863 -0.03276026
000220 8a 9f 28 3d db 0a 99 3d 5e 83 96 3d 1e 5f 67 3c
       0.041167773 0.07472774 0.07349275 0.014121799
000230 f0 03 53 bd 68 a6 85 bd 52 f7 8a 3d 37 a0 94 3d
       -0.051517427 -0.0652588 0.06785454 0.07257121
000240 2c 95 30 3d 19 87 41 bd 40 26 65 3d 5a 70 03 3c
       0.04311101 -0.04724798 0.05594468 0.008022392
000250 a3 c9 5c 3d e3 91 8b 3d cb 1a 2a 3c b6 18 a8 3c
       0.053903233 0.06814935 0.0103823645 0.020519596
000260 3e a2 7a 3d 16 65 86 3c 6c 0d cd bc f6 36 e3 bc
       0.061189882 0.016405623 -0.025030814 -0.027736168
000270 77 2b 3d 3d 52 6e 02 3d 15 92 9c bd 40 92 11 3b
       0.04618403 0.03184349 -0.076450504 0.0022212416
000280 85 ca c5 bb 6f 84 74 bd fa 6c 96 bd 94 a5 34 bd
       -0.006036105 -0.05969661 -0.073450044 -0.04410322
000290 70 29 9f bc 8b 6a f2 bc b7 25 63 bb d1 d1 aa bd
       -0.019428939 -0.02959182 -0.003465993 -0.083408006
0002a0 96 08 1a bd 94 2a cd 3c e3 a9 28 bd 7b 12 24 3d
       -0.037605844 0.025044717 -0.04117764 0.040056687
0002b0 f3 50 09 bb 5f 15 31 3d 62 2d 18 bd 70 1e 4a 3d
       -0.002095279 0.04323327 -0.037152655 0.049345434
0002c0 0e 32 3b bd f1 02 48 bd 98 40 b6 3c 8f 3f 82 bd
       -0.045702033 -0.04883093 0.022247598 -0.06359779
0002d0 5b 4f a6 3d 8c 29 81 3d bc af f3 3c 9c bb 93 3d
       0.081206046 0.063067526 0.029746883 0.07213518
0002e0 d5 07 8c 3d b8 af 50 3d dc 76 41 bd ae 69 4b bd
       0.06837431 0.05094883 -0.047232494 -0.04966133
0002f0 28 23 db bc 6e 60 23 3d 80 b3 c3 3b f0 8b b9 3b
       -0.026750162 0.039886884 0.005972326 0.005662434
000300 f6 16 36 3d f3 00 cb bc a1 3e 97 3d 75 51 4b 3d
       0.04445549 -0.024780726 0.073849924 0.04963823
000310 8f 83 1a 3d 3a 0e 80 bd fd f2 63 bc 18 70 1a 3d
       0.03772312 -0.062527135 -0.013912913 0.037704557
000320 7d df f1 bc a0 07 59 bd b3 88 93 3d 81 15 0c 3d
       -0.029525513 -0.052985787 0.07203808 0.034200195
000330 c4 5b 9f 3d e1 85 54 3c 2e 96 17 bc 12 36 91 3d
       0.07781175 0.012971372 -0.009252114 0.07090391
000340 41 b9 16 bd 0c a4 15 3d 28 a2 8a bd 8e 40 2f bd
       -0.036797766 0.0365334 -0.0676921 -0.042786174
000350 c4 a3 5f 3d 1d 03 99 bd 11 f4 ca 3b 96 41 bc bc
       0.05459954 -0.07471297 0.0061936458 -0.022980493
000360 54 77 ae bd 14 33 98 3d ae c3 81 3d 09 ee b6 3b
       -0.08518854 0.074316174 0.06336151 0.005582575
000370 54 bd 26 3a b9 cd 78 bd 0d 9f 1b bd a8 67 17 3d
       0.00063606096 -0.060743067 -0.03799348 0.03696409
000380 89 f2 3c bd 89 e1 a2 bc 73 df 1d bd a2 91 00 3d
       -0.046129737 -0.019882934 -0.038543176 0.031388886
000390 1f 4c 3b 3c 37 d7 25 3d e4 70 3e 3d 12 76 90 bd
       0.011431723 0.040488448 0.04649438 -0.0705377
0003a0 5e 96 ac bc 7e f2 30 3d 7c 59 8b 3d de 66 5f b8
       -0.021067794 0.04320001 0.06804177 -5.3263146e-05
0003b0 f6 90 02 bd 86 ff 95 3c 18 35 f8 bc bd 05 d4 bc
       -0.031876527 0.01831032 -0.030298755 -0.025881642
0003c0 2a 6c c4 3c 8b ee b0 bb 01 a7 06 bd 4f 6b 3c 3c
       0.023977358 -0.0053995303 -0.03287411 0.011500194
0003d0 fa 63 06 3c 8b 06 59 3d d9 a2 af 3b e5 53 87 3d
       0.008202547 0.052984755 0.005359989 0.066077985
0003e0 26 51 59 3d b1 fe 49 3d 8f 27 53 3b 59 54 35 3d
       0.053055905 0.04931516 0.0032219624 0.044269893
0003f0 0b fb c0 bb a8 60 be 3c 6d 69 ba 3d 3a 38 1c 3c
       -0.0058893017 0.023239449 0.091021396 0.00953489

decoders.0.decoder_net.7.bias f4 [16]
000000 1d 49 3c 3d da 66 25 bd d3 dc 5e bc 42 2c a2 3d
       0.045968164 -0.04038129 -0.013602453 0.07918598
000010 e5 8e 43 bc b5 ce 51 bc 11 1d e9 bc 89 8c 90 3d
       -0.011935924 -0.01280563 -0.028456243 0.07058055
000020 01 c8 c5 3c 3c ef 7e bd 27 aa 33 bd 50 a9 7b 3d
       0.02414322 -0.06223987 -0.04386344 0.061440766
000030 30 09 14 bd 71 81 d9 bc ce bc 80 3d 04 32 2d bd
       -0.036141574 -0.02655098 0.06286012 -0.042284027

decoders.0.decoder_net.9.weight f4 [16]
000000 af 58 7c 3f 5d 77 7c 3f 0d 72 7c 3f f6 6c 7c 3f
       0.9857282 0.98619634 0.9861153 0.9860376
000010 cf 8e 7c 3f 40 80 7c 3f 5c 9d 7c 3f 35 24 7d 3f
       0.9865541 0.98633194 0.9867761 0.9888337
000020 a1 d2 7c 3f 2a 90 7c 3f 4b bf 7c 3f d5 8c 7c 3f
       0.98758894 0.98657477 0.9872939 0.9865239
000030 9d 59 7c 3f 93 9f 7c 3f be 05 7d 3f e3 ce 7c 3f
       0.9857424 0.9868099 0.98836887 0.98753184

decoders.0.decoder_net.9.bias f4 [16]
000000 df 53 89 bc 1b 3c 8a 3c 10 0f 89 bc 49 d3 89 3c
       -0.016763626 0.016874364 -0.016730815 0.016824381
000010 6b 55 b9 bb ee d1 8a 3c fd f0 89 3c 31 d0 89 3c
       -0.0056559346 0.016945805 0.016838545 0.016822906
000020 d1 ba 89 bc 3e 09 62 3b 9e 5f 89 bc 3f 2d 8a 3c
       -0.016812714 0.0034490372 -0.016769227 0.016867278
000030 85 01 8a bc 61 67 89 3c b3 09 8a bc 2d 1d 8a bc
       -0.016846428 0.016772928 -0.016850328 -0.016859615

decoders.0.decoder_net.9.running_mean f4 [16]
000000 5a c7 73 3d 5a c7 73 3d 5a c7 73 3d 5a c7 73 3d
       0.05951629 0.05951629 0.05951629 0.05951629
000010 5a c7 73 3d 5a c7 73 3d 5a c7 73 3d 5a c7 73 3d
       0.05951629 0.05951629 0.05951629 0.05951629
000020 5a c7 73 3d 5a c7 73 3d 5a c7 73 3d 5a c7 73 3d
       0.05951629 0.05951629 0.05951629 0.05951629
000030 5a c7 73 3d 5a c7 73 3d 5a c7 73 3d 5a c7 73 3d
       0.05951629 0.05951629 0.05951629 0.05951629

decoders.0.decoder_net.9.running_var f4 [16]
000000 33 c5 2b 3e db a5 2b 3e 0b 99 2b 3e a5 a4 2b 3e
       0.16774444 0.16762488 0.167576 0.16762026
000010 d6 aa 2b 3e 8e e2 2b 3e 18 1c 2c 3e c4 ba 2b 3e
       0.16764387 0.16785643 0.16807592 0.16770464
000020 df a7 2b 3e c5 72 2b 3e 68 88 2b 3e 8f e2 2b 3e
       0.16763256 0.16743 0.16751254 0.16785644
000030 1b b0 2b 3e 96 8c 2b 3e 08 a2 2b 3e 32 3a 2c 3e
       0.16766398 0.16752848 0.16761029 0.16819075

decoders.0.decoder_net.10.weight f4 [16, 1, 3, 3]
000000 a9 46 40 be 81 81 9e be 3f f2 84 bc 5e 3a 5a be
       -0.18776955 -0.3095818 -0.016228793 -0.21311328
000010 b6 99 87 3e e0 76 af 3d d1 1a 15 be 22 ca c5 bd
       0.2648446 0.085675955 -0.14561011 -0.096576944
000020 42 d8 93 be da 5a 8c 3e 82 66 8c 3e 78 7f 1c be
       -0.2887593 0.27413064 0.27421957 -0.15283
000030 8b ac 26 3e 29 c2 f1 bc 24 b9 52 3e e0 eb 89 be
       0.16276757 -0.029511528 0.20578438 -0.2693777
000040 d9 98 13 3c 65 fa b1 bd fb 58 6f be 2f 48 6e be
       0.00900861 -0.08690337 -0.23373787 -0.23269723
000050 91 b1 37 be de 5f 1f 3e b3 43 30 3e ab 70 49 3e
       -0.1793883 0.15563914 0.17213325 0.19671886
000060 21 1e 93 be 80 77 1b 3e a4 ec 29 bc 11 c6 1b bd
       -0.28733924 0.15182304 -0.010371361 -0.038030688
000070 1d 31 36 3e 97 4d 8c bd c5 2b 87 3e 99 e6 c3 3d
       0.17792173 -0.068507366 0.2640058 0.095654674
000080 f9 89 6e be 0d d2 36 3e 64 ba be bd 9e d0 75 bd
       -0.2329482 0.17853566 -0.09312895 -0.060013406
000090 b1 5f 88 3d d2 1c 5c be 38 33 20 be a6 cf 3c 3e
       0.06658877 -0.21495369 -0.15644538 0.18438587
0000a0 89 0c f5 bd a9 77 2d 3d 21 a5 67 3e a7 98 4f 3e
       -0.119652815 0.042350445 0.22621585 0.20273076
0000b0 66 ec 5e be fe d4 ea bc 4c ee 3f be 0a e6 45 3e
       -0.21769866 -0.028666016 -0.18743247 0.19326034
0000c0 e5 9f 9c 3e e3 f0 1f 3e 9f 42 9b be bf 1d b9 bd
       0.3059074 0.15619235 -0.30324265 -0.09038877
0000d0 d1 30 1f bb 0e 71 a3 3d 5c 82 99 3c 51 4d 5c 3e
       -0.0024290571 0.07980548 0.018738918 0.21513869
0000e0 58 85 8f be 64 99 f7 3d b9 93 e7 3d 50 f8 a0 3e
       -0.2803142 0.12089804 0.11307473 0.31439447
0000f0 de 9b 80 be d5 db 2d bd 95 31 8c 3e 0a f0 95 3e
       -0.25118917 -0.042445976 0.27381578 0.29284698
000100 62 17 a4 3e b0 13 47 be 50 25 2a be 8a 78 76 bd
       0.3204909 -0.19441104 -0.16615796 -0.06017355
000110 96 30 a8 3d a1 d6 3b be d3 98 11 3d d9 96 9f bd
       0.08212392 -0.18343593 0.035546135 -0.07792444
000120 bf 31 4a 3e 0e 65 07 3e 3e 5f 0f bd 2a 95 4a be
       0.19745539 0.13222143 -0.03500294 -0.19783464
000130 f0 55 50 3d c9 31 45 be 0a 7b 25 3e a0 bb 80 bc
       0.050863206 -0.19257273 0.16160217 -0.015714467
000140 4d da 5b be 9c 9c aa 3c 57 e8 29 be 65 86 a1 3d
       -0.21469994 0.02082663 -0.16592537 0.07886962
000150 d8 e2 3f 3e 10 22 2a be 2a 61 93 be 7a 9d 7a 3e
       0.18738878 -0.16614556 -0.28785068 0.24474135
000160 e3 37 3f 3e 9a 95 85 bd eb bb 9f be 7a 03 0e bd
       0.18673663 -0.06522675 -0.31198058 -0.034671284
000170 06 0d 5f be 11 1a 62 be c4 01 47 3e 1a cc 58 bc
       -0.21782312 -0.22080256 0.19434267 -0.013232255
000180 39 71 7c be ff 5a 8a bd 19 79 e4 bd 28 53 82 3e
       -0.24652566 -0.067556374 -0.1115591 0.25454068
000190 26 45 25 be 50 02 9e bd 51 97 78 3e 93 f7 50 3e
       -0.1613966 -0.07715285 0.24276473 0.20406942
0001a0 fa a0 4f 3e a5 8e 0e be 29 ae 5b 3e 37 c0 c8 bd
       0.20276251 -0.13921602 0.21453156 -0.09802287
0001b0 18 1a f6 3d c5 a4 40 bd 4a 5c 0c be ca 35 d9 bb
       0.12016696 -0.047032136 -0.1370708 -0.0066287266
0001c0 6e 48 93 be 3f 42 87 3e 07 1e 92 be ac 2f 1d bd
       -0.28766197 0.2641773 -0.28538534 -0.03837554
0001d0 b8 7d 7b be 71 2c cb 3d 5e 83 9e be 18 60 5c 3d
       -0.24559677 0.09920586 -0.309596 0.05380258
0001e0 2c 2a 3d 3d f3 a7 36 3e 3a c4 05 3e e6 a4 a2 3d
       0.046182796 0.17837505 0.13063136 0.07941608
0001f0 db eb 52 bd 89 7c 1b 3e f9 1e 57 3e 3a 3f 80 be
       -0.05149446 0.15184225 0.21007909 -0.25048238
000200 f9 e7 9e 3d 0f 1c 7f bd 21 76 68 bd 0e 80 ea bd
       0.07759089 -0.062282618 -0.05675328 -0.11450206
000210 2b c8 9c 3e 00 58 5e bd 0c cb 38 be e8 ea a0 bd
       0.30621466 -0.054283142 -0.18046206 -0.07857305
000220 91 38 06 be 09 a6 48 be 19 ab 8f be 5e 85 a2 be
       -0.13107516 -0.19594587 -0.28060225 -0.31742376
000230 da 27 3d be d6 d1 88 3e cf 66 9b be 97 5f 89 3d
       -0.18472233 0.26722592 -0.30351874 0.067076854

encoder.encoder_net.0.weight f4 [16, 1, 3, 3]
000000 3a 9d 4d 3d 8b 49 49 3e 10 bb 2b 3e 12 68 1e be
       0.05019877 0.1965696 0.16770577 -0.15469387
000010 65 a1 a5 bc 10 c3 58 3e 85 f1 30 3e 3b 4d 27 be
       -0.02021856 0.2116816 0.17279632 -0.16338055
000020 1c f3 48 3e ad d0 69 3c d7 7d 8d 3e 88 ef 7c 3e
       0.19623989 0.014270944 0.2763507 0.24700749
000030 03 68 84 be 8a ee 15 be 84 7d 3a 3e 57 2d 53 3e
       -0.25860605 -0.14641777 0.18211943 0.20622765
000040 f4 ad ea 3d 95 02 7f be f0 58 13 bd ab bb 26 be
       0.1145896 -0.24903329 -0.03597349 -0.16282527
000050 98 bd 79 be a0 dc 28 3e 3e 3b 08 3e 5a 56 1e 3d
       -0.2438873 0.16490412 0.13303849 0.03865657
000060 d7 cf 23 3d a5 b7 8c 3e be 88 8a be e4 2b 17 bd
       0.039993133 0.2748386 -0.2705745 -0.03690709
000070 bc cc 1f 3d ec 3c 7c be fa d7 dd bc ee 5c a5 3d
       0.03901361 -0.24632615 -0.027080525 0.080743656
000080 79 be b1 bd 7e 81 e0 bc 04 52 69 be c7 1a 9d 3e
       -0.08678908 -0.027405497 -0.22785193 0.30684492
000090 59 9c 99 be 06 22 06 3d da 31 4a be 4f 0e 68 be
       -0.30002096 0.03274729 -0.1974558 -0.22661708
0000a0 be 9c e2 bc 0d a7 39 3e 95 33 47 bd e4 50 62 3e
       -0.027662631 0.18130131 -0.048633177 0.2210117
0000b0 70 13 1a 3e 1c 67 eb bd 93 3c 83 be 16 db 6b 3e
       0.15046477 -0.11494276 -0.25632152 0.23032793
0000c0 9f 3f 2a be d8 4b 90 3c e9 20 2f be 2d e1 19 bd
       -0.16625832 0.01761429 -0.17102398 -0.03756826
0000d0 76 bd a9 bc 8e 62 a6 3d b6 7f 15 be 22 cb ef bd
       -0.020720225 0.081242666 -0.14599499 -0.117086664
0000e0 a6 69 e5 3b 1f 91 a5 3e 9a 32 8d be 27 8f 09 3e
       0.0070011197 0.3233728 -0.27577668 0.13433515
0000f0 53 22 a6 be de f2 00 be 55 7d 82 bd 5f af 8f 3e
       -0.32448062 -0.12592646 -0.063715614 0.28063485
000100 f8 e0 ff 3c 8a 37 13 be 82 d8 5b be 4d 00 b9 bd
       0.031235203 -0.14376655 -0.2146931 -0.090332605
000110 60 3e ca 3d e0 7e 02 3d 7b ee a4 3e 78 2f 0b 3c
       0.09875178 0.03185928 0.32213196 0.008495204
000120 9b d2 e5 3c cd aa e3 bd 09 55 7f be b6 e6 5c bd
       0.028054526 -0.11116562 -0.24934782 -0.05393096
000130 7f ae 5f bd 3c 3c 1d be 87 8d 3b 3e ab bd 6d be
       -0.05460977 -0.15355009 0.18315707 -0.23216884
000140 82 ea cd 3d 21 04 39 3e f2 34 83 3e 5b 15 9c 3e
       0.100544944 0.18067981 0.25626332 0.30485043
000150 d6 ee 2d bd 3b 0c 88 3e f2 ef 79 be d3 4b ae 3d
       -0.0424641 0.2657183 -0.24407938 0.08510556
000160 29 08 29 be d4 8d 20 3e 37 fe 43 3e 80 46 98 3e
       -0.16507019 0.15679103 0.19139944 0.29741287
000170 de 45 cf bd c7 e5 2c 3d c3 de 71 3e c3 05 aa 3e
       -0.10120748 0.04221132 0.23620133 0.3320752
000180 f4 db ed bd 16 1b 58 bd 0b be dc bd bf b7 97 be
       -0.11614218 -0.052760206 -0.10778435 -0.29632375
000190 80 29 ae be 7f 57 ba bd dc 27 a9 bc 2d 8e 68 3d
       -0.34016037 -0.0909872 -0.02064889 0.056776214
0001a0 0a 06 69 be 57 78 3b 3e f9 e9 4b 3e 7b d1 58 be
       -0.2275621 0.18307625 0.19913472 -0.2117366
0001b0 fa 5d a8 be 22 19 0b 3d e6 ff 6a bd 89 e7 19 bc
       -0.32884198 0.033959515 -0.05737295 -0.009393581
0001c0 3d c6 9b bd f1 e2 15 bc b5 38 1b be 25 fc 25 3d
       -0.0760617 -0.009148345 -0.15158351 0.040523667
0001d0 42 ec 87 3e 96 61 29 be 2e d6 a7 be b8 a3 a9 be
       0.26547438 -0.16541132 -0.32780594 -0.3313272
0001e0 d6 d7 72 3e 33 1c 53 be c1 30 17 3e fb 22 c7 bd
       0.23715147 -0.20616226 0.14764692 -0.09723469
0001f0 a3 78 79 bc 7b 8b a6 3e 8d fa ad bd cb 5f 48 3e
       -0.015226516 0.3252829 -0.084950544 0.19567792
000200 3f 86 cb bd 77 5c fb bd 91 d5 89 be 8f 91 52 3e
       -0.09937715 -0.12273496 -0.2692075 0.20563339
000210 c2 02 36 3d 29 02 87 bd 40 b4 34 be 91 bb 00 3e
       0.044436224 -0.06592209 -0.17646885 0.12571551
000220 11 21 2a 3e c0 ae 29 be 2e 60 02 bc a8 3d 92 bd
       0.16614176 -0.16570568 -0.007957501 -0.07140666
000230 0b f4 88 3d a4 d2 57 be 5d 10 33 be b9 9b cf 3d
       0.066871725 -0.21076447 -0.17486711 0.101371236

encoder.encoder_net.0.bias f4 [16]
000000 a4 75 96 be df b3 14 be 82 dc 47 bd bc f4 e2 bd
       -0.29386628 -0.1452174 -0.048794277 -0.11081836
000010 02 35 fb bd 92 20 0b 3d f3 c8 ef 3b 7a 6b e9 bc
       -0.1226597 0.03396661 0.007317656 -0.028493632
000020 0d 6c 5f 3e a3 85 63 3d 6c 88 70 be 49 a4 8e be
       0.21818562 0.055547368 -0.23489541 -0.27859715
000030 6d 2c 50 bd 2b 7f 8c be 00 ef 84 3e a7 7b e8 3d
       -0.050823618 -0.2744077 0.25963593 0.1135171

encoder.encoder_net.2.weight f4 [16]
000000 81 b5 80 3f a4 37 80 3f 8c 92 7f 3f 1c 71 81 3f
       1.0055391 1.001698 0.9983299 1.0112643
000010 fc aa 7d 3f 62 b2 7f 3f 5a 70 7f 3f 1a 82 80 3f
       0.99089026 0.99881566 0.9978081 1.0039704
000020 7e 7f 81 3f ec 17 7e 3f 04 0e 7e 3f 88 65 7f 3f
       1.0117033 0.9925525 0.99240136 0.997643
000030 8c 19 80 3f 88 f3 7e 3f 46 92 7f 3f cb 3c 7e 3f
       1.0007796 0.9959035 0.9983257 0.9931151

encoder.encoder_net.2.bias f4 [16]
000000 5b bd 57 bc 37 ca d7 3b eb cf 1f 3c a9 df e6 3b
       -0.013167704 0.006585385 0.009754161 0.0070457053
000010 a3 74 29 bc fe e9 36 bb 1f 99 40 3c e8 b4 64 bc
       -0.01034275 -0.0027910466 0.011755257 -0.013959147
000020 63 0d d0 bb 3a 35 d4 3b 7c 5e be bb 80 d6 80 bc
       -0.006349252 0.0064760717 -0.0058096033 -0.015727282
000030 b9 60 4c bc 8e 25 e2 3b 2e c2 49 3c 3b 60 60 bc
       -0.012474232 0.0069014495 0.012314362 -0.013694818

encoder.encoder_net.2.running_mean f4 [16]
000000 71 a8 78 3d 71 a8 78 3d 71 a8 78 3d 71 a8 78 3d
       0.060707513 0.060707513 0.060707513 0.060707513
000010 71 a8 78 3d 71 a8 78 3d 71 a8 78 3d 71 a8 78 3d
       0.060707513 0.060707513 0.060707513 0.060707513
000020 71 a8 78 3d 71 a8 78 3d 71 a8 78 3d 71 a8 78 3d
       0.060707513 0.060707513 0.060707513 0.060707513
000030 71 a8 78 3d 71 a8 78 3d 71 a8 78 3d 71 a8 78 3d
       0.060707513 0.060707513 0.060707513 0.060707513

encoder.encoder_net.2.running_var f4 [16]
000000 82 cd 19 3e c3 c4 19 3e 78 bc 19 3e ac b8 19 3e
       0.15019801 0.15016465 0.15013301 0.15011853
000010 54 c8 19 3e 18 c0 19 3e ea c4 19 3e 0e ba 19 3e
       0.15017825 0.15014684 0.15016523 0.1501238
000020 41 c4 19 3e c3 e1 19 3e e8 e1 19 3e 5d d1 19 3e
       0.15016271 0.15027528 0.15027583 0.15021272
000030 ed c0 19 3e d3 ce 19 3e cf b9 19 3e 68 b9 19 3e
       0.15015002 0.15020303 0.15012287 0.15012133
