miniproject2/experiments/ensemblyVAE/modelSeed973nD3.pt (torch, 287219 bytes, 75 tensors)

prior.mean f4 [2]
0	0x00000000	0.0
1	0x00000000	0.0

prior.std f4 [2]
0	0x3f800000	1.0
1	0x3f800000	1.0

decoders.0.decoder_net.0.weight f4 [512, 2]
0	0xbf07ca8d	-0.5304344
1	0x3f2b798b	0.66982335
2	0x3cd9e8b1	0.026600214
3	0x3ed9cafb	0.42537674
4	0xbeefc6c8	-0.46831346
5	0xbf28c552	-0.65926087
6	0x3f1b0244	0.6055033
7	0xbcfb153a	-0.03064977
8	0x3f145415	0.579408
9	0xbf13016b	-0.5742404
10	0xbc98eb6d	-0.018666947
11	0xbedbc3c6	-0.429228
12	0x3e0d36fb	0.13790505
13	0xbeef60d7	-0.4675357
14	0xbe872863	-0.26398
15	0xbe58e2c4	-0.21180254
16	0x3f18c3f7	0.5967402
17	0xbe4a6702	-0.19765857
18	0x3f009bba	0.5023762
19	0xbe8869b1	-0.26643136
20	0xbe6244f5	-0.22096618
21	0x3ee203f9	0.44143656
22	0x3f103fb0	0.5634718
23	0xbe8686e0	-0.26274776
24	0x3f2c4d1b	0.67305154
25	0xbea9c627	-0.3315899
26	0x3f268454	0.65045667
27	0xbecff655	-0.40617624
28	0x3e9bbbf0	0.30416822
29	0x3d23a830	0.039955318
30	0xbee43d0e	-0.4457783
31	0x3df77d61	0.12084461
32	0x3f13e6c2	0.57773983
33	0xbf01cb55	-0.50700885
34	0xbed77748	-0.42083192
35	0x3f05388c	0.5203941
36	0xbe25a6ca	-0.16176906
37	0xbf073c92	-0.528268
38	0xbec693fe	-0.38784784
39	0x3e65d31b	0.22443812
40	0xbeff3224	-0.49842942
41	0x3e61bb32	0.22044066
42	0xbe0b34a5	-0.13594301
43	0xbf2399b5	-0.63906413
44	0x3f09e0ac	0.5385845
45	0xbf2e93de	-0.6819438
46	0xbe18471d	-0.14870878
47	0xbd77e271	-0.060518686
48	0xbeb8de7f	-0.3610725
49	0x3ec4e22a	0.384538
50	0x3f1673c8	0.5877042
51	0x3f5e3ec8	0.86814547
52	0x3ed33aeb	0.41255888
53	0x3dbc6bb7	0.092002325
54	0xbd126ecb	-0.03575019
55	0xbeaa88ca	-0.33307487
56	0xbe0f37c4	-0.13986117
57	0x3f196d04	0.5993197
58	0x3e33b689	0.175501
59	0xbf1dc789	-0.6163259
60	0x3f42f8e1	0.7616101
61	0xbe921520	-0.28531742
62	0xbeec1ded	-0.46116582
63	0x3f352818	0.70764303
64	0xbed66a55	-0.41878
65	0x3dd6fda4	0.10497597
66	0x3e9ba1cc	0.3039688
67	0x3ec064ac	0.37576807
68	0x3f597aa9	0.8495279
69	0xbed43943	-0.41449937
70	0x3f11ace6	0.5690445
71	0xbf1fead2	-0.6246768
72	0xbf25d36b	-0.64775723
73	0x3e97bcbd	0.29636183
74	0x3f0528f1	0.52015597
75	0xbe2af961	-0.16696693
76	0xbe93127c	-0.2872504
77	0x3ee09a1c	0.43867576
78	0xbb839e74	-0.004016692
79	0xbe98e743	-0.2986394
80	0x3b184422	0.002323397
81	0x3df7eebf	0.12106084
82	0x3eb41b2a	0.35176975
83	0x3f4ff648	0.8123517
84	0xbece597b	-0.40302643
85	0xbf44b13a	-0.76832926
86	0xbeffe179	-0.4997671
87	0x3e15fddd	0.14647622
88	0x3d914abc	0.070943326
89	0xbf1cbc1c	-0.6122453
90	0x3f2406ac	0.6407268
91	0xbe0751c7	-0.1321479
92	0xbe6d2ab0	-0.23160815
93	0xbedcc0b0	-0.4311576
94	0xbe6bf63b	-0.23043148
95	0x3f465bff	0.77484125
96	0x3b52c49b	0.0032160643
97	0x3ef93f32	0.48681027
98	0x3f11c89f	0.5694675
99	0x3e7a3843	0.24435525
100	0x3c1f379c	0.009717848
101	0x3e45f176	0.19330391
102	0x3f16b2dc	0.5886667
103	0xbf105922	-0.56386006
104	0x3d0af7f1	0.03392786
105	0x3ebf89f5	0.3740994
106	0xbf0a01ef	-0.539092
107	0xbee56c7f	-0.44809338
108	0x3ec81f52	0.39086396
109	0x3f37fa06	0.7186588
110	0x3e4dba37	0.20090567
111	0xbd047181	-0.03233481
112	0xbdd9d687	-0.10636621
113	0x3dfddfa0	0.12396169
114	0xbec8844e	-0.3916344
115	0xbedff207	-0.4373934
116	0x3f1e7a14	0.61905026
117	0x3f6cd7bf	0.925167
118	0x3f1a595e	0.60292614
119	0xbf21963f	-0.6311988
120	0xbeb43c9c	-0.3520249
121	0xbc323018	-0.010875724
122	0x3f08c329	0.5342279
123	0x3ea6d1b6	0.32581872
124	0x3e9e099a	0.308667
125	0xbfa02110	-1.251009
126	0x3df904d1	0.12159122
127	0x3e239bca	0.15977398
128	0xbef35902	-0.47528845
129	0x3c6f3aab	0.01460139
130	0x3f6be149	0.9214063
131	0xbdd6a96d	-0.10481534
132	0x3fa19e9a	1.2626526
133	0xbf7ceadd	-0.9879587
134	0x3e1684be	0.14699075
135	0x3ccb5b13	0.024823701
136	0xbf16966f	-0.58823293
137	0xbe7cb690	-0.24679017
138	0x3f0c895c	0.54897094
139	0x3eeedf69	0.46654823
140	0xbe4b24f7	-0.1983832
141	0x3f0eb13b	0.5573918
142	0xbf2e40a0	-0.6806736
143	0xbe99e412	-0.30056816
144	0x3ead1845	0.3380758
145	0xbcd1fd59	-0.0256335
146	0xbf37d370	-0.71807003
147	0xbeeff8b4	-0.46869433
148	0xbe3321ce	-0.17493364
149	0x3e83d2b3	0.25746688
150	0x3c6e7bfb	0.014555926
151	0x3edec214	0.43507445
152	0x3f060970	0.5235815
153	0xbe9af353	-0.30263767
154	0xbd82f535	-0.06394426
155	0x3f17b9d9	0.59267956
156	0xbec5a981	-0.38605884
157	0x3f16c362	0.5889188
158	0x3f1bb9b4	0.60830235
159	0x3ed6addd	0.41929522
160	0x3e87be28	0.26512265
161	0x3f02c51f	0.5108203
162	0x3e96108a	0.29309493
163	0x3f21aa9b	0.6315095
164	0xbeae739c	-0.34072578
165	0x3ef43403	0.47695932
166	0xbf284833	-0.6573517
167	0x3cc1531f	0.023599206
168	0xbf08da13	-0.53457755
169	0xbe67ec59	-0.22648753
170	0xbe88cd95	-0.26719347
171	0x3b705fb9	0.003667815
172	0x3d03bc47	0.032161977
173	0x3e7f84e6	0.2495304
174	0xbe81647b	-0.25271973
175	0x3e893ca5	0.2680408
176	0x3f512676	0.8169931
177	0xbeca01d0	-0.39454508
178	0x3f4708d3	0.7774784
179	0xbf18a66c	-0.5962894
180	0xbd68fba2	-0.0568806
181	0x3ec0f1d4	0.376845
182	0x3e87ca31	0.26521447
183	0x3f2c8f5f	0.67406267
184	0x3e8e10bc	0.27747142
185	0x3f1edcc0	0.6205559
186	0xbc3f25f3	-0.011666763
187	0xbf0ed17d	-0.55788404
188	0x3e1fb33c	0.15595716
189	0x3f3aaed0	0.7292299
190	0xbf1512e1	-0.5823193
191	0xbd895d74	-0.06707278
192	0x3e5fabc5	0.21842869
193	0x3f0da451	0.5532885
194	0xbf6a5387	-0.915337
195	0x3b872afa	0.0041249963
196	0xbf079037	-0.5295443
197	0xbefdd0d6	-0.49573392
198	0x3e907ca2	0.28220087
199	0xbeacbe85	-0.33739105
200	0x3e070fc4	0.13189608
201	0xbe9ff432	-0.31240994
202	0x3e21e1b5	0.15808757
203	0xbeb15e84	-0.34642422
204	0x3d1c7251	0.038194958
205	0x3f054da6	0.5207161
206	0xbf19e68a	-0.601174
207	0xbf38c9b9	-0.72182804
208	0x3d3da846	0.046303056
209	0xbc40835b	-0.011750068
210	0xbd87b2d7	-0.06625908
211	0xbf04a799	-0.51818234
212	0xbe4963e0	-0.19667006
213	0xbf35a899	-0.70960385
214	0xbf044bea	-0.51678336
215	0xbf2adc1d	-0.66742116
216	0xbed6a41a	-0.41922075
217	0x3e822fcf	0.254271
218	0xbf14996f	-0.5804662
219	0x3ee1f6f2	0.44133717
220	0x3e9166e5	0.28398815
221	0x3eee9c8a	0.46603805
222	0x3e5e97d2	0.21737602
223	0xbccbc0d7	-0.024872227
224	0xbe1ec01c	-0.15502971
225	0x3c3a0236	0.011353066
226	0x3d4ef0c6	0.05052259
227	0x3df3a495	0.11896626
228	0x3c1ef1c3	0.009701195
229	0x3d9af40e	0.07566081
230	0xbeb9c067	-0.36279604
231	0x3ef40b92	0.47665077
232	0x3f38c9fe	0.72183216
233	0xbf316061	-0.6928769
234	0x3f133135	0.5749696
235	0xbf1fff57	-0.6249899
236	0xbf2185b4	-0.6309464
237	0x3f207d52	0.62691224
238	0x3eed12cd	0.46303406
239	0x3de471f2	0.11154546
240	0xbd9feff6	-0.07809441
241	0x3edf20ac	0.43579614
242	0x3e9c54b0	0.3053336
243	0xbdca4fea	-0.09878524
244	0xbd7fdfab	-0.062469166
245	0x3e09bbbc	0.13450521
246	0xbf08d591	-0.53450876
247	0xbebdf73a	-0.3710268
248	0x3e33d070	0.17559981
249	0xbe8a6f00	-0.2703781
250	0xbf0dbb61	-0.5536404
251	0x3ed6b716	0.41936558
252	0x3e95b4bd	0.29239455
253	0x3d9ceefa	0.07662769
254	0x3ed54b73	0.41659126
255	0xbeeee3e2	-0.46658236

decoders.0.decoder_net.0.bias f4 [512]
0	0x3e87af40	0.26500893
1	0xbf3313ad	-0.699519
2	0x3e10f541	0.14156057
3	0x3e8ba206	0.27272052
4	0x3e707e10	0.23485589
5	0x3e8d2bd4	0.275725
6	0xbe04b291	-0.12958743
7	0x3de83e91	0.113400586
8	0xbeeccc13	-0.46249446
9	0x3dffe9fd	0.124958016
10	0xbba63fa6	-0.0050735055
11	0x3ee40a75	0.44539228
12	0x3f372686	0.7154316
13	0xbd945d6f	-0.072443835
14	0x3db3f3db	0.08786746
15	0xbe2b9787	-0.16757022
16	0x3f2e69da	0.68130267
17	0x3e8fdf53	0.2810007
18	0xbe940267	-0.28908083
19	0x3ec30315	0.3808829
20	0xbeaec5ba	-0.34135228
21	0xbd009df4	-0.031400636
22	0xbf079132	-0.52955925
23	0x3d8ca953	0.068682335
24	0xbdd4e967	-0.103960805
25	0x3efe0c21	0.4961863
26	0x3dd11d19	0.10210628
27	0x3e0b6aaf	0.13614915
28	0xbdd0625a	-0.10175009
29	0x3e21edf9	0.15813436
30	0xbf0d7767	-0.5526032
31	0x3ef3b38b	0.47597918
32	0x3f25bb4e	0.6473893
33	0x3ea6a145	0.32544914
34	0xbe47471e	-0.19460723
35	0xbe10ab99	-0.1412796
36	0x3f07620f	0.52884
37	0xbf0bacf0	-0.54560757
38	0x3e41cb0a	0.1892511
39	0xbe227adc	-0.1586718
40	0xbeb41394	-0.35171187
41	0x3e7aba20	0.24485064
42	0x3e3662cf	0.1781113
43	0x3f35afe1	0.70971495
44	0xbf220a6c	-0.6329715
45	0x3f106e6c	0.5641849
46	0xbf2f8f72	-0.68578255
47	0xbe5667db	-0.20938055
48	0x3ead5a58	0.3385799
49	0xbf4c9053	-0.7990772
50	0x3e1df805	0.15426643
51	0x3de3742a	0.11106141
52	0xbe4204ca	-0.1894714
53	0xbc3e6752	-0.011621313
54	0xbe85cf21	-0.2613459
55	0x3ed57931	0.41694024
56	0x3ef32090	0.4748578
57	0xbc1019ba	-0.008795196
58	0xbe7ed8a8	-0.24887335
59	0xbd4abc29	-0.04949585
60	0x3e81926b	0.2530702
61	0xbed2f2eb	-0.41200957
62	0x3eed6360	0.4636488
63	0xbe4fb554	-0.20284015
64	0x3f13e509	0.57771355
65	0x3f8a373b	1.0798105
66	0x3fae1d36	1.3602664
67	0xbd484d02	-0.048901565
68	0xbea53f44	-0.3227483
69	0xbeae41ed	-0.34034672
70	0xbd8b6ec6	-0.06808238
71	0xbe283413	-0.16426115
72	0xbf2778d9	-0.65418774
73	0xbea82a74	-0.3284489
74	0xbe58399b	-0.21115725
75	0x3e873a54	0.26411688
76	0x3daadb79	0.08342642
77	0x3e6fc1dd	0.23413797
78	0xbe7981c7	-0.24365912
79	0x3f01211f	0.50441164
80	0xbf045566	-0.5169281
81	0xbf245bf4	-0.6420281
82	0x3f33e185	0.7026599
83	0xbee73aea	-0.45162135
84	0xbedc3446	-0.4300863
85	0x3f293fa5	0.6611274
86	0xbf088c4f	-0.53339094
87	0x3f01883c	0.505985
88	0x3f0f7bd5	0.5604833
89	0xbee9e290	-0.45680666
90	0xbe6ab69e	-0.22921225
91	0xbf2efdef	-0.6835622
92	0xbdc32556	-0.09528606
93	0xbf06560e	-0.5247506
94	0xbe820933	-0.25397643
95	0x3f3c242d	0.734927
96	0xbebab32e	-0.36464828
97	0x3f071eb7	0.5278124
98	0x3dfb93ce	0.12284051
99	0xbed25b57	-0.41085312
100	0x3f06cba6	0.5265449
101	0xbede00f3	-0.433601
102	0x3f13589f	0.575571
103	0x3e1c3d2a	0.15257707
104	0x3f4cd180	0.8000717
105	0xbef7ea7c	-0.48421085
106	0xbeef4dd9	-0.4673908
107	0x3f0ac180	0.5420151
108	0x3f278cd9	0.6544929
109	0x3f2ea35f	0.68218035
110	0xbe1570ff	-0.14593886
111	0xbef66476	-0.4812352
112	0xbf055782	-0.5208665
113	0xbe9fe802	-0.31231695
114	0x3e6232f9	0.22089757
115	0x3f03d6c6	0.51499593
116	0xbe91c31a	-0.28469163
117	0x3eba2b71	0.36361268
118	0x3e9f5bb5	0.31124654
119	0x3e5e49be	0.21707818
120	0xbf0f11cd	-0.55886537
121	0x3e2f5fa5	0.17126329
122	0xbe000af0	-0.12504172
123	0xbed4685b	-0.41485867
124	0xbcad93b5	-0.021188596
125	0xbf46ddd6	-0.77682245
126	0xbeec3bcf	-0.4613938
127	0xbd0ef27f	-0.03489923
128	0xbe2aa1ca	-0.1666328
129	0xbe69bf22	-0.22826818
130	0x3f121bf2	0.5707389
131	0xbdf7e908	-0.12104994
132	0x3d16f847	0.03685787
133	0x3f0136cd	0.50474244
134	0xbf1dfde5	-0.6171554
135	0x3e65314d	0.22382088
136	0x3e3a9d84	0.1822415
137	0x3f0ead06	0.5573276
138	0xbe2e5eee	-0.170284
139	0xbf24bf85	-0.64354736
140	0xbe3a2731	-0.18179013
141	0xbe84563d	-0.25847045
142	0xbf408925	-0.75209266
143	0x3e0e149a	0.13875046
144	0xbe65424e	-0.22388574
145	0x3ef0e39a	0.47048646
146	0x3e0f4f3f	0.13995074
147	0xbf045a72	-0.5170051
148	0x3e88dd33	0.26731262
149	0xbe1ddfad	-0.15417357
150	0xbe1337c6	-0.14376745
151	0xbe8da0c4	-0.27661717
152	0xbf58762a	-0.84555304
153	0x3d1c3a5e	0.0381416
154	0x3df12e20	0.11776376
155	0x3ea35522	0.3190089
156	0x3f40a4db	0.7525155
157	0x3e383467	0.1798874
158	0xbe704f91	-0.23467852
159	0x3e9e5cb7	0.3093011
160	0xbee1da01	-0.44111636
161	0xbf376ce6	-0.7165054
162	0x3e287eac	0.16454571
163	0xbb7c50c8	-0.0038500298
164	0x3f2aa126	0.66652143
165	0x3ef9b197	0.48768303
166	0x3e75371f	0.23946808
167	0x3e5333af	0.20625184
168	0xbbc068e9	-0.0058718813
169	0x3f26eacb	0.65202016
170	0x3f28899a	0.65834963
171	0xbe7c7117	-0.24652515
172	0x3e001ddb	0.12511389
173	0xbe12125f	-0.1426482
174	0x3edbc30e	0.42922252
175	0xbebf467a	-0.37358457
176	0xbf0a53f3	-0.54034346
177	0xbf03edf4	-0.5153496
178	0xbf533ebd	-0.82517606
179	0xbeea2eed	-0.45738927
180	0xbf16d94e	-0.5892533
181	0xbeaf6ba2	-0.34261805
182	0xbf0ba744	-0.545521
183	0x3d550dc8	0.052015096
184	0x3f093296	0.53592813
185	0xbd0e88ba	-0.03479836
186	0xbe5a8c9e	-0.21342704
187	0x3d03e073	0.032196473
188	0x3f147081	0.5798417
189	0xbecd825a	-0.40138513
190	0x3f6ee70f	0.9332132
191	0x3ee7fd89	0.4531062
192	0xbb95eca2	-0.004575328
193	0xbdee523c	-0.11636779
194	0xbe6c028e	-0.2304785
195	0x3f3172b7	0.69315666
196	0xbebc090b	-0.3672565
197	0x3ed7d545	0.421549
198	0x3e85c7bf	0.26128957
199	0x3e09a0cf	0.1344025
200	0xbf1074d5	-0.5642827
201	0xbf15500d	-0.5832527
202	0xbeb6028d	-0.3554882
203	0x3ecc3c95	0.3988997
204	0x3e3f3b62	0.18674996
205	0x3f0f1d6f	0.5590429
206	0xbebe254f	-0.3713784
207	0x3e3a4c56	0.18193182
208	0x3ebd4edd	0.3697423
209	0xbe80b173	-0.25135383
210	0x3eec804b	0.4619163
211	0x3e60000e	0.21875021
212	0x3e311c4b	0.17295949
213	0xbe672663	-0.22573237
214	0xbed6ff6f	-0.41991755
215	0x3f29692b	0.661761
216	0xbe9f2344	-0.31081593
217	0xbe91351a	-0.28360826
218	0x3f039b83	0.5140917
219	0x3b7a20dc	0.0038166558
220	0x3ef97d1a	0.48728257
221	0x3e99a443	0.30008134
222	0xbf6891c6	-0.9084743
223	0x3e770479	0.241228
224	0x3e31f0fc	0.17377084
225	0x3e89bdce	0.26902622
226	0xbf4635fb	-0.7742612
227	0x3f17706a	0.59155905
228	0xbf39f746	-0.72642934
229	0xbe591151	-0.21198012
230	0x3eac09c2	0.33601195
231	0xbdf6a022	-0.12042262
232	0xbf12af84	-0.57299066
233	0xbe5f0425	-0.21778925
234	0xbf0ac580	-0.5420761
235	0xbeed9ee7	-0.46410295
236	0x3f287475	0.658027
237	0x3f006537	0.5015444
238	0x3f083bda	0.53216326
239	0x3e9227d8	0.28546023
240	0x3f0a4494	0.5401089
241	0x3f00b8d0	0.50282
242	0x3ea20e42	0.31651503
243	0x3e666874	0.22500783
244	0x3ef09886	0.46991366
245	0x3e32062d	0.17385168
246	0x3e28cdf9	0.16484822
247	0xbef79cbf	-0.48361775
248	0xbeba76a3	-0.36418638
249	0x3eccd61c	0.40007102
250	0x3df39830	0.11894262
251	0xbf0f1c6b	-0.5590274
252	0xbf2b725a	-0.6697136
253	0xbf2ae2e5	-0.66752464
254	0x3eb47cf3	0.3525158
255	0xbe984c29	-0.29745606

decoders.0.decoder_net.3.weight f4 [32]
0	0x3f849f8a	1.0361187
1	0x3f9490b0	1.1606655
2	0x3f8b8b39	1.0901862
3	0x3f896d84	1.0736547
4	0x3f8e05cb	1.1095518
5	0x3f85a075	1.0439593
6	0x3f8ee437	1.1163396
7	0x3f823a5f	1.0174063
8	0x3f7b5f4f	0.98192304
9	0x3f834e2e	1.0258234
10	0x3f6e9f01	0.9321137
11	0x3f8086d7	1.004115
12	0x3f84b6cc	1.0368285
13	0x3f7d015e	0.9883021
14	0x3f856688	1.0421915
15	0x3f8431b6	1.032767
16	0x3f87ae7c	1.0600123
17	0x3f78a8ce	0.97132576
18	0x3f790acf	0.9728212
19	0x3f7889da	0.97085345
20	0x3f7d9a5b	0.9906365
21	0x3f81289f	1.0090522
22	0x3f872771	1.0558912
23	0x3f8217a3	1.0163463
24	0x3f823be1	1.0174524
25	0x3f715076	0.942634
26	0x3f79e93d	0.9762152
27	0x3f7a689a	0.9781586
28	0x3f862658	1.0480452
29	0x3f854a31	1.0413266
30	0x3f83849b	1.0274843
31	0x3f83886b	1.0276006

decoders.0.decoder_net.3.bias f4 [32]
0	0xbafae30c	-0.0019141152
1	0xbc8b9be5	-0.01704211
2	0xbd82e54d	-0.06391392
3	0x3d561dcc	0.05227451
4	0x3d8d3a41	0.06895877
5	0xbd0a998d	-0.033837844
6	0xbc9d6a20	-0.019215643
7	0x3d944b45	0.07240919
8	0xbcb5291c	-0.022114329
9	0x3d3b7a68	0.045771033
10	0xbb358d25	-0.0027702537
11	0xbda4cf52	-0.08047356
12	0x3e0ef932	0.13962248
13	0x3d2d8165	0.04235973
14	0x3cbbc3cc	0.022920512
15	0x3d38b36c	0.045092985
16	0x3d022603	0.031774532
17	0xbd3c9d46	-0.046048425
18	0xbda0a531	-0.07844008
19	0xbce62928	-0.028095797
20	0x3d3142cf	0.043276604
21	0x3d15b4fc	0.036549553
22	0x3d403c5b	0.04693256
23	0x3cc8f24e	0.024529602
24	0x3b99ac7e	0.004689752
25	0xbd0180cd	-0.031616975
26	0x3d2b70c9	0.041855607
27	0xbd6a62ad	-0.05722301
28	0x3cc82e2b	0.024436077
29	0x3dcfe404	0.101509124
30	0xbc2b58b5	-0.010458161
31	0x3c3c3f61	0.01148972

decoders.0.decoder_net.3.running_mean f4 [32]
0	0x3e7ffff8	0.24999988
1	0x3e7ffff8	0.24999988
2	0x3e7ffff8	0.24999988
3	0x3e7ffff8	0.24999988
4	0x3e7ffff8	0.24999988
5	0x3e7ffff8	0.24999988
6	0x3e7ffff8	0.24999988
7	0x3e7ffff8	0.24999988
8	0x3e7ffff8	0.24999988
9	0x3e7ffff8	0.24999988
10	0x3e7ffff8	0.24999988
11	0x3e7ffff8	0.24999988
12	0x3e7ffff8	0.24999988
13	0x3e7ffff8	0.24999988
14	0x3e7ffff8	0.24999988
15	0x3e7ffff8	0.24999988
16	0x3e7ffff8	0.24999988
17	0x3e7ffff8	0.24999988
18	0x3e7ffff8	0.24999988
19	0x3e7ffff8	0.24999988
20	0x3e7ffff8	0.24999988
21	0x3e7ffff8	0.24999988
22	0x3e7ffff8	0.24999988
23	0x3e7ffff8	0.24999988
24	0x3e7ffff8	0.24999988
25	0x3e7ffff8	0.24999988
26	0x3e7ffff8	0.24999988
27	0x3e7ffff8	0.24999988
28	0x3e7ffff8	0.24999988
29	0x3e7ffff8	0.24999988
30	0x3e7ffff8	0.24999988
31	0x3e7ffff8	0.24999988

decoders.0.decoder_net.3.running_var f4 [32]
0	0x3d594be0	0.053050876
1	0x3db33251	0.087498315
2	0x3dc3809b	0.09546014
3	0x3d731737	0.05934831
4	0x3dfa2360	0.122137785
5	0x3dafbf0d	0.08581362
6	0x3d5b0f01	0.053481106
7	0x3db509b5	0.08839742
8	0x3dafb46c	0.085793346
9	0x3dab8ad2	0.08376087
10	0x3d894c65	0.06704024
11	0x3d7d97e8	0.061912447
12	0x3db5feb9	0.08886475
13	0x3db5d18b	0.08877858
14	0x3db442a9	0.08801777
15	0x3d951102	0.072786346
16	0x3db329ba	0.08748193
17	0x3db6f8d0	0.08934176
18	0x3d90ce34	0.0707058
19	0x3d9945ce	0.07484017
20	0x3da9599d	0.082690455
21	0x3d822948	0.0635553
22	0x3da4c568	0.08045465
23	0x3db420a1	0.08795286
24	0x3dca1bc4	0.09868577
25	0x3db45c76	0.08806698
26	0x3da977c1	0.08274794
27	0x3d889a2b	0.0667003
28	0x3de5a4ba	0.1121306
29	0x3d5d3ea7	0.054014828
30	0x3d925547	0.071451716
31	0x3dab36f5	0.083600916

decoders.0.decoder_net.4.weight f4 [32, 32, 3, 3]
0	0x3d404433	0.04694004
1	0x3dc5f7d7	0.09666412
2	0x3d110d45	0.035413045
3	0xbcac0bbc	-0.02100169
4	0x3dd75526	0.10514288
5	0xbd5f0608	-0.05444911
6	0xbd34c42d	-0.0441324
7	0xbc960105	-0.018311033
8	0x3d0e3272	0.034716077
9	0x3c5f4d59	0.013629281
10	0xbb8378ae	-0.004012189
11	0xbc0e618c	-0.008690249
12	0xbb87b3a8	-0.0041412897
13	0xbc9a6ee1	-0.0188517
14	0xbc19e35a	-0.009392584
15	0x3d8161d2	0.06317486
16	0x3d08a0ad	0.033356357
17	0xbd1e41bd	-0.03863691
18	0xbd3c93af	-0.04603928
19	0x3cca4d75	0.024695138
20	0xbd71289b	-0.058876615
21	0x3d711f22	0.05886758
22	0xbdb6e370	-0.08930099
23	0x3d991f33	0.07476654
24	0x3befe946	0.0073215095
25	0x3bc01386	0.0058617024
26	0xbc26c3c0	-0.010178506
27	0x3d714c4e	0.05891066
28	0x3de38712	0.11109747
29	0xbbbb3415	-0.005712996
30	0x3cf7ce6d	0.030249799
31	0xbd1137e0	-0.035453677
32	0x3d83c7bf	0.06434583
33	0x3ca02f4a	0.0195538
34	0xbd7c59af	-0.061608966
35	0x3d583039	0.052780364
36	0x3d181b0e	0.037135176
37	0xbd08d94d	-0.03341036
38	0xbdbbc7cb	-0.09168967
39	0x3caba481	0.020952465
40	0x3de7809a	0.11303826
41	0xbd82fd0b	-0.0639592
42	0xbd7850a0	-0.060623765
43	0x3cfa466d	0.03055116
44	0x3d083954	0.033257797
45	0x3c323a01	0.010878087
46	0xbb4f38d9	-0.0031619577
47	0x3cc4869e	0.023989972
48	0x3d06b67c	0.032888874
49	0x3ccb0160	0.02478093
50	0x3d2edd8d	0.042691756
51	0xbd4610ed	-0.048355985
52	0x3db206f3	0.08692732
53	0x3cc105ef	0.0235624
54	0xbb82f8f9	-0.003996965
55	0xbc12754b	-0.008939098
56	0xbd93e0e1	-0.072206266
57	0x3d0b33bc	0.033984885
58	0xbd9f21bc	-0.07770106
59	0x3caf21fa	0.021378506
60	0xbc2c62be	-0.010521589
61	0x3d2c61c0	0.04208541
62	0x3d43ad78	0.047772855
63	0x3c76cad7	0.015063009
64	0xbc68ace8	-0.01420138
65	0xbd3a5b06	-0.045496963
66	0x3c24914b	0.010044406
67	0xbbd66626	-0.0065429388
68	0xbd90b421	-0.07065607
69	0x3c456de2	0.012050124
70	0x3ca54178	0.02017282
71	0xbc002825	-0.007822071
72	0xbd10576e	-0.03523963
73	0x3ce6804c	0.028137349
74	0x3cef6466	0.029222678
75	0xbd48c0b4	-0.0490119
76	0x3c97cd61	0.01853055
77	0xbd59f816	-0.05321511
78	0x3d0df414	0.0346566
79	0x3dcf6bc6	0.10127978
80	0xbd36c742	-0.04462362
81	0xbd73702d	-0.05943315
82	0xbd1e8484	-0.038700595
83	0x3c4794ae	0.012181444
84	0x3b031225	0.0019999829
85	0x3dafeeea	0.08590491
86	0xbc6786c2	-0.01413125
87	0x3bf45369	0.0074562323
88	0x3d731be8	0.059352785
89	0xbb6bd3ee	-0.0035984474
90	0x3cca3e79	0.024687992
91	0x3c9938a2	0.018703762
92	0xbb5b0e44	-0.003342525
93	0xbcdc4537	-0.026888473
94	0xbd040c4f	-0.0322383
95	0xbd92c308	-0.071661055
96	0xbca08240	-0.019593358
97	0x3c5aaca9	0.013346829
98	0x3c5bfebb	0.013427432
99	0x3b268106	0.0025406494
100	0xb9f1dbbc	-0.00046130817
101	0xbc87da17	-0.016583486
102	0x3d39ab00	0.045329094
103	0x3d6bac2c	0.057537243
104	0xbc4a534f	-0.012348964
105	0xbd63b52c	-0.0555927
106	0x3c9d8d9a	0.01923256
107	0x3bec0efc	0.0072039347
108	0xbd78c453	-0.060734104
109	0x3d9ce131	0.07660139
110	0x3d63fedb	0.05566297
111	0xbcd35512	-0.0257974
112	0xbd6663fe	-0.056247704
113	0x3cc10d83	0.023566013
114	0x3ca8f732	0.020625684
115	0xbcd86c9e	-0.02641898
116	0x3bebdc39	0.0071978834
117	0x3ced917b	0.029000035
118	0xbcc4e1f0	-0.024033517
119	0x3cb8d3db	0.022561958
120	0xbd12e339	-0.035861228
121	0x3d815590	0.06315148
122	0x3ca4e4ae	0.020128574
123	0xbd8f6970	-0.070025325
124	0x3c90939b	0.017648509
125	0xbcb1ff9e	-0.021728333
126	0xbd0062c9	-0.03134421
127	0x3d7c1207	0.06154063
128	0x3d5d365e	0.054006927
129	0x3d118d8e	0.035535388
130	0xbd26a55f	-0.040685054
131	0xbb53b9e7	-0.0032306851
132	0x3cb1ba48	0.021695271
133	0xbb3537c5	-0.002765165
134	0xbcac0b6f	-0.021001546
135	0x3c37acd4	0.011210639
136	0x3b7f17ee	0.0038924175
137	0xbc7f2422	-0.01557258
138	0xbc84b6ee	-0.016200509
139	0x3dc4fbd7	0.09618347
140	0xba8251d3	-0.0009942598
141	0xbc6ffdfc	-0.014647957
142	0xbc969a30	-0.01838407
143	0xbd234d47	-0.03986862
144	0x3c23deb3	0.010001826
145	0x3dbfacc2	0.09359123
146	0x3d0a84d3	0.033818077
147	0xbc185f6e	-0.009300096
148	0x3c6147bd	0.013750014
149	0xbd45071b	-0.04810248
150	0xbc08fe04	-0.008361343
151	0xbd426430	-0.047458827
152	0x3d899511	0.06717885
153	0xbcfd47d1	-0.030918034
154	0xbda44a7c	-0.08022019
155	0x3d095ebd	0.033537615
156	0xbdce82d2	-0.10083546
157	0xbcaa9abd	-0.020825738
158	0x3cc92767	0.024554921
159	0xbd4b2d33	-0.049603652
160	0x3d935f74	0.071959406
161	0xbca7088b	-0.020389816
162	0x3d1c1c3a	0.038112856
163	0x3ccc5450	0.024942547
164	0x3afa14bd	0.0019079667
165	0x3d83e90d	0.06440935
166	0x3dd67f5c	0.104735106
167	0x3c129d34	0.008948613
168	0x3c9ea8b2	0.01936755
169	0xbd5d4e05	-0.054029483
170	0xbda0cd77	-0.07851689
171	0x3ccb152a	0.024790365
172	0x3d9a94ed	0.075479366
173	0xbd2c628f	-0.04208618
174	0xbc500e1f	-0.012698679
175	0x3c0729a7	0.008249677
176	0xbbc6c2ee	-0.006065718
177	0x3d185ab5	0.03719588
178	0xbc07b739	-0.00828343
179	0xbd3170a0	-0.0433203
180	0xbb06face	-0.0020596269
181	0x3d9876d0	0.07444537
182	0x3d5299da	0.051416256
183	0xbd368752	-0.044562645
184	0x3d35bc37	0.04436895
185	0xbbbf29ee	-0.005833856
186	0x3d8d313f	0.068941586
187	0xbd8ef295	-0.069798626
188	0x3d75ea27	0.06003776
189	0xbd32fc72	-0.04369778
190	0x3dce22fe	0.10065268
191	0xbd837fa0	-0.06420827
192	0x3c9682b5	0.018372873
193	0x3d0b9d9e	0.034085862
194	0xbdd1652b	-0.102243744
195	0x3b09586a	0.002095724
196	0xbd8677b4	-0.065658
197	0x3cd969e7	0.026539756
198	0xbcc4e6de	-0.024035867
199	0xbc856138	-0.01628171
200	0xbd7a8c68	-0.061169058
201	0x3c2b36e7	0.010450101
202	0xbaa4e42d	-0.0012580209
203	0xbd0506a5	-0.03247704
204	0xbd8437d6	-0.06455962
205	0x3cd02ac7	0.025411023
206	0x3ced2af2	0.028951142
207	0xbca2a5ff	-0.019854544
208	0xbd46d45d	-0.04854237
209	0xbb7a2277	-0.0038167515
210	0xbc39bf78	-0.011337154
211	0xbc67c0ff	-0.014145135
212	0x3d2d485c	0.042305335
213	0xbcff79dd	-0.031186039
214	0x3d2f93f3	0.042865705
215	0x3d1fe23d	0.039034117
216	0x3dbd0d6d	0.092310764
217	0x3d55027f	0.052004334
218	0xbd892bfc	-0.066978425
219	0x3bad0ecf	0.0052813063
220	0xbd418f1e	-0.047255628
221	0xbc59df38	-0.013297848
222	0xbcdd54cd	-0.027017975
223	0x3e03a59f	0.12856148
224	0xbc80dfb3	-0.015731668
225	0xbd81a945	-0.06331114
226	0x3d2f52f0	0.042803705
227	0x3c2eb0d9	0.010662281
228	0xbdcc8ce8	-0.09987813
229	0xbba04fbc	-0.0048923176
230	0xbcdadfe5	-0.02671809
231	0xbca2e963	-0.019886678
232	0xbd560c66	-0.052257918
233	0xbd911738	-0.07084507
234	0x3c470484	0.012147073
235	0x3da82471	0.08210076
236	0xbc8cba52	-0.017178688
237	0x3ca50893	0.02014569
238	0xbbcf416a	-0.0063249366
239	0x3d05d528	0.032673985
240	0x3d0e0c9e	0.03468
241	0xbbb81fb1	-0.0056190123
242	0x3be15769	0.006876875
243	0xbd0d27a3	-0.03446163
244	0xbc322ecd	-0.010875416
245	0xbd4fc51d	-0.05072509
246	0x3cb22bdb	0.021749428
247	0xbbf2a81d	-0.0074052946
248	0x3ca6b809	0.020351427
249	0xbd23641e	-0.0398904
250	0xbd43eedd	-0.04783522
251	0x3d584ec2	0.052809484
252	0x3d3dba04	0.046319976
253	0xbc34a78d	-0.011026275
254	0x3cb85de4	0.022505708
255	0x3c3aa2d5	0.011391361

decoders.0.decoder_net.4.bias f4 [32]
0	0x3c6b033d	0.014344034
1	0xbce4ecd2	-0.027944956
2	0x3d198ee2	0.03748978
3	0xbcf0a4fb	-0.029375544
4	0x3d0d7bb8	0.034541816
5	0x3d6647e0	0.05622089
6	0x3ce2f19d	0.0277031
7	0xbc3447bb	-0.01100343
8	0xbbac14c7	-0.0052515003
9	0xbbdcc9c5	-0.00673792
10	0xbe0be199	-0.13660277
11	0x3bc6002f	0.0060425024
12	0xbd290516	-0.041264616
13	0x3d7f479f	0.062324163
14	0x3c1df6bc	0.009641346
15	0xbda873a5	-0.082251824
16	0x3d91544a	0.07096155
17	0xbceb6821	-0.028736176
18	0xbd252892	-0.040321894
19	0xbd8691c2	-0.0657077
20	0xbcc1c723	-0.023654526
21	0x3d85086d	0.06495748
22	0x3d5cc704	0.053900734
23	0xbd1034c8	-0.035206586
24	0xbc94b7f0	-0.018154114
25	0xbddf63aa	-0.10907681
26	0xbd2eed16	-0.04270657
27	0xbc55b174	-0.013042796
28	0xbda04bf3	-0.07826986
29	0x3db37cb5	0.0876402
30	0xbd7a5483	-0.061115753
31	0x3c13ae43	0.009013715

decoders.0.decoder_net.6.weight f4 [32]
0	0x3f6b7bd1	0.91985804
1	0x3f6db11d	0.9284838
2	0x3f69591e	0.9115161
3	0x3f6ff0b2	0.93726647
4	0x3f80fbfe	1.0076902
5	0x3f7100b6	0.9414171
6	0x3f6efb01	0.9335175
7	0x3f88990b	1.0671705
8	0x3f77956b	0.9671237
9	0x3f693238	0.9109225
10	0x3f79695b	0.97426385
11	0x3f6f92e6	0.93583524
12	0x3f75e2b3	0.9604904
13	0x3f7281dd	0.94729406
14	0x3f7afc95	0.9804166
15	0x3f6663a8	0.89995813
16	0x3f7234fc	0.946121
17	0x3f6f990f	0.93592924
18	0x3f7b2477	0.98102516
19	0x3f745b34	0.95451665
20	0x3f7bd937	0.9837832
21	0x3f70d322	0.94072163
22	0x3f72357d	0.94612867
23	0x3f64b4f9	0.8933864
24	0x3f81f1cd	1.0151917
25	0x3f6bf4cf	0.92170423
26	0x3f708e60	0.93967247
27	0x3f66d618	0.9017043
28	0x3f63cd61	0.8898526
29	0x3f7758cf	0.96619886
30	0x3f67fb1f	0.90617555
31	0x3f75307a	0.95777094

decoders.0.decoder_net.6.bias f4 [32]
0	0x3daabbf5	0.08336631
1	0xbd81662b	-0.06318315
2	0x3df38d26	0.11892156
3	0xbdc0311b	-0.09384366
4	0x3b836e44	0.0040109474
5	0x3c4c0946	0.012453383
6	0x3bbadb87	0.005702439
7	0x3e34b6e3	0.17647891
8	0x3e3fcb3d	0.18729873
9	0xbc132866	-0.0089818
10	0x3d1bc2da	0.03802762
11	0xbd7c5ddd	-0.061612953
12	0x3ac07d10	0.0014685709
13	0x3d931863	0.07182386
14	0xbc88c790	-0.016696721
15	0x3dcdfb78	0.100577295
16	0x3dd4e807	0.10395818
17	0x3cd55af5	0.026044348
18	0xbd51bfd7	-0.051208343
19	0xbe0c0c09	-0.13676466
20	0xbd9d5d75	-0.07683841
21	0x3dbff6f2	0.09373273
22	0x3da2e362	0.07953526
23	0xbbf59418	-0.007494461
24	0x3db1c6a5	0.086804666
25	0xbc10d2ab	-0.00883929
26	0xbce6d257	-0.02817647
27	0xbbbafa09	-0.005706076
28	0x3d1b1899	0.037865255
29	0x3dd2ea24	0.10298565
30	0x3e227efe	0.15868756
31	0x3da86b6a	0.082236126

decoders.0.decoder_net.6.running_mean f4 [32]
0	0x3e12491e	0.14285704
1	0x3e12491e	0.14285704
2	0x3e12491e	0.14285704
3	0x3e12491e	0.14285704
4	0x3e12491e	0.14285704
5	0x3e12491e	0.14285704
6	0x3e12491e	0.14285704
7	0x3e12491e	0.14285704
8	0x3e12491e	0.14285704
9	0x3e12491e	0.14285704
10	0x3e12491e	0.14285704
11	0x3e12491e	0.14285704
12	0x3e12491e	0.14285704
13	0x3e12491e	0.14285704
14	0x3e12491e	0.14285704
15	0x3e12491e	0.14285704
16	0x3e12491e	0.14285704
17	0x3e12491e	0.14285704
18	0x3e12491e	0.14285704
19	0x3e12491e	0.14285704
20	0x3e12491e	0.14285704
21	0x3e12491e	0.14285704
22	0x3e12491e	0.14285704
23	0x3e12491e	0.14285704
24	0x3e12491e	0.14285704
25	0x3e12491e	0.14285704
26	0x3e12491e	0.14285704
27	0x3e12491e	0.14285704
28	0x3e12491e	0.14285704
29	0x3e12491e	0.14285704
30	0x3e12491e	0.14285704
31	0x3e12491e	0.14285704

decoders.0.decoder_net.6.running_var f4 [32]
0	0x3b8d41b6	0.004310812
1	0x3b8227fb	0.003972051
2	0x3ba87258	0.005140584
3	0x3b8a4282	0.004219354
4	0x3bae3c73	0.0053172647
5	0x3c24641a	0.010033632
6	0x3bb1e94b	0.005429422
7	0x3b80597a	0.0039169164
8	0x3ba8e579	0.0051543084
9	0x3b5e065a	0.0033878298
10	0x3b89fb6c	0.00421088
11	0x3b9e7c83	0.0048366203
12	0x3bc5f4f7	0.006041165
13	0x3be8280a	0.007084851
14	0x3c4f85b7	0.012666157
15	0x3b848057	0.0040436196
16	0x3b8f7a1c	0.0043785702
17	0x3b82ddfc	0.0039937478
18	0x3b80fb72	0.0039362246
19	0x3bc9a1ad	0.0061533065
20	0x3b8ec942	0.004357488
21	0x3ba2e80c	0.00497151
22	0x3b7d2bdb	0.0038630876
23	0x3ba55aa0	0.0050462037
24	0x3b42e861	0.002974056
25	0x3b43905a	0.002984068
26	0x3b9116dd	0.0044277743
27	0x3b3eddc6	0.0029123886
28	0x3b450a88	0.0030066092
29	0x3bb1eefe	0.0054301014
30	0x3b84c2ff	0.0040515657
31	0x3c039db6	0.008033207

decoders.0.decoder_net.7.weight f4 [32, 16, 3, 3]
0	0xbcf4cd29	-0.029882984
1	0xbcc7638b	-0.024339458
2	0xbccbdae3	-0.024884647
3	0x3d8a8f5f	0.06765627
4	0xbd040ee5	-0.032240767
5	0xbd938cd8	-0.07204598
6	0xbccc4072	-0.024933074
7	0x3d9b80b8	0.075929105
8	0xbd7ebc74	-0.06219144
9	0xbcac7f1b	-0.021056702
10	0x3b5b1d8f	0.0033434366
11	0xbd67d637	-0.056600776
12	0x3b825511	0.003977426
13	0x3d9624ef	0.07331263
14	0x3d46b4b7	0.048512187
15	0x3c0d569c	0.008626606
16	0xbd015866	-0.031578444
17	0xbd6ef45e	-0.058338515
18	0x3d14c79a	0.036323167
19	0x3dd4f888	0.10398966
20	0xbdcc75a2	-0.09983374
21	0x3ce5a42d	0.028032387
22	0x3d540718	0.051764578
23	0x3dac6dcd	0.0841938
24	0xbc846d2c	-0.016165338
25	0xbd5b1d3b	-0.053494673
26	0xbc3fb32d	-0.011700434
27	0xbcec1816	-0.028820079
28	0xbb6a29c5	-0.0035730463
29	0x3c8c9e9c	0.017165475
30	0x3d05a092	0.032623835
31	0xbdb28e82	-0.087185875
32	0x3da073ce	0.07834588
33	0x3d7a4e38	0.06110975
34	0x3da9158a	0.082560614
35	0xbd636a56	-0.05552133
36	0x3d938f48	0.07205063
37	0x3dba33fe	0.09091948
38	0xbab1821c	-0.0013542804
39	0x3bfd6bf9	0.0077338186
40	0x3dce5894	0.10075489
41	0x3d4f9c50	0.05068618
42	0xbd5e6389	-0.054294143
43	0xbc9bffb2	-0.019042823
44	0x3d8040ec	0.06262383
45	0x3d065dcd	0.0328043
46	0x3d10bfd3	0.035339188
47	0x3d2f754e	0.04283648
48	0x3c9754aa	0.018472988
49	0x3c2ccdd4	0.01054712
50	0x3c9bce43	0.019019252
51	0xbd4dbaf2	-0.050227113
52	0x3d90cd50	0.0707041
53	0xba3122ef	-0.00067572197
54	0xbd3e22bf	-0.046419855
55	0x3d729683	0.05922557
56	0x3d3302bf	0.04370379
57	0xbd1eab7d	-0.038737763
58	0xbcc1530c	-0.02359917
59	0x3df97ede	0.12182401
60	0xbc6ddb18	-0.014517568
61	0xbcf2aeeb	-0.029624423
62	0xbcc89890	-0.02448681
63	0xbb5376e7	-0.0032266916
64	0xbd832a22	-0.064045206
65	0xbd8c82bc	-0.06860873
66	0x3c8bf62a	0.017085154
67	0x3d11e32f	0.03561705
68	0x3d24b581	0.040212158
69	0xbd658ded	-0.056043554
70	0xbd13d687	-0.03609326
71	0xbdf10acc	-0.117696375
72	0x3d638742	0.055548914
73	0x3d0a1c10	0.03371817
74	0x3d585d55	0.052823383
75	0x3d74c0a2	0.05975402
76	0xbd2e26c3	-0.042517435
77	0x3daa4806	0.08314519
78	0x3c96c025	0.018402169
79	0xbcf3b420	-0.029748976
80	0xbce87f20	-0.02838093
81	0xbd8ececc	-0.06973037
82	0xbd496b6d	-0.049174715
83	0xbdbd48c3	-0.09242394
84	0x3d2f5943	0.042809736
85	0x3d400a4c	0.04688482
86	0x3cdff554	0.027338661
87	0xbd869db7	-0.065730505
88	0xbc0c6bce	-0.0085706245
89	0xbd0c1844	-0.03420283
90	0x3c75ec3d	0.015009937
91	0xbd713fb9	-0.05889866
92	0x3d121e21	0.035673264
93	0xbd0c27d6	-0.034217678
94	0xbd3727f8	-0.04471585
95	0xbdcd1e4e	-0.10015546
96	0xbd0b1391	-0.033954207
97	0x3d0d70ec	0.03453152
98	0xbd84fd82	-0.06493665
99	0x3cc67ef4	0.024230458
100	0x3bb74c23	0.005593793
101	0x3d17b68e	0.037039332
102	0xbd3cb156	-0.04606756
103	0xbd889c9e	-0.06670497
104	0xbdb2ba64	-0.087269574
105	0xbbbc51a6	-0.005747038
106	0x3b01021d	0.0019685098
107	0xbd96a9ee	-0.0735663
108	0xbbf0fc85	-0.0073543214
109	0xbd56e2f2	-0.052462526
110	0x3a384ee3	0.0007030798
111	0xbc883066	-0.01662464
112	0xbc0351ac	-0.008015078
113	0xbd9e1224	-0.07718304
114	0xbd58b553	-0.0529073
115	0xbd134b0c	-0.035960242
116	0xbd9c93e4	-0.076453954
117	0x3da9e8c2	0.08296348
118	0xbd9c9a52	-0.07646622
119	0x3d902d65	0.07039908
120	0xbdb88938	-0.090105474
121	0x3e18dae4	0.1492725
122	0xbb7f5440	-0.003896013
123	0xbd2d4458	-0.042301506
124	0x3d9f3258	0.07773274
125	0xbcd7bc95	-0.02633504
126	0xbd1b5bc1	-0.0379293
127	0xbd5c8078	-0.053833455
128	0x3caf520d	0.02140143
129	0x3dbf7957	0.093493156
130	0x3d6736c7	0.056448724
131	0x3d19f9e3	0.037591826
132	0xbd126735	-0.035742957
133	0xbc6f61e3	-0.01461074
134	0x3da3a15a	0.0798976
135	0xbc91dddc	-0.017805986
136	0x3daac37f	0.08338069
137	0x3d0307e8	0.03198996
138	0x3d4181b8	0.04724285
139	0x3d1e3ddb	0.03863321
140	0x3dd78209	0.10522849
141	0xbd6e9c5f	-0.058254596
142	0x3d441e24	0.047880307
143	0x3c891293	0.01673249
144	0xbd41f21b	-0.04735003
145	0xbc8a2f91	-0.016868385
146	0x3cfb4766	0.030673694
147	0xbd619087	-0.055069473
148	0x3d8f654b	0.07001742
149	0x3d8d30f6	0.06894104
150	0xbc1de36c	-0.009636741
151	0x3ced8c61	0.028997602
152	0x3d429a71	0.047510568
153	0x3d4cf60f	0.050039347
154	0xbd10ae4a	-0.035322465
155	0x3cdf406b	0.027252397
156	0xbbf90da6	-0.007600504
157	0x3c08a31d	0.0083396705
158	0x3d31ee2d	0.043440033
159	0x3d551602	0.05202294
160	0x3c2f27cd	0.010690642
161	0xbd03b831	-0.03215808
162	0xbbd5ad8f	-0.006520934
163	0x3c8f7c63	0.017515367
164	0xbd1faec4	-0.03898503
165	0xbd53023e	-0.05151581
166	0x3da26b03	0.07930567
167	0x3dbfda7c	0.093678445
168	0x3d8bcf8c	0.06826696
169	0x3ba49e71	0.0050237705
170	0xbccd088e	-0.025028493
171	0x3cb620c0	0.022232413
172	0x3caa68b1	0.020801874
173	0x3d51620a	0.051118888
174	0x3cf3abf0	0.029745072
175	0xbc1e0895	-0.009645601
176	0x3d727b8b	0.05919985
177	0xbbceb988	-0.006308738
178	0x3d57be78	0.05267188
179	0xbc5873b3	-0.013211179
180	0xbd22147e	-0.039570324
181	0x3c9843d1	0.018587025
182	0x3b5481e7	0.003242606
183	0x3c715037	0.014728597
184	0xbc9df30a	-0.01928093
185	0x3cd2d67d	0.025737042
186	0xbd0f4c5b	-0.034984928
187	0x3c3a0945	0.011354749
188	0x3d8ed09d	0.069733836
189	0x3b8f5825	0.0043745213
190	0xbd74e6c4	-0.059790388
191	0xbc5e2726	-0.013559138
192	0x3c1a1f8e	0.009406937
193	0xbd5d6fdf	-0.054061767
194	0x3a17dcba	0.00057930837
195	0xbcd99490	-0.026560098
196	0xbceb82d2	-0.028748903
197	0x3d65cb21	0.056101922
198	0xbc2f3cca	-0.010695646
199	0x3da14ca1	0.07875944
200	0x3c6207a0	0.013795763
201	0xbc790ba0	-0.0152005255
202	0xbd891eae	-0.06695305
203	0x3b9ddbcc	0.0048174616
204	0x3c9c02e5	0.019044349
205	0x3cc39f3e	0.023879644
206	0xbd82500f	-0.06362926
207	0x3d01f464	0.03172721
208	0x3d478650	0.048712075
209	0x3bd8a7ea	0.006611814
210	0xbcdbfcfa	-0.026854027
211	0x3d61a0e3	0.055085074
212	0x3c9d182a	0.019176561
213	0x3d2663d1	0.040622536
214	0xbce42864	-0.027851291
215	0xbcbd61f4	-0.023117997
216	0xbcee0afb	-0.02905797
217	0x3c73a993	0.014871973
218	0xbc66b307	-0.014080769
219	0x3c72175f	0.01477608
220	0x3e03114f	0.12799571
221	0xbb3adcb1	-0.002851289
222	0x3d0df5f4	0.034658387
223	0x3d9d3fcb	0.07678183
224	0x3d4634b4	0.048390105
225	0xbd537762	-0.051627524
226	0x3cb4f57c	0.022089712
227	0x3d8fd356	0.07022731
228	0xbb10957c	-0.0022061756
229	0x3cf501a7	0.029908014
230	0x3cab1ac1	0.02088678
231	0x3c704144	0.014663998
232	0xbd73fa6a	-0.059564985
233	0x3dadc7ea	0.08485396
234	0x3d3ea0bc	0.046540007
235	0x3d609145	0.05482604
236	0xbbd2af8b	-0.0064296178
237	0x3d6b53d9	0.05745301
238	0xbd67a3a5	-0.056552548
239	0x3d5a2022	0.0532533
240	0x3cec3038	0.028831586
241	0x3d651ade	0.055933826
242	0x3d84c08e	0.064820394
243	0xbd7440ff	-0.059632298
244	0x3bf61693	0.0075100153
245	0x3d59036c	0.05298178
246	0x3d677073	0.056503724
247	0x3d893a35	0.06700555
248	0x3da44c7e	0.08022402
249	0x3d9b6651	0.07587875
250	0x3d5f2883	0.054481994
251	0x3c7d61ce	0.015465213
252	0xbd1dc0a2	-0.038513787
253	0x3d572d16	0.05253323
254	0x3dbab624	0.09116772
255	0x3d231e52	0.039823838

decoders.0.decoder_net.7.bias f4 [16]
0	0xbd1a117e	-0.037614338
1	0x3e14c334	0.14527589
2	0x3bba6280	0.0056880116
3	0x3d20bc6b	0.03924219
4	0x3d1ab609	0.03777126
5	0x3e0ab107	0.13544093
6	0x3e0dcfb2	0.1384876
7	0x3d44ab13	0.04801471
8	0x3d9dffab	0.077147804
9	0xbd19bd8b	-0.037534278
10	0xbe2ad2d8	-0.16681993
11	0x3da8e133	0.08246078
12	0x3ccbec63	0.024892991
13	0x3d4e951e	0.050435178
14	0xbd7de514	-0.061986044
15	0x3d51f1f4	0.051256135

decoders.0.decoder_net.9.weight f4 [16]
0	0x3f60ac39	0.8776279
1	0x3f6b9bb3	0.92034453
2	0x3f688182	0.90822613
3	0x3f758b98	0.9591613
4	0x3f6a3076	0.91480196
5	0x3f6a9a1d	0.9164141
6	0x3f703be4	0.93841386
7	0x3f77c835	0.96789867
8	0x3f728757	0.9473776
9	0x3f7390e1	0.9514294
10	0x3f6e4d8d	0.93087083
11	0x3f6da298	0.92826223
12	0x3f75e665	0.9605468
13	0x3f6af0a7	0.91773456
14	0x3f7292ec	0.94755435
15	0x3f63ca97	0.88981

decoders.0.decoder_net.9.bias f4 [16]
0	0xbcebd29e	-0.028786954
1	0xbc82035d	-0.015870744
2	0xbe296923	-0.16544013
3	0xbdaa95a2	-0.083293214
4	0x3eb3e42b	0.35135016
5	0x3dbd352c	0.09238657
6	0xbd109615	-0.03529938
7	0xbcaa57da	-0.020793844
8	0x3ea1ff68	0.31640172
9	0x3df32fe7	0.11874371
10	0x3c9cef66	0.019157123
11	0x3d4e8c00	0.050426483
12	0x3c737b37	0.01486092
13	0xbd6c31b8	-0.057664603
14	0xbcac25c3	-0.0210141
15	0xbdc38ff4	-0.09548941

decoders.0.decoder_net.9.running_mean f4 [16]
0	0x3d92491e	0.07142852
1	0x3d92491e	0.07142852
2	0x3d92491e	0.07142852
3	0x3d92491e	0.07142852
4	0x3d92491e	0.07142852
5	0x3d92491e	0.07142852
6	0x3d92491e	0.07142852
7	0x3d92491e	0.07142852
8	0x3d92491e	0.07142852
9	0x3d92491e	0.07142852
10	0x3d92491e	0.07142852
11	0x3d92491e	0.07142852
12	0x3d92491e	0.07142852
13	0x3d92491e	0.07142852
14	0x3d92491e	0.07142852
15	0x3d92491e	0.07142852

decoders.0.decoder_net.9.running_var f4 [16]
0	0x3aaba360	0.0013094954
1	0x3b6367df	0.0034699363
2	0x3b693237	0.003558291
3	0x3b5db16f	0.0033827682
4	0x3b0f5225	0.002186903
5	0x3afacbd8	0.0019134236
6	0x3b048fa7	0.0020227225
7	0x3b89c4bc	0.004204361
8	0x3b26102f	0.0025339236
9	0x3b9536ad	0.004553637
10	0x3adaf8be	0.0016706211
11	0x3b2355dc	0.0024923002
12	0x3b80e425	0.003933447
13	0x3b09ed64	0.0021046037
14	0x3b1a3a62	0.0023533334
15	0x3aac830e	0.0013161616

decoders.0.decoder_net.10.weight f4 [16, 1, 3, 3]
0	0x3e19bdcf	0.15013812
1	0x3e1f3511	0.15547587
2	0x3e5b9dd5	0.21446927
3	0x3c8de409	0.01732065
4	0x3dfd58f4	0.12370482
5	0x3d8405a6	0.0644639
6	0x3e21dd09	0.15806974
7	0x3d3faf28	0.0467979
8	0x3deac254	0.114628464
9	0xbda14e28	-0.07876235
10	0x3b4d3c68	0.0031316523
11	0xbdfdadd7	-0.12386673
12	0xbe65398e	-0.22385237
13	0x3e6d3ec8	0.2316848
14	0xbe602a17	-0.21891056
15	0xbd96c0e2	-0.07361008
16	0xbe49277c	-0.19643968
17	0x3e50f1c7	0.2040473
18	0x3d82965a	0.063763335
19	0x3c30e009	0.010795602
20	0x3e03a134	0.12854463
21	0xbd03dfa6	-0.03219571
22	0xbd321746	-0.043479227
23	0x3e1cff89	0.15331854
24	0xbe5ed9e6	-0.21762809
25	0x3de88f59	0.113554664
26	0x3e24910b	0.16070955
27	0xbdb374b4	-0.08762494
28	0xbe467f0c	-0.19384402
29	0xbcce69c0	-0.02519691
30	0x3cb0abae	0.021566238
31	0x3e8622ff	0.26198575
32	0x3e4cf9ab	0.20017116
33	0xbdc84e60	-0.09780574
34	0x3de42743	0.11140301
35	0xbe34bbc5	-0.17649753
36	0x3e351ec4	0.17687517
37	0xbe6148f4	-0.22000486
38	0xbe2ccc97	-0.1687492
39	0x3d9f2c69	0.077721424
40	0x3e4134d8	0.18867815
41	0xbd8eb444	-0.06967977
42	0xbd90c658	-0.07069081
43	0x3caa5026	0.02079017
44	0x3e02156c	0.12703484
45	0x3e0ce9fd	0.13761134
46	0x3d8163d2	0.06317867
47	0xbde890b3	-0.11355724
48	0xbdda71d4	-0.10666242
49	0xbe342c8b	-0.17595117
50	0xbdf1f318	-0.118139446
51	0xbbc79400	-0.006090641
52	0xbe4480fa	-0.19189826
53	0x3c587042	0.013210358
54	0xbc88d2b9	-0.016702043
55	0x3e2b3338	0.16718757
56	0x3dda3671	0.10654915
57	0x3e1b7070	0.1517961
58	0x3e3cc632	0.1843498
59	0x3d99ab7a	0.0750341
60	0x3d85ac99	0.06527061
61	0x3e371d73	0.17882328
62	0x3df6ddb3	0.120540045
63	0xbd6820d4	-0.056671932
64	0xbea917f1	-0.33026078
65	0xbe81e73b	-0.25371727
66	0xbe4e3030	-0.2013557
67	0xbe655ec0	-0.22399426
68	0x3e5567d8	0.20840394
69	0x3dd02ddf	0.10164999
70	0xbdd07c09	-0.10179908
71	0xbe1efd43	-0.15526299
72	0xbe7f47b3	-0.24929695
73	0xbe9ef138	-0.3104341
74	0xbe334d9e	-0.17510077
75	0x3e8d1a32	0.27559048
76	0xbdd4aa95	-0.103840984
77	0xbe0aab30	-0.13541865
78	0x3d91eb01	0.071249016
79	0x3e6872f8	0.22700107
80	0x3e158040	0.14599705
81	0xbe255978	-0.16147411
82	0x3e1af8a8	0.15133917
83	0xbe946dec	-0.28990114
84	0x3e72db29	0.23716415
85	0xbda31928	-0.079637825
86	0xbe3f62a1	-0.18689968
87	0xbe1ebcd5	-0.15501721
88	0xbe3a51d9	-0.18195285
89	0xbe775ac1	-0.24155714
90	0x3da9b0f0	0.08285701
91	0xbd1b1b68	-0.037867934
92	0xbd2484e6	-0.040165804
93	0xbd211cf5	-0.039334256
94	0xbd5e94b3	-0.05434103
95	0xbe09dcb1	-0.13463093
96	0xbd99d51f	-0.07511353
97	0x3d9eba38	0.07750362
98	0x3df26869	0.11836321
99	0x3d8a3692	0.0674869
100	0x3e58bd15	0.21165879
101	0xbb39084d	-0.0028233707
102	0xbddfd4f0	-0.109292865
103	0xbe8c4929	-0.27399567
104	0xbe60a3a9	-0.21937431
105	0x3d77873b	0.0604317
106	0xbe3024da	-0.17201558
107	0x3e2dcd8f	0.16972946
108	0x3e0759f2	0.13217905
109	0x3be2d180	0.006921947
110	0x3e6f2ff0	0.2335813
111	0x3db44030	0.08801305
112	0xbc9e0b57	-0.019292517
113	0xbc20e73e	-0.009820757
114	0x3e243133	0.16034393
115	0x3e4d75f7	0.20064531
116	0x3d9fb23f	0.077976696
117	0x3c5b5801	0.013387681
118	0x3d51c3cb	0.051212113
119	0x3daa82cb	0.08325728
120	0x3db951b8	0.0904879
121	0x3e5bd955	0.21469624
122	0x3e36c4be	0.17848489
123	0x3de24d8d	0.11049948
124	0x3e35d189	0.17755713
125	0x3e27b3ff	0.16377257
126	0xbcb4e649	-0.022082465
127	0xbe455fcb	-0.19274823
128	0x3c9985f2	0.018740628
129	0xbdc9ae5f	-0.09847712
130	0xbd644cbd	-0.055737246
131	0x3e09dd35	0.1346329
132	0x3d6edf68	0.058318526
133	0xbdf59350	-0.11990988
134	0xbd9f3615	-0.07773987
135	0x3d0613e9	0.03273383
136	0x3d494e14	0.049146727
137	0xbc33ee1f	-0.010982065
138	0xbbdae618	-0.0066802613
139	0xbcdbe1bb	-0.026841035
140	0xbe190d58	-0.14946496
141	0xbdb454a7	-0.08805209
142	0x3e133b73	0.14378147
143	0x3e48e857	0.1961988

decoders.1.decoder_net.0.weight f4 [512, 2]
0	0xbf03a9d7	-0.5143103
1	0x3f2df5ae	0.67953
2	0x3d329308	0.04359725
3	0x3edcfa49	0.43159702
4	0xbef0e79a	-0.47051698
5	0xbf1f2464	-0.621649
6	0x3f185bfc	0.59515357
7	0xbc9fb267	-0.019494249
8	0x3f127a97	0.5721831
9	0xbf126983	-0.5719225
10	0x3cc053d6	0.023477476
11	0xbec24837	-0.3794572
12	0x3e0a64ed	0.13515063
13	0xbef7c33e	-0.48391145
14	0xbe4c9d1b	-0.19981806
15	0xbe5129b2	-0.20426062
16	0x3f1e5a53	0.61856574
17	0xbe2f5458	-0.17122018
18	0x3f00155c	0.5003259
19	0xbe7eff98	-0.24902189
20	0xbe634291	-0.22193362
21	0x3eefe6ad	0.4685568
22	0x3f115d40	0.56782913
23	0xbe96465a	-0.2935055
24	0x3f2e08f1	0.67982394
25	0xbead1edb	-0.33812603
26	0x3f22d588	0.6360707
27	0xbed83aa5	-0.42232242
28	0x3e9ffe07	0.31248495
29	0x3cf88775	0.030338028
30	0xbeef3a82	-0.46724325
31	0x3dfce4c8	0.12348324
32	0x3f0a51af	0.5403089
33	0xbef688be	-0.481512
34	0xbedf8464	-0.43655694
35	0x3ec636b9	0.38713625
36	0xbe2ddd39	-0.16978921
37	0xbf074eb2	-0.52854455
38	0xbed25e28	-0.4108746
39	0x3e57ae29	0.2106253
40	0xbf022b14	-0.5084698
41	0x3e69964e	0.22811243
42	0xbe0b68d7	-0.13614212
43	0xbf1d561e	-0.6145953
44	0x3f06a11e	0.52589595
45	0xbf276723	-0.6539175
46	0xbe0821b4	-0.13294107
47	0xbcfcdef3	-0.03086803
48	0xbe8e9a05	-0.27851883
49	0x3ecf240c	0.4045719
50	0x3f159df7	0.5844416
51	0x3f5e8d1d	0.8693407
52	0x3ed63035	0.41833654
53	0x3dac7b81	0.08421994
54	0xbd44fef1	-0.048094694
55	0xbeb335f0	-0.3500209
56	0xbe1ea36a	-0.15492025
57	0x3f0ac0de	0.5420054
58	0x3e34190b	0.17587678
59	0xbf20c897	-0.62806076
60	0x3f491920	0.7855396
61	0xbea7c0a8	-0.32764173
62	0xbedcbe9b	-0.4311417
63	0x3f3b325e	0.7312373
64	0xbeb14931	-0.34626153
65	0x3da001f5	0.07812873
66	0x3e9d8929	0.30768707
67	0x3eb7349b	0.35782322
68	0x3f4a03ca	0.7891203
69	0xbee224f0	-0.44168806
70	0x3f13f1d1	0.5779086
71	0xbf3231fa	-0.6960751
72	0xbf29fd11	-0.66401774
73	0x3e8bdd6f	0.27317378
74	0x3f07d9b0	0.5306654
75	0xbe32f903	-0.17477803
76	0xbe69cf10	-0.22832894
77	0x3ed47739	0.4149721
78	0xbd6f47b3	-0.058417987
79	0xbe8c4ff6	-0.27404755
80	0xbac81000	-0.0015263557
81	0x3e10aa81	0.14127542
82	0x3eb07959	0.3446758
83	0x3f4fb30f	0.81132597
84	0xbecc1b69	-0.39864662
85	0xbf39e566	-0.7261566
86	0xbf069fac	-0.5258739
87	0x3e3994c7	0.1812316
88	0x3d3cfe5e	0.04614102
89	0xbf1c8557	-0.6114096
90	0x3f233129	0.6374689
91	0xbdff8e56	-0.1247832
92	0xbe51d19a	-0.20490113
93	0xbefdfc30	-0.49606466
94	0xbe793cfb	-0.24339668
95	0x3f50558d	0.8138054
96	0x3be05fcf	0.006847359
97	0x3f00419b	0.50100106
98	0x3f10cfb8	0.56566954
99	0x3e83ff56	0.25780743
100	0x3d4d4a22	0.050119527
101	0x3e5a1968	0.21298754
102	0x3f0fb445	0.56134444
103	0xbf0f5043	-0.55981845
104	0x3d22a915	0.03971203
105	0x3eb212aa	0.34779865
106	0xbf0ef3cd	-0.5584076
107	0xbee5febd	-0.44920912
108	0x3edfebf1	0.43734697
109	0x3f341209	0.7034002
110	0x3e424acc	0.18973845
111	0xbd842cb8	-0.06453842
112	0xbde41f9a	-0.1113884
113	0x3df6135d	0.12015412
114	0xbed08025	-0.40722767
115	0xbeeae362	-0.45876604
116	0x3f186775	0.5953286
117	0x3f61fc03	0.88275164
118	0x3f1f9c35	0.6234773
119	0xbf20c70b	-0.62803715
120	0xbeb02d01	-0.34409335
121	0x3ca4e706	0.020129692
122	0x3f112f40	0.5671272
123	0x3e99ba1d	0.30024806
124	0x3e971b0b	0.2951282
125	0xbfa1725b	-1.2613024
126	0x3e2f7056	0.17132697
127	0x3e3271a7	0.17426167
128	0xbf018752	-0.5059711
129	0x3ce28a06	0.027653705
130	0x3f7f0fdd	0.9963358
131	0xbe08fde7	-0.13378106
132	0x3f9bd90a	1.217561
133	0xbf80fc9a	-1.0077088
134	0x3e0da951	0.1383412
135	0x3d3d3b50	0.046199143
136	0xbf12426d	-0.5713261
137	0xbe55fd95	-0.20897515
138	0x3f0e528b	0.555947
139	0x3f00f118	0.5036788
140	0xbe3a9eb2	-0.182246
141	0x3f0e9195	0.5569089
142	0xbf30bb06	-0.69035375
143	0xbea62311	-0.3244863
144	0x3eab50cd	0.33460084
145	0xbd7288d8	-0.059212536
146	0xbf4b6ace	-0.79459846
147	0xbf0386dc	-0.51377654
148	0xbe375a09	-0.1790544
149	0x3e8f5795	0.27996507
150	0x3ccee8f4	0.025257565
151	0x3ed7838a	0.42092544
152	0x3f046761	0.51720244
153	0xbe8eed3e	-0.27915376
154	0xbdd34227	-0.10315352
155	0x3f143f82	0.57909405
156	0xbeb686ba	-0.35649663
157	0x3f0def92	0.5544368
158	0x3f1e7597	0.6189818
159	0x3ec7ed73	0.39048347
160	0x3e8f445b	0.2798184
161	0x3f067d80	0.5253525
162	0x3e91fbf6	0.28512543
163	0x3f222e3f	0.63351816
164	0xbebafe27	-0.36522028
165	0x3eeb5647	0.45964262
166	0xbf2ce75e	-0.6754054
167	0x3d7a250c	0.061070487
168	0xbf0c25ab	-0.54744977
169	0xbe723cb8	-0.23655975
170	0xbe6a3512	-0.22871807
171	0xbcac7c49	-0.021055358
172	0xbace8d4e	-0.0015758665
173	0x3e8bb1a3	0.27283964
174	0xbe8538bc	-0.26019847
175	0x3e86697b	0.2625235
176	0x3f4ce406	0.80035436
177	0xbec0263a	-0.37529165
178	0x3f4a5f08	0.79051256
179	0xbf1bd600	-0.60873413
180	0xbd0fb426	-0.035083912
181	0x3eba3485	0.36368194
182	0x3e8c73b9	0.2743204
183	0x3f32701a	0.69702303
184	0x3e8cc6b9	0.27495363
185	0x3f185f61	0.59520537
186	0xbd525b96	-0.051356874
187	0xbf07891a	-0.52943575
188	0x3e391ad9	0.18076648
189	0x3f357e41	0.70895773
190	0xbf16a7f6	-0.5885004
191	0xbcc946f6	-0.02456997
192	0x3e6141b7	0.21997724
193	0x3f0cf7dd	0.5506571
194	0xbf651202	-0.894806
195	0xbd7bd8dd	-0.061486114
196	0xbf0a90bf	-0.54127115
197	0xbefc1109	-0.49231747
198	0x3e9c8db2	0.30576855
199	0xbe9f3923	-0.3109828
200	0x3e06807e	0.13134953
201	0xbea59b61	-0.32345107
202	0x3e133a80	0.14377785
203	0xbeaf06db	-0.34184918
204	0x3d17c814	0.037056044
205	0x3f122c1a	0.57098544
206	0xbf1ce068	-0.61279917
207	0xbf37cc85	-0.7179645
208	0x3d5241f1	0.051332418
209	0xbba594a0	-0.005053118
210	0xbd9141c0	-0.07092619
211	0xbf0241f4	-0.50881886
212	0xbe54f98d	-0.20798321
213	0xbf3ac9f5	-0.7296441
214	0xbf077fa0	-0.52929115
215	0xbf2bd0df	-0.67115587
216	0xbee0b8b8	-0.4389093
217	0x3e6d9367	0.23200761
218	0xbf0aed20	-0.54268074
219	0x3ed31ccc	0.41232908
220	0x3e95048f	0.2910504
221	0x3ef19c4a	0.47189552
222	0x3e48a6dd	0.19594903
223	0xbd4db145	-0.050217886
224	0xbdf3d321	-0.11905504
225	0x3984502c	0.00025236735
226	0x3d675e73	0.05648656
227	0x3dfb37c8	0.12266499
228	0xbc611e00	-0.013740063
229	0x3d9b7f5a	0.0759265
230	0xbeca9eab	-0.3957418
231	0x3ed28c09	0.41122463
232	0x3f3af2c6	0.7302669
233	0xbf264ada	-0.64957964
234	0x3f10c976	0.56557405
235	0xbf1b6453	-0.6069996
236	0xbf23113f	-0.6369819
237	0x3f209ac7	0.6273617
238	0x3ee5a612	0.44853264
239	0x3dbfebc8	0.093711436
240	0xbd860225	-0.06543378
241	0x3ed6fe66	0.41990966
242	0x3e9cd150	0.30628443
243	0xbe01aa55	-0.12662633
244	0xbc86ce8c	-0.016455911
245	0x3dd0a8b2	0.10188426
246	0xbf00fb87	-0.503838
247	0xbedf068f	-0.4355969
248	0x3e5a4cd2	0.21318367
249	0xbe9586ab	-0.29204306
250	0xbf10e48a	-0.5659872
251	0x3ed3d6e6	0.41374892
252	0x3e923c5a	0.2856167
253	0x3d8476cc	0.06467971
254	0x3ed9e363	0.42556295
255	0xbed6892c	-0.4190153
