miniproject2/experiments/ensemblyVAE/modelSeed700nD3.pt (torch, 287219 bytes, 75 tensors)

prior.mean f4 [2]
000000 00 00 00 00 00 00 00 00
       0.0 0.0

prior.std f4 [2]
000000 00 00 80 3f 00 00 80 3f
       1.0 1.0

decoders.0.decoder_net.0.weight f4 [512, 2]
000000 7f a8 fd be c7 2a d6 be 7b 47 de 3e f6 12 d5 3e
       -0.49542615 -0.41829512 0.4341391 0.4161603
000010 2f 70 61 bf 15 fc 24 3f ff 2f 70 bd ee 6c 8e 3d
       -0.88061804 0.64447147 -0.058639523 0.069543704
000020 7c b1 67 be 5c 3c a2 be 65 fa c1 3e c7 3d 47 be
       -0.22626299 -0.31686676 0.37886348 -0.1945716
000030 62 da 0b bf d0 0d 7f 3d 42 ff 18 be 78 c0 b7 3d
       -0.546301 0.062269032 -0.14941123 0.089722574
000040 2d 74 04 be 98 56 1e 3e 47 ca 93 be e6 35 50 bf
       -0.12934943 0.1546272 -0.28865263 -0.8133224
000050 70 12 81 be 4d 5f 86 bd 9d d7 fe 3e a0 83 2e 3e
       -0.2520938 -0.06561146 0.49773875 0.17042398
000060 05 43 16 be 2f 92 44 3e 23 9b d1 3e da e2 0f 3f
       -0.14674003 0.1919639 0.40938672 0.56205523
000070 1c 02 0c 3f 28 65 1c bf 76 6d bb bd 81 17 af bd
       0.5469072 -0.6109185 -0.091517374 -0.08549405
000080 f0 e6 a1 3e 10 5d db 3e 13 72 3a 3e 73 1e fa 3c
       0.31621504 0.4284444 0.18207578 0.030532097
000090 17 75 57 be d5 28 9a be 63 36 c4 3e 26 5b 97 3e
       -0.2104076 -0.30109277 0.38322744 0.29561728
0000a0 65 07 bc 3e 3c 4a 95 be 2c 2b 95 3e 87 87 dd 3d
       0.36724392 -0.291582 0.291345 0.108168654
0000b0 96 ef 36 bf 81 95 ba be 72 f9 c0 be 4d 9b 3c be
       -0.7145933 -0.36442187 -0.37690312 -0.18418618
0000c0 53 fb 13 3d 95 ef 09 bf d8 9b 0f be 4c 2b f2 3e
       0.036128353 -0.538812 -0.14024293 0.47298658
0000d0 dd e6 1f bf 48 b7 5a be 59 73 1f bf e9 e0 25 3e
       -0.62461644 -0.21358979 -0.6228538 0.16199078
0000e0 15 ee b1 3e f1 03 c4 3e 73 92 cc be 34 18 23 3f
       0.34751955 0.38284257 -0.39955482 0.63708806
0000f0 8d 58 3b 3f 77 40 e9 3e ed d5 83 be b4 9a 08 bf
       0.7318199 0.45556995 -0.2574915 -0.5336106
000100 13 da c0 be 2b fc 25 bf 26 5c ce be b2 bb 81 be
       -0.37666377 -0.648379 -0.4030468 -0.25338513
000110 e2 06 2a 3f 7c 28 9c be e2 66 a1 be fa b5 b8 be
       0.6641675 -0.30499637 -0.31523806 -0.36076337
000120 60 25 bd be 2d f2 7c 3d c5 17 d3 bd be 3f 30 bf
       -0.36942577 0.061754394 -0.10307268 -0.6884726
000130 68 0e ec be 69 dd 55 3f 8c 34 37 3f 17 6a ac 3e
       -0.4610474 0.8354097 0.71564555 0.3367469
000140 4e 6e ac 3d 56 ec d5 3c db 41 04 3f 9f 45 83 3e
       0.084194764 0.02611367 0.5166299 0.25639054
000150 59 84 f2 3d 8b 5b 21 bf b9 4a ac 3e ae e4 9e 3e
       0.118416496 -0.6303031 0.3365076 0.31033844
000160 41 63 08 bf 3a 8d a1 3e 38 c3 41 3d d7 8b f6 be
       -0.5327645 0.3155306 0.047305316 -0.48153564
000170 5b d6 96 3e 03 40 a7 3d d9 78 e6 3d df 30 9f 3d
       0.29460415 0.08166506 0.112535186 0.07772993
000180 f0 7e 28 3e 65 e0 fe bd 30 f6 f5 be 0e 38 3c bf
       0.16454673 -0.124451436 -0.4803939 -0.7352303
000190 ab 8f b9 3d 3a 50 c7 3e 14 99 39 be 3a 8c 31 bd
       0.090606056 0.38928396 -0.18124801 -0.04334662
0001a0 e7 85 70 be 0a 10 a4 3d 2a fe 08 3f e6 e1 22 3f
       -0.2348858 0.08010872 0.53512824 0.63625944
0001b0 ff 11 61 be a6 9a 13 bf 54 52 21 bf 24 65 a8 be
       -0.21979521 -0.5765785 -0.6301625 -0.32889664
0001c0 06 39 12 3f 35 4d d4 be 1c 10 44 3e d8 b5 1a 3f
       0.5711826 -0.41465154 0.1914677 0.6043372
0001d0 a0 0c 16 bf d7 2c e4 bd 02 68 23 bf b9 73 1c bf
       -0.58613014 -0.11141365 -0.6383058 -0.6111408
0001e0 f0 5d f7 be 2d 60 19 3f 32 4b ce 3d a9 20 f4 3e
       -0.48313856 0.5991238 0.10072936 0.47681168
0001f0 f0 7a 91 be f5 f9 91 be 73 8a 1b bf 4a 03 79 bd
       -0.28414106 -0.28511015 -0.6075813 -0.060794152
000200 8c 79 c9 3e 93 19 95 3e 0b 1b 26 3e 94 78 ae bc
       0.39350545 0.29121074 0.16221254 -0.02129773
000210 cc e5 0c be b5 82 39 3f e5 31 12 bb af fa 18 bd
       -0.13759536 0.7246507 -0.0022307571 -0.037348446
000220 f3 12 3d be 97 e3 c3 be ae 4d e5 be 14 d3 06 bf
       -0.1846426 -0.38259575 -0.44785827 -0.5266583
000230 ab 7e 0f 3f e0 92 15 3f 36 d0 5a 3e 13 9f 15 3f
       0.56052655 0.5842724 0.21368489 0.58445853
000240 81 f5 23 3f e1 77 de bd e9 95 cc 3d 49 b3 24 bf
       0.64046484 -0.10862709 0.099895306 -0.6433607
000250 5e ad eb 3e cf 41 bc be cc b1 63 3c 15 9f 3e bf
       0.46030706 -0.36768958 0.013897371 -0.7446149
000260 0c d8 d4 be 65 65 02 bf 64 17 1e 3f 4d 98 0f 3f
       -0.4157108 -0.50935966 0.6175444 0.5609177
000270 42 87 ef bd b1 6e 7f be bd de 4d be 25 59 50 3e
       -0.1169572 -0.24944569 -0.20104499 0.20346506
000280 68 97 bd be b9 a5 cb be 40 dd 08 bf 84 ac 1f bf
       -0.37029576 -0.39774874 -0.534626 -0.6237261
000290 a4 62 23 3e c8 81 0b 3f 4f d7 f4 be b9 f1 0a 3f
       0.15955597 0.54494905 -0.47820517 0.5427509
0002a0 56 e8 64 3e 97 54 c7 3e c0 7c bd be d3 f2 b5 3e
       0.22354254 0.38931724 -0.3700924 0.35536823
0002b0 6f 2d df 3d b5 8e 82 be 2d 9e d0 be 3f a8 2a 3f
       0.10897338 -0.25499502 -0.4074568 0.66662973
0002c0 cf e8 f4 be 2a 6b 42 3f 3f 08 02 3f ac 49 ee be
       -0.4783387 0.7594477 0.5079383 -0.46540582
0002d0 8f b8 13 bf a9 57 22 bf a3 a8 33 3e ff cf 67 3e
       -0.5770349 -0.6341501 0.17544799 0.22637938
0002e0 a3 b7 91 be 24 6c e7 be d7 af 39 3f dd 42 a9 3e
       -0.28460416 -0.45199692 0.72533935 0.33058825
0002f0 5e 2e 96 be fa c1 56 bf d1 0b fa 3e 9a 63 ba 3e
       -0.2933225 -0.83889735 0.4883714 0.36404115
000300 69 23 54 3e 91 9f 55 3e c5 a2 da be 5f f6 d9 3e
       0.20716633 0.20861651 -0.42702308 0.4257078
000310 73 fc 04 3e 78 b0 b6 3e a1 c8 be be 18 19 cd 3d
       0.12986927 0.3568151 -0.37262443 0.10014552
000320 26 99 08 3e 43 b5 0f 3e a8 76 af be 7c 88 00 3f
       0.13339671 0.1403399 -0.34270215 0.5020826
000330 e0 9f 2d bf 3e 6e 35 bf 0f 4e 8c 3d eb 65 5e bd
       -0.67822075 -0.7087134 0.06850826 -0.054296415
000340 45 75 22 be 04 22 b5 3e 48 97 c8 be ab 3d a1 3e
       -0.15865047 0.35377514 -0.39177918 0.3149236
000350 63 37 1f 3f c6 e3 0a bf 14 bf ad 3e 44 7c 7a 3e
       0.6219389 -0.54253805 0.33934844 0.24461466
000360 3e 60 8b 3e 14 e1 8b bd e8 c4 0c 3e d8 b7 f3 3d
       0.27221864 -0.068300396 0.13746989 0.119003
000370 20 4c 5a 3f 2f 0e 5f bf 5e 6c 0d 3f 79 b1 17 bf
       0.8527241 -0.8713102 0.5524348 -0.59255177
000380 86 a8 95 3d 08 90 b3 be a8 86 fe 3e 97 c0 8e 3d
       0.07307534 -0.35070825 0.4971211 0.06970327
000390 63 8d 0b be c1 00 2c bf 75 03 2d be 4e 8a 00 3e
       -0.13628154 -0.6718865 -0.1689585 0.12552759
0003a0 09 71 0e 3e 7f 2e 2d be f6 07 f9 be 56 a2 34 bf
       0.13910307 -0.16912268 -0.48638886 -0.70560205
0003b0 c5 5e a3 be d6 25 ec 3e 62 14 81 3e d8 77 10 bf
       -0.3190824 0.46122617 0.25210863 -0.5643287
0003c0 3d 82 e1 3e 96 fd 49 3e 73 e1 17 3f 69 24 ea bc
       0.44044676 0.19725642 0.59328383 -0.028581815
0003d0 6c 97 9a 3e d1 cf e1 be b9 81 3b 3e 5c b2 29 bf
       0.3019365 -0.44103864 0.18311204 -0.6628778
0003e0 d6 da a0 3e 90 d3 ff 3e 91 a1 dd 3d 1a dc 0b 3f
       0.3141696 0.49966097 0.10821832 0.54632723
0003f0 7b 04 3c 3f 06 eb 0a bf f7 64 16 3f d9 14 e1 3e
       0.73444337 -0.5426487 0.5874781 0.43961218

decoders.0.decoder_net.0.bias f4 [512]
000000 8f 5c b6 3e 69 3d 02 bf 7f 37 38 bf a7 5d a3 3e
       0.35617492 -0.50874954 -0.7195968 0.3190739
000010 37 c2 39 bf 00 8a 00 bf de 7c 06 3e fe d2 e9 be
       -0.72561973 -0.5021057 0.1313357 -0.45668787
000020 7d b5 fd 3d 77 61 40 3e 01 ae 77 bc 50 64 fd be
       0.12388132 0.1878718 -0.015117169 -0.49490595
000030 2f 29 19 bf cd 6c 15 bf f5 3e 71 be d4 ec 09 3e
       -0.59828466 -0.5836914 -0.23559172 0.13469249
000040 5f dc de 3e 21 47 57 3f 60 26 0a bf a7 75 04 3f
       0.43527505 0.8409291 -0.53964806 0.51742023
000050 8c ce 17 bf 1e 12 13 3f c6 75 0f 3f a2 92 d1 bd
       -0.5929954 0.5744952 0.56039083 -0.10233046
000060 34 e9 91 3e 89 a5 e0 be 14 70 3b 3f 22 84 29 3e
       0.28498232 -0.43876293 0.7321789 0.16554311
000070 b2 ae 8d bd 0c 9f 2b bd b7 36 00 bf db 5c 4b 3e
       -0.06918086 -0.041899726 -0.5008349 0.1985964
000080 54 76 a3 be 27 cd 4b bc 8a 30 3b 3f ae ba 4d bf
       -0.31926215 -0.012439049 0.7312094 -0.80362976
000090 73 95 25 bf fd b6 3a be ae d2 36 be a8 19 16 3f
       -0.64681166 -0.18233867 -0.17853805 0.586329
0000a0 30 b4 00 bf 62 5a e3 3d db 88 c5 3e 9f 54 b8 bd
       -0.50274944 0.111012235 0.38580975 -0.09000515
0000b0 56 21 f4 be 26 e9 93 be 19 cf 15 3f 42 42 76 bc
       -0.47681683 -0.28888816 0.5851913 -0.0150304455
0000c0 37 c5 94 3e 3a 09 25 bf 64 d5 b7 3d 65 8c 28 3f
       0.29056713 -0.64467204 0.08976248 0.65839225
0000d0 c7 aa 89 3e a3 f3 ad 3e 34 1f 19 be 12 e9 9b be
       0.26888105 0.33974943 -0.1495331 -0.30451256
0000e0 6d 0b 88 bd f0 6a 27 3f 21 b7 aa be 85 98 d4 bd
       -0.06642804 0.6539755 -0.3334284 -0.10380653
0000f0 3d 30 1f bf 1d 2e 92 be 0c 99 69 be 10 c1 c8 3e
       -0.6218298 -0.28550807 -0.22812289 0.39209795
000100 03 2a 89 be ed f9 8b be ca 6a 9d 3e 6e 27 dc be
       -0.26789865 -0.27339116 0.30745536 -0.42998832
000110 9f f8 fa bd 88 92 f1 bc b3 12 8b bd ec 3e f7 be
       -0.12254452 -0.029488817 -0.06790676 -0.48290193
000120 1b 0c 6c be c3 13 51 bf eb c4 d2 be 04 d5 e5 be
       -0.23051493 -0.8167078 -0.4116586 -0.4488908
000130 65 cf 7f 3e 0f fc 84 3e 9a 85 44 3d 1f 64 a3 be
       0.24981458 0.25973555 0.047978975 -0.31912324
000140 da af 33 bf 26 d4 0c 3f 54 96 0d bf 5c 8b ce be
       -0.70190203 0.5501121 -0.5530751 -0.40340698
000150 fa 6c 0c be c6 76 cd 3e 4d 62 73 3c 7f 71 55 be
       -0.13713446 0.4012968 0.01485498 -0.20844077
000160 f5 c6 4f 3f 61 1e e2 3e eb eb d0 bd d2 1a c1 be
       0.8116296 0.44163802 -0.10201248 -0.37715775
000170 67 d8 52 bf a0 aa bf bd 6b 6f 3e 3e 41 f3 5e be
       -0.82361454 -0.09358716 0.1859719 -0.21772482
000180 e1 8d 28 bf 49 5c b2 be 97 da fc bd df 70 20 3f
       -0.6584149 -0.34836033 -0.1234638 0.6267223
000190 35 9e bc bd d1 d3 f7 3e 9c 15 0d 3f bf 80 1c 3f
       -0.09209863 0.4840379 0.551111 0.6113395
0001a0 5f e1 c3 be cc d0 54 3d 30 5e 25 bf 60 0d 12 bf
       -0.38257882 0.051956937 -0.64596844 -0.5705166
0001b0 2c 58 3f 3f d9 03 f8 be 0c 53 51 bd f3 67 10 3f
       0.74743915 -0.48440436 -0.05110459 0.56408614
0001c0 73 80 a0 bd 84 dd fa 3d 0d ad ea be 85 3d f3 be
       -0.07837 0.12249282 -0.45835152 -0.47507873
0001d0 e8 8a ae be e9 bb 78 3d ce f1 70 bf 4e f6 09 bf
       -0.34090352 0.06072608 -0.94118965 -0.53891456
0001e0 ae 01 b4 be fc 9c 96 be 06 b3 07 bf d3 89 54 3d
       -0.35157531 -0.29416645 -0.53007543 0.051889252
0001f0 6e 81 20 3e ec f1 00 3f 9c 5a 51 be bc 4b d1 be
       0.15674374 0.50369143 -0.20444721 -0.40878093
000200 a2 ff 29 be 60 8a e5 3e 1f 60 05 bf 11 22 cd be
       -0.16601422 0.44832134 -0.52099794 -0.40065053
000210 a5 0c 82 be c6 a1 09 3c a6 bc ed be a1 1b 0e 3f
       -0.25400272 0.008400386 -0.4643299 0.5551091
000220 d8 7b b4 be 5f b9 cf 3e e6 bb 07 3e 1b 8f 6c bd
       -0.35250735 0.40571114 0.13255271 -0.057753664
000230 db b9 66 3e 2c 9a e1 be 3a fe ab be 3d ee 07 be
       0.22531836 -0.44062936 -0.33592397 -0.13274474
000240 8f 70 fb 3d f5 d4 c3 be be 2a 45 bf 13 a3 a0 bd
       0.12277328 -0.3824841 -0.77018344 -0.07843604
000250 0c 68 fd be 1e 46 3e 3d 91 c5 16 bf d4 52 c7 3e
       -0.49493444 0.046453588 -0.5889521 0.3893038
000260 75 fc c0 3e 7e 6b a1 3e 0c 65 0e 3f 97 74 8e 3d
       0.3769261 0.31527323 0.55622935 0.069558315
000270 0d 50 0f 3f b1 03 89 3e a6 f6 31 3f 64 18 c7 3e
       0.5598152 0.2676063 0.6951698 0.38885796
000280 17 d4 0d 3f fe 30 4a bf a6 bc 47 bd 97 89 82 3d
       0.5540175 -0.78981006 -0.048763894 0.063738994
000290 8e 4b b2 3d d4 49 2b 3f 90 c2 06 bf d0 e2 81 bd
       0.08705817 0.6690953 -0.5264063 -0.06342089
0002a0 0c 12 c4 3e c3 6c 82 be a1 12 a4 3e 19 ae 61 3e
       0.3829502 -0.25473604 0.32045463 0.22039069
0002b0 7d 2b 08 bf b0 b5 ef 3e d0 36 31 3e 11 ca f0 3e
       -0.5319136 0.46818304 0.17306066 0.47029164
0002c0 16 ad f4 3e ad 29 09 bf b1 72 2f bf 3d 5e 02 3f
       0.47788304 -0.5357922 -0.6853438 0.50925046
0002d0 9f 59 0f bf 01 86 eb be 31 79 0c bf 56 73 1d 3f
       -0.55996126 -0.46000674 -0.54872423 0.61504114
0002e0 cb f9 9d 3e 2a 39 67 bd 68 3f 6f be e1 9f 0c be
       0.3085464 -0.056451 -0.23364031 -0.13732864
0002f0 e0 cb 04 bf f1 8a 53 be ea 86 12 bd a0 a3 4d be
       -0.5187359 -0.2065847 -0.035773195 -0.20081949
000300 d4 9e 95 3e 79 cd 57 bb 9d 5f 75 3f 00 70 cd be
       0.2922274 -0.0032928868 0.9584902 -0.40124512
000310 26 38 f2 be c1 08 24 3d 83 1d 02 bf cf 21 f1 be
       -0.47308463 0.04004741 -0.5082628 -0.47096106
000320 90 8a cf bd 07 6e 88 3e ed e4 6b 3e e3 d7 4b 3e
       -0.101338506 0.26646444 0.23036547 0.19906573
000330 bc 8c fd be 0d 36 38 3f ad c2 c7 3d 43 b3 a1 be
       -0.49521434 0.71957475 0.09753928 -0.31582078
000340 fa c6 5b be a9 9e 0a bf 9a be 7a 3f ca 16 fd bd
       -0.21462622 -0.54148346 0.97947085 -0.12357862
000350 03 75 88 3d 15 b3 a4 3e 65 47 d9 be 58 49 fd be
       0.06662943 0.3216788 -0.42437282 -0.4947002
000360 6d 12 2b 3f 3a b3 e6 3d ab 78 95 3e 52 b9 33 be
       0.6682499 0.112646535 0.29193625 -0.17551163
000370 0d a1 ce be 8d 4e 22 3f 67 59 33 bf ac 3d 34 3d
       -0.40357247 0.6340111 -0.7005829 0.044004127
000380 4d 8d cd be da aa bd bd 1f 64 18 bf 95 02 35 3f
       -0.40146866 -0.09261103 -0.5952777 0.70707065
000390 36 73 11 be 56 1c 84 bd 75 f2 b5 be b7 bf 19 3f
       -0.14204106 -0.06450717 -0.35536543 0.6005816
0003a0 e6 40 bc 3e 1a 93 16 bf 91 4c 89 3f 9b d1 b2 3e
       0.36768264 -0.5881821 1.0726491 0.3492554
0003b0 1b 7d 27 3f 82 66 ce be 29 e0 26 bf 60 b9 12 3d
       0.6542527 -0.40312582 -0.6518579 0.03582132
0003c0 db b2 77 bd b8 92 3b bf ed 06 8e bc 02 af 98 3e
       -0.060473304 -0.7327075 -0.017337287 0.2982102
0003d0 0b 5b 86 3d 62 bc 27 be ad 0d 71 3b 96 91 1f 3f
       0.06560334 -0.16380456 0.0036781833 0.6233152
0003e0 77 b8 a1 3e 82 ba 16 bf 16 be bd 3e c4 0a 10 3e
       0.31586048 -0.5887834 0.37059087 0.14066607
0003f0 68 5a 14 3f 53 bb 24 3f 51 76 2a bd 20 a2 ae bd
       0.5795045 0.64348334 -0.04161674 -0.08527017

decoders.0.decoder_net.3.weight f4 [32]
000000 b8 63 86 3f 96 c7 92 3f 39 af 7b 3f 11 47 80 3f
       1.0499182 1.1467159 0.98314244 1.0021688
000010 12 17 80 3f fa 7c 7a 3f bf 67 8a 3f 79 d0 7d 3f
       1.000704 0.9784695 1.0812911 0.9914623
000020 5f bc 72 3f ce ab 83 3f 6e 24 86 3f 24 9d 83 3f
       0.9481868 1.0286806 1.0479867 1.028233
000030 6c 6a 89 3f ef 8d 85 3f 06 2c 8a 3f f3 7a 83 3f
       1.0735602 1.043394 1.0794685 1.0271896
000040 a2 c8 7e 3f 2a 08 86 3f 46 4c 84 3f 17 99 81 3f
       0.9952489 1.0471241 1.0335777 1.0124844
000050 a8 7d 7b 3f 37 d4 7c 3f 5c 34 7a 3f 6b 9d 71 3f
       0.9823861 0.98761314 0.97736144 0.94380826
000060 36 0e 77 3f cf 62 89 3f 51 f6 87 3f 65 d9 84 3f
       0.9650606 1.0733279 1.0622045 1.0378844
000070 5d bd 82 3f 57 a7 75 3f 88 54 7d 3f 65 b7 83 3f
       1.0214039 0.95958465 0.9895711 1.0290343

decoders.0.decoder_net.3.bias f4 [32]
000000 56 af 2a 3d 8c 85 87 3c 83 2d 46 3d 72 f2 97 3c
       0.04167112 0.016543172 0.048383247 0.018548224
000010 c7 cc 13 bc 7b 4e 53 3d 4a ea 27 3b 55 b6 d2 b8
       -0.009020991 0.051588517 0.0025621825 -0.00010047542
000020 2d 32 cd bc db 04 69 bc ec 62 35 3c 31 ea e4 bc
       -0.02504834 -0.014222349 0.011070948 -0.027943702
000030 d9 80 85 3d 0d ef e4 3d 42 5f d6 3c a7 7f 46 bd
       0.06518716 0.11178408 0.02616847 -0.048461583
000040 bf 4d 23 bd 5d 92 6f 3d b6 56 77 3d e1 d1 dd 3c
       -0.039869066 0.058489192 0.06038543 0.027077617
000050 07 cf 53 3c 1b 16 2e bd 2e 18 d1 bc cc 82 36 bd
       0.012927777 -0.04250155 -0.025524225 -0.04455833
000060 ba bf ff bc 10 ad de bc 04 be bc bd 2d 7e c7 3d
       -0.031219352 -0.027182132 -0.0921593 0.09740863
000070 a9 db b1 3d ea 87 5f bd 59 5e c1 3c 01 a9 09 3e
       0.08684475 -0.054572977 0.023604559 0.13443376

decoders.0.decoder_net.3.running_mean f4 [32]
000000 f8 ff 7f 3e f8 ff 7f 3e f8 ff 7f 3e f8 ff 7f 3e
       0.24999988 0.24999988 0.24999988 0.24999988
000010 f8 ff 7f 3e f8 ff 7f 3e f8 ff 7f 3e f8 ff 7f 3e
       0.24999988 0.24999988 0.24999988 0.24999988
000020 f8 ff 7f 3e f8 ff 7f 3e f8 ff 7f 3e f8 ff 7f 3e
       0.24999988 0.24999988 0.24999988 0.24999988
000030 f8 ff 7f 3e f8 ff 7f 3e f8 ff 7f 3e f8 ff 7f 3e
       0.24999988 0.24999988 0.24999988 0.24999988
000040 f8 ff 7f 3e f8 ff 7f 3e f8 ff 7f 3e f8 ff 7f 3e
       0.24999988 0.24999988 0.24999988 0.24999988
000050 f8 ff 7f 3e f8 ff 7f 3e f8 ff 7f 3e f8 ff 7f 3e
       0.24999988 0.24999988 0.24999988 0.24999988
000060 f8 ff 7f 3e f8 ff 7f 3e f8 ff 7f 3e f8 ff 7f 3e
       0.24999988 0.24999988 0.24999988 0.24999988
000070 f8 ff 7f 3e f8 ff 7f 3e f8 ff 7f 3e f8 ff 7f 3e
       0.24999988 0.24999988 0.24999988 0.24999988

decoders.0.decoder_net.3.running_var f4 [32]
000000 6e 0e 3a 3d 61 68 71 3d 04 36 8c 3d 3b ab 67 3d
       0.045423917 0.058937434 0.0684624 0.056559782
000010 11 fb 9a 3d 53 0e a4 3d ea 8d 63 3d 18 db ae 3d
       0.07567418 0.08010545 0.05555526 0.085378826
000020 36 9e 59 3d 90 f8 ba 3d e0 34 30 3d 25 98 9d 3d
       0.053129397 0.09129441 0.043019176 0.07695035
000030 d1 98 b1 3d f0 ec aa 3d a5 4a 54 3d c5 39 b0 3d
       0.086717255 0.083459735 0.051829 0.08604769
000040 32 7d 79 3d 98 bf 6b 3d be 55 7f 3d ab 06 90 3d
       0.06091041 0.057555765 0.06233763 0.07032522
000050 ba 18 78 3d e2 f4 87 3d 4b 09 92 3d bb 66 73 3d
       0.060570456 0.066385046 0.07130679 0.059424143
000060 b8 d9 99 3d ac d2 9c 3d 86 e3 7d 3d b9 0e 53 3d
       0.0751223 0.0765737 0.06198456 0.051527712
000070 b5 6a 95 3d e0 8f 80 3d e7 8e a2 3d 12 e1 54 3d
       0.072957434 0.06277442 0.07937413 0.051972456

decoders.0.decoder_net.4.weight f4 [32, 32, 3, 3]
000000 f8 89 60 3c a7 c7 85 bc 1c 7c 8d bd ec 64 31 39
       0.013704769 -0.016330553 -0.069084376 0.00016917632
000010 49 2a b2 bd 29 3b 94 bd 73 4c 85 3d 4e 6d 47 bd
       -0.086994715 -0.072378464 0.06508722 -0.048688225
000020 f4 30 79 3c bd 73 85 bc 92 42 e2 bd fc b5 a8 bb
       0.015209425 -0.01629054 -0.110478535 -0.0051486474
000030 ba 76 a8 bc 71 bf 94 3c 98 b1 42 3d 8f 0b 89 3b
       -0.020564426 0.018157693 0.047532648 0.004182286
000040 bf 40 31 3d 7f df 1f 3d df 62 87 bc ea 04 49 3d
       0.043274637 0.0390315 -0.016526638 0.049076952
000050 9a 22 aa bc f0 bb d4 3b a4 23 9a ba 1d d0 8b bd
       -0.020768452 0.0064921305 -0.0011759889 -0.06826804
000060 95 56 98 bd cb 36 8e bd 44 1e b2 bc 15 01 2a 3d
       -0.07438389 -0.06944045 -0.021742947 0.04150494
000070 4c d5 81 bc 26 03 d8 bb db 8c 03 3b 7f 91 56 3b
       -0.015848778 -0.006592172 0.002007297 0.003274053
000080 08 0d 42 3d 65 a2 72 bc ed ce f1 bb 90 d3 16 3d
       0.04737571 -0.014809226 -0.007379404 0.036822855
000090 72 57 ce bc b7 89 d1 3c 15 9d 80 bd 84 98 be bd
       -0.025188182 0.025578363 -0.06279961 -0.09306434
0000a0 69 09 36 bd 9d 2f 13 bd 26 30 47 3d fc 9a 0f 3b
       -0.044442568 -0.03593408 0.048629902 0.0021912446
0000b0 9d 16 2a 3d 4e 83 8c 3c 96 6b 87 3c a7 b9 1a bd
       0.041525472 0.017152455 0.016530793 -0.037774708
0000c0 b0 d2 10 bd 5d 5d 92 bd bc f9 8a bc 78 d0 e1 3b
       -0.035357177 -0.07146714 -0.016964786 0.0068913065
0000d0 3d a2 78 3d 14 ff 31 3d 56 c3 46 bc a2 24 6b 3d
       0.060701597 0.043456152 -0.012131533 0.057407983
0000e0 b5 a3 63 3b ea 0c 28 3d 5a c1 9a 3d c3 a1 e2 3c
       0.0034735028 0.04102794 0.0755641 0.027665025
0000f0 79 17 00 bd 27 ef 1f 3b 5d e5 71 bc 51 75 1b 3d
       -0.031272385 0.002440402 -0.014764157 0.03795368
000100 17 60 01 be fa d3 12 bd e8 07 5c 3d 9c af 4f bd
       -0.12634312 -0.035846688 0.053718477 -0.050704584
000110 2f f4 07 3d 5f af d3 bc 9c 08 ae bc 2b 2c 91 3c
       0.033191856 -0.02584046 -0.02124434 0.017721256
000120 70 7d fc 3c 91 08 77 bd 77 d2 9c 3d 03 70 ae bb
       0.030821532 -0.060310904 0.076573305 -0.0053234114
000130 cf 14 29 3c 3e f1 f4 3c 7a fb 85 bd 4e ac 83 3d
       0.010319903 0.02990019 -0.06542106 0.06429349
000140 bd 72 a2 3c 95 fd 3f bc eb a2 92 3d e5 04 99 bd
       0.019830102 -0.0117181735 0.071599804 -0.07471637
000150 b4 9a a7 bd 92 7a 05 bd 8f b6 97 3c 73 0a aa bc
       -0.08183804 -0.032587595 0.018519668 -0.020756936
000160 88 ae 59 3d 35 64 3d 3c 07 ac 26 bc 35 b3 11 3c
       0.05314496 0.011559536 -0.01017285 0.008892824
000170 19 9d 27 bd 32 f5 e9 3c ae de 61 bc eb 4b 07 bd
       -0.040921304 0.028559301 -0.013786001 -0.033031385
000180 2e 50 52 3d 17 64 1e bd 29 61 7c 3d 0b 3b 1d 3c
       0.051345997 -0.038669672 0.061616097 0.0095965965
000190 23 0a 72 bd 4a 6d 7e bb a8 95 59 bd b6 8c 99 bd
       -0.0590917 -0.0038822466 -0.05312124 -0.074975416
0001a0 2d 25 c3 bc 11 7e 5d 3d 5c 21 47 bc 23 c4 4d 3d
       -0.023821438 0.054075304 -0.01215395 0.05023588
0001b0 aa b6 72 3b d8 cd ee bc 61 d6 a1 bc b2 bc c2 bc
       0.0037035146 -0.029150888 -0.019755544 -0.023771618
0001c0 5a a3 b3 3c 73 b3 42 3d 2b 8b d8 3c 6d e9 04 bd
       0.021928478 0.047534417 0.026433548 -0.032449175
0001d0 63 aa 09 bd c7 f5 24 3d b7 aa b7 bc 6e 6f aa 3c
       -0.03360976 0.040273454 -0.02242027 0.020805087
0001e0 e4 cf 1b 3d 37 a3 99 3c 5a 2b 9f bd ca a9 6f 3c
       0.038040057 0.018754585 -0.077719405 0.014627883
0001f0 ab 46 fb 3c 01 e1 d8 bc 26 aa 32 3d f0 3a 4c bc
       0.030673346 -0.026474478 0.043619297 -0.012465224
000200 ab a9 dd 3c 8e 50 c1 bd bb 3c 18 ba c7 bc 70 3c
       0.027058443 -0.09439193 -0.00058073894 0.0146934455
000210 30 36 04 3d c7 32 a0 bd 4d d1 d8 3c 0b fa 73 bc
       0.03227824 -0.07822185 0.02646699 -0.014891158
000220 6c 04 3e bd 62 d0 84 bd ea 9b 52 bd 45 18 0b 3d
       -0.046390936 -0.06485058 -0.051418222 0.033958692
000230 f1 96 bc bc 5a 08 b5 bc c0 4b 10 bd 7a b7 ff 3c
       -0.023021193 -0.022098709 -0.03522849 0.031215418
000240 cc 26 d0 3d ec 94 5e bd 9f 11 90 3c 5e 98 a9 bc
       0.1016365 -0.05434124 0.017586527 -0.020702537
000250 d7 f7 99 bd 42 55 2e 3d 93 cb 0f bd 51 da ee 3c
       -0.07517975 0.042561777 -0.035106253 0.029156836
000260 c6 66 10 bc e8 cb 4f bd 08 29 86 3c 27 a1 50 3c
       -0.008813566 -0.05073157 0.016376987 0.012733734
000270 14 20 40 bd 22 a8 20 3d fe 02 a7 bd c3 7a 9d bc
       -0.046905592 0.039222844 -0.081548676 -0.019223576
000280 be 38 a5 3d c8 7b 94 3d 8f 70 27 3d 0f c5 84 3c
       0.08067463 0.07250172 0.04087883 0.016207246
000290 82 d3 71 3d a0 04 91 bd 5b 0e ad bd 56 0c 51 3c
       0.0590396 -0.0708096 -0.08450004 0.012759289
0002a0 cd bb 92 3d 10 ca 44 3d fe e3 f4 bc 79 5b e2 bd
       0.071647264 0.048044264 -0.029893871 -0.11052603
0002b0 4b ad 5e 3d af 3a a0 bc 96 2f c5 3c f1 c3 bb bb
       0.054364484 -0.019559233 0.024070542 -0.005730145
0002c0 d2 bf 5a 3d 20 a0 f5 3c d9 b1 62 bd 77 aa 8b 3d
       0.05340559 0.02998358 -0.05534539 0.06819623
0002d0 47 f0 cb bc db ed c2 bc 91 cb eb bc 41 72 8f bd
       -0.024894847 -0.023795059 -0.028783591 -0.07004214
0002e0 f3 79 0a 3d 35 be e3 bd 9d 4b 13 bc 36 ee a0 3c
       0.033807706 -0.111202635 -0.008990196 0.019644838
0002f0 52 37 08 3d fb 78 0c bd ad 36 ef bd c6 68 85 3d
       0.033255883 -0.034295063 -0.116803505 0.065141246
000300 2b 66 8e bd 6b 02 61 bb 4d 93 16 bd 1c cc 42 bd
       -0.06953081 -0.0034333717 -0.03676157 -0.047557935
000310 02 f1 0f 3c f4 81 75 bd a7 a1 2f bd 71 03 f4 bc
       0.008785488 -0.059938386 -0.042878773 -0.029786797
000320 e6 30 68 bc a3 84 50 bd 80 ac 58 ba 4b 72 23 bd
       -0.014171815 -0.050907742 -0.00082654506 -0.03990392
000330 6d a8 24 3d ef b2 16 bd 25 50 02 3d 53 01 ef bc
       0.040199686 -0.036791738 0.031814713 -0.029175436
000340 46 d6 8c 3d 12 ef 0d bd a2 c6 c5 3c e3 9c 05 3e
       0.06876807 -0.034651823 0.024142567 0.13048129
000350 bf c2 dd bb 62 99 4b 3d 34 6d 5d bc 17 e3 c6 bb
       -0.0067676003 0.049706824 -0.013514806 -0.0060695517
000360 a3 89 4d bd 1a fc 8f bb 96 6f 4a 3a 75 f0 8f bd
       -0.05018009 -0.0043940665 0.0007722316 -0.070282854
000370 da db 69 bb b3 f4 bb 3d a9 04 80 3d e2 cd ad bd
       -0.003568402 0.09177532 0.06250889 -0.08486535
000380 b9 7f a2 3c 26 fb 0c 3d 58 69 5b bc 30 fa 0c bd
       0.019836294 0.0344192 -0.013391815 -0.034418285
000390 c3 25 b6 bc 98 51 5f 3d 8d 67 41 bc e3 2f 07 3d
       -0.022234803 0.054521173 -0.011804474 0.033004653
0003a0 34 dd c3 bd 1b be a6 3b d4 55 03 3e ee 80 0b bc
       -0.095636755 0.0050885803 0.1282571 -0.008514626
0003b0 c0 2d a7 bd 46 0f 60 bc bd 88 c1 3c ad ff 29 3d
       -0.08163023 -0.0136755165 0.023624772 0.041503597
0003c0 8b 1e 82 3d fb 48 86 bc e1 22 ca bc 1f 6c 00 3d
       0.06353482 -0.016392222 -0.024674835 0.031353112
0003d0 89 2d 8c 3c de aa 8c bb 0c cf 33 ba 35 98 31 3d
       0.017111557 -0.00429283 -0.00068591605 0.043358047
0003e0 ce 8e 87 bd 5d 99 0b 3c dc 4b 5f bd 07 bb a6 bd
       -0.06619035 0.008520451 -0.054515705 -0.081411414
0003f0 b9 8d a9 b9 79 1b 39 3d c8 9a 18 b9 33 b4 10 bd
       -0.00032339784 0.045192216 -0.0001455351 -0.0353281

decoders.0.decoder_net.4.bias f4 [32]
000000 fc 8e 1e be c7 69 bf 3d 53 ee 5b 3d 68 cb 3d bc
       -0.15484232 0.09346347 0.05369408 -0.01158414
000010 5c be 2b 3d 3c 5a 85 bc 0d 4b 5f bd 17 7f ed bb
       0.041929588 -0.016278379 -0.054514933 -0.0072478163
000020 4c 25 c1 3b d1 0d 87 3d 86 d0 89 bc 4f 87 b5 3d
       0.0058943387 0.06594432 -0.016823065 0.08863699
000030 10 59 98 3c 7c c2 f4 3c b3 c3 69 3d 2b 1b b6 3c
       0.018597156 0.029877894 0.0570714 0.022229752
000040 83 31 42 3d 58 58 17 3d 8b d4 91 bc 4b ed cd 3d
       0.0474105 0.036949486 -0.017801544 0.10055026
000050 85 02 16 3d 6b fc 03 3d ed cd 19 bc 43 23 29 bd
       0.036623497 0.032223146 -0.009387475 -0.041293394
000060 be 36 78 3d d1 dc 4d 3c 3a 61 88 bd 0d 87 1a 3d
       0.06059908 0.012564854 -0.066591695 0.03772645
000070 90 95 1e bc be ad 01 3b bd 30 72 bc 11 6a 8a bb
       -0.009679213 0.0019787396 -0.014782128 -0.00422407

decoders.0.decoder_net.6.weight f4 [32]
000000 58 dc 81 3f 0c 40 6d 3f 4f 64 76 3f 05 29 7d 3f
       1.0145369 0.9267585 0.9624681 0.98890716
000010 e2 eb 63 3f 27 4b 6a 3f b4 46 6b 3f 4b ae 6f 3f
       0.89031804 0.91520923 0.9190476 0.93625325
000020 ee 4e 74 3f 43 00 6e 3f 6e 4d 64 3f 10 92 6e 3f
       0.9543294 0.9296915 0.8918065 0.93191624
000030 a0 92 6b 3f a5 69 72 3f ae 7d 65 3f 4a ac 61 3f
       0.92020607 0.9469245 0.89644897 0.8815352
000040 7d 53 6c 3f 4e 42 6a 3f 80 a3 5d 3f af 92 6d 3f
       0.92314893 0.9150742 0.86577606 0.92801946
000050 84 96 72 3f bd 28 64 3f 4c 00 7b 3f 09 c1 75 3f
       0.9476092 0.8912466 0.9804733 0.95997673
000060 20 c9 72 3f 80 62 68 3f 21 63 6b 3f 67 56 72 3f
       0.9483814 0.907753 0.91948134 0.9466309
000070 1b ee 6c 3f f0 d1 73 3f 78 fd 7d 3f c5 77 6f 3f
       0.9255082 0.95242214 0.9921489 0.9354213

decoders.0.decoder_net.6.bias f4 [32]
000000 08 d0 82 3d 3f d9 b6 3d 45 a6 b2 3d e4 56 8b bc
       0.06387335 0.08928155 0.0872312 -0.017009206
000010 8e 15 97 b9 f0 27 a6 bc ff 8a 61 bd 94 dd 5b 3d
       -0.00028817024 -0.020282716 -0.055064198 0.05367811
000020 12 cf f3 3d b0 a6 16 3e 73 e0 92 bd 9e 04 87 bb
       0.1190473 0.14712024 -0.071717165 -0.0041204235
000030 cb 1a be bc ad 7d d2 39 e4 99 4c bd 71 72 08 bc
       -0.023206135 0.00040147957 -0.04995145 -0.008328066
000040 21 11 82 bd d5 c7 39 bd d1 aa 79 3d 6f 91 33 bd
       -0.06350923 -0.04535659 0.06095392 -0.04383987
000050 c3 20 40 bd 99 ff 27 bd c4 2a a9 3d c9 bf 13 3d
       -0.046906244 -0.04101524 0.0826011 0.036071572
000060 23 30 af 3d 23 45 42 bd 45 b7 09 3c a1 1a e3 3d
       0.08554103 -0.047429215 0.008405511 0.110890634
000070 c3 45 21 bd e7 84 25 3d 6c 1b 10 3e fa 41 4d bd
       -0.03937317 0.04040995 0.1407296 -0.05011175

decoders.0.decoder_net.6.running_mean f4 [32]
000000 1e 49 12 3e 1e 49 12 3e 1e 49 12 3e 1e 49 12 3e
       0.14285704 0.14285704 0.14285704 0.14285704
000010 1e 49 12 3e 1e 49 12 3e 1e 49 12 3e 1e 49 12 3e
       0.14285704 0.14285704 0.14285704 0.14285704
000020 1e 49 12 3e 1e 49 12 3e 1e 49 12 3e 1e 49 12 3e
       0.14285704 0.14285704 0.14285704 0.14285704
000030 1e 49 12 3e 1e 49 12 3e 1e 49 12 3e 1e 49 12 3e
       0.14285704 0.14285704 0.14285704 0.14285704
000040 1e 49 12 3e 1e 49 12 3e 1e 49 12 3e 1e 49 12 3e
       0.14285704 0.14285704 0.14285704 0.14285704
000050 1e 49 12 3e 1e 49 12 3e 1e 49 12 3e 1e 49 12 3e
       0.14285704 0.14285704 0.14285704 0.14285704
000060 1e 49 12 3e 1e 49 12 3e 1e 49 12 3e 1e 49 12 3e
       0.14285704 0.14285704 0.14285704 0.14285704
000070 1e 49 12 3e 1e 49 12 3e 1e 49 12 3e 1e 49 12 3e
       0.14285704 0.14285704 0.14285704 0.14285704

decoders.0.decoder_net.6.running_var f4 [32]
000000 89 f7 7c 3b be e8 54 3b 02 0c 67 3b 79 ae b9 3b
       0.003859969 0.0032487358 0.003525496 0.0056665507
000010 a8 e3 7f 3b 61 ba 7e 3b b2 8a d3 3b 7a 4f 89 3b
       0.0039045606 0.0038868415 0.0064557428 0.0041903825
000020 fd 5e cd 3b 99 93 92 3b 34 c8 fe 3b 63 49 a6 3b
       0.006267427 0.0044731614 0.007775331 0.0050746663
000030 ca 28 0e 3c 9a c3 e2 3b 91 47 97 3b b2 75 5c 3b
       0.008676717 0.00692029 0.0046166857 0.0033639488
000040 ef ba dc 3b 9c c3 a5 3b 49 ec 9b 3b 93 8c 89 3b
       0.0067361514 0.005058719 0.004758392 0.004197666
000050 92 95 5f 3b b5 17 95 3b ce 8b 44 3b 8f 49 dc 3b
       0.003411625 0.0045499452 0.0029990557 0.006722636
000060 6f 2a f7 3b ba d8 a5 3b 24 33 0e 3c 71 cf 32 3b
       0.0075429003 0.005061236 0.008679185 0.002728429
000070 2e 39 56 3b c6 fc 97 3b 15 0f 06 3b 7d 8e ab 3b
       0.003268789 0.0046382872 0.0020455767 0.005235492

decoders.0.decoder_net.7.weight f4 [32, 16, 3, 3]
000000 f7 dd 8b bc 78 16 b4 3d 7e 2f 88 3d f8 b6 bd bc
       -0.017073615 0.08793348 0.066496834 -0.023158535
000010 8c 9a 47 3d 3d af 71 bd 78 fd fc 3c 2e 83 d6 3b
       0.04873137 -0.05900501 0.030882582 0.0065463996
000020 bb 46 35 bd 58 cf 91 3d a5 ad d1 3d 13 f6 10 bc
       -0.044256907 0.07119626 0.10238198 -0.008847731
000030 c2 cf 6e 3d 90 e1 1f bd e0 3a a7 bc 2e 77 38 3d
       0.058303602 -0.039033473 -0.020413816 0.045035534
000040 24 17 c0 3a 34 ea 66 3b 16 2d 34 bd a1 1e 1f 3d
       0.0014655334 0.003523481 -0.04398831 0.03884757
000050 33 c9 90 bb a6 9c 3b bd 3f 7f de 3d f2 fe 12 3c
       -0.004418516 -0.04580369 0.10864114 0.0089719165
000060 49 24 5f 3d fb 90 ad 3c 5c 8b 8d 3c 74 da 0a bd
       0.054477964 0.021187296 0.017278366 -0.03389974
000070 2d 52 d3 bd a7 92 92 bc af 77 32 bd c3 b2 00 be
       -0.10318408 -0.017892195 -0.04357117 -0.12568192
000080 f3 a1 2e bd 4e 3b 13 bd b5 e8 aa bd 48 65 53 3c
       -0.042634916 -0.03594523 -0.083451666 0.012902565
000090 c1 2e 3d 3b e6 80 51 3d 77 8b 23 3d dd 9e ec 3c
       0.0028866979 0.051148318 0.039927926 0.028884346
0000a0 4c fb ae bd ba 93 90 3b 1e 36 ac 3d 03 91 d7 3d
       -0.08544025 0.0044121416 0.084087595 0.10525706
0000b0 67 fe 51 3c f7 c8 83 bd 78 fe 01 bd 43 6e d5 3b
       0.012817002 -0.064348154 -0.03173682 0.0065133884
0000c0 bb 34 4b 3d df 0f 1a 3e b3 96 7c 3d 3d 61 59 bc
       0.049610835 0.15045117 0.061667155 -0.013267812
0000d0 44 0e 42 bd 4e 7b 4d bd 9d 0f d3 bc 69 db ba bd
       -0.047376886 -0.05016642 -0.02576428 -0.091238804
0000e0 30 64 3a 3d c2 a0 4a bd 8e 77 ad bc 12 35 4a bc
       0.045505702 -0.049469717 -0.021175172 -0.0123417545
0000f0 69 6f b6 3d 1a 9d 61 3d 56 a0 57 3d 73 b5 d1 3c
       0.089079686 0.055081464 0.052643143 0.025599217
000100 1e 09 7d 3d 58 d4 b1 3c f4 75 c1 3d 6b 0a 6f bc
       0.061776273 0.021707699 0.09446326 -0.014589886
000110 80 3b 4f 3d d9 ba 87 3d e6 21 9a 3b d7 cc 82 3d
       0.050593853 0.06627435 0.004703748 0.06386726
000120 2a de 29 bc fb 56 36 bd d5 db 71 bd a4 2c 98 3d
       -0.010367909 -0.044516545 -0.05904754 0.074303895
000130 38 fb 8b bb 04 c9 a4 bd a5 26 6e bd f3 67 86 3d
       -0.004271891 -0.08046153 -0.058142323 0.065627955
000140 e5 10 9d bb f6 ca e3 bd c2 6f 7f bd 9f 97 f5 3c
       -0.0047932738 -0.11122696 -0.06236244 0.029979525
000150 be d7 bf bd af 71 d8 3d b0 a7 11 3e 6d 11 c7 bb
       -0.093673214 0.105685584 0.14224124 -0.0060750754
000160 69 9d fc 3d d9 4a 27 38 f6 ad 98 bc 4a b9 12 3d
       0.12334711 3.988561e-05 -0.018637639 0.035821237
000170 60 06 b3 3c e2 11 b1 3d 45 0c 10 bd 1c eb cb bd
       0.021853626 0.08645989 -0.03516795 -0.09956953
000180 e5 9f 86 bd 71 5f 82 3d fd 37 0e 3c 05 eb 3a bd
       -0.06573466 0.0636586 0.008680341 -0.04563429
000190 45 77 24 3d 58 19 a2 bd 1d 95 05 bc a2 22 62 bd
       0.040152807 -0.0791499 -0.008153227 -0.05520881
0001a0 27 af 72 3c fd be f9 bc ae 25 14 3d de 03 22 3c
       0.014812267 -0.030486578 0.036168747 0.009888617
0001b0 93 cf 22 bd 2f 7e 14 3d b4 aa ff 3b d7 e4 dd 3b
       -0.03974874 0.03625315 0.007802332 0.0067716646
0001c0 67 84 1a be 69 93 5b bd 38 dd c7 bc c4 5a 32 bd
       -0.1508957 -0.05360738 -0.024397478 -0.043543592
0001d0 7e cc 52 3c 1a b2 1b 3d cd 0d 9e bd ff 80 6c 3c
       0.012866138 0.038011648 -0.07717476 0.014435052
0001e0 50 ab df bc 0c 6a bc bc 3c 92 98 bc aa d4 73 3d
       -0.027303368 -0.022999786 -0.018624417 0.059528984
0001f0 62 f1 44 3d af f1 50 bd 1a 98 7f 3b 63 d8 9e bc
       0.048081763 -0.051011737 0.0039000572 -0.01939029
000200 c1 05 a2 bd 80 81 09 be e4 6d 0e be ec 1b ab 3c
       -0.07911254 -0.13428307 -0.13909107 0.020887338
000210 92 c8 0d bc bf 95 bf bc b6 1c 38 3c a1 b9 9b 3a
       -0.008653777 -0.023386834 0.011237314 0.0011880883
000220 e6 89 91 3c 9d d6 8d bd 6f 73 b9 3d 1c 27 82 bd
       0.01776595 -0.069257 0.0905522 -0.06355116
000230 93 41 06 bd cf f5 eb 3b a3 b3 ae 3d 51 18 52 3d
       -0.03277738 0.0072009335 0.08530357 0.05129272
000240 23 3d 18 3d 70 49 70 bd 09 5a d9 bc 9f 67 ba 3c
       0.03716768 -0.058663785 -0.02653219 0.022754489
000250 76 8d af bd 83 f3 bf bd 5a 55 45 bb 7e 4e 7c bd
       -0.085719034 -0.09372618 -0.0030110688 -0.061598293
000260 58 e1 39 3c d5 f2 09 3d 26 cf c5 bc d7 f6 bb bc
       0.01134523 0.03367885 -0.024146628 -0.02294485
000270 84 3a 00 3e 6f 38 0b 3d 3d 77 37 3d 75 64 8f bd
       0.12522322 0.033989366 0.04479145 -0.070015825
000280 96 61 74 3d 47 e8 e3 3b df 5a 2b bc 5f c5 41 bd
       0.059663378 0.00695518 -0.010458677 -0.04730737
000290 78 e8 56 3d ec ea cf 3c d9 de 17 bc 98 f3 69 3d
       0.052467793 0.025380574 -0.00926944 0.057117075
0002a0 6a 27 07 bb 72 8d 48 bd fc 60 b7 3d d8 72 2d 3c
       -0.0020622858 -0.048963018 0.08954045 0.010586463
0002b0 9c 6b 8e 3d 90 ec 16 3d a5 fa e3 3c 05 76 f3 3d
       0.069541186 0.036846697 0.027829478 0.11887745
0002c0 87 67 13 bd 1d 32 a6 bc bc f2 31 bd f4 62 0b 3d
       -0.035987403 -0.020287568 -0.04344438 0.034029916
0002d0 67 9e d6 bd f5 51 bf bc 43 2d 87 3c d9 46 b1 bd
       -0.104794316 -0.02335451 0.016501075 -0.08656091
0002e0 2e 7b 83 3a 02 a1 04 bd cd a6 85 bd b5 1d 1c 3d
       0.0010031217 -0.03238011 -0.06525955 0.03811427
0002f0 3c ae 75 bd 6f 8e 46 bd a8 e0 a0 3c ed 7d 53 3d
       -0.059980616 -0.04847568 0.019638374 0.051633764
000300 4a 7f d8 bc ec 40 f4 3c ec d8 5a 3c 35 5f 8f 3d
       -0.026427884 0.029816113 0.013357382 0.07000581
000310 6b d9 13 3d 50 b0 d5 bc c9 bd 04 3d b0 b3 93 3d
       0.036096018 -0.026085049 0.032407556 0.07212007
000320 11 00 2a 3d 51 f3 78 bc fd dd 93 3d 15 2d 19 3d
       0.04150397 -0.01519473 0.07220075 0.03739651
000330 ef e3 c6 bc 1a 9f 53 3c 1a bb d7 bc 10 e6 9f bd
       -0.02427861 0.012916351 -0.026334334 -0.07807553
000340 c2 7b af b9 62 46 ca 3d e9 99 82 bd ac 39 94 bb
       -0.00033470808 0.09876706 -0.06377012 -0.0045234766
000350 45 78 40 3d 3d bc 91 bd e9 d8 b2 3c a7 6b 39 3d
       0.046989698 -0.07115982 0.021831946 0.04526868
000360 94 da 08 3d b7 8f 07 3c 98 88 70 3d 35 bf f4 3c
       0.033411577 0.00827401 0.058724016 0.02987633
000370 a4 c5 4d 3c d4 c0 cf bb 36 00 49 bc bf 61 3d bd
       0.012559328 -0.0063401256 -0.012268117 -0.046235796
000380 1a f5 ad bd f7 fa 37 bc 9e 0e 61 3d cd 6c 60 3d
       -0.08494015 -0.011229268 0.05494558 0.05479126
000390 08 56 22 3d 65 85 f5 3c 00 35 a3 3d 2f 0a b2 3c
       0.039632827 0.029970834 0.07969093 0.021733372
0003a0 b2 a7 de bb e7 d9 ca 3c a6 2a 32 3d e7 cf 8d 3d
       -0.006794893 0.024762107 0.043497704 0.0692442
0003b0 a6 e7 96 3d 70 12 0a 3d 41 a2 14 bc 4b ea c1 3d
       0.07368402 0.03370899 -0.0090718875 0.09468516
0003c0 13 97 b7 3c 6c 64 e9 bc 75 f3 a2 3d 6d b1 b2 bc
       0.022410905 -0.028490268 0.07956592 -0.021813119
0003d0 bc 5c 82 3c c3 11 63 3d fd 51 1f 3d 1d 54 95 3d
       0.01591336 0.05543686 0.03889655 0.07291434
0003e0 15 d7 70 3d 2f b7 35 bd a5 bb 71 bc 50 45 f2 bc
       0.05879887 -0.04436415 -0.014754211 -0.029574066
0003f0 02 db a2 3d b0 da 09 3d 59 39 c7 3d 7a 2e 08 3d
       0.07951929 0.033655822 0.09727735 0.03324745

decoders.0.decoder_net.7.bias f4 [16]
000000 96 df e0 bd f7 03 05 be cc c6 fc 3c cc d4 8a bd
       -0.10980146 -0.12989794 0.030856512 -0.06778869
000010 7f 68 c3 bd 8f 6f 09 bb 87 32 94 3d c0 48 e2 bd
       -0.095414154 -0.0020971035 0.072362 -0.11049032
000020 61 ed a1 ba f8 78 40 bd 59 6f 27 bc 6a e2 fa 3c
       -0.001235407 -0.046990365 -0.010219418 0.03062554
000030 7a bd b5 3d 6b c8 18 bd 72 fc 1b 3d f8 c6 9c bc
       0.088740304 -0.03730051 0.038082547 -0.019137844

decoders.0.decoder_net.9.weight f4 [16]
000000 ac 83 6a 3f 78 25 71 3f f3 82 66 3f 8f 30 72 3f
       0.91607165 0.941978 0.9004356 0.94605345
000010 60 d1 6f 3f 8c 1e 6b 3f 0b b0 6d 3f 8c d6 6a 3f
       0.93678856 0.91843486 0.92846745 0.9173362
000020 d5 41 6c 3f da 6f 6b 3f 72 a2 65 3f 7c be 68 3f
       0.9228795 0.91967547 0.89700997 0.90915656
000030 b8 ee 7b 3f 50 89 67 3f e9 d4 72 3f 83 90 6d 3f
       0.9841113 0.904439 0.94856125 0.9279863

decoders.0.decoder_net.9.bias f4 [16]
000000 64 0f 25 3d 1c b2 09 3e be c3 55 bd bc 86 29 3e
       0.04029788 0.1344685 -0.052188627 0.16555303
000010 53 6f 3e bd b2 7a b2 bd b4 ad cb bd 7b b3 96 3e
       -0.046492886 -0.087148085 -0.099452406 0.29433808
000020 97 04 25 3d 3e 64 94 3d ca ca 66 bd 84 12 83 be
       0.04028758 0.07245682 -0.05634574 -0.25600064
000030 9d 35 87 b9 ee cd bf bc 0c 09 c1 3b 65 d3 e3 bd
       -0.00025789152 -0.023413625 0.005890971 -0.11124305

decoders.0.decoder_net.9.running_mean f4 [16]
000000 1e 49 92 3d 1e 49 92 3d 1e 49 92 3d 1e 49 92 3d
       0.07142852 0.07142852 0.07142852 0.07142852
000010 1e 49 92 3d 1e 49 92 3d 1e 49 92 3d 1e 49 92 3d
       0.07142852 0.07142852 0.07142852 0.07142852
000020 1e 49 92 3d 1e 49 92 3d 1e 49 92 3d 1e 49 92 3d
       0.07142852 0.07142852 0.07142852 0.07142852
000030 1e 49 92 3d 1e 49 92 3d 1e 49 92 3d 1e 49 92 3d
       0.07142852 0.07142852 0.07142852 0.07142852

decoders.0.decoder_net.9.running_var f4 [16]
000000 fa b0 28 3b 5c 8b 5d 3b 1e 32 dc 3a 7c e7 fd 3a
       0.0025740252 0.0033804988 0.0016799604 0.0019371356
000010 bd f3 23 3b 72 91 c9 3a e1 7f 1f 3b 29 ba 4c 3b
       0.0025017106 0.0015378429 0.0024337696 0.003123889
000020 a8 16 07 3b 3b 90 dd 3a 67 65 a1 3a 7e 7e f6 3a
       0.002061287 0.0016903946 0.0012313545 0.0018806008
000030 a7 a5 78 3b e8 ca f1 3a 86 44 2c 3b 08 7c 2f 3b
       0.0037940533 0.0018447312 0.002628596 0.002677681

decoders.0.decoder_net.10.weight f4 [16, 1, 3, 3]
000000 61 6e d8 3d 1e 1e 42 3e 2c 53 9e 3d cb fb da bc
       0.10567928 0.18956801 0.077307075 -0.026731392
000010 70 4e d9 bd aa 69 03 be c5 78 17 be 1e 42 7d be
       -0.10610664 -0.12833276 -0.14792164 -0.24732253
000020 89 9f 5d bc 0e 4b d3 bd f2 2b 7c be 6b c7 32 be
       -0.013526806 -0.1031705 -0.24626139 -0.17458884
000030 9b ba c3 bd d7 1e 4e 3e 62 b2 a7 3d 1a 9b 5c 3e
       -0.095570765 0.20128952 0.08188321 0.21543542
000040 f2 de 84 bd 5c 54 69 be 38 70 a2 3c 56 87 3b 3e
       -0.06487836 -0.22786087 0.0198289 0.18313345
000050 91 ec f2 bd c1 a3 6a bd c7 8f 50 3e ec 93 0d 3d
       -0.11861528 -0.057285074 0.20367347 0.034564897
000060 7e ba 14 3e 42 f9 25 be 0b a7 48 3e 80 ef 79 3d
       0.14524266 -0.16208366 0.19594972 0.06101942
000070 a3 67 65 be 64 6f cd bd 5a b7 a0 3d e9 2a e1 3c
       -0.22402816 -0.10031012 0.078474715 0.027486281
000080 f9 ac 74 be ee f8 25 3e 3f 4a 46 3d bc 6b 09 3e
       -0.23894109 0.1620824 0.04841065 0.13420004
000090 e9 83 86 bd 40 f1 73 3b 9d f4 4d be 8c a6 96 bd
       -0.065681286 0.0037222654 -0.20112844 -0.07355985
0000a0 13 3d 7b 3e a6 6a 30 3e 88 98 0f be 45 ab f9 bb
       0.24535017 0.17228183 -0.1402303 -0.007619294
0000b0 5c c3 88 3e 4a d7 36 be 83 f0 56 3d de 11 33 3e
       0.26711547 -0.17855564 0.052475464 0.17487285
0000c0 5e 3b 10 3c ac 70 cf 3d 1d 93 8b 3d 3d 8b 27 3e
       0.008803217 0.10128912 0.06815169 0.16361709
0000d0 b7 43 57 3e dd 83 6c 3d 27 bf 65 3d 9b fa 2c 3c
       0.21021925 0.057742942 0.0560905 0.010557796
0000e0 94 b6 55 be 47 2c 83 bd 85 1e aa 3c 08 17 6f 3e
       -0.2087043 -0.064049296 0.020766506 0.2334863
0000f0 c0 45 68 3e 8f af 80 3e a5 40 aa 3d 9b 85 c4 bd
       0.22682858 0.2513394 0.08313111 -0.09595796
000100 4b 60 83 3d 35 28 19 3e 07 9f 26 3e b8 29 27 be
       0.06414851 0.14956744 0.16271602 -0.16324508
000110 05 21 c8 bd 4a 4d 1d 3e 72 98 96 bd cf 1f 81 be
       -0.09771923 0.15361515 -0.073532954 -0.2521958
000120 4b d0 05 3e d7 d9 6c 3e 38 3b 57 3d 90 0f d9 bd
       0.13067739 0.23129974 0.05254671 -0.105986714
000130 74 95 04 be e3 5d 0e be 1c 33 3c 3e 7d 21 4f be
       -0.12947637 -0.13903002 0.18378872 -0.20227619
000140 fc ab 27 be e0 b1 31 3e c2 80 dd 3c 0c 1e 69 bb
       -0.163742 0.1735301 0.027038936 -0.0035570888
000150 0b b6 70 3e 9f 8d 3e 3e c0 a7 c6 bd b7 48 02 3e
       0.23506944 0.18608712 -0.096999645 0.12723051
000160 01 8e 04 3e c4 16 f8 bc 73 dd 65 3c f0 e3 c6 bd
       0.12944795 -0.030284293 0.014029848 -0.097114444
000170 a4 8d 44 3e b9 78 5b be f4 4d 59 bd c2 5e 0c be
       0.19194657 -0.21432771 -0.053052858 -0.13708022
000180 08 a8 e0 3c f8 60 ad bb 22 29 cf bd 73 b7 15 3e
       0.027423874 -0.0052911006 -0.10115267 0.14620762
000190 8f 59 2d 3e 5b 83 88 bc e1 8a 35 be 14 af 70 be
       0.16928695 -0.016664198 -0.1772876 -0.23504287
0001a0 3b 8b 95 3c 4e 26 bf 3b 2e 02 22 be 21 9b aa 3d
       0.018254867 0.0058334237 -0.15821144 0.0833037
0001b0 c5 3f 40 be 22 45 67 be 97 b6 0f be 8a 58 04 3e
       -0.18774326 -0.22584966 -0.14034496 0.129244
0001c0 46 a6 45 be 35 24 23 3d e6 99 07 be 9c ef ba 3c
       -0.1930171 0.03982945 -0.13242301 0.022819333
0001d0 99 f3 c9 3d a9 e8 6b bd bb b4 20 3e fc 88 15 be
       0.09860916 -0.05759493 0.15693943 -0.14603037
0001e0 1a c7 4b bd b2 7f 6f be ec fe 30 3e fc 9d 26 be
       -0.049750425 -0.23388556 0.17284745 -0.16271204
0001f0 5f a6 13 3e f8 46 41 be 51 aa 8b be b3 59 8e be
       0.14418934 -0.18874729 -0.2727838 -0.2780281
000200 3e 67 d7 bd 02 bf 3f be 31 ee c9 bd 25 76 ef 3d
       -0.10517739 -0.18725207 -0.098598845 0.11692456
000210 e4 6e 4a bd 08 ba 48 bd ad 48 11 be 09 ca 57 3e
       -0.04942216 -0.04900554 -0.1418788 0.21073164
000220 fb 54 41 be dd 26 8e 3d fc 1f bc bc 26 89 7e 3e
       -0.18880074 0.06941006 -0.02296447 0.24857005
000230 d5 fa e7 3d 74 b3 15 3d 7b 82 46 3e cc 27 ac 3d
       0.11327139 0.036548093 0.19385712 0.08406028

decoders.1.decoder_net.0.weight f4 [512, 2]
000000 de bf f7 be da 64 bd be 3b cd d1 3e 79 54 d7 3e
       -0.4838857 -0.36991006 0.4097689 0.42056635
000010 91 4f 52 bf 6c 1d 1a 3f 2a 46 ba bd 5c 96 92 3d
       -0.8215266 0.60201144 -0.09095414 0.07157585
000020 d8 56 84 be d5 45 9e be 60 9f bd 3e 17 de 54 be
       -0.25847507 -0.30912653 0.37035656 -0.20787846
000030 fa 09 0c bf 10 c2 c0 3d 52 2f ff bd fd 05 c4 3d
       -0.54702723 0.094120145 -0.124601975 0.09571455
000040 33 c0 26 be 78 59 1b 3e d2 ef 75 be 16 77 50 bf
       -0.16284256 0.15170848 -0.24017265 -0.8143171
000050 fc f1 86 be a4 95 97 bd 05 47 f1 3e d7 7d 37 3e
       -0.26356494 -0.074015886 0.47124496 0.17919098
000060 3e 3e 97 bd 7c 74 33 3e 2e 4c d5 3e d7 29 12 3f
       -0.07384919 0.17524904 0.41659683 0.5709509
000070 cc 54 05 3f 8a 3e 1f bf f5 6c fc bd 33 c8 bb bd
       0.52082515 -0.622048 -0.123254694 -0.09169044
000080 8e ad 8d 3e 51 9d dc 3e a9 17 0d 3e 35 72 1a 3a
       0.27671474 0.43088773 0.13778557 0.0005891652
000090 50 ef d6 3d 9c fe 94 be 11 d5 f9 3e 1b 85 a4 3e
       0.10494864 -0.29100502 0.4879537 0.321328
0000a0 cc be b7 3e 5c 08 8c be b6 fa 8e 3e ed 9b 06 3e
       0.35887754 -0.27350128 0.27925652 0.13145418
0000b0 58 3f 37 bf 85 66 bb be 39 76 ae be 36 78 51 be
       -0.7158103 -0.36601654 -0.34074572 -0.20456013
0000c0 bd f1 21 3d 47 1f 04 bf b2 ba 37 be f6 6d f0 3e
       0.03953718 -0.51610225 -0.17942312 0.46958894
0000d0 aa fb 37 bf f0 8a 5a be f7 03 2e bf d3 a5 10 3e
       -0.71868384 -0.21342063 -0.679748 0.14125757
0000e0 f1 00 ac 3e d7 68 bd 3e c9 6e c6 be 29 70 22 3f
       0.33594468 0.3699405 -0.38756397 0.6345239
0000f0 e7 37 27 3f fa 26 de 3e 66 66 53 be 82 28 0c bf
       0.65319675 0.43389112 -0.2064453 -0.5474931
000100 bb ed 82 be 97 6d 22 bf 5f 3f cd be 92 a2 8a be
       -0.25572 -0.6344847 -0.4008741 -0.27077156
000110 7a 0d 40 3f 62 e7 8d be 64 40 78 be 90 5a c5 be
       0.75020564 -0.27715594 -0.24243313 -0.38545656
000120 d7 4d ae be 1a c9 92 3d 6a 34 5e be 8e 2e 2d bf
       -0.34043762 0.07167263 -0.21699682 -0.6764916
000130 0b ce 02 bf 34 ad 4b 3f da 47 2b 3f 0f c1 a8 3e
       -0.51095647 0.7956116 0.6690651 0.32959792
000140 28 8d 8a 3d 90 af a3 3c 45 c5 19 3f 89 49 82 3e
       0.06765205 0.019981176 0.60066634 0.25446728
000150 78 1c e4 3d 13 f4 1c bf 66 f3 aa 3e f4 3a 9a 3e
       0.111382425 -0.6130993 0.33388823 0.30123103
000160 ae 2a d3 be de d2 9c 3e f0 bd 85 bd f9 b2 ec be
       -0.412435 0.3062963 -0.06530368 -0.46230295
000170 dd 4c ac 3e c4 3a 0a 3e ec 34 13 3e 95 de 16 3e
       0.33652392 0.1349898 0.14375657 0.14733346
000180 73 6f 30 3e bf a7 17 be 8e 22 c4 be fd 57 60 bf
       0.17230015 -0.14810084 -0.38307613 -0.8763426
000190 05 ad b2 bc 01 08 de 3e 03 76 82 be 74 dd 50 bd
       -0.021811018 0.43365481 -0.2548066 -0.050992444
0001a0 17 92 76 be 7d 50 69 3d 94 b4 fa 3e ad b0 1f 3f
       -0.24079166 0.056961525 0.48965895 0.6237896
0001b0 3e 51 72 be 92 d2 1a bf ca de 16 bf 46 57 aa be
       -0.23663804 -0.60477555 -0.589337 -0.3326971
0001c0 cf 8b 15 3f 33 c9 de be 4f 9b 69 3e 74 7c 1d 3f
       0.58416456 -0.43512878 0.22813152 0.61518025
0001d0 3e 56 12 bf af e4 ee bd 98 ec 14 bf 9e 61 1e bf
       -0.57162845 -0.11664712 -0.58173513 -0.618677
0001e0 74 68 e8 be c9 4d 21 3f 58 a8 11 3e 82 0c fc 3e
       -0.4539219 0.63009316 0.14224374 0.49228293
0001f0 69 08 d8 bd db 70 ad be e2 4f 1b bf c7 e4 67 bd
       -0.10548479 -0.33875164 -0.60668766 -0.056614663
000200 47 ed e5 3e cb 64 81 3e e3 ff 98 3e a5 41 86 bb
       0.4490759 0.2527221 0.29882726 -0.004097181
000210 44 f6 5f be 3f 37 39 3f 8c eb 38 bc 43 8a 5b bd
       -0.21871287 0.72349924 -0.0112866275 -0.053598654
000220 9d 9e 1e be c6 eb a5 be 44 90 d5 be e7 85 0f bf
       -0.15490194 -0.32406443 -0.41711628 -0.56063694
000230 bc 99 1f 3f 4c db 17 3f 83 2e 67 3e 48 cf 19 3f
       0.62343955 0.59318995 0.22576337 0.6008191
000240 82 59 25 3f 62 6e c4 bd 7d de 99 3d 79 a8 20 bf
       0.64589703 -0.09591366 0.075131394 -0.6275707
000250 85 09 dd 3e 31 b6 d1 be 0b 96 1e 3c 8d 40 40 bf
       0.43171325 -0.40959314 0.009679328 -0.75098497
000260 17 aa cc be 6d b8 04 bf 3f 52 1e 3f bd 9d 0b 3f
       -0.39973518 -0.5184391 0.6184425 0.54537565
000270 32 ac 88 bd e7 8e 9a be e6 fb 4f be 9e d2 2d 3e
       -0.06673469 -0.3018715 -0.20310935 0.16974875
000280 c0 b3 d4 be 8b ee c3 be cc 25 3a bf 2d 7a 1d bf
       -0.41543388 -0.3826793 -0.72713923 -0.6151455
000290 2c d9 34 3e 99 d6 0e 3f 0d ac d6 be a8 15 07 3f
       0.1766097 0.557962 -0.4192814 0.5276742
0002a0 a4 92 87 3e 60 ef ba 3e c8 c8 d3 be 7e 7f b7 3e
       0.26479065 0.36510754 -0.4136412 0.35839456
0002b0 c8 f9 26 3e fb 2b 6d be 2f ec d0 be 12 5c 26 3f
       0.16306221 -0.23161308 -0.40805194 0.6498424
0002c0 49 bd d5 be 86 7b 44 3f 57 d7 fb 3e bb 82 f1 be
       -0.41745976 0.7675098 0.4918773 -0.47170052
0002d0 d5 cf 1e bf e9 0f 27 bf a8 18 2d 3e a7 8d 73 3e
       -0.62035877 -0.6525865 0.16903937 0.23784505
0002e0 4e a8 45 be 46 6e e1 be 8e 91 2f 3f ee 48 a9 3e
       -0.19302484 -0.44029444 0.68581474 0.33063453
0002f0 e6 cf a1 be 57 a2 54 bf c2 4c 06 3f 5a 88 cc 3e
       -0.31603926 -0.8306021 0.52460873 0.39947778
000300 57 5f 60 3e 2d ed 44 3e 52 4b f4 be 82 cb de 3e
       0.2191137 0.192311 -0.47713715 0.4351464
000310 59 09 b3 3d df 42 b3 3e 9f c8 d1 be 82 10 cc 3d
       0.08742017 0.35011956 -0.40973374 0.09964086
000320 42 be 5c 3e 9b f0 05 3e e8 99 aa be 60 a4 fd 3e
       0.21556953 0.13080065 -0.33320546 0.4953947
000330 ad 57 43 bf 94 c1 3a bf 51 fc ce 3d 10 6b 65 bd
       -0.7630566 -0.72951627 0.10106719 -0.056010306
000340 60 0d fd bd d5 e0 b4 3e 37 19 b6 be 15 82 9d 3e
       -0.12356067 0.35327783 -0.35566112 0.30763307
000350 7d 4c 17 3f 2b 49 0c bf 8c ae 9d 3e 2d 1d 82 3e
       0.59101087 -0.54799145 0.3079723 0.25412884
000360 cc d5 7c 3e 47 1a e5 bc f2 61 d3 bb 63 8a 0e 3e
       0.24690932 -0.027966632 -0.006450885 0.13919978
000370 b6 8b 43 3f 40 23 62 bf 2c c5 0a 3f 20 a3 2c bf
       0.76385057 -0.8833504 0.5420711 -0.6743641
000380 61 1d 91 3d 93 95 b3 be 95 51 d9 3e b8 3f a6 3d
       0.07085682 -0.35075054 0.42445055 0.08117622
000390 d7 d0 6f be 5f 10 33 bf 7e 9e 53 be 73 c0 22 3e
       -0.2341951 -0.69946855 -0.20665929 0.15893726
0003a0 d2 7e 93 3e 6e a0 0c be eb 99 de be b6 c6 3b bf
       0.28807694 -0.13733074 -0.43476805 -0.73350084
0003b0 62 1e 87 be 99 c1 f5 3e 73 ff 89 3e c9 d9 0e bf
       -0.26390368 0.47999266 0.26952705 -0.55801064
0003c0 d6 90 d1 3e f8 07 6f 3e 64 a0 18 3f 3f 45 a3 bc
       0.40930814 0.23342884 0.59619737 -0.01993048
0003d0 44 5f 9a 3e 6f 5a de be 96 08 58 3e d5 37 2d bf
       0.30150807 -0.4342837 0.21097025 -0.6766332
0003e0 e8 79 a3 3e 86 1d e6 3e 1a 2c d9 3d b1 2c 0b 3f
       0.31928945 0.449444 0.10604115 0.5436507
0003f0 a0 cf 4f 3f 19 68 10 bf 6d b6 14 3f 21 f0 c6 3e
       0.81176186 -0.5640884 0.5809086 0.3885508
