miniproject2/experiments/ensemblyVAE/modelSeed544nD1.pt (torch, 144013 bytes, 37 tensors)

prior.mean f4 [2]
00000000: 0000 0000 0000 0000
0.0 0.0

prior.std f4 [2]
00000000: 0000 803f 0000 803f
1.0 1.0

decoders.0.decoder_net.0.weight f4 [512, 2]
00000000: eae9 a03c 2e98 3a3f c8c1 273f d5a9 8cbe
00000010: d8fb 29be ee43 84be e347 a4bd ef7c 903d
00000020: 9ec8 f0bd 3927 b9be aa0c 123f f079 333f
00000030: d086 d0be acd4 2fbe 0c5a d53e c0fe a9bd
00000040: 2f1c 98be c570 293c 425c 0abf a1f7 0dbf
00000050: 89e3 b23e a9c2 6bbd 5a60 9e3e 5344 2e3f
00000060: 22df b73d a96f 9dbe c8cc 2e3d d132 693e
00000070: d126 2dbe 498e 06be bac2 753e a620 2cbd
00000080: b1da cf3d 4636 153f 2dba 26be 3913 f23d
00000090: c02e 2e3f fc8c 5e3d 4d25 c8be b27a 8bbe
000000a0: 4938 4e3e 2e83 223e b2ab 1ebf f432 163f
000000b0: ba1b e73e 7902 8bbe a00f 513e b5cd fb3d
000000c0: c8be 96be f346 8fbb d26c aabe 5f4b 13bf
000000d0: 198b 043f afb8 493f 8904 32bf 6b61 16bf
000000e0: f37c 333c ce8c 1dbf e7f0 dd3e f8f4 29bd
000000f0: 8204 83be ce65 583f 9095 95be dd0e eb3e
00000100: e0b9 1b3f a6e9 243c d6d5 1bbc e7ce 963e
00000110: 25d7 ad3e 0a2a f33e 09d1 103e 43a1 30be
00000120: 6cc6 f73e 0297 403e 2850 aa3e 9ecc 133d
00000130: 47bf 5cbd 07fc 72be f594 b93e 3c8e abbe
00000140: 2482 913e fcb0 97be bff9 943e 730b 6cbe
00000150: 7560 65be 5605 d3be d322 3bbe d488 dd3e
00000160: 1f39 71bd 44cc 1e3f 47ba f5be e357 8d3e
00000170: 8764 bbba 7241 bfbd 247e 633e 7895 3cbe
00000180: 8ef8 5e3f 1e2d 433c e36e 18bd dcb3 9dbe
00000190: a0b7 f3be da1b 09be 304f 1bbf b228 16bf
000001a0: 91fc 033a fdf8 78be 9ca5 f43d 19b2 adbe
000001b0: 4cf3 35bf fdbe 5b3e a953 8d3e b474 c4bd
000001c0: 03d9 38bd 6ae7 12bf d40f 003f 9f56 d2be
000001d0: f077 bb3e 8ea1 7fbc 5bd7 e13e 9aaf 86be
000001e0: cc4e 083e de8d 35be f6d0 e03d da24 b43e
000001f0: c8f1 503d 3964 3fbf 0350 0fbd b1e2 f93e
00000200: 6e3b 5ebe 6d96 b93e 0348 debe 92a2 b1be
00000210: abb5 de3e 2e7e c6be 02fa 083f 5285 cbbe
00000220: 4c76 9abc 527b 593e 42cc b63d 0393 783e
00000230: ada1 233f e33f cbbe 836e 60bd b259 483e
00000240: fa0b 23bd 95e1 c6be 0ea9 a93d 4de9 df3e
00000250: 544a 033f 2f01 ccbe f2e2 dcbd 5471 77be
00000260: 7fa6 8dbe 1b85 9a3e c65e bcbe 9751 b3bd
00000270: a7f2 1bbf 0824 293d 125c 1f3e f157 963e
00000280: 6b3d c1be cb52 043d a50a 9fbe 54f7 183f
00000290: 2009 2bbf 5a07 dfbe 1764 ccbe 179d 9ebe
000002a0: 9338 f5bd ab3b 1ebf 0b03 b63e 32ac f4bc
000002b0: 2458 56bf 27c1 09bf 3b82 12bf 5f94 d13e
000002c0: 359d 4fbd 3ded 233d 7ffb 9cbe a585 c63e
000002d0: ebf0 8a3f 204f 3cbf fa10 95be b884 113f
000002e0: 3145 fcbe 0e26 23be 303c 2b3e 5d1d 853d
000002f0: e996 13bf f5fd 473e 2f82 753d 1af1 523e
00000300: 6be8 d63d 209f 843d cfa9 a4be 6054 08bf
00000310: f990 87be df88 173f ccc9 2c3e c188 c5be
00000320: c2da 9d3e ba8a 3b3e ece6 b3be 3533 7fbe
00000330: 3afd 1fbf 9ede 6d3e 6a65 c4bd e0f6 32bf
00000340: fe20 4c3e 91ac 423e e9cb 24bf 62ac 203f
00000350: b2e3 bfbe 2ed8 a33e bff4 783e bf45 e83e
00000360: c757 f33e 1de4 103e bd78 61bf ec7a d13d
00000370: 1e7b e13e 13b9 20bf aa6b 9bbb 8156 a33e
00000380: f70b e3be c780 043f be07 cabc 1012 1e3f
00000390: fa6d ddbc 8d40 583f e5f9 19be 9a48 383f
000003a0: c4b4 303d 22d3 7abc 2e43 513e bccd 23bc
000003b0: 592f 093d 3164 30bf 3f6c c43d 934b a23e
000003c0: da2c 893c 7e6b 17bd 0282 50bf 231d 203f
000003d0: 1f98 b4be 2458 15bf db5a dcbd 8044 f93e
000003e0: 7411 c73e 8258 3d3e 851e e43e 3999 183c
000003f0: 6281 61bd cc39 493f d5bc 923e c2df 903e
0.019642789 0.7288846 0.6553006 -0.27473322 -0.16599977 -0.25833076 -0.08021524 0.07055079
-0.11757015 -0.36162737 0.57050574 0.70107937 -0.40727854 -0.17170972 0.41670263 -0.08300543
-0.29709002 0.010341828 -0.54047024 -0.55455977 0.3493922 -0.05755869 0.30932885 0.68073004
0.08978106 -0.30749252 0.042675763 0.22773291 -0.16909339 -0.13140215 0.24000064 -0.042023323
0.10149134 0.5828594 -0.16281958 0.11820073 0.68040085 0.054333672 -0.39090958 -0.27242047
0.20138659 0.15870354 -0.61980736 0.586715 0.4513834 -0.27150324 0.20416117 0.12295095
-0.2944243 -0.0043724715 -0.33286148 -0.5753688 0.51774746 0.7879743 -0.6953817 -0.587424
0.010955083 -0.61542976 0.43347856 -0.041493386 -0.25589377 0.8453034 -0.2921567 0.45909777
0.608305 0.010065472 -0.009511432 0.2945473 0.33953205 0.4749301 0.1414224 -0.17249016
0.4839357 0.18807605 0.3326428 0.03608381 -0.053893354 -0.23728953 0.36246458 -0.33506954
0.28419602 -0.29627216 0.2909679 -0.23051243 -0.22400077 -0.41215008 -0.18275003 0.43268454
-0.058892366 0.62030435 -0.4799368 0.27606115 -0.0014296927 -0.093386546 0.22216088 -0.18416393
0.87098014 0.011912612 -0.037215125 -0.30801284 -0.47601032 -0.13389531 -0.60667706 -0.58655846
0.0005034889 -0.24313731 0.1194565 -0.3392494 -0.71074367 0.21459575 0.2760289 -0.09592572
-0.045128834 -0.5738436 0.5002415 -0.41081712 0.36614943 -0.0156024825 0.44109616 -0.26305848
0.13311309 -0.177299 0.10977356 0.35184366 0.05101183 -0.747623 -0.034988414 0.48805764
-0.21702358 0.36247578 -0.43414316 -0.34694344 0.43497977 -0.38768142 0.5350648 -0.39750153
-0.018855236 0.21238449 0.08925678 0.2427483 0.6391857 -0.3969718 -0.054792892 0.19565466
-0.039806344 -0.3884398 0.08284198 0.43732682 0.5128529 -0.39844653 -0.10785474 -0.24164325
-0.2766609 0.30179676 -0.36791056 -0.087557964 -0.60917133 0.041294128 0.15562466 0.2936397
-0.3774217 0.03230552 -0.3106281 0.5975239 -0.668108 -0.43560296 -0.39920112 -0.30979225
-0.11973681 -0.61809796 0.35549197 -0.029867265 -0.8372824 -0.5381035 -0.57229966 0.4093351
-0.050687034 0.04002117 -0.30660626 0.38773838 1.0854772 -0.73558235 -0.29114515 0.5684314
-0.4927154 -0.15932485 0.16722178 0.06499741 -0.57652146 0.1953047 0.059938606 0.20599785
0.10493549 0.06475663 -0.32160804 -0.53253746 -0.26477793 0.59193224 0.16873854 -0.38580897
0.3083096 0.18314639 -0.35137117 -0.24921878 -0.6249577 0.23229453 -0.09589656 -0.6990795
0.1993446 0.19011141 -0.6437364 0.62763035 -0.37478405 0.3200087 0.24312113 0.45365712
0.47527906 0.14149518 -0.88074857 0.102285236 0.44039243 -0.627824 -0.004743059 0.31901935
-0.44345066 0.51759 -0.024661895 0.6174631 -0.02702998 0.84473497 -0.15036733 0.7198578
0.04314114 -0.015309127 0.20435783 -0.009997781 0.03349242 -0.6890288 0.09590959 0.31698284
0.01674502 -0.036967747 -0.81448376 0.6254446 -0.3527231 -0.58337617 -0.10759517 0.48685074
0.38880503 0.18490794 0.44554535 0.009313875 -0.05505503 0.78603816 0.28659692 0.28295714

decoders.0.decoder_net.0.bias f4 [512]
00000000: 7ace 1c3e 62cf 3a3f 59e0 eb3e 5483 4e3e
00000010: 99f1 4fbe 49a3 f9be 7935 98be 9e37 12be
00000020: 2956 45bc e085 8ebe a144 163f 7cd9 3dbe
00000030: 4021 4ebe 8643 f2bc 4999 3abf cd49 8d3e
00000040: 6a16 2ebe b917 b63e 7dd1 19bf 9313 053f
00000050: 49f9 10bf dded 2abd 0a76 133f 3fcf a9be
00000060: 205d 4fbd dbc7 09bf 031e 333d 6bb2 3b3f
00000070: 0201 b93d a268 413f d8a8 00bf a79c b03d
00000080: e2b4 953e 5899 463f 995b 9fbf 1915 2fbe
00000090: f2ec 993d 5f66 0abe 0b1c 313f 2563 31be
000000a0: 143d f0bc a590 02bf c547 2e3f 878b d83d
000000b0: a92d 013e 3d4d 06bf 4bd9 fe3d 97ae a2be
000000c0: 861a 98be 738d 3c3f e054 083e 7149 d03e
000000d0: 616a 7d3e b9f9 f6be 2f8a bcbe cf8a ee3e
000000e0: 1b2c 0abd e554 14bd 2bed c0bd e6cc d73e
000000f0: a22b 1c3f 41fd 47bf 3f80 3e3f 7f6f 4bbd
00000100: c693 f83d 853c f6bc 3850 bd3b c075 013f
00000110: c28e f53d 53f2 dbbe af46 f33e e28e b1bc
00000120: 8968 b7be 8416 8d3e 577a 9bbd 1231 e83e
00000130: 9263 953e 36f9 6a3d 96d7 4e3c 67d2 0dbf
00000140: 3c40 ddbe 8098 5a3d 0fed 293f d969 8d3c
00000150: 25cd 4fbe 4b1b 1abe 54c5 0abf 4be0 9abe
00000160: 3811 1b3d 4c9c 9c3e 217c b5bd 60dc c43e
00000170: 6fa7 023e 1d8e d63d b20d ba3e 5fb0 29bf
00000180: 9501 1fbe a4ae 18bf e012 553f 637c 0ebf
00000190: b233 27bd 03ec d23d 305c da3e 2bb0 4f3e
000001a0: 02cb fb3e afa9 843e df61 fabe 4e66 07bf
000001b0: 6d1e cd3e 13e5 29be 052d d9be b43c 0a3f
000001c0: 75d0 e13d 4fc8 b63e 2804 2ebf eae6 c43e
000001d0: 520a 1f3f 9b94 a6bd 545f efbe e59d 703e
000001e0: a79b cd3e 3f9e 19bf 6fef 0d3f b927 003e
000001f0: 6c02 1c3f 95de a4bd 678a c93e 2270 243f
00000200: 8c59 d0be 5731 e03e 1889 13bf 3cc7 9f3e
00000210: aa3c 3f3c cc3d a53c 67a4 94be 48ca 4e3e
00000220: b4c9 f3be acd3 7b3e 7ce8 37be a741 66bd
00000230: 51a2 873e 6472 0dbf 1f78 dabe 4d50 0d3f
00000240: fd92 57be d3bf 22be 967d 6fbe 3e51 0a3e
00000250: e901 913e 9998 17bf ba4a cf3e e648 bb3d
00000260: de16 1bbf 1ef6 8dbe 51d9 67be 407d 08bf
00000270: 51e3 fe3e 5461 2b3d 8265 273f 1025 2abf
00000280: 7be8 a73e 33cd 48be adde 4c3e 4cfb a03d
00000290: d9b3 443d 85b6 be3d 8fb4 40bd 56cb 003f
000002a0: d2c5 86be 4c75 fc3d 61aa 1f3f 4534 8b3e
000002b0: 5a64 713d 78ee ff3d b48d 5abf 3aea 083e
000002c0: 3a71 25bf 7bb7 12bf e1f2 693d 9d73 e73e
000002d0: 05f6 0a3f 20fa 053f 6164 47bf f7ff 183f
000002e0: a2b2 36bd 60b7 45be 113f 95be 7375 923c
000002f0: 6eb0 e9be 2af8 4fbf 57d8 0b3f ae77 15bf
00000300: 08d5 0dbf c7d5 87be 5b7a 8dbf 3a28 5ebe
00000310: e9ca 5abe 652b 99bd 2c02 353e def3 bebc
00000320: 4026 2b3f 6de5 003f 32b9 84be c97a f3be
00000330: 2d28 31bf 0639 34bf a354 0d3f dc0e b13e
00000340: acbe 113f 449f 333f 7ab3 72bf 47da 833e
00000350: be50 8dbe 0a14 173f 6ac8 343e d306 103f
00000360: 3b17 8abe 5e28 9cbe ec2d 443c 9a26 d83d
00000370: c275 f9b9 f216 fe3e 0ff1 1bbf 1bd0 03bc
00000380: e328 c1be c353 893d c05e 523e e20b f0bb
00000390: d9e1 963e 7aea 0ebf 6018 b73e 6736 c3be
000003a0: d0ec 1ebf 3e40 f7be 934c 5e3d 8598 30bf
000003b0: 2715 2ebf 2aa8 063d 3559 02bf 9dac b93e
000003c0: 4b6a aa3e cc8e ccbe 33f9 29bf 3128 813e
000003d0: 72ad 4e3e 5ff6 5bbe e4ca 0e3e 51d6 a13d
000003e0: cfe6 b8bd 6138 98be 45be 88be f1ed afbd
000003f0: 9a79 12bf c02c dd3e 907c febe d09e 893e
0.1531314 0.7297269 0.460696 0.20167285 -0.20307006 -0.4875739 -0.29728296 -0.14279029
-0.012044468 -0.27836514 0.5869847 -0.18539995 -0.20129871 -0.029573213 -0.72890145 0.27595368
-0.17000738 0.35564974 -0.6008528 0.5198299 -0.5663038 -0.04173075 0.5760199 -0.3316593
-0.05062592 -0.5382058 0.043729793 0.7331912 0.09033395 0.7555028 -0.50257635 0.08623629
0.29239565 0.77577734 -1.2449828 -0.17097892 0.07515897 -0.13515614 0.69183415 -0.17322977
-0.029326 -0.5100196 0.6807826 0.10573488 0.12615074 -0.52461606 0.12443789 -0.31773826
-0.29707736 0.73653334 0.13313627 0.4068103 0.24747612 -0.48237398 -0.36824176 0.46590278
-0.03373347 -0.036213774 -0.09420236 0.42148513 0.6100408 -0.7812081 0.7441444 -0.049666878
0.121375605 -0.030058155 0.005777385 0.505703 0.119901195 -0.42958316 0.47514865 -0.021674577
-0.35821941 0.2755624 -0.07591694 0.45349938 0.2917753 0.057366572 0.012624642 -0.55399173
-0.4321307 0.05336809 0.6637735 0.017262386 -0.202931 -0.15049474 -0.5420735 -0.30249247
0.037858218 0.30587995 -0.08861566 0.38449383 0.12759183 0.10476325 0.36338574 -0.66284746
-0.15527947 -0.5964148 0.83231926 -0.5565855 -0.040820785 0.10298922 0.42648458 0.20282046
0.4917832 0.25910708 -0.48902795 -0.5289048 0.40062276 -0.16591291 -0.4241716 0.53998876
0.11026088 0.35699698 -0.6797509 0.38457423 0.6212512 -0.08133813 -0.46752417 0.23497732
0.40157816 -0.6000709 0.5544347 0.12515153 0.60941195 -0.08050267 0.39363405 0.642336
-0.4069332 0.43787643 -0.57631063 0.3120669 0.011672178 0.020171069 -0.2903168 0.20194352
-0.47614825 0.24592465 -0.1795978 -0.056214955 0.26491025 -0.5525267 -0.4266977 0.55200654
-0.21052165 -0.15893488 -0.23387751 0.13507554 0.2832177 -0.5921722 0.404867 0.09144764
-0.6058177 -0.27726835 -0.22641493 -0.53316116 0.49782804 0.041840866 0.65389264 -0.664628
0.32794556 -0.19609527 0.20006819 0.07860431 0.04802308 0.093121566 -0.047047194 0.50310266
-0.263228 0.1232706 0.6236935 0.27188316 0.058933593 0.12496656 -0.8537247 0.133706
-0.64625895 -0.5731122 0.057116393 0.45205393 0.54281646 0.52334785 -0.7788754 0.5976557
-0.04460395 -0.19308233 -0.29149678 0.01787827 -0.45642418 -0.81238043 0.54626983 -0.5838574
-0.55403185 -0.26530287 -1.1052965 -0.21695033 -0.21366467 -0.0747898 0.1767661 -0.023309644
0.6685524 0.50350076 -0.25922543 -0.47554615 -0.6920193 -0.7039951 0.5520727 0.3458165
0.5693157 0.70164895 -0.9480511 0.2575247 -0.27600664 0.5901495 0.17654577 0.5626041
-0.26970848 -0.30499548 0.011973839 0.10554238 -0.00047580717 0.4962688 -0.609147 -0.008045222
-0.37726507 0.067054294 0.20543957 -0.0073256353 0.29469183 -0.5582653 0.35760784 -0.38127443
-0.620801 -0.482912 0.054272246 -0.68982726 -0.68001026 0.032875217 -0.5091737 0.36264506
0.3328422 -0.39952695 -0.6639587 0.25225976 0.20183352 -0.21480702 0.13944584 0.07902206
-0.09028398 -0.29730514 -0.26707664 -0.085903056 -0.572168 0.43198204 -0.4970441 0.26878977

decoders.0.decoder_net.3.weight f4 [32]
00000000: a2c1 853f e288 843f 905b 893f 7384 843f
00000010: b8ce 7b3f 72b3 833f f38c 873f f623 833f
00000020: 6f5a 7e3f eca5 8a3f 64b3 853f a3b1 823f
00000030: b715 833f 1ab2 823f 27d0 7b3f 7819 803f
00000040: dbf8 833f e6d7 7f3f 90b3 673f 0469 853f
00000050: 548e 7a3f aa5b 7e3f 25cf 773f 2f27 863f
00000060: 2b30 803f 8bdc 873f 5c18 843f 03df 7a3f
00000070: 6720 803f e815 7a3f 219e 883f 4886 7b3f
1.0449717 1.0354273 1.0731068 1.035292 0.983623 1.0289137 1.0589889 1.024535
0.9935674 1.0831885 1.0445371 1.021046 1.0241002 1.0210602 0.9836449 1.0007772
1.031032 0.9993881 0.90508366 1.0422673 0.97873425 0.9935862 0.9680045 1.0480708
1.00147 1.0614179 1.0319934 0.9799654 1.0009888 0.97689676 1.0673257 0.9825177

decoders.0.decoder_net.3.bias f4 [32]
00000000: 489e 1d3d f54b 9fbb 0e5f 82bd 5a16 67bd
00000010: a9c2 c7bd 7aa6 bdbc acdb e73d 5025 8ebd
00000020: f9ca eabb 30cf 7abd 4c1a bd3c fe10 b73d
00000030: 9925 3fbd c807 bc3c f88e 013d 66fb 86b9
00000040: 6b21 583d fb31 e5bc 52d4 533d c621 723d
00000050: ea5b 9cbd a9bf 11bd 4018 3b3d f2ff fb3d
00000060: 98a2 c5bc b68e 87bd 1cee 51bd 47eb 4ebc
00000070: 2357 5bbc b293 3a3d 81fe 22bc 795c 893d
0.038481027 -0.0048613497 -0.063657865 -0.0564178 -0.09753925 -0.023150671 0.11321196 -0.069407105
-0.0071653095 -0.061232746 0.023083828 0.08938788 -0.046666715 0.02295293 0.031630486 -0.00025745778
0.052766245 -0.027977934 0.051716156 0.05911424 -0.07634719 -0.035583172 0.045677423 0.12304677
-0.024125382 -0.06619017 -0.05125247 -0.012629337 -0.013387474 0.04555101 -0.009948374 0.06707091

decoders.0.decoder_net.3.running_mean f4 [32]
00000000: f8ff 7f3e f8ff 7f3e f8ff 7f3e f8ff 7f3e
00000010: f8ff 7f3e f8ff 7f3e f8ff 7f3e f8ff 7f3e
00000020: f8ff 7f3e f8ff 7f3e f8ff 7f3e f8ff 7f3e
00000030: f8ff 7f3e f8ff 7f3e f8ff 7f3e f8ff 7f3e
00000040: f8ff 7f3e f8ff 7f3e f8ff 7f3e f8ff 7f3e
00000050: f8ff 7f3e f8ff 7f3e f8ff 7f3e f8ff 7f3e
00000060: f8ff 7f3e f8ff 7f3e f8ff 7f3e f8ff 7f3e
00000070: f8ff 7f3e f8ff 7f3e f8ff 7f3e f8ff 7f3e
0.24999988 0.24999988 0.24999988 0.24999988 0.24999988 0.24999988 0.24999988 0.24999988
0.24999988 0.24999988 0.24999988 0.24999988 0.24999988 0.24999988 0.24999988 0.24999988
0.24999988 0.24999988 0.24999988 0.24999988 0.24999988 0.24999988 0.24999988 0.24999988
0.24999988 0.24999988 0.24999988 0.24999988 0.24999988 0.24999988 0.24999988 0.24999988

decoders.0.decoder_net.3.running_var f4 [32]
00000000: 0687 673d 974e c63d 4d92 2e3d 409a 9f3d
00000010: f0de 783d 56ef 963d fb40 893d 7b14 3f3d
00000020: 87cd 853d 4150 8a3d 6bf4 d23d 4ea0 ae3d
00000030: 1f56 923d 9d19 8a3d 19c6 ac3d a142 943d
00000040: 4c92 953d 7065 993d 938d 633d 9ca0 8d3d
00000050: 789d 893d 3798 a13d 97cd 8c3d 6305 4c3d
00000060: e462 773d 1d5c b63d 990d a43d effa 863d
00000070: 4b10 7a3d af82 a83d 7aef 983d 95fe b73d
0.056525253 0.096829586 0.042619992 0.07793093 0.060759485 0.073698685 0.06701847 0.04665039
0.06533342 0.067535885 0.10300525 0.085266694 0.071453325 0.067431666 0.08436222 0.07239271
0.073032945 0.07490051 0.055554938 0.069153994 0.06719488 0.07890361 0.06875151 0.049809825
0.060397044 0.08904288 0.08010406 0.065908305 0.061050694 0.08228051 0.074675515 0.089841045

decoders.0.decoder_net.4.weight f4 [32, 32, 3, 3]
00000000: 3b53 48bd 673e 9bbc d937 0a3d 6b62 0a3d
00000010: 349d bfbd 501e fa3c bf65 4b3c c452 37bd
00000020: dc66 31bc 2653 473c 4557 5bbd 8bf1 163d
00000030: 37f6 4fbd 7cde 98bc 1635 213c 9a13 673c
00000040: 154e 44bd e933 3cbd fbfd 9d3c feec bd3c
00000050: 2048 bcbc 2a3b 2c3b cc17 a33c 6fef b93d
00000060: 6b9f 19bd 644d 91bb 81a9 a1bc 4b87 07bd
00000070: 63ac c83c ea19 8b3c 9001 b03b b97c f7bd
00000080: 206d a7bc 0c26 a93c 92d6 6dbc e0a6 913d
00000090: 83c4 adbd bfac 6dbc bfe1 59bd 8b27 a5bd
000000a0: ae97 d73d 6922 5b3d 2f9f 13bd 6022 fd3c
000000b0: c783 613d 223c d83c 671d 043d 348b 4f3d
000000c0: cb2f 023e 23f4 f0ba d063 84bd 1f7b 093c
000000d0: a6ec 10bc fe07 39bd bbbf 253c 67f3 803c
000000e0: 4b8f 1abd 7902 86bd 640d 813d d866 803c
000000f0: 1c97 113d cf64 a93d 1a27 053d 762e 11bc
00000100: a32c fd3a bc2e 023d 026b 483d 4ad6 b73d
00000110: 69da d93c 23dd 5ebc d44a 81bc c4ae 023c
00000120: ee1f 4abd 1034 2d3d a850 8cbd a740 cf3c
00000130: 2e36 b23b f33d cb3d 563f 9fbb ffe9 e1bc
00000140: 9f5e 08bd e7e4 353c 8092 17bd 13e9 473d
00000150: 3ee2 473d d406 233d 00d9 efbc 5203 8d3b
00000160: 7bc1 5fbb b9ba a0bd 9728 743d 3b9c 293b
00000170: ac73 2ebd 2977 64bd 7861 8e3d 543e 82bd
00000180: 1776 82bd 1286 703d 04a7 773b c7f3 893d
00000190: 9c7b 34bd 2966 39bd a487 073d d4e3 00bd
000001a0: 2af8 643d e605 75bd e3b9 1f3d bd1a 043d
000001b0: 984b 383d ed2a 8abc 24c6 b6bc e8f8 5c3d
000001c0: 9271 debd 38ed c5bc ca52 6ebd 00f3 263d
000001d0: 66ab 2d3c 042f 52bd 525c d9bc 2c89 b6bc
000001e0: ac98 84bd bbfe afbc 5dc8 563e 0d2b 993c
000001f0: 0bb1 3b3d 3b1e 6c3a 2256 a73d e144 92bd
00000200: 12eb 4abc 0160 0ebd aed7 c7bc b841 4c3d
00000210: 431d 883c 7cd1 11ba 6d45 3c3d 2723 2fbd
00000220: 78f9 033c c3d9 273d 4751 0ebd 0727 1fbb
00000230: 8919 67bc 464a f2ba 43e9 1a3d 4474 c3bb
00000240: f48c 4f3d 5d0d debc 9d00 853c 99ac 263d
00000250: 9634 c53c fe87 3a3d a35f 153d 07a5 cebc
00000260: 450b 8ebd 72e4 9abc 7502 60bd 1811 b23d
00000270: dbf3 cc3c 55b0 ec3c 0286 973d f1bb 553c
00000280: 048d 1bbd faba d03c ff33 92bc 7f5a 7dbd
00000290: 665b 393c 84bb eb3c 405f 103d 43bf 263d
000002a0: 315b 853a 78bf 913b 6767 9fbd 8c76 983d
000002b0: 02c9 783c cf5b d83c 74dc 4bbc 8632 babc
000002c0: 1972 59bd db35 06bd cf5b f73c fa4e ebbb
000002d0: 4f67 843d 9ede 28bd 900a 47bc 3566 61bc
000002e0: 72ca 0bbb ed2c c73c f05c 9bbd f30e ce3c
000002f0: 2d2e bebb a40a 7d3d 7161 273e af1b e8bc
00000300: bb42 303d afc9 a6bd 543e 7ebd 6ff5 6cbc
00000310: 75f1 17bd 65c3 f8bc c26e c83d fe1a 71bd
00000320: 379d 9ebd 8665 a93d 30a8 c6bb 0126 d33c
00000330: 3d14 91bc 40d6 863d 4de3 a7bd 0e33 243d
00000340: 7e32 febc cfbd 303d 34eb 5c3b a249 0d3d
00000350: 4b46 0c3c c7ac 283c 893f 6fbc b8e6 84bd
00000360: 50f0 4dbb b81a e0bc fd3b e23c 84d4 413c
00000370: af69 5fbd 85a1 8cbb 79c5 363d 498d eabb
00000380: 3880 c73c e5cf a93b 055a e43b e0c8 b1bc
00000390: 3395 f13c 7ef9 b2bc 1c8f 303b 9a55 bfbc
000003a0: 6e0f eebc 9d7d 98bc 4983 ed3b 4885 5bbd
000003b0: 448e 8ebd 2787 f8bc 5721 60bd efbe a8bd
000003c0: ca71 393c d74d 863d 17ae 2d3c 1110 9dbb
000003d0: b5fa 563c c3e0 3e3b eede 85bd 43f5 ff3d
000003e0: 22b2 613d 8459 983c 4737 923d 700a b1b8
000003f0: ed43 483c a03a 9b3c fb81 6b3c f55f 41bc
-0.0489075 -0.018950654 0.033744667 0.033785265 -0.09356156 0.030532032 0.012414395 -0.044756666
-0.010827746 0.01216582 -0.053550024 0.036851447 -0.05077192 -0.018660776 0.009839317 0.0141037945
-0.047926027 -0.045947943 0.019286146 0.023184296 -0.02298361 0.0026280382 0.019908808 0.090788715
-0.03750555 -0.0044342745 -0.019734146 -0.03308801 0.024496263 0.01698013 0.00537128 -0.12084336
-0.020437777 0.020648025 -0.01451649 0.07111907 -0.08484747 -0.014506518 -0.053193804 -0.08064183
0.105269775 0.053499613 -0.03604048 0.03090018 0.055057313 0.026395861 0.032254603 0.050669864
0.12713544 -0.0018383305 -0.0646435 0.008391171 -0.008845484 -0.045173638 0.010116513 0.015741063
-0.03773431 -0.0654344 0.06301382 0.01567404 0.0355445 0.08271181 0.032507993 -0.008861175
0.0019315671 0.03178285 0.048930176 0.08976419 0.026593404 -0.013602528 -0.015782751 0.007976238
-0.049346857 0.04228598 -0.068513215 0.025299383 0.0054385876 0.09923925 -0.004859845 -0.027577398
-0.033293363 0.011101938 -0.037004948 0.04880626 0.048799746 0.039801434 -0.029278278 0.0043033743
-0.0034142423 -0.078481145 0.059609022 0.0025880474 -0.042590782 -0.055777702 0.069521844 -0.063595444
-0.0637018 0.05872161 0.0037788758 0.0673595 -0.044063196 -0.045263443 0.03308834 -0.031467274
0.05590073 -0.05982008 0.038995635 0.032252062 0.044993967 -0.016866172 -0.022311278 0.053948313
-0.108615056 -0.024160966 -0.058184423 0.040759087 0.010599947 -0.05131437 -0.02653328 -0.022282206
-0.06474432 -0.02148377 0.2097487 0.018697286 0.04582314 0.000900719 0.081707254 -0.07142044
-0.012385147 -0.034759525 -0.024394836 0.04986736 0.016615516 -0.00055625266 0.045964647 -0.042758133
0.008055083 0.040979158 -0.03474548 -0.0024284737 -0.014105209 -0.001848527 0.037820112 -0.0059647877
0.050671533 -0.027105981 0.016235644 0.040691946 0.024072926 0.04553985 0.03646816 -0.025225176
-0.06935743 -0.01890776 -0.054689843 0.086946666 0.025018623 0.028892675 0.07398607 0.013045297
-0.03797628 0.025479782 -0.01784706 -0.061853882 0.011313295 0.028775938 0.035247087 0.040709745
0.0010174272 0.0044478737 -0.07783394 0.07444486 0.015184643 0.026410965 -0.012442697 -0.02272917
-0.053087328 -0.032766204 0.030195145 -0.0071810456 0.06465017 -0.04122793 -0.012148514 -0.013757278
-0.0021330384 0.024313414 -0.07586086 0.025153613 -0.0058038444 0.061777726 0.16345765 -0.028333513
0.04303239 -0.08143937 -0.06207116 -0.014462813 -0.037095506 -0.030366609 0.097867504 -0.058863632
-0.0774483 0.08271317 -0.00606253 0.025774958 -0.017709846 0.06583834 -0.08197651 0.040087752
-0.031029936 0.043149766 0.0033709528 0.03449405 0.008561681 0.0102951 -0.01460255 -0.064893186
-0.0031423755 -0.02735649 0.027616495 0.011830453 -0.054544147 -0.0042917156 0.04462192 -0.007157956
0.024353132 0.0051822537 0.006968739 -0.02170223 0.029490089 -0.021847483 0.0026940769 -0.023356248
-0.029060092 -0.018614585 0.0072483164 -0.053593904 -0.06960729 -0.030337883 -0.054719295 -0.08239543
0.011318633 0.065578155 0.010600588 -0.004793175 0.013121297 0.0029125668 -0.06536661 0.12497952
0.05510152 0.018597372 0.071394496 -8.441962e-05 0.012223226 0.018948853 0.0143742515 -0.011802663

decoders.0.decoder_net.4.bias f4 [32]
00000000: 6850 7bbc cea9 fcbc e4d7 493d d4e7 f83c
00000010: c0e2 97bd 49fd 9abd f1ce 5dbd 7640 aebd
00000020: 505d a83c eebd bc3c 670c ee3b e053 143d
00000030: 1b1d 103d b33b 603d 0cc6 bebc 0373 1abd
00000040: c27f 5abd 7151 0d3e 69ad 4bbd 6fcc 083d
00000050: b37b babc e71d be3c a4ee e4bc 027f de3c
00000060: b661 c83b dd02 6ebd e3a0 313d aedb c0bc
00000070: 0b3a 25bd c7e8 df3c b996 483c 3337 683d
-0.015338995 -0.030842688 0.049278155 0.030383982 -0.07416296 -0.075678416 -0.054152433 -0.08508389
0.020552307 0.023039784 0.007264662 0.036212802 0.035184007 0.054744434 -0.023287795 -0.03770734
-0.053344496 0.13800599 -0.049725924 0.033398088 -0.022764063 0.023207618 -0.027945824 0.027160171
0.0061151637 -0.0581082 0.043366324 -0.023542251 -0.040338557 0.027332677 0.012242966 0.056693267

decoders.0.decoder_net.6.weight f4 [32]
00000000: ccab 663f 74d1 7a3f 0530 823f 18b8 753f
00000010: ffd8 793f ae8a 643f b02f 523f 1206 6a3f
00000020: 905f 6d3f 6ebf 5e3f 223a 703f c020 663f
00000030: 90d2 743f 753b 563f 9b2c 6d3f db88 763f
00000040: 557f 6f3f 14e8 603f 6f10 853f e383 743f
00000050: 2454 793f 4687 6e3f 3ec4 6d3f 3cc3 6b3f
00000060: 13a8 733f 2098 773f 2686 5e3f 7100 6f3f
00000070: dac6 783f 217b 6a3f c682 623f ffb3 6f3f
0.9010589 0.9797585 1.0170904 0.9598403 0.97596735 0.8927411 0.82104015 0.9141551
0.9272394 0.8701085 0.93838704 0.8989372 0.9563379 0.83684474 0.9264619 0.96302575
0.9355367 0.87854123 1.039564 0.95513743 0.97394013 0.9317516 0.92877567 0.9209478
0.95178336 0.967165 0.86923444 0.9336005 0.97178423 0.9159413 0.88480794 0.9363403

decoders.0.decoder_net.6.bias f4 [32]
00000000: 22c2 bebb f765 7fbd b107 163d a40d 433d
00000010: cc77 733d 8f65 e73d f7cc 6a3d b236 a33c
00000020: 31cc 42bd 599c 66bc bf81 953d 5919 cbbb
00000030: e4da a83c 55e8 b53d 3a5a de3c 7735 333d
00000040: 4213 5a3c 9c40 30bd 7a9f 923d af23 a63b
00000050: 5a4b d63c d383 d93c 910b de3a 76ef 1aba
00000060: 16ea c0bd 9681 bcbc cd5d 803d ee6f 17bd
00000070: 7655 22bd e0ce 31bd ccf1 213d ff44 563c
-0.0058214823 -0.0623531 0.03662843 0.04762043 0.05944042 0.11298668 0.057324376 0.019923542
-0.047558013 -0.014075362 0.07300138 -0.00619809 0.020612188 0.088822044 0.027142633 0.04375216
0.0133102555 -0.043030366 0.07159324 0.005070172 0.026158977 0.026552116 0.0016940703 -0.0005910316
-0.09419648 -0.02301101 0.06267891 -0.03697198 -0.039632283 -0.043410182 0.039537236 0.013077973

decoders.0.decoder_net.6.running_mean f4 [32]
00000000: 1e49 123e 1e49 123e 1e49 123e 1e49 123e
00000010: 1e49 123e 1e49 123e 1e49 123e 1e49 123e
00000020: 1e49 123e 1e49 123e 1e49 123e 1e49 123e
00000030: 1e49 123e 1e49 123e 1e49 123e 1e49 123e
00000040: 1e49 123e 1e49 123e 1e49 123e 1e49 123e
00000050: 1e49 123e 1e49 123e 1e49 123e 1e49 123e
00000060: 1e49 123e 1e49 123e 1e49 123e 1e49 123e
00000070: 1e49 123e 1e49 123e 1e49 123e 1e49 123e
0.14285704 0.14285704 0.14285704 0.14285704 0.14285704 0.14285704 0.14285704 0.14285704
0.14285704 0.14285704 0.14285704 0.14285704 0.14285704 0.14285704 0.14285704 0.14285704
0.14285704 0.14285704 0.14285704 0.14285704 0.14285704 0.14285704 0.14285704 0.14285704
0.14285704 0.14285704 0.14285704 0.14285704 0.14285704 0.14285704 0.14285704 0.14285704

decoders.0.decoder_net.6.running_var f4 [32]
00000000: 2c9d cc3b 0ee1 5c3b ba04 a23b 4b95 8e3b
00000010: 43dd af3b 6286 963b d77c 673b 3757 5c3b
00000020: 5157 503c c8e0 893b db39 163c e3b0 d73b
00000030: c0c0 eb3b 4484 b03b 8eaf 723b 9153 1c3b
00000040: 6dc1 873b 0382 8b3b b80b 693b e327 a03b
00000050: d36b 6b3b 6b4f 483b 8a8d 6a3b 67d5 8d3b
00000060: 7b95 2a3b 04a9 083c 986a 103c c8c6 8d3b
00000070: b6b6 833b 5e3b 843b c75c 9c3b d831 833b
0.0062443223 0.003370348 0.004944411 0.004351293 0.0053669526 0.0045936564 0.0035322213 0.003362132
0.01271613 0.004207704 0.009169067 0.006582366 0.0071946084 0.005386861 0.0037030908 0.002385352
0.004142931 0.004257442 0.0035559963 0.0048875674 0.0035922423 0.0030564915 0.003578993 0.004328418
0.0026029039 0.008341078 0.008814476 0.004326675 0.0040195836 0.0040353974 0.004771802 0.0040037446

decoders.0.decoder_net.7.weight f4 [32, 16, 3, 3]
00000000: ac88 963d 45c5 c33d 376f be3d 8d34 4a3c
00000010: 02e1 13bd b4dd 883c 66de 123c b35c 473d
00000020: 800d 23bd 94d7 943d bb4a fdba 4b08 353d
00000030: 7fea 233c 96c9 99bc 3447 fabb 4f0f 6ebd
00000040: c8a9 2c3c 0d5a 813d 7822 8dbd 8056 64bd
00000050: 2001 c1bc 9998 89bd 8fcd 733c d9e5 23bd
00000060: c20a 3e3d 9d7c c4bb 27f2 8cbd 8391 b2bd
00000070: 2181 d8bc 8fae 73bd 6d65 32bc 230f 11bd
00000080: a7b1 c4bd c7d6 6dbd b7da 92bd e0c5 5dbd
00000090: 1c34 d4bc 1e11 72bd 97fa c83c 63fd b33c
000000a0: e485 223d 6be6 c9bc d15a 71bc 1f62 90bc
000000b0: d517 263b 5b7c c4bc 0de8 f0bc 653b 063c
000000c0: 0c6d 27bd 2510 fabc 2ed3 383d 57e9 193d
000000d0: 297e c1bd 5114 363a a643 3bbd 47b1 40bc
000000e0: 2a62 94bd 9f48 1a3d 0165 303c f0a1 e33b
000000f0: 307b 94bc b826 473d 0378 3fbd 1832 993d
00000100: d4b0 4a3c 5f34 e3bc 2d6c a5bc db92 1c3d
00000110: 06a5 25bd d2c9 8cbd 4204 dfbc f347 fb3c
00000120: e3ec b33b f8c0 ad3d 852c 123d 97e4 bdbd
00000130: 85d9 46bd c1b8 363d 0fd0 c83c eb79 3abd
00000140: 994e 19bd 7829 f8bb d67b b9bd e671 913c
00000150: b2c5 403b 4cfc c83c 4901 babb f713 643c
00000160: fb57 c53a a853 953d d038 3b3b 4f64 083d
00000170: d2db 503d ad7b 893c fee7 bbbc 139a 7f3d
00000180: cdf7 173d 36fd fe3c a536 c83d 2642 703d
00000190: c54b dfbb c8cb 0e3c e5e8 35bd f1d7 163d
000001a0: 280d 8cbd 633c 53bd b020 8fbc 462a 1bbd
000001b0: c615 133c 73df c53b 9130 0a3d 8835 60bc
000001c0: 6570 fd3d 76c0 be3c 5cbc 5abd f627 583d
000001d0: 3338 393d 47b6 6dbd 4320 833d fd25 1a3d
000001e0: 0a8e 15bd 46b3 a0bc f0f3 043d 805b 3dbb
000001f0: ff2f 483d cf0f 223d 94f3 943d c0e1 90bd
00000200: 9444 4ebd 1154 2e39 d091 e8bc 396d 8dbc
00000210: b083 803d 7628 0f3c 1168 e8bc 1cd7 603d
00000220: c986 473d 558d 6dbd 40d3 56bd ab8a 71bd
00000230: c2bd ea3c 481a bbbc bd89 7b3d 811f bfbc
00000240: b963 643d f724 4bbc 544b 8fbd f83a 91bc
00000250: 512e c2bb 3043 96bc d2b3 8d3c b978 653d
00000260: 3397 e53b 0af1 593d acb0 163e e6f9 8939
00000270: 39b5 16bd 3eac 11be 8b1c c3bd 4f38 813c
00000280: 1f92 00bc 45b8 8fbc b45d a33c f956 033d
00000290: c22a abbc 33d8 26bd 50e5 bdbc 61d3 b43b
000002a0: ca26 853c 79cc 3f3d 0c11 8cbd 4a1c 9b3b
000002b0: 36c9 9d3d 986a 5c3d c30f 8cbc f7a6 103e
000002c0: 4332 c03d f5e2 803d cc55 a43c 5418 313c
000002d0: e54e b83c 5a7d b83c dcac 6ebd 6ae6 513c
000002e0: 3cb5 843d 7805 f2bc af20 a03c 8872 863d
000002f0: 205e 243c 8f70 b4bb b865 39bd 8588 8f3b
00000300: 8838 033d bded b43d a8f8 b93d 8e99 253d
00000310: 3b4e 0e3d 1bd3 923d 62ef cdbb e956 80bd
00000320: b91f 8e3d 4987 3a3a 3734 a63a 3be1 253d
00000330: cbf9 d6bd 1d29 d1bd c3f1 9ebd ff02 233d
00000340: 5f1d fb3c 5324 483b d618 3d3b 30e9 8ebd
00000350: 6842 23bd d1ba 893d 23e6 0b3c 2597 313d
00000360: 56ef 0f3d 58e7 99bc 367a 743c a272 25bd
00000370: 371b 18bd 3f81 c93c 2422 473d 17ed 96bc
00000380: b4df cc3b cab9 64bc 6d44 b63d b91b 243c
00000390: 1a41 873d 2a80 ccbc 0116 95bd 2364 77bd
000003a0: 85ac 4dbd 7f4f 393b a0f2 70bb e39e 943c
000003b0: 3c1b 053e e083 8dbd f6c8 96bc cd19 ad3d
000003c0: bf50 c9bd 2aeb 97bd d91f 47bd 9cb0 8bbd
000003d0: 1de0 943d 7fae 67bc ec12 b33a 906c 883d
000003e0: 61ad 803d 1518 6ebc c2af c53b 7792 a73d
000003f0: 0cee 0ebd 0da5 c3bd 41c4 08bd feb8 abbc
0.07350287 0.095591106 0.09298556 0.012341631 -0.036103256 0.016707279 0.008964157 0.04867239
-0.039807796 0.07267681 -0.001932464 0.044197362 0.010004639 -0.018772881 -0.0076378826 -0.05812007
0.010538526 0.06316004 -0.0689134 -0.055746555 -0.023560107 -0.06718559 0.014880552 -0.04001412
0.04639698 -0.0059963004 -0.068821244 -0.087191604 -0.026428761 -0.059492644 -0.01088844 -0.035414826
-0.09604197 -0.058066156 -0.07170623 -0.054143786 -0.025903754 -0.059098355 0.024533553 0.02197141
0.03967847 -0.024646005 -0.014731125 -0.017624913 0.0025343795 -0.023985079 -0.029407525 0.008192872
-0.04087548 -0.030525276 0.04512327 0.037576046 -0.09447891 0.00069457764 -0.04571881 -0.011761016
-0.07245286 0.037666913 0.010766269 0.0069467947 -0.018125147 0.04862091 -0.04674531 0.07480258
0.012371261 -0.027734933 -0.020193184 0.03822599 -0.04044058 -0.06874432 -0.02722371 0.030673956
0.0054908856 0.084840715 0.03568699 -0.09272116 -0.048547287 0.04460979 0.024513273 -0.045526426
-0.037428472 -0.007573303 -0.09056823 0.017754506 0.002941471 0.024534367 -0.0056764227 0.013920776
0.0015056127 0.07291347 0.0028567798 0.033298787 0.050990887 0.016782606 -0.022937771 0.062402796
0.037101556 0.0311266 0.097760476 0.058656834 -0.0068144524 0.008715577 -0.04441156 0.03682703
-0.06838447 -0.05157126 -0.017471641 -0.037882112 0.008977359 0.0060386 0.033737723 -0.013684638
0.12374953 0.023285132 -0.05340229 0.052772485 0.04521961 -0.05803516 0.06402638 0.037633885
-0.036512412 -0.019616734 0.0324592 -0.002889365 0.048873898 0.039565857 0.07273021 -0.070743084
-0.05035837 0.0001662525 -0.028389841 -0.017263995 0.062751174 0.008737674 -0.028369935 0.054892644
0.048712526 -0.057996113 -0.052447557 -0.058970135 0.028654937 -0.02283968 0.061410654 -0.023330452
0.055759165 -0.01239895 -0.069967896 -0.017728314 -0.0059259315 -0.018342584 0.01729766 0.056023333
0.0070065497 0.05320839 0.14715832 0.00026316865 -0.03679392 -0.14225861 -0.095269285 0.01577392
-0.007847338 -0.017543921 0.019942142 0.032065365 -0.020894412 -0.040733527 -0.023180634 0.0055183624
0.016253848 0.04682586 -0.06839189 0.004733597 0.077043936 0.053812593 -0.01709736 0.14126192
0.09384587 0.062932886 0.020060442 0.010809023 0.022498557 0.02252071 -0.05827032 0.012811283
0.0647988 -0.029543623 0.019546835 0.06564814 0.010032207 -0.005506582 -0.045263022 0.004380288
0.032036334 0.088344075 0.090806305 0.040429644 0.034742575 0.071691714 -0.00628464 -0.06266577
0.06939644 0.0007115496 0.0012680356 0.040498 -0.10496863 -0.1021292 -0.07760956 0.03979778
0.030653654 0.003053923 0.0028853915 -0.06978071 -0.03985825 0.067250855 0.008538756 0.043357033
0.035140358 -0.018787071 0.0149217155 -0.040392525 -0.03713533 0.024597762 0.048616543 -0.0184236
0.0062522534 -0.013960311 0.0889977 0.010016375 0.06604214 -0.024963457 -0.072795875 -0.060398232
-0.050213356 0.0028276143 -0.003676571 0.01814217 0.1299867 -0.06909919 -0.018406373 0.08452187
-0.09829854 -0.07417901 -0.048614357 -0.06820795 0.07269309 -0.014140724 0.0013662255 0.06661332
0.062830694 -0.014532109 0.006032915 0.08182233 -0.034894988 -0.09552965 -0.033390287 -0.020962235

decoders.0.decoder_net.7.bias f4 [16]
00000000: c0a4 053d e24a 143d eb2a e6bd 047d d0bd
00000010: 1c40 9fbc 4277 363e 6038 05be bfb4 edbd
00000020: 3743 38bd 2e59 2b3d 862b 11bd 3917 c3bd
00000030: 82ee 0abe c5c4 ca3b 1c21 9dbd 2425 d0bd
0.03262782 0.036204226 -0.11238655 -0.10180095 -0.01943975 0.17818931 -0.13009787 -0.1160674
-0.044985976 0.041833095 -0.035441898 -0.09525914 -0.13567546 0.0061880075 -0.07672331 -0.10163334

decoders.0.decoder_net.9.weight f4 [16]
00000000: 980e 663f 4fae 6f3f 12c7 683f e5f3 6b3f
00000010: 8c7f 683f 5f00 6d3f f1e7 673f b3bf 6d3f
00000020: ae4a 673f 8c25 6a3f 3c8b 6f3f e729 753f
00000030: 12ad 6c3f ea3a 763f a734 6d3f f02d 6b3f
0.8986602 0.9362535 0.9092876 0.9216903 0.9081962 0.9257869 0.9058829 0.92870635
0.9034833 0.9146354 0.9357183 0.9576706 0.92451584 0.96183646 0.92658466 0.9186697

decoders.0.decoder_net.9.bias f4 [16]
00000000: f2ea 98bd 91bc 213d e0c7 3bbd 82bd 84bd
00000010: a063 ca3c 1609 8b3d a1a2 933d 6212 53bc
00000020: a24c 143d 51d3 29bd bd39 d1bc 5564 9bbd
00000030: 50ba 8ebc c5f8 bd3d bd4f ccbb 00aa 83be
-0.07466687 0.03948647 -0.045844913 -0.06481458 0.024705708 0.067888424 0.072087534 -0.012882801
0.036205895 -0.041461293 -0.025540227 -0.07587496 -0.017422825 0.09275965 -0.0062350915 -0.25715637

decoders.0.decoder_net.9.running_mean f4 [16]
00000000: 1e49 923d 1e49 923d 1e49 923d 1e49 923d
00000010: 1e49 923d 1e49 923d 1e49 923d 1e49 923d
00000020: 1e49 923d 1e49 923d 1e49 923d 1e49 923d
00000030: 1e49 923d 1e49 923d 1e49 923d 1e49 923d
0.07142852 0.07142852 0.07142852 0.07142852 0.07142852 0.07142852 0.07142852 0.07142852
0.07142852 0.07142852 0.07142852 0.07142852 0.07142852 0.07142852 0.07142852 0.07142852

decoders.0.decoder_net.9.running_var f4 [16]
00000000: a9fe 933a 4235 1b3b fdc9 fa3a 2dad ed3a
00000010: 62ed 293b b385 323b 97e4 1f3b f33d 2d3b
00000020: a5e2 813a 21eb 4b3b cb33 443b e899 723b
00000030: 2f59 163b 10a0 2d3b 60c3 313b 7a45 213b
0.0011291105 0.0023682867 0.0019133684 0.0018133275 0.0025928845 0.0027240335 0.0024397725 0.002643463
0.0009909464 0.003111549 0.0029938098 0.0037018005 0.002294134 0.002649311 0.002712451 0.0024608062

decoders.0.decoder_net.10.weight f4 [16, 1, 3, 3]
00000000: 8c30 42be 0165 11be aa32 1b3e bd22 d4bd
00000010: fa54 e2bd c937 0abd 99fb 29be 1a89 2fbd
00000020: 1ad9 a73d 44af a0bd ef3b 723c 7614 273e
00000030: f42d 463e 99a9 f13d 02b5 12bd 523e 4f3e
00000040: e42c 8e3e 197b 82bc b8a7 713b 9774 af3d
00000050: b06a 33be 40ad 17be 135b 07be 7383 80bd
00000060: 8890 9abd 29bd 353e dc82 3dbe 5fb1 87be
00000070: c811 6dbe c093 15be 26e8 41be 8361 27be
00000080: 2d14 2fbe 9f67 8f3d 776c 4c3e ccae 723e
00000090: 9281 163e 4ef0 7bbe 760a a4bc af20 3abe
000000a0: 537d 033e 4bea 73be eb27 093d 100b 6dbe
000000b0: 285e 4dbe ee1b 293e 51b1 50be d003 24bd
000000c0: d3f0 503e 387f cfbd 5575 263e 6274 63be
000000d0: 083b 29bd 73b9 9cbd 2a9f 87bd 27eb c13c
000000e0: 33b6 243d 6e71 833e 1de5 553e 1cd8 21bd
000000f0: b1fc 5dbe ee2c 44bd 793b 3e3e 2507 2a3e
00000100: 4377 7f3e a747 503e 12d1 f0bc 68bf 00bd
00000110: 9568 a23c b0a6 4fbe 9d3b 4bbc ff73 833e
00000120: 7f70 23be 65da ac3d 083c 4e3e 982a 103e
00000130: e890 3e3e db09 e73c 04fb 64bb 01ae aebd
00000140: 9840 473d b563 81be f515 ae3d 4260 913d
00000150: 153f 343e fbed 5dbc d5c1 3fbe 1ac5 8dbd
00000160: 4ea2 7c3e 9a31 793e 1dba 37bd 845e 323a
00000170: 00a4 6f3e 3aa6 e8bd 0ffa 86b9 a564 753e
00000180: 4f43 583e 172a 6b3e 8587 f03d 675e 93be
00000190: 2ed7 80be 94c7 6fbc 0640 d0bd 9cab 27be
000001a0: 5eea 2a3e 0fdf aabb 2470 18be 628e 293d
000001b0: dacd 60be 07a0 5e3e 3373 d43d 1f4b 45bd
000001c0: 84af 2a3e 0625 db3d 0042 383e 23d8 58bd
000001d0: 6ad6 69be 61cd cebd a728 1dbe 4c5f 35be
000001e0: 2cbb 0a3e ac52 733e 9efa aabd ce0d 9dbd
000001f0: 5cea 2f3d 916f 8abd 84ff 33be f6e5 31be
00000200: 1170 1d3e 0fb1 1f3e 29f7 a3bd 1741 30be
00000210: 496e 47be 9ae0 eebd bb03 08bc b135 5b3d
00000220: 319d 993d 3030 1a3e ec2d 51be c53f 9cbb
00000230: c0b0 253e 8916 a33c 1fa8 81bd 5565 05be
-0.18963832 -0.14198686 0.15156046 -0.10358188 -0.11051364 -0.033744607 -0.16599883 -0.04285536
0.08195706 -0.07845929 0.014784797 0.16316399 0.19353467 0.11799926 -0.035817154 0.20238617
0.27768624 -0.015927838 0.003687365 0.085671596 -0.17521167 -0.14812183 -0.13218336 -0.06275072
-0.075470984 0.1774794 -0.1850695 -0.2650251 -0.23151314 -0.14607143 -0.18936214 -0.16345792
-0.1709754 0.07002186 0.19963251 0.23699492 0.14697865 -0.24603388 -0.02002452 -0.1817653
0.12840776 -0.23819844 0.033485334 -0.23148751 -0.20055449 0.1651456 -0.20380141 -0.0400427
0.20404367 -0.10131687 0.16255696 -0.22212365 -0.041316062 -0.07652559 -0.06622155 0.0236717
0.04021282 0.25672477 0.20888181 -0.03951274 -0.21678425 -0.04789441 0.18577375 0.16604288
0.24947838 0.20339833 -0.029396567 -0.03143254 0.01982526 -0.2027843 -0.01240435 0.25674435
-0.15960883 0.08440093 0.20140088 0.14078748 0.18609965 0.028202942 -0.0034939656 -0.08529282
0.048645586 -0.25271383 0.08500282 0.07098438 0.17602189 -0.0135455085 -0.18726285 -0.0692236
0.2467129 0.24335328 -0.044855226 0.0006804245 0.23402405 -0.1135983 -0.0002574478 0.23964174
0.21119426 0.22965275 0.11744598 -0.2878296 -0.2516417 -0.0146349855 -0.101684615 -0.16374058
0.16690966 -0.005214579 -0.14886528 0.041395552 -0.21953526 0.21740733 0.10373535 -0.048167344
0.16668516 0.10700421 0.17993927 -0.0529405 -0.22835699 -0.10097767 -0.15347539 -0.17712134
0.13547963 0.23762006 -0.08348583 -0.07668649 0.042948112 -0.06759561 -0.1757794 -0.1737288
0.15374781 0.15594886 -0.080061264 -0.1721233 -0.19475664 -0.11663933 -0.008301671 0.053518
0.07500685 0.15057445 -0.20427674 -0.004768344 0.16180706 0.019908207 -0.06330895 -0.13026936

encoder.encoder_net.0.weight f4 [16, 1, 3, 3]
00000000: 082e aebe 8ef4 90be 8024 d5be b737 77be
00000010: 5f0b 2abe df98 65be a6e4 1dbd 695c 393e
00000020: 11bd 0a3e 78fc 39bd 7f54 b2be 7ffb 8bbe
00000030: f537 58be f3b5 bb3d 8383 a73d 58d1 743c
00000040: d8f3 2fbe 7343 38bd 6660 6abd 7623 a6be
00000050: 1fe5 17bc bfdf bb3d 61df c9be 4e05 363e
00000060: 4d9f 2cbe 3263 9a3d 3f4d 90be 5d5a a6be
00000070: 6bce 7abd 84e4 1c3d 769f 3d3e 29c4 4d3d
00000080: cf15 46be a943 6a3e 9546 babe cfd0 9fbe
00000090: e30d ffb9 9970 073e 1c38 76bd 5055 053c
000000a0: 0ca9 dfbd 8f70 4a3e 9f2f 353c 77e8 acbd
000000b0: 86a5 a53e d6ec f53d 3ffc 94be 8a72 bbbe
000000c0: 1f91 cdbe d724 5ebd c54a 3dbd c62b 783e
000000d0: 2257 85be 9835 de3d 01c1 f3bc 1c53 913e
000000e0: 2d36 a83d d84b 25be 23e3 923e 56d3 96be
000000f0: 1031 2a3e c0fd 10be 4d81 b2be 886f 4fbe
00000100: 49ea 9fbe bf28 0ebe 982e 8d3e cc4b a7be
00000110: ef70 1ebe 4279 6a3e 4462 763e a59f 12be
00000120: 8b27 29be 233a 473e 2200 b6bc 3841 903e
00000130: fb91 a83e 8efb 393e 698b b33e eba6 443d
00000140: 8631 dc3d 6f3e 82be 6a1a 5a3d 2dad 47be
00000150: 34e2 53be d109 d0be b1cc 963d 3f04 033e
00000160: 30fe d73c f64e 91be 5c07 863d 0996 02be
00000170: 6040 153d 6ea8 943e 8c2e 3d3e 447f 49be
00000180: 0db1 963e af69 9b3e d9b3 83be 64e3 86bd
00000190: 3935 9bbe 9de5 30be 3a0a 92be 7eba 85be
000001a0: 7d85 5b3e cd51 793d f6e2 8fbd 0ef4 8d3e
000001b0: ed2a 163e 5c07 b5bd edd6 a13e e1f2 96be
000001c0: 9651 4d3e 4e26 c8bd 61bb c8bd 03b4 9d3e
000001d0: 5e87 2ebe bc51 5b3e e937 a0be 6a6a 82be
000001e0: c674 29be 4505 533e 97b5 b53e 7870 45bd
000001f0: 15a8 9f3e 6ed1 e93d 6a9b c4bd 6de4 8cbd
00000200: 016a 3a3e 9511 adbe 731b 08be 2d98 573e
00000210: f568 a5be 9ccb c6bd c3fa c83d 0a2f e3bd
00000220: c23c 4b3e c8bd 88bd 573c 433c 7869 90be
00000230: 2b37 7fbe b6ac 633e 403c 1ebe b659 49be
-0.34019494 -0.2831158 -0.4162941 -0.24142347 -0.166059 -0.22421597 -0.038548134 0.18101658
0.13548686 -0.04540679 -0.3483009 -0.27340314 -0.21115096 0.091655634 0.08179381 0.01494249
-0.17182863 -0.0449862 -0.05722084 -0.3244893 -0.009270935 0.091735356 -0.39428237 0.17775461
-0.16857643 0.07538451 -0.28183934 -0.32490817 -0.06123201 0.038303867 0.18517861 0.0502359
-0.19344257 0.22877373 -0.36381975 -0.31213996 -0.00048647737 0.13226546 -0.060112104 0.008138016
-0.10920915 0.197695 0.011058717 -0.08442777 0.32352847 0.120080635 -0.29098698 -0.36610824
-0.4014978 -0.054234352 -0.046213884 0.24235448 -0.2604304 0.10850066 -0.029755117 0.2838372
0.08213458 -0.16142213 0.28688917 -0.29458112 0.16620278 -0.14159298 -0.34864274 -0.2025739
-0.31233433 -0.13882731 0.2757461 -0.32675016 -0.15472768 0.22897819 0.24060923 -0.14318712
-0.1651899 0.19455771 -0.02221686 0.28174758 0.32923874 0.18162367 0.350673 0.048010748
0.10751633 -0.25438258 0.053247847 -0.19499655 -0.20691758 -0.4063249 0.073632605 0.12794589
0.026366323 -0.28380555 0.065443724 -0.12752546 0.036438346 0.29034752 0.18474787 -0.19677454
0.29431954 0.30354068 -0.2572315 -0.0658634 -0.30314043 -0.1727509 -0.28523427 -0.26118845
0.2143764 0.060869027 -0.07025711 0.2772526 0.14664812 -0.08839294 0.31609288 -0.29482177
0.20050654 -0.09772931 -0.09801365 0.308014 -0.17043826 0.21417898 -0.31292656 -0.25471812
-0.16548452 0.20607479 0.35490105 -0.04820296 0.31182924 0.11416899 -0.095999554 -0.06879506
0.182045 -0.33802477 -0.13291721 0.21054144 -0.32306638 -0.09706804 0.09813454 -0.11092956
0.19847396 -0.06676823 0.011916242 -0.28205466 -0.24923389 0.22233853 -0.15452671 -0.19663128

encoder.encoder_net.0.bias f4 [16]
00000000: 99ce 08be 2e5d 87be 7db7 f23d 4d7d 5b3e
00000010: 9d7f 4cbe 6605 31be 0a1e 483e 6513 823e
00000020: 1c03 6cbe 24d7 2bbc c597 2d3e 78c4 7d3e
00000030: c322 813e 3406 903e a984 0bbd bb85 603e
-0.13360061 -0.26438278 0.11851404 0.21434517 -0.19970556 -0.17287216 0.19542709 0.25405422
-0.23048061 -0.010488305 0.16952427 0.24781978 0.25221834 0.28129733 -0.03406206 0.21926014

encoder.encoder_net.2.weight f4 [16]
00000000: 8fa9 943f b457 883f 2cff 893f a57e 7d3f
00000010: 3d6a 833f 4619 893f 98b4 853f 61e0 863f
00000020: 9932 873f 5db4 873f 29e9 863f 24b1 883f
00000030: 459d 7e3f 1fd8 883f 1b54 853f 4f6c 863f
1.1614245 1.0651765 1.0780997 0.9902137 1.0266796 1.0710838 1.0445738 1.0537225
1.0562316 1.0601918 1.0539905 1.0679059 0.99458724 1.0690955 1.0416292 1.0501803

encoder.encoder_net.2.bias f4 [16]
00000000: 6175 9fbd 6e76 033d fc84 4dbc da41 083b
00000010: 3a76 3e3d 31ef 053c 96eb 483d 7640 17bd
00000020: fb27 853d f50f 56bd 3710 a13b cbbb 55bc
00000030: 2acb 873c 2d02 2ebd b735 a13c d8fc 65bd
-0.0778606 0.032095365 -0.012543913 0.0020791204 0.04649947 0.008174703 0.049052797 -0.03692671
0.06501766 -0.05226131 0.004915263 -0.013045262 0.016576368 -0.042482544 0.019678934 -0.056149334

encoder.encoder_net.2.running_mean f4 [16]
00000000: 1e49 923d 1e49 923d 1e49 923d 1e49 923d
00000010: 1e49 923d 1e49 923d 1e49 923d 1e49 923d
00000020: 1e49 923d 1e49 923d 1e49 923d 1e49 923d
00000030: 1e49 923d 1e49 923d 1e49 923d 1e49 923d
0.07142852 0.07142852 0.07142852 0.07142852 0.07142852 0.07142852 0.07142852 0.07142852
0.07142852 0.07142852 0.07142852 0.07142852 0.07142852 0.07142852 0.07142852 0.07142852

encoder.encoder_net.2.running_var f4 [16]
00000000: 6543 c439 b003 2b39 1713 2739 21e2 0b39
00000010: 7eec 8338 1745 5a39 3ede b938 3025 0e39
00000020: e2bd 1f3a 52ce 5b39 e2f0 6d39 5fb9 3139
00000030: 325d 4038 0fa4 1d39 5e41 1f39 b274 f138
0.00037434246 0.00016309205 0.00015933473 0.00013340313 6.290617e-05 0.00020815838 8.862883e-05 0.00013556029
0.00060936634 0.00020962328 0.00022691817 0.00016949092 4.5863162e-05 0.00015033803 0.00015187773 0.00011513512

encoder.encoder_net.3.weight f4 [32, 16, 3, 3]
00000000: e3e1 d7bd 8c1b 86bd 763f b13d 5c86 c1bd
00000010: c803 463d eead c03d 20cf fbbc 3cc0 933d
00000020: 0d30 dc3c f157 c83c 0b2c a9bd c004 383d
00000030: c87f b1bd 74f6 a53d 6742 513d ee94 95bd
00000040: 412e bb3d 1020 51ba 0f88 a0bd 57a4 de3b
00000050: 13b9 293d 0ebf ac3c cbe8 c93b fe8c 28bc
00000060: a251 4f3d df81 093d a36f da3d a602 8a3c
00000070: bec0 7fbc dc2b a8bc 4b75 013d e00f babb
00000080: 2549 f9b9 9e73 fbbc 0400 f23d ca92 0e3e
00000090: 3a35 973d c1da c53d 5b74 fc3c 46ef cf3c
000000a0: 9322 fc3b d199 babd 7564 adbd c353 42bd
000000b0: 5a58 a3bd ec3b 01be 2b55 41bc 5cf4 99bd
000000c0: ef70 00be 8ce9 a03c e188 893d 1e05 673c
000000d0: 5ac2 65bb d11d 013e 0377 103d 5dea f3bc
000000e0: b2ba 56bd 9e23 5fbd b1d5 cabc cddc de3d
000000f0: e985 aebb aae5 093d 1abd 0b3c 028d 3ebd
00000100: 8dab dabd c48a 8cbd 079f 5dbd 2b3a 71bc
00000110: 50a3 303d 2f44 e8bd 1263 933d fea5 85bc
00000120: 6870 443d 66a4 e53c f258 f03c d2a7 9e3d
00000130: 5472 12bd 6b38 6a3b ff75 abbd 8ada b33c
00000140: bda6 debd 7f2f e43b 6aaf 6cbd 9ab7 a83c
00000150: 1a3a d2bd db0e 3abd 76c0 3b3d 90e1 de3d
00000160: 88c8 f83d e6eb 8f3d 2ef9 e3bc f844 4e3d
00000170: 8fc8 813c 40dc 01bc b815 2c3c d313 823d
00000180: cf74 df3b 4586 633d 612f 613c 1a83 a43c
00000190: aa7e 83bd e340 27bd 0fe7 9abd 5e64 57bd
000001a0: 9ee3 6a3d 11b6 dcbc 0b4d 13bd c4f3 dfbc
000001b0: 71d4 0c3e ec37 62bd 8ce4 db3d 601e 39bd
000001c0: b476 bcbd 214e 28bd c70e 15bd 78f3 813c
000001d0: 5b76 50bc cc36 1bbd 4268 853d 60a4 ee3c
000001e0: 4816 513d eb99 82bd 2521 c0bd cc20 3ebd
000001f0: f2b4 fdbd 5701 2f3b ac5e 83bd c100 42bc
00000200: 9e90 1fbd cbf2 9e3c a461 40bd af46 afbd
00000210: 63d9 7cbd f54c 49bc 8e69 fd3c eef2 4fbd
00000220: 6c21 85bc acd7 67bd 2b89 56bd 64ed b1bc
00000230: 9b3e a2bc 8f4a 583b e730 153d 86ec b53d
00000240: 734f 5cbd cbb7 d9bd 6f53 b83c b26f d4bd
00000250: 9898 03bd ebe5 b2bc 6f22 e83c 26a2 433d
00000260: 8264 4ebc e2e5 aa3d 3cbe ecbc afa6 753d
00000270: d991 febd d986 0e3c d809 5d3d edff afbd
00000280: 2e2a 203b 1782 9b3d 1c3e f1bc e8f7 78bd
00000290: e37b d63d 3838 573d e28a 723d 0057 253d
000002a0: b865 183d 21d8 aebc 3e1c 87bd 4f94 4e3d
000002b0: 3149 743d 9eab 793c 61bf 16bd 5f4c 973c
000002c0: 3e97 78bc de00 993c b54a bf3c 0676 c1bd
000002d0: 2562 573d 7373 13bd 7c95 17bd ed18 a23d
000002e0: bfd5 b73c 4d50 cb3c 9b56 8ebc ccc6 873b
000002f0: eac8 c6bc 6030 13bc b64c 92bd a823 163d
00000300: 3370 07bd 37c7 433c 5a64 9fbc 4898 ee39
00000310: d4ab 633d a4b1 54bd 1aba f1bc 455c d53d
00000320: b9f9 513c 80ad 8c3d d01b 4f3c b125 d0bd
00000330: f142 193d 2cc6 113d 22df f4bc 0e8d 63bc
00000340: 304d b7bb 3f04 d33d cf93 643c 039a 963d
00000350: da05 d43b bef4 83bd 1746 aa3d ace9 aebc
00000360: 1423 dbbb c89d 413d f60f 533d 6825 853c
00000370: 0323 a33d 04e5 67bc 58a9 153e 36ec ffbc
00000380: 703c 1c3d f860 53bd 91a4 ee3c c210 05bd
00000390: 6047 7cbd 2272 64bc ff3a 033d 40f2 263d
000003a0: 3c47 f1bc ff75 e03b 463f 68bd 2df4 cdbd
000003b0: 1188 40bd 2768 883d 7e98 37bd c03f f4bd
000003c0: 9a06 ed3d da71 b73c b3fa 853d 2eaa 923d
000003d0: 7ab6 a7bd 894f 96bd 9bb3 61bd d955 1abd
000003e0: b5b5 033e 867f a5bd e769 fd3c a175 e93d
000003f0: 0167 bb3c 9385 993d 834e 003c fdec a63d
-0.10541131 -0.06548223 0.08654682 -0.09449455 0.04834345 0.094081745 -0.030738413 0.072144
0.026878381 0.024455996 -0.08260354 0.044926405 -0.086669505 0.08103648 0.051088717 -0.07303797
0.091396816 -0.0007977495 -0.07838451 0.006794493 0.041436266 0.021087196 0.0061617843 -0.010287521
0.05061496 0.03357112 0.10665824 0.016846966 -0.015609918 -0.020528726 0.031606 -0.005678162
-0.00047547478 -0.030694779 0.11816409 0.13923183 0.07383199 0.096608646 0.030817201 0.02538265
0.0076945513 -0.091113694 -0.08466426 -0.047443163 -0.07975836 -0.12620515 -0.011800091 -0.07517311
-0.12543081 0.019642614 0.06715561 0.014100341 -0.003505847 0.1260903 0.03526975 -0.029774839
-0.05242414 -0.054477327 -0.0247601 0.10881958 -0.005326022 0.03366629 0.008528972 -0.046521194
-0.10677252 -0.06862405 -0.05410674 -0.014723341 0.043124497 -0.1134113 0.071966305 -0.016314503
0.04795876 0.028032493 0.029339287 0.07746853 -0.035753563 0.0035739194 -0.08372115 0.021954793
-0.108716466 0.00696367 -0.057784475 0.02059536 -0.10264988 -0.045424324 0.045837842 0.108828664
0.12147623 0.07027416 -0.02782878 0.050358742 0.015842704 -0.007926047 0.010503225 0.063514374
0.0068193446 0.05554797 0.013744206 0.020082045 -0.06420644 -0.040833365 -0.07563602 -0.052585952
0.05734598 -0.026942285 -0.035962146 -0.027337916 0.13752915 -0.055229113 0.10736951 -0.045194983
-0.09202328 -0.041090135 -0.036391046 0.015863165 -0.012723531 -0.037894055 0.06514026 0.029131114
0.05104664 -0.06377014 -0.09381322 -0.046417996 -0.12388028 0.002670368 -0.064145416 -0.011841
-0.038956277 0.019402882 -0.046968117 -0.08558404 -0.061730754 -0.012286414 0.030934121 -0.050768785
-0.016251288 -0.056602165 -0.052376907 -0.021719642 -0.019805243 0.0033003425 0.03642359 0.08883004
-0.053786706 -0.10630759 0.022500722 -0.10372867 -0.032127947 -0.021838149 0.028336732 0.04776206
-0.012597205 0.08344628 -0.028899305 0.059973415 -0.12430162 0.008699142 0.053964466 -0.08593736
0.0024439204 0.07593172 -0.029448561 -0.060783297 0.10472848 0.05254385 0.05921448 0.040366173
0.03720638 -0.021343293 -0.06597184 0.050434407 0.059640113 0.015238671 -0.036803607 0.018469034
-0.015172778 0.018677171 0.023351053 -0.09446339 0.052583832 -0.035998773 -0.037007794 0.079149105
0.02244079 0.024818564 -0.017375281 0.0041435715 -0.024265725 -0.0089837015 -0.07143538 0.0366551
-0.033065986 0.011949352 -0.019457031 0.00045508356 0.05558379 -0.051927224 -0.029507685 0.1041799
0.012815886 0.0686903 0.012640908 -0.10163439 0.037417356 0.035589382 -0.029891554 -0.0138886105
-0.0055939183 0.10303544 0.013951256 0.07353594 0.006470424 -0.06443165 0.0831415 -0.021351658
-0.0066875312 0.047269613 0.051528893 0.016253188 0.07965662 -0.014153723 0.14615381 -0.031240564
0.038143575 -0.05160615 0.029131206 -0.032486685 -0.061591506 -0.013943227 0.032038685 0.04075837
-0.029452913 0.0068500037 -0.056700967 -0.100563385 -0.047004763 0.066604905 -0.044823162 -0.11926222
0.11573525 0.022393156 0.06541958 0.071613654 -0.081891015 -0.07339389 -0.055102926 -0.037679527
0.12862284 -0.08080964 0.030934287 0.11399389 0.022876265 0.074961804 0.007831219 0.08150671

encoder.encoder_net.3.bias f4 [32]
00000000: 109f d53c 8c5c db3d cca6 80bd 95ee 1c3d
00000010: 21fb 8cbd 81bc 9ebc d419 d63b 3fa7 92bd
00000020: a975 8b3d 047b 81bd a10c debd 94a1 2c3c
00000030: 01e5 c2bc 0b0e 863d 982b a13c 809a 963d
00000040: 4dfb 19bc 4025 edbc bd82 b4bd c60c 11bd
00000050: 9bee 763c 98b0 e5bc 10a8 b23c e91c 65bd
00000060: 0868 a43d 16ef 1e3d f93d ddbc bb8c a43b
00000070: 9592 21bd d7b6 febc e026 0a3d 1d27 1d3a
0.026076823 0.10711011 -0.06281814 0.038313467 -0.068838365 -0.019376995 0.0065338407 -0.07160806
0.06809551 -0.063222915 -0.108422525 0.01053657 -0.023790838 0.06545647 0.019674107 0.07353687
-0.009398294 -0.028948426 -0.08813999 -0.035412572 0.015071536 -0.028038308 0.021808654 -0.055935774
0.08027655 0.03880223 -0.02700709 0.005021659 -0.039446432 -0.031093044 0.03372848 0.0005994903
