miniproject2/experiments/ensemblyVAE/modelSeed920nD1.pt (torch, 144013 bytes, 37 tensors)

prior.mean f4 [2]
0.0 0.0
00000000: 0000 0000 0000 0000

prior.std f4 [2]
1.0 1.0
00000000: 0000 803f 0000 803f

decoders.0.decoder_net.0.weight f4 [512, 2]
0.019452158 -0.08827286 -0.6363391 0.6930443 0.6138319 -0.26575783 -0.16273092 -0.6938299
0.5732125 0.38169876 0.19015059 0.23256168 0.5621415 -0.21049006 0.283402 -0.5606732
0.59849346 -0.1157664 -0.630994 -0.51174533 0.23755799 0.5284483 0.032745063 0.12647004
0.15104693 -0.55692303 0.5841278 -0.2585711 -0.2128992 -0.2899716 0.58653396 0.10518698
0.26049617 -0.064454645 -0.34532002 0.24823406 -0.48468876 0.6489884 0.5449822 -0.5254716
-0.3940175 0.69014037 0.4862512 -0.43348044 -0.5782397 0.1383206 -0.6803909 -0.21649562
0.441606 0.55669886 -0.33950722 0.6685313 -0.2581579 -0.63792765 0.6911068 -0.10196853
-0.33387253 -0.0858768 0.22454761 -0.21848835 -0.20572744 -0.30395988 0.4261743 -0.1342492
0.11889069 -0.6455195 -0.24405974 -0.41392058 0.54963404 -0.44101575 0.07053596 -0.3206323
-0.54214513 0.5877998 0.40684026 -0.22786537 0.16145106 -0.06307189 -0.12299991 0.33943516
-0.28510568 0.4757261 0.59509796 -0.16005294 -0.57335424 -0.60802406 0.16736044 0.48213887
-0.19051991 0.47668374 0.11672094 -0.16076507 0.12291916 -0.0037587958 -0.13332312 -0.21051435
-0.49772254 -0.2000496 0.6157049 0.53201646 -0.08477236 0.65434396 0.3652221 -0.13817853
-0.36100107 -0.13592523 -0.3812624 -0.36610124 0.52322996 0.37313172 -0.3962142 0.500627
0.6541109 -0.17982738 -0.10724259 -0.12041008 0.041357074 0.27779725 -0.47233516 -0.5932052
-0.41529813 -0.61947393 -0.14567961 0.26783407 -0.1013981 -0.65759754 -0.232336 -0.605105
-0.33177188 0.65003383 0.15698071 0.08037015 -0.088108264 -0.36748102 0.6701372 0.2721573
-0.5648579 0.57811785 0.6381265 0.3724783 0.48178896 -0.22577246 -0.52773535 -0.37652713
0.50568193 0.49865562 0.5225324 -0.64166045 -0.49508613 0.5029543 -0.1509714 -0.32718533
-0.1240832 -0.040249165 -0.680915 0.13790496 0.35732704 -0.12073516 -0.4325229 -0.06669537
-0.69977015 0.1412664 -0.22144277 -0.5744894 -0.49780428 0.41104707 -0.52022374 -0.10487349
-0.06696292 -0.03574068 -0.41466662 -0.20583355 0.051938795 0.18758784 0.17750655 -0.3408315
0.25237262 0.5668907 -0.49946538 -0.57305336 -0.68960106 -0.1799359 -0.055420887 0.092373766
-0.11977011 0.6551931 -0.081364356 0.062027875 0.11915346 -0.7060786 -0.17499776 -0.5189935
-0.40163654 0.6281142 -0.36550337 -0.1025683 0.3746503 0.39177623 0.5732895 0.46104544
-0.18673195 0.67270166 -0.2597814 -0.04092119 -0.13368836 -0.21242154 0.6042899 -0.109351486
-0.6508169 -0.6768312 0.37707153 0.33074096 -0.63842696 0.0948215 -0.1699836 0.16584587
0.27761284 -0.101205334 -0.27636433 0.02366846 -0.005581013 -0.5262364 0.50477123 -0.63949996
-0.34158084 0.17057355 -0.13557695 0.39171574 0.35542655 -0.39878333 0.36314878 0.015217272
0.42908254 0.2871992 -0.5687488 0.4589792 -0.40852383 0.3812979 0.37779775 0.3935881
0.2151149 0.6441398 -0.70658976 0.13699435 0.1138703 -0.31247458 -0.47730204 0.5085584
-0.6521552 0.031636287 -0.5570777 -0.66575724 -0.6890354 0.5750602 0.12622811 0.22085498
00000000: 225a 9f3c 67c8 b4bd 1fe7 22bf 5a6b 313f
00000010: 1624 1d3f 6911 88be efa2 26be d69e 31bf
00000020: 0ebe 123f 056e c33e d6b6 423e a624 6e3e
00000030: 81e8 0f3f b58a 57be 111a 913e 4788 0fbf
00000040: de36 193f ef16 edbd d388 21bf be01 03bf
00000050: 6742 733e 6348 073f b01f 063d 5d81 013e
00000060: 0cac 1a3e 8292 0ebf 6689 153f 6e63 84be
00000070: 3f02 5abe 2877 94be 1727 163f 456c d73d
00000080: c15f 853e cc00 84bd c9cd b0be 1231 7e3e
00000090: 2029 f8be 1b24 263f f483 0b3f 4f85 06bf
000000a0: a9bc c9be 0aad 303f ebf5 f83e 26f1 ddbe
000000b0: 8407 14bf eaa3 0d3e 192e 2ebf 07b1 5dbe
000000c0: 2e1a e23e d183 0e3f e4d3 adbe de24 2b3f
000000d0: 462d 84be 3a4f 23bf 60ec 303f e0d4 d0bd
000000e0: 57f1 aabe 2de0 afbd cfef 653e 69bb 5fbe
000000f0: 37aa 52be a1a0 9bbe 8533 da3e 9f78 09be
00000100: f67c f33d c440 25bf ccea 79be 66ed d3be
00000110: d1b4 0c3f d1cc e1be 2875 903d eb29 a4be
00000120: 06ca 0abf 0c7a 163f 5e4d d03e 8a55 69be
00000130: 6d53 253e d62b 81bd 60e7 fbbd 72ca ad3e
00000140: 5ff9 91be 5f92 f33e 5758 183f ebe4 23be
00000150: 58c7 12bf 77a7 1bbf 8960 2b3e e8da f63e
00000160: a717 43be e40f f43e 630b ef3d 999f 24be
00000170: 0abd fb3d 2156 76bb db85 08be 1391 57be
00000180: 7dd5 febe cdd9 4cbe d69e 1d3f 3b32 083f
00000190: 229d adbd 1683 273f 64fe ba3e ac7e 0dbe
000001a0: 22d5 b8be fc2f 0bbe d334 c3be 9f71 bbbe
000001b0: 66f2 053f 1f0b bf3e 96dc cabe 1729 003f
000001c0: d073 273f ab24 38be 01a2 dbbd 8f99 f6bd
000001d0: 0966 293d 713b 8e3e ead5 f1be 4cdc 17bf
000001e0: f5a1 d4be d895 1ebf 092d 15be 8c21 893e
000001f0: cfa9 cfbd 5058 28bf 7de9 6dbe 29e8 1abf
00000200: 01de a9be 9e68 263f 8dbf 203e 1b99 a43d
00000210: 1b72 b4bd 7926 bcbe 1d8e 2b3f 3458 8b3e
00000220: 879a 10bf 88ff 133f 425c 233f 7ab5 be3e
00000230: 0bad f63e e530 67be aa19 07bf 2ac8 c0be
00000240: 5f74 013f ca4f ff3e afc4 053f dc43 24bf
00000250: ee7b fdbe 9dc1 003f 3f98 1abe d684 a7be
00000260: 551f febd 4fdc 24bd 7250 2ebf f536 0d3e
00000270: 92f3 b63e ff43 f7bd a473 ddbe 9597 88bd
00000280: 2324 33bf 24a8 103e e5c1 62be bd11 13bf
00000290: 34e0 febe c374 d23e 622d 05bf eac7 d6bd
000002a0: db23 89bd d264 12bd 2f4f d4be 08c6 52be
000002b0: c6bd 543d 0717 403e 47c4 353e 7781 aebe
000002c0: fc36 813e c01f 113f edb9 ffbe a0b3 12bf
000002d0: b289 30bf 1e41 38be 0301 63bd 752e bd3d
000002e0: 084a f5bd bcba 273f 5ba2 a6bd f110 7e3d
000002f0: bb06 f43d 91c1 34bf 9d32 33be c2dc 04bf
00000300: 4ea3 cdbe 18cc 203f 4223 bbbe 540f d2bd
00000310: 2ad2 bf3e e596 c83e 1ac3 123f 260e ec3e
00000320: a936 3fbe 2d36 2c3f 1102 85be fa9c 27bd
00000330: 9ae5 08be 0885 59be beb2 1a3f acf3 dfbd
00000340: f09b 26bf cf44 2dbf 850f c13e e156 a93e
00000350: f36f 23bf c631 c23d 2e10 2ebe 80d3 293e
00000360: 4523 8e3e be44 cfbd a07f 8dbe 5ce4 c13c
00000370: eee0 b6bb 6eb7 06bf b038 013f 45b6 23bf
00000380: afe3 aebe d5aa 2e3e afd4 0abe f78e c83e
00000390: 78fa b53e 542d ccbe a3ee b93e dd51 793c
000003a0: b5b0 db3e c60b 933e 8599 11bf 52ff ea3e
000003b0: 092a d1be 7a39 c33e b56e c13e 6184 c93e
000003c0: 1547 5c3e 59e6 243f 11e3 34bf 3f48 0c3e
000003d0: d534 e93d abfc 9fbe ef60 f4be e230 023f
000003e0: a5f3 26bf 0d95 013d a59c 0ebf 116f 2abf
000003f0: a064 30bf 2537 133f f141 013e cf27 623e

decoders.0.decoder_net.0.bias f4 [512]
0.532057 0.4406436 -0.19747137 -0.059679564 -0.31769028 0.45108566 -0.11441842 -0.21146415
0.28390908 0.14556298 -0.1379534 -0.30140668 -0.4205112 -0.26495972 0.5815487 -0.6988593
0.6851812 0.40591186 -0.58555084 0.27158326 0.56654656 -0.085869946 -0.263238 -0.37728083
-0.5649222 0.56402713 -0.4859436 0.34839335 -0.4431793 -0.51008266 0.69765043 0.2843892
0.12749454 -0.5514813 -0.55885756 -0.16953534 0.34538692 0.57994515 -0.17945658 -0.46013892
0.6334664 -0.70224243 0.08131478 -0.66365606 -0.40801138 0.39559627 0.42664728 0.2913131
-0.70929754 0.32462412 -0.582075 0.48176602 -0.48183647 -0.12840328 0.10746583 0.6407351
0.2089138 -0.4196888 0.5691796 0.05981954 0.48950794 0.378701 0.088550806 -0.511928
-0.55143106 0.47830886 0.34073192 -0.5111669 0.1970616 -0.12661482 0.041795686 0.35963172
-0.071033955 0.29375514 -0.038080305 0.077882476 -0.05701492 -0.5667396 0.6762291 0.38127738
0.310004 -0.6861121 0.4768606 -0.28871635 0.44484487 0.13221297 0.3517282 0.2721427
0.14917843 0.4199709 0.23884463 0.36578217 -0.5117358 -0.54966533 0.40753883 0.49376813
-0.52751344 -0.34215444 -0.43524745 0.0073779505 0.356422 0.4970091 0.5632523 -0.22246413
0.5363943 -0.109278195 0.34792086 0.302617 0.1640193 -0.15748519 -0.11638214 0.4728862
0.30384263 -0.61515325 -0.49327648 0.43744448 0.3204162 -0.2793427 -0.4086107 -0.62987244
-0.031870805 0.018299423 0.54759324 -0.5436627 -0.585314 -0.16573068 -0.11443744 -0.4968058
-0.6765231 0.18785644 0.6948833 -0.5370703 0.557532 0.010055183 0.10977805 0.23949292
0.11934751 -0.55790764 -0.6241504 -0.123895474 0.32297674 0.5053597 -0.20636639 -0.0860193
0.19428876 -0.6713853 0.36726826 -0.34620598 -0.19077736 0.39257532 -0.16154937 0.34028402
-0.38980526 0.52559054 0.5467851 0.546655 0.3172878 0.21579938 0.03794434 -0.41189992
-0.1386475 0.6568178 0.6111946 0.59654725 -0.124463454 -0.51435536 0.31390673 0.46848533
-0.4461025 -0.12657443 -0.37710902 0.06599882 -0.3154184 0.026309812 -0.21884993 0.3792046
0.039567664 -0.6198694 0.06793368 0.48257476 -0.56022316 0.19261026 0.67666847 -0.44131753
0.6092917 0.078020215 -0.32397482 0.5013509 0.13228276 -0.67233264 -0.6332832 -0.44342783
-0.42093936 -0.6687345 -0.18327019 -0.00071372726 0.38808206 0.28111914 0.07185953 0.5438667
0.31953073 0.6436795 -0.043530535 0.0740879 -0.54036003 -0.48103955 -0.31533378 0.4736306
0.46257558 0.19339378 -0.14295642 -0.33058456 0.37142095 0.021171607 -0.034114163 -0.6982244
0.6921928 -0.30193403 -0.027681645 0.18498749 -0.13982849 -0.584186 -0.45421487 0.1965454
-0.3336953 0.13579063 0.68064463 -0.12671082 0.37171578 -0.30718192 -0.4682315 -0.029479574
0.07928509 0.33072948 0.5529409 -0.4747193 -0.13874339 -0.4794381 -0.56719077 -0.43085888
0.33481875 -0.019608103 0.59790003 0.58150613 0.31094366 -0.47182715 -0.6632144 -0.48603037
-0.5697503 -0.21481745 0.35373548 0.32787743 0.2707498 0.3235482 -0.24034967 -0.2642941
00000000: e334 083f 0a9c e13e ef35 4abe 8f72 74bd
00000010: 4da8 a2be b3f4 e63e 3454 eabd 0f8a 58be
00000020: 885c 913e 760e 153e a843 0dbe fa51 9abe
00000030: 3e4d d7be cda8 87be 60e0 143f 71e8 32bf
00000040: 0968 2f3f aed3 cf3e a9e6 15bf f60c 8b3e
00000050: 3209 113f 95dc afbd 22c7 86be f42a c1be
00000060: be9e 10bf 1564 103f 99cd f8be 9d60 b23e
00000070: 66e8 e2be c794 02bf 3899 323f 769b 913e
00000080: ee8d 023e e12d 0dbf 4a11 0fbf ac9a 2dbe
00000090: 8ed6 b03e 4977 143f 77c3 37be 5497 ebbe
000000a0: db2a 223f 29c6 33bf 5d88 a63d 5de5 29bf
000000b0: dee6 d0be 988b ca3e 8371 da3e fe26 953e
000000c0: 8694 35bf 2235 a63e de02 15bf 09aa f63e
000000d0: 45b3 f6be 267c 03be 0c17 dc3d 3707 243f
000000e0: 80ed 553e 73e1 d6be c1b5 113f 5505 753d
000000f0: c9a0 fa3e 19e5 c13e 205a b53d b70d 03bf
00000100: 962a 0dbf e6e4 f43e 6a74 ae3e d5db 02bf
00000110: 84ca 493e 51a7 01be f431 2b3d a621 b83e
00000120: 407a 91bd 1367 963e 18fa 1bbd d980 9f3d
00000130: 7a88 69bd d915 11bf 5a1d 2d3f ca36 c33e
00000140: d8b8 9e3e 0ba5 2fbf 1327 f43e a1d2 93be
00000150: b5c2 e33e d662 073e b815 b43e 4a56 8b3e
00000160: 3bc2 183e 6d06 d73e b093 743e cd47 bb3e
00000170: 1e01 03bf deb6 0cbf eea8 d03e 2dcf fc3e
00000180: 1f0b 07bf de2e afbe c1d8 debe bcc2 f13b
00000190: f27c b63e fa77 fe3e 4d31 103f a3cd 63be
000001a0: 2351 093f 3fcd dfbd af22 b23e 9ef0 9a3e
000001b0: adf4 273e cc43 21be c259 eebd 241e f23e
000001c0: 4391 9b3e af7a 1dbf bc8e fcbe b9f8 df3e
000001d0: 980d a43e 0206 8fbe 6c35 d1be 523f 21bf
000001e0: f68a 02bd ace8 953c 122f 0c3f 7b2d 0bbf
000001f0: 23d7 15bf 4eb5 29be 2d5e eabd 545d febe
00000200: 9e30 2dbf 705d 403e dfe3 313f 707d 09bf
00000210: 6bba 0e3f 7fbe 243c 50d3 e03d a23d 753e
00000220: 786c f43d 09d3 0ebf 52c8 1fbf e9bc fdbd
00000230: 355d a53e 415f 013f b651 53be e32a b0bd
00000240: a2f3 463e e8df 2bbf 960a bc3e e941 b1be
00000250: 245b 43be a2ff c83e 336d 25be b539 ae3e
00000260: 8e94 c7be 1a8d 063f 1cfa 0b3f 95f1 0b3f
00000270: 8c73 a23e 83fa 5c3e 866b 1b3d 8ce4 d2be
00000280: 9cf9 0dbe 3625 283f 4077 1c3f 52b7 183f
00000290: b2e6 febd cbac 03bf 62b8 a03e 4fdd ef3e
000002a0: 8c67 e4be ba9c 01be 6f14 c1be 642a 873d
000002b0: 857e a1be ad87 d73c 321a 60be 1b27 c23e
000002c0: b411 223d c3af 1ebf d020 8b3d 0a14 f73e
000002d0: c96a 0fbf a03b 453e 253a 2d3f 5ff4 e1be
000002e0: 8afa 1b3f 10c9 9f3d 07e0 a5be 8858 003f
000002f0: 2275 073e fe1d 2cbf d91e 22bf f908 e3be
00000300: 5d85 d7be 2f32 2bbf 2eab 3bbe 6d19 3bba
00000310: b1b2 c63e d9ee 8f3e 172b 933d d93a 0b3f
00000320: 8899 a33e 2ec8 243f 134d 32bd 66bb 973d
00000330: 0955 0abf d14a f6be 6e73 a1be b67f f23e
00000340: b5d6 ec3e 0509 463e 2b63 12be 6142 a9be
00000350: e32a be3e 1470 ad3c 4bbb 0bbd d6be 32bf
00000360: 8c33 313f 1997 9abe 9ec4 e2bc 5c6d 3d3e
00000370: 332f 0fbe 378d 15bf da8e e8be 3343 493e
00000380: 1cda aabe b30c 0b3e ba3e 2e3f 7bc0 01be
00000390: 8851 be3e f346 9dbe 0abc efbe 267f f1bc
000003a0: 3960 a23d 6055 a93e 898d 0d3f 680e f3be
000003b0: bf12 0ebe e978 f5be 6a33 11bf 8999 dcbe
000003c0: 5d6d ab3e 2ca1 a0bc fa0f 193f 96dd 143f
000003d0: 0234 9f3e 5493 f1be 6bc8 29bf f9d8 f8be
000003e0: 28db 11bf 1bf9 5bbe d11c b53e 8ddf a73e
000003f0: b89f 8a3e 1ca8 a53e 391e 76be 8e51 87be

decoders.0.decoder_net.3.weight f4 [32]
0.99557066 1.004519 0.99947554 0.99219173 0.9970045 1.0076815 1.0079333 1.0008798
1.0062947 1.0075109 0.99585545 1.0001981 0.9949417 1.0019534 0.99320877 1.0048174
1.0077119 1.008756 0.9954167 1.006505 0.9919088 1.0003968 0.9956695 0.99458086
0.9931088 1.0089891 0.9988821 1.0000986 1.0012623 1.0083886 0.9920901 0.9922388
00000000: b8dd 7e3f 1494 803f a1dd 7f3f 4700 7e3f
00000010: b03b 7f3f b5fb 803f f503 813f d41c 803f
00000020: 44ce 803f 1ef6 803f 62f0 7e3f 7e06 803f
00000030: 80b4 7e3f 0240 803f ee42 7e3f db9d 803f
00000040: b4fc 803f eb1e 813f a1d3 7e3f 28d5 803f
00000050: bced 7d3f 010d 803f 32e4 7e3f da9c 7e3f
00000060: 613c 7e3f 8e26 813f bdb6 7f3f 3b03 803f
00000070: 5d29 803f e112 813f 9ef9 7d3f 5d03 7e3f

decoders.0.decoder_net.3.bias f4 [32]
-0.0069169085 0.0002367071 0.008669692 -0.0075494777 0.0014144792 -0.00059336965 -0.007763235 0.0076650856
-0.0076944395 -0.006688162 -0.00875959 0.0014784142 -0.005808224 -0.0031075943 -0.007220089 -0.0028189148
0.0038733708 0.00539446 -0.008351074 0.007053268 0.0013171433 -0.007884175 -0.0059292433 -0.0020462452
0.0072033894 -0.0067136744 -0.0025002356 -0.005505758 -0.008435543 -0.0078004384 -0.008185366 0.0076232934
00000000: 3ca7 e2bb 9434 7839 530b 0e3c 9c61 f7bb
00000010: 0c66 b93a 5d8c 1bba bc62 febb 662b fb3b
00000020: a321 fcbb 5f28 dbbb 6284 0fbc 59c7 c13a
00000030: ea52 bebb c8a8 4bbb 7f96 ecbb 8bbd 38bb
00000040: 61d8 7d3b 03c4 b03b f1d2 08bc 1a1f e73b
00000050: ffa3 ac3a a02c 01bc 194a c2bb 4c1a 06bb
00000060: 690a ec3b 62fe dbbb feda 23bb a569 b4bb
00000070: 3b35 0abc d29a ffbb ea1b 06bc d2cc f93b

decoders.0.decoder_net.3.running_mean f4 [32]
0.15314487 0.15314487 0.15314487 0.15314487 0.15314487 0.15314487 0.15314487 0.15314487
0.15314487 0.15314487 0.15314487 0.15314487 0.15314487 0.15314487 0.15314487 0.15314487
0.15314487 0.15314487 0.15314487 0.15314487 0.15314487 0.15314487 0.15314487 0.15314487
0.15314487 0.15314487 0.15314487 0.15314487 0.15314487 0.15314487 0.15314487 0.15314487
00000000: 02d2 1c3e 02d2 1c3e 02d2 1c3e 02d2 1c3e
00000010: 02d2 1c3e 02d2 1c3e 02d2 1c3e 02d2 1c3e
00000020: 02d2 1c3e 02d2 1c3e 02d2 1c3e 02d2 1c3e
00000030: 02d2 1c3e 02d2 1c3e 02d2 1c3e 02d2 1c3e
00000040: 02d2 1c3e 02d2 1c3e 02d2 1c3e 02d2 1c3e
00000050: 02d2 1c3e 02d2 1c3e 02d2 1c3e 02d2 1c3e
00000060: 02d2 1c3e 02d2 1c3e 02d2 1c3e 02d2 1c3e
00000070: 02d2 1c3e 02d2 1c3e 02d2 1c3e 02d2 1c3e

decoders.0.decoder_net.3.running_var f4 [32]
0.40755332 0.40142423 0.4056628 0.4088102 0.40172878 0.4032323 0.41082337 0.40623376
0.40380213 0.41364348 0.3997773 0.40793967 0.40318248 0.40425852 0.4014352 0.400472
0.40681455 0.40597895 0.40065 0.40126613 0.40507174 0.4050363 0.40648752 0.40296543
0.406446 0.40855274 0.40623182 0.40313318 0.3962693 0.40735742 0.40298244 0.40445173
00000000: d4aa d03e 7a87 cd3e 09b3 cf3e 924f d13e
00000010: 65af cd3e 7774 ce3e 7157 d23e dffd cf3e
00000020: 27bf ce3e 14c9 d33e 9caf cc3e 78dd d03e
00000030: ef6d ce3e f9fa ce3e ea88 cd3e aa0a cd3e
00000040: ff49 d03e 79dc cf3e ff21 cd3e c172 cd3e
00000050: 9065 cf3e eb60 cf3e 221f d03e 7c51 ce3e
00000060: b119 d03e d32d d13e 9efd cf3e 7967 ce3e
00000070: cfe3 ca3e 2791 d03e b753 ce3e 4c14 cf3e

decoders.0.decoder_net.4.weight f4 [32, 32, 3, 3]
-0.030019572 -0.0016485369 0.048319634 -0.05174578 -0.0094092805 -0.015217118 0.041082997 0.028787458
-0.02970858 0.0013874717 -0.0659441 -0.024825634 0.04573309 -0.029205099 -0.061459053 -0.03458762
-0.0099349 0.0069819866 0.041372716 -0.04425785 -0.02615802 0.035359196 0.013544535 -0.05309686
0.03963233 -0.012274809 0.019637125 0.060359277 -0.0439866 0.03314188 -0.029055014 0.027863383
-0.05753482 0.028832786 0.031076493 0.034505427 -0.05525225 -0.0028306777 0.036639266 0.032026842
-0.04180163 0.03352767 0.0050475635 0.044668473 -0.015557373 -0.0020718148 -0.053472146 -0.046496775
-0.00829 0.03804111 -0.038911283 -0.04191849 -0.01608908 -0.05084619 -0.012349596 -0.023465948
0.059074722 0.04912753 -0.023860138 -0.026866017 0.00246421 -0.023467354 -0.037978943 0.038983207
0.041254546 0.011152989 -0.030295491 0.014212672 -0.045526158 0.059816126 -0.02948255 0.040998533
-0.04367116 0.03687337 0.025434403 -0.017221576 0.023201205 -0.032916665 -0.016863601 0.057244208
-0.028137527 -0.054250915 0.012398161 0.05851772 0.051193945 0.0272762 0.059618276 -0.007646308
-0.008015368 -0.05869405 -0.005060747 0.048064712 -0.032149993 0.03338446 0.028645094 -0.013005808
0.038083512 -0.05122248 -0.006925844 -0.013953081 0.013867991 -0.045408998 0.030294623 -0.012508094
0.055515874 0.032782417 0.018259445 -0.04707395 -0.01308444 -0.033166833 -0.011599537 0.044841386
-0.031381935 0.013984555 0.057302907 -0.029816842 -0.022509491 0.049307726 -0.044331335 -0.04751715
0.055912893 0.0254647 -0.016291091 0.05464038 -0.062000338 -0.04174591 -0.053639602 0.0024070581
0.0006259854 -0.038337372 0.003332668 0.029052595 0.049752306 0.018077353 -0.06485252 0.060210135
-0.014333452 -0.023751145 0.045764223 -0.012649599 -0.0015312738 0.038350545 0.0041629844 -0.039249767
-0.00050925167 -0.01730157 -0.017244702 7.789103e-05 0.04363014 0.06555872 -0.043175135 -0.027197493
-0.007971391 0.019152818 -0.06013543 0.00050831586 -0.031711504 -0.04432249 -0.03690884 -0.018989343
-0.049773958 0.028604962 0.048138324 0.055709194 0.061603013 0.04668435 -0.039156668 -0.014780927
0.013558232 0.02638849 -0.04777705 0.02921215 -0.021912927 0.011204131 -0.036085643 0.05158447
0.033111874 -0.044092037 0.04696259 -0.04892811 0.0319734 0.02679912 0.027722998 -0.03255172
-0.035173442 0.0060307193 0.03666332 -7.560508e-05 -0.006043077 0.04489081 0.026144292 -0.014373235
-0.026404733 0.04770618 0.003704912 0.0011745271 0.0525254 -0.0030399184 -0.03669041 0.037785012
0.05001512 -0.045987953 0.043389723 0.042656664 -0.018112771 -0.05079359 -0.03097031 -0.044269092
-0.035395667 0.00828746 -0.0472799 -0.027505135 0.043855503 -0.03880867 0.06474209 -0.04516787
0.0064387335 -0.049411677 -0.043384362 0.015822515 0.022121789 0.017594833 -0.01777628 0.048218187
0.036413055 -0.03813924 0.04708797 0.046788525 0.045273367 0.025298094 -0.03806482 0.038268156
0.047408566 0.026273275 0.04853377 -0.032984022 0.058875278 0.047341976 0.02169353 -0.007413195
-0.024257954 0.018850671 0.05871597 0.0039782794 -0.0019379922 -0.03647148 0.012885299 0.016285548
0.027202023 0.05689319 -0.005279035 -0.015481757 -0.014925695 0.008664873 -0.018159652 -0.0045166723
00000000: 9beb f5bc b813 d8ba cfea 453d 62f3 53bd
00000010: 6229 1abc 3851 79bc a546 283d add3 eb3c
00000020: 685f f3bc d3db b53a b30d 87bd 215f cbbc
00000030: 9f52 3b3d 883f efbc 7dbc 7bbd c0ab 0dbd
00000040: fec5 22bc 26c9 e43b 7076 293d b847 35bd
00000050: 5849 d6bc ced4 103d e6e9 5d3c 187c 59bd
00000060: 8355 223d 481c 49bc 09de a03c 4a3b 773d
00000070: 4b2b 34bd c8bf 073d c804 eebc c041 e43c
00000080: a2a9 6bbd bc32 ec3c 2194 fe3c 9055 0d3d
00000090: 2f50 62bd e482 39bb 0e13 163d 942e 033d
000000a0: 3038 2bbd 4f54 093d 0866 a53b 4af6 363d
000000b0: 5ae4 7ebc 49c7 07bb 9c05 5bbd 6773 3ebd
000000c0: c8d2 07bc ffd0 1b3d 7061 1fbd b9b2 2bbd
000000d0: 3fcd 83bc 1844 50bd f655 4abc a93b c0bc
000000e0: 56f8 713d f339 493d 5676 c3bc 1f16 dcbc
000000f0: 957e 213b 9c3e c0bc cf8f 1bbd dbac 1f3d
00000100: 87fa 283d 07bb 363c 402e f8bc 44dc 683c
00000110: a379 3abd c101 753d 6485 f1bc 14ee 273d
00000120: 88e0 32bd 8808 173d cf5b d03c 4314 8dbc
00000130: 7410 be3c a0d3 06bd 8925 8abc e778 6a3d
00000140: ac80 e6bc 3536 5ebd a821 4b3c 47b0 6f3d
00000150: beb0 513d 5672 df3c 4b32 743d e18d fabb
00000160: e452 03bc 2c69 70bd 9fd4 a5bb 81df 443d
00000170: b6af 03bd 25be 083d 1ea9 ea3c 5016 55bc
00000180: 75fd 1b3d aace 51bd 31f2 e2bb 779b 64bc
00000190: 9236 633c c9fe 39bd 6e2c f83c c0ee 4cbc
000001a0: 9d64 633d db46 063d d594 953c 9dd0 40bd
000001b0: 1e60 56bc f2d9 07bd fc0b 3ebc 9aab 373d
000001c0: 588a 00bd 7a1f 653c 74b6 6a3d 7342 f4bc
000001d0: d365 b8bc e6f6 493d c694 35bd 58a1 42bd
000001e0: eb04 653d 599b d03c e574 85bc 97ce 5f3d
000001f0: 11f4 7dbd c2fd 2abd 33b5 5bbd bcbf 1d3b
00000200: 2b19 243a a607 1dbd e468 5a3b b5ff ed3c
00000210: 13c9 4b3d f516 943c 66d1 84bd e79e 763d
00000220: dbd6 6abc c391 c2bc 4473 3b3d 4440 4fbc
00000230: 06b5 c8ba 7615 1d3d a569 883b 5dc4 20bd
00000240: 4d7f 05ba 06bc 8dbc c344 8dbc 6e59 a338
00000250: 85b5 323d a643 863d 69d8 30bd 47cd debc
00000260: 709a 02bc 5fe6 9c3c 9250 76bd 8040 053a
00000270: ece3 01bd 808b 35bd b92d 17bd 8a8f 9bbc
00000280: c7df 4bbd f454 ea3c b12c 453d 532f 643d
00000290: 7153 7c3d 1738 3f3d be62 20bd b42b 72bc
000002a0: 5923 5e3c ad2c d83c deb1 43bd 524e ef3c
000002b0: bd82 b3bc 8891 373c 8ace 13bd 3d4a 533d
000002c0: 51a0 073d da99 34bd d85b 403d d868 48bd
000002d0: 8af6 023d d489 db3c 571b e33c f454 05bd
000002e0: 0712 10bd 579d c53b 472c 163d 2b8e 9eb8
000002f0: 0105 c6bb 6ddf 373d 8e2c d63c b87d 6bbc
00000300: bd4e d8bc 8e67 433d 1cce 723b 97f2 993a
00000310: e024 573d 5e39 47bb af48 16bd 75c4 1a3d
00000320: a8dc 4c3d dd5d 3cbd 6cb9 313d c1b8 2e3d
00000330: 3c61 94bc f00c 50bd 73b5 fdbc 8253 35bd
00000340: 0cfb 10bd 20c8 073c 92a8 41bd 7352 e1bc
00000350: d4a1 333d d7f5 1ebd 8097 843d f201 39bd
00000360: 03fc d23b e663 4abd cdb3 31bd 389e 813c
00000370: c138 b53c 0a23 903c 909f 91bc 6f80 453d
00000380: db25 153d e437 1cbd 51df 403d 53a5 3f3d
00000390: 9170 393d f33d cf3c dbe9 1bbd 12bf 1c3d
000003a0: 7c2f 423d 0d3b d73c 59cb 463d 411a 07bd
000003b0: 3427 713d a9e9 413d a1b6 b13c 63ea f2bb
000003c0: 9eb8 c6bc b96c 9a3c 2880 703d 3a5c 823b
000003d0: 3a04 feba 1e63 15bd dc1c 533c 4569 853c
000003e0: c7d6 de3c d508 693d c1fb acbb 32a7 7dbc
000003f0: e78a 74bc 1df7 0d3c 8dc3 94bc 9800 94bb

decoders.0.decoder_net.4.bias f4 [32]
-0.0066958526 -0.0059802993 0.009783144 0.0049875844 -0.008879944 -0.019460354 0.0032793796 0.055737995
-0.0026951556 -0.043856546 0.05300039 0.019424206 -0.04535547 0.039156355 0.056973297 -0.008799319
0.025973694 -0.044280637 -0.051505253 0.004473138 -0.019263096 0.0503411 0.060300916 0.037089936
0.020705065 -0.012477991 0.026202956 -0.036747027 -0.016169589 -0.017090194 -0.017873524 -0.005766919
00000000: e268 dbbb 63f6 c3bb 7b49 203c e46e a33b
00000010: 2f7d 11bc 526b 9fbc dcea 563b 864d 643d
00000020: 35a1 30bb eca2 33bd f016 593d 831f 9f3c
00000030: a8c6 39bd 6a62 203d d55c 693d 052b 10bc
00000040: c9c6 d43c 9d5f 35bd 2cf7 52bd 6793 923b
00000050: a4cd 9dbc 7832 4e3d 18fe 763d 9eeb 173d
00000060: ab9d a93c 7d70 4cbc 95a7 d63c 0d84 16bd
00000070: 1676 84bc bc00 8cbc 7f6b 92bc 6cf8 bcbb

decoders.0.decoder_net.6.weight f4 [32]
1.008428 0.9919137 1.0056336 0.99265647 0.99205714 0.9931964 1.0057315 1.0080744
0.99260515 0.9978569 1.0010501 0.9914229 0.9928801 1.0030648 0.99172443 1.0020483
1.0003015 0.99326354 1.0083803 0.9914327 0.99126035 0.992544 0.9952419 1.007102
1.0071586 0.99319535 1.0053797 0.99835527 1.0081643 0.9926331 1.0055081 1.0077049
00000000: 2b14 813f 0eee 7d3f 9ab8 803f bc1e 7e3f
00000010: 75f7 7d3f 1f42 7e3f cfbb 803f 9508 813f
00000020: 5f1b 7e3f 8d73 7f3f 6922 803f e4cd 7d3f
00000030: 642d 7e3f 6d64 803f a7e1 7d3f 1e43 803f
00000040: e109 803f 8546 7e3f 9b12 813f 89ce 7d3f
00000050: 3dc3 7d3f 5d17 7e3f 2cc8 7e3f b8e8 803f
00000060: 93ea 803f 0d42 7e3f 48b0 803f 3694 7f3f
00000070: 870b 813f 341d 7e3f 7db4 803f 79fc 803f

decoders.0.decoder_net.6.bias f4 [32]
0.008677073 -0.0012902459 0.008575309 0.007570564 -0.004436932 0.0026622617 0.008779098 -0.008117716
0.009044435 0.008082757 -0.002238911 -0.0022221657 -0.008303764 0.008666928 -0.0061390824 -0.007463605
-0.007433734 -0.008898902 0.0082102455 0.008184223 -0.0088876495 -0.009032879 0.00841988 0.006851634
0.0086702425 -0.007970245 0.008534685 -0.007637986 0.007567311 -0.008352311 -0.00890082 0.007992942
00000000: 482a 0e3c 781d a9ba 747f 0c3c 7e12 f83b
00000010: af63 91bb 5779 2e3b 35d6 0f3c 2b00 05bc
00000020: 1c2f 143c 8a6d 043c b2ba 12bb c1a1 11bb
00000030: 830c 08bc bbff 0d3c 5b2a c9bb 4291 f4bb
00000040: ae96 f3bb b3cc 11bc 4484 063c 1f17 063c
00000050: 819d 11bc a4fe 13bc 89f3 093c ac83 e03b
00000060: a20d 0e3c a195 02bc 10d5 0b3c 1248 fabb
00000070: 35f7 f73b 22d8 08bc bfd4 11bc d4f4 023c

decoders.0.decoder_net.6.running_mean f4 [32]
0.087511346 0.087511346 0.087511346 0.087511346 0.087511346 0.087511346 0.087511346 0.087511346
0.087511346 0.087511346 0.087511346 0.087511346 0.087511346 0.087511346 0.087511346 0.087511346
0.087511346 0.087511346 0.087511346 0.087511346 0.087511346 0.087511346 0.087511346 0.087511346
0.087511346 0.087511346 0.087511346 0.087511346 0.087511346 0.087511346 0.087511346 0.087511346
00000000: 2639 b33d 2639 b33d 2639 b33d 2639 b33d
00000010: 2639 b33d 2639 b33d 2639 b33d 2639 b33d
00000020: 2639 b33d 2639 b33d 2639 b33d 2639 b33d
00000030: 2639 b33d 2639 b33d 2639 b33d 2639 b33d
00000040: 2639 b33d 2639 b33d 2639 b33d 2639 b33d
00000050: 2639 b33d 2639 b33d 2639 b33d 2639 b33d
00000060: 2639 b33d 2639 b33d 2639 b33d 2639 b33d
00000070: 2639 b33d 2639 b33d 2639 b33d 2639 b33d

decoders.0.decoder_net.6.running_var f4 [32]
0.38991696 0.38829777 0.38858074 0.388116 0.3885096 0.3882879 0.3883049 0.38866478
0.3887999 0.3883877 0.38834214 0.38811502 0.38847235 0.3883654 0.38865596 0.38832536
0.38826865 0.38819307 0.38841534 0.3882982 0.38833314 0.3881533 0.3885895 0.3885507
0.38815853 0.38841707 0.3890692 0.38858628 0.38840723 0.3884274 0.38832232 0.38855013
00000000: 32a3 c73e f7ce c63e 0ef4 c63e 24b7 c63e
00000010: bbea c63e accd c63e e6cf c63e 12ff c63e
00000020: c810 c73e c1da c63e c8d4 c63e 03b7 c63e
00000030: d9e5 c63e d4d7 c63e eafd c63e 95d2 c63e
00000040: 26cb c63e 3ec1 c63e 60de c63e 06cf c63e
00000050: 9ad3 c63e 08bc c63e 34f5 c63e 1ef0 c63e
00000060: b7bc c63e 9ade c63e 1434 c73e c8f4 c63e
00000070: 50dd c63e f5df c63e 2fd2 c63e 0bf0 c63e

decoders.0.decoder_net.7.weight f4 [32, 16, 3, 3]
0.051199976 0.0466762 0.045216333 -0.06410736 -0.027403332 -0.05860274 -0.02044347 -0.023156088
-0.01836507 -0.06455295 -0.0612301 -0.058847565 0.012638958 0.042038046 0.02918332 0.0036237263
-0.016488245 0.029307278 0.031387024 0.089956015 -0.029907642 -0.030843666 0.058479432 -0.052288495
0.07101634 0.04590433 -0.05091728 0.043841448 -0.038060885 -0.07217077 -0.012070112 0.0153478775
-0.047111735 0.041012157 0.032425873 -0.03702204 -0.007941749 0.012634691 0.069877096 0.021356883
0.07662088 0.06623436 0.019941403 0.0030559287 -0.033870064 0.06191935 0.06533853 -0.018281406
-0.07989863 0.0028286835 -0.077428125 0.03435317 0.07448135 -0.032592766 -0.01810529 0.03070768
-0.0453494 0.0666879 0.07992136 0.04556868 0.06114812 -0.0287375 -0.055672877 0.0782408
0.019630708 0.051724188 -0.06267484 -0.038886387 -0.0057327687 0.05727119 -2.9360823e-05 -0.015150136
0.05064208 0.030064795 -0.022804638 0.0055759237 -0.062198583 0.013760037 -0.059487514 -0.0029882127
0.021512887 0.07663117 0.034199752 -0.085691564 -0.07288755 -0.07868728 0.029861178 0.054474287
0.025264839 0.05353176 -0.038572706 -0.04220767 -0.052784476 0.06418252 -0.07816578 -0.0068722726
0.062690735 0.041367177 -0.07173745 0.019572591 -0.04181301 -0.04380244 -0.0013947836 0.0047641806
0.06710759 -0.0005284505 -0.030237554 -0.030811436 0.00460171 -0.072141364 -0.020095153 -0.009230978
0.006843527 0.021005196 -0.064443044 0.023946479 0.08005474 -0.03892528 -0.071364045 -0.022660676
-0.076445766 -0.03700853 -0.05530898 -0.04960858 0.01526394 -0.04015547 0.05585605 -0.067728475
0.019025119 0.07952184 0.060471267 -0.060833536 0.031692404 0.049483318 0.050395865 0.028453464
0.032756425 0.011934902 0.053036217 -0.05447159 0.06784068 -0.00376663 0.039868232 0.017916497
0.0631751 -0.02387065 0.07224938 0.05016494 0.006924483 0.05014447 -0.0046297107 0.05168083
-0.034609567 0.010266328 -0.045236323 -0.011493212 0.04431747 -0.009854806 -0.041355293 0.016712766
0.046851132 -0.012082522 -0.040054955 0.06288514 -0.05812631 -0.006827906 -0.06484389 -0.022847362
0.07259213 -0.07333575 -0.055259213 0.038625795 0.022389866 -0.028753616 0.03811414 -0.017590893
-0.021136083 -0.057778224 -0.066007525 0.071616426 -0.07324298 0.020747218 -0.016193332 -0.036568686
-0.08645709 -0.001468459 -0.015967129 -0.0059919893 -0.041949693 0.0494521 -0.036427777 -0.009754059
0.074100144 0.0017661768 -0.035349235 0.007029889 -0.0045233606 0.00867047 0.07485846 -0.0020744158
-0.029533373 0.017257344 0.024270035 -0.08274775 0.07075867 -0.026346602 -0.068254806 -0.063754044
0.02024148 -0.045827176 -0.076638855 0.03251909 0.014913905 -0.03149151 0.01674442 0.04847362
-0.013790617 0.037846923 -0.078342326 -0.05463111 -0.06748719 -0.008498044 0.034250583 -0.04157803
-0.00021008974 6.5618464e-05 0.07050701 0.028918937 0.02974165 0.009749897 -0.0037189627 0.068733506
-0.043949492 -0.060534358 -0.080154344 0.038290188 0.018256202 -0.036256224 -0.085286275 0.00827336
0.0063015716 0.059702933 0.037117954 -0.045831054 -0.027180558 0.034323324 0.08555739 -0.015208295
0.03524548 0.01924012 -0.079713345 0.01936266 -0.07276712 0.0037181776 -0.06292294 0.005695281
00000000: 11b7 513d 8b2f 3f3d c334 393d b84a 83bd
00000010: f47c e0bc 6d09 70bd 1079 a7bc d6b1 bdbc
00000020: 5872 96bc 5634 84bd 6acc 7abd 250a 71bd
00000030: a213 4f3c 1630 2c3d dc11 ef3c 0a7c 6d3b
00000040: 5b12 87bc d115 f03c ae8f 003d dc3a b83d
00000050: df00 f5bc dbab fcbc 2188 6f3d 762c 56bd
00000060: 0471 913d 2e06 3c3d a38e 50bd 1793 333d
00000070: bbe5 1bbd 45ce 93bd b8c1 45bc aa75 7b3c
00000080: 3cf8 40bd 5dfc 273d fed0 043d 6ca4 17bd
00000090: 1c1e 02bc bc01 4f3c b91b 8f3d a1f4 ae3c
000000a0: 68eb 9c3d e1a5 873d 275c a33c fa45 483b
000000b0: 56bb 0abd 259f 7d3d 35d0 853d e3c2 95bc
000000c0: e5a1 a3bd 6f61 393b a392 9ebd e9b5 0c3d
000000d0: ae89 983d fe7f 05bd 8c51 94bc ac8e fb3c
000000e0: 4bc0 39bd aa93 883d cfad a33d 39a6 3a3d
000000f0: 7376 7a3d e86a ebbc 3e09 64bd b63c a03d
00000100: 94d0 a03c bedc 533d ab5b 80bd 5547 1fbd
00000110: f3d9 bbbb 3295 6a3d e34b f6b7 4738 78bc
00000120: 126e 4f3d 724a f63c cbd0 babc 3db6 b63b
00000130: f1c3 7ebd c771 613c 2ea9 73bd e4d5 43bb
00000140: cb3b b03c cef0 9c3d 0a15 0c3d 0f7f afbd
00000150: 1146 95bd cc26 a1bd 6e9f f43c 6e20 5f3d
00000160: 35f8 ce3c 1e44 5b3d 6afe 1dbd f3e1 2cbd
00000170: 8934 58bd 2072 833d 6115 a0bd cd30 e1bb
00000180: 0064 803d a170 293d 16eb 92bd b356 a03c
00000190: 1e44 2bbd 306a 33bd 2cd1 b6ba d81c 9c3b
000001a0: b46f 893d b687 0aba bfb4 f7bc 4468 fcbc
000001b0: f1c9 963b dabe 93bd 979e a4bc 873d 17bc
000001c0: aa3f e03b 1713 ac3c b7fa 83bd 682b c43c
000001d0: bdf3 a33d 1d70 1fbd 5027 92bd e2a2 b9bc
000001e0: 998f 9cbd 4296 17bd ab8b 62bd 5e32 4bbd
000001f0: 9b15 7a3c 107a 24bd 50c9 643d 3ab5 8abd
00000200: 91da 9b3c 59dc a23d b8b0 773d 962c 79bd
00000210: e5cf 013d 05af 4a3d e56b 4e3d 3d17 e93c
00000220: 9a2b 063d 9b8a 433c 813c 593d 9a1d 5fbd
00000230: 0ef0 8a3d 91d9 76bb df4c 233d 9ec5 923c
00000240: f261 813d 628c c3bc 7cf7 933d c179 4d3d
00000250: c6e6 e23b 4a64 4d3d d4b4 97bb 47af 533d
00000260: c3c2 0dbd 1a34 283c b949 39bd 064e 3cbc
00000270: 3c86 353d 0d76 21bc 2b64 29bd 36e9 883c
00000280: f9e6 3f3d c5f5 45bc aa10 24bd edc9 803d
00000290: db15 6ebd a0bc dfbb e0cc 84bd 642a bbbc
000002a0: 2fab 943d 0e31 96bd 7c57 62bd 1536 1e3d
000002b0: f46a b73c b48c ebbc 931d 1c3d c71a 90bc
000002c0: 9425 adbc dca8 6cbd f42e 87bd a2ab 923d
000002d0: 6a00 96bd 12f6 a93c e1a7 84bc 0cc9 15bd
000002e0: 6a10 b1bd 4f79 c0ba 7fcd 82bc 7358 c4bb
000002f0: 71d3 2bbd 498e 4a3d 4b35 15bd 7dcf 1fbc
00000300: d1c1 973d 0f7f e73a 5cca 10bd fc5a e63b
00000310: b338 94bb 960e 0e3c 644f 993d ecf2 07bb
00000320: f9ef f1bc 465f 8d3c f4d1 c63c a777 a9bd
00000330: ece9 903d d4d4 d7bc 2dc9 8bbd 7b91 82bd
00000340: 76d1 a53c 47b5 3bbd d5f4 9cbd bd32 053d
00000350: 7459 743c 3efd 00bd 982b 893c 468c 463d
00000360: 0af2 61bc 6005 1b3d f171 a0bd dfc4 5fbd
00000370: b936 8abd 613b 0bbc 574a 0c3d b94d 2abd
00000380: 894b 5cb9 a59c 8938 fb65 903d 68e7 ec3c
00000390: c3a4 f33c 08be 1f3c d7b9 73bb 27c4 8c3d
000003a0: 6204 34bd e0f2 77bd f627 a4bd 2cd6 1c3d
000003b0: 088e 953c 6881 14bd 92aa aebd fd8c 073c
000003c0: 6a7d ce3b 108b 743d ff08 183d 58b9 3bbd
000003d0: c3a9 debc 9d96 0c3d b638 af3d 362c 79bc
000003e0: 905d 103d 759d 9d3c c040 a3bd 719e 9e3c
000003f0: ee06 95bd abac 733b bedd 80bd 7b9f ba3b

decoders.0.decoder_net.7.bias f4 [16]
0.008416529 -0.009401638 -0.05722886 0.057684865 0.017676476 0.078949 0.070014305 0.085125886
-0.02372759 0.069122 -0.04682005 -0.07866516 -0.078897715 -0.023365054 -0.015901284 -0.011797673
00000000: 7be5 093c 5409 1abc cf68 6abd f746 6c3d
00000010: 42ce 903c 03b0 a13d a963 8f3d 7b56 ae3d
00000020: 5d60 c2bc d68f 8d3d 61c6 3fbd 331b a1bd
00000030: 2095 a1bd 1268 bfbc 6943 82bc 074b 41bc

decoders.0.decoder_net.9.weight f4 [16]
0.9918188 0.9918717 0.99243647 0.99220645 0.9920498 0.99166393 0.99195176 0.99290884
0.9918286 0.9917493 0.99184287 0.9922588 0.9917042 0.9923901 0.9920759 0.9924631
00000000: d6e7 7d3f 4eeb 7d3f 5110 7e3f 3e01 7e3f
00000010: faf6 7d3f b0dd 7d3f 8df0 7d3f 462f 7e3f
00000020: 7be8 7d3f 48e3 7d3f 6ae9 7d3f ac04 7e3f
00000030: 54e0 7d3f 470d 7e3f b0f8 7d3f 1012 7e3f

decoders.0.decoder_net.9.bias f4 [16]
-0.009026094 0.008216535 0.0088924775 0.008928272 0.008922946 -0.008915117 -0.008907719 -0.008906343
0.008880946 0.008917529 0.00885349 0.008878725 0.008919612 0.008916523 -0.008910106 0.008939863
00000000: 2fe2 13bc a59e 063c c1b1 113c e347 123c
00000010: 8c31 123c b610 12bc aef1 11bc e9eb 11bc
00000020: 6381 113c d41a 123c 3b0e 113c 1278 113c
00000030: 9023 123c 9c16 123c b1fb 11bc 8178 123c

decoders.0.decoder_net.9.running_mean f4 [16]
0.043755673 0.043755673 0.043755673 0.043755673 0.043755673 0.043755673 0.043755673 0.043755673
0.043755673 0.043755673 0.043755673 0.043755673 0.043755673 0.043755673 0.043755673 0.043755673
00000000: 2639 333d 2639 333d 2639 333d 2639 333d
00000010: 2639 333d 2639 333d 2639 333d 2639 333d
00000020: 2639 333d 2639 333d 2639 333d 2639 333d
00000030: 2639 333d 2639 333d 2639 333d 2639 333d

decoders.0.decoder_net.9.running_var f4 [16]
0.38795805 0.3879303 0.38806328 0.38801306 0.38789415 0.38798153 0.38826334 0.3881466
0.38791078 0.38786525 0.3879717 0.38799474 0.388013 0.38796967 0.3880895 0.38789472
00000000: 70a2 c63e cd9e c63e 3bb0 c63e a6a9 c63e
00000010: 109a c63e 84a5 c63e 74ca c63e 27bb c63e
00000020: 3e9c c63e 4696 c63e 3aa4 c63e 3fa7 c63e
00000030: a4a9 c63e f6a3 c63e abb3 c63e 239a c63e

decoders.0.decoder_net.10.weight f4 [16, 1, 3, 3]
-0.21698746 -0.09655094 -0.016349146 -0.027050726 -0.16619705 0.29550523 0.2775996 -0.06749404
-0.08564701 0.0009428699 0.0051420643 0.21584342 -0.108911835 -0.12025787 0.29825413 -0.26883578
0.04472094 -0.030084226 0.32634857 -0.2377688 0.25708923 -0.06718896 -0.18181412 0.24780378
-0.23573649 0.2822804 0.2004067 0.07962192 -0.16298708 -0.27223724 -0.030492999 0.09711753
0.268403 -0.17724754 0.20698772 0.08337193 -0.09315836 0.021852696 -0.050901573 -0.02712008
0.21103075 0.31755358 0.30147958 -0.26529628 0.103177726 -0.2048731 -0.2271538 -0.029549513
0.14026374 -0.06368642 -0.3192856 -0.27697158 -0.0047858935 -0.11992976 -0.30887493 -0.062341824
-0.27290007 0.1868262 -0.02359647 -0.13562562 -0.016969478 -0.31525925 -0.042479225 0.054863077
0.08921211 -0.039540745 -0.2722873 0.024565835 -0.25178066 0.08466093 -0.0772257 -0.07664955
0.25159487 -0.28985396 0.018655417 -0.11630813 -0.06626523 0.22541252 -0.042740926 -0.026443724
0.322166 -0.14557491 0.26888695 -0.049778916 0.13177985 -0.11479259 -0.014190584 -0.11028048
-0.057171457 0.22209774 -0.29832384 -0.051374536 0.1318065 0.21261558 -0.13935283 0.2647418
0.31577098 -0.24491934 0.08531705 -0.05811766 0.045986895 0.14743166 0.1579727 -0.2356383
0.2052001 0.07305353 0.18129797 0.06812754 0.2724748 0.124302804 -0.058943562 0.021965673
0.22977449 0.12120373 0.011331667 -0.141825 0.24088974 0.2776271 0.122887634 -0.028000532
0.2186554 0.17437652 0.10824626 -0.2162132 0.12985668 0.278152 -0.28453112 0.19393784
-0.22595745 -0.3107562 -0.25354612 -0.26640305 0.26692122 -0.17048636 -0.17069288 0.05846481
0.061154786 -0.027141588 0.13101976 0.23229523 -0.10180295 -0.18836913 -0.07649349 0.3084214
00000000: f631 5ebe 80bc c5bd a5ee 85bc 7c99 ddbc
00000010: 8f2f 2abe 764c 973e 8921 8e3e 513a 8abd
00000020: b367 afbd ee2a 773a c37e a83b 0f06 5d3e
00000030: 2b0d dfbd c249 f6bd c4b4 983e d8a4 89be
00000040: 4e2d 373d 3273 f6bc 2917 a73e aa79 73be
00000050: 33a1 833e 5e9a 89bd 7b2d 3abe 46c0 7d3e
00000060: e864 71be 0e87 903e 6a37 4d3e d110 a33d
00000070: 16e6 26be ae62 8bbe 74cc f9bc 8ee5 c63d
00000080: 1e6c 893e 6180 35be 97f4 533e e7be aa3d
00000090: cfc9 bebd 6d04 b33c 2b7e 50bd ee2a debc
000000a0: 7218 583e 6296 a23e 885b 9a3e ead4 87be
000000b0: d84e d33d 41ca 51be 019b 68be d211 f2bc
000000c0: 4ca1 0f3e 076e 82bd 6779 a3be 38cf 8dbe
000000d0: fcd2 9cbb bc9d f5bd db24 9ebe 245a 7fbd
000000e0: 8fb9 8bbe 5e4f 3f3e 624d c1bc 71e1 0abe
000000f0: 9303 8bbc a969 a1be b2fe 2dbd 1bb8 603d
00000100: d7b4 b63d 7af5 21bd 3e69 8bbe 4a3e c93c
00000110: 65e9 80be b662 ad3d 8228 9ebd 70fa 9cbd
00000120: 0bd1 803e bd67 94be 3fd3 983c f532 eebd
00000130: 11b6 87bd 8ad2 663e 1c11 2fbd 82a0 d8bc
00000140: f1f2 a43e 9711 15be 8dab 893e fae4 4bbd
00000150: 4cf1 063e 6118 ebbd a07f 68bc bbda e1bd
00000160: 9e2c 6abd 976d 633e e7bd 98be 1b6e 52bd
00000170: 48f8 063e e6b7 593e 82b2 0ebe 3d8c 873e
00000180: bcac a13e 23cc 7abe b5ba ae3d c90c 6ebd
00000190: c15c 3c3d 53f8 163e 98c3 213e 2b4b 71be
000001a0: fa1f 523e 179d 953d 2da6 393e 7486 8b3d
000001b0: d181 8b3e 7892 fe3d ce6e 71bd 5bf1 b33c
000001c0: 014a 6b3e a939 f83d 75a8 393c 933a 11be
000001d0: cdab 763e 2425 8e3e 83ac fb3d 5f61 e5bc
000001e0: 34e7 5f3e c28f 323e 37b0 dd3d fe66 5dbe
000001f0: 26f9 043e f069 8e3e 10ae 91be a497 463e
00000200: 6461 67be 701b 9fbe ccd0 81be fb65 88be
00000210: e6a9 883e fa93 2ebe 1dca 2ebe cc78 6f3d
00000220: 717d 7a3d 0958 debc 0b2a 063e cdde 6d3e
00000230: 117e d0bd d6e3 40be 9ea8 9cbd 69e9 9d3e

encoder.encoder_net.0.weight f4 [16, 1, 3, 3]
0.05574864 0.31905356 0.18065105 0.32234862 0.09823987 -0.15138009 -0.23549737 0.24735926
-0.2298288 0.29940444 0.29032815 -0.1788195 -0.16467394 -0.045045786 -0.092397355 0.034221195
0.08251856 0.22580002 0.024728915 0.1869438 -0.015907936 -0.014543854 -0.22322685 -0.15494101
-0.18491389 -0.2881081 0.28819752 -0.06423847 -0.16839643 0.31812233 0.08838818 0.31311443
0.017889244 0.016418245 0.23488319 -0.2101564 0.20605196 -0.2512751 -0.0011242736 0.16458671
0.28803873 -0.13577046 0.28282735 -0.28976268 -0.12675743 -0.1147789 0.16813065 -0.044832
-0.32482818 0.30081394 -0.095087215 0.13772286 -0.17304021 -0.20057778 0.097492814 -0.27303633
0.33322385 0.15886173 -0.14078405 0.11972357 -0.19852836 0.056024153 -0.19246687 -0.09610939
0.12543757 0.16949801 -0.32824692 -0.073973596 -0.27209732 -0.095476694 -0.011339693 -0.048607778
0.15019494 0.10571107 0.14710632 0.033885486 0.09388394 -0.30221266 -0.13899644 -0.25919673
-0.012132417 -0.30255428 -0.10179796 -0.14722797 -0.053973034 -0.0073525338 0.17451316 -0.05640856
-0.20072797 -0.062955506 0.21563035 -0.090164475 0.3328226 -0.06544181 0.04821364 -0.18059714
0.31150252 0.1413142 0.2896782 -0.029797345 0.1583033 -0.32942706 0.08527986 0.31565323
0.33192128 0.021418933 0.16283168 -0.30334866 0.15952729 0.03401152 -0.12973864 -0.051571667
0.22778285 -0.32100302 0.110662766 -0.012258726 -0.04167247 -0.24008192 -0.24394023 -0.20487818
0.19894403 0.2504889 0.21470925 0.19238487 0.17490341 -0.24931507 0.23625794 -0.25103816
0.11048209 -0.24057475 0.11920063 -0.21171336 -0.09811426 0.17433691 0.25805756 -0.25257033
-0.126864 -0.025237035 -0.08157198 -0.2716545 -0.19207676 0.12799221 -0.05594732 0.12082369
00000000: b058 643d fd5a a33e 97fc 383e e10a a53e
00000010: fc31 c93d 6203 1bbe 3926 71be bf4b 7d3e
00000020: 3e58 6bbe 8a4b 993e e4a5 943e 761c 37be
00000030: 49a0 28be ee81 38bd d33a bdbd 862b 0c3d
00000040: 7eff a83d 1f38 673e 4b94 ca3c 326e 3f3e
00000050: 5c51 82bc 5849 6ebc 9495 64be dba8 1ebe
00000060: 115a 3dbe e882 93be a08e 933e 758f 83bd
00000070: 1d70 2cbe eee0 a23e dd04 b53d 8950 a03e
00000080: 778c 923c 8e7f 863c 3885 703e 3d33 57be
00000090: 49ff 523e 21a7 80be 5d5c 93ba 6b89 283e
000000a0: d079 933e 6907 0bbe bfce 903e c65b 94be
000000b0: b3cc 01be 3311 ebbd 712a 2c3e c2a1 37bd
000000c0: e14f a6be 4904 9a3e 16bd c2bd 3907 0d3e
000000d0: 7431 31be 4364 4dbe 50aa c73d 6bcb 8bbe
000000e0: 519c aa3e a6ac 223e b229 10be a231 f53d
000000f0: 054b 4bbe 9579 653d 0916 45be 00d5 c4bd
00000100: b572 003e e390 2d3e fb0f a8be 787f 97bd
00000110: 5750 8bbe 4989 c3bd 1fca 39bc f318 47bd
00000120: b4cc 193e 0c7f d83d 0aa3 163e 82cb 0a3d
00000130: 3946 c03d 9ebb 9abe 1555 0ebe 6fb5 84be
00000140: 0cc7 46bc 65e8 9abe 737b d0bd eec2 16be
00000150: d412 5dbd 86ed f0bb 94b3 323e aa0c 67bd
00000160: a28b 4dbe d1ee 80bd 34ce 5c3e 27a8 b8bd
00000170: b967 aa3e 5b06 86bd aa7b 453d 75ee 38be
00000180: 427d 9f3e abb4 103e b350 943e 9019 f4bc
00000190: 431a 223e aaaa a8be 35a7 ae3d 4d9d a13e
000001a0: 96f1 a93e c276 af3c 59bd 263e 8450 9bbe
000001b0: 1f5b 233e aa4f 0b3d 35da 04be d03c 53bd
000001c0: e83f 693e 825a a4be 29a3 e23d d3d8 48bc
000001d0: c0b0 2abd 09d8 75be 78cb 79be 96cb 51be
000001e0: fcb7 4b3e 1540 803e bedc 5b3e 8a00 453e
000001f0: e119 333e 734c 7fbe 9aed 713e 1388 80be
00000200: 6f44 e23d 3a59 76be 761f f43d 63cb 58be
00000210: 21f0 c8bd 6085 323e 1f20 843e e650 81be
00000220: a3e8 01be e6bd cebc 360f a7bd 4c16 8bbe
00000230: c5af 44be 6410 033e 0429 65bd 6972 f73d

encoder.encoder_net.0.bias f4 [16]
0.11473712 0.08479782 0.24923235 -0.30416796 0.20659012 -0.055847436 0.11659201 0.17858814
-0.09842245 0.15897693 -0.3164824 0.034624703 -0.096632004 0.20380509 0.2786371 -0.14741056
00000000: 4cfb ea3d 7baa ad3d c436 7f3e e7bb 9bbe
00000010: 5c8c 533e 48c0 64bd cbc7 ee3d cfdf 363e
00000020: b691 c9bd d9ca 223e fb09 a2be a2d2 0d3d
00000030: 00e7 c5bd 48b2 503e 86a9 8e3e cbf2 16be

encoder.encoder_net.2.weight f4 [16]
1.0079296 0.99539876 0.9984991 0.99554354 0.9927401 0.9927574 1.0000187 0.9937638
1.0037843 0.9968518 0.9988518 1.0005664 0.9942821 1.0021725 0.99817884 1.0050869
00000000: d603 813f 74d2 7e3f a39d 7f3f f1db 7e3f
00000010: 3724 7e3f 5925 7e3f 9d00 803f 4e67 7e3f
00000020: 017c 803f ae31 7f3f c0b4 7f3f 8f12 803f
00000030: 4689 7e3f 3047 803f a688 7f3f b0a6 803f

encoder.encoder_net.2.bias f4 [16]
0.0080419695 0.0086459555 0.0019745382 -0.008146244 0.0023553309 -0.0072935177 0.007983496 0.007843605
0.008637669 -0.005544492 0.0051376875 -0.0013270375 0.0077282526 7.72749e-05 0.007849834 -0.003982226
00000000: 77c2 033c c4a7 0d3c 4167 013b d377 05bc
00000010: e55b 1a3b 76fe eebb 36cd 023c 7782 003c
00000020: 0285 0d3c 92ae b5bb 0c5a a83b fdef adba
00000030: 483d fd3b a50e a238 979c 003c 557d 82bb

encoder.encoder_net.2.running_mean f4 [16]
0.043755673 0.043755673 0.043755673 0.043755673 0.043755673 0.043755673 0.043755673 0.043755673
0.043755673 0.043755673 0.043755673 0.043755673 0.043755673 0.043755673 0.043755673 0.043755673
00000000: 2639 333d 2639 333d 2639 333d 2639 333d
00000010: 2639 333d 2639 333d 2639 333d 2639 333d
00000020: 2639 333d 2639 333d 2639 333d 2639 333d
00000030: 2639 333d 2639 333d 2639 333d 2639 333d

encoder.encoder_net.2.running_var f4 [16]
0.38755232 0.38745788 0.3874643 0.38751006 0.38747203 0.3874413 0.38743708 0.38748026
0.38746393 0.38749105 0.3875705 0.38749316 0.38744545 0.3874779 0.3874391 0.38750756
00000000: 426d c63e e160 c63e b961 c63e b867 c63e
00000010: bc62 c63e b55e c63e 275e c63e d063 c63e
00000020: ac61 c63e 3a65 c63e a46f c63e 8165 c63e
00000030: 405f c63e 8163 c63e 6b5e c63e 6467 c63e

encoder.encoder_net.3.weight f4 [32, 16, 3, 3]
0.012363016 0.06752646 -0.08645927 -0.044620026 0.02873117 0.071746975 0.060926046 -0.03826039
0.08677302 0.074902706 -0.022871006 0.027515743 -0.062016085 -0.053071063 0.019405575 0.02294225
-0.021309314 0.05032782 0.02630418 -0.08188632 -0.04452879 -0.06275728 -0.028560251 0.07809026
0.014677655 -0.025449324 -0.043489337 -0.059228383 0.04522543 0.07541788 0.010012379 0.029706534
0.013315528 0.0776834 -0.04283727 0.08117816 -0.076190144 0.061621726 0.012712902 0.06648569
-0.05979328 0.022327386 -0.07552624 0.014774656 0.058493003 -0.0017224137 0.08517575 -0.061563153
0.048864286 0.010708969 0.054504294 0.048083737 0.0061501483 -0.051587645 0.05764466 -0.08522497
-0.03757103 -0.026759865 0.03737364 0.030505875 0.07698466 -0.0073779267 0.02691932 -0.01656319
0.0075585167 -0.024406094 -0.00044052204 -0.043140385 -0.07181285 0.024277389 0.021837808 -0.049776703
-0.027809856 0.03335549 -0.058508456 -0.062476683 -0.0701507 0.021760132 0.03038542 0.06443309
0.042157646 0.067454346 -0.069457196 0.019106667 -0.014365367 0.042748608 0.0020797788 0.045808434
-0.013871219 -0.034656305 -0.04188549 0.034786437 -0.029615318 0.023132807 -0.032086328 0.06927696
-0.06806668 -0.05510403 0.059483193 0.013995235 0.05660181 -0.005951481 0.042658277 -0.016013829
-0.059575077 0.061879624 -0.050181914 0.08095091 0.017807506 -0.0033109495 -0.00929085 0.017567366
-0.068725206 0.031920403 0.08305739 -0.056115497 -0.023491312 0.04154944 -0.012376453 -0.070896246
0.0369687 -0.016275404 0.015732376 -0.047129676 -0.06975041 -0.010968892 0.054759156 0.07917262
0.060887404 0.03717311 -0.016497124 0.07935379 -0.057453047 0.013712508 0.006377168 0.012319497
0.066664025 0.024182776 -0.022610031 -0.046857826 0.049610674 0.057994816 0.02634013 -0.07181064
-0.06862439 -0.08316615 0.053351272 -0.08568425 0.04025494 0.0030817208 0.05331017 0.08071217
-0.011386577 0.04994752 0.045085024 -0.057606947 0.06926136 -0.04979957 -0.071988575 -0.011297555
0.04146475 0.07850018 0.023402741 0.06700481 0.025172042 -0.06695035 0.046841495 -0.04327913
0.03012588 -0.089677975 0.04874996 -0.010789985 0.08232181 -0.051621776 -0.08365293 0.048138753
-0.0024247237 0.041436765 0.08500955 0.042003006 -0.005266608 -0.062341083 -0.07026983 0.029326625
-0.055287104 0.017206486 0.019930243 0.07507159 -0.01305244 -0.027710281 -0.037948366 -0.057634056
-0.008093044 0.0035304888 0.037881628 -0.04816222 -0.06386271 -0.03346805 -0.014273379 0.058898922
0.07558739 0.052013237 -0.019993875 -0.03351454 0.06170905 0.06441824 0.060718216 -0.036571275
0.017040018 -0.03441941 0.06645457 0.008772591 0.0045142523 0.042585123 -0.0016889316 -0.07042531
-0.023347192 -0.04664811 0.026041046 0.05245694 -0.014289835 -0.012368809 0.0049755992 -0.05719008
-0.07439946 -0.05572356 0.0070469715 0.078853056 -0.004771994 -0.062164906 0.047479738 0.07473965
0.017986907 -0.04653983 0.053294078 0.03199872 0.005473278 -0.00047332162 0.019578671 -0.06409454
-0.0012171937 0.08136639 -0.022040242 0.02050373 -0.05539215 0.0069025317 0.01758366 -0.062339794
0.06761656 0.043074783 0.046836786 0.070585884 0.030104186 0.045188293 -0.07507245 -0.02619111
00000000: 3f8e 4a3c 504b 8a3d 8f11 b1bd 7dc3 36bd
00000010: a15d eb3c 14f0 923d 978d 793d edb6 1cbd
00000020: 0eb6 b13d 9766 993d fa5b bbbc b268 e13c
00000030: 9404 7ebd 0b61 59bd 71f8 9e3c 63f1 bb3c
00000040: df90 aebc 8b24 4e3d dd7b d73c 04b4 a7bd
00000050: d263 36bd e486 80bd 30f7 e9bc c9ed 9f3d
00000060: 8c7a 703c 1a7b d0bc e021 32bd 7699 72bd
00000070: 4d3e 393d b174 9a3d f60a 243c 1e5b f33c
00000080: 5f29 5a3c 7918 9f3d 2276 2fbd bc40 a63d
00000090: 9409 9cbd 1067 7c3d c749 503c a629 883d
000000a0: cce9 74bd ece7 b63c 80ad 9abd 6611 723c
000000b0: 5c96 6f3d 9dc2 e1ba a070 ae3d a529 7cbd
000000c0: eb25 483d ac74 2f3c e53f 5f3d 74f3 443d
000000d0: 2f87 c93b 914d 53bd cf1c 6c3d 6e8a aebd
000000e0: 15e4 19bd 8137 dbbc 1a15 193d 75e7 f93c
000000f0: 22aa 9d3d 89c2 f1bb e885 dc3c 87af 87bc
00000100: 6fad f73b 4aef c7bc def5 e6b9 f9b3 30bd
00000110: 9e12 93bd 60e1 c63c 34e5 b23c a8e2 4bbd
00000120: 7fd1 e3bc c49f 083d 90a6 6fbd 8de7 7fbd
00000130: 2cab 8fbd 4e42 b23c d8ea f83c 7ff5 833d
00000140: 7fad 2c3d 8125 8a3d 933f 8ebd 9685 9c3c
00000150: b75c 6bbc 2a19 2f3d e64c 083b a0a1 3b3d
00000160: 1c44 63bc c5f3 0dbd 1f90 2bbd 397c 0e3d
00000170: d39b f2bc 0381 bd3c f46c 03bd 14e1 8d3d
00000180: 8b66 8bbd c3b4 61bd a6a4 733d 454c 653c
00000190: 4dd7 673d a404 c3bb 72ba 2e3d 6f2f 83bc
000001a0: ff04 74bd 7d75 7d3d 8d8b 4dbd 97c9 a53d
000001b0: 0ce1 913c 84fc 58bb a638 18bc 70e9 8f3c
000001c0: cdbf 8cbd f8be 023d fe19 aa3d 5dd9 65bd
000001d0: da70 c0bc bf2f 2a3d 9bc6 4abc 0d32 91bd
000001e0: 7e6c 173d ff53 85bc 2fe1 803c 0c0b 41bd
000001f0: 4ed9 8ebd deb6 33bc 234b 603d 4125 a23d
00000200: 1265 793d d542 183d fa24 87bc 3d84 a23d
00000210: e353 6bbd 6daa 603c 90f7 d03b b7d7 493c
00000220: 2687 883d f51a c63c ac38 b9bc feed 3fbd
00000230: 9034 4b3d f98b 6d3d 42c7 d73c 7511 93bd
00000240: f28a 8cbd 0453 aabd dd86 5a3d 397b afbd
00000250: 5de2 243d b2f6 493b c45b 5a3d 6c4c a53d
00000260: c48e 3abc c595 4c3d 13ab 383d 43f5 6bbd
00000270: e6d8 8d3d a2fa 4bbd bf6e 93bd 6119 39bc
00000280: f1d6 293d b4c4 a03d 1bb7 bf3c d139 893d
00000290: 9935 ce3c 441d 89bd dedc 3f3d 7545 31bd
000002a0: 8dca f63c 16a9 b7bd 0aae 473d 7ac8 30bc
000002b0: 5698 a83d 5b71 53bd 3a52 abbd 242d 453d
000002c0: 1de8 1ebb 99b9 293d 7d19 ae3d 580b 2c3d
000002d0: 8393 acbb 5d59 7fbd a1e9 8fbd 643e f03c
000002e0: bb74 62bd 9ef4 8c3c c044 a33c 22bf 993d
000002f0: e7d9 55bc ac00 e3bc bf6f 1bbd b011 6cbd
00000300: b098 04bc c65f 673b c429 1b3d bf45 45bd
00000310: 74ca 82bd cb15 09bd e4da 69bc ff3f 713d
00000320: 90cd 9a3d d50b 553d 32ca a3bc 8b46 09bd
00000330: a1c2 7c3d b6ed 833d aab3 783d c3cb 15bd
00000340: 8297 8b3c 5efb 0cbd 5519 883d eaba 0f3c
00000350: 4bec 933b bd6d 2e3d 245f ddba 253b 90bd
00000360: 9c42 bfbc 1712 3fbd 0854 d53c 17dd 563d
00000370: e91f 6abc 8ca6 4abc 5a0a a33b 2540 6abd
00000380: be5e 98bd 633e 64bd 48ea e63b b67d a13d
00000390: 635e 9cbb a1a0 7ebd 1d7a 423d 1a11 993d
000003a0: 4759 933c 8ca0 3ebd e44a 5a3d 1711 033d
000003b0: 2f59 b33b 2728 f8b9 7363 a03c 0044 83bd
000003c0: 3e8a 9fba 6ca3 a63d bd8d b4bc 70f7 a73c
000003d0: e1e2 62bd a22e e23b 9c0b 903c 0358 7fbd
000003e0: 8d7a 8a3d 2f6f 303d eed7 3f3d 558f 903d
000003f0: 0e9d f63c 5c17 393d 96bf 99bd bd8e d6bc

encoder.encoder_net.3.bias f4 [32]
0.037884068 0.042649783 0.07559279 0.030834902 0.06793473 0.0054087616 0.025593642 -0.003084147
0.031827267 -0.025460798 0.016318245 -0.007418144 0.017177587 0.013229962 -0.08432583 -0.044974905
-0.080582395 0.07709626 0.045569606 -0.024028622 0.017566731 -0.019506628 0.04157884 0.033083007
-0.03130582 0.009953094 -0.05812389 0.047712553 0.02362558 -0.020181097 -0.049244452 0.0041102325
00000000: 532c 1b3d 8ab1 2e3d 65d0 9a3d 7a99 fc3c
00000010: 5d21 8b3d fb3b b13b c2a9 d13c 671f 4abb
00000020: 4f5d 023d 2a93 d0bc d7ad 853c e713 f3bb
00000030: 03b8 8c3c 7cc2 583c 05b3 acbd 9b37 38bd
00000040: 6208 a5bd a5e4 9d3d 32a7 3a3d acd7 c4bc
00000050: 1be8 8f3c 5dcc 9fbc 934e 2a3d 0c82 073d
00000060: 883a 00bd 4d12 233c 5113 6ebd 3d6e 433d
00000070: 6f8a c13c d452 a5bc 8db4 49bd 21af 863b
