miniproject2/experiments/ensemblyVAE/modelSeed941nD1.pt (torch, 144013 bytes, 37 tensors)

prior.mean f4 [2]
000000 00 00 00 00 00 00 00 00
       0.0 0.0

prior.std f4 [2]
000000 00 00 80 3f 00 00 80 3f
       1.0 1.0

decoders.0.decoder_net.0.weight f4 [512, 2]
000000 57 28 dc 3e 47 f6 43 bc 51 de 1f 3f 6e bc 07 bf
       0.42999527 -0.011960573 0.624486 -0.53021896
000010 ca 88 86 be d0 41 28 3f a3 41 2e bf 8e 8b 84 3d
       -0.26276237 0.6572542 -0.68068904 0.064719304
000020 fe da 0d bf c2 04 bc 3e cc fd 24 3f 6d 41 d6 be
       -0.5541228 0.3672238 0.64449763 -0.4184679
000030 8d 1f 13 3e a4 d4 16 bf 7c 42 c4 3e bc 6b dd 3d
       0.14367504 -0.58918214 0.38331974 0.10811564
000040 0d 9f bd be 1d d7 dd bd 35 1d 06 be 9f 9d 2c 3f
       -0.3703541 -0.10832045 -0.13097079 0.6742801
000050 5b 19 25 3f 53 08 38 bd 52 4d 57 be 27 64 db bd
       0.64491814 -0.044929814 -0.21025589 -0.10712462
000060 70 97 35 3f 25 11 b9 3e 52 4d 1b bf 7b 20 cd be
       0.709342 0.36145893 -0.60664856 -0.40063843
000070 11 dc a8 3e 6b e0 ca be b5 a2 f6 be 73 f8 52 be
       0.32980397 -0.39624342 -0.4817101 -0.20602588
000080 d6 53 26 bd 9a dc 0c be 26 62 2b 3f de 33 6d be
       -0.040607296 -0.13756028 0.6694664 -0.23164317
000090 6e 6e e3 3e c4 32 9c be 99 13 82 3d 3e b8 39 3e
       0.4442019 -0.3050748 0.06351394 0.18136689
0000a0 ee 43 d0 bd 92 1e b4 3d cf 24 76 3d b0 d6 9c 3e
       -0.101692066 0.08794893 0.060093697 0.30632544
0000b0 83 2d 1a 3f c0 dc f6 bd f9 5e 24 3f bc 1e 20 bf
       0.60225695 -0.120538235 0.64207417 -0.62546897
0000c0 ed 30 0b 3f 9e e0 9f 3e 25 73 29 be 43 79 01 bf
       0.5437153 0.31226057 -0.1654783 -0.50575656
0000d0 87 11 1c 3f 0b 34 82 3e c8 4e 4b be 05 49 f1 3d
       0.60964245 0.2543033 -0.19854271 0.117815055
0000e0 90 e4 a1 3e 20 27 05 3f 49 ac 76 3e 32 b3 22 bf
       0.31619692 0.52012825 0.24089159 -0.6355468
0000f0 70 d9 5c be f1 71 8a 3e 03 40 7f be cf 54 3f bd
       -0.21567321 0.27040055 -0.24926762 -0.04671174
000100 d9 5a 28 be b4 2f b5 bd e5 86 08 3f 44 e9 0d bf
       -0.16440906 -0.08846989 0.5333083 -0.5543406
000110 7a bc b7 3e c9 e6 9c 3d 2c 7f 8a bd 8d cc 31 3f
       0.35885984 0.07661206 -0.06762537 0.69452745
000120 f6 52 15 bf f5 62 92 bd 03 47 08 3f 20 9c 07 3f
       -0.58329713 -0.07147781 0.53233355 0.529726
000130 8c 99 0f 3f 1d 82 5a 3d f5 83 be 3e 20 77 0d 3f
       0.5609367 0.053346742 0.3721005 0.55259895
000140 e1 f6 2b 3f be d9 8d bd f4 5c df be b3 23 93 3e
       0.6717358 -0.06926297 -0.43625605 0.28738174
000150 97 70 a5 3e 89 8f cd be 87 28 15 3f 8f fb 33 be
       0.32312462 -0.4014857 0.58264965 -0.1757643
000160 2e 31 13 3f bf 94 2c 3f 0b b7 25 bd ae 51 0b bf
       0.5749692 0.6741447 -0.040457767 -0.5442151
000170 83 7c bd be ee 81 b9 be 54 1c cc 3e 9a 25 6d bd
       -0.37009057 -0.3623194 0.39865363 -0.057897188
000180 53 e8 f9 3e c8 ff 9a be 84 37 1e be 6c 68 a3 be
       0.48810062 -0.3027327 -0.15450865 -0.31915605
000190 dd dd 29 bc 8e 8b 06 3f 28 f2 cb be c8 4a ce 3d
       -0.010367838 0.52556694 -0.39833188 0.10072857
0001a0 f6 06 25 3f 84 a5 50 3e 69 91 25 3f 2d d5 6c 3e
       0.64463747 0.20375639 0.64675003 0.23128195
0001b0 56 c8 fc 3e b4 82 be be 94 50 58 3e 81 c8 ce 3e
       0.49371594 -0.37209094 0.21124488 0.40387347
0001c0 9c 0e c5 3d c9 25 a8 be 8a 8c 03 3f 07 67 31 be
       0.09621927 -0.32841328 0.5138632 -0.17324458
0001d0 15 34 0d 3e ff 16 d7 3e 8b 60 ab bd ff 91 ed 3e
       0.13789399 0.42009732 -0.083680235 0.4640045
0001e0 5c f4 97 be c3 d9 a1 3e e9 4d d7 3e 62 31 ed be
       -0.2967862 0.31611452 0.42051628 -0.4632674
0001f0 f3 39 c3 3d 15 21 f8 be 2b 7e 0a bf 96 fd fe be
       0.09532537 -0.4846274 -0.5409877 -0.49802846
000200 05 26 ed 3e 58 6a cb 3e 3f 4d 0c bf be c0 b5 be
       0.4631807 0.3972957 -0.5480537 -0.35498613
000210 50 35 db 3e d2 6c 0a be 2a 9c 23 3f bc 18 84 3e
       0.42814112 -0.13518074 0.6391016 0.2580012
000220 a1 35 fc 3e 0f a3 90 3e 60 53 23 bf 82 99 ad 3e
       0.49259666 0.28249404 -0.63799095 0.3390618
000230 f3 11 18 3f 8b 3c 1e 3f 3f c4 18 bf 46 0d 65 be
       0.5940239 0.6181113 -0.5967445 -0.22368345
000240 77 01 e0 3e d2 0b 0b bf f3 d6 db 3e 5f 48 15 bf
       0.43751118 -0.5431491 0.4293743 -0.58313555
000250 f2 63 97 3d 62 99 83 be 58 f2 be be 3f cb 19 bf
       0.0739211 -0.2570296 -0.3729427 -0.60075754
000260 6e cd 8b be 30 b9 a1 3e 9f 76 27 bf 17 40 c5 3e
       -0.27305168 0.315866 -0.65415376 0.3852546
000270 b8 c8 86 be b6 f5 89 be f2 3e 3e be 62 74 8f 3e
       -0.2632501 -0.26945275 -0.18578699 0.2801848
000280 40 01 98 be 3f 87 0d bf 0e 6d e4 3d 1d f5 12 3f
       -0.29688454 -0.55284494 0.11153613 0.57405263
000290 21 38 17 3f fa a5 aa 3e a1 47 7f 3e 42 e0 01 3f
       0.5907002 0.33329755 0.24929668 0.50732815
0002a0 1b 88 eb 3e 0a ca 01 bf 7c a7 ca 3e 4d ce 13 bf
       0.46002278 -0.5069891 0.39580905 -0.57736665
0002b0 1f 93 5b 3e aa 84 68 be fc 31 e8 3e 1f a5 0a bf
       0.21442841 -0.22706857 0.45350635 -0.54158205
0002c0 a9 5d 05 bf f8 34 86 3e 08 46 0a bf 76 32 5d be
       -0.5209604 0.26212287 -0.5401311 -0.2160128
0002d0 97 61 f9 be 29 6a 1a 3d f8 32 43 bd 53 66 db bd
       -0.48707268 0.0376989 -0.04765603 -0.10712876
0002e0 b6 71 9b 3e 10 87 c5 3e 92 ff a7 3e ad fc 8d 3d
       0.30360192 0.38579607 0.32812172 0.0693296
0002f0 f0 e2 06 3f 71 da 71 3d 2d e9 56 be 65 67 06 3f
       0.5269003 0.059046213 -0.20987387 0.5250152
000300 2f 22 e7 be 6d a9 2b 3e a7 54 29 be a8 4f 2b 3f
       -0.45143268 0.1676385 -0.16536199 0.6691842
000310 3c 33 1e 3f 87 0b 3b 3d ad bb bb 3e 3d ba d7 3d
       0.6179693 0.04566529 0.36666623 0.10533569
000320 60 b3 18 3f 0b 37 32 3f b9 38 70 be 72 1c fc bd
       0.59648705 0.6961524 -0.23459138 -0.12310113
000330 72 77 b3 3e 83 eb 0b 3f 1d 2f fa be fb 98 fa bd
       0.35052067 0.5465624 -0.4886407 -0.1223621
000340 24 87 28 3f e8 a5 03 bf 7d 6f 07 3f ba 12 a6 be
       0.6583121 -0.5142503 0.5290449 -0.32436162
000350 e0 c9 df 3e 86 a5 0b 3f e9 c2 d2 3e 54 e6 80 3c
       0.43708706 0.54549444 0.4116433 0.015734829
000360 e8 f7 f6 3e 4b 47 08 3e 95 85 ac be 8b d4 ae be
       0.48236012 0.13308446 -0.33695665 -0.34146532
000370 95 ce f4 3e 70 9f 23 bf 06 f0 26 3f 90 95 eb 3e
       0.4781386 -0.6391516 0.65209997 0.46012545
000380 68 de a1 be 5b b0 1a bf 97 ba 0f 3e f9 c4 19 be
       -0.31614995 -0.6042535 0.14036022 -0.15016545
000390 80 aa bb 3c de f4 67 be 53 90 8f be 8a 06 25 bf
       0.02290845 -0.22652003 -0.28039798 -0.644631
0003a0 e6 19 1a bf c5 16 f7 3e 32 9c b5 3e ef 13 22 3d
       -0.6019577 0.4825956 0.3547073 0.03956979
0003b0 c7 4a ed 3e b7 83 26 bf 3d 81 8a 3d da 18 9c be
       0.46346113 -0.6504473 0.067629315 -0.3048771
0003c0 38 d3 e2 be f2 c0 94 bc 6c ed 8f 3d 7a da 13 bf
       -0.44301772 -0.01815841 0.070277065 -0.57755244
0003d0 c0 c2 cf 3e 8a b1 7d be 7d 6b ef be 4b b4 eb 3e
       0.4057827 -0.24774757 -0.46761695 0.4603599
0003e0 cc ab 73 be 59 52 26 be 64 21 0e be f5 0e cf 3d
       -0.23796004 -0.1624235 -0.13879925 0.10110275
0003f0 24 65 23 3f 8c 07 f3 3e 28 08 35 3e 19 8e a1 3e
       0.63826203 0.47466695 0.17678893 0.31553724

decoders.0.decoder_net.0.bias f4 [512]
000000 f1 c4 d0 be b5 c0 0d bf ec 81 0d 3f 34 8d 7c 3d
       -0.40775254 -0.5537217 0.5527637 0.0616581
000010 52 04 6e be 98 ed 09 bf b0 54 b9 3e ed bd 27 3f
       -0.23243836 -0.53878164 0.36197424 0.6552418
000020 5e 4c 32 be 4d 87 a0 bd 7c 4f 29 3c d4 d1 86 be
       -0.17411944 -0.078383066 0.010333892 -0.2633196
000030 7b 3b 21 bf e1 b2 ea 3e 3a 98 e0 be ab 7b 14 3f
       -0.62981385 0.458396 -0.4386614 0.580012
000040 f6 d3 01 3f 9f 1d e4 3e 17 2c c8 3e f3 66 21 bf
       0.5071405 0.4455385 0.39096138 -0.63047713
000050 c6 d3 ed be 72 07 13 3e d5 d1 fc 3e 29 09 f8 3e
       -0.46450633 0.14358309 0.4937884 0.4844449
000060 31 ee 76 3e 2f 6f fe 3e 46 e7 16 be ea 0e 2a 3f
       0.241143 0.496942 -0.14736661 0.6642901
000070 06 7f ef be b4 95 5e 3d 9a 21 ea bc a3 a2 9f 3e
       -0.467766 0.054341987 -0.028580476 0.3117877
000080 68 2d 0b bf 28 f9 f0 3e 60 d0 15 3f 58 40 87 be
       -0.5436616 0.4706509 0.5852108 -0.26416278
000090 43 76 d0 3e a0 88 61 3e 14 47 b3 3e 02 b3 c7 3d
       0.40715227 0.22024775 0.35015166 0.0975094
0000a0 6b 46 1f bf a8 87 a1 3e d7 c1 c1 bd 5f e6 7f 3e
       -0.62216824 0.3154881 -0.094608 0.24990223
0000b0 dd ec 09 bf 05 4c 98 3e 8f a1 e2 bd c0 46 9e be
       -0.5387705 0.29745498 -0.11065971 -0.30913353
0000c0 94 9f 14 3f b2 a3 df be f2 f3 20 bf 13 34 1a 3d
       0.58055997 -0.43679577 -0.6287223 0.037647318
0000d0 65 4c 1b bf 2c af c6 3e 6c 3e 30 3f 1f 09 77 be
       -0.60663444 0.3880552 0.6884525 -0.24124573
0000e0 46 70 36 bd ad 1c 8c be 04 6b 2c bf 0c e2 17 bf
       -0.044540666 -0.27365628 -0.6735079 -0.59329295
0000f0 d8 d8 c8 be 13 9b ce be 3c 0b 0c bf 91 b8 ab 3e
       -0.3922794 -0.40352687 -0.5470464 0.3353925
000100 2a 0f 30 3f 4f ed 1f bf 75 67 b0 3e a2 36 82 be
       0.6877314 -0.6247148 0.3445393 -0.25432307
000110 a5 9c da be cc e0 40 3e f4 6f ca be 5a cb c4 be
       -0.42697635 0.18835753 -0.39538538 -0.38436395
000120 9f 60 03 3e da 2a 30 3f 4a 69 d5 be 1e ff 80 3e
       0.12829827 0.68815386 -0.41681892 0.2519464
000130 c1 36 05 be 3c 46 2a bf 03 a6 c1 be 9f bd 0a 3f
       -0.13009168 -0.6651342 -0.3782197 0.5419559
000140 b7 65 de 3e 28 52 16 bf b4 e4 f9 3d 85 11 0e 3f
       0.43436977 -0.5871911 0.12201825 0.5549548
000150 6b 83 cb be 52 b5 a2 be a7 21 bf be c4 3f f1 3e
       -0.397487 -0.3177896 -0.37330362 0.47118962
000160 d9 15 2e bf f0 51 16 bf d3 41 bb bd d0 ba 29 3f
       -0.68002087 -0.58718777 -0.09143414 0.6630068
000170 02 23 08 3d af 45 24 3f 9f 41 dd be c6 d7 0f bf
       0.03323651 0.6416883 -0.43214127 -0.5618862
000180 65 c3 27 bf 17 e5 35 3f 8f b5 18 bf 9e 71 e0 bd
       -0.65532523 0.7105269 -0.59652036 -0.10959171
000190 8e 0a 33 be 30 51 1e 3f b4 ab 34 ba 07 2b 13 3f
       -0.17484495 0.6184263 -0.0006892041 0.5748753
0001a0 b6 b5 31 bf 75 21 fe 3d 5f d9 e4 3e c3 5c 1d bf
       -0.69417894 0.12408725 0.4469709 -0.6146967
0001b0 d9 3c 46 3e 3a ab 12 bf be 13 2b bc 47 48 36 be
       0.19359149 -0.5729252 -0.010441719 -0.17801009
0001c0 6f 8e 81 be b6 5a b1 be 7e ac 18 3f e5 cb d2 3e
       -0.2530398 -0.3463952 0.596382 0.41171184
0001d0 7a 76 2f bf ca 4a b8 3e 71 d7 c7 be 4c d7 76 3d
       -0.68540156 0.3599456 -0.39031556 0.060263917
0001e0 90 70 9c 3e f8 33 10 be 17 34 d7 3e 96 c5 a3 3e
       0.30554628 -0.14082325 0.4203193 0.31986684
0001f0 2d 73 20 3f 29 71 19 bf aa 87 94 be db 6c 2d bf
       0.62675744 -0.59938294 -0.29009753 -0.67744225
000200 e9 7d fb be 0a cf e5 bd ce a0 e5 3d bf ba d8 3e
       -0.491195 -0.1122113 0.11212312 0.42329976
000210 01 49 80 3e a5 b1 0c bf 72 d3 df 3e e5 ec e6 be
       0.25055698 -0.54958564 0.43716007 -0.4510261
000220 6e a1 c9 be 41 be 94 be a5 33 25 3f 49 12 1d bf
       -0.39380974 -0.29051402 0.6453193 -0.61356026
000230 45 59 62 bd 35 ce de be ea 49 7d 3d ca 23 c0 be
       -0.055260915 -0.43516698 0.061838068 -0.37527305
000240 14 55 12 3f 0b e4 21 bf 9b 7c 35 3f 38 e0 15 bd
       0.5716107 -0.6323859 0.7089326 -0.036590785
000250 b9 a6 14 bf 84 bb 47 3e c6 e3 14 bf c3 f8 c0 3e
       -0.580669 0.19505125 -0.58160055 0.3768979
000260 fe 72 20 3f 8e a9 b0 be 17 37 89 be 38 1e 8f 3e
       0.62675464 -0.3450436 -0.26799843 0.27952743
000270 2d 13 b4 be d7 e6 d7 3e c5 d5 b0 bd bb af ee 3d
       -0.3517088 0.42168304 -0.08634523 0.11654612
000280 c6 96 31 be a2 71 c6 3e 40 1c e5 3e d1 59 3f 3e
       -0.17342672 0.3875857 0.44748116 0.18686606
000290 d0 3a 14 bf 6e 7b 52 3a 74 3b f2 be f0 9f d7 3e
       -0.5790224 0.0008029257 -0.47310984 0.4211421
0002a0 5c eb 7c 3e e6 bc b5 3c 3a a7 1c 3f 3c c2 e1 be
       0.24699157 0.0221848 0.6119267 -0.44093502
0002b0 bb 8a 5e be 92 a1 85 3e e5 6e ec 3e 0a 44 ae be
       -0.21732609 0.2609983 0.46178356 -0.34036285
0002c0 ab a6 ba 3e 87 fe f3 be e0 1c 18 bf 64 1f 1c 3f
       0.36455283 -0.47655126 -0.5941906 0.609854
0002d0 18 48 d8 be 9a 27 25 be ae 37 fb 3e 39 f2 0c be
       -0.42242503 -0.16128388 0.49065918 -0.13764276
0002e0 8a 60 17 3e 8f 29 2a be 00 0c d3 be 90 45 d7 3e
       0.1478292 -0.16617416 -0.41220093 0.4204526
0002f0 ff d3 00 bf d7 b3 8f be a1 8a 2c 3e 92 10 48 3d
       -0.5032348 -0.28066894 0.16849758 0.048843928
000300 a2 98 27 3f d0 36 b7 3e f8 bb ea be 90 95 c1 3d
       0.65467274 0.35784006 -0.45846534 0.09452355
000310 2d 09 aa be 9e c5 95 be 96 78 95 be 70 4d 0a 3e
       -0.33210126 -0.29252332 -0.29193562 0.13506103
000320 8f 97 1b bf d2 a7 08 bf a6 fc 64 be ee 78 d7 3e
       -0.60778135 -0.53381073 -0.22362003 0.4208445
000330 cc 8f fc be dd 28 98 3e d9 d3 09 3f f0 af 46 be
       -0.49328458 0.29718676 0.5383888 -0.19403052
000340 f7 72 b5 be b5 0e 3d be ce 02 dc 3d 27 da d9 3d
       -0.35439274 -0.18462642 0.107427225 0.106373124
000350 bc f5 ee 3e 4e f6 9c 3d be 96 17 3f dd e1 f0 3e
       0.46671855 0.076641664 0.5921439 0.4704732
000360 27 3a 88 3e 5e a3 f6 3c 89 71 c7 3e 71 b3 eb be
       0.26606867 0.030107196 0.38953808 -0.4603534
000370 5a f1 45 be c1 1c 28 be 09 c4 18 be 93 a0 1e 3f
       -0.1933035 -0.16417219 -0.14918531 0.61963767
000380 cc cd c7 bc eb d8 47 3e 71 71 f0 3d a3 79 11 bf
       -0.024390124 0.19516341 0.11740387 -0.5682623
000390 2a d7 0d 3f e9 a6 e7 3e 2c 73 aa 3e 14 80 db 3e
       0.5540644 0.4524453 0.33290994 0.42871153
0003a0 eb 4a c1 3e e0 a1 1b 3f ed 5c 15 3e 0c df 1f bf
       0.3775247 0.60793877 0.1458623 -0.6244972
0003b0 06 ab 33 3f 3d 8b c8 3d 94 4d 79 3e f9 9c 3c be
       0.70182836 0.097921826 0.24346 -0.18419255
0003c0 a5 f8 a8 3e 2c e3 1d 3f 9d d9 f8 be 99 1a f9 3e
       0.330022 0.6167476 -0.48603526 0.48653105
0003d0 af 32 00 3e 05 b3 62 be de c4 1e 3f 1d f2 0a bf
       0.12519334 -0.22138603 0.62019145 -0.54275686
0003e0 40 d9 8e 3e 8c ba f8 be 04 d9 e1 be b8 17 e8 3e
       0.27900124 -0.48579824 -0.44110882 0.45330596
0003f0 36 cf fc 3e cc 33 2b 3f 0e ad 34 3e 1f f3 ec 3d
       0.4937684 0.6687591 0.1764414 0.11569809

decoders.0.decoder_net.3.weight f4 [32]
000000 a8 23 81 3f 1f 86 80 3f 35 47 81 3f d2 ee 7c 3f
       1.0089006 1.004093 1.0099856 0.9880191
000010 d7 34 80 3f e2 4f 80 3f ec 77 81 3f 76 19 81 3f
       1.0016125 1.0024378 1.0114722 1.0085895
000020 16 a7 7f 3f cc 71 7d 3f e9 4f 81 3f d6 02 80 3f
       0.9986433 0.99001765 1.0102512 1.0000865
000030 ec 17 80 3f 72 52 7e 3f 3e a1 7d 3f 69 da 7d 3f
       1.00073 0.9934455 0.9907416 0.9916139
000040 94 1e 81 3f 51 b1 7d 3f 3f 01 81 3f e7 d3 7d 3f
       1.0087457 0.9909869 1.0078505 0.9915146
000050 12 5f 81 3f 26 0e 7d 3f 78 6a 7f 3f 5e 8b 7d 3f
       1.0107138 0.98849714 0.99771833 0.9904078
000060 a6 7d 81 3f 29 25 7f 3f b2 f4 7d 3f b9 6b 80 3f
       1.011647 0.99666077 0.992015 1.0032874
000070 ee f7 80 3f d8 49 7f 3f 2e 44 80 3f 95 ac 80 3f
       1.0075662 0.9972205 1.0020807 1.0052668

decoders.0.decoder_net.3.bias f4 [32]
000000 6d d9 23 3c 34 1d 43 bc a8 2e 22 bc f8 72 70 3b
       0.010000569 -0.011908818 -0.009898819 0.003668962
000010 b0 c2 c5 ba eb 3f 21 3c e0 ec 50 bc ca 50 cf bb
       -0.0015087929 0.009841899 -0.012751788 -0.0063267695
000020 8e 7a 3a 3c b9 cd 13 3c 1f af 0e bb e1 91 1e bc
       0.011381758 0.009021216 -0.002177186 -0.009678335
000030 01 b5 77 bb 3b 0d 28 bb f0 3c 88 3b b2 7a 2e 3c
       -0.0037797096 -0.0025642652 0.004157655 0.01064937
000040 88 7b 18 3c 7b 68 bb bb 2f 3a 16 3b 17 0c 3f bc
       0.009306796 -0.005719242 0.0022922864 -0.011660597
000050 f8 8c 40 bc fd cf 02 bc d2 d0 4a 3c 49 e1 27 bc
       -0.01175236 -0.007984159 0.012378888 -0.010246583
000060 b4 3c 28 3b d2 88 24 3c 2a c8 3d bc 68 90 90 3b
       0.0025670948 0.010042386 -0.011583367 0.004411746
000070 68 c0 3c 3c dc 58 9f 3b 28 ef 4c 3c df 70 3a 3c
       0.011520483 0.004862888 0.012508191 0.01137945

decoders.0.decoder_net.3.running_mean f4 [32]
000000 a0 ed 3e 3e a0 ed 3e 3e a0 ed 3e 3e a0 ed 3e 3e
       0.18645334 0.18645334 0.18645334 0.18645334
000010 a0 ed 3e 3e a0 ed 3e 3e a0 ed 3e 3e a0 ed 3e 3e
       0.18645334 0.18645334 0.18645334 0.18645334
000020 a0 ed 3e 3e a0 ed 3e 3e a0 ed 3e 3e a0 ed 3e 3e
       0.18645334 0.18645334 0.18645334 0.18645334
000030 a0 ed 3e 3e a0 ed 3e 3e a0 ed 3e 3e a0 ed 3e 3e
       0.18645334 0.18645334 0.18645334 0.18645334
000040 a0 ed 3e 3e a0 ed 3e 3e a0 ed 3e 3e a0 ed 3e 3e
       0.18645334 0.18645334 0.18645334 0.18645334
000050 a0 ed 3e 3e a0 ed 3e 3e a0 ed 3e 3e a0 ed 3e 3e
       0.18645334 0.18645334 0.18645334 0.18645334
000060 a0 ed 3e 3e a0 ed 3e 3e a0 ed 3e 3e a0 ed 3e 3e
       0.18645334 0.18645334 0.18645334 0.18645334
000070 a0 ed 3e 3e a0 ed 3e 3e a0 ed 3e 3e a0 ed 3e 3e
       0.18645334 0.18645334 0.18645334 0.18645334

decoders.0.decoder_net.3.running_var f4 [32]
000000 d0 6e 92 3e 08 df 88 3e aa 03 8c 3e 67 e8 88 3e
       0.28600168 0.2673266 0.27346545 0.2673981
000010 4d fb 8b 3e b9 3f 8a 3e 4c af 8f 3e b5 ab 8a 3e
       0.27340165 0.27001742 0.28063428 0.27084127
000020 3a 13 89 3e 32 d4 8a 3e f9 3e 8f 3e 4a 85 8a 3e
       0.2677248 0.27115017 0.27977732 0.27054816
000030 41 7e 8c 3e 6c e4 8c 3e 59 11 87 3e 05 d9 8d 3e
       0.27440074 0.27518022 0.26380423 0.27704635
000040 0a e6 8f 3e 72 b9 8a 3e 7c 6e 8b 3e 81 06 89 3e
       0.28105193 0.2709461 0.2723273 0.26762775
000050 78 e9 89 3e af 15 89 3e 86 fa 85 3e 6e 16 8a 3e
       0.26935935 0.26774356 0.26167697 0.26970237
000060 b6 f6 8a 3e d6 e3 8d 3e 83 57 8e 3e e6 88 87 3e
       0.2714135 0.27712888 0.2780114 0.26471633
000070 3f 8d 89 3e 87 51 8c 3e d3 06 8c 3e b8 88 8a 3e
       0.26865575 0.2740595 0.27348956 0.27057433

decoders.0.decoder_net.4.weight f4 [32, 32, 3, 3]
000000 07 1d 0e 3d cd 8f 91 bc ff 98 09 3d 53 d1 1c 3d
       0.03469565 -0.017768765 0.033593174 0.038285565
000010 a5 6b 0c bd 04 8b cb ba b4 28 23 3d 42 d4 15 3d
       -0.034282345 -0.0015529101 0.03983374 0.036579378
000020 01 e5 f8 3c 3c 28 60 3d c5 c7 cf bb cc a3 74 bd
       0.030382635 0.05472587 -0.006340953 -0.05972652
000030 6a f6 06 bd 36 4a 07 b9 9b 8d 21 bd 01 89 ec 3c
       -0.032949843 -0.00012902249 -0.039441686 0.028873922
000040 7d 98 e2 bc 40 8c d3 3c 93 c9 dc ba 08 6f 93 bc
       -0.027660603 0.025823712 -0.0016844742 -0.01799728
000050 35 dc 2c bd 13 71 3d 3d 41 4e 92 bc 78 7d 20 3d
       -0.042202193 0.046250414 -0.01785958 0.039182156
000060 96 81 3d bd 20 81 12 3d 41 64 b9 3b 61 52 51 3d
       -0.04626616 0.035767674 0.005657703 0.051103953
000070 5b 93 ee 3c 33 26 10 3d c8 b2 23 3d b3 c7 80 bd
       0.029122999 0.03519268 0.03996542 -0.062880896
000080 b7 c2 09 bd c4 2a 7d bc b5 e6 85 bd 08 1d 63 bd
       -0.03363296 -0.015452091 -0.065381445 -0.05544761
000090 c3 cf a1 3c da 24 98 3b 5a bf 06 3d 95 55 35 3d
       0.019752389 0.004643065 0.03289733 0.04427107
0000a0 f6 b1 60 3c f8 79 94 bc ef 35 2b 3c 1a 3f 60 bc
       0.013714304 -0.018124565 0.0104498705 -0.01368692
0000b0 9f 7d 1b 3d 9f 8e b6 ba 7c 48 ee bc 35 0d a0 bb
       0.0379616 -0.0013928002 -0.029087298 -0.004884387
0000c0 bc d8 52 bc 33 57 7b 3a 04 d5 8d 3c fb 35 7a bd
       -0.012869056 0.0009587884 0.017313488 -0.061086636
0000d0 82 14 43 bd 69 50 df 3b c8 12 46 3c 71 03 66 bd
       -0.04762698 0.0068150056 0.012089439 -0.056155626
0000e0 72 53 5b bc c6 07 e4 3c 50 13 2b 3d f1 7b 10 bd
       -0.013386594 0.027835738 0.041766465 -0.03527445
0000f0 48 74 2c 3c 9e 73 e1 ba 21 87 bc 3c 33 93 83 3c
       0.0105257705 -0.0017200594 0.023013653 0.016061401
000100 dd 4c 07 ba 87 1a 42 3d fa f2 70 bc 9f 52 23 ba
       -0.0005161295 0.04738858 -0.014706368 -0.0006230268
000110 81 ce 8b 3c 22 22 de 3c d8 2b 4e bd 85 e9 0a 3d
       0.017066242 0.027115885 -0.05033478 0.033914108
000120 e0 18 be bb 22 bf 56 3c 33 fb c6 bc 29 fb 4f 3d
       -0.005801305 0.013107093 -0.024289703 0.050776634
000130 1a 66 4b bd 0a 0a 29 bd d6 7c a9 3c 6d df 7b bc
       -0.04965792 -0.04126934 0.02068941 -0.015373093
000140 c6 38 1c 3b e9 bd 32 3d ef 45 47 bd 48 cf 77 bd
       0.002383755 0.043638144 -0.04865068 -0.060500413
000150 c2 17 1b bc 28 ef 78 3c 11 88 5b bd d8 70 02 bd
       -0.0094661135 0.015193738 -0.05359656 -0.031845897
000160 57 1d a9 3c ef 3a 9c 3c d7 56 84 bb 6b 57 f9 bc
       0.020643873 0.01907107 -0.0040386724 -0.030437192
000170 96 9f 2d bc 06 52 3c bd 52 c0 ca 3a 79 fe 00 bd
       -0.01059713 -0.04597666 0.0015468693 -0.031492684
000180 2c 0f 48 3d c0 5c 3b 3d d3 73 67 bd 89 c9 4d 3c
       0.048842594 0.04574275 -0.056506943 0.012560257
000190 89 8b 3d bc e5 1b 06 bb 8f be 19 3b a5 56 80 3b
       -0.011568912 -0.0020463404 0.002345953 0.003916579
0001a0 62 14 ef bc 5c 33 60 bd c1 c5 d4 3b 3e bc e9 3c
       -0.029184524 -0.05473648 0.0064933007 0.028532144
0001b0 b8 c4 fe bc 0d c9 5f 3d cc 7f e8 3c 26 e5 28 3d
       -0.031099662 0.054635096 0.02838125 0.041234158
0001c0 fd 18 da 3c 79 e4 5e 3d 7b 73 3c 3d 09 66 16 bd
       0.026623243 0.054417107 0.04600857 -0.036718402
0001d0 3f cf 5f 3c 7d 12 f5 3c ef 08 88 bd f0 07 1c bd
       0.013660251 0.029916042 -0.06642329 -0.038093507
0001e0 19 10 e9 3c 14 32 80 3d d5 82 12 bd a0 e7 5f 3b
       0.028450059 0.06259552 -0.035769302 0.003416516
0001f0 7c 10 06 3d d0 46 64 bd a0 85 45 3c 4a bc 37 bd
       0.032730564 -0.055731595 0.012055784 -0.0448573
000200 76 bf bd 3c 35 f6 1a 3c bd 2d d4 ba 80 fb c2 3c
       0.023162585 0.009458114 -0.0016187947 0.023801565
000210 57 3a 16 bd ac 1b 51 3b 44 82 35 bd 6e 95 50 3d
       -0.03667673 0.0031907363 -0.044313684 0.050923757
000220 73 2f 0d 3d 8f cb 08 bd 20 28 4e 3d 72 76 0a bd
       0.03446908 -0.033397254 0.050331235 -0.033804365
000230 38 17 46 bd 57 24 67 3d 8b 3f 06 3d 50 33 ad 3c
       -0.048361987 0.05643114 0.032775443 0.021142632
000240 bc d0 d9 3c 18 82 1a bd b4 3c 2b 3d df ec 0a 3d
       0.02658879 -0.037721723 0.041805938 0.033917304
000250 99 84 74 3d cb fb 88 bd 64 32 0f bc cf d1 2a 3d
       0.059696767 -0.06688651 -0.008740041 0.041703995
000260 82 be a5 bc a0 ac 5e 3d ff 50 02 3d 9d 5c 61 bb
       -0.020232443 0.054363847 0.031815525 -0.0034387477
000270 80 f2 5a bd 4e 56 26 bc e5 d0 d5 3b ae 19 0b 3c
       -0.053453922 -0.010152413 0.0065251463 0.008490009
000280 14 b7 60 bd 16 4a 74 3d 0b d4 89 bd d3 2f c0 3c
       -0.054862097 0.059640966 -0.06729897 0.023460304
000290 64 a0 08 bd ab 54 79 3c e2 0d 2b 3d 61 00 e8 3b
       -0.033356085 0.01521794 0.041761287 0.0070801233
0002a0 3c 08 65 3c 25 5d 43 bd 87 7d 72 bd cb 21 65 3c
       0.013979014 -0.04769625 -0.059201743 0.013985108
0002b0 e7 d8 5d bc 12 cb da bc 92 08 e8 3b 31 ed bd bc
       -0.013540483 -0.02670816 0.0070811 -0.02318439
0002c0 bf 83 35 3d 1c 95 18 3d cf 8a 2b 3d 91 45 7f 3d
       0.044315096 0.037251577 0.041880425 0.062322203
0002d0 72 77 81 bc 6a a0 65 3d 38 5d 3b 3d 75 14 2a 3d
       -0.015804026 0.056061186 0.045743197 0.041523416
0002e0 75 d4 03 bd 08 69 a8 3c 0f 85 1b 3d 0d 1b 84 bc
       -0.032185037 0.020557895 0.03796869 -0.01612618
0002f0 60 63 9c 3b 2b 6f 07 bd 24 e8 30 ba 60 97 80 bd
       0.0047725886 -0.033065002 -0.0006748459 -0.062788725
000300 05 89 a4 bc e0 ae a6 3c 58 9f e7 bc ed c5 9e bc
       -0.020084867 0.020347059 -0.028274223 -0.019381488
000310 44 f8 03 bd 23 f9 1e 3d a4 3d 1a bd ac 6d 71 bd
       -0.032219186 0.038811814 -0.03765644 -0.058942482
000320 1a 0d ec 3c 98 39 4a 3d 78 d9 47 bd 89 4e 89 bb
       0.028814841 0.049371332 -0.04879138 -0.0041902703
000330 6f d9 81 bd 30 e5 87 bc 7c 92 d0 3c 65 1b 2a bd
       -0.063403 -0.016588777 0.025460474 -0.04153003
000340 9e 72 8c 3c 82 97 fd 3c c8 8b 5f 3d 9f 9f d9 39
       0.017144497 0.030956034 0.054576665 0.00041508392
000350 e3 4d 20 bc 03 bb 14 bd a2 06 3e 3d 9c 2e 03 bd
       -0.009784195 -0.03631116 0.046393044 -0.032026872
000360 d8 67 c5 bb 8b 97 3f 3d f4 55 4a bd 7e 80 ff bc
       -0.006024342 0.046775382 -0.049398378 -0.0311892
000370 16 26 fc bc 5c 62 41 bd 18 4a fc 3c 2f db 09 bd
       -0.03077988 -0.047212943 0.03079705 -0.033656295
000380 7a aa d1 3b 28 02 ff bc 42 02 5b 3c 83 29 f0 3c
       0.006398496 -0.031128958 0.0133672375 0.02931667
000390 db 87 de 3b 3e 96 a5 3c 26 07 a9 3a cc c3 bd 3c
       0.0067910976 0.020213243 0.0012895807 0.023164652
0003a0 7a fb bc 3b 6b 32 9f 3c c2 ce 20 bd 5c 31 12 bd
       0.005767283 0.01943322 -0.03925968 -0.035691604
0003b0 f8 8b de ba 9a 12 33 bc 61 83 46 bd 8a 71 d1 3c
       -0.001697897 -0.010929728 -0.048465136 0.025566835
0003c0 46 98 31 3d 31 83 9f 3c 5a 03 ce 3c 8a bf ae 3c
       0.04335811 0.019471737 0.025148083 0.021331567
0003d0 da 7f 02 bd b2 b7 7e 3d 87 98 f2 3a ee 39 24 bd
       -0.03186021 0.062186904 0.0018508591 -0.04009431
0003e0 d0 a7 ad bc a9 05 14 3d d6 6b 8b bb 14 4c ff 3c
       -0.021198183 0.03613821 -0.0042547984 0.031164207
0003f0 46 7f 37 3d 93 c9 92 bc 7f 9f 0c 3d 20 e5 2f 3d
       0.04479911 -0.017918384 0.034331795 0.04294312

decoders.0.decoder_net.4.bias f4 [32]
000000 0b 71 64 bd 25 7c 42 3d 7a 62 c4 3c 65 55 2f bc
       -0.05577187 0.047481675 0.023972739 -0.010701512
000010 25 04 45 bd de ae 20 3d af 13 b4 3c 3b 9e 46 3d
       -0.048099656 0.039229266 0.021982042 0.048490744
000020 d0 e5 36 bd 81 c2 4e bd a2 04 9f 3c 66 64 35 3d
       -0.04465276 -0.050478462 0.019411389 0.0442852
000030 c6 5a 88 3c 57 73 85 3c e8 75 d9 bb b6 07 4b bd
       0.016644847 0.01629035 -0.00663637 -0.0495679
000040 13 97 34 bd 8f 63 f5 bb 3c 17 f7 bc 6e 32 95 bc
       -0.044089388 -0.007488675 -0.030162446 -0.018212523
000050 60 53 cc 3c 3f ff 48 3d 60 68 1f 3c d2 e2 c0 3b
       0.0249421 0.049071547 0.009729475 0.005886414
000060 6f 91 49 bd b0 e0 01 bd db 14 4e 3c 99 61 1e 3c
       -0.049210962 -0.03170842 0.0125782145 0.009666824
000070 84 b3 6f 3b fa 99 b5 3c 20 ca 35 bd 3f 9e a7 3c
       0.0036575506 0.022168148 -0.044382215 0.0204612

decoders.0.decoder_net.6.weight f4 [32]
000000 e3 de 7d 3f a8 1a 7d 3f bb 9a 7f 3f c7 b2 7e 3f
       0.99168223 0.988688 0.99845475 0.9949154
000010 4f 98 7d 3f 46 b9 80 3f 99 28 7d 3f 7a 0e 81 3f
       0.9906053 1.0056541 0.9889007 1.0082543
000020 91 b3 7f 3f 55 27 7d 3f 3d 35 81 3f 3b 92 7f 3f
       0.9988337 0.9888814 1.0094372 0.99832505
000030 b4 1f 81 3f 11 b6 80 3f 07 7b 7d 3f 19 21 7d 3f
       1.00878 1.0055562 0.9901585 0.9887863
000040 24 85 80 3f bd 35 81 3f 2d f5 7d 3f da 81 7f 3f
       1.0040631 1.0094525 0.99202234 0.9980751
000050 06 36 80 3f 5a 0f 81 3f 78 0a 7d 3f ca 6d 81 3f
       1.0016487 1.008281 0.988441 1.011163
000060 4d d5 7c 3f 39 35 80 3f 17 2e 81 3f 0f 7b 7d 3f
       0.9876297 1.0016242 1.009219 0.990159
000070 dc 55 7e 3f 63 42 81 3f cf 0a 7e 3f 27 4d 7d 3f
       0.9934976 1.0098385 0.9923524 0.9894585

decoders.0.decoder_net.6.bias f4 [32]
000000 ac 58 34 bc 94 88 cd bb 9b 2f 22 bc 1c f2 46 bc
       -0.011007469 -0.006272385 -0.009899045 -0.012142684
000010 ae 31 2a bc bd 84 48 bc 64 e5 31 bc 9a 4a 45 3c
       -0.010387821 -0.0122386785 -0.010857914 0.012041712
000020 78 69 34 3b 40 49 ad bb 31 60 ca bb 38 01 29 3c
       0.0027528685 -0.005288273 -0.0061760177 0.010315232
000030 b9 dc 4f bc b1 ed 25 3c ef 18 2b 3c 3f 5e 26 3c
       -0.012686902 0.010127471 0.010442956 0.010154306
000040 be 68 ed 3b 36 d7 27 3c 66 ae 49 bc 9e 1b 43 bc
       0.0072451523 0.010244181 -0.012309646 -0.01190844
000050 67 85 39 bc fa b4 32 bc 31 b1 40 bc ae 05 33 bc
       -0.0113233095 -0.010907406 -0.011760996 -0.010926647
000060 0d e3 17 bc 6a 30 42 bc 14 19 3f 3c ed 9c de 3b
       -0.009270442 -0.011852363 0.011663694 0.0067936094
000070 50 20 4b bc 4b 6e c7 3b 14 fe 03 3c 46 53 45 bc
       -0.012397841 0.006086146 0.008056182 -0.01204378

decoders.0.decoder_net.6.running_mean f4 [32]
000000 23 34 da 3d 23 34 da 3d 23 34 da 3d 23 34 da 3d
       0.106544755 0.106544755 0.106544755 0.106544755
000010 23 34 da 3d 23 34 da 3d 23 34 da 3d 23 34 da 3d
       0.106544755 0.106544755 0.106544755 0.106544755
000020 23 34 da 3d 23 34 da 3d 23 34 da 3d 23 34 da 3d
       0.106544755 0.106544755 0.106544755 0.106544755
000030 23 34 da 3d 23 34 da 3d 23 34 da 3d 23 34 da 3d
       0.106544755 0.106544755 0.106544755 0.106544755
000040 23 34 da 3d 23 34 da 3d 23 34 da 3d 23 34 da 3d
       0.106544755 0.106544755 0.106544755 0.106544755
000050 23 34 da 3d 23 34 da 3d 23 34 da 3d 23 34 da 3d
       0.106544755 0.106544755 0.106544755 0.106544755
000060 23 34 da 3d 23 34 da 3d 23 34 da 3d 23 34 da 3d
       0.106544755 0.106544755 0.106544755 0.106544755
000070 23 34 da 3d 23 34 da 3d 23 34 da 3d 23 34 da 3d
       0.106544755 0.106544755 0.106544755 0.106544755

decoders.0.decoder_net.6.running_var f4 [32]
000000 75 c5 82 3e a3 97 82 3e fc be 82 3e 79 cb 82 3e
       0.25541273 0.25506315 0.25536335 0.25545862
000010 51 c5 82 3e b6 ae 82 3e df b5 82 3e bd ba 82 3e
       0.25541165 0.2552392 0.25529382 0.25533095
000020 70 9a 82 3e 43 bd 82 3e fa b0 82 3e 90 a5 82 3e
       0.2550845 0.2553502 0.25525647 0.2551694
000030 db b3 82 3e b9 23 83 3e 77 3c 83 3e 78 e2 82 3e
       0.25527844 0.25613192 0.2563207 0.25563407
000040 59 ed 82 3e d1 db 82 3e e1 e9 82 3e 89 19 83 3e
       0.25571707 0.25558332 0.2556906 0.2560542
000050 f7 01 83 3e 47 d9 82 3e 43 a8 82 3e 8c b8 82 3e
       0.25587437 0.25556394 0.25518999 0.25531423
000060 0c a8 82 3e cd c8 82 3e a6 c6 82 3e f3 de 82 3e
       0.25518835 0.25543824 0.25542182 0.25560722
000070 c6 0d 83 3e c4 df 82 3e 16 dc 82 3e ef a3 82 3e
       0.25596446 0.25561345 0.25558537 0.25515696

decoders.0.decoder_net.7.weight f4 [32, 16, 3, 3]
000000 b1 45 e3 bc 5b 48 98 3c c3 f8 97 bd 39 4b 2c bd
       -0.027743192 0.01858919 -0.074204944 -0.042063925
000010 da 8a 6d 3d 26 7d 4d 3c 11 cf 8f bd d5 d0 90 3d
       0.057993747 0.012542045 -0.07021917 0.070710815
000020 9c 9d 90 b9 8b 50 4a bd 5d 85 c1 3c 0b a2 4f bd
       -0.00027583248 -0.049393218 0.023623163 -0.050691646
000030 fe 76 b0 3c 70 b2 42 bb 66 48 01 3d 85 f5 72 bd
       0.021541115 -0.0029708408 0.031563185 -0.059316177
000040 b8 7a ab bd 54 c2 a7 3d 0f 7e 80 3d dc eb 6e 3d
       -0.08373016 0.08191362 0.06274044 0.0583304
000050 70 86 77 bd d9 59 9c bc 56 51 c3 bc 76 1b 8e bd
       -0.060430944 -0.019085811 -0.023842495 -0.069388315
000060 d2 bb 6b bd d5 7b 28 bd 9d 89 60 3d 75 5a c0 bc
       -0.057552166 -0.04113372 0.05481874 -0.023480633
000070 30 87 99 bd f4 74 9e bc 94 9f 84 bd cb 04 19 bd
       -0.07496488 -0.019342877 -0.064757496 -0.037358087
000080 2d 39 0b 3d 47 ff 56 3d 3c ea b4 bd 49 91 21 bb
       0.033990074 0.052489545 -0.08833739 -0.0024653247
000090 a0 a2 9e bd bd 0b 96 3d ef 9e c1 3c 55 f7 8e bd
       -0.07745862 0.07326458 0.023635356 -0.069807686
0000a0 5e 0c 6e 3c 06 33 6b bd a7 39 81 bc 3d 67 5d 3b
       0.014529316 -0.057421707 -0.015774561 0.0033783459
0000b0 70 41 64 bd 24 21 aa bc a2 c6 3d 3c a1 e7 49 3d
       -0.05572647 -0.020767756 0.011583002 0.049293164
0000c0 01 55 1e bd 1f 59 8f bd b7 6a b4 bd f9 44 a1 3c
       -0.038655285 -0.069994204 -0.08809417 0.019686209
0000d0 06 ac 80 bc 60 48 f3 3c eb e5 5f bc 8e a3 a8 3c
       -0.015707027 0.029697597 -0.013665657 0.020585801
0000e0 71 77 5d 3d a2 7c 4f 3d 41 84 8d 3d 93 9d e6 bc
       0.054068986 0.05065597 0.06909991 -0.02815131
0000f0 bc 2e 41 bd 4c d8 8b bc d8 05 3f 3d 00 ac 89 3d
       -0.04716371 -0.017070912 0.046636432 0.067222595
000100 e6 02 7c 3c cc f8 ab bd a8 bc 02 bd 33 0a 13 3b
       0.01538155 -0.083970636 -0.031918198 0.00224365
000110 b5 12 a2 bc 26 61 84 bd 67 6d 5c 3b f1 4f 82 bd
       -0.01978431 -0.06463842 0.0033634545 -0.06362904
000120 2c 22 9c bd 7b 06 2a bd ed 8e e9 3c a0 e5 48 3d
       -0.07623705 -0.041510087 0.028510535 0.049047112
000130 d6 b2 07 bd 4d da a0 3c 59 0c 55 3a b6 dc 80 3d
       -0.033129536 0.019635344 0.0008127145 0.06292097
000140 ee e8 f9 bc 21 09 4f 3c 9d 4f 97 3a 34 29 04 bb
       -0.030506577 0.012636454 0.0011544112 -0.002016616
000150 48 8b 61 bd 6c 5b 62 bc 08 fb 35 bd 39 66 1a 3d
       -0.05506447 -0.013815742 -0.044428855 0.037695143
000160 d8 79 08 3d 6c 5f d0 3c e7 e8 e3 bc b6 52 6f bc
       0.033319324 0.025436126 -0.027821017 -0.014607122
000170 50 7f d3 bc 4b 65 7e 3d 10 f9 81 3c 5e 1c 12 bd
       -0.025817543 0.06210832 0.015865833 -0.035671584
000180 e2 b8 f5 bc 0d c8 83 bd 89 b7 1e bc 06 6e 0b bd
       -0.029995386 -0.06434641 -0.009687313 -0.034040473
000190 81 0d b6 3d 5b b4 a3 bd 8c d8 f7 3c ee 77 28 3c
       0.088892944 -0.079933845 0.030254625 0.0102825
0001a0 b6 61 67 3d bf 4d 19 3d 05 5e 86 bd f8 e1 b8 3a
       0.05648967 0.03742766 -0.065609016 0.001410543
0001b0 9b 3b bc 3c ab 2b 65 3c 32 e7 94 3d a6 4e 9d 3d
       0.02297764 0.013987462 0.072706595 0.076810166
0001c0 fe 5c 21 bd f0 23 16 3d a6 47 f7 3c 72 fe bf bc
       -0.039395325 0.036655366 0.030185532 -0.023436759
0001d0 0f be a1 3d c7 82 e4 bb 5a 91 8e 3d 01 32 69 bd
       0.07897579 -0.0069735977 0.06961317 -0.056932453
0001e0 6e 88 8c 3d ce aa 0c 3d ab 7f c8 bc 65 96 5d bc
       0.068619594 0.03434258 -0.02447494 -0.013524626
0001f0 2c f7 6b bd 1f ab ab 3d 90 30 33 3d f0 15 ab bc
       -0.05760877 0.08382248 0.043747485 -0.020884484
000200 88 ee d6 bc b1 1e 4b bd fb 4f 28 3c 29 84 16 3d
       -0.026236787 -0.049589816 0.010272975 0.03674713
000210 aa e2 55 3d f9 92 f4 3c 35 43 c9 bc 6a d2 0b bd
       0.052218117 0.029855238 -0.02456818 -0.034136213
000220 10 c2 04 bd 6a a6 ae 3d 34 cd a5 3c f8 9b b7 bb
       -0.032411635 0.08527835 0.02023945 -0.0056033097
000230 1c cf 1b bc c6 fd 66 3d 74 91 46 3d 97 6e b6 bc
       -0.009509828 0.05639436 0.04847856 -0.02226953
000240 0e 9b 9d 3c c0 ef 4a bd b5 a6 96 bd 47 d3 18 3d
       0.019238975 -0.04954505 -0.073560156 0.037310865
000250 ae a1 85 3d 84 00 3a 3c f6 29 05 39 f7 e7 ac 3c
       0.065249786 0.011352662 0.000126995 0.021106703
000260 35 7e 0e 3d 0a e8 1f bd 82 f9 1c 3d 5b 19 c7 bc
       0.03478833 -0.03903965 0.038323887 -0.024304083
000270 14 3e 7b bd d1 54 9e bd bb 0d 7a 3d 41 e2 65 bb
       -0.0613385 -0.07731021 0.06104825 -0.0035077485
000280 11 36 d1 bc 90 51 2e 39 d6 2e 89 bd 33 ba 4d bd
       -0.025538476 0.00016624318 -0.06698386 -0.0502264
000290 58 1e 0d 3d 16 de 95 bd b3 80 48 3d 9b 30 b7 bc
       0.034452766 -0.0731775 0.048950862 -0.022362044
0002a0 7d 4f bb 3c fd 6c 8f bd 7b f3 69 bd 1c ee 54 bd
       0.022865051 -0.0700321 -0.057116967 -0.05198489
0002b0 76 9e 32 3d 3d 7b 44 3d d1 e9 67 3c 7d d0 04 3d
       0.04360815 0.04796909 0.014154867 0.032425392
0002c0 37 4c 08 bd 50 52 b2 3c 43 6f a4 3d dd ab cb 3c
       -0.03327581 0.021767765 0.08029034 0.024862224
0002d0 3d 7a 8d 3d 1b 80 b3 3d ca 5a d9 3c 4d ff 93 3a
       0.06908081 0.087646686 0.02653255 0.0011291296
0002e0 9e 42 e8 bc 7f 67 1a bc ad 8e 7c 3d e8 89 27 bd
       -0.028352078 -0.009424089 0.061659504 -0.040903002
0002f0 03 95 12 3c 2b 1b 97 bd df ba 42 bd c0 f3 06 bd
       0.00894666 -0.07378229 -0.047541495 -0.032947302
000300 0f b5 a2 bc 23 3d 8e 39 f2 26 d8 3c fa ce 11 ba
       -0.019861726 0.000271299 0.026385758 -0.0005562153
000310 9a df 71 bd 8f 12 00 bd 49 ec b3 bd 87 3a c9 3a
       -0.059051134 -0.0312677 -0.08785302 0.0015352526
000320 8e 1a 99 3a b4 80 c0 bc 0a db 8e bd 56 ee 6b 3d
       0.0011680888 -0.02349887 -0.06975372 0.05760034
000330 04 af f2 3a 9e a6 87 bd ca a4 5a 3c 3d 1b 85 bd
       0.0018515293 -0.066235766 0.013344953 -0.06499336
000340 55 14 67 bd fd 8f 40 bd f4 2f 9d bd a8 1a 67 bc
       -0.056415875 -0.047012318 -0.07675162 -0.014105476
000350 2d 33 3b bd 7a e5 ee 3c b0 91 ab bd cf c7 8d 3b
       -0.045703102 0.029162157 -0.08377397 0.0043267976
000360 c5 99 af 3c 9a ea 7b 3a b5 40 a8 bd 82 b4 09 3d
       0.021435628 0.00096098485 -0.08215467 0.03361941
000370 c1 25 26 bc 72 84 4c 3b b5 a7 20 bd 4f 10 38 bd
       -0.010140837 0.0031206873 -0.039222438 -0.044937428
000380 33 81 49 3d 4b db 0e 3d 18 bb 9e 3d 5f 66 05 3d
       0.04919548 0.034877103 0.07750529 0.03256833
000390 4e 63 85 3d dd e4 c0 3c db d1 48 3c ae ee aa 3d
       0.065130815 0.02354663 0.012257065 0.08346306
0003a0 79 59 a3 3c 7c 86 df bb 8f 24 2f bd 25 1b 8e bc
       0.019940125 -0.0068214517 -0.042759474 -0.017346928
0003b0 de 58 e6 3c 60 1a f5 bc a2 93 ad 3d 37 39 44 3d
       0.028118547 -0.029919803 0.08475424 0.047906127
0003c0 20 93 2c 3d 4e 54 4b bc d6 02 50 3d ee 77 fa bc
       0.042132497 -0.0124102365 0.050783955 -0.030574765
0003d0 ae 5d 4c bd 08 7c 53 3c 5c 0a 01 3c cb 1b 41 3d
       -0.049894027 0.012907989 0.007876005 0.047145646
0003e0 88 40 00 bd 8d d4 85 3d 7f 26 1f 3d bf 9e 63 3d
       -0.03131154 0.065346815 0.038855072 0.055571314
0003f0 ff 98 ad bc 8a 1d 8c 3d ff 3c 4f bd 11 99 91 3d
       -0.021191118 0.06841572 -0.05059528 0.07109273

decoders.0.decoder_net.7.bias f4 [16]
000000 cc 0d 48 bd 9e 00 55 3d 79 4c 0e 3d 4b 17 7f 3d
       -0.048841283 0.05200254 0.0347409 0.062278073
000010 8b a5 78 3d 3f 9c 6b 3d ab e9 07 bd 0c 20 ed 3c
       0.06070475 0.057522055 -0.033181828 0.028945945
000020 65 95 a4 bd aa 15 ca 3c 85 11 81 3d e8 02 03 3d
       -0.08036307 0.024668533 0.0630217 0.031985193
000030 70 74 9d 3c da 04 a9 bd b4 4e cf 3c 1c 64 67 3d
       0.01922056 -0.082528785 0.025306083 0.056491956

decoders.0.decoder_net.9.weight f4 [16]
000000 dd 0b 7d 3f 4e 7d 7d 3f af 18 7d 3f 0f 5b 7d 3f
       0.98846227 0.99019325 0.9886579 0.9896707
000010 70 23 7d 3f 4f a8 7d 3f ef aa 7d 3f 09 50 7d 3f
       0.988822 0.99084944 0.9908895 0.9895025
000020 5e 59 7d 3f e4 26 7d 3f bd 30 7d 3f 13 1f 7d 3f
       0.9896449 0.9888747 0.98902494 0.9887554
000030 ac 3d 7d 3f 5c 10 7d 3f f9 43 7d 3f 6e 36 7d 3f
       0.9892223 0.9885309 0.98931843 0.9891118

decoders.0.decoder_net.9.bias f4 [16]
000000 19 e0 4e bc 12 4f 51 3c 83 b1 4e 3c 11 9b 50 bc
       -0.012626671 0.0127751995 0.012615564 -0.012732283
000010 75 bc 4d 3c 0a b7 49 3c 71 27 49 3c 63 50 48 bc
       0.012557139 0.012311706 0.01227747 -0.012226197
000020 4d 24 52 bc b9 df 4f 3c ec 16 2f 3c 67 48 54 3c
       -0.012826038 0.012687617 0.010686617 0.012956715
000030 42 51 51 bc 08 b1 4b 3c f5 ed 4c 3c 72 8e 4f bc
       -0.012775721 0.012432344 0.012507905 -0.012668239

decoders.0.decoder_net.9.running_mean f4 [16]
000000 23 34 5a 3d 23 34 5a 3d 23 34 5a 3d 23 34 5a 3d
       0.053272378 0.053272378 0.053272378 0.053272378
000010 23 34 5a 3d 23 34 5a 3d 23 34 5a 3d 23 34 5a 3d
       0.053272378 0.053272378 0.053272378 0.053272378
000020 23 34 5a 3d 23 34 5a 3d 23 34 5a 3d 23 34 5a 3d
       0.053272378 0.053272378 0.053272378 0.053272378
000030 23 34 5a 3d 23 34 5a 3d 23 34 5a 3d 23 34 5a 3d
       0.053272378 0.053272378 0.053272378 0.053272378

decoders.0.decoder_net.9.running_var f4 [16]
000000 42 87 82 3e da ad 82 3e de 7e 82 3e d1 87 82 3e
       0.2549382 0.25523263 0.25487417 0.25494245
000010 cf 87 82 3e 96 78 82 3e 97 8f 82 3e 69 a7 82 3e
       0.2549424 0.25482625 0.25500175 0.2551835
000020 2a 7b 82 3e 9a 81 82 3e fc 75 82 3e ae 77 82 3e
       0.25484592 0.25489503 0.2548064 0.25481933
000030 0c 7a 82 3e 48 8f 82 3e 08 68 82 3e 23 71 82 3e
       0.2548374 0.2549994 0.25469995 0.2547694

decoders.0.decoder_net.10.weight f4 [16, 1, 3, 3]
000000 6d 3a 81 be 2c cf 4f bd 0c 68 03 3e 36 e4 60 be
       -0.25239888 -0.050734684 0.1283266 -0.21962056
000010 07 9e 66 3e 7a 8e 99 be 65 e2 51 be 6e cb 08 3e
       0.2252122 -0.29991513 -0.20496519 0.13358852
000020 3e 59 38 3e 8e 79 5b be ad 8f 15 bd 13 9e 6d 3e
       0.18002793 -0.21433088 -0.036513973 0.23204832
000030 eb 85 4e bd 48 2a 97 3d da 0c a0 3d f3 88 c4 3d
       -0.050420683 0.073811114 0.07814951 0.095964335
000040 09 53 56 3e 75 4a 61 3c 1d 97 9e 3e 13 36 2d 3e
       0.20930113 0.013750662 0.30974665 0.16915159
000050 64 22 be 3d ab db 9e 3d ec b6 57 be 01 6b 1b be
       0.09283903 0.07756742 -0.21065873 -0.15177538
000060 a7 ba 6a be 06 09 ae 3d 33 ae c7 3d cd 1c e4 bd
       -0.22922765 0.08497815 0.09750023 -0.11138306
000070 f7 56 07 3e df 3e 28 3e 7d ec 13 be c7 64 42 be
       0.13216768 0.16430233 -0.14445682 -0.18983756
000080 06 78 55 be c7 36 a5 be 99 cb 27 be 49 e9 72 be
       -0.20846567 -0.32268354 -0.1638626 -0.23721804
000090 fe 7e 0b be ec 98 0f be 4a af 8f 3e f9 53 a7 3b
       -0.13622662 -0.14023179 0.28063422 0.005106446
0000a0 72 8c b6 bd 63 6f 15 bd 0b ad a8 bd 40 bd 4d 3e
       -0.089135066 -0.03648318 -0.0823613 0.20091724
0000b0 a8 76 67 3e 05 9b a0 3d 50 83 2f 3d 42 22 8b 3e
       0.22603858 0.07842068 0.04284984 0.27174574
0000c0 41 ce 7c bd 95 6f 10 be 22 2c ec 3c c3 c8 af 3d
       -0.061720137 -0.14105065 0.028829638 0.08583214
0000d0 b4 6f 84 bd 77 42 4e 3e 4d 03 66 3d 7d 8d 03 be
       -0.06466618 0.20142542 0.05615549 -0.12846942
0000e0 eb bc 9a 3e 60 87 bb bd ec 79 c1 3d e4 99 27 3e
       0.30222258 -0.0915668 0.09447083 0.16367298
0000f0 46 e6 ad bd 99 e5 01 be f7 2e 98 3e fb e4 31 bd
       -0.08491187 -0.12685241 0.2972333 -0.043431263
000100 ac 7d 37 3e 0a 8d 7f be c8 0c d3 3d 7c 8e a2 bd
       0.17919034 -0.24956146 0.10305172 -0.07937333
000110 22 16 a3 be 7e 86 b8 3d a6 23 f9 3d b7 3f 49 be
       -0.31852823 0.09010027 0.121650025 -0.19653212
000120 b7 9b 8e bc b7 c9 0a bd 4f 11 8d 3e f5 50 44 be
       -0.017408235 -0.033883777 0.27552268 -0.19171508
000130 96 1e 37 bd b1 21 40 be 94 9e 0d be 8d 42 53 be
       -0.044706903 -0.18762852 -0.13830024 -0.20630856
000140 9b 60 88 be 80 56 09 be 4a a4 e6 3d d4 f5 8b 3e
       -0.26636204 -0.13411903 0.112618044 0.2733599
000150 91 5c d1 bb 04 6c 81 3e d4 2d 8a be 86 2e 33 3e
       -0.0063892086 0.25277722 -0.2698809 0.17498216
000160 7e 3d 0f be ed cb 3f be 30 54 df bb e5 78 97 be
       -0.13988301 -0.18730135 -0.006815456 -0.29584423
000170 60 38 ea 3c 70 4f b7 bc 72 a8 72 3e 95 14 96 3d
       0.028591335 -0.022376746 0.2369707 0.073281445
000180 19 bc b8 bd 2e a2 36 bd 80 41 7b 3e 34 bd 1c 3e
       -0.09020252 -0.04458826 0.24536705 0.1530655
000190 b9 89 7b 3e d7 a1 6a be 42 7a 31 3e d5 c8 fe 3d
       0.24564256 -0.229133 0.17331794 0.124406494
0001a0 60 49 1b be c8 0c 60 3e 7c c8 7a be 6a d7 27 be
       -0.15164709 0.21879876 -0.24490541 -0.16390768
0001b0 1d 35 26 3e 86 6e 80 3d df e1 20 be cf a8 3e 3e
       0.16231199 0.06271081 -0.15711163 0.18619083
0001c0 fe 33 71 be 5c 37 7e be 72 3d 50 be a9 6e 01 3c
       -0.2355499 -0.24825805 -0.2033594 0.007899919
0001d0 9b 98 a1 3d 7b 4f ba bd 9a 0e 75 be da f2 2d 3e
       0.07890435 -0.09097191 -0.23931351 0.16987172
0001e0 2b b0 5a 3e 9d 7c ab bd 33 32 65 3d a9 60 b9 bd
       0.21356265 -0.083733775 0.055956077 -0.090516396
0001f0 15 1d 10 3e 13 26 05 3e 91 59 c6 bd f1 1d 82 be
       0.14073594 0.13002805 -0.09685052 -0.25413468
000200 a4 e6 95 3e b0 8d 98 3e e2 ec 41 be 24 72 6e 3e
       0.29277527 0.297956 -0.1893802 0.23285729
000210 0b 86 17 3e 9a d2 ee 3d de d0 81 3e e9 f7 53 be
       0.14797227 0.11661263 0.25354666 -0.20700039
000220 ac 8d 25 3e 83 8a 1a 3e 75 03 58 be 4e bc 69 3d
       0.16167325 0.150919 -0.21095069 0.057064347
000230 a1 2e db 3d 16 3a 2d be 59 1f 65 be f1 4e 89 be
       0.10702253 -0.1691669 -0.2237524 -0.2681804

encoder.encoder_net.0.weight f4 [16, 1, 3, 3]
000000 86 b6 94 3e 5d f5 9e 3e cd 90 8c bd 35 85 09 3e
       0.29045504 0.31046572 -0.06863556 0.1342972
000010 92 c0 61 3e 30 35 77 3e 5e 1d f2 3d bc 7f 30 3e
       0.22046116 0.24141383 0.118220076 0.17236227
000020 c4 91 d7 3d 1c f6 90 be 5e 5d 92 3e d1 54 66 be
       0.105258495 -0.28312767 0.2858686 -0.22493292
000030 b2 bb 80 3e d7 4a 48 3e 58 27 31 3d 85 e5 25 bd
       0.251432 0.19559799 0.04325041 -0.04050209
000040 ef e6 b3 bb 19 c8 80 3d 7d e4 27 3e 18 3e a0 3e
       -0.005490176 0.062881656 0.16395755 0.31297374
000050 5c 61 51 3d f8 2d a7 be 9a a7 9e 3e d1 7e 92 be
       0.05111824 -0.3265226 0.30987245 -0.28612378
000060 84 ce 70 3e 6a 19 a3 3e 93 49 f9 bd 02 a2 20 be
       0.2351628 0.31855327 -0.12172236 -0.15686801
000070 78 f3 b4 bc 18 51 6b be 88 24 81 3e 83 08 19 be
       -0.022088751 -0.22980154 0.25223184 -0.14944653
000080 ac a3 5c 3e f0 a1 40 bd 4a 36 98 39 ef 2c a8 be
       0.21546811 -0.047029436 0.00029032148 -0.32846782
000090 86 13 8e 3c eb 7f 2c 3d 16 cf 8a 3e 11 fd 66 be
       0.017343294 0.04211418 0.2711112 -0.22557475
0000a0 55 7e 60 3e b8 b1 11 3e e3 28 0c be 0f b9 1d 3e
       0.21923192 0.1422795 -0.13687472 0.15402626
0000b0 42 9e 9f be 3e f8 79 3e 30 52 09 3e ac 1b 10 3d
       -0.3117543 0.24411103 0.13410258 0.03518264
0000c0 88 14 80 3e 64 55 99 3e e0 b0 51 3d a5 11 8b be
       0.25015664 0.2994796 0.05119407 -0.271619
0000d0 37 01 40 be 6e dc 65 bc 80 a2 15 3e 6b 6c 9c 3e
       -0.18750463 -0.014029605 0.1461277 0.30551466
0000e0 5b 63 1e bc 75 f4 56 be df 29 81 3c 02 a5 0e be
       -0.009667243 -0.2099169 0.015767036 -0.13930133
0000f0 ff 7e 9e be 49 eb 57 be 5c 93 41 be fc 94 48 3e
       -0.30956265 -0.21085848 -0.1890387 0.19588083
000100 15 54 bd 3d 72 27 9d 3e 7e 68 32 3e c1 75 9c 3e
       0.09244553 0.30694157 0.17422673 0.3055859
000110 ef db d3 bd f8 cc 41 3e ec 6a 66 3e 77 14 02 be
       -0.103446834 0.18925846 0.22501725 -0.12703119
000120 c0 fb 0d be 52 19 c5 3c 38 7f de 3c b4 ff 31 be
       -0.13865566 0.024059925 0.027160272 -0.17382699
000130 58 c1 9b 3d a7 a7 30 3e 50 5f 15 3e 44 d8 3f bd
       0.07605237 0.17251454 0.1458714 -0.046837106
000140 ec a3 9d 3e 71 03 9f 3a 0b 11 86 be af 5d 9a 3e
       0.30789125 0.0012131763 -0.26184878 0.301496
000150 fc c2 ff bd 7f 56 06 bd b3 07 81 be 1e 18 53 3c
       -0.12488362 -0.032797333 -0.25201187 0.012884168
000160 47 08 08 be b6 18 a7 3e a3 3a 41 3e c6 08 76 3e
       -0.13284408 0.3263604 0.18870024 0.24026784
000170 85 f1 1f 3e 63 89 29 be c3 89 95 be 9a f4 9c be
       0.15619476 -0.16556315 -0.29206666 -0.30655366
000180 64 14 4d 3e 0f ef 93 bc 19 d9 a7 3e a4 ba 7a 3e
       0.2002731 -0.018058328 0.3278282 0.2448526
000190 12 51 0c be c8 c0 5c be 42 fa a7 be 4c a3 91 3e
       -0.13702801 -0.21557915 -0.3280812 0.28444898
0001a0 86 bc 96 3e 52 5f 04 3e 69 93 85 3e 9b 01 68 be
       0.29440707 0.12926987 0.26089028 -0.22656862
0001b0 6e 34 61 be e3 7e 82 3e 4c a5 a7 3e 5c cb 15 be
       -0.21992657 0.25487432 0.327433 -0.14628357
0001c0 9e 0a 1d bd c2 1e 84 3e 6a 8c f6 3d 63 db 0d 3e
       -0.038340203 0.25804716 0.120385006 0.1385322
0001d0 33 6a e9 3d 76 ef 99 3e f6 d5 09 bd 60 b7 aa be
       0.11397209 0.30065507 -0.033651315 -0.3334303
0001e0 47 db 84 be 3a 85 87 be 63 f6 41 3e 51 c3 86 3e
       -0.25948545 -0.2646883 0.18941645 0.2632089
0001f0 5d 6c 45 3e 42 ea 69 be 69 ac e2 bc 29 0f 3c 3c
       0.19279619 -0.22843269 -0.027670102 0.011478224
000200 7c 76 48 bd 6f 20 55 bd 40 32 a0 3e 26 a0 9a bd
       -0.04894112 -0.052032884 0.31288338 -0.07550077
000210 50 a6 72 3e ae 06 42 3e 1a 9e db bd 08 e7 06 3e
       0.23696256 0.1894786 -0.10723515 0.13174069
000220 11 c0 25 bd f1 b3 58 3e 58 63 69 bd ba f4 3b 3e
       -0.040466372 0.21162392 -0.056979507 0.18355075
000230 de 7f 3a 3e 54 a4 85 be 06 15 4a 3e f3 c9 c9 bd
       0.1821284 -0.26101935 0.19734582 -0.09852972

encoder.encoder_net.0.bias f4 [16]
000000 5d d5 52 bd f8 93 13 be 47 1c b3 3c 85 71 99 3e
       -0.05147301 -0.14411914 0.02186407 0.2996942
000010 07 9e 7f 3e 4c fc dd bd 8e 3d c8 bd 7c 44 04 3e
       0.24962626 -0.108391374 -0.097773656 0.1291675
000020 58 ea a7 be d6 bd 45 be 89 b7 dc 3c e7 cc 82 3e
       -0.32795978 -0.19310698 0.026942985 0.25546953
000030 65 34 d6 3d 33 f1 09 be 9b 40 8e 3d c1 1e 55 bd
       0.10459212 -0.13470916 0.06945916 -0.052031282

encoder.encoder_net.2.weight f4 [16]
000000 c4 7f 80 3f be 8f 7e 3f e2 f4 7e 3f 7a 30 80 3f
       1.0038991 0.99438083 0.9959241 1.0014794
000010 e7 cb 80 3f eb 99 80 3f 06 b9 80 3f be c7 80 3f
       1.0062226 1.0046972 1.0056465 1.0060956
000020 19 03 7f 3f 2b 70 7e 3f ec 43 81 3f d1 7a 7e 3f
       0.996141 0.99389905 1.0098853 0.9940615
000030 45 62 80 3f 8c 9a 7e 3f 68 9e 80 3f b5 9f 80 3f
       1.002999 0.9945457 1.0048342 1.0048739

encoder.encoder_net.2.bias f4 [16]
000000 21 cc c9 bb 1a c4 07 ba 28 ed 01 3c 49 69 16 3c
       -0.0061583673 -0.0005179063 0.007930078 0.009180375
000010 4a 41 2c bc 71 29 8d ba 92 2d 32 3c 09 42 62 3a
       -0.010513613 -0.0010769797 0.010875123 0.0008631056
000020 7c 4d 4a bc 35 30 08 3c 3c d8 38 3c 10 e4 07 bc
       -0.012347575 0.008312275 0.011282023 -0.00829412
000030 34 4f 2c bc ac 91 03 bc 39 42 2c 3b 6b d8 90 3b
       -0.01051693 -0.008030336 0.002628459 0.0044203303

encoder.encoder_net.2.running_mean f4 [16]
000000 f3 a3 61 3d f3 a3 61 3d f3 a3 61 3d f3 a3 61 3d
       0.055087995 0.055087995 0.055087995 0.055087995
000010 f3 a3 61 3d f3 a3 61 3d f3 a3 61 3d f3 a3 61 3d
       0.055087995 0.055087995 0.055087995 0.055087995
000020 f3 a3 61 3d f3 a3 61 3d f3 a3 61 3d f3 a3 61 3d
       0.055087995 0.055087995 0.055087995 0.055087995
000030 f3 a3 61 3d f3 a3 61 3d f3 a3 61 3d f3 a3 61 3d
       0.055087995 0.055087995 0.055087995 0.055087995

encoder.encoder_net.2.running_var f4 [16]
000000 3b cb 6a 3e 00 4d 6a 3e 28 67 6a 3e af 4b 6a 3e
       0.22929089 0.22880936 0.22890913 0.22880433
000010 c0 4f 6a 3e 59 66 6a 3e ad 5e 6a 3e 5f af 6a 3e
       0.22881985 0.22890605 0.22887678 0.22918461
000020 b4 56 6a 3e 06 4a 6a 3e 9f 4a 6a 3e c5 4e 6a 3e
       0.22884637 0.228798 0.22880028 0.2288161
000030 3e 7a 6a 3e eb 4b 6a 3e 84 55 6a 3e 9d 54 6a 3e
       0.22898194 0.22880523 0.22884184 0.2288384
