miniproject2/experiments/ensemblyVAE/modelSeed620nD1.pt (torch, 144013 bytes, 37 tensors)

prior.mean f4 [2]
00000000: 0000 0000 0000 0000
0.0 0.0

prior.std f4 [2]
00000000: 0000 803f 0000 803f
1.0 1.0

decoders.0.decoder_net.0.weight f4 [512, 2]
00000000: eb2a 85bd d826 f33d 99aa c5be eccb 043f
00000010: 78df 15bf 2001 533d 3035 42be 5617 ecbc
00000020: be07 2fbf 0538 fe3e 3573 cf3c d39e 073f
00000030: 698f 36be d269 0c3f 4b22 bbbd 7888 c5be
00000040: fc10 03bc b5f8 193f b81d 0e3f a71b 30bf
00000050: 7bbc 56be c5e5 25be 17c1 553e 2e88 6fbe
00000060: 1390 103d ab33 163f e8a6 0e3d 1843 c13e
00000070: e073 1b3f ce82 e83e e925 00bf a07d 13bf
00000080: ceb3 d33c 696c 1ebf 754f a7be da1d 1cbf
00000090: 9dd9 fdbd 54fe 7cbe 7f58 fabd 13ea 283d
000000a0: 7c6d 12bf d3f2 1abf a274 e4be 7058 0cbf
000000b0: afcd 8dbc 3187 963e da06 debd 7374 17bc
000000c0: ad00 a33e c09e f93c 7c2d c13d 3e90 aabe
000000d0: 9ccd d0be 2d8e ff3e d877 323f d122 033f
000000e0: 1563 aa3d 871e 01be 3f53 e7be db86 10bf
000000f0: 47a6 f93e 8723 db3e 760b f53e d540 e7be
00000100: e9b8 6a3e 8587 2fbf d803 263f fe60 c83b
00000110: 0f52 9f3e 53e0 1ebe 68fa 283f 551a a63e
00000120: 8aac 23bf 9cb2 13bf d1c2 1cbe e98f b53d
00000130: 85ea 41be b6d6 233f 89e0 d5be 9e58 273f
00000140: e9d0 8bbe 9dce 963e 3527 203f 1e07 f43e
00000150: 0655 b03c 2e6f c9be d3e8 243f ae72 253e
00000160: c852 29be 686e f1be d3f4 f1be b77b abbe
00000170: 0b49 db3e 3ca4 c7be fbb3 33bf 09a5 903e
00000180: c6a5 7d3e 89c9 18bf 12bb b2be 7ce9 743d
00000190: b6f3 9c3e 61df 163d 6795 84be f986 d4be
000001a0: 91a9 02bf 0a0c 043f 2962 21be af81 3cbe
000001b0: 544a 22bf 4d15 8abe ad3d 8abe 25c1 a73e
000001c0: 2913 56be 9bc6 2dbe 474e 28bf e0c9 fe3e
000001d0: 3bc7 02be 6f42 eb3e 4f30 323f 4b12 233f
000001e0: d5f4 08bf 7fb5 38be c5e0 f73e 3a12 1c3f
000001f0: 87dc 563d 2b5b f8be b286 943e b4cd f6be
00000200: de77 0d3f 1bd3 30bf db0e 00bf 7aa8 e83d
00000210: c959 e23e 2f91 fbbe 23df fb3e 2542 803e
00000220: e678 b7be f603 2bbd f16d 32bf 9bef a73d
00000230: 4293 663d f885 6a3e a2b7 08bf 1546 a7be
00000240: 16df 8bbe 032d fc3e 1611 243f a897 3a3e
00000250: 6352 34bc ceb0 8fbe cd31 a13e 9800 a63e
00000260: b0c8 bbbe 695a 033f b4fe 2bbf 10ed f03c
00000270: 2b7c 8b3c 4ceb 26bf 8ce5 86be e6a5 c8bd
00000280: 1f1e c93d d28e 0d3e c238 0bbf 1ef7 83bd
00000290: f099 00bf 135c cc3e 6e8b 14be 70bc 073e
000002a0: f61d 9c3d 3cde 31bf c812 16bf 14e7 f4be
000002b0: 7b89 bfbe 3807 a2be 56a5 bf3e 988a 1f3f
000002c0: 8ba4 c7be f704 5f3e 650f b3bd defd 0dbf
000002d0: d5f7 1cbe 7295 26bf 3aba 1a3f e362 9f3e
000002e0: c5e2 b93e 515c 56be f389 0dbf 4ef2 1abe
000002f0: 79d0 09bf 19f0 2e3f e890 2cbf 6904 f13d
00000300: 679c a93e f9e2 13bf d06c 08bf 9881 18bf
00000310: 4515 17bf acbf 87be 9d31 0abf 8dea 10bd
00000320: 5489 1abf b25b 2ebf 59f5 aebe 8474 063f
00000330: 67d7 9c3e 10f0 a3be 6ab1 e13e 6c05 0ebf
00000340: 25c3 a9be 7d69 c63e e78e 2d3f 77dd 2bbf
00000350: cce5 e23e c2b6 4cbe 5636 f7be 4739 9c3e
00000360: c5ed d4be 1560 7abe f812 f5bd a061 943e
00000370: fa04 853e 3063 29bf 315a 0dbf 1098 ee3e
00000380: dcf7 ad3e f385 b5be d5d5 353e 648a 103f
00000390: da79 8e3e 32e2 22bf 9f33 033f db1f b83e
000003a0: 05b1 9e3e 7fb3 873e 1417 113f a683 16bf
000003b0: cf4c f43e 498f 5b3e 68db 013f be98 923e
000003c0: 9de1 2bbf 243a 6cbc 81ae 1d3f ab35 4cbe
000003d0: 11c4 eb3d cdb4 1dbf fae4 1ebf eedd 86be
000003e0: 2ef6 2abf 204c a6bd 3794 09bf 2ec9 b43e
000003f0: 4085 e93e f826 863e 1c61 34bf b3c9 fb3e
-0.065023266 0.11872643 -0.38606718 0.5187366 -0.5854411 0.051514745 -0.18965602 -0.028819721
-0.6837119 0.49652115 0.02532349 0.5297672 -0.17828144 0.5484897 -0.091374 -0.3858068
-0.007999655 0.6014512 0.555141 -0.68792194 -0.20970337 -0.16200931 0.20874439 -0.23391792
0.03529365 0.5867259 0.034827143 0.377465 0.60723686 0.45412296 -0.50057846 -0.57613564
0.025842573 -0.6188417 -0.32677808 -0.6098305 -0.12395022 -0.24706393 -0.122239105 0.041238856
-0.5719831 -0.6052677 -0.44620234 -0.54822445 -0.017309992 0.29400018 -0.108411506 -0.009244072
0.31836453 0.030471206 0.094325036 -0.33313173 -0.40781868 0.4991316 0.6971412 0.51225
0.0831968 -0.12609302 -0.451807 -0.56455773 0.48759672 0.42800543 0.47860307 -0.4516665
0.229221 -0.6856616 0.64849615 0.006115078 0.31117293 -0.1551526 0.6600709 0.32441965
-0.6393515 -0.5769441 -0.15308692 0.08865339 -0.18937118 0.639995 -0.4177287 0.65369594
-0.27307823 0.29454508 0.62559825 0.4766168 0.021524917 -0.39342636 0.6441776 0.16157028
-0.16535485 -0.47154546 -0.472571 -0.33492824 0.42829165 -0.38992488 -0.70196503 0.28250912
0.24770269 -0.5968252 -0.34908348 0.05979298 0.30654687 0.036834124 -0.25895235 -0.41509226
-0.5103999 0.5158087 -0.15760101 -0.18408845 -0.63394666 -0.26969376 -0.2700018 0.32764545
-0.20905747 -0.16970293 -0.6574444 0.49763393 -0.12771313 0.45949122 0.69604963 0.6369979
-0.53498584 -0.18037985 0.48413673 0.6096531 0.052456405 -0.48507056 0.29009014 -0.48203814
0.5526103 -0.6907212 -0.5002267 0.11360259 0.44209126 -0.49134204 0.49193677 0.25050464
-0.35834426 -0.041751824 -0.6969901 0.08199998 0.05629278 0.22902668 -0.534052 -0.32670656
-0.2731864 0.4925309 0.6408857 0.18221915 -0.011005971 -0.2806458 0.31483307 0.32422328
-0.3667655 0.5130983 -0.6718552 0.029409915 0.017026981 -0.65202785 -0.26347005 -0.097972676
0.09820198 0.13824013 -0.5438348 -0.06443618 -0.5023489 0.39913997 -0.14506313 0.13255477
0.07622902 -0.6947973 -0.5862241 -0.4783255 -0.37409577 -0.31646132 0.3743083 0.6232085
-0.38992724 0.21779238 -0.08743171 -0.55465496 -0.15328915 -0.65071785 0.6044041 0.31130132
0.36305824 -0.20933653 -0.5528862 -0.15131494 -0.5383373 0.6833511 -0.6740861 0.11768419
0.33127138 -0.5776821 -0.53291035 -0.59572744 -0.5901683 -0.26513422 -0.53981954 -0.035379935
-0.60365796 -0.68108666 -0.3417156 0.5252154 0.3063309 -0.3201909 0.4408067 -0.55477023
-0.33156696 0.38752356 0.67796177 -0.67134804 0.44315946 -0.19991592 -0.48283643 0.3051245
-0.41587654 -0.24450715 -0.119665086 0.28980732 0.2598036 -0.66166973 -0.55215746 0.4660039
0.33978164 -0.35453758 0.17757352 0.5646117 0.2782734 -0.63626397 0.5125064 0.35961804
0.3099443 0.26504132 0.5667584 -0.5879463 0.4771485 0.21441378 0.5072541 0.28632158
-0.67141134 -0.014418159 0.61594397 -0.19942348 0.11512006 -0.61604005 -0.6206814 -0.26341194
-0.6678189 -0.081199884 -0.5374178 0.35309738 0.45609474 0.26201606 -0.7046068 0.49177322

decoders.0.decoder_net.0.bias f4 [512]
00000000: 0988 2bbf 1f4b f53e abd0 333f 7cfe 21bf
00000010: 0b9a dabe 6643 1dbf ee3b e4be 4d3b 6a3e
00000020: cb3f 2c3f c4bc 05bf 9b0f c5be d9d9 febe
00000030: 6210 ff3e 93e8 0c3f 3c19 febe a8eb 9dbe
00000040: 71b5 9dbe 7dcb f1be 4b35 fe3e 64da 12bf
00000050: 6dfd d03e ec08 09bf c9ee 0f3f b7c6 373e
00000060: 9311 c0be 0e17 f3be 3e79 1e3f f977 ad3e
00000070: 5324 8e3e c955 f1be 7722 e5bd 7bbc cabd
00000080: 68c8 763d 374d c13e af14 023f 9594 9cbc
00000090: c065 96bc 86f2 cabe 18cc 0ebe 93c5 953e
000000a0: 8893 bf3e e8f2 983d 31db e8be da5b 32bf
000000b0: 67af e1be 5d19 163f 7eb8 fe3e 88ef 0e3f
000000c0: 4bca a0bd 1ae7 913d fd4f dcbe d119 c83e
000000d0: af66 2b3f 06c5 a93d 4f2d 21be 697b 7f3e
000000e0: 7d9e 2f3f 4150 e73e 0964 05bf cbd5 be3e
000000f0: adc4 a7be 71cb 33bf 2a26 073e 4f77 edbe
00000100: 03be c2bd 4216 2cbc aebf 20be b2dd 183f
00000110: 55c8 003f 5608 df3d 2313 333f f737 b9be
00000120: cff7 ce3e 6179 debe 62a6 19bf 5fe6 50be
00000130: 9012 79be ab3b 16be 9880 79be 896e ee3e
00000140: 61af 39be e53e 04bf ce49 403e 2d65 1fbf
00000150: fde5 b2be d395 0b3f 76ed d33e 0753 8cbc
00000160: d6ff e0bc 6cac 2bbf e15e 14bf 703b 5bbd
00000170: 6773 993e a179 d23e 33b0 e83e 7eed 48bc
00000180: 1b24 de3e 19a7 28bf ff35 20bf 7684 d6bd
00000190: 25c1 183f 3e0b e6be 2faf 08bd 87b5 15bf
000001a0: ac67 c33e 2b0f b9be d9ee 27be 3d71 5bbd
000001b0: dfb1 e8bd 257c cbbc b5e5 8b3e 6a6f b73c
000001c0: e2bc 2b3f faaf 883e dc34 18bf 1ce0 16bf
000001d0: 4d39 dc3d bef8 183f 08a3 9bbe 2b71 08be
000001e0: d3cf 2e3e 277d e83d 8168 63bd 5511 2b3f
000001f0: 5f93 8cbe 08e8 063f 409b 1e3f 8031 abbe
00000200: 920f 073f 3ff2 1d3f 0082 06bf 1514 4dbe
00000210: 8e22 a63d 27c7 abbe a65f 263e ed04 48bd
00000220: 00cc 653e c8af 923e d13f 1bbf d9b8 ec3e
00000230: 249b 20bf e35f 4ebd 6d39 2abf 36a7 58be
00000240: 94d3 a3bc e16f e2be 19c8 bd3e c608 de3e
00000250: ee9f a3be a2de a8bd 3f25 6abb 2cb9 a0bc
00000260: b449 b0bd 697b 2b3f 9471 0fbf 02f5 b83e
00000270: ee90 25be 2a14 c53e 0609 bb3d 0dbf a7be
00000280: 636c 26bf 7dbb f33d d7e7 e73e aaa2 0d3f
00000290: b458 19bd c970 213f 04f9 c4be ac1d 4fbe
000002a0: e1ce fe3e e71b 833e 79ca 823e 6fea eabc
000002b0: 33b5 093f fad5 883e fd21 123f abb6 043f
000002c0: 0847 243f 5259 d3be c38b f93e 8824 883e
000002d0: b979 d3be f363 cebe 15f4 c83e c519 033f
000002e0: 3f5d 133d 1858 dabe a4b3 ed3e 42e0 06bf
000002f0: f848 12bf 3a9d a0bc 890c 0ebd c963 21bf
00000300: b833 093f ab80 213f 0d53 bc3e d7cc a13e
00000310: b6ad 01bf 380d 6cbe 7041 61bd 21cb 273f
00000320: 13e8 293f d1bd c93e 62f5 42be 44c8 e43e
00000330: 9f48 a03c 3782 05bf b803 abbe b5cb 2abf
00000340: 9cbe e73e d68f f9be 54b6 20bf bf8c a2be
00000350: 6014 06bf 0f91 a0bc 5421 95be 3d4e 9cbe
00000360: 44cf 33be 3b02 dabe 9892 b7be 6bee c23e
00000370: dcb7 e4be fa52 22be fcab 1a3c 9cfd 97be
00000380: 06ef 913e 873d f83e 082c cbbe 9d1f b23e
00000390: 3303 2f3e e9c9 2bbe d0c1 2ebe e83c 57be
000003a0: 137b 093f 8a1a d13e 8033 323e ee59 08bf
000003b0: 0084 95be 0e81 06be 88bf c03a 1c45 96be
000003c0: 0d58 133d 8ebc 3bbe 614b ddbd 7b10 15bf
000003d0: c905 dcbe fc08 2b3f 73ba 76be a0ea a8be
000003e0: 68b3 b3be 3787 f53e 4f78 cfbe 972c acbe
000003f0: eef4 a43e eaee 923e 2b6e 003e 0b14 2e3f
-0.6700445 0.47908875 0.7024028 -0.6327894 -0.4269565 -0.61430967 -0.44576973 0.22874184
0.6728484 -0.5224116 -0.3848847 -0.4977558 0.49817187 0.5504238 -0.49628627 -0.30843854
-0.3080249 -0.47225562 0.49650034 -0.5736449 0.4081835 -0.5352924 0.5622373 0.17946897
-0.37513408 -0.47478527 0.6190375 0.33880594 0.27762088 -0.4713576 -0.11188214 -0.09899231
0.060249716 0.37754223 0.5081281 -0.019113818 -0.018359065 -0.39638156 -0.13945043 0.292523
0.37417245 0.07468206 -0.4547973 -0.69671404 -0.44079134 0.5863245 0.4975013 0.55834246
-0.07851084 0.07124157 -0.43029776 0.39082196 0.6695356 0.08289532 -0.1573994 0.24949421
0.6860121 0.45178416 -0.52105767 0.37272486 -0.3276724 -0.702323 0.13198152 -0.46380088
-0.09508898 -0.010503354 -0.1569812 0.5971328 0.5030568 0.10890262 0.69951075 -0.3617551
0.40423438 -0.4345198 -0.60019505 -0.2040038 -0.24323487 -0.14671199 -0.24365461 0.46568707
-0.18133308 -0.5165847 0.18778154 -0.62263757 -0.34941092 0.5452549 0.41392106 -0.017129434
-0.027465742 -0.6705997 -0.57957274 -0.05352348 0.29970858 0.4110842 0.4544693 -0.012263654
0.4338692 -0.6587997 -0.6258239 -0.10474484 0.59669715 -0.44930452 -0.033370193 -0.58480114
0.38165033 -0.36144385 -0.16399707 -0.05357479 -0.11362051 -0.02483947 0.2732369 0.022391994
0.6708509 0.2669676 -0.59455657 -0.58935714 0.10753117 0.5975455 -0.3039782 -0.1332442
0.17071466 0.11351996 -0.055519585 0.6682332 -0.27456185 0.526978 0.6195564 -0.33436203
0.52758133 0.61697763 -0.52542114 -0.20027192 0.081120595 -0.3355038 0.16247424 -0.048832823
0.22441101 0.28649735 -0.6064425 0.46234778 -0.62736726 -0.050384413 -0.66493875 -0.21157536
-0.01999835 -0.44225982 0.37066725 0.4336607 -0.31957954 -0.08245589 -0.0035727767 -0.019619547
-0.08607808 0.66985184 -0.5603268 0.36124426 -0.16168568 0.38491946 0.091325805 -0.32762948
-0.65009135 0.11900995 0.45294067 0.5532633 -0.03743811 0.6306272 -0.38471234 -0.20226163
0.4976721 0.25607225 0.255451 -0.02867624 0.53792113 0.2672575 0.5708311 0.5184123
0.64170885 -0.41279083 0.48739442 0.2659037 -0.41303805 -0.4031063 0.3924872 0.51211196
0.0359776 -0.42645335 0.46426117 -0.5268594 -0.5714259 -0.019606221 -0.034679923 -0.63042885
0.5359454 0.63086957 0.36782113 0.31601593 -0.50655687 -0.23051918 -0.054994047 0.65544325
0.6636974 0.3940263 -0.19038919 0.4468404 0.019565878 -0.5215182 -0.33401275 -0.6671708
0.4526261 -0.4874255 -0.6277821 -0.31748006 -0.5237484 -0.01960042 -0.2912699 -0.3052844
-0.17559534 -0.42579827 -0.3585403 0.38072523 -0.44671524 -0.15851966 0.009440418 -0.29685676
0.28502673 0.48484442 -0.3968203 0.34789744 0.17091064 -0.16776241 -0.17066121 -0.21019328
0.5370342 0.4084056 0.17402458 -0.5326222 -0.2920227 -0.13135168 0.0014705518 -0.293496
0.035972644 -0.18333647 -0.10805393 -0.5822827 -0.42973164 0.66810584 -0.24094562 -0.32991505
-0.35097814 0.47954723 -0.40521476 -0.3362777 0.32218117 0.28697902 0.12542026 0.67999333

decoders.0.decoder_net.3.weight f4 [32]
00000000: ffaa 813f e41e 813f 270a 813f 5e80 7d3f
00000010: 2e8b 7e3f 917e 7d3f de39 7e3f 2a18 803f
00000020: d0b1 7e3f 4100 7d3f 3fc9 7c3f 3ec7 7f3f
00000030: 45c9 813f 90cd 7d3f d2cd 7d3f 77ca 813f
00000040: 5d64 813f 337b 813f ee3c 7e3f 0425 7e3f
00000050: 53c3 813f b8e8 7c3f d5c5 803f c1b2 813f
00000060: 976d 7c3f e3ac 7c3f 5411 803f 40c1 7f3f
00000070: 24ee 7d3f cb1f 813f da35 7d3f da2b 803f
1.0130309 1.0087552 1.0081223 0.99024 0.9943112 0.9902125 0.9930705 1.0007374
0.9949007 0.9882851 0.9874458 0.99913394 1.0139548 0.9914179 0.9914218 1.0139912
1.0108753 1.0115722 0.9931172 0.9927523 1.0137733 0.987926 1.0060374 1.0132676
0.9860472 0.98701304 1.0005288 0.9990425 0.991915 1.0087827 0.98910296 1.0013382

decoders.0.decoder_net.3.bias f4 [32]
00000000: 25b1 60bb 21b4 093c 9a3a 6e3c def4 d4bb
00000010: 635a 51bc fe29 66bc dc27 13bb c9d4 3d3c
00000020: e6be 283c 3b85 393b 1f01 18bb da54 02bc
00000030: ea3e 5f3c 3d45 e13b 837f 2e3c 2af0 37bc
00000040: 530a 57bc e183 1dbc 0789 5d3c cebd c33b
00000050: cd88 ea3a 3fe4 20bc 493d 1fbc 9ff3 6cbc
00000060: 86b9 57bc cf91 4fbc 4959 9f3b 35cc 1b3c
00000070: 2c19 4c3c d439 16bc 44a0 3abc 3bea 5b3c
-0.0034285274 0.0084047625 0.014540339 -0.006498917 -0.0127778975 -0.014048098 -0.0022454178 0.0115863765
0.01029942 0.0028308171 -0.0023194028 -0.0079548005 0.01362584 0.006874709 0.010650518 -0.011226693
-0.01312502 -0.009613962 0.013521439 0.005973554 0.0017893553 -0.009820043 -0.009719201 -0.014462381
-0.013166791 -0.012669041 0.0048629385 0.009509136 0.012457173 -0.009169061 -0.011390749 0.013422544

decoders.0.decoder_net.3.running_mean f4 [32]
00000000: 0b90 503e 0b90 503e 0b90 503e 0b90 503e
00000010: 0b90 503e 0b90 503e 0b90 503e 0b90 503e
00000020: 0b90 503e 0b90 503e 0b90 503e 0b90 503e
00000030: 0b90 503e 0b90 503e 0b90 503e 0b90 503e
00000040: 0b90 503e 0b90 503e 0b90 503e 0b90 503e
00000050: 0b90 503e 0b90 503e 0b90 503e 0b90 503e
00000060: 0b90 503e 0b90 503e 0b90 503e 0b90 503e
00000070: 0b90 503e 0b90 503e 0b90 503e 0b90 503e
0.20367448 0.20367448 0.20367448 0.20367448 0.20367448 0.20367448 0.20367448 0.20367448
0.20367448 0.20367448 0.20367448 0.20367448 0.20367448 0.20367448 0.20367448 0.20367448
0.20367448 0.20367448 0.20367448 0.20367448 0.20367448 0.20367448 0.20367448 0.20367448
0.20367448 0.20367448 0.20367448 0.20367448 0.20367448 0.20367448 0.20367448 0.20367448

decoders.0.decoder_net.3.running_var f4 [32]
00000000: 4854 5c3e cb2c 613e ef32 5e3e cd5b 683e
00000010: f7ab 693e dbf5 543e f903 5e3e a310 5e3e
00000020: 81ce 5a3e fb9b 563e 611e 663e c997 683e
00000030: 4da3 603e 8012 583e 2bb8 5b3e 28f4 673e
00000040: c62a 6a3e 6ff7 653e 53f4 6c3e edce 643e
00000050: 82f6 693e bf23 653e f598 6a3e 8e23 6e3e
00000060: 2880 593e ca32 573e 7431 6e3e da6d 543e
00000070: 65f7 703e 8fb8 5e3e 3a7e 533e 81dd 553e
0.21516526 0.21989743 0.21699117 0.22691269 0.22819506 0.20796911 0.21681203 0.21686034
0.21367837 0.2095794 0.22472526 0.22714151 0.21937294 0.21100807 0.21456973 0.22651732
0.2286788 0.2245767 0.23140077 0.22344561 0.22847942 0.22376917 0.22909911 0.2325575
0.21240294 0.21015468 0.23261052 0.2074503 0.23531874 0.21750091 0.2065362 0.20885278

decoders.0.decoder_net.4.weight f4 [32, 32, 3, 3]
00000000: 786d 80bc 6172 1f3d a203 a13c 81f3 7cbc
00000010: 46f6 ef3a 5880 6dbd b033 1d3c 2c29 9bbb
00000020: eaac 31bd 1f6f f43c c92c 413d aa8e fabc
00000030: 7346 f7bc cf0f 08bd 80ee 153d a635 433c
00000040: 10d6 9f3c e42f ebbb d829 a63a 8b14 b3bb
00000050: b415 ec39 f789 95bc c37d a3bc cca9 293d
00000060: a9fa 313d f03e 27bd 2774 a5bb bf10 5dbd
00000070: 9c4c 3dbc 5d1e 4abd e7f2 34bd 5d5d dcbb
00000080: 87f1 473d e607 86bb 2abb a4bc 0827 cbbc
00000090: 8d39 763d 5c28 24bd a6f5 a9bc 8204 183d
000000a0: 9cd7 693d 513b 5cba b320 c53c a8a7 be3c
000000b0: 763a 41bd e50c 103b edea 4b3d 0624 693d
000000c0: 0adc 073d beb4 d53b 93bc acbc 8cb3 8dbc
000000d0: 36ba 56bd 6d41 9dbc 514d 3cbb ef1e 91bc
000000e0: 7c54 103d 120a 8abc 8c74 84bd 4038 67bd
000000f0: e8e7 efbc a74b 543d 45ac c03c 7731 d1bc
00000100: dae3 a4bc 147a a43a 8fcd ddbc 2652 f6bc
00000110: d909 63bd 6217 71bd 0e0a 68bd 5ed6 4ebd
00000120: c10e 3fbd a2e3 e5bb 8a5a 44b9 129e 193d
00000130: fa4f 7abd 8833 ff3c b533 a63b 71f0 0cbc
00000140: a4b4 02bd afcf 613c 3120 643d 128c be3c
00000150: 8806 8e3d 240b f4bc 7851 4a3d 79e0 3e3c
00000160: 718b 1f3d 4ed6 6c3d a9ed dfbc a586 f93c
00000170: 1b68 463b 8d94 0fbd 1a62 01bd 0a81 013d
00000180: b024 bb3b 7b04 5ebc e03b dc3c 0cfd 393d
00000190: f088 aebb 8081 033d 6634 9fbc e144 473d
000001a0: 90e0 eebc 9f32 233d ee02 a13c 5dc8 a3bc
000001b0: ad07 873c 629b 283d 8458 9cbc fb04 a93c
000001c0: 8550 6cbd 66a1 383d bc32 403d 49b1 673d
000001d0: d812 0a3d 3a3c 9cbc e4b4 053d 7358 57bd
000001e0: 90af 233d 7786 983c f7c2 19bd 0e48 da3c
000001f0: 3f2f 233d 6647 233d 024f a2bc e29a c6bb
00000200: 2000 833c 3117 783c 7a8c 2dbd 66d0 e73c
00000210: 1f4f 0e3d b932 16bd b788 59bd 35e8 a8bb
00000220: e1e1 2dbd 2814 f13c 5486 663c 255a 9c3c
00000230: 8122 21bc 52ce 333c b6a0 e0b9 8541 893d
00000240: 1626 fbba d22a 22bd b3c8 ae3c 7fb6 47bd
00000250: 6220 7dbd acb6 5f3c 7b7f 0f3d d953 8fba
00000260: 1d23 e5ba 8b70 373d 16c4 c9bb b544 65bd
00000270: aaf2 fb3c 10f0 0a3d fff3 793c 6a40 e6bb
00000280: 83e3 de3b 9693 2a3d 2fb9 1cbd 00ef 4cbd
00000290: 8f99 4d3d f492 59bd cceb 6cbd 0cb6 413d
000002a0: e611 cfbc 8573 f73c efb6 2c3d fd95 37bd
000002b0: 451f f7ba ced4 fc3c e961 363d 693b 23bd
000002c0: c76e a8bb 6139 133d 1726 54bd 014c 663c
000002d0: 48c2 89bd dde0 40bd 7b6b 213d 2531 02bd
000002e0: 9cee 41bd af2d 833d 0f74 323d 6968 edbc
000002f0: c771 e13c 9f91 d4bc 5dee 6abd 2348 debc
00000300: ac33 46ba fdca 043c d908 863c 467b de3c
00000310: aa62 213c dd18 b5bc 4dcf 8abd 9d3c b4bc
00000320: 64d7 1f3d 54a1 513d e15f 433d 189c c2bc
00000330: 5947 32bd 3eaf 133b 136a 30bd 5999 3bbc
00000340: 5796 17bd 3adf 173d da1e 663c 4284 273d
00000350: ea46 41bd c220 613d 1dcb 103c 4787 653d
00000360: be1a 5abd f9f3 7f3b 10b6 81bd 603a 05bc
00000370: 4522 1fbc 572f 24bc 29d0 30bd 29e8 8cbc
00000380: 6bcb 96bb 001d 3d3b 496b 3c3d d08a 353d
00000390: 2c9c 653c 4206 d03c 531b 433d 4a83 473c
000003a0: 2144 f3bb 0592 27bb b9cc 293c 4441 9c3c
000003b0: 9738 0ebc 15cf 25bd 8dae d7bc d7b5 4dbd
000003c0: cae2 643c c0e4 333d 6ddd 89bd 7663 0f3c
000003d0: 687f 40bd 5b4b 8c3d b025 2abd 01e3 f5bc
000003e0: a7f7 8abc 51cd c1bc e237 42bc cab0 c8bc
000003f0: 833f 03bd 8d2d 663d d51c c93c 2fc8 21bc
-0.015677199 0.03892744 0.019655053 -0.015438915 0.0018307648 -0.057983726 0.009594843 -0.0047351327
-0.043377794 0.029838143 0.04716185 -0.030585606 -0.03018496 -0.0332182 0.036604404 0.011914646
0.019511253 -0.00717734 0.0012677265 -0.0054650954 0.00045029598 -0.018254263 -0.019957429 0.041421697
0.04345194 -0.040831506 -0.005049247 -0.05397105 -0.01155391 -0.049345363 -0.044176962 -0.006724997
0.048814323 -0.004090297 -0.020108778 -0.024798885 0.06011348 -0.040077552 -0.020747017 0.037113674
0.057090387 -0.0008401173 0.024063444 0.023273304 -0.047174893 0.0021980342 0.04978459 0.05691912
0.03316883 0.0065217903 -0.021086013 -0.017297529 -0.05242368 -0.019196237 -0.0028732608 -0.017714946
0.03523682 -0.016850505 -0.06467542 -0.05645013 -0.029285386 0.05182996 0.023519645 -0.025536282
-0.02012818 0.0012548589 -0.027075557 -0.030068468 -0.055429313 -0.05886019 -0.056650214 -0.050497405
-0.04664493 -0.0070156613 -0.00018725745 0.037504263 -0.061111428 0.031152502 0.005072082 -0.008602248
-0.031910554 0.013782426 0.055694763 0.02326015 0.069348395 -0.029790469 0.0493941 0.011650198
0.03895134 0.057821564 -0.027335005 0.030459711 0.0030274454 -0.03505378 -0.031587698 0.031617202
0.0057111606 -0.013550873 0.02688402 0.04540734 -0.005326383 0.032105923 -0.019434165 0.048649672
-0.029159814 0.039843198 0.019654717 -0.019993002 0.016483152 0.04116381 -0.019085176 0.020632258
-0.057693977 0.045075797 0.046923384 0.056565557 0.033709377 -0.019071687 0.032643214 -0.052574586
0.03996235 0.018618805 -0.03753945 0.026645686 0.03983998 0.039863013 -0.019813064 -0.006060944
0.01599127 0.015142248 -0.042370297 0.028297614 0.034743425 -0.036669467 -0.053108897 -0.0051546344
-0.042451743 0.029428557 0.014070112 0.019085953 -0.0098348865 0.010974484 -0.00042844348 0.0670195
-0.0019161131 -0.039591618 0.021335935 -0.048758026 -0.06179846 0.013654392 0.035033684 -0.0010935023
-0.0017481778 0.044785064 -0.0061574085 -0.055973727 0.03075536 0.033920348 0.015255927 -0.0070267217
0.006802024 0.041644655 -0.038262542 -0.050032616 0.050195273 -0.05311866 -0.05784206 0.047292754
-0.02527709 0.030206451 0.042166647 -0.044820774 -0.0018853924 0.030863192 0.04452697 -0.03985158
-0.005140159 0.035943393 -0.051794138 0.014056207 -0.06726509 -0.047089446 0.039409142 -0.03178515
-0.047346696 0.06405198 0.043567713 -0.02898045 0.027520074 -0.025948344 -0.057356227 -0.027134007
-0.00075608003 0.008105037 0.01636164 0.02715839 0.0098501835 -0.022106582 -0.06777821 -0.022001559
0.039023772 0.051179245 0.04769886 -0.023756072 -0.043525074 0.0022534872 -0.04306991 -0.011450135
-0.03700861 0.03707812 0.0140454415 0.040897615 -0.04718677 0.05496288 0.0088374885 0.056037214
-0.05324816 0.003905533 -0.06333554 -0.0081315935 -0.00971276 -0.010021052 -0.043167267 -0.017200546
-0.004601886 0.0028856397 0.046000753 0.044321835 0.014014285 0.025393609 0.04763348 0.012177298
-0.007423893 -0.0025569212 0.010363751 0.01907409 -0.008680484 -0.040480692 -0.02632835 -0.050222244
0.013970086 0.043919325 -0.06731687 0.008751741 -0.046996504 0.068503104 -0.041539848 -0.03001547
-0.016963793 -0.023657473 -0.011854144 -0.024498362 -0.03204299 0.056195784 0.024549881 -0.009874388

decoders.0.decoder_net.4.bias f4 [32]
00000000: f1b1 7ebc 9e46 31bd aebf 31bc b132 47bb
00000010: 14ef 52bc 22cc 6dbd 3883 87bc 2c30 60bc
00000020: ffb7 63bd c0c1 8b3c 7b98 2d3d 5a3f 40bd
00000030: 30f4 353d ecde 3a3d c979 ea3c 68e0 33bd
00000040: 5e69 293d f7b5 c5bc 5275 1cbd b205 5f3d
00000050: d356 cc3c c24e a33b 9485 cf3c f8f0 a33c
00000060: 99c6 5ebc 2045 53bd f2c3 553d 43d6 fb3c
00000070: 68a4 e03c 94d5 e5bc 0355 d93c d705 70bd
-0.015545354 -0.043280236 -0.010848923 -0.0030395205 -0.0128743835 -0.058056004 -0.016542062 -0.01368336
-0.055595394 0.01706016 0.042381745 -0.046935417 0.04442233 0.04562275 0.028622525 -0.043915182
0.04136025 -0.02413462 -0.038197823 0.05444879 0.024943745 0.004983754 0.02533225 0.020012364
-0.013597154 -0.051579595 0.05218882 0.030741816 0.027422145 -0.028055944 0.026529795 -0.05859932

decoders.0.decoder_net.6.weight f4 [32]
00000000: f4ba 803f 1f77 7d3f fa9d 7c3f ec79 813f
00000010: 9b4c 7f3f dd47 813f 63b0 7c3f 43ba 7c3f
00000020: b07b 7e3f d5ac 7c3f bad3 7c3f 7435 7c3f
00000030: 1842 813f 1a76 7c3f 2791 7f3f 4c26 803f
00000040: 7acb 803f 0c7f 7d3f b34a 803f 3e04 813f
00000050: 5b36 803f 9c9a 813f 0168 813f 2cbe 803f
00000060: ab98 813f 4259 813f 314a 813f f94e 7c3f
00000070: 392b 813f 8228 7e3f 3e78 7c3f d5d7 803f
1.0057054 0.9900989 0.98678553 1.0115333 0.99726266 1.0100056 0.98706645 0.9872171
0.9940748 0.9870122 0.9876057 0.98519063 1.0098295 0.9861771 0.9983086 1.0011687
1.0062096 0.99021983 1.0022796 1.007942 1.0016588 1.0125308 1.0109864 1.0058036
1.0124716 1.0105364 1.0100766 0.98558 1.0091316 0.9928056 0.98620975 1.0065867

decoders.0.decoder_net.6.bias f4 [32]
00000000: 729f 4b3c c8f4 69bc 2071 52bc d793 583c
00000010: 5d0a 193c 570a 7a3c 54b6 36bc d8d1 753c
00000020: aadd b6bb 4c2f 1abc 5365 23bc 12bf ddba
00000030: f6b1 2d3c e4d7 63bc 56e6 23bc 1ea9 4dbc
00000040: ce69 4b3c 5377 303c ec06 7a3c 4ea1 2cbc
00000050: a996 803b d6b7 213c 04b6 693c 793c 603c
00000060: f1f8 1c3c fe49 5bbc 3cc7 bdbb c452 ae39
00000070: c6ad 573c cbbe 363c 7a33 54bc 3eac 2abc
0.012428151 -0.014279552 -0.012844354 0.0132188415 0.00934085 0.015261254 -0.011151869 0.015003644
-0.0055806236 -0.0094106905 -0.009972888 -0.0016917905 0.010601511 -0.013906453 -0.010003647 -0.012552528
0.0124153625 0.010770637 0.015260439 -0.010536505 0.00392421 0.00987049 0.014264587 0.013686293
0.009580837 -0.01338434 -0.005791573 0.0003324953 0.013163989 0.011153887 -0.012951726 -0.010417042

decoders.0.decoder_net.6.running_mean f4 [32]
00000000: 795b ee3d 795b ee3d 795b ee3d 795b ee3d
00000010: 795b ee3d 795b ee3d 795b ee3d 795b ee3d
00000020: 795b ee3d 795b ee3d 795b ee3d 795b ee3d
00000030: 795b ee3d 795b ee3d 795b ee3d 795b ee3d
00000040: 795b ee3d 795b ee3d 795b ee3d 795b ee3d
00000050: 795b ee3d 795b ee3d 795b ee3d 795b ee3d
00000060: 795b ee3d 795b ee3d 795b ee3d 795b ee3d
00000070: 795b ee3d 795b ee3d 795b ee3d 795b ee3d
0.11638541 0.11638541 0.11638541 0.11638541 0.11638541 0.11638541 0.11638541 0.11638541
0.11638541 0.11638541 0.11638541 0.11638541 0.11638541 0.11638541 0.11638541 0.11638541
0.11638541 0.11638541 0.11638541 0.11638541 0.11638541 0.11638541 0.11638541 0.11638541
0.11638541 0.11638541 0.11638541 0.11638541 0.11638541 0.11638541 0.11638541 0.11638541

decoders.0.decoder_net.6.running_var f4 [32]
00000000: faa9 3f3e 1132 3f3e 6931 3f3e 803f 3f3e
00000010: 0d30 3f3e 2e28 3f3e f5ab 3e3e 8778 3f3e
00000020: 7d01 3f3e 15be 3f3e 9098 3e3e 56d7 3e3e
00000030: bbfb 3e3e cf3b 3f3e f151 3f3e 13c1 3f3e
00000040: 158b 3f3e 4bf4 3e3e 6059 3f3e ed5b 3f3e
00000050: 966d 3f3e 1c1f 3f3e e4cb 3e3e ad37 3f3e
00000060: be6b 3f3e 774e 3f3e 05fe 3e3e a58b 3f3e
00000070: f254 3f3e fb3e 3f3e 650d 3f3e 56c5 3f3e
0.18717185 0.18671443 0.18671192 0.18676567 0.18670674 0.18667671 0.18620284 0.18698321
0.18652911 0.18724854 0.18612885 0.18636832 0.18650715 0.18675159 0.18683602 0.18725996
0.187054 0.18647878 0.18686438 0.1868741 0.18694147 0.18664211 0.18632466 0.18673582
0.18693444 0.18682276 0.18651588 0.18705614 0.18684748 0.18676369 0.18657453 0.18727621

decoders.0.decoder_net.7.weight f4 [32, 16, 3, 3]
00000000: f112 403d af4a 7bbd ff34 c3bc 8466 8d3d
00000010: fb55 a23c 4626 be3c b120 34bd 8504 b53d
00000020: 123b 87bd c5a4 083d c5a8 6ebd 396e 90bd
00000030: 9142 13bd 142c d13c 945e 98bd a1bd 69bd
00000040: 834b ae3c 704e 2bbd e724 68bd 1b41 52bd
00000050: 62cc 89bd dc1b b2bc 8b67 ab3c 0d86 99bd
00000060: 76cb 06bb da94 b3bc febc 42bc 146e 9fbd
00000070: 3eef 123d 4e95 3f3d efb4 92bd 96a6 82bd
00000080: 87b5 5fbd 7687 35bd bfe3 29bb db49 153c
00000090: c4d6 78bd 506a 953d f614 723d 7a34 d63a
000000a0: b668 eebc f77f 20bd 46d6 613d 164a 403c
000000b0: 0d6d 023d 7cee 4d3d 7859 213d ce8b 573c
000000c0: 589e 893b d90d bb3d 0b3e 853d 32e4 84bd
000000d0: df5a b83d 4c1a e53c 878f 22bd 5e86 6fbd
000000e0: ad2b 3cbc be1f 80bb b721 fe3c 070c 39bd
000000f0: b661 793d e7ea 9e3d 460d 8fbd 7434 94bc
00000100: 6790 85bd 32e1 9bbd db20 bcbb 277c a8bd
00000110: 16a5 b03c 36f8 f5bc 68b2 9dbd 38a9 c1bc
00000120: 6b34 bcbb cf6a 993d ebb7 9abd 34d3 32bc
00000130: 7133 253c 7f71 fbbc 9e26 303d e2f9 733d
00000140: e703 d13a 773e d73c bacb 83bc 9182 ffbc
00000150: 1f39 b93c aaf3 11bd 0ecc 62bd 1a37 60bd
00000160: 1370 31bb ea5b 123d d601 9d3d 5396 87bd
00000170: aba5 0ebd 9541 17bd 9d30 28bd 5259 1f3d
00000180: a485 cf3b 7308 a53d a074 963d 2043 b03d
00000190: 6050 973c 509b e43c 4de0 c23c c178 2b3c
000001a0: a63a 1b3b b8de 42bd 83dd b7bd d973 75bd
000001b0: dce3 58bd f777 6cbd eebe 07bd c866 0cbd
000001c0: 381e 823d ab8c f3bc 4c91 80bd 09fd 2bbd
000001d0: 4e4c 2e3d 05c8 0a3d dee6 89bd b632 a83d
000001e0: 67ea e9ba fb3b 3e3d 7067 913d f4c2 723d
000001f0: de4e d4bc 18d1 b53d 737c 0dbd d005 303b
00000200: 50b4 8a3d c230 903c dda0 05bc 96e6 7dbc
00000210: 348e 9bb9 e310 2c3d fc27 913d e47f bbbd
00000220: f70d 6a3d ed4d db3c 95e2 e53c 0663 68bd
00000230: 478f b43c 1738 203d c9e6 243d f1ee 7e3d
00000240: 538b 213d 5a41 243d 2493 903d 5f48 633d
00000250: 6826 133d 9dec 933c ce9b 9f3d 01ef b5bb
00000260: 9ec0 953d ac31 21bd 3649 153c e001 0b3d
00000270: 0d38 b03d 7b5a 74bd 2980 35bd cf7c 9b3c
00000280: c166 823d 24ca 5d3b 84e5 bfbd 5037 443d
00000290: 7ee9 85bd 6e7b fabb 74d6 70bd f683 993d
000002a0: a3e5 45bc 84d0 223c 759a a7bd 2305 943d
000002b0: 261f 8ebd 7899 96bd 5e25 83bd f4c3 5b3d
000002c0: 5065 be3d 4468 94bd e2a1 84bd 5a9c ae3d
000002d0: 8d5e 41ba 3d4a cdbb afac a7bd eae4 193d
000002e0: 8379 b83d 666b 8b3d 2e36 05bc c54c a0bd
000002f0: cd29 d33c 78be 8cbd 0954 fc3b 16be b83d
00000300: 56c2 483b c6b8 0e3d 8329 b83d 6744 cf3c
00000310: 5e67 643d a10a 793d b3fa 39bd aa5e 3cbd
00000320: 7445 9a3d 5498 653d c388 ffbc 9259 773d
00000330: 4c93 563c d9d8 f03b 6242 27bc eee4 8f3d
00000340: cda6 99bd 137a 123d 50ae a4bc ecec b2bd
00000350: 12a8 1e3c 753c 3cbc ea2b 8e3d 0ff6 3a3d
00000360: 5924 9f3d a924 a33d 8c87 18bc 60ba 82bd
00000370: 51e9 30bd 825c 8d3c 9783 6fbd 34d0 59bd
00000380: 69ab 4a3d 820d 89bd e355 46bd 387b cbbc
00000390: d976 eb3c 69d2 903d 9a1e 84bd c82b a5bd
000003a0: 50d0 91bd 6f7d 103d a994 e5bc c096 9fbb
000003b0: 0931 343d a205 ce3c c244 493c e986 55bd
000003c0: a76f 1b3b 5472 8f3d a428 9cbc 3fc3 843c
000003d0: a0bd 9e3b 74c3 9b3c 08e9 943d 7e7b 01bb
000003e0: ea1d 23bd e350 9bbd fe75 16bd 3d07 713d
000003f0: 6614 86bd 9bc4 bd3c ae4e 863d cbfa 82bc
0.046893064 -0.06135052 -0.023828981 0.06904319 0.01981639 0.02321161 -0.04397649 0.08838753
-0.06603064 0.03336026 -0.05826642 -0.07052273 -0.035952155 0.025533713 -0.07439914 -0.05706561
0.021276241 -0.04182285 -0.056675818 -0.05133162 -0.06728436 -0.0217418 0.020923397 -0.07496271
-0.002056805 -0.021921564 -0.01188588 -0.077846676 0.03587269 0.046773247 -0.071634166 -0.0637943
-0.054616477 -0.04431864 -0.00259231 0.009111847 -0.06075169 0.07295668 0.05910202 0.0016342544
-0.029102664 -0.039184537 0.055135988 0.011736413 0.03184228 0.050276265 0.039391965 0.013155891
0.0041997842 0.091335006 0.065059744 -0.06488837 0.09001707 0.02796664 -0.03968766 -0.058477752
-0.0114850225 -0.003910034 0.031021936 -0.045177486 0.0608842 0.07759648 -0.069849536 -0.018091418
-0.06521683 -0.07611312 -0.0057412214 -0.08226805 0.021563094 -0.030025583 -0.07700044 -0.02364026
-0.0057435534 0.07491075 -0.07554611 -0.010914613 0.010083065 -0.030693768 0.04300558 0.05956448
0.0015946598 0.026274903 -0.016088355 -0.031190189 0.022610245 -0.035632767 -0.055370383 -0.05474005
-0.0027074858 0.035732187 0.07666366 -0.06620469 -0.034825962 -0.03692778 -0.041061986 0.038903542
0.00633307 0.08058252 0.07346463 0.08606553 0.018470943 0.02790609 0.023788596 0.010465802
0.002368608 -0.047575682 -0.08977797 -0.059924934 -0.05295168 -0.057731595 -0.03314107 -0.034277707
0.0635342 -0.029730162 -0.06277713 -0.04198936 0.04255324 0.03388216 -0.067334875 0.08212797
-0.0017846347 0.04644392 0.07099807 0.059267953 -0.025916513 0.08877772 -0.034542512 0.0026858933
0.06772673 0.017601375 -0.008156029 -0.0154968705 -0.00029669853 0.042008292 0.070877045 -0.091552526
0.057142224 0.026770556 0.028062144 -0.05673506 0.022040976 0.03911599 0.040259156 0.06223959
0.03943951 0.040101387 0.07059315 0.05548894 0.0359253 0.018057162 0.07793389 -0.005552173
0.073121294 -0.03935401 0.009111693 0.033937335 0.08604441 -0.0596566 -0.044311676 0.018980412
0.06367255 0.003384241 -0.093699485 0.047904313 -0.06538676 -0.0076441085 -0.05879827 0.07495873
-0.012078675 0.009937409 -0.08183757 0.07227542 -0.06939535 -0.073534906 -0.064036116 0.053653672
0.092966676 -0.072464496 -0.06476189 0.085259154 -0.0007376455 -0.0062649534 -0.08187234 0.037571825
0.090075515 0.06807594 -0.008130593 -0.078271426 0.025776768 -0.068722665 0.0077004475 0.09020631
0.0030633411 0.034844182 0.08992293 0.025301171 0.05576264 0.060801152 -0.0454051 -0.045988716
0.075327784 0.056053475 -0.031193143 0.060388155 0.013096642 0.007350069 -0.010208698 0.07026087
-0.07502518 0.03576095 -0.02010265 -0.087365955 0.009683626 -0.011489023 0.0694197 0.045644816
0.07770605 0.07965977 -0.009309661 -0.063832045 -0.043191258 0.017256025 -0.058475103 -0.053177074
0.049479876 -0.066920295 -0.04842175 -0.024839029 0.028743194 0.070713826 -0.06451149 -0.08064991
-0.071198106 0.035275873 -0.028024988 -0.0048702657 0.043992076 0.02514917 0.01228446 -0.052130613
0.0023717673 0.07004228 -0.019062348 0.016206382 0.0048443824 0.019014098 0.0727101 -0.0019757445
-0.03982345 -0.07583787 -0.03673362 0.058844794 -0.065468594 0.023165038 0.06557976 -0.015988728

decoders.0.decoder_net.7.bias f4 [16]
00000000: 4ebf 13bd c7c7 a13d 43c6 84bd 64ab 9cbd
00000010: 6d26 293b 40ee 483d a316 973d e69b 543d
00000020: d906 4bbd c441 5bbd cf49 833d 707d b63d
00000030: 75a6 04bc ff1d 16bd f61d 95bd 673f 0abb
-0.036071114 0.07899433 -0.06483128 -0.07649878 0.0025810257 0.049055338 0.073773645 0.05190649
-0.049567077 -0.053529516 0.06410562 0.08910644 -0.008096327 -0.0366497 -0.07281105 -0.002109492

decoders.0.decoder_net.9.weight f4 [16]
00000000: b8c7 7c3f 5ca6 7c3f 6497 7c3f 08b4 7c3f
00000010: 319a 7c3f c3bf 7d3f 9dda 7c3f 2c8e 7c3f
00000020: f970 7c3f bdd8 7c3f 4dc3 7c3f 7eaa 7c3f
00000030: 4c88 7c3f e01c 7d3f 6bfa 7c3f e81b 7d3f
0.98742247 0.98691344 0.98668504 0.98712206 0.9867278 0.9912073 0.9877108 0.9865444
0.9860988 0.98768216 0.98735505 0.9869765 0.9864547 0.98872185 0.9881961 0.98870707

decoders.0.decoder_net.9.bias f4 [16]
00000000: 62ba 7b3c 5812 57bc 7e0a 463b 41a5 d4bb
00000010: 76e4 2a3b 2157 c7ba 6896 913b 7cb2 57b8
00000020: abae 20bc 0ca8 ed3b 45b3 09bb 4378 543c
00000030: 8d8e 17ba d408 293c 3272 a7bb 25d1 6d39
0.015364261 -0.013126932 0.0030218656 -0.0064894264 0.0026076115 -0.0015208462 0.0044429787 -5.142622e-05
-0.009807269 0.0072526988 -0.0021011394 0.012968126 -0.00057814346 0.010317046 -0.0051100487 0.00022679994

decoders.0.decoder_net.9.running_mean f4 [16]
00000000: 795b 6e3d 795b 6e3d 795b 6e3d 795b 6e3d
00000010: 795b 6e3d 795b 6e3d 795b 6e3d 795b 6e3d
00000020: 795b 6e3d 795b 6e3d 795b 6e3d 795b 6e3d
00000030: 795b 6e3d 795b 6e3d 795b 6e3d 795b 6e3d
0.058192704 0.058192704 0.058192704 0.058192704 0.058192704 0.058192704 0.058192704 0.058192704
0.058192704 0.058192704 0.058192704 0.058192704 0.058192704 0.058192704 0.058192704 0.058192704

decoders.0.decoder_net.9.running_var f4 [16]
00000000: b8ac 3e3e 76ad 3e3e 915c 3e3e daab 3e3e
00000010: 7185 3e3e 1102 3f3e 40b6 3e3e 81c3 3e3e
00000020: bcad 3e3e c990 3e3e 55fa 3e3e dc85 3e3e
00000030: 958a 3e3e a210 3f3e fcf8 3e3e d99b 3e3e
0.18620574 0.18620858 0.18589999 0.18620244 0.18605591 0.18653132 0.1862421 0.18629266
0.18620962 0.18609919 0.18650182 0.18605751 0.18607552 0.18658689 0.18649668 0.18614139

decoders.0.decoder_net.10.weight f4 [16, 1, 3, 3]
00000000: 33f1 e83d 393b 79bd 6e4c 273e 9545 533e
00000010: 90db 13be 8665 89be f898 963e cae0 81be
00000020: 4c59 fcbd 9461 84bc f29c 13be 3288 683e
00000030: 8c14 27bd cd28 cd3d 2158 57bc 9c38 75bd
00000040: 4e96 983e 97f0 aebc 7ee2 b7bd 5c0d 4a3e
00000050: 4f8d 51be 26d1 803e df09 363e 52b2 633e
00000060: f644 f03d 62eb 36bc d444 c6bc a53f 1cbe
00000070: ab98 2c3c 1d37 5ebe 7d7f 93bd bf69 3e3d
00000080: b302 8d3e 1336 70be b138 b4bd 408e fb3c
00000090: 538c a13e bb17 cb3d 6b0d 173e d4a2 7abd
000000a0: 3591 743e 1f27 43be 714d 993d af45 213e
000000b0: c3e1 92be 189e 833d 6659 8cbd 0d5d 00be
000000c0: eeed 60bd 2af4 02bd 7ca8 ef3c 3d5f 1cbe
000000d0: 9da6 223e f9f3 79be 5a2c 973e 9202 3e3c
000000e0: ad07 20bd b32e 053d d99e 9c3d 511f cebc
000000f0: 2a86 263e 6ea5 50be 1c3c 293e d3cc 10be
00000100: b7d1 933e 228c 9d3e f707 db3d ee49 02be
00000110: e3c5 323e 6b1b 7a3e 5e2d 7e3d a97c 893e
00000120: 03ea 783e b2b3 97be 143a 13be 00b3 1a3e
00000130: 9b41 90be 53e8 3f3e d5b6 95bd a8ab 173e
00000140: ff37 873e 0107 64be d593 50bb e530 85be
00000150: 2856 0f3e 9f28 cabd a1df 0b3e dba7 373e
00000160: 55af 4cbe e78a 3cbe 529d e5bc 12be 833e
00000170: 1daa d1bb 7a29 e63c 11db 1b3e fad6 913e
00000180: c31a e5bd 07c3 d2bd 03d3 713d ac27 693d
00000190: 6deb 863d eada 75be a253 583e 47e7 f53c
000001a0: 51d4 883b b563 acbd 70ce 99be e838 903c
000001b0: 427c 20be 780b 2b3c c774 8b3d cb83 8bbe
000001c0: b4d7 763d 47c5 adbd 3c09 533e d189 44be
000001d0: 6994 fc3d 5ec9 103d e3c9 d63d d4f4 89be
000001e0: 36b7 843e d737 0d3e 791d dd3d 7c09 29be
000001f0: 094e 07be 8f86 05be 433a 4f3e d454 75be
00000200: 7c30 763e 9bbc 93be 7d9a a0be 7194 01be
00000210: 9027 963e fc3a 9a3e 40af c83d 0ed2 63be
00000220: b7e7 063d ef02 6ebd dbec 113d 1368 8c3b
00000230: 4aac d9bd 2267 79be b167 45be 8276 613d
0.1137413 -0.060847495 0.1633775 0.20632012 -0.14439225 -0.2683527 0.2941358 -0.25366813
-0.123217195 -0.01615981 -0.14415339 0.22708204 -0.04079108 0.10017548 -0.01314357 -0.05986844
0.29802173 -0.021354957 -0.08978747 0.19731659 -0.20464061 0.25159568 0.17777203 0.22235993
0.11731903 -0.011164518 -0.024202742 -0.15258653 0.010534446 -0.21700712 -0.07202051 0.046487566
0.27541122 -0.23458128 -0.087998755 0.030707479 0.3155237 0.099166356 0.14751212 -0.06119044
0.23883517 -0.19057892 0.07485474 0.15749238 -0.28687868 0.06426638 -0.06852989 -0.12535496
-0.054914407 -0.031971134 0.029255144 -0.15270706 0.1588387 -0.24409474 0.29526025 0.0115972925
-0.03906982 0.03251524 0.07647485 -0.025161417 0.16262117 -0.20375606 0.16526836 -0.14140634
0.28870937 0.30770975 0.106948785 -0.12723514 0.174583 0.24424522 0.062054984 0.2685292
0.24308018 -0.29629284 -0.14377624 0.15107346 -0.28175053 0.18740968 -0.07310263 0.14811575
0.2640991 -0.22268297 -0.0031826396 -0.26013866 0.1399771 -0.09871029 0.13659526 0.17935126
-0.19988759 -0.18412362 -0.028029118 0.2573095 -0.006398453 0.02809595 0.15220286 0.28484327
-0.11186745 -0.10291105 0.059039127 0.0569226 0.06587873 -0.2400929 0.21125653 0.030017508
0.0041757007 -0.08417455 -0.30040312 0.01760526 -0.156724 0.010439746 0.06809383 -0.27248988
0.060264304 -0.08484893 0.20608991 -0.19193198 0.123329945 0.03534829 0.104877256 -0.26944602
0.2592103 0.13790832 0.10796637 -0.16507524 -0.13213362 -0.13039611 0.20237069 -0.2395814
0.24041933 -0.28854832 -0.31367865 -0.12654282 0.2932706 0.30123127 0.09799051 -0.22248098
0.032935824 -0.058108266 0.035626274 0.0042848676 -0.10628565 -0.24355748 -0.19277836 0.05504466

encoder.encoder_net.0.weight f4 [16, 1, 3, 3]
00000000: c0fa e23d 9733 9f3e e251 c1bd 6fb9 4fbe
00000010: e826 393e 71cf 0c3e 7663 db3d 856b 803e
00000020: 9518 9f3e 8049 ba3d 20fc 9b3e f061 823e
00000030: d1cf 633d 6be2 943d 634c 32be 25b7 a53e
00000040: 2446 6c3e ecaa a43e bad7 a7be 31b8 6f3e
00000050: 9c73 783e c451 90be e247 b33d 4707 a1bd
00000060: 2c4b 673e 7b24 aabe a05f 273e 8c7a c13d
00000070: 1351 423e 1e71 f33b aaf1 20bb 6389 74bb
00000080: af31 a0be fcaa 883e fd74 9b3e 86e8 6fbe
00000090: c08c c93d 2400 62be f280 fcbd bc06 1dbe
000000a0: 3fb6 6d3e b161 30bd 3a05 a13e 23d5 863e
000000b0: bbd1 4abe 9296 8ebe 7e25 2c3d 27ca 8cbe
000000c0: 17e0 a6be 3e1b b03d 1c64 7b3e b7c4 7a3d
000000d0: 847e 95be 9501 b53d 7668 8bbe e454 90bd
000000e0: c24c 09be 8d95 8c3d 9922 07bb 13a9 883e
000000f0: 3d1a 06bc 1bf2 06be 0dc4 9bbe 32c6 a23e
00000100: 285d 6b3e 0046 803e 8d5c 8abd 6715 4d3e
00000110: c761 3ebe 6a18 c1bd e4f4 703e 6572 813d
00000120: 4aae 053e e62b 83bd dd64 86be a7af 8dbc
00000130: 1cec 29be a881 50be 66a6 93bb 5c13 99be
00000140: 1218 863d 1b7f 603d 5c81 49be e931 5dbe
00000150: d3bf 283d 08e4 35bd d295 853e 9926 0e3e
00000160: b04e a1be d6a1 26bd 6706 5e3e 9197 703d
00000170: 321c 98be a2d5 473e 8ac2 2b3b 9fbf fd3d
00000180: 89f2 843e 6cb2 8bbd d56b 343e 4e6a 1cbd
00000190: 1010 883e 1af0 6dbe a8e9 753e 27cc 3dbe
000001a0: e6f3 383e 8d3f 9bbe 4622 8cbd 6492 863e
000001b0: acad 72bd 8f50 9e3c 8b1d f8bd ba75 0d3e
000001c0: a4a4 28bb 9e0f 4a3e 1242 3abc 1988 dc3d
000001d0: 95ec a93e 1641 90be 4403 61bd 26e2 0c3e
000001e0: ceef a33d 3134 96be dfed 473e 8843 de3d
000001f0: bc1b 86be 082c 78be 2922 773e c5f7 b63d
00000200: 9d8e a2be cf1e 22be eb59 68be 53fc 153e
00000210: 9e6d 663d 37b2 153e 485d 16bc c8fe 073e
00000220: bd2a 913d c198 893e a864 e73c 8219 8e3e
00000230: 3545 853e 313b e73d 7e3d 88be c03b 45be
0.11082983 0.31094047 -0.09439446 -0.20285581 0.18081248 0.13751008 0.1071233 0.2508203
0.31073442 0.0909605 0.30465794 0.25465345 0.05561811 0.07269748 -0.17411952 0.3236629
0.23073632 0.32161653 -0.32781774 0.23410107 0.24262851 -0.28187382 0.08753945 -0.07862716
0.2258727 -0.33230957 0.16345072 0.09447202 0.1897624 0.007429256 -0.0024558106 -0.0037313334
-0.31287906 0.2669295 0.30362692 -0.23428544 0.09841299 -0.22070366 -0.12329282 -0.153346
0.23214053 -0.043061916 0.314493 0.26334485 -0.19806568 -0.2784925 0.042027943 -0.2749798
-0.32592842 0.08598946 0.24549907 0.06122276 -0.29198086 0.088381924 -0.27228135 -0.070474416
-0.13408187 0.06864462 -0.0020619987 0.26691493 -0.008184967 -0.13178293 -0.30423012 0.31791836
0.22984755 0.25053406 -0.06755934 0.20027696 -0.18591987 -0.09428485 0.23530918 0.06320647
0.13054767 -0.06404857 -0.26248828 -0.017295672 -0.16593975 -0.2036196 -0.00450592 -0.29897583
0.0654756 0.054808717 -0.19678253 -0.2160107 0.041198563 -0.04440692 0.26090866 0.13881911
-0.31505346 -0.040681683 0.2168213 0.058738295 -0.2970901 0.19515088 0.0026208484 0.123900644
0.2596629 -0.06821141 0.1761926 -0.038187318 0.26574755 -0.23236123 0.24014914 -0.18534909
0.1806179 -0.30321923 -0.06842475 0.26283562 -0.059247658 0.019325523 -0.1211501 0.1381444
-0.00257329 0.1973252 -0.011368291 0.10768146 0.3318831 -0.28174657 -0.054934755 0.13758144
0.080047235 -0.29336694 0.19524334 0.10852724 -0.26193035 -0.24235547 0.24134125 0.08933977
-0.3174943 -0.15832065 -0.22690551 0.14647035 0.056256883 0.14618765 -0.009177513 0.13280785
0.0708823 0.26874354 0.028246239 0.27753836 0.26029363 0.11290587 -0.26609415 -0.19261074

encoder.encoder_net.0.bias f4 [16]
00000000: 39f1 11bd db1c c93d da5a 82bd f108 5dbe
00000010: d24b 4e3e 9344 0bbe 975f 243e 1970 07be
00000020: 21f7 1a3d 3a5b 58be 4ab3 dc3d 9824 623e
00000030: 80c9 4f3e 37a5 e3bd e9bb 933e 1f7f a7bd
-0.03563044 0.09819957 -0.06364985 -0.21585442 0.2014611 -0.13600378 0.1605209 -0.13226356
0.037833337 -0.2112855 0.10776384 0.22084272 0.2029171 -0.111154966 0.28854302 -0.08178543

encoder.encoder_net.2.weight f4 [16]
00000000: d096 803f 5b08 7f3f 2579 803f e529 803f
00000010: 8872 7d3f e7e8 7f3f 0e90 803f 2369 7f3f
00000020: 2a44 7f3f 2010 803f 6952 813f d135 7d3f
00000030: 0e26 813f 06ca 7f3f 4b40 803f bb34 7f3f
1.0046024 0.99622124 1.003697 1.0012785 0.99002886 0.99964756 1.0043962 0.997698
0.99713385 1.0004921 1.0103275 0.9891024 1.0089738 0.9991764 1.0019621 0.99689835

encoder.encoder_net.2.bias f4 [16]
00000000: 6c9f d53a 675d cb3b 575e 00bc 8e78 37bc
00000010: 5b21 2abc d550 683b e415 3fbc 0354 67bc
00000020: e625 25bc 31b5 4fbc cdcb 4fbb 4fdc 28bc
00000030: 9134 fb3b e133 343c af00 ffbb b83c 603c
0.0016298122 0.006206203 -0.007834992 -0.011198176 -0.010383929 0.003544857 -0.011662934 -0.014119151
-0.0100798365 -0.012677477 -0.0031707168 -0.010306432 0.0076661785 0.010998697 -0.007782064 0.0136863515

encoder.encoder_net.2.running_mean f4 [16]
00000000: 795b 6e3d 795b 6e3d 795b 6e3d 795b 6e3d
00000010: 795b 6e3d 795b 6e3d 795b 6e3d 795b 6e3d
00000020: 795b 6e3d 795b 6e3d 795b 6e3d 795b 6e3d
00000030: 795b 6e3d 795b 6e3d 795b 6e3d 795b 6e3d
0.058192704 0.058192704 0.058192704 0.058192704 0.058192704 0.058192704 0.058192704 0.058192704
0.058192704 0.058192704 0.058192704 0.058192704 0.058192704 0.058192704 0.058192704 0.058192704

encoder.encoder_net.2.running_var f4 [16]
00000000: c20d 3e3e 523c 3e3e b4ca 3d3e c4d6 3d3e
00000010: 98ce 3d3e edd7 3d3e c5cd 3d3e 97fa 3d3e
00000020: a2e2 3d3e 59c7 3d3e 1de0 3d3e 03c7 3d3e
00000030: 6edd 3d3e 77d2 3d3e 98c4 3d3e 0ef1 3d3e
0.18559936 0.18577698 0.18534356 0.18538958 0.1853584 0.185394 0.18535526 0.18552624
0.18543485 0.18533076 0.18542524 0.18532948 0.185415 0.18537317 0.18532026 0.18548986

encoder.encoder_net.3.weight f4 [32, 16, 3, 3]
00000000: 42be 6fbd 8080 1e3d 5b72 0c3b c69d a0bc
00000010: 2e03 27bd 765d 5ebd 8bf8 a1bd c7d6 203d
00000020: 29a0 92bd bf8a 58bd 5eb6 acbd 4a24 80bd
00000030: 56d8 933b ebd6 2a3d 9d12 3a3c 36ba 66bd
00000040: 33ba a4bc c842 e93c 39bd 94bd 9c77 563d
00000050: 020e 81bd 331e eebc 28a3 6ebd 6777 80bd
00000060: 988b c13c a3fb 5fbd 7f90 b23c b4a2 633d
00000070: 7073 033d dd9f 8fbd bbbf 1bbd 0102 1dbc
00000080: 79d7 3bbd 6bd4 b83b 68d2 a1bd 2ff2 97bd
00000090: 7ab9 383b a499 a1bd 6927 95bc 37a4 683c
000000a0: bc72 0c3c 8baa 903d c60c b73c 7ace 88bd
000000b0: 1c2b 703d 5139 473d 6a23 b43c 3045 b73c
000000c0: 0a03 353d c223 93bc 2e11 8e3d f9f6 45bd
000000d0: 4a8a ad3d a4d9 89bd 6a76 4abd 1308 a73c
000000e0: 01ca 00bd f151 5dbd 3b5f 903b b971 59bc
000000f0: 43bb f4bc cf79 82bc a9b6 7d3c a916 56bd
00000100: 3518 703b ab8d 133c 1044 5cbc 75c1 01bd
00000110: 9c49 b5bd 1795 78bd 2903 9cbd 0e5a 4a3d
00000120: 82d4 9d3d 0eea 9b3d a21c 07bc 9593 a8bc
00000130: 601d 8c3d 6b7a a0bc 3151 fdbc 6e2c 723d
00000140: 5265 45bc 5eb1 af3d 2670 f9bc 706a ad3d
00000150: cdbb 4abd 9788 8b3d 3a78 1a3b a786 ae3c
00000160: 7271 d1bb 612c d4bc a308 4e3d 30ee 83bd
00000170: 5ec9 663d 8414 84bd 66fc 833d 2269 e5bc
00000180: 33bb 7c3d c870 4b3d 17a4 91bd a900 a03d
00000190: 8726 62bc ff5e f4bc fc9d 53bc 10f5 643d
000001a0: 3f84 643d 2dc2 46bc 8223 6f3d 88dc b5bd
000001b0: d845 93bd b1c8 32bd 35fb 88bd 2f0e 84bd
000001c0: 3fa8 d9bc 44b5 0a3c 58a4 363c d716 323b
000001d0: 37e9 363c 5274 31bd 6322 02bd 55a5 0f3d
000001e0: a43a efbc 2a97 6c39 3737 0dbd 20eb 8fbc
000001f0: fa6c cf3c 9635 723b 1ee4 0d3d 9849 3c3d
00000200: 971f ccbc 4e3f e1bc 007d b13c 446e b5bd
00000210: c3d5 9e3d 0a91 2e3d 1200 9d3d 5353 7abd
00000220: 6e1a d6bc daa5 f13b 8d79 4b3d 5fac 05bc
00000230: fabe 793a b8e7 0cbc e776 83bd ab17 8dbb
00000240: 2f6d fbbc 9497 9d3b 507a 923d 2abe e33c
00000250: 4da9 193c 8045 93bd 3afa efbc a437 863d
00000260: c051 7dbd eda3 bc3c 6ac6 0dbd 9695 a03d
00000270: 70f3 8ebd fa8f 933d e71a 733c b1f4 5bbd
00000280: ec90 4c3c 43a5 033d c92e a9bd 7c31 cebc
00000290: 969a 543d 569f 723d b0ec a33d 8ff3 21bd
000002a0: 4f71 673d 8e94 87bc 6876 5e3d 2794 a03d
000002b0: 2b5f e5bc 7193 8a3d aaf9 7abd fc1a 573d
000002c0: 95c2 72bc f701 9f3d 77b6 e33c 9c32 243c
000002d0: baa3 4dbd ba38 323d 010a 76bc c9e1 9aba
000002e0: cfbf 89bd 8d8f 9abd 0dd1 0dbd 75b7 b5bc
000002f0: 9dc9 48bd 9024 6fbc 3efc 90bd ccd2 88bc
00000300: 3565 923d 4b8a b93b 1c41 b7bd 1073 54bd
00000310: 2016 35bd aedd 7fbd 0687 3b38 03bd 88bd
00000320: 04bd c3ba eb48 8bbc 8c9b 873d 6287 8bbd
00000330: 5527 5c3d 2d1f d33c b74c fcbc bdbc 333d
00000340: e2bb 7d3d ebe5 6abd 06c2 8d3d 7766 463b
00000350: 6eb4 8c3d d640 af3d 5bb4 923b 2333 0bbc
00000360: 2b5e 8dbd a1e2 fd3c 67ff 8c3d a314 9c3c
00000370: 27ad 7b3d 0f52 a0bd 091f 8c3d 831f 4bbd
00000380: 6eff a53c 9bcd 013c 78d8 383d 58e4 8b3d
00000390: 6599 59bd dbdb 75bd ba19 063d 3f9a c1bc
000003a0: a9e3 8cbc 9d8a a13d 17f2 523d 6625 863c
000003b0: 6e4c c73c 9bb4 6d3d a579 9c3b e7b7 01bb
000003c0: 0076 1b3d 6301 263c 4bdb 99bb bca9 1fbd
000003d0: a675 9ebd 5aa8 50bc aab7 f53c f847 86bc
000003e0: 974a 983d 586a 093d fadd fc3c 0a88 303d
000003f0: d23c 8abd b9e3 273d 5872 0abd 5d55 d0bc
-0.058531053 0.038696766 0.0021430466 -0.019606482 -0.040774517 -0.05428835 -0.07908734 0.039267328
-0.071594544 -0.052866694 -0.08433221 -0.062569216 0.0045118732 0.041708868 0.011356977 -0.05632993
-0.020108318 0.028474227 -0.07262654 0.052360162 -0.063015 -0.029067134 -0.058261067 -0.06272774
0.023626134 -0.05468334 0.021797417 0.055575088 0.03209251 -0.070129134 -0.038024645 -0.009582997
-0.045859788 0.0056405566 -0.0790146 -0.0741924 0.0028186725 -0.07890633 -0.018207269 0.014199308
0.008572277 0.070637785 0.022344958 -0.06680007 0.058634862 0.048638646 0.021989543 0.022371858
0.04419235 -0.017961387 0.069368705 -0.048331235 0.08473642 -0.06730965 -0.049429335 0.020389592
-0.031442646 -0.054033224 0.0044058836 -0.0132717425 -0.02987445 -0.015927223 0.015485444 -0.052267704
0.0036635522 0.009005944 -0.013443962 -0.031678636 -0.088519305 -0.06068906 -0.0761779 0.04940229
0.07706548 0.07613002 -0.008246573 -0.020578185 0.0684154 -0.019589623 -0.030922504 0.059124403
-0.012048082 0.08578752 -0.030448984 0.08467567 -0.049495507 0.06813162 0.0023570196 0.021304442
-0.0063916976 -0.025900068 0.050301205 -0.06441915 0.056344382 -0.064492255 0.064446256 -0.028004233
0.061701965 0.049668103 -0.07111376 0.07812626 -0.013803131 -0.029830454 -0.012916084 0.055897772
0.055790182 -0.012131256 0.058383472 -0.088799536 -0.07191056 -0.043648425 -0.06688539 -0.06448018
-0.026569484 0.008466069 0.011147581 0.0027174258 0.011164001 -0.043323822 -0.031771075 0.035069782
-0.029202767 0.00022563027 -0.034476485 -0.017568171 0.025320519 0.003695821 0.034641378 0.045968622
-0.024917407 -0.027496006 0.02166605 -0.08858922 0.077556156 0.04261879 0.07666029 -0.06111462
-0.02613565 0.0073745074 0.049676467 -0.008158772 0.0009527054 -0.008600168 -0.06419163 -0.0043058
-0.030691711 0.0048093293 0.071522355 0.027800638 0.009378743 -0.071909904 -0.029294122 0.06553581
-0.06184554 0.023027385 -0.03461305 0.07841031 -0.06980026 0.07205196 0.014837957 -0.053700153
0.012485724 0.032140028 -0.08260877 -0.02517008 0.051905237 0.059233986 0.08004129 -0.039538916
0.056504544 -0.016550329 0.05431214 0.07840758 -0.027999481 0.067664035 -0.061273254 0.05251597
-0.0148169 0.07764047 0.027796967 0.010021832 -0.05020497 0.04351113 -0.015017034 -0.0011816557
-0.06726038 -0.075469114 -0.034623194 -0.022182206 -0.0490204 -0.0145961195 -0.070793614 -0.016702078
0.0714821 0.0056622378 -0.089479655 -0.051867545 -0.044210553 -0.06246727 4.4710025e-05 -0.06676676
-0.001493365 -0.017002543 0.06621465 -0.068129316 0.053748447 0.025771702 -0.0307983 0.043881167
0.061946757 -0.057348173 0.06921773 0.0030273476 0.06870352 0.08557288 0.0044770665 -0.008496079
-0.06902727 0.030991854 0.06884652 0.01905281 0.061444428 -0.078281514 0.06841857 -0.0495906
0.0202634 0.007922555 0.045128316 0.068306625 -0.053124804 -0.060024124 0.03273938 -0.02363312
-0.0171984 0.078877665 0.051500406 0.016375255 0.024328437 0.058033567 0.0047752433 -0.0019793452
0.03795433 0.010132167 -0.004695331 -0.03898023 -0.077372834 -0.012735451 0.029994804 -0.01639174
0.07436102 0.033548683 0.030867565 0.043098487 -0.06749882 0.040988658 -0.033800453 -0.02543133

encoder.encoder_net.3.bias f4 [32]
00000000: 3054 823d 1617 a23d e559 5c3d ea14 65bd
00000010: f339 7dbd 381b 3bbd 2214 d23c b192 67bd
00000020: a90b 85bd 7cf1 f93b 4233 b6bd 3c99 9bbd
00000030: 968c 94bd b966 023d 15c6 8e3a acd0 2f3d
00000040: c686 2d3c e943 40bd 0b00 303c 160a 8dbd
00000050: d899 923d 0445 473d 954e 59bd 6da4 d73c
00000060: 953e 683d 96dc aa3c 78fe cebc 8508 8b3d
00000070: d1fe 29bd 7f00 353b 3048 ab3c 5ca4 be3c
0.06363714 0.079145595 0.053796668 -0.05592815 -0.061822843 -0.045680255 0.025644366 -0.05653638
-0.064963646 0.007627664 -0.088964954 -0.075975865 -0.07253377 0.031836245 0.0010892773 0.042923614
0.0105912145 -0.046939764 0.010742198 -0.06886689 0.071582496 0.048649803 -0.053053457 0.026323522
0.056700308 0.020857137 -0.025267825 0.06788734 -0.041502777 0.0027618704 0.020908445 0.023271732
