miniproject2/experiments/ensemblyVAE/modelSeed945nD3.pt (torch, 287219 bytes, 75 tensors)

prior.mean f4 [2]
000000 00 00 00 00 00 00 00 00
       0.0 0.0

prior.std f4 [2]
000000 00 00 80 3f 00 00 80 3f
       1.0 1.0

decoders.0.decoder_net.0.weight f4 [512, 2]
000000 ab cd 40 be 2e b5 40 be 88 8a da 3e 9f 11 cb bd
       -0.18828456 -0.18819115 0.42683816 -0.0991547
000010 a7 71 3b bf 9b e0 47 bf 9a ab 6e 3d 22 4c e5 bd
       -0.73220295 -0.78077096 0.05826912 -0.11196162
000020 ce 21 00 be 7f c3 3c 3f fb a3 57 3e 3e 7b d4 3e
       -0.12512895 0.73735803 0.21058647 0.41500276
000030 2f ab d9 bd b0 00 26 3f 40 fa e9 be cc aa 00 be
       -0.10628354 0.648448 -0.45698738 -0.12565154
000040 0c fa 7e bd 33 2f 21 bf 6a 2b 16 3f fe ef da bd
       -0.062250182 -0.62962645 0.58659995 -0.10690306
000050 9c 39 22 be 7a 9d 75 bd 50 c3 2b bf 24 5c bf bd
       -0.15842289 -0.059964634 -0.670949 -0.09343746
000060 81 25 80 be 59 87 1d bf e0 cd 20 3f 6b c4 45 be
       -0.25028613 -0.6153465 0.6281414 -0.19313209
000070 e2 ed da be 1b 6b 14 3f ef 10 74 3e 84 f9 eb be
       -0.42759615 0.5797593 0.23834585 -0.46088803
000080 13 1c f9 be 6c 0c 55 be 73 49 87 3e b2 74 9e 3e
       -0.4865423 -0.2080552 0.26423225 0.30948406
000090 2e 7a 36 3f 45 a0 5e 3e ae af aa 3e dd 06 aa be
       0.7128018 0.21740825 0.33337158 -0.3320836
0000a0 28 87 36 3e e7 ac 78 3e 6f e5 f8 3e 34 c8 8a bd
       0.17824996 0.24284707 0.48612544 -0.06776467
0000b0 9a ec 02 3f fe 0e b9 bd 7f f5 7d 3e b2 03 2b bf
       0.51142275 -0.09036063 0.2480068 -0.66802514
0000c0 e8 61 a5 be fe cc a1 3e fa 8e 6a 3e 74 aa af 3c
       -0.3230126 0.3160171 0.22906104 0.021443583
0000d0 ec a2 04 3f a0 78 bd be 68 04 f9 be 40 eb dd 3d
       0.518111 -0.37006092 -0.48636174 0.10835886
0000e0 91 25 5e be 85 b5 a0 be f1 e1 63 3e e5 bf 15 bf
       -0.21694018 -0.31388488 0.22254159 -0.5849593
0000f0 f9 32 31 bf dc 88 c8 be f7 e1 67 3e ad c6 f2 3e
       -0.69218403 -0.39166915 0.22644792 0.47417203
000100 35 dc d8 be 73 c9 1e be 3d 3a 5e be 05 18 30 3f
       -0.42355505 -0.15506534 -0.21701904 0.6878665
000110 66 a0 03 bd 77 bf 9a 3d d7 1c b5 3e ba 29 96 3d
       -0.03213539 0.0755605 0.35373566 0.073321775
000120 e2 64 db be a1 38 ba 3e fb fa 9f be 57 9e 93 be
       -0.42850405 0.3637133 -0.3124617 -0.2883174
000130 19 df 86 bd 09 64 1e bf 06 3d f2 be 29 78 6d bc
       -0.06585521 -0.6187139 -0.47312182 -0.01449398
000140 4a 52 13 bf 5d 6d 89 bd 19 17 ec 3e 79 8b 41 3e
       -0.5754744 -0.067103125 0.46111372 0.18900861
000150 df b5 8c be 59 fe 3b bd 3e de 1a 3d f4 00 c1 3d
       -0.27482507 -0.04589686 0.037809603 0.0942401
000160 e9 c0 f0 be 50 15 8d be eb 5b 15 3e d6 bc a0 3e
       -0.4702218 -0.27555323 0.14585845 0.3139407
000170 03 76 92 3d 6d 40 dc 3e 19 52 16 3e 74 3e cf be
       0.07151415 0.43017903 0.14679755 -0.40477335
000180 a2 bd 87 bd d0 7d b8 3e 0b 59 77 3e 17 2c a1 3e
       -0.066279665 0.36033487 0.24155061 0.3147895
000190 58 79 c3 3e 37 b4 db be 89 94 73 3e 7b 42 5a bd
       0.38178515 -0.4291093 0.2378713 -0.053286057
0001a0 ab 39 a1 3e db 38 c4 3e f3 1d b7 bd b1 47 6d bf
       0.3148931 0.38324627 -0.08941259 -0.9268752
0001b0 96 4b 97 be 22 ba 4c bf a1 e3 fc bc 5d 87 03 3e
       -0.29549855 -0.79971516 -0.03087026 0.12844606
0001c0 27 7e cb 3e d8 3a 45 3e 7d 5e c4 bd 16 0c 84 3e
       0.39744684 0.19260728 -0.09588335 0.2579047
0001d0 09 9c 40 3e 21 bd f7 bd 1d 0a 40 bf 70 ea 8b be
       0.18809523 -0.1209662 -0.7501543 -0.273273
0001e0 4a 33 e4 3e 89 e8 d4 3e 26 a0 ef 3e c2 8e 41 3e
       0.4457038 0.4158366 0.4680187 0.18902114
0001f0 8e e3 07 bf f4 8b bb be d7 e7 15 bf 6e 7b d7 be
       -0.53081596 -0.36630213 -0.58556885 -0.42086357
000200 46 02 af 3e 75 05 e5 3e f2 9c 2e be 06 2f da bd
       0.34181422 0.44730726 -0.17052057 -0.106535
000210 69 3b f6 3e 55 ad 26 bd c7 3a aa 3e 7b ee 2f 3f
       0.480922 -0.040692646 0.3324797 0.6872327
000220 ed 9f 34 be ca d5 31 3f 34 12 ba 3d 9b 10 be bd
       -0.17639132 0.6946684 0.09085503 -0.09280511
000230 75 a6 05 3f 73 24 1b 3e a9 1a e5 be b6 6b 22 bf
       0.5220712 0.15150623 -0.44746903 -0.63445604
000240 7e 09 54 be 8e bf eb 3e 58 03 0d 3f b9 05 22 3c
       -0.20706746 0.46044582 0.5508323 0.00988906
000250 c5 0a 3d 3f 42 14 08 bf bc c0 7b 3e 18 4b dc be
       0.7384456 -0.5315591 0.24585241 -0.43026042
000260 b3 ed 8b 3c 6c 1d 0f 3f 28 ba aa bd 88 4d b5 3d
       0.017081117 0.5590427 -0.08336288 0.088526785
000270 c2 9d 3b bf 48 cd ed be 29 a8 8e be 6b cb fc be
       -0.73287594 -0.4644568 -0.2786267 -0.49373946
000280 1b 96 0b 3f 4f d3 ba 3e 2f 81 a4 3e e4 1b 59 be
       0.5452592 0.3648934 0.3212981 -0.21202046
000290 e7 2b 08 3f 0e b7 4d bd f6 23 e7 3e 8c 56 1b bf
       0.5319199 -0.050223403 0.45144624 -0.60678935
0002a0 8a d7 54 be f1 0d 83 3e 0e bd 28 bf dd 6e 28 3f
       -0.20785347 0.25596574 -0.65913475 0.65794164
0002b0 55 70 ca 3e d6 52 8d 3e da cf 32 3d 99 0e f0 3c
       0.39538828 0.2760226 0.043655254 0.029303836
0002c0 1f 2a a6 be 5b de 02 bf e0 4b d5 be c4 06 56 3e
       -0.3245401 -0.5112054 -0.4165945 0.20901018
0002d0 0d a3 4d 3e 92 cf f7 be ce 79 0e 3f 09 53 ce 3e
       0.2008173 -0.4840055 0.5565461 0.40297726
0002e0 bb 7b b8 be b1 49 0f 3f ec e2 1a bf 5a 5b b4 be
       -0.360319 0.5597182 -0.60502505 -0.35225946
0002f0 85 52 b7 be dd 7b b5 be b3 e6 66 bd d2 2c f6 be
       -0.35805145 -0.35446063 -0.056372356 -0.4808107
000300 83 0c 2e bf 33 df c9 3d e5 05 f4 bd e7 eb e1 3e
       -0.6798784 0.09857025 -0.11915187 0.44125292
000310 03 63 b8 3e 74 ec a1 be e6 07 27 3f 51 4a 76 3e
       0.3601304 -0.31625712 0.6524643 0.24051787
000320 f1 b3 2b bf 2f bd e1 bd fd 2d 37 3e 21 49 3f bf
       -0.67071444 -0.11022412 0.17888637 -0.7472096
000330 b1 96 b6 3e 7a 02 23 bf 6e 79 a6 3e 42 fd 79 bd
       0.35661843 -0.63675654 0.32514518 -0.06103254
000340 70 96 26 bf 0b 37 0d 3f 93 1c 8a be df d8 fd 3d
       -0.650733 0.55162114 -0.26974925 0.123948805
000350 2d 5a 03 be ff 4d 15 3f 72 7b c7 3e 3a 1c f0 be
       -0.12827368 0.5832214 0.3896137 -0.46896535
000360 d4 10 e6 be 15 57 29 be c9 43 05 3f d3 1b e1 be
       -0.44934714 -0.16537125 0.52056557 -0.4396654
000370 4b ae d7 3e c2 a1 5a be 23 a0 ed be 55 07 b7 3e
       0.42125162 -0.21350768 -0.46411237 0.3574778
000380 46 67 8d 3e f3 20 a7 bc 42 e5 4f 3f 39 3e 29 be
       0.27617854 -0.020401454 0.81209195 -0.16527642
000390 94 41 f7 be 0b 6f 21 be 7d 19 0a 3f 49 a3 26 bf
       -0.4829222 -0.15765016 0.5394514 -0.65092903
0003a0 b1 a7 a6 3e d2 d8 af be 07 aa 89 be cc 3b 1e bf
       0.32549813 -0.34345108 -0.26887533 -0.6180999
0003b0 1a 32 c2 3e 08 2d 1f be 98 a1 35 3f 5e a3 07 3f
       0.3792885 -0.15544522 0.709497 0.52983654
0003c0 a7 29 ac bd 02 33 c8 3e 44 9f 29 bf 85 97 0d be
       -0.08406382 0.39101416 -0.66258645 -0.13827331
0003d0 b4 f9 63 be 50 da b5 bd 14 e5 12 3e 7b a6 82 3c
       -0.22263223 -0.088795304 0.14345199 0.015948525
0003e0 33 be 6e 3d a0 bc 55 3e 07 fe 37 bf dc cc 09 3f
       0.058286857 0.20872736 -0.7187199 0.53828216
0003f0 27 57 54 be 7d 71 41 3e dc c9 24 bf 16 a4 02 3e
       -0.20736371 0.18890949 -0.6437051 0.12757906

decoders.0.decoder_net.0.bias f4 [512]
000000 70 31 ea bd 99 d9 24 be 77 c4 8e 3e 6b df 84 3e
       -0.11435211 -0.16098632 0.27884266 0.25951704
000010 01 64 a8 be a6 d2 c9 be 0d e5 be bd 51 4f d1 3e
       -0.32888797 -0.39418525 -0.09321032 0.40880826
000020 48 c8 30 bd 7d 30 30 bf 12 17 d9 be 02 12 2d be
       -0.043159753 -0.6882399 -0.42400414 -0.169014
000030 3a a8 2e bf cf 5f 80 3e 7c 1b d2 be 14 0f 28 bf
       -0.68225443 0.25073096 -0.41036594 -0.6564801
000040 be 43 f4 be f0 c3 9c 3e fc 97 3c be fd 75 f4 be
       -0.47707933 0.30618238 -0.18417352 -0.47746268
000050 aa 27 19 3f 3f 27 65 3d 1b 74 13 3f 05 5e 3c be
       0.5982615 0.05594563 0.5759904 -0.1839524
000060 ae 70 ab be d0 e6 e3 be f6 0b fc be f0 33 2c 3e
       -0.33484405 -0.44512033 -0.49227875 0.16816688
000070 81 b8 11 3f 8c 8e 1d 3f f4 5d 0b 3f 9a 46 a1 be
       0.56922156 0.61545634 0.54440236 -0.31499177
000080 d4 09 03 bf 5e 8a ad 3e 0b 57 20 3f 08 7a a5 be
       -0.5118687 0.33894628 0.6263282 -0.32319665
000090 0e 89 8d be 4e 25 f4 be 45 d6 4e bf a2 7f 50 3e
       -0.27643627 -0.4768471 -0.807957 0.20361188
0000a0 1e 9f 16 bf 0d 6f 3c 3f ce 2c 10 3f df ba 32 3f
       -0.58836544 0.7360695 0.56318367 0.6981639
0000b0 cb a2 ee be a6 e4 2f 3e 79 9a 02 bf 3d a4 28 3f
       -0.46608576 0.17177066 -0.51016957 0.6587561
0000c0 17 07 1a 3f 08 25 05 bf 84 2c bc 3e e9 09 a7 be
       0.6016707 -0.5200963 0.36752713 -0.32624748
0000d0 b9 4b 65 be 0f 1f 9c 3e 1f 86 0f be a9 40 37 3c
       -0.22392167 0.30492446 -0.14016007 0.01118485
0000e0 79 bc 03 3f fa 88 19 3f a1 72 02 3f c4 2b 65 be
       0.5145946 0.59974635 0.5095616 -0.22379977
0000f0 69 2f 30 be 9e 41 90 3d 52 87 89 be d9 84 2f bf
       -0.17205586 0.070437655 -0.26861054 -0.68562084
000100 c1 7b bc 3e a6 79 25 bf 04 6e a2 be 01 fc fc bc
       0.36813167 -0.64638746 -0.3172456 -0.030881884
000110 86 4b bd be 6d d9 b5 bd 0d 0a 42 3e 04 6f 3d bf
       -0.36971682 -0.08879361 0.18949147 -0.7399752
000120 e8 a8 28 3f 13 5e 1e 3f a7 74 0c 3f 05 a9 e5 3e
       0.6588273 0.61862296 0.548655 0.44855514
000130 5a 5d 01 3e 9a 0e c5 bd 0f ec 18 3f 35 9a bd 3e
       0.12633267 -0.09621926 0.59735197 0.37031713
000140 2c 4d 86 3e 99 d1 8c be 08 55 09 3e 39 eb a4 3e
       0.26230752 -0.2750366 0.13411343 0.3221071
000150 64 17 b4 be d3 ef 46 3e 8b 1e 18 3f 05 e3 0b bf
       -0.35174096 0.19427423 0.59421605 -0.5464328
000160 15 ac 55 be ab 5d 01 bf 4b bf ca 3e 61 d9 1b 3f
       -0.20866425 -0.5053355 0.3959907 0.6087857
000170 19 fd c4 3d e8 30 cf be 3a f6 dc 3e 3c 23 ef 3e
       0.09618587 -0.40467 0.43156606 0.4670657
000180 9b b7 22 3f 8d ad fc be 53 52 3c 3f 43 9b 0a 3f
       0.6356141 -0.4935116 0.73563117 0.5414316
000190 50 cc 12 be 0c 74 d4 3c 57 ba ed 3c 76 3d 17 3f
       -0.14335752 0.025934242 0.029019518 0.59078157
0001a0 9a 84 f0 be 4b 52 22 3f f4 03 81 bc 61 dc b9 3c
       -0.46976167 0.6340682 -0.015748955 0.022688093
0001b0 5d 90 20 3f 8e f5 2a 3f 29 51 97 be d9 fe 02 be
       0.6272028 0.66780937 -0.29554108 -0.12792529
0001c0 29 29 33 3e 98 cf 1e bf 2a b9 71 be 27 25 a6 be
       0.1749617 -0.6203551 -0.2360579 -0.3245022
0001d0 43 b9 f3 3e 11 e2 ba 3e b1 f5 4f be 9a c7 35 3f
       0.4760228 0.365006 -0.20308568 0.7100769
0001e0 c0 3d 0d bd 68 ce 97 bd ba a4 9a 3d ec 42 24 3f
       -0.034482718 -0.07412416 0.0755095 0.64164615
0001f0 2b 48 a8 3e 72 00 a7 3e 08 8c dd 3e 66 36 26 be
       0.3286756 0.32617527 0.43270898 -0.16231689
000200 07 dc 92 3d b3 91 33 bf e2 dd 79 bf 8d fc 32 3f
       0.07170873 -0.70144194 -0.9760419 0.6991661
000210 3b c4 01 3f 47 37 20 3f fb 09 2a bf 05 d8 15 bf
       0.5069005 0.62584347 -0.6642148 -0.58532745
000220 3b 3d 8b 3e bf cf 12 bf 6c c4 27 bf 9b 69 da be
       0.27195153 -0.57348245 -0.6553409 -0.42658696
000230 d1 6a 4e be aa 8c e3 3e 72 1d 43 3f 2d 27 27 bf
       -0.20157935 0.44443256 0.76216805 -0.6529415
000240 fc a2 a0 be b7 55 f7 be 29 57 36 3d b6 f7 84 bd
       -0.31374347 -0.48307583 0.044516716 -0.064925596
000250 da 86 ef 3e f9 4f d2 3e e5 e1 3d be c2 fa da 3e
       0.4678257 0.4107664 -0.18543203 0.42769438
000260 55 6e 83 bd 64 af 0c be 40 af 07 bf 38 dd f7 3e
       -0.064175285 -0.13738781 -0.53001785 0.48410964
000270 d9 a8 e3 be 66 16 14 3f 8f ba bf be 37 eb 16 3f
       -0.44464758 0.5784668 -0.3744702 0.5895266
000280 66 34 f3 3e 53 c7 17 3f ae 3c fa be ce 6c fa 3e
       0.47500914 0.5928852 -0.4887442 0.48911136
000290 58 d9 1e 3e 75 82 d9 3e b6 50 f7 be f0 29 05 bf
       0.15512598 0.42482343 -0.48303765 -0.52017117
0002a0 16 84 08 3e 7b 3b ec be 0a ec 02 bf 95 d4 b6 3d
       0.13331637 -0.4613913 -0.5114142 0.089272656
0002b0 76 78 43 3d cd f1 bd be cd f4 c2 3d 1a 30 93 be
       0.047722302 -0.37098542 0.09519348 -0.28747636
0002c0 ee 81 65 be 63 64 96 be 08 b0 81 bf 0b d5 97 3e
       -0.22412845 -0.29373464 -1.0131845 0.29654726
0002d0 23 9e ee 3e 76 7a 0f bf 5b 88 0d be 9c c7 79 3e
       0.46605024 -0.56046236 -0.13821547 0.24392551
0002e0 ea 86 a0 3e a4 3a 1c bf 4d 19 2d 3f 69 14 18 3f
       0.3135293 -0.6102698 0.6761673 0.59406143
0002f0 76 1d d9 bd 36 3c c1 3e 54 87 7b bf dc a8 fc bd
       -0.10601322 0.3774125 -0.9825337 -0.12336895
000300 50 ed 0c bf c0 86 b3 be 8d 9b 91 3d 10 86 ea be
       -0.5504961 -0.35063744 0.07109747 -0.45805407
000310 62 52 3a bf bf 5e e3 bc 0a de 28 3f 08 b5 98 3d
       -0.72781956 -0.02775514 0.65963805 0.07456404
000320 db 76 56 3e 92 be 12 3e 88 b7 12 3f 3f 71 d6 bd
       0.20943777 0.1433051 0.57311296 -0.10470819
000330 ff 60 3c be 61 d8 88 be 1a d7 22 3e 4d 73 32 3e
       -0.18396376 -0.26727584 0.15902367 0.17426796
000340 81 74 d6 be 04 39 96 be 91 11 18 be 7f d0 25 3f
       -0.4188576 -0.29340374 -0.14850451 0.64771265
000350 ea df 93 3e 6d b4 dc bd b8 46 26 bf 91 96 a1 3e
       0.2888177 -0.10776601 -0.6495166 0.31560186
000360 c1 49 86 3e d5 24 c9 bd b4 8e 98 3e 2d 83 3b bc
       0.26228145 -0.09821478 0.29796374 -0.011444849
000370 aa 32 1d 3c ff 8d cd 3e 40 cc 12 bf bc ea 10 bf
       0.009594599 0.40147397 -0.5734291 -0.56608176
000380 20 90 38 be 33 4b 17 bf 0c ee 85 3f e1 10 10 3f
       -0.1802373 -0.5909912 1.0463271 0.56275755
000390 78 c1 19 be c6 b5 57 3e 9c 1b fa be 78 c8 e0 be
       -0.15015209 0.21065435 -0.4884919 -0.43902946
0003a0 cf 27 b6 be 4e 86 e3 3e 84 1d 8f 3e f8 29 e8 3d
       -0.35577247 0.44438404 0.27952206 0.1133613
0003b0 60 2d e2 3e a0 4a a6 3e 0c bf 18 bf 7d 1c a0 3e
       0.44175243 0.3247881 -0.59666514 0.31271735
0003c0 5b b2 17 bf d7 de 34 3f 0c 88 43 bf b5 35 02 bf
       -0.59256524 0.70652527 -0.76379466 -0.508632
0003d0 36 c6 c8 be 6e b2 a4 3e 66 04 14 be 4d c6 28 bf
       -0.39213723 0.3216738 -0.14454803 -0.6592758
0003e0 a2 94 38 3b ee 3f 21 3e bc 1c 17 bf fb c3 bd bd
       0.0028164764 0.15747043 -0.5902822 -0.09265896
0003f0 37 5a 00 3f f2 f9 3b 3f e0 26 9e be b2 c8 aa bd
       0.50137657 0.7342826 -0.30889034 -0.08339061

decoders.0.decoder_net.3.weight f4 [32]
000000 44 bf 7d 3f ab b9 86 3f bb 5f 8c 3f cc e5 7b 3f
       0.99119973 1.0525411 1.0966715 0.9839752
000010 87 4a 81 3f a7 ea 7c 3f 73 ad 77 3f a4 37 81 3f
       1.0100869 0.9879555 0.9674904 1.0095105
000020 a8 74 80 3f fa a7 95 3f 25 ec 73 3f e1 4b 75 3f
       1.0035601 1.1691887 0.952822 0.9581891
000030 3d 61 83 3f 77 a6 7e 3f b5 44 88 3f 8c 97 80 3f
       1.026405 0.99472755 1.0645968 1.0046248
000040 7e c9 84 3f 15 c7 7b 3f 69 af 82 3f 14 7b 7f 3f
       1.037399 0.9835065 1.0209781 0.9979718
000050 55 c6 80 3f ae 52 8a 3f 23 30 82 3f 18 88 84 3f
       1.0060526 1.0806482 1.017094 1.0354033
000060 9d 04 84 3f 63 df 80 3f a9 7e 87 3f 24 ac 77 3f
       1.0313908 1.0068172 1.0585529 0.9674704
000070 b8 68 82 3f 43 7a 83 3f 76 3e 71 3f 95 b5 7e 3f
       1.0188208 1.0271686 0.9423593 0.9949582

decoders.0.decoder_net.3.bias f4 [32]
000000 d3 d8 20 bc e7 97 80 bd e2 48 06 bd 48 8a 1a bd
       -0.00981732 -0.06278973 -0.03278435 -0.03772953
000010 dd 57 03 3d f3 5b 99 3b bc 89 72 bd ed 77 f8 bd
       0.032066215 0.0046801507 -0.059213385 -0.12132249
000020 65 b0 83 bd dd 48 9d bc 7b c1 19 3d 37 4e f8 ba
       -0.06430129 -0.019199783 0.037538033 -0.0018944208
000030 b8 74 11 bc fc 66 1e 3b 74 5b 3b 3d 54 a7 e7 bd
       -0.008877926 0.002417027 0.045741513 -0.11311212
000040 17 2f 69 3d bc 89 50 bd af dd c3 bc b2 c0 45 bd
       0.056929674 -0.050912604 -0.023909418 -0.04827947
000050 9b 51 5e bc a2 7b a1 bd 0e 4d 93 3b 61 41 28 3d
       -0.013569261 -0.07884909 0.0044952696 0.041077975
000060 aa 1e 51 3d 52 7a 49 3d a1 9d 41 bd 38 68 c4 bc
       0.051054634 0.04918892 -0.047269467 -0.023975477
000070 c0 ec 91 bc ea 30 f2 bc db 1e 44 bc d6 eb 8d 3d
       -0.017813087 -0.02956434 -0.011970247 0.06929748

decoders.0.decoder_net.3.running_mean f4 [32]
000000 f8 ff 7f 3e f8 ff 7f 3e f8 ff 7f 3e f8 ff 7f 3e
       0.24999988 0.24999988 0.24999988 0.24999988
000010 f8 ff 7f 3e f8 ff 7f 3e f8 ff 7f 3e f8 ff 7f 3e
       0.24999988 0.24999988 0.24999988 0.24999988
000020 f8 ff 7f 3e f8 ff 7f 3e f8 ff 7f 3e f8 ff 7f 3e
       0.24999988 0.24999988 0.24999988 0.24999988
000030 f8 ff 7f 3e f8 ff 7f 3e f8 ff 7f 3e f8 ff 7f 3e
       0.24999988 0.24999988 0.24999988 0.24999988
000040 f8 ff 7f 3e f8 ff 7f 3e f8 ff 7f 3e f8 ff 7f 3e
       0.24999988 0.24999988 0.24999988 0.24999988
000050 f8 ff 7f 3e f8 ff 7f 3e f8 ff 7f 3e f8 ff 7f 3e
       0.24999988 0.24999988 0.24999988 0.24999988
000060 f8 ff 7f 3e f8 ff 7f 3e f8 ff 7f 3e f8 ff 7f 3e
       0.24999988 0.24999988 0.24999988 0.24999988
000070 f8 ff 7f 3e f8 ff 7f 3e f8 ff 7f 3e f8 ff 7f 3e
       0.24999988 0.24999988 0.24999988 0.24999988

decoders.0.decoder_net.3.running_var f4 [32]
000000 11 56 7d 3d af ee 73 3d 2a 45 48 3d 07 ab 25 3d
       0.061849657 0.0595538 0.048894085 0.040446308
000010 39 d1 65 3d 82 aa a5 3d d5 d1 7b 3d 41 02 89 3d
       0.056107733 0.080891624 0.06147941 0.06689883
000020 c0 e1 72 3d ea c0 50 3d 04 78 30 3d 45 30 87 3d
       0.059297323 0.050965227 0.043083206 0.066010036
000030 d6 78 36 3d 96 e2 89 3d 3f 62 7d 3d 38 bb 6e 3d
       0.044548832 0.06732671 0.061861273 0.058284014
000040 1b ae 87 3d 84 16 9b 3d 48 78 54 3d ee 02 43 3d
       0.06625005 0.07572654 0.05187252 0.047610216
000050 3a ef 3e 3d 1e 6e 1f 3d 32 ab 64 3d 4b 06 11 3d
       0.046614863 0.038923375 0.055827327 0.035406392
000060 99 32 1e 3d 69 c3 40 3d 3e b1 56 3d 09 83 61 3d
       0.038622472 0.047061358 0.052415125 0.055056605
000070 5d 77 74 3d 19 9e 85 3d 74 d7 67 3d af c0 b7 3d
       0.059684146 0.06524295 0.056601956 0.08972298

decoders.0.decoder_net.4.weight f4 [32, 32, 3, 3]
000000 f5 83 3e bd 0a 5e 40 3d d6 10 82 3d 19 74 09 3d
       -0.046512563 0.046964683 0.063508675 0.033557985
000010 62 34 2a 3d c3 56 13 bd f2 a0 11 bd af 55 4e 3b
       0.041553862 -0.035971414 -0.03555388 0.0031484177
000020 29 0f 55 bd 5c ca 19 bb e6 80 8b 3d 61 ef 49 bc
       -0.05201641 -0.0023466563 0.06811695 -0.012325139
000030 85 c8 a9 3c 3c b7 b9 3d 59 22 2c 3d f5 d6 72 3d
       0.020725498 0.09068152 0.042024944 0.05928703
000040 22 ff 8d ba bd 6f 31 bd 4f 6c 1b 3c 13 c2 26 3d
       -0.0010833482 -0.043319453 0.009486272 0.040712427
000050 97 6d be 3c 7f b3 a6 3d 40 e3 64 bb da 2b 82 3c
       0.023245616 0.08139705 -0.003492549 0.01589005
000060 8b ce 5c 3d f5 5c 81 3d 9a 87 cd bc 25 d8 0d bd
       0.053907912 0.06316558 -0.025089074 -0.03462996
000070 12 1e b7 3c 1b 2b 07 bc b1 0c ff 3c 38 cb 16 bd
       0.022353206 -0.008250023 0.031133981 -0.0368149
000080 8c 18 10 3c bc 4f 1d bc 71 75 8d bd 86 0a 72 3c
       0.008794915 -0.00960153 -0.06907166 0.014773017
000090 fc 34 b4 3c 04 34 0d bd 43 0a 35 bc 62 29 29 3d
       0.021997921 -0.034473434 -0.01104981 0.04129923
0000a0 b9 b6 33 3d 70 cd 95 b9 e1 e5 d0 bc 94 6a f3 bc
       0.04387543 -0.00028572557 -0.02550024 -0.029713906
0000b0 f5 f3 9a 3d 7b 70 d7 3c 49 dc f8 3c fb 7c 30 3b
       0.07566062 0.026298752 0.030378478 0.0026929963
0000c0 8e 90 95 3d de b4 e1 bc 00 01 8d 3d e8 d8 32 bd
       0.07302962 -0.027552065 0.06884956 -0.04366389
0000d0 d7 ba 8f bc 71 87 23 3a 34 81 01 bd d0 d8 39 3d
       -0.017545147 0.0006238139 -0.03161736 0.045372784
0000e0 ad 40 69 3c b5 1d ef 3b 1c 4b 87 3c 5e c4 58 3d
       0.014236611 0.0072972425 0.016515307 0.052921645
0000f0 c5 9d 09 3c 85 cf e5 bb 46 e6 23 3c db 48 c6 bc
       0.008399432 -0.0070132636 0.010003632 -0.024204662
000100 60 35 23 bd 0f 97 11 3c 5a e9 57 3d 5d 34 e3 3c
       -0.039845824 0.008886113 0.052712776 0.02773493
000110 54 38 34 bd 5e 5e 0c bd f9 86 45 3c 5f a3 74 3d
       -0.04399903 -0.034269683 0.012056106 0.059726115
000120 13 1c 5a 3c 82 92 e7 3b 13 9e 17 3d c0 ce fa b5
       0.0133123575 0.0070670256 0.037015986 -1.8686624e-06
000130 8b 9f a1 3c 4e 19 9b bd d9 74 03 3d 82 11 2e bd
       0.019729396 -0.07573186 0.032093856 -0.042497166
000140 23 61 ae 3c 44 3c f8 bc 92 5d 8e bd da 40 95 bc
       0.021286553 -0.030302174 -0.06951441 -0.0182194
000150 f3 c7 1c bd 3e 37 c4 bd 34 d9 12 3b e7 46 20 bd
       -0.038276624 -0.09580849 0.0022407295 -0.039130118
000160 66 01 89 3d 87 c2 9a 3c 4d 55 3c 3c 8c 27 41 bd
       0.0668972 0.018891586 0.011494947 -0.047156855
000170 8e 37 63 bd df fc a1 3d 51 9a ef bc 34 a9 a0 3c
       -0.055472903 0.079095595 -0.029248388 0.019611932
000180 58 93 7f 3d 05 4a e3 3c 07 13 84 bc df e6 7a bc
       0.062396377 0.027745256 -0.016122354 -0.015313833
000190 7d 2b 18 bc ee a4 f1 bc 40 d8 77 bd 1e 10 ef 3c
       -0.009287712 -0.02949759 -0.060508966 0.02918249
0001a0 d7 12 53 3d f2 3b 57 bd 8f b7 19 bd 98 a7 7a 3d
       0.05153164 -0.052547403 -0.03752857 0.061194986
0001b0 2d 3e 20 3d 2e 1e 11 bd 72 5b c7 bc b6 8a ea 3c
       0.039121795 -0.035429172 -0.024335597 0.028630596
0001c0 dd e2 80 bd c6 1f c3 3c f6 e8 1b 3c 2b e4 3f 3d
       -0.06293271 0.023818862 0.009515991 0.046848457
0001d0 4e 72 9c 3c 8d 9b 31 bd 37 59 0e bd 5c 01 8f bd
       0.019097473 -0.043361235 -0.03475305 -0.06982681
0001e0 d9 8e 58 bd 55 be b3 bc b2 6a 0f bd d6 09 66 3c
       -0.052870605 -0.021941343 -0.035013862 0.014040431
0001f0 e5 8a 34 bd ef 05 e6 bc 3a 9d d4 bc 4a fc 7a bd
       -0.044077773 -0.028079001 -0.025953878 -0.061275758
000200 4c 0c ff 3b b6 da 61 bd ac 25 28 3b 3c 72 7c bc
       0.0077834483 -0.05514022 0.002565722 -0.015408095
000210 28 16 58 3b d7 9c a8 bd 7d 32 28 bd 3c 40 f3 3c
       0.003297219 -0.0823304 -0.041063774 0.029693715
000220 cc e9 32 3d bd db 69 bc 23 e1 29 bd 01 52 e7 bc
       0.043679997 -0.014273581 -0.041474473 -0.028237345
000230 67 53 5a bd 56 73 17 bd d4 a1 a0 3a 6f ec 53 bd
       -0.053302195 -0.036975227 0.001225526 -0.051739153
000240 8c 77 69 3d 9b f1 03 bd 77 24 a8 bb 51 6f d8 3c
       0.056998774 -0.032212835 -0.0051313 0.026420267
000250 09 05 6d bc f7 f9 14 bd e3 0a 10 bd 79 ec 5f bd
       -0.0144665325 -0.036371198 -0.035166632 -0.054668877
000260 cb f5 24 3c 1c 65 0c 3c 57 a4 3c 3d 44 c7 82 bd
       0.010068367 0.008569028 0.046055164 -0.06385663
000270 83 7b 3a bd aa e8 db bd c3 3d e0 3c 04 04 b1 bb
       -0.045527946 -0.107377365 0.0273732 -0.00540209
000280 36 ee 15 bc e9 1f 97 bd 05 68 11 3c b1 af cb bc
       -0.009151032 -0.07379133 0.008874898 -0.02486405
000290 b3 8c 30 3d e9 53 c8 3c 54 22 8c bc f3 b6 a2 3d
       0.04310293 0.024454074 -0.017106213 0.07945051
0002a0 e9 fb 20 bc 27 4d bc 3d ae 6f 0b bb e9 6b 96 bc
       -0.009825685 0.09194403 -0.0021276283 -0.018362002
0002b0 56 93 af bc 20 70 16 bb bf d9 27 bd 15 3c a9 3d
       -0.02143256 -0.0022955015 -0.040979143 0.08263413
0002c0 49 d6 04 3b a2 ff 51 bc d6 6b 31 bc 39 6d fc 3c
       0.0020269325 -0.012817295 -0.010828933 0.0308138
0002d0 fe 4e b2 3c ba df 17 3d 16 26 01 3a f4 1a 41 3c
       0.021766182 0.037078597 0.0004926635 0.011786211
0002e0 16 59 df 3b e1 f5 af 3b 87 c0 bf 3c 4e ec e1 3b
       0.00681604 0.005369887 0.023407234 0.006894625
0002f0 78 ee ec 3c 0e ef 1a bd 7e ba 38 bd c7 17 ab 3c
       0.028922305 -0.037825637 -0.045099728 0.020885361
000300 aa ca 0d 3d 7c 2c 93 3d 39 5c ee 3c 05 99 a7 3c
       0.034617104 0.07186219 0.02909671 0.020458708
000310 49 0a 0e 3d 52 d2 ae 3c db 79 df 3c e0 b0 b2 3c
       0.034677777 0.021340523 0.027279785 0.021812856
000320 e4 8f a5 3b ff e4 62 bd f2 11 60 3d 85 8e f5 bc
       0.0050525535 -0.05539417 0.054704614 -0.029975185
000330 2f a1 5a bd 52 42 04 3d 8f 12 04 3d c5 27 8a bd
       -0.053376373 0.03228981 0.03224426 -0.06745867
000340 ca a1 a0 bc 9b e1 6b bc 98 2c 1f 3c 9b 74 e6 3c
       -0.019608397 -0.01439705 0.009715222 0.028131774
000350 00 5c 18 3b 94 2e 98 ba e4 5e 82 3d c7 9e 8d bc
       0.0023248196 -0.0011610561 0.06365755 -0.017287625
000360 9b e5 a7 ba ba ef 4f bc 6b 6b 23 bd ca bb 7a bc
       -0.0012809517 -0.012691433 -0.039897364 -0.015303561
000370 46 bc f5 3d 1c b0 ec bc ab b4 b8 3c d4 20 52 bd
       0.11998801 -0.02889257 0.022547087 -0.05130084
000380 d4 a6 22 bd c9 11 63 3d b9 ee 84 bc 4f 6c 26 3c
       -0.03970988 0.055436883 -0.016227113 0.010157659
000390 4f fa 9b bc 8e 55 1f 3d 89 6a 51 bc 5c a5 7e bd
       -0.019040255 0.03889995 -0.012781748 -0.062169418
0003a0 37 b8 5a 3d e4 cc 54 bd 2e 65 9f bd 44 6e 72 bc
       0.053398337 -0.05195321 -0.0778297 -0.014796797
0003b0 2e 68 fc 3b 6b 31 9a bd 8b f5 96 bc 87 d4 dc 3c
       0.007702849 -0.07528957 -0.01842763 0.02695681
0003c0 62 4b 49 3c 59 ae b2 3d e7 5d 90 3d 42 f8 21 3d
       0.012286039 0.087246604 0.070491605 0.039543398
0003d0 31 fe 12 bc 72 f5 02 3d 47 fe 66 3c 16 dc 8e bd
       -0.008971737 0.031972356 0.01409871 -0.06975572
0003e0 b0 80 0b 3d 18 d8 33 3d d9 c6 97 bd d7 b3 cf bc
       0.034058273 0.043907255 -0.07410974 -0.025354309
0003f0 43 77 d2 3b 0e b6 bc bd 54 e2 64 3c 19 05 1b bd
       0.0064229085 -0.09214412 0.013969976 -0.03784666

decoders.0.decoder_net.4.bias f4 [32]
000000 ff 72 59 3d ee 0d 83 bd 21 20 99 bb b7 4a bc bd
       0.053088184 -0.06399141 -0.0046730195 -0.09193938
000010 23 b1 77 3c 3e 11 8b bd 36 33 28 bd 96 20 08 3d
       0.015117916 -0.06790398 -0.041064464 0.0332342
000020 99 82 09 bd cf 11 8a bd 8a d2 b1 bd 41 81 89 3d
       -0.033571813 -0.06741678 -0.08682735 0.06714106
000030 2f 16 ec 3a 24 a7 c4 3c aa 52 96 3c 32 c4 49 3c
       0.0018011982 0.02400548 0.018349964 0.012314843
000040 a9 25 66 3d 7a 59 f2 3c f7 1c ba 3c 7b 2e 97 3d
       0.05618826 0.029583681 0.02271889 0.07381912
000050 9f ca 50 bc e2 82 d1 3d f9 59 62 3d 88 f6 35 3d
       -0.012743621 0.10230042 0.055261586 0.044424564
000060 84 a7 12 3d e3 c3 c4 bd 5f 99 04 bd b5 08 e8 3b
       0.035804287 -0.09607675 -0.03237283 0.007081116
000070 9e f2 16 3c d5 ae bd bc a4 d5 91 bd e1 65 fd 3d
       0.009213118 -0.023154655 -0.07120827 0.123729475

decoders.0.decoder_net.6.weight f4 [32]
000000 10 0d 62 3f 1f 02 75 3f 35 02 7b 3f 52 57 5f 3f
       0.8830118 0.9570636 0.9805024 0.87242615
000010 48 38 5e 3f cb 40 71 3f ec aa 66 3f 37 63 6c 3f
       0.8680463 0.9423949 0.90104556 0.9233889
000020 40 57 69 3f 49 20 69 3f a8 37 65 3f c9 37 70 3f
       0.9114876 0.9106489 0.8953805 0.9383512
000030 da 58 6c 3f 0c cd 70 3f 79 c2 62 3f 83 cd 6f 3f
       0.92323077 0.94062877 0.8857799 0.9367296
000040 5a ae 68 3f 3c d8 7a 3f 48 0b 71 3f f7 51 60 3f
       0.9089104 0.979862 0.9415784 0.8762507
000050 1b f9 6f 3f 19 fa 7d 3f 24 70 70 3f 39 cb 72 3f
       0.9373948 0.99209744 0.93921113 0.94841343
000060 67 0f 60 3f 43 15 71 3f 15 e9 70 3f 6a db 71 3f
       0.875235 0.9417307 0.94105655 0.94475424
000070 2d 17 6d 3f f0 65 75 3f 13 68 7f 3f f7 76 71 3f
       0.9261349 0.9585867 0.9976818 0.9432215

decoders.0.decoder_net.6.bias f4 [32]
000000 93 bf 84 bd 4a 6f 5d bd ad ff 41 3d 56 46 2d bb
       -0.064818524 -0.05406121 0.047362972 -0.0026439629
000010 d4 7a c8 bd a1 46 04 bd 2e b8 b2 bd fc cb d9 bc
       -0.097890526 -0.03229392 -0.08726536 -0.026586525
000020 1a 6a cf 3d 30 b4 b9 bd fe 0a aa bd 90 4f be bc
       0.10127659 -0.09067571 -0.08302878 -0.023231298
000030 0e 67 a1 3d 25 ef fa bc bb 87 b2 bc 94 65 77 3c
       0.07880984 -0.030631611 -0.021793237 0.015099902
000040 60 0d 7b bd 05 37 06 3d d8 5b 32 3c ac 30 11 be
       -0.061292052 0.032767314 0.010886155 -0.14178723
000050 65 a9 ce ba a7 7f 60 3d 2e a9 41 bd 89 94 d0 3a
       -0.0015767036 0.05480924 -0.047280483 0.0015913408
000060 18 ed 3a 3d fa e6 bd 3d c0 0b 4b bd 62 a3 81 3c
       0.045636266 0.09272571 -0.049571753 0.015824977
000070 dc 41 d7 3b 4f 54 a7 bc e7 cb 8f bd d1 13 26 3e
       0.0065691303 -0.020425944 -0.07021313 0.16218497

decoders.0.decoder_net.6.running_mean f4 [32]
000000 1e 49 12 3e 1e 49 12 3e 1e 49 12 3e 1e 49 12 3e
       0.14285704 0.14285704 0.14285704 0.14285704
000010 1e 49 12 3e 1e 49 12 3e 1e 49 12 3e 1e 49 12 3e
       0.14285704 0.14285704 0.14285704 0.14285704
000020 1e 49 12 3e 1e 49 12 3e 1e 49 12 3e 1e 49 12 3e
       0.14285704 0.14285704 0.14285704 0.14285704
000030 1e 49 12 3e 1e 49 12 3e 1e 49 12 3e 1e 49 12 3e
       0.14285704 0.14285704 0.14285704 0.14285704
000040 1e 49 12 3e 1e 49 12 3e 1e 49 12 3e 1e 49 12 3e
       0.14285704 0.14285704 0.14285704 0.14285704
000050 1e 49 12 3e 1e 49 12 3e 1e 49 12 3e 1e 49 12 3e
       0.14285704 0.14285704 0.14285704 0.14285704
000060 1e 49 12 3e 1e 49 12 3e 1e 49 12 3e 1e 49 12 3e
       0.14285704 0.14285704 0.14285704 0.14285704
000070 1e 49 12 3e 1e 49 12 3e 1e 49 12 3e 1e 49 12 3e
       0.14285704 0.14285704 0.14285704 0.14285704

decoders.0.decoder_net.6.running_var f4 [32]
000000 75 67 84 3b 51 58 15 3c 88 fe 2c 3b 9a 57 68 3b
       0.0040406534 0.009115295 0.002639683 0.0035452605
000010 36 dc 81 3b dc e7 ba 3b 13 a4 96 3b 46 85 cd 3b
       0.003963019 0.0057039093 0.004597196 0.006271991
000020 09 ec 6f 3b ab 32 8a 3b 24 b9 44 3b 9c d6 7d 3b
       0.0036609194 0.004217466 0.003001758 0.0038732653
000030 23 3c 6b 3b fa e6 3c 3b 85 03 6b 3b 0b 3f b2 3b
       0.0035893999 0.0028824196 0.0035860252 0.005439644
000040 63 8d 74 3b d4 71 b9 3b f0 6a 74 3b 0f f9 b0 3b
       0.0037315718 0.0056593213 0.0037295185 0.005400784
000050 9a d5 96 3b 55 2a 28 3b 31 ea 40 3b f9 6a 48 3b
       0.0046031 0.0025659997 0.0029436464 0.0030581339
000060 3c dc e6 3b bc 6b 52 3b 60 3f da 3b 8d fb 69 3b
       0.007045297 0.0032107672 0.006660387 0.0035702914
000070 ef 38 ad 3b cb 7a c9 3b f4 0f a9 3b 00 cf 55 3b
       0.005286328 0.0061486713 0.0051593725 0.0032624602

decoders.0.decoder_net.7.weight f4 [32, 16, 3, 3]
000000 b7 b7 87 3d f8 34 98 bd e9 d7 a4 3d 3e 91 74 3d
       0.06626838 -0.07431978 0.08048994 0.059708826
000010 9b 21 62 3c 03 38 b9 bc a8 73 f6 3a 3c b6 d5 bd
       0.0138019575 -0.022609716 0.0018802779 -0.10435149
000020 0f 93 3b bc 41 93 60 bd e8 25 d2 bc e8 b9 28 bb
       -0.011448636 -0.054827932 -0.02565284 -0.0025745574
000030 5c ce 26 bc 9b 28 21 3d a3 5a 04 3d 44 e4 99 bd
       -0.010181036 0.039345365 0.032313 -0.07514241
000040 ce 4f 1c 3c d9 88 15 bd 4d a9 d5 3d 84 85 18 3d
       0.009540511 -0.03650746 0.10432682 0.037236705
000050 13 6e 60 bc 65 44 24 3d f5 71 b0 bd 04 4c 3b bd
       -0.013698119 0.04010429 -0.086154856 -0.04572679
000060 d7 5f 30 3d a5 4b 89 3d 82 f3 85 3d 57 0c 94 3d
       0.04306015 0.06703881 0.06540586 0.07228916
000070 b5 6b 14 3d 50 eb 00 3d ce 30 40 bd 70 73 0c bd
       0.03623553 0.03147441 -0.046921544 -0.034289777
000080 b0 45 97 3c f3 b9 5c 3d e4 00 8f bc 5f 1e 20 bd
       0.018465847 0.053888272 -0.01745648 -0.039091464
000090 bc 0c db 3c 5c 35 a7 3c c3 e5 2b bb 1b b3 0b 3d
       0.02673947 0.020411186 -0.0026229478 0.034106355
0000a0 b4 49 8c bd c5 f4 4a bd f1 4b 4a bd 72 57 e3 3c
       -0.06849995 -0.049549837 -0.04938883 0.027751658
0000b0 18 a3 df 3b 1c 96 ad 3d d8 30 24 3d 8e ff 0c bd
       0.006824862 0.08475897 0.040085644 -0.034423403
0000c0 83 38 ca 3d 78 00 9b 3d 65 85 da bc 6a 69 ce bb
       0.0987406 0.07568449 -0.026674936 -0.0062991874
0000d0 b9 91 c2 bd 2b 3b 8d bd 78 ea 26 bd 68 94 4a 3d
       -0.09500451 -0.06896051 -0.04075095 0.049457937
0000e0 ac c2 5a 3d 50 bd a1 bd 6f cb 80 bd 58 76 1a 3d
       0.05340831 -0.078974366 -0.06288802 0.037710518
0000f0 ab 44 9d bb 64 7d 26 3d 6e 67 9a 3d 0e 43 54 3d
       -0.0047994456 0.040646926 0.07539259 0.05182176
000100 f9 9e a7 bb f9 bc 5e bd 8a 83 bf 3c 4e 14 2e bd
       -0.0051153866 -0.054379437 0.023378152 -0.042499833
000110 99 ec 4f bc 81 32 62 bd 61 f7 bb 3d 87 a6 a6 3c
       -0.012690687 -0.055223946 0.09178043 0.020343078
000120 e3 80 95 bc 85 0b 5d bd 4a 53 ec 3b fc 93 30 bd
       -0.018249935 -0.053966064 0.0072120773 -0.04310988
000130 8a 34 36 3d d0 89 05 bd 01 5c 83 bd e3 95 24 3d
       0.0444837 -0.03260213 -0.06414033 0.040182006
000140 26 fa 70 bd f7 75 ff 3c 25 7c 81 3c a1 a6 f5 3c
       -0.05883231 0.03118418 0.015806267 0.029986681
000150 71 e6 20 bc 7b 9e 04 39 a1 28 6d 3d d4 39 d6 bc
       -0.0098205665 0.0001264754 0.057900075 -0.026150621
000160 3f d2 6d 3d 78 ac bc 3d 04 e8 2d 3d 4c 3e 77 3d
       0.058061834 0.09212583 0.042457595 0.060362145
000170 2e 4c fa 3c 5a 3a aa 3d a3 1f 49 bd f7 f6 96 3c
       0.030553903 0.08311911 -0.049102437 0.018428309
000180 59 69 47 3d ed 15 8f 3d de 96 a4 3d e9 68 12 3d
       0.04868445 0.06986604 0.08036588 0.03574458
000190 51 c5 3f 3c 6a b9 0d 3d 00 d2 fc 3c 06 08 d0 bb
       0.011704759 0.034600653 0.030861855 -0.0063486127
0001a0 8e 93 91 bb 8f dc ec bc 93 56 8f bc 90 29 91 3c
       -0.0044426387 -0.028913764 -0.017497336 0.017720014
0001b0 8b d4 07 3e ba de 36 ba e7 bf 8d bd 64 c4 bc bc
       0.13264672 -0.0006975938 -0.06921368 -0.023042865
0001c0 ab ba f7 bb 7a 07 3f 3d 56 48 6b 3d 7a 49 00 3d
       -0.0075600944 0.04663799 0.05744203 0.031320073
0001d0 8b 4f a4 3d 34 f1 08 3b 0c bc 51 bd 80 b2 46 3d
       0.08022984 0.0020895721 -0.051204726 0.048510075
0001e0 50 14 23 3d 61 b8 22 bd c8 fa cc bc 2c 78 76 bd
       0.039814293 -0.03972662 -0.025021926 -0.0601732
0001f0 46 c3 a4 bd e2 a7 3c bd 9e 5b 2c bc a8 bd 71 3d
       -0.08045058 -0.046058543 -0.01051989 0.05901876
000200 3e b3 0a bd 53 d7 42 3c c6 30 ce 3c 04 60 8f bc
       -0.033862345 0.011892158 0.025169741 -0.017501839
000210 1a 4e 96 3d 1b c0 47 3d 26 f9 4a 3d b5 9d 9a 3d
       0.073391154 0.04876719 0.049554013 0.075496115
000220 70 96 a6 3c a7 97 00 bc 6b 6b 2b 3c 75 25 35 bd
       0.020335406 -0.007848657 0.010462622 -0.044225175
000230 9b 78 9f 3c dc bb 95 bd 27 61 dd 3c b9 e8 cd 3c
       0.019466689 -0.07311222 0.027023865 0.025135385
000240 4a c2 3d 3d 4e 83 97 bd 4f a6 6d 3d 7f 1f c0 3c
       0.046327867 -0.07398091 0.058019932 0.023452519
000250 37 6d 92 3d 33 0f c7 bc 00 a9 b1 bc f7 3d 82 3c
       0.07149737 -0.02429924 -0.02168703 0.015898688
000260 0d dc 8e bc 98 2e 69 3d 2b 2e cd bc 4d 7d 30 bd
       -0.017438913 0.0569292 -0.025046429 -0.043088246
000270 92 95 19 bd 53 2e ea 3c ad 37 80 bd f0 6b 9d bc
       -0.037496157 0.028586542 -0.06260619 -0.019216508
000280 f0 b2 83 bd 2a 07 c6 3d 82 d3 1a 3d 94 f4 03 bd
       -0.06430614 0.09669335 0.037799366 -0.03221567
000290 e0 08 b7 bd 80 8e 9f 3d 30 a6 9a 3d 9a 5b 4b bd
       -0.0893724 0.077908516 0.07551229 -0.049647905
0002a0 65 b0 82 3d 5b 73 8c 3d b4 9f 1a bd 91 26 c0 bd
       0.06381301 0.0685794 -0.03774996 -0.09382356
0002b0 3a bc fa bd 59 97 70 bd 31 2c 78 3d af 1a a4 bc
       -0.122429326 -0.058738086 0.06058902 -0.020032255
0002c0 ce ac 08 3c c3 9b cb 3c d6 21 b9 3d 91 7f 43 3d
       0.008341981 0.024854546 0.09039657 0.04772908
0002d0 6a ce 0c 3c 0f 9b 6b 3b 4d 5f cf bc 6e 41 de 3c
       0.008594135 0.0035950576 -0.025313998 0.027130809
0002e0 2b 05 81 3d ab fd a0 3d 11 67 c1 bc 1c 77 3c bc
       0.06299814 0.07860883 -0.023608716 -0.011503007
0002f0 62 ff ae 3d d2 ea 64 bd 83 79 c1 3d 87 73 96 bb
       0.08544804 -0.055888005 0.09447005 -0.0045914087
000300 4b 57 4d 3c 20 90 85 3c ed 75 5e 3b 26 43 0a bd
       0.012533019 0.016304076 0.00339448 -0.033755444
000310 da 7c 6c 3d 95 f1 0e 3d 30 cc 88 3d 8b d0 96 bc
       0.057736255 0.03489836 0.06679571 -0.018409988
000320 78 20 ad bd ce 98 93 3c 6d 2a 3f 3d 5f d8 82 bc
       -0.084534585 0.018017199 0.04667132 -0.015972314
000330 da 50 fd bd ee ef d9 3d d1 26 a5 bd 1d 90 c8 3d
       -0.12368937 0.10641466 -0.08064044 0.097931124
000340 fa c4 6c bd 1a 8a 5c bc 17 53 47 3d e3 1e cd 3c
       -0.05780504 -0.01346066 0.048663225 0.025039142
000350 54 4c 99 3d 52 c6 c1 3c 34 25 f1 3d a2 4c 84 3c
       0.074852616 0.023654137 0.11774674 0.016149823
000360 a0 f1 65 3d 79 dc 17 bd 5b 01 3e 3d 27 cc 09 bc
       0.056138635 -0.037075493 0.04638801 -0.00841049
000370 e3 f8 81 3d 3d 04 ce bc 27 95 63 3d fe 5c 49 bd
       0.063462995 -0.025148505 0.055562165 -0.04916095
000380 c4 c8 1d 3d 44 63 90 39 b6 f1 b6 3c db 3f da bd
       0.038521543 0.0002753978 0.022332054 -0.10656711
000390 aa bb b3 bc 08 af fc bd fb 64 fd 3b 67 8b e4 bd
       -0.021940071 -0.12338072 0.007732985 -0.111594014
0003a0 55 ba 27 3d 45 64 15 bd 5f 6c 45 3d 96 88 a5 3d
       0.040949184 -0.036472578 0.048199054 0.08082692
0003b0 6d 04 69 3c 00 bf 8e bd 93 77 0a 3d 14 76 8a 3d
       0.014222247 -0.06970024 0.03380544 0.06760803
0003c0 c7 cd 96 bd b1 05 c4 3b e1 54 0d bd 60 49 55 3d
       -0.07363468 0.005982124 -0.034504775 0.05207193
0003d0 39 0e 99 bd 4d a7 48 bc eb ca 85 3d 0b b7 fe 3c
       -0.07473416 -0.012246919 0.06532844 0.031093141
0003e0 42 c5 45 bd a1 32 58 3c c0 b8 a4 3c df e3 01 3d
       -0.048283823 0.013195665 0.020107627 0.031711455
0003f0 b6 f1 6d 3c fd 0f d9 bc cb 06 81 bc 27 0e 2a 3d
       0.01452296 -0.026496882 -0.01575031 0.041517403

decoders.0.decoder_net.7.bias f4 [16]
000000 53 18 9b 3c 07 95 09 3d 65 e3 56 bd 29 aa 95 bc
       0.018932497 0.03358939 -0.052462954 -0.018269615
000010 72 3d bb bd ee 70 6b bd f5 cf ff bd ea e9 1f 3d
       -0.09142579 -0.057480745 -0.124908365 0.039041437
000020 7e 7b 6b 3c 6d e6 90 3c d8 36 e0 bd 3d 94 a6 ba
       0.014372705 0.017688 -0.109479606 -0.0012708973
000030 8b 1d 74 3c 48 49 c7 3d a4 1d 83 bc af 72 71 bd
       0.014899622 0.09730774 -0.016005345 -0.05894726

decoders.0.decoder_net.9.weight f4 [16]
000000 0c ab 6f 3f b9 aa 72 3f a5 44 72 3f a5 0d 6b 3f
       0.9362037 0.9479175 0.94635993 0.91817695
000010 e2 91 6c 3f a9 e1 6a 3f fa 96 71 3f c9 ab 71 3f
       0.924101 0.9175058 0.94370997 0.9440275
000020 f6 18 69 3f 99 b4 72 3f 13 50 6f 3f 20 fa 74 3f
       0.9105371 0.9480682 0.9348156 0.9569416
000030 02 ab 6c 3f d7 54 6c 3f 17 6b 69 3f 37 bd 6b 3f
       0.9244844 0.92316955 0.9117903 0.92085594

decoders.0.decoder_net.9.bias f4 [16]
000000 57 69 07 bb 0f 15 11 be bc 40 1b bd 6c b8 ac bc
       -0.0020662153 -0.1416819 -0.037903532 -0.021084033
000010 b5 f3 1b 3c b5 11 92 bd 5d 2f 30 bc d6 e2 3c 3d
       0.0095185535 -0.071322836 -0.01075348 0.046114765
000020 5c 6b 92 3d bf f4 f8 3d d5 e0 49 be 21 e8 02 bd
       0.071493834 0.121560566 -0.19714673 -0.031959657
000030 14 8e 04 3e 80 47 ac 3d 0d 80 50 3d f1 5c 55 bc
       0.12944824 0.08412075 0.05090337 -0.013022647

decoders.0.decoder_net.9.running_mean f4 [16]
000000 1e 49 92 3d 1e 49 92 3d 1e 49 92 3d 1e 49 92 3d
       0.07142852 0.07142852 0.07142852 0.07142852
000010 1e 49 92 3d 1e 49 92 3d 1e 49 92 3d 1e 49 92 3d
       0.07142852 0.07142852 0.07142852 0.07142852
000020 1e 49 92 3d 1e 49 92 3d 1e 49 92 3d 1e 49 92 3d
       0.07142852 0.07142852 0.07142852 0.07142852
000030 1e 49 92 3d 1e 49 92 3d 1e 49 92 3d 1e 49 92 3d
       0.07142852 0.07142852 0.07142852 0.07142852

decoders.0.decoder_net.9.running_var f4 [16]
000000 b5 96 0c 3b 4d dc 4e 3b 88 94 26 3b 77 c9 a4 3a
       0.0021452133 0.0031564415 0.0025418121 0.0012572248
000010 58 00 f4 3a 55 e9 03 3b 19 72 96 3b 69 29 65 3b
       0.0018615825 0.002012809 0.004591238 0.003496731
000020 1a 6e 09 3b 4a e7 43 3b b2 e4 02 3b d9 cf 4b 3b
       0.0020970167 0.0029892498 0.0019972739 0.0031099229
000030 2b 02 29 3b a0 6a e7 3a 3c f2 c1 3a e5 8f 22 3b
       0.0025788646 0.0017655678 0.0014796923 0.0024805006

decoders.0.decoder_net.10.weight f4 [16, 1, 3, 3]
000000 2a a8 47 3e c8 d6 7e 3e 8f 8b 06 3e 26 62 15 be
       0.19497743 0.2488662 0.13139175 -0.14588222
000010 eb 50 a7 3d 25 75 50 be 72 51 81 3e d5 f4 58 3d
       0.08169731 -0.20357187 0.2525745 0.052967865
000020 9b 85 ba bc 45 55 80 bd 89 b6 c0 3b 98 22 cc 3c
       -0.022768786 -0.06266264 0.005881135 0.02491884
000030 54 38 50 be e2 7a 0d 3e 43 89 3a 3e 82 e3 1f be
       -0.20333987 0.13816407 0.18216424 -0.15614131
000040 9f 37 84 3d bf 4b 9a 3d 95 ee 3a be ff 62 8c be
       0.064559214 0.07533979 -0.18255074 -0.27419278
000050 02 c7 e0 3d ff 5a 34 be 09 71 cf bd a1 4f 1c 3e
       0.10975458 -0.17612837 -0.101289816 0.15264751
000060 32 d9 d2 bd e3 5d 42 be e6 a3 81 bc b3 e5 db 3c
       -0.10295333 -0.18981127 -0.015825223 0.026842928
000070 39 60 65 3e 59 32 ea 3d ff 6e 53 bd b8 70 41 3e
       0.22399987 0.11435384 -0.051619526 0.18890655
000080 cd d5 3e 3e 47 d1 d0 3d 43 bf 09 3e 20 cb d4 3d
       0.18636246 0.101961665 0.13451867 0.103903055
000090 04 cd d8 3d c7 50 21 3e fe 9c 05 bc 04 68 aa bc
       0.105859786 0.1575347 -0.008155106 -0.020801552
0000a0 ce 5e 36 be ca 9c 81 be 2a 2c 33 be b4 e6 1a 3d
       -0.17809603 -0.25314933 -0.17497316 0.037817672
0000b0 8b 2b 89 bd ea 74 8c bd de 0a 31 be 7a e5 08 be
       -0.06697758 -0.06858237 -0.17289302 -0.13368788
0000c0 85 1b f1 bd 5a b3 90 be 1a 2d 5d bc 8f 8d 41 be
       -0.11772827 -0.28261834 -0.013499523 -0.18901657
0000d0 72 fa ba 3a 68 70 34 3e dd 5c f7 bc f9 ec 12 3e
       0.0014265312 0.17621005 -0.030195648 0.1434821
0000e0 50 e1 4c be 36 dd 96 3e 8b 77 ee bd fb 4e 9b 3e
       -0.20007825 0.29465646 -0.11643895 0.30333695
0000f0 1d ea 8e be 41 13 55 3e 28 af db 3d 81 d4 2a 3e
       -0.2791299 0.20808126 0.10726768 0.16682626
000100 6f 7a a0 bc df 13 64 3e 19 dd 2e be 45 f0 11 3e
       -0.01958963 0.22273205 -0.1707653 0.14251812
000110 57 da 22 be 6d d3 8c 3e 8c 13 ee bd e0 bb 92 3e
       -0.15903603 0.27505055 -0.11624822 0.28658962
000120 b4 d3 85 3e 91 2f 99 3b 7e 19 e3 bc 0f c9 84 3e
       0.2613808 0.00467486 -0.027722117 0.25934646
000130 ee d4 88 bd bd 69 94 3d e3 67 b0 bd 46 d5 86 3d
       -0.06681238 0.072467305 -0.08613565 0.065836474
000140 f9 43 2d be 5c dd 1e 3d 94 15 8f be b9 0b 6a be
       -0.16920461 0.038785324 -0.2794615 -0.22856034
000150 39 38 d1 3d e0 3d d3 3d 48 06 81 3d 49 99 1d 3e
       0.10215802 0.10314536 0.06300026 0.15390505
000160 fd d3 59 be 26 8e 70 3e aa 97 83 3d 1d f0 96 3d
       -0.21272273 0.23491725 0.06425412 0.07370017
000170 61 8c 4c 3e f3 ea f3 bd 10 2a 4b be f4 59 e1 3d
       0.19975425 -0.119100474 -0.19840264 0.11003485
000180 bf 1f 83 3d 81 37 dd bd 99 c1 37 be 26 ae 4a be
       0.064025395 -0.10801602 -0.17944945 -0.19792995
000190 0a eb b0 be 75 1d 52 be 94 df 5c bd 37 14 37 bd
       -0.3455432 -0.2051905 -0.05392416 -0.044697013
0001a0 81 d0 17 be 15 d2 06 bd c2 3c 1b 3e 76 81 b2 bd
       -0.14825632 -0.032915194 0.15159896 -0.08716099
0001b0 7d c3 cd 3c 22 08 77 3e c2 2c 3d be 99 6f 86 3e
       0.02511763 0.24124196 -0.18474105 0.26257017
0001c0 ea 0f 62 bd a6 e7 fc bd 53 47 86 be 7b 97 2c 3e
       -0.055190958 -0.12348871 -0.2622629 0.1685466
0001d0 d2 af 74 bd 1d b2 27 3e c2 52 4a 3e 1c b9 03 3e
       -0.059737988 0.16376539 0.19758132 0.12863582
0001e0 d4 f0 1b 3e d3 b8 55 3e cd b0 37 3e c1 00 da bd
       0.15228587 0.20871286 0.17938538 -0.10644675
0001f0 d2 43 76 be 1d 9a 04 bd bb cf 98 bd 34 58 31 3e
       -0.24049309 -0.032373536 -0.074614964 0.17318803
000200 71 46 a5 3c 8e eb 03 be b6 ea 5c 3e 22 07 a3 bc
       0.02017519 -0.12882826 0.2157391 -0.019900862
000210 cc 56 60 be 66 3c 8c bd be 4e 51 be 34 ac d7 bd
       -0.2190811 -0.068474576 -0.20440194 -0.10530892
000220 71 4b 06 3e 0f 37 53 3e 40 8b 6d be 99 e7 64 3e
       0.13114716 0.20626472 -0.23197651 0.22353972
000230 a2 6f 20 be 7d 3f 47 3e bf 33 65 3e 59 0b 70 be
       -0.15667585 0.19457813 0.22383021 -0.23441829

decoders.1.decoder_net.0.weight f4 [512, 2]
000000 9c 46 54 be f5 20 2a be f1 f4 cb 3e b1 5b b1 bd
       -0.2073006 -0.16614135 0.39835313 -0.08660067
000010 ef 31 35 bf ce f9 44 bf 59 fb b8 bc 6e ac fb bd
       -0.7077932 -0.7694367 -0.02258079 -0.12288748
000020 c2 fa 06 be 2e e9 39 3f 94 c0 63 3e c5 64 bf 3e
       -0.13181594 0.7262143 0.22241431 0.3738157
000030 81 09 e8 bd 5b fe 21 3f ce 06 e3 be 0d bd b3 bd
       -0.11329938 0.6327874 -0.4434113 -0.08776293
000040 69 dc 57 bd 3b d5 23 bf 48 c2 10 3f 55 4b 71 bd
       -0.052700434 -0.6399724 0.5654645 -0.058909733
000050 e4 26 27 be a6 80 c6 bd ce 9d 2d bf 76 29 f6 bd
       -0.1632343 -0.096925065 -0.67818916 -0.12019627
000060 9e 4d 90 be b1 55 24 bf f9 b5 2c 3f 74 80 26 be
       -0.28184217 -0.64193255 0.6746517 -0.16259938
000070 36 8f e4 be 26 1a 1c 3f 11 fb 38 3e 4d fb f4 be
       -0.4464051 0.609774 0.18064524 -0.47847977
000080 2a de dc be e8 27 6a be 66 5c 85 3e 62 34 9d 3e
       -0.43138248 -0.22866786 0.26047057 0.30704027
000090 f0 ec 3f 3f 20 2c 62 3e e7 92 8d 3e ac 00 b4 be
       0.7497091 0.22087145 0.2765114 -0.35156763
0000a0 c4 85 1f 3e 21 9e 7b 3e 49 b4 e4 3e 6d 86 a1 bd
       0.15578371 0.2457204 0.44668797 -0.07886968
0000b0 79 8d 0f 3f e7 4f dc bd 7d be 6e 3e f6 06 2a bf
       0.56075245 -0.10757428 0.23314853 -0.6641687
0000c0 16 b4 9a be 17 cc a3 3e a1 fd 8b 3e 91 f1 90 3c
       -0.3021552 0.31991646 0.2734194 0.017693313
0000d0 67 64 04 3f 63 81 c4 be 8d de e4 be df d0 d3 3d
       0.517157 -0.38379964 -0.44701043 0.103425734
0000e0 06 81 74 be c8 cb a9 be 79 c3 90 3e c8 a9 02 bf
       -0.23877344 -0.33163285 0.28274134 -0.51040316
0000f0 d7 9c 41 bf 4b a9 bd be 70 9f 5f 3e c5 9b f9 3e
       -0.75629944 -0.37043223 0.21838164 0.48751655
000100 f7 e2 cb be 02 3c f6 bc 4a a7 58 be c8 05 31 3f
       -0.39821598 -0.03005791 -0.21157566 0.69149446
000110 25 78 75 bd 65 a5 93 3d 3d 24 ae 3e be 25 b4 3d
       -0.059929032 0.07209281 0.34012023 0.08796261
000120 31 7d ca be 14 f2 aa 3e 58 f3 e6 be 7b 83 8a be
       -0.39548638 0.33387816 -0.45107532 -0.27053437
000130 77 e6 dd be 07 e5 3b bf 1b 72 f8 be c3 1a 85 bc
       -0.43339893 -0.73396343 -0.48524556 -0.016248113
000140 09 4b 14 bf c5 57 c0 bd 06 b5 ec 3e 3c 80 44 3e
       -0.57926995 -0.09391741 0.4623186 0.19189543
000150 ea 2f 84 be b2 74 1f bd 3c 1e 27 3d 7a 43 b0 3d
       -0.25817806 -0.03892965 0.040800318 0.0860662
000160 7a 70 dc be fa 4e 83 be 3e dd 17 3e f3 f6 aa 3e
       -0.43054563 -0.25646192 0.14830491 0.33391532
000170 2e 73 16 3d a3 f2 d4 3e 6d 16 1c 3e f1 8b c9 be
       0.036730938 0.41591367 0.1524293 -0.3936458
000180 c0 82 10 bd db 05 9a 3e 90 46 8f 3e e7 86 aa 3e
       -0.035280943 0.30082592 0.27983522 0.33306047
000190 de 9d d2 3e 77 25 e6 be 65 e3 74 3e 55 e1 87 bd
       0.41136068 -0.44950458 0.23914869 -0.066347755
0001a0 7a 1d a7 3e e5 e0 b9 3e e3 41 9c bd a3 46 62 bf
       0.32639676 0.36304393 -0.076297544 -0.88389033
0001b0 f1 1b ac be 3a 1b 3b bf 92 38 2e bd df 98 0e 3e
       -0.33615068 -0.7308842 -0.04253442 0.13925503
0001c0 29 61 c0 3e 0d 22 64 3e b5 08 d0 bd ba 4e 83 3e
       0.37574127 0.22278614 -0.10157911 0.25646
0001d0 7d 43 20 3e 60 b3 17 be ff a0 36 bf a4 c1 89 be
       0.15650745 -0.1481452 -0.7133941 -0.2690555
0001e0 20 29 d6 3e 45 0d ef 3e 1f b6 eb 3e 6e 7b 46 3e
       0.4182825 0.4668981 0.46037385 0.19383022
0001f0 7d 90 02 bf 22 65 b4 be 7e 75 27 bf c5 01 de be
       -0.5100172 -0.35233408 -0.65413654 -0.43360725
000200 83 61 94 3e ee 89 ee 3e 86 cb 3a be 0a a6 01 be
       0.28980646 0.46589607 -0.182417 -0.12660995
000210 bd 76 da 3e ea 88 27 bd 67 06 7e 3e 37 e8 30 3f
       0.42668715 -0.040902056 0.2480713 0.6910433
000220 34 dd 49 be 39 fb 30 3f 10 c7 8c 3d 9b ae c6 bd
       -0.19713289 0.69133335 0.06873906 -0.09701272
000230 d8 ed 11 3f 2a 55 24 3e 89 9c 06 bf cf 3e 1e bf
       0.57003546 0.16048113 -0.52582604 -0.6181459
000240 d5 db 4f be 70 0e eb 3e ad e9 07 3f 8a 41 01 3c
       -0.20298703 0.45909452 0.53090936 0.007889161
000250 ee 8f 3e 3f 31 31 0c bf 75 08 6b 3e e7 10 cc be
       0.7443837 -0.5476256 0.22952445 -0.39856645
000260 ce 3e 21 3d e8 54 0e 3f 63 af a3 bd e7 53 c8 3d
       0.039366536 0.55598307 -0.07992437 0.09781628
000270 02 9c 3e bf 4f 78 ed be 78 64 ac be a0 50 fb be
       -0.744568 -0.4638085 -0.33670402 -0.4908495
000280 40 b0 03 3f a0 0c b1 3e af 00 b1 3e 0b cc 54 be
       0.5144081 0.34579945 0.34570834 -0.20780961
000290 05 7a 07 3f f6 b5 53 bd d8 3a ed 3e 66 89 16 bf
       0.5292056 -0.051687203 0.46333957 -0.58803403
0002a0 23 1a 5b be 30 b8 78 3e 01 09 2b bf 79 96 29 3f
       -0.21396689 0.24289012 -0.66810614 0.6624523
0002b0 31 2b d1 3e 20 68 8f 3e 78 65 82 3c 51 9c 3d 3d
       0.40853265 0.2800913 0.015917525 0.046291653
0002c0 fe af a8 be 66 7a fa be 09 1a cd be 42 2a 4a 3e
       -0.3294677 -0.48921508 -0.40058926 0.19742683
0002d0 0f b3 3d 3e d3 57 e5 be d1 f6 03 3f 36 1a c7 3e
       0.18525337 -0.44793567 0.51548487 0.38887185
0002e0 b6 81 a8 be a5 6f 14 3f d9 b7 2b bf 18 de b5 be
       -0.32911462 0.57982856 -0.67077404 -0.35521007
0002f0 83 7e c3 be 26 f9 c4 be 42 ce 02 3d 7d 78 fc be
       -0.38182458 -0.38471335 0.031934984 -0.49310675
000300 87 6b 2d bf f3 f7 d8 3d 1c 0c 14 be f3 b6 db 3e
       -0.677422 0.105941676 -0.14457744 0.42913017
000310 c1 a5 b1 3e 78 63 b1 be 06 9c 1e 3f 3f 1c 82 3e
       0.34696773 -0.346462 0.6195682 0.25412175
000320 2e 94 2d bf 7f bd e9 bd c3 b4 1b 3e d7 6a 46 bf
       -0.6780423 -0.11413097 0.15205674 -0.77506775
000330 54 e2 d0 3e 67 aa 25 bf 3f 1e cc 3e be 7a ab bd
       0.40797675 -0.6471314 0.39866826 -0.083730206
000340 d7 c5 2b bf 6f 04 0b 3f fb 89 78 be 0e a6 00 3e
       -0.67098755 0.5430364 -0.24271385 0.12563345
000350 b9 63 00 be e1 4c 16 3f 98 92 c4 3e 8b 76 f8 be
       -0.12538041 0.5871106 0.38393092 -0.4852794
000360 a2 49 c3 be 33 99 15 be e5 b5 0c 3f c0 fd f0 be
       -0.38142115 -0.14609222 0.5496505 -0.47068596
000370 ef 9f d2 3e 11 c4 58 be 77 9e df be 79 94 b7 3e
       0.41137645 -0.21168543 -0.43675587 0.35855463
000380 f9 55 79 3e 2e b4 c2 bc 08 69 57 3f 8e dd 18 be
       0.24349202 -0.023767557 0.8414464 -0.14928266
000390 7e 8c 03 bf eb 70 14 be c7 19 fd 3e fe c7 30 bf
       -0.5138625 -0.144962 0.4943373 -0.69055164
0003a0 07 57 a8 3e c7 35 b7 be a6 7d 81 be cb d3 21 bf
       0.32878897 -0.35783216 -0.25291175 -0.63213795
0003b0 11 e3 e4 3e dc a4 1d be b2 33 30 3f 8d b2 07 3f
       0.44704488 -0.1539492 0.6882888 0.5300682
0003c0 39 4e d4 bd 11 57 ce 3e a8 51 2d bf 92 e5 11 be
       -0.10366482 0.403008 -0.6770272 -0.1424773
0003d0 6e eb 6e be 5b 71 b1 bd 28 25 02 3e 44 71 a6 3c
       -0.23331997 -0.08664199 0.12709486 0.020317681
0003e0 c9 e3 9b 3d 5b 65 58 3e cb 07 2c bf a0 fa 01 3f
       0.07611806 0.21132414 -0.6719939 0.5077305
0003f0 a4 58 94 be 6a 58 37 3e 8a 0b 1e bf 1c e3 07 3e
       -0.28973877 0.17904821 -0.6173636 0.13270229
