miniproject2/experiments/ensemblyVAE/modelSeed825nD1.pt (torch, 144013 bytes, 37 tensors)

prior.mean f4 [2]
0.0 0.0
00000000: 0000 0000 0000 0000

prior.std f4 [2]
1.0 1.0
00000000: 0000 803f 0000 803f

decoders.0.decoder_net.0.weight f4 [512, 2]
0.32261038 -0.55121386 -0.68001366 -0.21537472 -0.42440197 -0.60567707 -0.19697307 0.65037054
-0.35081705 -0.7060503 0.24363846 0.0123878755 0.55481994 -0.12198692 0.09813302 -0.12860908
-0.687384 0.6392006 -0.5496346 -0.24958007 -0.13802125 0.27202392 -0.43415883 -0.32726124
0.18058643 0.62566054 -0.2968206 -0.41208404 -0.46920377 0.6610503 0.41401553 -0.1233211
-0.034911934 0.0010625895 0.509225 0.38174126 0.4256537 -0.5250781 0.6443884 -0.6974329
-0.5836821 -0.43266463 0.09512046 0.09657378 -0.02224113 0.68780226 0.69899726 0.2985222
-0.4422826 -0.42631736 -0.15927052 -0.03655957 0.07659426 -0.47742787 0.25930744 0.4856268
-0.603489 0.628585 0.672916 0.3671828 -0.5594721 0.14948311 -0.14465058 0.29827058
-0.6680613 -0.66389644 -0.622002 0.21683002 -0.23794894 -0.40721536 -0.4659284 -0.5180867
-0.4993399 -0.42877525 -0.6778456 0.48085347 0.4611388 0.0189011 0.48206055 0.65650696
-0.21695761 -0.58962065 0.43337107 -0.5127174 -0.53552014 -0.2456666 0.30093002 -0.4109563
0.5234044 -0.5788572 -0.4267176 0.5638438 -0.46912932 0.030231263 0.661313 0.14116949
-0.07761127 -0.3497561 -0.028835164 0.4120591 0.22961098 -0.2913106 -0.40424642 0.6884056
0.24834532 -0.6592541 0.57719 0.025748815 0.67372024 0.44912884 0.41525018 0.3119923
-0.42650402 0.423863 0.54292613 -0.29180673 -0.5376534 -0.18817323 -0.49633187 0.36558616
0.53827745 -0.5436384 0.038268868 -0.3234236 0.33894002 -0.09046493 -0.32448572 -0.3505609
-0.10842909 0.17706415 -0.30818367 -0.5761721 -0.4934327 -0.402326 0.06571882 -0.11258255
0.18526424 0.19559687 -0.37693098 -0.21361993 -0.352958 -0.1341751 -0.3986676 -0.51163125
-0.32630152 -0.21689479 -0.005384841 -0.05315553 0.5802144 0.706855 0.46049905 -0.38528964
0.46602216 -0.7015298 -0.5412653 -0.11191207 -0.69777757 0.44967195 -0.06889137 -0.20817356
0.49069595 0.34249288 -0.07004847 0.6417858 0.5314678 -0.4173542 0.16388239 0.646411
-0.6538271 -0.6896463 -0.25492105 -0.49994108 -0.2788872 0.31199837 0.3168541 0.18912101
-0.51038516 0.6620685 -0.3802608 0.31303585 -0.119735405 -0.40297246 -0.4395399 -0.118009195
-0.15623419 -0.13890325 0.33871174 -0.09936372 0.6555963 0.48250732 0.0064563686 0.2963815
-0.07493057 -0.0033159056 0.5373296 0.6942608 0.48587003 -0.004299149 -0.5563806 0.6716505
0.056943405 0.09545142 0.502807 0.17663698 -0.14778335 -0.52523935 0.09366636 -0.070733465
-0.3684444 0.46417788 -0.090710506 -0.60820067 0.4799729 -0.18162555 0.44388926 -0.6151395
0.21618056 -0.52947325 -0.5943152 -0.5048436 -0.43996978 0.26032162 -0.22313268 -0.50580335
-0.29536146 0.54855293 0.0033529697 -0.13605665 0.12246574 -0.54188216 -0.041960087 0.30394325
0.108030595 0.47765863 -0.6647721 0.22176045 -0.30897915 0.36909425 -0.5023571 -0.255687
0.6193245 0.38087943 0.32474893 0.15135169 0.56788456 -0.21661326 0.4783767 -0.63421243
0.22672278 -0.5283953 -0.053524695 0.238591 -0.38154942 -0.0090243295 -0.64576393 -0.6215598
00000000: 302d a53e 5a1c 0dbf 6015 2ebf 318b 5cbe
00000010: 374b d9be a70d 1bbf 4fb3 49be af7e 263f
00000020: 4b9e b3be b6bf 34bf 5c7c 793e 84f6 4a3c
00000030: ae08 0e3f 47d4 f9bd f7f9 c83d 19b2 03be
00000040: 66f8 2fbf a7a2 233f dab4 0cbf eb91 7fbe
00000050: 7155 0dbe b846 8b3e 114a debe c98e a7be
00000060: a6eb 383e 4a2b 203f dff8 97be aefc d2be
00000070: 7a3b f0be 983a 293f d8f9 d33e c68f fcbd
00000080: d1ff 0ebd 9646 8b3a 925c 023f 9773 c33e
00000090: 48ef d93e 856b 06bf a3f6 243f f68a 32bf
000000a0: 316c 15bf 3886 ddbe 84ce c23d 79c8 c53d
000000b0: 0833 b6bc cf13 303f 7cf1 323f e7d7 983e
000000c0: dd72 e2be 4546 dabe d017 23be 7dbf 15bd
000000d0: 74dd 9c3d 6d71 f4be f2c3 843e 13a4 f83e
000000e0: 417e 1abf f2ea 203f 3944 2c3f 62ff bb3e
000000f0: 9039 0fbf 1a12 193e 481f 14be ecb6 983e
00000100: 1106 2bbf 1ef5 29bf 863b 1fbf b008 5e3e
00000110: e3a8 73be 887e d0be 2b8e eebe 54a1 04bf
00000120: 7ba9 ffbe 6e88 dbbe 4a87 2dbf 6d32 f63e
00000130: 631a ec3e 7bd6 9a3c a4d0 f63e d710 283f
00000140: 232a 5ebe 61f1 16bf d0e2 dd3e 7341 03bf
00000150: d917 09bf 0690 7bbe 8013 9a3e dd68 d2be
00000160: d5fd 053f fc2f 14bf bb7a dabe 1158 103f
00000170: b831 f0be 8ea7 f73c cf4b 293f bc8e 103e
00000180: a8f2 9ebd 3b13 b3be b937 ecbc 69f9 d23e
00000190: 241f 6b3e aa26 95be 63f9 cebe 593b 303f
000001a0: 3c4e 7e3e e0c4 28bf b9c2 133f 2eef d23c
000001b0: ee78 2c3f 37f4 e53e ac9b d43e 74bd 9f3e
000001c0: bc5e dabe 9204 d93e 35fd 0a3f b167 95be
000001d0: a7a3 09bf 7cb0 40be 361f febe 1c2e bb3e
000001e0: 8dcc 093f e32b 0bbf d1bf 1c3d c797 a5be
000001f0: 8c89 ad3e ad45 b9bd fe22 a6be b87c b3be
00000200: 1210 debd 4e50 353e 40ca 9dbe 0480 13bf
00000210: 36a3 fcbe acfd cdbe 9797 863d ae91 e6bd
00000220: e9b5 3d3e 8c4a 483e 19fd c0be 2fbf 5abe
00000230: e9b6 b4be 3365 09be 291e ccbe 44fa 02bf
00000240: fe10 a7be ab19 5ebe 5273 b0bb 9db9 59bd
00000250: ee88 143f 73f4 343f 88c6 eb3e af44 c5be
00000260: 759a ee3e 7597 33bf 5d90 0abf 2832 e5bd
00000270: 8da1 32bf 673b e63e eb16 8dbd 732b 55be
00000280: 803c fb3e 3a5b af3e 9275 8fbd 134c 243f
00000290: 460e 083f 73af d5be c9d0 273e 317b 253f
000002a0: 3661 27bf a98c 30bf 0385 82be 47f8 ffbe
000002b0: 4eca 8ebe 40be 9f3e b33a a23e f0a8 413e
000002c0: 9aa8 02bf 527d 293f 8bb1 c2be 3c46 a03e
000002d0: d637 f5bd 6852 cebe 600b e1be ceae f1bd
000002e0: dbfb 1fbe a73c 0ebe a06b ad3e 357f cbbd
000002f0: 29d5 273f 330b f73e f28f d33b 51bf 973e
00000300: 3375 99bd aa4f 59bb 6f8e 093f 13bb 313f
00000310: f5c3 f83e e0df 8cbb f66e 0ebf 4af1 2b3f
00000320: 7d3d 693d 097c c33d f6b7 003f 53e0 343e
00000330: 8554 17be 1676 06bf 26d4 bf3d b5dc 90bd
00000340: bfa4 bcbe b9a8 ed3e 6ec6 b9bd 0ab3 1bbf
00000350: 02bf f53e 0cfc 39be 7445 e33e c879 1dbf
00000360: 705e 5d3e 8f8b 07bf 0a25 18bf 6e3d 01bf
00000370: b843 e1be e048 853e e57c 64be 547c 01bf
00000380: 9e39 97be f76d 0c3f 7fbd 5b3b 6f52 0bbe
00000390: 51cf fa3d cab8 0abf 57de 2bbd 739e 9b3e
000003a0: 253f dd3d ac8f f43e 812e 2abf 2c15 633e
000003b0: 8432 9ebe ecf9 bc3e 7a9a 00bf 68e9 82be
000003c0: 0d8c 1e3f a102 c33e 7e45 a63e f0fb 1a3e
000003d0: e260 113f decf 5dbe caed f43e bf5b 22bf
000003e0: 042a 683e ea44 07bf b63c 5bbd 3351 743e
000003f0: 725a c3be c8da 13bc c950 25bf 8b1e 1fbf

decoders.0.decoder_net.0.bias f4 [512]
-0.28387272 0.5910951 0.34618703 -0.0500321 -0.40061742 0.29331082 -0.6367758 -0.06064045
0.30982956 0.21452181 -0.5891239 0.47465834 -0.55525464 -0.46681443 0.18468449 0.58812046
-0.18616615 0.3506654 0.35003355 0.157608 -0.4399218 -0.32749325 0.6030868 0.5273284
0.23764959 0.08451719 -0.44157416 -0.040193234 -0.41908026 0.60749704 -0.16730371 0.5224666
0.6799822 0.6039337 -0.35640675 0.62900007 -0.17973062 -0.4794002 -0.25481263 -0.4275604
-0.1893536 -0.3612972 -0.5544268 0.27348244 0.20768249 -0.3479928 0.51649654 -0.5749405
-0.57923514 -0.39159504 -0.011425713 0.23682596 -0.012347759 0.47774997 0.07209699 -0.20849058
0.63662267 0.44013086 -0.009569761 0.5287806 0.26640877 0.3948274 -0.6782045 0.6480937
-0.0714663 -0.3739411 -0.27079025 -0.077246584 0.525948 -0.44269112 -0.6900222 -0.13237938
0.35561273 0.04312334 0.6358168 -0.6724883 0.17328782 -0.3525701 0.29866773 -0.57624054
0.65373373 0.12270854 0.25962815 -0.5407587 -0.26045883 0.037714306 -0.08114084 0.56459904
0.3609995 0.56407064 -0.36459333 -0.64015704 -0.117965326 -0.30677897 -0.5474408 -0.3385739
-0.08227117 0.53538275 -0.6597495 -0.68218935 -0.5563781 -0.3438566 0.21437275 -0.6511942
-0.64397 -0.1933132 0.38099837 0.6237186 -0.19413057 0.59596217 -0.096251614 -0.10054586
0.66342837 -0.283457 -0.279203 0.104308635 0.39896291 0.6635123 -0.45235503 0.5304776
-0.43547872 0.007477641 0.6464056 0.14966789 0.683517 -0.17346673 0.40818942 0.0043873885
0.12095774 0.5291212 -0.090026945 -0.23904696 -0.11205323 -0.6085034 0.07731368 0.46473384
-0.2131114 -0.30512795 -0.16580245 0.54600656 0.47349674 -0.6160517 -0.07520146 0.44959924
-0.13826923 0.4302206 0.23150238 0.09758353 0.42406777 -0.52769417 0.15816973 -0.5293272
0.14588964 -0.016201861 0.5778438 0.49034435 -0.002452559 0.24999374 0.5762021 -0.3037113
-0.56471384 0.70647055 0.4089013 -0.19594209 0.60500646 0.10805906 -0.43683794 0.15832348
-0.5128118 0.39532343 0.38396838 -0.2695907 -0.13632607 0.4455212 -0.59800893 -0.3606842
-0.6181488 -0.6170036 -0.5107461 0.35392058 -0.50980777 -0.44500834 -0.07905507 0.07524004
-0.26382074 -0.326882 0.42197904 0.1453031 -0.21361002 0.51827234 -0.4331619 -0.38803133
0.4796184 -0.020776333 0.26591003 -0.41324976 0.104885995 -0.1628257 -0.6709053 0.4304334
0.6551509 -0.25857574 -0.16285855 0.529296 0.6741951 0.4959002 -0.16042821 -0.009711474
0.5206296 -0.23174655 0.4934968 -0.39074957 0.6877814 -0.4737808 -0.088263005 0.6334143
0.6863452 0.17172198 0.5880703 -0.6758434 0.6346217 -0.27655527 0.66421604 -0.22860807
-0.06631559 0.23889636 -0.51598036 -0.65404326 0.51133794 -0.67911446 0.26782534 0.30000424
-0.18809383 0.5435451 -0.5327103 0.25369132 0.67468417 0.15843199 -0.6260707 -0.61364967
0.32974553 -0.467973 0.108462036 -0.2380861 -0.63841546 -0.34866375 0.18232705 0.16538665
0.19017999 -0.0741607 -0.19051875 0.26415935 0.6919741 -0.6268496 0.7151318 0.27226377
00000000: c457 91be 0252 173f 6d3f b13e 76ee 4cbd
00000010: ba1d cdbe d62c 963e bd03 23bf 1f62 78bd
00000020: fba1 9e3e 9bab 5b3e d3d0 16bf 6b06 f33e
00000030: 2b25 0ebf 4d02 efbe ee1d 3d3e 108f 163f
00000040: 57a2 3ebe 6a8a b33e 9937 b33e fe63 213e
00000050: 6e3d e1be 32ad a7be e663 1a3f fefe 063f
00000060: 6a5a 733e 5917 ad3d 0216 e2be a9a1 24bd
00000070: b091 d6be ed84 1b3f aa51 2bbe 5fc0 053f
00000080: 5013 2e3f 669b 1a3f f27a b6be 2606 213f
00000090: 4e0b 38be f173 f5be cd76 82be 32e9 dabe
000000a0: e9e5 41be f2fb b8be eaee 0dbf e405 8c3e
000000b0: b8aa 543e 1d2c b2be 1e39 043f 4d2f 13bf
000000c0: c148 14bf 257f c8be ea32 3bbc 8182 723e
000000d0: 414e 4abc a59b f43e 96a7 933d 8e7e 55be
000000e0: b4f9 223f d558 e13e 7dca 1cbc 2a5e 073f
000000f0: bb66 883e d126 ca3e cf9e 2dbf 78e9 253f
00000100: ec5c 92bd 3575 bfbe 05a5 8abe 7533 9ebd
00000110: 87a4 063f 69a8 e2be 4ba5 30bf 768e 07be
00000120: df12 b63e 19a2 303d e4c4 223f 3128 2cbf
00000130: 5d72 313e 1184 b4be faea 983e 8084 13bf
00000140: 185b 273f 9d4e fb3d fbed 843e 2a6f 0abf
00000150: dc5a 85be 517a 1a3d 2b2d a6bd 9089 103f
00000160: edd4 b83e ef66 103f faab babe 55e1 23bf
00000170: ce97 f1bd 2212 9dbe 1525 0cbf 8f59 adbe
00000180: ca7d a8bd d80e 093f 58e5 28bf f6a3 2ebf
00000190: cc6e 0ebf f90d b0be 8884 5b3e aab4 26bf
000001a0: 38db 24bf e5f3 45be 3812 c33e 06ac 1f3f
000001b0: 2aca 46be fa90 183f 911f c5bd fdea cdbd
000001c0: 71d6 293f 4721 91be b2f3 8ebe c49f d53d
000001d0: de44 cc3e f1db 293f 149b e7be 61cd 073f
000001e0: 11f7 debe 0007 f53b d67a 253f 8a42 193e
000001f0: f8fa 2e3f 43a1 31be 34fe d03e 15c4 8f3b
00000200: b1b8 f73d 7d74 073f 0c60 b8bd bac8 74be
00000210: 2a7c e5bd e1c6 1bbf a256 9e3d 98f1 ed3e
00000220: e039 5abe bb39 9cbe 1ec8 29be 16c7 0b3f
00000230: 2a6e f23e 90b5 1dbf 3903 9abd df31 e63e
00000240: 7396 0dbe e045 dc3e f60e 6d3e e0d9 c73d
00000250: 691f d93e f716 07bf 3ff7 213e fd81 07bf
00000260: 1864 153e c4b9 84bc 92ed 133f 6a0e fb3e
00000270: 1dbb 20bb 5cfe 7f3e fb81 133f 0c80 9bbe
00000280: 1691 10bf 41db 343f 835b d13e 0ba5 48be
00000290: b4e1 1a3f 124e dd3d 39a9 dfbe 8d1f 223e
000002a0: a247 03bf d567 ca3e 8197 c43e cb07 8abe
000002b0: 1099 0bbe 5b1b e43e 1d17 19bf 99ab b8be
000002c0: 003f 1ebf f3f3 1dbf 42c0 02bf 1435 b53e
000002d0: c382 02bf 22d8 e3be a0e7 a1bd 7317 9a3d
000002e0: 8313 87be 145d a7be a30d d83e 56ca 143e
000002f0: 96bc 5abe 7fad 043f 66c7 ddbe 0bac c6be
00000300: 8b90 f53e 2133 aabc 5c25 883e 7995 d3be
00000310: 78ce d63d c8bb 26be 73c0 2bbf c461 dc3e
00000320: f8b7 273f 0a64 84be 64c4 26be f17f 073f
00000330: 0d98 2c3f a2e6 fd3e 4b47 24be e01c 1fbc
00000340: fb47 053f f84e 6dbe 9dab fc3e 5410 c8be
00000350: 7112 303f 6693 f2be 3cc3 b4bd 7127 223f
00000360: 52b4 2f3f e3d7 2f3e c68b 163f 1304 2dbf
00000370: 9176 223f a798 8dbe 100a 2a3f 3c18 6abe
00000380: 78d0 87bd 3fa1 743e 4a17 04bf 616f 27bf
00000390: 0be7 023f 72da 2dbf 6720 893e 289a 993e
000003a0: ab9b 40be c625 0b3f b45f 08bf d4e3 813e
000003b0: 1ab8 2c3f ff3b 223e 2b46 20bf 2518 1dbf
000003c0: 68d4 a83e 289a efbe 5821 de3d d8cc 73be
000003d0: 326f 23bf 0e84 b2be f1b3 3a3e 1e5b 293e
000003e0: 8bbe 423e 91e1 97bd 5917 43be e53f 873e
000003f0: 3725 313f 3779 20bf e112 373f 2866 8b3e

decoders.0.decoder_net.3.weight f4 [32]
0.99390787 0.99384135 1.0015166 0.98662806 1.0126119 0.99381274 1.0056392 1.005781
0.9897105 0.9980514 1.0044605 1.0063059 1.0040054 1.0106342 0.9972797 0.98563296
1.0121163 0.989296 1.0058638 0.98983157 1.013555 1.0039628 0.9975853 0.98905057
1.0011157 0.98868763 1.0127894 1.009471 0.99129945 0.990773 0.99332374 1.0118175
00000000: bf70 7e3f 636c 7e3f b231 803f a893 7c3f
00000010: 449d 813f 836a 7e3f c9b8 803f 6fbd 803f
00000020: ab5d 7d3f 4c80 7f3f 2992 803f a2ce 803f
00000030: 4083 803f 765c 813f b94d 7f3f 7152 7c3f
00000040: 078d 813f 8142 7d3f 25c0 803f 9a65 7d3f
00000050: 2cbc 813f da81 803f c061 7f3f 6b32 7d3f
00000060: 8f24 803f a21a 7d3f 15a3 813f 5936 813f
00000070: cdc5 7d3f 4da3 7d3f 774a 7e3f 3c83 813f

decoders.0.decoder_net.3.bias f4 [32]
-0.007754198 -0.012973846 -0.002865691 -0.008528257 -0.009336068 -0.005637803 -0.0041155405 0.011876769
0.0007681338 -0.008497667 -0.014357093 0.014364683 0.010335208 0.005482098 -0.0038779997 0.015528215
0.003592318 -0.0053654816 0.008319814 0.0013163756 0.010195316 0.009941162 0.001794102 -0.0062394314
-0.0099717975 -0.0030453224 0.011649969 -0.01263819 -0.0116342595 0.00805715 -0.0111779785 0.009028527
00000000: ed16 febb 4190 54bc 51ce 3bbb 1aba 0bbc
00000010: 4ff6 18bc 52bd b8bb a8db 86bb c896 423c
00000020: 965c 493a cc39 0bbc 033a 6bbc d959 6b3c
00000030: 0155 293c 2ca3 b33b 0a26 7ebb 0e6a 7e3c
00000040: 186d 6b3b ecd0 afbb d44f 083c 3c8a ac3a
00000050: 410a 273c 41e0 223c 1328 eb3a 2574 ccbb
00000060: c060 23bc 0894 47bb 83df 3e3c 6910 4fbc
00000070: 9f9d 3ebc 2302 043c d723 37bc 63ec 133c

decoders.0.decoder_net.3.running_mean f4 [32]
0.20830703 0.20830703 0.20830703 0.20830703 0.20830703 0.20830703 0.20830703 0.20830703
0.20830703 0.20830703 0.20830703 0.20830703 0.20830703 0.20830703 0.20830703 0.20830703
0.20830703 0.20830703 0.20830703 0.20830703 0.20830703 0.20830703 0.20830703 0.20830703
0.20830703 0.20830703 0.20830703 0.20830703 0.20830703 0.20830703 0.20830703 0.20830703
00000000: 704e 553e 704e 553e 704e 553e 704e 553e
00000010: 704e 553e 704e 553e 704e 553e 704e 553e
00000020: 704e 553e 704e 553e 704e 553e 704e 553e
00000030: 704e 553e 704e 553e 704e 553e 704e 553e
00000040: 704e 553e 704e 553e 704e 553e 704e 553e
00000050: 704e 553e 704e 553e 704e 553e 704e 553e
00000060: 704e 553e 704e 553e 704e 553e 704e 553e
00000070: 704e 553e 704e 553e 704e 553e 704e 553e

decoders.0.decoder_net.3.running_var f4 [32]
0.21136051 0.20353909 0.21533816 0.20855358 0.21605623 0.21305297 0.21050426 0.20583497
0.18881057 0.20999834 0.19566289 0.21533181 0.21026935 0.20837002 0.22461855 0.22328763
0.20528808 0.19054224 0.19294997 0.21025665 0.21507199 0.20403673 0.19500726 0.2063429
0.21818681 0.22793281 0.22749558 0.20613578 0.18914215 0.21138684 0.19638157 0.19548336
00000000: e46e 583e 8d6c 503e 9b81 5c3e 128f 553e
00000010: d83d 5d3e 8f2a 5a3e 6e8e 573e 67c6 523e
00000020: 8f57 413e ce09 573e da5b 483e f17f 5c3e
00000030: d950 573e f35e 553e 6802 663e 83a5 643e
00000040: 0a37 523e 811d 433e ad94 453e 854d 573e
00000050: d53b 5c3e 01ef 503e fcaf 473e 8e4b 533e
00000060: 5d6c 5f3e 3867 693e 9af4 683e 4215 533e
00000070: 7bae 413e cb75 583e 4018 493e ca2c 483e

decoders.0.decoder_net.4.weight f4 [32, 32, 3, 3]
-0.018493218 -0.03511176 -0.03616532 0.06359277 -0.038915053 0.021875888 -0.0065712156 -0.003813581
0.058681957 -0.046668578 -0.041204926 -0.029649414 0.019431768 -0.018797442 0.063753724 0.0058176783
0.005476183 -0.038950775 -0.059085373 0.047904003 -0.048027296 0.010599822 -0.058424532 -0.0025970426
-0.06382877 -0.014677585 0.054502428 0.00096455106 0.007346157 -0.00911326 0.030002354 -0.026465647
-0.010337946 -0.02089105 -0.02438589 -0.05119492 0.040004704 0.011380343 -0.008541878 0.021152992
-0.035421856 -0.020538388 -0.023435974 0.004534964 0.0055992375 0.045630533 -0.010963111 0.0073214355
-0.025359375 0.011335725 0.05095812 0.042767636 -0.052312344 0.0133788735 -0.01930477 0.0036794397
0.0011863784 0.006643847 -0.008602476 -0.04483985 0.002619136 0.009351471 0.014141794 -0.027224343
0.012578995 0.03711341 -0.042346828 -0.04405146 0.049827263 0.03457465 0.0017184991 0.04396122
-0.039136708 0.020672658 -0.02013966 -0.0070576766 -0.04983322 2.5949736e-05 -0.013891443 0.044455566
0.05777422 -0.067641504 0.016070113 -0.008565874 0.027988616 -0.005019205 0.01812053 0.03334305
0.028190214 -0.043737914 0.05985351 0.018664133 0.027458176 0.06563587 0.036673795 0.042166375
0.019683057 0.023977887 0.02112653 0.054093692 0.005925552 0.006624453 0.017683677 -0.025814477
-0.058300585 -0.043011617 0.018031048 0.04269413 0.054316267 -0.024585763 0.03163143 -0.01227848
-0.036303807 -0.023576463 -0.018959228 -0.037040498 -0.052901458 -0.009433404 -0.034263793 -0.040167816
0.034058917 -0.05152788 -0.020192152 0.005055745 0.004720776 0.057877157 -0.06596551 0.07206215
-0.026696729 -0.029792262 0.028584553 -0.06517904 0.012854471 -0.05379281 -0.046964474 0.008142631
-0.061413895 -0.0315322 -0.018286806 0.059620168 0.05524373 0.042315852 -0.016994964 -0.01687073
0.04286293 -0.02795463 -0.010039614 -0.032738514 -0.021572776 0.020074857 -0.024877653 0.02355532
-0.057407223 0.047438037 0.05074315 -0.037082676 0.029964902 -0.030819038 -0.031123592 0.038999308
0.040856495 -0.025256075 0.029219888 -0.015191468 -0.0048348005 0.020314615 0.022262026 -0.03527725
0.056136534 0.044782754 -0.013285885 0.048257183 -0.0049819904 0.05162703 -0.04065687 0.004535326
-0.05630669 -0.040555373 0.018922368 0.046165675 -0.032007642 0.0016355913 -0.0022086827 0.058134526
0.030383566 0.050181683 -0.047553055 0.0073090023 2.3667006e-05 0.0461154 -0.049119856 -0.038393702
0.062466536 -0.022471821 -0.036947615 0.007109272 -0.026186952 -0.024418902 0.007952382 -0.014852982
0.07034418 0.04644537 -0.06780289 -0.006199757 -0.018724944 -0.03133566 0.015687214 -0.032441996
0.05300457 0.005125811 -0.048268486 0.055786975 0.05377212 -0.011073681 -0.046479177 -0.033729106
0.0076917275 -0.055707254 0.039125793 0.024397476 0.0069042477 0.053640988 -0.058698524 0.016807832
0.0031204773 -0.023557246 0.0044457642 -0.046840418 -0.018910354 0.014177841 0.022217676 -0.05524804
-0.033689745 -0.0537973 0.0528006 0.003712929 -0.03294938 0.0149178775 -0.0035090733 -0.047972493
0.015235788 -0.042780254 -0.008957486 -0.012507027 0.002611598 0.03721592 -0.023187147 0.0070208726
-0.03113056 -0.024245309 -0.050813034 0.0067370264 -0.003180336 -0.0341836 -0.019054495 0.006365484
00000000: 177f 97bc 59d1 0fbd 1622 14bd ed3c 823d
00000010: 6465 1fbd 1035 b33c 5a53 d7bb 46ed 79bb
00000020: 7e5c 703d 8d27 3fbd 7fc6 28bd 54e3 f2bc
00000030: 5f2f 9f3c 18fd 99bc 5091 823d 39a2 be3b
00000040: 8d71 b33b d98a 1fbd 8103 72bd fd36 443d
00000050: 45b8 44bd e0aa 2d3c 904e 6fbd 2533 2abb
00000060: a8b8 82bd 417a 70bc f03d 5f3d edd9 7c3a
00000070: 08b8 f03b c84f 15bc 7fc7 f53c 7cce d8bc
00000080: 7d60 29bc b523 abbc ebc4 c7bc c4b1 51bd
00000090: f9db 233d 9e74 3a3c 3cf3 0bbc 0a49 ad3c
000000a0: 8216 11bd 1f40 a8bc cdfc bfbc 099a 943b
000000b0: cf79 b73b 15e7 3a3d 9f9e 33bc a7e8 ef3b
000000c0: 77be cfbc 7ab9 393c 76b9 503d 1e2d 2f3d
000000d0: 7845 56bd 1033 5b3c 0925 9ebc c122 713b
000000e0: 4180 9b3a a1b4 d93b 66f1 0cbc fea9 37bd
000000f0: cfa5 2b3b ea36 193c fcb2 673c 9605 dfbc
00000100: 2118 4e3c 3b04 183d de73 2dbd 4e6f 34bd
00000110: ac17 4c3d 269e 0d3d 433f e13a ae10 343d
00000120: d04d 20bd b559 a93c eefb a4bc 1544 e7bb
00000130: eb1d 4cbd a2ae d937 ef98 63bc 0a17 363d
00000140: a9a4 6c3d a187 8abd 78a5 833c e157 0cbc
00000150: 6248 e53c 2578 a4bb 8171 943c b992 083d
00000160: 2aef e63c 8726 33bd f428 753d 86e5 983c
00000170: f8ef e03c 196c 863d 4337 163d a6b6 2c3d
00000180: 5d3e a13c 466d c43c 8b11 ad3c 5991 5d3d
00000190: 222b c23b f011 d93b 5cdd 903c e278 d3bc
000001a0: 98cc 6ebd f32c 30bd d9b5 933c 0ae0 2e3d
000001b0: bc7a 5e3d 1568 c9bc f58f 013d ae2b 49bc
000001c0: 4db3 14bd 6d23 c1bc 6250 9bbc c7b7 17bd
000001d0: 33af 58bd 908e 1abc 3158 0cbd 0287 24bd
000001e0: 5d81 0b3d e60e 53bd 036a a5bc aaaa a53b
000001f0: bdb0 9a3b 9910 6d3d ed18 87bd 5295 933d
00000200: 19b3 dabc e70e f4bc 272a ea3c 977c 85bd
00000210: 8f9b 523c d955 5cbd d25d 40bd ab68 053c
00000220: 238d 7bbd e827 01bd 36ce 95bc 4734 743d
00000230: 4047 623d 6353 2d3d 0639 8bbc 7c34 8abc
00000240: 0a91 2f3d 1c01 e5bc 317d 24bc d218 06bd
00000250: 64b9 b0bc 0774 a43c 38cc cbbc 16f7 c03c
00000260: d623 6bbd 634e 423d 0dd8 4f3d 01e4 17bd
00000270: f478 f53c 3578 fcbc e7f6 febc bdbd 1f3d
00000280: 2459 273d d4e5 cebc 8c5e ef3c a3e5 78bc
00000290: 3f6d 9ebb d66a a63c da5e b63c e17e 10bd
000002a0: 6cef 653d 1f6e 373d 0aad 59bc 53a9 453d
000002b0: f73f a3bb dd76 533d d187 26bd 129d 943b
000002c0: d8a1 66bd 641d 26bd 1503 9b3c 3818 3d3d
000002d0: 721a 03bd 5661 d63a 8cbf 10bb 781e 6e3d
000002e0: f5e6 f83c 4f8b 4d3d fec6 42bd 5b80 ef3b
000002f0: 8288 c637 80e3 3c3d e731 49bd b742 1dbd
00000300: e9dc 7f3d d316 b8bc 6256 17bd e5f4 e83b
00000310: 0586 d6bc 260a c8bc b54a 023c ec59 73bc
00000320: 9c10 903d 803d 3e3d 3edc 8abd 5527 cbbb
00000330: 0e65 99bc d259 00bd 7982 803c e6e1 04bd
00000340: 521b 593d 6bf6 a73b 2db5 45bd e280 643d
00000350: 2840 5c3d 626e 35bc f360 3ebd 8827 0abd
00000360: e30a fc3b 4a2d 64bd 5e42 203d 37dd c73c
00000370: 073d e23b a7b6 5b3d dd6d 70bd 94b0 893c
00000380: ec80 4c3b 20fb c0bc c6ad 913b bddb 3fbd
00000390: e3e9 9abc 2d4a 683c d801 b63c c54b 62bd
000003a0: 42fe 09bd 8f5a 5cbd 7145 583d 9d54 733b
000003b0: eef5 06bd 1d6a 743c 7bf8 65bb ce7e 44bd
000003c0: 879f 793c 593a 2fbd 6bc2 12bc 46ea 4cbc
000003d0: 5827 2b3b b86f 183d f9f2 bdbc 590f e63b
000003e0: 8405 ffbc 199e c6bc 5421 50bd 46c2 dc3b
000003f0: 2f6d 50bb 1a04 0cbd 2c18 9cbc 8d95 d03b

decoders.0.decoder_net.4.bias f4 [32]
-0.037026573 0.05405305 -0.0059040426 -0.020713039 0.049638867 -0.009525939 -0.016888171 -0.010276162
-0.011489794 -0.015635919 -0.002091396 -0.0005627128 0.05059358 -0.028399829 -0.052764133 -0.04863638
-0.016586853 0.021206127 0.0012670922 -0.024230449 -0.03331068 -0.057223488 -0.05226421 -0.053741228
-0.01427835 0.03590764 -0.0005658243 -0.005523802 -0.06576478 -0.022555511 -0.021182911 0.029807067
00000000: 2da9 17bd bb66 5d3d b376 c1bb 64ae a9bc
00000010: 2052 4b3d af12 1cbc 1059 8abc 595d 28bc
00000020: b03f 3cbc e616 80bc cd0f 09bb 0483 13ba
00000030: 373b 4f3d c2a6 e8bc 341f 58bd f136 47bd
00000040: 27e1 87bc 79b8 ad3c 8f14 a63a ef7e c6bc
00000050: c870 08bd 2d63 6abd ff12 56bd c31f 5cbd
00000060: beef 69bc e413 133d d353 14ba 0201 b5bb
00000070: afaf 86bd 56c6 b8bc c987 adbc f32d f43c

decoders.0.decoder_net.6.weight f4 [32]
1.0143502 0.9877776 0.99790615 1.009935 1.0059012 1.0071762 1.0068995 0.9855664
0.9869387 0.9870195 1.0101447 0.98769045 0.98788613 1.0075411 1.0082843 0.9922945
0.98950106 0.988836 0.9904238 0.987044 1.0110772 1.0116423 1.0013807 1.0133479
0.986763 0.99302083 0.99570227 1.0093391 0.99677414 0.98724943 1.008218 0.99083984
00000000: 3ad6 813f fede 7c3f c776 7f3f 8d45 813f
00000010: 5fc1 803f 26eb 803f 15e2 803f 144e 7c3f
00000020: 04a8 7c3f 4fad 7c3f 6c4c 813f 48d9 7c3f
00000030: 1be6 7c3f 1bf7 803f 760f 813f 0307 7e3f
00000040: f14f 7d3f 5b24 7d3f 6a8c 7d3f eaae 7c3f
00000050: fa6a 813f 7f7d 813f 3e2d 803f 62b5 813f
00000060: 809c 7c3f 9d36 7e3f 58e6 7e3f 0632 813f
00000070: 972c 7f3f 61bc 7c3f 4a0d 813f aea7 7d3f

decoders.0.decoder_net.6.bias f4 [32]
7.2362636e-05 -0.0148222 0.012261981 -0.013913911 -0.014314363 -0.012926026 0.014182955 0.014016683
0.014086698 0.01589167 -0.014644977 0.013999284 -0.015605589 0.014505083 -0.004269114 0.003535443
0.001524932 0.015541101 -0.016093856 -0.013677474 -0.011109591 0.010153129 0.011263147 0.014467355
-0.003498447 -0.01587223 -0.015071066 0.015924094 -0.01439637 -0.012091554 -0.015033148 -0.015623979
00000000: 65c1 9738 d0d8 72bc 7ae6 483c 2cf7 63bc
00000010: ca86 6abc afc7 53bc a05f 683c 3ba6 653c
00000020: e5cb 663c 3f2f 823c 7cf1 6fbc 415d 653c
00000030: 96ae 7fbc baa6 6d3c ede3 8bbb e4b2 673b
00000040: 3ae0 c73a 1aa0 7e3c 43d7 83bc 7c17 60bc
00000050: 0105 36bc 4f59 263c 1089 383c 7c08 6d3c
00000060: 3346 65bb 7b06 82bc a2ec 76bc 3f73 823c
00000070: c1de 6bbc a71b 46bc 984d 76bc b8fb 7fbc

decoders.0.decoder_net.6.running_mean f4 [32]
0.11903258 0.11903258 0.11903258 0.11903258 0.11903258 0.11903258 0.11903258 0.11903258
0.11903258 0.11903258 0.11903258 0.11903258 0.11903258 0.11903258 0.11903258 0.11903258
0.11903258 0.11903258 0.11903258 0.11903258 0.11903258 0.11903258 0.11903258 0.11903258
0.11903258 0.11903258 0.11903258 0.11903258 0.11903258 0.11903258 0.11903258 0.11903258
00000000: 5ac7 f33d 5ac7 f33d 5ac7 f33d 5ac7 f33d
00000010: 5ac7 f33d 5ac7 f33d 5ac7 f33d 5ac7 f33d
00000020: 5ac7 f33d 5ac7 f33d 5ac7 f33d 5ac7 f33d
00000030: 5ac7 f33d 5ac7 f33d 5ac7 f33d 5ac7 f33d
00000040: 5ac7 f33d 5ac7 f33d 5ac7 f33d 5ac7 f33d
00000050: 5ac7 f33d 5ac7 f33d 5ac7 f33d 5ac7 f33d
00000060: 5ac7 f33d 5ac7 f33d 5ac7 f33d 5ac7 f33d
00000070: 5ac7 f33d 5ac7 f33d 5ac7 f33d 5ac7 f33d

decoders.0.decoder_net.6.running_var f4 [32]
0.16836938 0.16845196 0.16932912 0.1681976 0.16849717 0.16852911 0.16836408 0.16833927
0.16799158 0.16770385 0.16869861 0.16781476 0.16810925 0.16851267 0.16855161 0.16826813
0.16807866 0.16835736 0.16814621 0.16851732 0.16873951 0.16850857 0.16846092 0.168297
0.16836457 0.16804354 0.16886798 0.16803114 0.16854566 0.16851118 0.1683019 0.168163
00000000: 0669 2c3e ac7e 2c3e 9d64 2d3e fe3b 2c3e
00000010: 868a 2c3e e592 2c3e a267 2c3e 2161 2c3e
00000020: fc05 2c3e 8fba 2b3e 54bf 2c3e a2d7 2b3e
00000030: d524 2c3e 968e 2c3e cb98 2c3e 7b4e 2c3e
00000040: d01c 2c3e df65 2c3e 852e 2c3e ce8f 2c3e
00000050: 0dca 2c3e 838d 2c3e 0581 2c3e 0c56 2c3e
00000060: c367 2c3e 9b13 2c3e baeb 2c3e 5b10 2c3e
00000070: 3c97 2c3e 328e 2c3e 5557 2c3e ec32 2c3e

decoders.0.decoder_net.7.weight f4 [32, 16, 3, 3]
0.020344634 -0.03364398 -0.05041528 -0.01873548 0.08738431 0.030617498 -0.00084307615 0.067009434
0.08420555 -0.043279875 -0.04393519 -0.049919564 -0.064286314 -0.043452483 -0.041956175 -0.09099762
0.027149167 -0.029647175 0.056399494 -0.013590735 -0.021924905 0.07079408 -0.019521225 -0.06951732
0.04589883 0.087001964 -0.04836128 -0.0385984 0.074794 -0.062205855 0.024863213 0.040206183
-0.0015604299 -0.08090269 0.08569356 -0.034119032 0.07428902 -0.02741673 -0.0579022 0.057330262
-0.014830604 0.06537233 -0.07460974 -0.057003494 -0.0057472056 0.07051592 -0.06023699 -0.021758193
0.0579775 0.064605355 -0.0050843083 0.021550985 -0.021954352 -0.013504799 0.08512894 0.019190859
0.0073507256 0.060281184 -0.032948386 0.006532003 0.030440882 -0.06432738 -0.018803032 0.038658664
-0.0063141515 0.023816414 0.047583506 0.07420602 -0.039130926 0.039932467 -0.028008655 0.0825596
0.06703911 -0.07625412 -0.023435107 0.061357982 0.05660397 -0.0073670037 0.04527342 0.014927849
-0.057023965 -0.007895286 0.06657593 -0.07415085 -0.06774941 0.029554065 -0.051997755 -0.013208458
0.088751994 0.050486427 0.062501036 0.07181619 -0.07465917 -0.07895198 0.02367751 0.005364115
0.035599492 -0.087572604 -0.02898861 -0.07581033 0.049028713 0.06685005 0.06687327 -0.0052864994
-0.06379517 -0.06532725 -0.06311571 -0.08397613 -0.040482435 -0.044815373 -0.0029876395 0.050110225
-0.07817189 0.022946319 -0.031100959 0.047338907 0.009335775 0.050727006 -0.039919917 -0.0460806
0.07605877 0.0033011513 0.0026519296 0.039994292 0.027778702 -0.04317241 0.006683182 0.018409304
0.05946645 -0.012086363 -0.008697466 -0.070449725 -0.037442006 -0.020986268 -0.07879168 -0.080138
0.019565912 0.026443005 0.025875218 -0.028436087 -0.018098235 0.038855396 0.008332983 0.08955976
-0.027453385 0.040025417 -0.061100073 0.07076786 -0.059154436 0.04493883 -0.051121864 0.0535885
-0.047434453 -0.04586728 -0.07521733 0.010139076 -0.036435504 -0.018628843 0.06121697 -0.028825868
-0.07063036 0.008274746 0.0015088335 0.047896843 0.06890768 0.05720258 0.020836594 -0.03772268
-0.02327478 -0.04537778 0.030511849 0.05191045 0.016549326 0.008890537 -0.054956634 0.08475758
0.02322116 -0.008735857 -0.071201 0.00092330936 -0.0012817249 0.06177979 0.030334182 -0.02262486
-0.055902477 -0.029075712 0.05357026 0.048268586 0.032538466 0.038433608 -0.057327 -0.025442969
0.0060010985 0.05536581 0.05868498 0.04352421 -0.07335079 0.06147646 -0.0028538117 0.04747829
-0.004271624 -0.03389247 -0.08907598 0.017942922 0.02938593 -0.008473991 0.06850616 -0.047189027
0.01874123 -0.048089538 -0.020286024 -0.014572086 -0.06536521 -0.018664401 -0.049417462 -0.085994765
0.049976874 -0.01633631 0.008111326 -0.0318556 -0.056404706 0.0060446826 -0.05275362 -0.033912513
0.040632043 -0.054574683 0.007341511 -0.013418212 -0.042045105 0.06505271 -0.06131054 -0.040740576
-0.05708991 0.005901216 0.08843647 -0.010095418 0.016665459 0.010864084 -0.008014439 -0.026531179
-0.047523595 0.0138156 -0.002200056 0.045043256 0.07197298 -0.022897258 0.05335148 -0.027529795
0.0003337007 -0.015294528 0.020882098 0.014407577 -0.02193928 0.06853709 -0.054266192 0.041675758
00000000: caa9 a63c 45ce 09bd 4180 4ebd 267b 99bc
00000010: 8cf6 b23d 8cd1 fa3c e201 5dba 3e3c 893d
00000020: f673 ac3d 3d46 31bd 63f5 33bd 7578 4cbd
00000030: 8ba8 83bd 3bfb 31bd 3dda 2bbd f65c babd
00000040: ee67 de3c a2de f2bc 2803 673d adab 5ebc
00000050: dc9b b3bc 7dfc 903d faea 9fbc 195f 8ebd
00000060: 6900 3c3d 162e b23d 7a16 46bd 5b19 1ebd
00000070: 992d 993d 91cb 7ebd f0ad cb3c 3daf 243d
00000080: 5787 ccba 4fb0 a5bd 1b80 af3d 66c0 0bbd
00000090: d724 983d 0d99 e0bc db2a 6dbd 23d3 6a3d
000000a0: 10fc 72bc eee1 853d fecc 98bd 7f7c 69bd
000000b0: 0e53 bcbb a76a 903d 10bb 76bd 3d3e b2bc
000000c0: d179 6d3d d04f 843d 459a a6bb b18b b03c
000000d0: 9dd9 b3bc 3c43 5dbc 1558 ae3d 2636 9d3c
000000e0: 5bde f03b 67e9 763d e3f4 06bd 6a0a d63b
000000f0: 285f f93c 13be 83bd d108 9abc 8c58 1e3d
00000100: f1e6 cebb a41a c33c ece6 423d 53f9 973d
00000110: c047 20bd 3a90 233d 6872 e5bc 0215 a93d
00000120: cd4b 893d 1f2b 9cbd fbfa bfbc 8252 7b3d
00000130: 90d9 673d e866 f1bb 9f70 393d f093 743c
00000140: f691 69bd 3b5b 01bc f658 883d 67dc 97bd
00000150: 34c0 8abd 5e1b f23c 99fb 54bd 4a68 58bc
00000160: 9bc3 b53d dbca 4e3d 8b00 803d 5e14 933d
00000170: e8e6 98bd 93b1 a1bd 56f7 c13c 75c5 af3b
00000180: c6d0 113d 4459 b3bd 8579 edbc 7242 9bbd
00000190: 55d2 483d aee8 883d daf4 883d 5f3a adbb
000001a0: 0ba7 82bd 4bca 85bd cf42 81bd adfb abbd
000001b0: e9d0 25bd 5390 37bd 46cc 43bb 6140 4d3d
000001c0: 9518 a0bd ebf9 bb3c 70c7 febc 71e6 413d
000001d0: 14f5 183c 1fc7 4f3d 1183 23bd 03bf 3cbd
000001e0: b3c4 9b3d 2158 583b ffcb 2d3b 0ed1 233d
000001f0: 2990 e33c 8ed5 30bd 98fe da3b 1ccf 963c
00000200: 1893 733d e105 46bc d17f 0ebc f247 90bd
00000210: ca5c 19bd 65eb abbc 885d a1bd 641f a4bd
00000220: b148 a03c 009f d83c 44f8 d33c ccf2 e8bc
00000230: c042 94bc d626 1f3d 1087 083c 1c6b b73d
00000240: ece5 e0bc b1f1 233d 1244 7abd bdee 903d
00000250: ec4b 72bd c711 383d 2965 51bd 9d7f 5b3d
00000260: a14a 42bd 54df 3bbd 8b0b 9abd 5e1e 263c
00000270: 653d 15bd 849b 98bc a5be 7a3d 3a24 ecbc
00000280: a6a6 90bd cd92 073c 0dc4 c53a 7b2f 443d
00000290: 781f 8d3d 414d 6a3d 81b1 aa3c 1983 1abd
000002a0: c0aa bebc 0dde 39bd fcf3 f93c 0da0 543d
000002b0: 7492 873c 9da9 113c 351a 61bd 6295 ad3d
000002c0: 4d3a be3c d720 0fbc d4d1 91bd 3e0a 723a
000002d0: 8dff a7ba ce0c 7d3d 647f f83c c557 b9bc
000002e0: fff9 64bd 3030 eebc 7d6c 5b3d 48b5 453d
000002f0: 0e47 053d 8f6c 1d3d b7cf 6abd c66d d0bc
00000300: dda4 c43b 42c7 623d a95f 703d 7146 323d
00000310: f038 96bd bece 7b3d 0407 3bbb 9878 423d
00000320: fbf8 8bbb d5d2 0abd 786d b6bd 09fd 923c
00000330: c3ba f03c 7fd6 0abc f54c 8c3d 4849 41bd
00000340: 3587 993c 89f9 44bd e02e a6bc c2bf 6ebc
00000350: 32de 85bd 16e6 98bc f769 4abd 061e b0bd
00000360: 8db4 4c3d bad3 85bc 5ee5 043c 057b 02bd
00000370: 9f08 67bd 7912 c63b 2e14 58bd d9e7 0abd
00000380: c96d 263d b489 5fbd 0f91 f03b 0fd8 5bbc
00000390: 7d37 2cbd 5b3a 853d c320 7bbd 97df 26bd
000003a0: 1cd7 69bd fd5e c13b 2e1e b53d 4167 25bc
000003b0: 0086 883c 45ff 313c fe4e 03bc ea57 d9bc
000003c0: 1aa8 42bd d45a 623c d12e 10bb 477f 383d
000003d0: 9266 933d 0893 bbbc 1587 5a3d 2a86 e1bc
000003e0: 8df4 ae39 e695 7abc ef10 ab3c c20d 6c3c
000003f0: 01ba b3bc 2d5d 8c3d 3a46 5ebd 33b4 2a3d

decoders.0.decoder_net.7.bias f4 [16]
0.036702726 0.06094716 -0.018692672 0.001170739 -0.010083452 -0.071828164 0.08144137 0.07654433
-0.0019408093 -0.056619983 0.020401102 -0.07558663 0.042448252 -0.055136766 0.046610545 -0.008685333
00000000: 9955 163d bba3 793d 6021 99bc 7b73 993a
00000010: 1035 25bc a51a 93bd bcca a63d 46c3 9c3d
00000020: c162 feba 5bea 67bd 3620 a73c 2acd 9abd
00000030: 38de 2d3d 17d7 61bd b3ea 3e3d ed4c 0ebc

decoders.0.decoder_net.9.weight f4 [16]
0.9886244 0.98896664 0.9871978 0.9891125 0.98701924 0.98743695 0.9866534 0.9873025
0.98788613 0.9883162 0.9875673 0.987725 0.9876603 0.9859317 0.9882875 0.9868507
00000000: 7d16 7d3f eb2c 7d3f ffb8 7c3f 7a36 7d3f
00000010: 4bad 7c3f abc8 7c3f 5195 7c3f dbbf 7c3f
00000020: 1be6 7c3f 4a02 7d3f 36d1 7c3f 8cdb 7c3f
00000030: 4ed7 7c3f 0566 7c3f 6900 7d3f 3fa2 7c3f

decoders.0.decoder_net.9.bias f4 [16]
-0.016136043 0.015892092 0.01609319 0.015889063 -0.015833322 -0.003277777 0.015893739 -0.015941951
-0.015877824 -0.015883084 0.015726047 -0.015877657 -0.015848927 -0.015857693 0.016085748 -0.014927845
00000000: bc2f 84bc 2230 823c ded5 833c c829 823c
00000010: e2b4 81bc f9cf 56bb 9633 823c b298 82bc
00000020: 3612 82bc 3e1d 82bc e9d3 803c dc11 82bc
00000030: 9cd5 81bc fee7 81bc 42c6 833c ec93 74bc

decoders.0.decoder_net.9.running_mean f4 [16]
0.058192704 0.058192704 0.058192704 0.058192704 0.058192704 0.058192704 0.058192704 0.058192704
0.058192704 0.058192704 0.058192704 0.058192704 0.058192704 0.058192704 0.058192704 0.058192704
00000000: 795b 6e3d 795b 6e3d 795b 6e3d 795b 6e3d
00000010: 795b 6e3d 795b 6e3d 795b 6e3d 795b 6e3d
00000020: 795b 6e3d 795b 6e3d 795b 6e3d 795b 6e3d
00000030: 795b 6e3d 795b 6e3d 795b 6e3d 795b 6e3d

decoders.0.decoder_net.9.running_var f4 [16]
0.18636985 0.18622336 0.18604626 0.1861204 0.186307 0.18611166 0.18667495 0.18601723
0.18627937 0.18634161 0.18605211 0.18599717 0.18616912 0.18610246 0.18598916 0.1859414
00000000: bdd7 3e3e 56b1 3e3e e982 3e3e 5996 3e3e
00000010: 43c7 3e3e 0e94 3e3e b827 3f3e 4d7b 3e3e
00000020: 05c0 3e3e 56d0 3e3e 7284 3e3e 0b76 3e3e
00000030: 1ea3 3e3e a591 3e3e f173 3e3e 6c67 3e3e

decoders.0.decoder_net.10.weight f4 [16, 1, 3, 3]
0.0873977 0.037447292 -0.21753097 0.17201634 -0.28409246 0.019723786 0.10463336 0.18308909
-0.22163811 0.07577749 0.10280422 0.28406405 0.25790796 0.21364047 0.06388108 -0.10015796
0.16383307 -0.3022204 -0.1801361 0.17748101 -0.14500804 0.23461345 -0.09213509 -0.08694865
-0.12872064 0.19761255 0.17708719 -0.3003351 0.0068653184 0.08375761 -0.014907191 0.2604895
0.010594312 0.09997877 -0.10945273 0.2956866 -0.29649392 0.076769926 -0.1530225 0.30121928
-0.003703134 -0.020043226 0.043303248 -0.31361312 -0.3204314 -0.19867025 0.035121605 0.017277911
0.1840044 0.27122876 0.081457466 -0.2823991 -0.24332272 0.14752251 -0.042072352 0.29335737
-0.14713196 0.0573782 0.2547283 0.26048034 0.18716887 0.13648726 0.12529908 0.046511915
-0.06609529 0.12612 -0.21104972 -0.110609666 -0.18606457 0.30194554 -0.2342828 -0.21432635
-0.19971849 -0.11951689 0.29824662 -0.31754068 0.20272931 -0.22076176 0.0594279 -0.27296743
-0.15389945 -0.17803402 -0.3183706 0.29762885 -0.26631564 -0.23402429 0.036755618 -0.14678842
-0.06447592 0.15504439 0.15358624 -0.18819708 0.07802229 -0.029102646 -0.28732723 0.11620422
0.2908382 0.07127822 0.11589792 0.012685414 -0.30592546 -0.22278781 -0.23003161 -0.15921356
0.037948046 0.0010030193 0.27173373 0.10651575 0.23440827 0.029577604 -0.30468228 -0.16423084
-0.2591148 0.12062007 -0.12287811 -0.13560748 0.0018084076 -0.25758544 0.3023528 -0.33000052
-0.15750575 -0.102047466 -0.1435671 0.18606001 -0.27507734 -0.23600677 0.05067117 -0.07762855
-0.18088599 0.010288796 0.07226489 -0.16146304 0.30867997 0.26920307 -0.1510147 -0.29225037
0.14045236 0.028146086 0.11114278 0.31495705 -0.24438708 -0.065841615 0.075384155 -0.13166086
00000000: 91fd b23d 5562 193d 70c0 5ebe 0d25 303e
00000010: 9174 91be c793 a13c 044a d63d b57b 3b3e
00000020: 1af5 62be 3b31 9b3d 058b d23d d870 913e
00000030: 830c 843e 91c4 5a3e 15d4 823d 9e1f cdbd
00000040: dbc3 273e a2bc 9abe 9975 38be 95bd 353e
00000050: fd7c 14be 823e 703e 52b1 bcbd 2212 b2bd
00000060: 58cf 03be f25a 4a3e 5856 353e 86c5 99be
00000070: 77f6 e03b 1c89 ab3d 4a3d 74bc e15e 853e
00000080: c493 2d3c abc1 cc3d c128 e0bd 3c64 973e
00000090: 0dce 97be 8d39 9d3d eeb1 1cbe 6a39 9a3e
000000a0: 47b0 72bb b131 a4bc bf5e 313d e691 a0be
000000b0: 960f a4be 3770 4bbe acdb 0f3d 688a 8d3c
000000c0: a66b 3c3e 7fde 8a3e 2cd3 a63d 9d96 90be
000000d0: 9729 79be 2410 173e 0f54 2cbd f032 963e
000000e0: c3a9 16be 6705 6b3d bf6b 823e ae5d 853e
000000f0: 32a9 3f3e 51c3 0b3e 674e 003e 4783 3e3d
00000100: f85c 87bd 9a25 013e 6b1d 58be 5287 e2bd
00000110: b687 3ebe 9b98 9a3e d5e7 6fbe 5e78 5bbe
00000120: 0183 4cbe 45c5 f4bd c8b3 983e b194 a2be
00000130: 4698 4f3e 5f0f 62be ab6a 733d 63c2 8bbe
00000140: d197 1dbe 8d4e 36be 7901 a3be cf62 983e
00000150: 865a 88be 10a4 6fbe 0f8d 163d b44f 16be
00000160: f30b 84bd f5c3 1e3e b645 1d3e bcb6 40be
00000170: 26ca 9f3d ac68 eebc 8e1c 93be 7afc ed3d
00000180: bfe8 943e 51fa 913d e45b ed3d 7cd6 4f3c
00000190: 43a2 9cbe 7d22 64be 688d 6bbe e108 23be
000001a0: 696f 1b3d be77 833a af20 8b3e ee24 da3d
000001b0: b908 703e bb4c f23c 51ff 9bbe 212c 28be
000001c0: b2aa 84be a807 f73d 85a7 fbbd b0dc 0abe
000001d0: 1708 ed3a 3de2 83be fccd 9a3e d4f5 a8be
000001e0: 3049 21be 43fe d0bd 4103 13be 8486 3e3e
000001f0: f0d6 8cbe c2ab 71be 938c 4f3d b8fb 9ebd
00000200: 2d3a 39be 5792 283c 9dff 933d 9156 25be
00000210: 4d0b 9e3e fcd4 893e 99a3 1abe d7a1 95be
00000220: bed2 0f3e 9f92 e63c d39e e33d 0d42 a13e
00000230: 9b40 7abe f8d7 86bd 0263 9a3d 1bd2 06be

encoder.encoder_net.0.weight f4 [16, 1, 3, 3]
0.033331152 0.33688292 -0.02876454 -0.25158763 0.17847289 0.2712572 -0.18767002 0.255549
0.17286874 0.20180516 -0.050652087 0.28917608 -0.10151494 -0.061725862 -0.26221195 0.30274424
-0.24175061 -0.12172977 -0.31185287 -0.029918743 -0.1833721 -0.3104636 -0.014563849 0.2617966
0.25497758 -0.25865075 0.29215854 0.12519525 0.053208005 -0.24035914 -0.16377436 0.26221755
0.22533587 0.114393964 0.28589216 0.29508403 -0.12294248 0.13341473 -0.0025582402 -0.2179579
0.048644062 -0.14365886 -0.048373807 -0.3431363 -0.33040985 0.13010828 -0.08997264 -0.024865702
0.10745736 0.019406749 0.32553986 -0.12568155 0.21507177 0.10875404 -0.17658716 -0.1518558
-0.1397336 0.019193154 0.253902 -0.18257055 -0.20472059 0.19557984 -0.23275651 -0.13458878
-0.012360564 -0.073537245 -0.33265492 -0.20260404 -0.055008847 0.08032305 -0.23828827 0.24964443
-0.13084286 -0.11147523 -0.2020313 0.016136887 -0.24324645 -0.10028953 -0.09918759 -0.14793417
-0.17380941 -0.22452106 -0.02899632 -0.11056011 0.2871071 0.19504616 0.057954267 -0.1847285
-0.10302432 -0.09306294 -0.08450645 0.33644745 -0.09313662 0.1063069 -0.1258901 0.3096867
-0.26826146 -0.2196159 -0.08892224 0.19142607 0.31437382 0.015989706 0.29091412 -0.21903896
-0.10662451 0.31440043 -0.325643 -0.069810554 0.31446135 -0.116562046 0.15675543 -0.31085545
-0.061862238 -0.053711876 -0.25942448 -0.01599867 0.15160753 0.21769583 0.25801402 0.12145405
-0.20705602 -0.06667302 -0.2703783 -0.038233235 -0.06660778 -0.2862506 -0.15833102 0.31728455
0.07700433 0.22268885 -0.2673537 -0.07636268 -0.26566577 -0.2368848 -0.13610056 -0.19203267
-0.22482401 -0.11090194 -0.08746179 -0.18694645 0.31149426 0.11980829 0.06719317 -0.004552909
00000000: 3f86 083d eb7b ac3e 9da3 ebbc 18d0 80be
00000010: 99c1 363e 39e2 8a3e 922c 40be 52d7 823e
00000020: 8104 313e 03a6 4e3e 9078 4fbd e30e 943e
00000030: 11e7 cfbd 42d4 7cbd a540 86be 4b01 9b3e
00000040: 798d 77be 754d f9bd 2eab 9fbe 2718 f5bc
00000050: e5c5 3bbe 16f5 9ebe 369d 6ebc 340a 863e
00000060: 6c8c 823e df6d 84be ce95 953e 2f33 003e
00000070: a3f0 593d b520 76be 77b4 27be 6141 863e
00000080: 72be 663e 6247 ea3d 7560 923e 4115 973e
00000090: 44c9 fbbd df9d 083e 26a8 27bb 5b30 5fbe
000000a0: ff3e 473d 4f1b 13be 9d23 46bd 90af afbe
000000b0: 7b2b a9be 1b3b 053e 9343 b8bd 28b3 cbbc
000000c0: 9b12 dc3d e7fa 9e3c 29ad a63e aab2 00be
000000d0: c63b 5c3e 70ba de3d 44d3 34be 1680 1bbe
000000e0: 5316 0fbe f63a 9d3c 71ff 813e c6f3 3abe
000000f0: 46a2 51be 1546 483e b957 6ebe a4d1 09be
00000100: f783 4abc b29a 96bd bf51 aabe 6f77 4fbe
00000110: f550 61bd 6980 a43d d701 74be caa2 7f3e
00000120: acfb 05be 204d e4bd 4be1 4ebe 8131 843c
00000130: 9915 79be 9964 cdbd dd22 cbbd 0e7c 17be
00000140: 18fb 31be d9e8 65be b189 edbc 576d e2bd
00000150: b4ff 923e 2eba 473e 7461 6d3d 7829 3dbe
00000160: 6afe d2bd c897 bebd b811 adbd d742 ac3e
00000170: 6abe bebd 6fb7 d93d 56e9 00be 418f 9e3e
00000180: 9159 89be fee2 60be dd1c b6bd 3205 443e
00000190: 9bf5 a03e d8fc 823c b2f2 943e c04b 60be
000001a0: f35d dabd 18f9 a03e aeba a6be d6f8 8ebd
000001b0: 1401 a13e 15b8 eebd 7f84 203e 7228 9fbe
000001c0: 4263 7dbd fc00 5cbd 49d3 84be a50f 83bc
000001d0: 013f 1b3e a8eb 5e3e 6a1a 843e e7bc f83d
000001e0: 7e06 54be dd8b 88bd 066f 8abe 749a 1cbd
000001f0: a969 88bd 708f 92be 8721 22be 1f73 a23e
00000200: 72b4 9d3d 8c08 643e 96e2 88be 0964 9cbd
00000210: 5805 88be ee91 72be f25d 0bbe 36a4 44be
00000220: 4438 66be 8e20 e3bd 2b1f b3bd e46e 3fbe
00000230: 2d7c 9f3e 0c5e f53d 939c 893d 9230 95bb

encoder.encoder_net.0.bias f4 [16]
0.2855272 -0.136327 -0.1237299 0.07407095 -0.009459305 -0.031799056 0.07326512 0.06776289
0.21211234 -0.2209366 -0.11697758 -0.02457987 0.23168744 -0.17200468 0.10464275 -0.24870528
00000000: 9f30 923e 4e99 0bbe 1a66 fdbd 83b2 973d
00000010: 33fb 1abc ba3f 02bd 060c 963d 45c7 8a3d
00000020: fa33 593e 343d 62be f191 efbd b95b c9bc
00000030: 793f 6d3e ff21 30be f04e d63d 99ac 7ebe

encoder.encoder_net.2.weight f4 [16]
1.0039251 0.98838544 0.9905666 1.0095499 0.996007 0.9963978 1.0090747 1.0131279
1.0132666 0.988519 1.0069977 0.99854225 0.99527556 0.9886275 0.9969438 0.9901595
00000000: 9e80 803f d406 7d3f c695 7d3f ee38 813f
00000010: 51fa 7e3f ed13 7f3f 5c29 813f 2dae 813f
00000020: b8b2 813f 950f 7d3f 4de5 803f 77a0 7f3f
00000030: 61ca 7e3f b116 7d3f b537 7f3f 187b 7d3f

encoder.encoder_net.2.bias f4 [16]
0.011946632 0.0039849645 -0.014519096 -0.0028219018 -0.012915534 -0.012680228 0.013097519 0.013093952
-0.0032988735 0.010828892 -0.0014527186 0.0052090925 0.012468708 -0.0031220599 -0.006178234 -0.008103271
00000000: cebb 433c 4e94 823b 81e1 6dbc a8ef 38bb
00000010: ad9b 53bc bbc0 4fbc fa96 563c 0488 563c
00000020: ea31 58bb aa6b 313c 2669 beba 09b1 aa3b
00000030: 8d49 4c3c 799b 4cbb c872 cabb 95c3 04bc

encoder.encoder_net.2.running_mean f4 [16]
0.05951629 0.05951629 0.05951629 0.05951629 0.05951629 0.05951629 0.05951629 0.05951629
0.05951629 0.05951629 0.05951629 0.05951629 0.05951629 0.05951629 0.05951629 0.05951629
00000000: 5ac7 733d 5ac7 733d 5ac7 733d 5ac7 733d
00000010: 5ac7 733d 5ac7 733d 5ac7 733d 5ac7 733d
00000020: 5ac7 733d 5ac7 733d 5ac7 733d 5ac7 733d
00000030: 5ac7 733d 5ac7 733d 5ac7 733d 5ac7 733d

encoder.encoder_net.2.running_var f4 [16]
0.1669795 0.1668208 0.16686648 0.16704763 0.16693673 0.16689111 0.16682857 0.16688602
0.1669752 0.16678472 0.16681321 0.16693436 0.16682099 0.1668673 0.16685657 0.16683318
00000000: adfc 2a3e 12d3 2a3e 0cdf 2a3e 890e 2b3e
00000010: 76f1 2a3e 81e5 2a3e 1cd5 2a3e 2be4 2a3e
00000020: 8cfb 2a3e 9dc9 2a3e 15d1 2a3e d7f0 2a3e
00000030: 1fd3 2a3e 43df 2a3e 73dc 2a3e 51d6 2a3e

encoder.encoder_net.3.weight f4 [32, 16, 3, 3]
0.029595146 -0.03258537 -0.017729817 -0.03975947 -0.063518204 -0.026975086 -0.05982738 -0.041098233
-0.030607775 -0.070505984 -0.055018928 0.043654524 0.00022821735 0.037511617 -0.055631828 0.053417854
0.057414465 0.022740407 0.049243037 -0.031574745 -0.012848342 -0.017727302 -0.002918339 -0.031647068
-0.058235895 -0.011350794 0.030441308 0.007869512 -0.04072286 0.04941866 -0.08369209 0.05253068
0.07746271 0.052689776 -0.020520609 -0.022764698 -0.025705393 -0.06435377 -0.028778095 0.015391497
-0.053925578 0.054740373 0.036953125 -0.00778749 -0.020687453 -0.030211413 -0.07967476 -0.046832517
0.04045251 0.057094563 0.02391765 0.03913106 -0.012417104 0.043656986 0.059373163 0.04105799
0.06375963 0.028649326 -0.041447625 -0.027712818 -0.048351184 -0.026027715 0.05850735 0.023060031
-0.010891982 -0.02287077 0.072959855 0.013469822 -0.047713187 -0.022139737 -0.0074044666 -0.0793385
0.05094548 0.08369937 0.049219962 -0.034393042 -0.030868776 -0.06930595 -0.05027675 -0.08346133
-0.08453816 0.034567032 0.008384676 -0.029303962 0.040364135 0.05478642 -0.050207864 -0.00084650976
-0.07568881 0.06842855 0.0031697857 -0.077414505 -0.022274341 -0.061008133 -0.0129889455 0.024758901
-0.021740384 0.018810647 -0.023401937 -0.036420234 0.045501836 0.037107 0.042266462 -0.055782437
0.081483565 0.071783334 0.032084912 0.043664742 0.060529582 0.007747015 -0.07025856 0.051617835
0.045812152 0.041136056 0.07835425 -0.065317236 -0.07718921 -0.049208414 -0.06704113 -0.0031135532
-0.07986017 -0.026376028 0.063547045 0.039295685 -0.06560967 -0.030595066 -0.056489237 0.0652806
-0.016381472 -0.079660684 0.059253234 0.048036225 0.03754167 0.0453475 0.077277966 -0.050969664
-0.017326502 0.017873831 0.041586652 0.0025176096 -0.06564795 0.035212927 0.050033353 -0.059556883
-0.03977213 -0.07569597 -0.073442645 0.06652251 -0.054218546 0.080465086 0.006958265 -0.05512712
0.07768714 -0.0339024 0.06554421 0.029663837 -0.0044666072 -0.056402504 0.015573375 0.0627419
-0.06811418 -0.04287863 -0.06384383 0.032211214 0.056124333 -0.010756518 -0.06947272 0.03895964
0.02144379 0.06213608 0.004921449 0.06682344 -0.016673062 -0.082582794 -0.060476944 0.040399525
0.0092279995 -0.014829847 0.08394179 -0.061903283 0.016880527 0.0863985 -0.059090454 -0.01773577
0.022651732 0.033267654 -0.07163463 -0.017456008 -0.07976041 0.07597601 -0.023813687 -0.04884465
-0.034131806 -0.020516517 -0.06675591 0.0780699 -0.042325567 -0.06987264 0.03932455 -0.0225546
0.023603583 0.0023106372 0.0112473685 0.030340452 0.03526202 0.0758107 -0.007477624 0.011286722
0.04593818 0.090598255 -0.01872264 0.06362717 -0.017266074 0.01700961 -0.035673242 -0.037505426
-0.008388084 0.067088306 0.08708144 -0.072133265 -0.07738956 -0.043725282 -0.038410038 -0.025704412
-0.019620758 -0.04260233 0.034016654 0.015733141 -0.07095986 0.032711726 0.06341944 0.05709499
-0.0037487766 0.049370106 0.06967156 -0.04358806 -0.041700684 0.059751164 -0.067346916 -0.08776773
-0.017970268 -0.041277435 -0.0015344869 0.07048559 -0.012456325 0.0025110391 0.06791069 0.015421536
-0.032174613 -0.03468009 0.03058873 -0.07966438 -0.010395839 0.06391058 -0.023549432 0.059657015
00000000: 8571 f23c 3d78 05bd 1f3e 91bc d3da 22bd
00000010: d515 82bd dbfa dcbc 8e0d 75bd 9f56 28bd
00000020: 28bd fabc 7165 90bd 875b 61bd 16cf 323d
00000030: a14d 6f39 c8a5 193d 33de 63bd aecc 5a3d
00000040: 6e2b 6b3d 174a ba3c 11b3 493d 8554 01bd
00000050: da81 52bc d938 91bc 9b41 3fbb 5ba0 01bd
00000060: c388 6ebd aef8 39bc 0d60 f93c 20ef 003c
00000070: 03cd 26bd 396b 4a3d c266 abbd 692a 573d
00000080: c5a4 9e3d 3cd1 573d d61a a8bc 087d babc
00000090: 1e94 d2bc e9cb 83bd 0ac0 ebbc 9e2c 7c3c
000000a0: 11e1 5cbd 7137 603d 295c 173d 332e ffbb
000000b0: bc78 a9bc ed7d f7bc 852c a3bd 74d3 3fbd
000000c0: 88b1 253d fddb 693d f3ee c33c e447 203d
000000d0: 1c71 4bbc abd1 323d 4631 733d 6c2c 283d
000000e0: 6994 823d feb1 ea3c fcc4 29bd fe05 e3bc
000000f0: e40b 46bd 1338 d5bc 67a5 6f3d 64e8 bc3c
00000100: 4974 32bc 7b5b bbbc fa6b 953d 87b0 5c3c
00000110: e76e 43bd 655e b5bc 2ba1 f2bb 397c a2bd
00000120: 35ac 503d 936a ab3d df9a 493d b8df 0cbd
00000130: 84e0 fcbc 47f0 8dbd feee 4dbd c6ed aabd
00000140: 5822 adbd 2996 0d3d e15f 093c dd0e f0bc
00000150: dd54 253d ba67 603d c3a6 4dbd 4fe8 5dba
00000160: bc02 9bbd 4524 8c3d 2ebc 4f3b 7f8b 9ebd
00000170: ae78 b6bc aae3 79bd 96cf 54bc 2ed3 ca3c
00000180: e418 b2bc c918 9a3c 6bb5 bfbc 622d 15bd
00000190: 2260 3a3d 82fd 173d 991f 2d3d 207c 64bd
000001a0: dbe0 a63d 2403 933d 786b 033d cdd9 323d
000001b0: deed 773d acda fd3b b8e3 8fbd 396d 533d
000001c0: 86a5 3b3d 487e 283d 3178 a03d 0bc5 85bd
000001d0: 6015 9ebd c38e 49bd dc4c 89bd c10c 4cbb
000001e0: bb8d a3bd 8a12 d8bc f424 823d 83f4 203d
000001f0: 5d5e 86bd 81a2 fabc 4261 67bd d6b1 853d
00000200: 7032 86bc 2425 a3bd 85b3 723d a2c1 443d
00000210: 4bc5 193d 4dbe 393d e943 9e3d 91c5 50bd
00000220: 4ff0 8dbc 246c 923c c456 2a3d 7bfe 243b
00000230: 6f72 86bd 6e3b 103d c6ef 4c3d ebf1 73bd
00000240: 1ae8 22bd 7d06 9bbd 1969 96bd f43c 883d
00000250: 4414 5ebd e1ca a43d 2802 e43b facc 61bd
00000260: 6f1a 9f3d 3edd 0abd 0b3c 863d 9301 f33c
00000270: 9e5c 92bb 5006 67bd 7827 7f3c d37e 803d
00000280: 727f 8bbd 81a1 2fbd 8ec0 82bd e8ef 033d
00000290: a1e2 653d 1b3c 30bc b747 8ebd 2594 1f3d
000002a0: e3aa af3c 6782 7e3d 1b44 a13b bada 883d
000002b0: f295 88bc 2b21 a9bd acb6 77bd f979 253d
000002c0: 0931 173c e3f8 72bc ace9 ab3d 4c8e 7dbd
000002d0: 0849 8a3c b2f1 b03d d508 72bd 9b4a 91bc
000002e0: 2090 b93c aa43 083d 2db5 92bd e7ff 8ebc
000002f0: 6d59 a3bd 4f99 9b3d ec14 c3bc 5411 48bd
00000300: cbcd 0bbd 4112 a8bc 53b7 88bd 1de3 9f3d
00000310: 935d 2dbd 6319 8fbd c812 213d 6dc4 b8bc
00000320: 4d5c c13c 0f6e 173b e246 383c 8a8c f83c
00000330: e86e 103d a442 9b3d db06 f5bb f1eb 383c
00000340: ac29 3c3d 948b b93d 3960 99bc f64e 823d
00000350: 9571 8dbc bd57 8b3c 1b1e 12bd 4a9f 19bd
00000360: 2d6e 09bc 9865 893d c157 b23d 9bba 93bd
00000370: 6b7e 9ebd 4819 33bd d853 1dbd 0f92 d2bc
00000380: b6bb a0bc c87f 2ebd 0c55 0b3d cae2 803c
00000390: 6753 91bd bbfc 053d 0de2 813d 70dc 693d
000003a0: 09ae 75bb 4f38 4a3d f6af 8e3d 6589 32bd
000003b0: 56ce 2abd a3bd 743d 2eed 89bd 91bf b3bd
000003c0: 6236 93bc 8712 29bd d620 c9ba c05a 903d
000003d0: 9d15 4cbc 3f90 243b c314 8b3d 9caa 7c3c
000003e0: 87c9 03bd b60c 0ebd 3795 fa3c 1427 a3bd
000003f0: 4f53 2abc 8de3 823d bdea c0bc ea5a 743d

encoder.encoder_net.3.bias f4 [32]
0.06560367 0.030582944 -0.00080349366 -0.049532045 -0.0314776 0.058129024 -0.0024181549 -0.009275064
-0.047971282 -0.045829143 0.078250416 0.019557174 -0.082811095 0.045281697 0.07506781 0.03469843
-0.063451156 0.070369996 -0.024971481 -0.008142646 -0.050904084 -0.03456752 0.03737007 0.019716311
-0.0041123205 0.06960177 -0.0579606 -0.03989941 0.040821213 -0.07994449 -0.047787353 0.0124828555
00000000: 385b 863d 1589 fa3c 8ca1 52ba 1de2 4abd
00000010: a8ee 00bd b318 6e3d e879 1ebb 70f6 17bc
00000020: 897d 44bd 57b7 3bbd c141 a03d 5e36 a03c
00000030: dd98 a9bd 4d79 393d 27bd 993d f11f 0e3d
00000040: aef2 81bd 251e 903d fe90 ccbc bc68 05bc
00000050: cd80 50bd ac96 0dbd 5c11 193d 1a84 a13c
00000060: a5c0 86bb 5f8b 8e3d 1868 6dbd 906d 23bd
00000070: 2534 273d f0b9 a3bd acbc 43bd e484 4c3c
