miniproject2/experiment_69/model.pt (torch, 140599 bytes, 37 tensors)

prior.mean f4 [2]
000000 00 00 00 00 00 00 00 00
       0.0 0.0

prior.std f4 [2]
000000 00 00 80 3f 00 00 80 3f
       1.0 1.0

decoder.decoder_net.0.weight f4 [512, 2]
000000 34 bc eb 3e b2 c5 af 3e 4d 8f 09 bf ae ab 86 bd
       0.46042025 0.34330517 -0.53734285 -0.06575714
000010 c7 95 60 3e e0 09 89 be 45 5c 0d bf d7 51 b9 be
       0.21932136 -0.26765347 -0.5521892 -0.3619525
000020 fa 00 96 3e 17 f2 66 bc 4f e6 24 3f 3e 07 1b bf
       0.2929762 -0.014095805 0.64413923 -0.60557926
000030 7b 78 ee 3e 2d 38 f2 be 07 67 f7 3e 9f 95 13 bf
       0.46576294 -0.47308484 0.4832079 -0.5765018
000040 9c 78 08 be 48 9e a0 bd b2 b0 a4 3e 6e c3 36 bf
       -0.13327259 -0.0784269 0.32166058 -0.7139195
000050 35 02 95 3e 12 24 22 3f 3a d8 08 3e 4a d0 ce 3e
       0.29103246 0.6333629 0.13363734 0.40393287
000060 f0 90 bc 3a d9 0b a1 be df 24 96 be 52 f0 aa bc
       0.0014386456 -0.31454352 -0.29325005 -0.020866547
000070 97 9f f4 3d 84 10 57 3e e4 b6 04 bf a7 e3 e0 3e
       0.11944502 0.21002394 -0.5184157 0.43923685
000080 d5 7f f1 bc d1 64 69 3e 6f 48 1c be fb 2a b2 3d
       -0.0294799 0.22792365 -0.15262006 0.08699604
000090 97 20 c9 3e eb ca 60 bf 21 c8 2c bd e5 82 11 bf
       0.39282677 -0.8780963 -0.042183045 -0.56840354
0000a0 20 7c a7 3d 78 1b 70 3e 6a 93 25 bf ed cf 88 3c
       0.08177972 0.23447978 -0.6467806 0.01670071
0000b0 69 1c 27 3f be 6e cf 3e a7 6b b0 3d 93 b0 5c bd
       0.65277725 0.40514177 0.08614283 -0.05387933
0000c0 6a a8 90 3e 13 8d 1d 3e 62 39 6c be 16 85 8b be
       0.2825349 0.15385847 -0.23068765 -0.27249974
0000d0 a8 63 84 3e 99 b9 aa be f7 37 c7 be 0c 3e c0 3e
       0.25857282 -0.33344725 -0.38909885 0.37547338
0000e0 8e ae f6 3e b2 ca 24 3e a7 16 02 be f5 f7 26 bf
       0.4818005 0.16092947 -0.12703954 -0.652221
0000f0 63 25 ea 3e d4 3c 30 3f ae 4a 17 3f c7 a4 ec be
       0.4573165 0.68842816 0.5909833 -0.46219465
000100 27 0d 02 bf 07 14 f9 3d fa e2 03 bf 02 e4 ce 3e
       -0.5080132 0.12162023 -0.51518214 0.4040833
000110 53 6f f8 3e 5d c9 35 3f 50 74 38 bf 10 68 09 bf
       0.48522434 0.7101038 -0.7205248 -0.5367441
000120 d4 f2 11 3f 25 08 ba 3e 9a 94 e5 3e 81 52 64 be
       0.5701115 0.3633434 0.44839936 -0.22297098
000130 cd ac 3a 3f f8 93 7a 3e d6 58 39 3f 37 47 4f 3e
       0.72919923 0.24470508 0.7240118 0.2024201
000140 8b 6a d8 be 64 4d 0d 3f 77 f1 ad be a4 cc de 3e
       -0.42268786 0.55196214 -0.33973286 0.43515503
000150 c1 7c 1b 3d e8 8f 4b bf c4 e7 29 bf aa f8 ef 3e
       0.03796077 -0.7951646 -0.6636927 0.46869403
000160 16 59 0a 3f 5a 0f 44 be 4b fe b8 bd d8 cc 0e bd
       0.54042184 -0.19146481 -0.090328775 -0.034863323
000170 47 42 da be 11 27 cb 3c 27 da 17 bf ee 17 b3 3d
       -0.4262869 0.024798902 -0.5931725 0.087447986
000180 36 c5 d2 3e 56 dc 8d bd 65 04 d1 3e 54 65 7c 3e
       0.41166085 -0.06926791 0.40823665 0.24648029
000190 95 2d 54 be 4e 76 50 be 03 80 13 3f f1 fd 30 bf
       -0.20720513 -0.2035763 0.57617205 -0.69137484
0001a0 2d eb 33 3e a1 fc 92 be 9a 4c 92 3e 66 7c c3 be
       0.17570181 -0.28708366 0.28574067 -0.38180846
0001b0 d6 e0 0d bf e8 a9 3e be 43 fb 1e 3f 5a 4e d0 3e
       -0.554212 -0.18619502 0.62102145 0.40684777
0001c0 59 57 db 3e be 77 ee be fc 4e d4 be 1f 5c 1a bf
       0.42840078 -0.4657573 -0.4146651 -0.60296816
0001d0 b0 a9 55 bd ae 4d ad bb 85 c2 2f be 94 0c 9f 3d
       -0.05216378 -0.005288801 -0.17164047 0.07766071
0001e0 66 64 a8 3e 62 07 03 bf 13 41 0d bf 27 83 96 3e
       0.32889098 -0.5118314 -0.5517742 0.29396936
0001f0 01 13 01 be 93 77 14 bf 6e da ff be 56 7f 89 be
       -0.12604906 -0.57994956 -0.49971336 -0.26854962
000200 64 41 cf bc 40 03 88 3d 38 78 0d bf 58 61 e2 3e
       -0.025299735 0.06641245 -0.55261564 0.44214892
000210 2d 98 64 bf 76 50 84 3d 12 2a 09 3f fd 69 d6 bd
       -0.892947 0.06460659 0.5357982 -0.104694344
000220 2f e9 5f bd 7d a8 9a 3d 78 7a 05 bf 22 23 61 be
       -0.05466574 0.07551668 -0.5214 -0.21986058
000230 3e 5c f6 3c 77 5e 3c 3e aa 45 0c 3f 3f 52 68 3d
       0.030073281 0.1839541 0.547938 0.05671906
000240 a3 c4 2a 3e 41 ee 51 bc 0b c1 89 3e bf 9d 2e bf
       0.16676573 -0.012813152 0.26905093 -0.6820945
000250 9b 3c 5e 3c bc 8f 07 3f 90 ae 09 3f 4b 6f 54 3e
       0.013564254 0.52953696 0.53781986 0.2074558
000260 3e 29 97 3e e4 f8 75 bd b3 2c 00 3f 85 fe c5 bd
       0.29523653 -0.060051814 0.50068206 -0.096676864
000270 06 cd 35 3e ab 29 40 bf 9c b8 98 3e 25 b4 9e 3d
       0.17753991 -0.7506358 0.29828346 0.077492036
000280 6e d2 8f bd 43 ff dc be b6 c8 fe 3e c2 7f 96 be
       -0.07022558 -0.431635 0.49762505 -0.29394346
000290 98 ae 0a bf e3 95 2f bd 76 22 ff be dc 05 8c 3e
       -0.5417266 -0.042867552 -0.4983098 0.2734822
0002a0 00 0e 2b bf 9b 0e d9 be bf 1c 1f bf 0d b4 dd be
       -0.6681824 -0.42393956 -0.6215324 -0.4330143
0002b0 ed 3c 8e 3e 4b 94 e8 be d9 09 a7 be b8 cc 00 bf
       0.27780858 -0.4542564 -0.326247 -0.50312376
0002c0 fd 4d 15 3f 94 f0 7e be a4 21 00 bf 8f 35 86 be
       0.58322126 -0.24896461 -0.5005133 -0.26212737
0002d0 9d 80 24 be 5d b8 3f 3d 1b d2 f8 3d 68 29 f4 bd
       -0.16064687 0.046806682 0.121494494 -0.1192196
0002e0 de 2f 33 bf 72 b4 b1 3e 3b bf 0f bf f3 e1 1c be
       -0.69994915 0.3470798 -0.5615117 -0.15320568
0002f0 d8 a5 2a 3f cd 7f 21 be 11 54 d8 3e 8a 22 10 3f
       0.6665931 -0.15771408 0.42251638 0.563027
000300 5a f1 73 bd a4 94 9f bd 0d ac 50 be 61 2f ec bd
       -0.059556343 -0.07792023 -0.20378132 -0.11532474
000310 40 ad 32 bf 5a 2a f6 be d5 a6 13 bf 9d 18 b4 be
       -0.6979561 -0.48079187 -0.5767644 -0.35175028
000320 b3 bf e3 3e 4f 69 46 be bf 6a 90 be dc e5 5e 3d
       0.44482192 -0.1937611 -0.2820644 0.05441843
000330 5a a2 97 3e 7d d2 b6 be 2e 58 21 3e 7d a4 77 be
       0.29616052 -0.35707465 0.15756294 -0.24183841
000340 13 ee 79 3d 56 d8 07 be 85 20 16 bf 01 2b 45 be
       0.06101806 -0.1326612 -0.5864337 -0.19254686
000350 74 82 e7 be db 6b 18 3f 22 0d b2 bc a3 3b a6 3c
       -0.45216715 0.59539574 -0.021734778 0.020292109
000360 aa ce 16 3f d5 5b 97 be d4 59 ad bd 32 51 35 3f
       0.58909094 -0.2956225 -0.08464399 0.7082702
000370 7b dd 3c 3f c2 bf 2d be ac b2 04 bf d7 35 da be
       0.7377545 -0.16967681 -0.5183513 -0.42619202
000380 fd 95 0a be be 6a d7 bd 4e 2e 26 3f 27 31 cb be
       -0.13533778 -0.10518406 0.64914405 -0.39685938
000390 2f 32 81 3e 4a d6 58 3e 11 c9 cc 3c 43 cd e1 3d
       0.252336 0.21175495 0.02499822 0.11025479
0003a0 8d a5 1b be e7 df 61 3e a0 5b 1c bf 4b 53 5b bf
       -0.15199871 0.22058068 -0.6107731 -0.8567397
0003b0 49 59 01 3f 85 c6 01 3e a5 74 5d be d3 c7 23 3d
       0.50526863 0.12673385 -0.21626528 0.03998549
0003c0 d3 3b 54 be a3 38 db be 2e f6 a6 3d 19 74 c8 be
       -0.20725946 -0.42816648 0.08152424 -0.39151075
0003d0 b0 b0 b0 3e 4e 0d e9 be c1 24 fb be e6 e1 7c bd
       0.34509802 -0.45517963 -0.49051479 -0.06173887
0003e0 a4 b9 07 bf 74 48 68 3e 2a 36 fc bd d3 d8 35 bd
       -0.5301764 0.22683889 -0.123150185 -0.044396233
0003f0 97 ac ef 3e fb 8b b3 be 35 c4 e1 3e 28 40 8e 3e
       0.46811363 -0.35067734 0.44095007 0.27783322

decoder.decoder_net.0.bias f4 [512]
000000 f8 e6 0a bf 03 6d 45 3f 95 79 f8 3e 86 b0 88 3d
       -0.5425868 0.77119464 0.4853026 0.06674294
000010 0d fa 24 bf 8b a8 33 3f 66 44 23 bf 19 3e 11 3f
       -0.6444405 0.7017905 -0.6377624 0.5673538
000020 03 f2 90 be a0 55 01 bf ea 4b 60 be fd 3e 1e 3e
       -0.2830964 -0.5052128 -0.21903959 0.15453716
000030 09 62 14 be f0 e9 aa bc 44 6e 3a bf 0f f8 a9 3e
       -0.14490522 -0.020863503 -0.728245 0.33197066
000040 13 2a 37 bf 3c 4b e2 bd 57 05 12 bf 71 1c f8 3e
       -0.71548575 -0.11049506 -0.570394 0.484592
000050 53 de 22 bf eb 3b d0 be 78 11 ef 3e 4d 17 89 3e
       -0.6362049 -0.40670714 0.46693015 0.2677559
000060 e2 7b f9 3e 32 0a 26 3f d0 3a 5a be 3a 68 02 bf
       0.48727328 0.64859307 -0.21311498 -0.5094029
000070 e3 14 82 3e 64 cc 2d 3e 19 a7 79 be 28 b7 c5 be
       0.2540656 0.169725 -0.24380149 -0.386163
000080 26 70 af bd f8 4a d5 bd 54 df b7 be 12 a6 91 3d
       -0.085663125 -0.1041469 -0.35912573 0.071117535
000090 f4 d8 e0 be d6 d7 05 3f b8 cf 09 bd b3 a5 1d bf
       -0.43915522 0.52282465 -0.03364536 -0.6158096
0000a0 90 5b 80 be 06 3e 1b 3e bd 7e ce 3e 65 08 cc bd
       -0.25069857 0.15160379 0.4033107 -0.09962539
0000b0 b0 bf 9e 3e 80 0c 14 3f 47 d3 33 3f a6 27 e8 3e
       0.3100562 0.57831573 0.7024426 0.4534275
0000c0 8b 9c 8a 3e b7 ee 43 3e 27 63 7b be 55 53 a9 be
       0.27072558 0.19134031 -0.24549542 -0.3307139
0000d0 a7 4e 57 3e a6 f9 c8 be 50 f9 54 bd ec a0 00 bf
       0.21026097 -0.39252967 -0.051995575 -0.5024555
0000e0 f8 2e 0e 3f 3e 24 42 3e f5 c7 37 3f 4a e5 0c 3f
       0.5554042 0.18959138 0.71789485 0.5503737
0000f0 fc de c1 be de bf 51 be 03 2a c9 3e 9c 7c 05 3f
       -0.37865436 -0.20483348 0.39289865 0.52143264
000100 ee d3 05 bf 7d f7 44 3f 3c b8 7c 3e 99 27 10 bd
       -0.52276504 0.7694014 0.24679655 -0.035194013
000110 8c 02 35 be f4 52 b6 3e ae ae 11 bf 0c 44 fe be
       -0.17676753 0.35610163 -0.56907165 -0.4966129
000120 48 73 1a bf 82 5b d3 3e e0 00 d2 be ff c7 0d 3e
       -0.60332155 0.41280752 -0.41016293 0.13845824
000130 1e d3 14 3f 5b 66 0e be ed 9a a9 3e 6c 08 0a 3f
       0.5813464 -0.13906233 0.33126011 0.539191
000140 94 2e 0b 3e 54 d8 c3 3e 2a d9 86 be 0d 1f 8b be
       0.13591987 0.38250983 -0.26337558 -0.27172127
000150 30 62 de 3e e6 62 61 3e a0 9f 23 3e ab 4a f7 bd
       0.43434286 0.22010383 0.15978861 -0.12074789
000160 36 e2 e9 bd 1d e2 76 be 9f c4 d3 be 83 1c 12 bf
       -0.114200994 -0.24109693 -0.41360947 -0.57074755
000170 f3 58 23 bf 44 64 97 be 77 8a 84 bd 6c 12 c6 3e
       -0.638076 -0.29568684 -0.064717226 0.3868593
000180 92 b4 fa 3e 38 2d 48 3f 6a 70 47 3e 6b a1 20 3e
       0.4896589 0.78194 0.19476476 0.15686576
000190 43 52 cf 3e cb c8 ba 3e 78 fb 7d bc c0 97 19 3d
       0.40492448 0.36481318 -0.015501849 0.037498236
0001a0 c0 59 ba be b5 9d d6 be 51 04 cb be 9a cb fd bd
       -0.363966 -0.41917196 -0.3965173 -0.123923495
0001b0 60 b9 e9 be 56 c8 9d 3d f0 7d 16 bf 9e 90 4f bd
       -0.45649242 0.07704227 -0.58785915 -0.050675027
0001c0 b9 e9 e0 3e be 86 f0 3e 7f 7c e3 be a2 8f df be
       0.43928316 0.469778 -0.4443092 -0.4366427
0001d0 d0 1e f2 bd b4 3e da 3e d9 79 06 be 43 e2 e5 3e
       -0.11822283 0.42625964 -0.13132419 0.44899186
0001e0 88 8c 2f bf 51 96 1c 3f 80 6e 36 3f 3b a7 18 bf
       -0.6857381 0.61166865 0.7126236 -0.59630173
0001f0 7c 58 54 3e 85 d3 02 3f 88 3b ad be 53 e9 36 bf
       0.20736879 0.51104003 -0.3383448 -0.71449775
000200 6b aa 28 bf fc 43 83 3e 2a c4 99 be 30 69 b8 3d
       -0.6588504 0.25637805 -0.30032474 0.09004438
000210 17 2f 52 3e a1 fd 94 be 0c 6d e2 3e 8e 45 38 3f
       0.20525776 -0.29099753 0.4422382 0.7198113
000220 2c bc eb be f0 4a 35 3f 68 e7 e2 3e 7a 99 df 3d
       -0.46042 0.7081747 0.44317174 0.10917945
000230 6c 9e ac 3a 54 0c cb 3e 64 45 78 3e 3c ab 7f 3e
       0.0013169772 0.39657843 0.2424522 0.24967664
000240 3c aa 11 3f d6 f6 00 be e5 70 fa be 61 25 cc 3e
       0.5690038 -0.1259416 -0.48914257 0.39872268
000250 e9 0b 28 3e 9f 6e e5 bd d2 14 33 3f 32 24 0b 3f
       0.16410793 -0.1120274 0.69953644 0.54352105
000260 a0 68 4c be de 2d f1 be 7a 46 1c 3f 5e d7 9c bc
       -0.19961786 -0.47105306 0.6104504 -0.019145664
000270 47 67 28 bd 47 03 55 3e 51 0f 8e 3e ff bb fc 3c
       -0.041114118 0.20802031 0.2774606 0.030851362
000280 74 8d 10 bf 57 a0 b3 3e 53 a3 de be 72 65 91 3e
       -0.5646584 0.35083267 -0.43483981 0.2839771
000290 7a 0e 9d 3a b5 06 0a bf 50 e3 3d 3f 7c e0 b5 be
       0.0011982464 -0.53916484 0.74174976 -0.3552283
0002a0 78 26 ab 3e fe 8f 08 bf 77 8d 9c be 6d 22 58 be
       0.33427787 -0.53344715 -0.3057668 -0.21106882
0002b0 99 0d 9f be 8b 78 48 bf 08 90 af be 8f ff ff bd
       -0.31065062 -0.78308934 -0.34289575 -0.12499916
0002c0 23 cb 41 bf 40 3b 0f 3f 2d a8 50 3f 45 dd 8c be
       -0.7570059 0.55949783 0.81506616 -0.27512565
0002d0 86 a9 00 be 39 28 ff 3e dd ff 5b bf eb c8 4b 3d
       -0.12564668 0.49835375 -0.8593729 0.049752157
0002e0 4f 29 ca 3e c4 f6 27 3c 73 b7 2c bf 67 eb 2b bc
       0.3948464 0.010251705 -0.6746742 -0.010493136
0002f0 04 fc 0d be 70 39 0e 3f e5 c2 06 3f 29 63 84 3e
       -0.13865668 0.5555639 0.52641135 0.25856903
000300 27 6e fe 3d 55 de 5c be 7f 00 08 3e f7 b7 59 3e
       0.12423354 -0.21569188 0.13281439 0.21261583
000310 0b 85 af 3d 54 79 d4 be 04 7f 56 be 54 6c 19 3f
       0.08570298 -0.41498816 -0.2094689 0.5993092
000320 6e f0 b6 3e cb f2 74 3e c8 6a c9 be 3a 6f 9a be
       0.35730308 0.23920743 -0.3933928 -0.30162984
000330 96 a6 7f be 2b 00 07 3f 47 a9 30 3f 54 75 da 3e
       -0.24965891 0.5273463 0.69008297 0.4266764
000340 a9 24 fa 3c 3f f1 01 3f 00 67 f2 3e ae d3 74 3e
       0.030535059 0.5075874 0.47344208 0.23908874
000350 09 55 0a 3f a8 72 dd 3e b8 86 a8 3d 80 b8 73 be
       0.54036003 0.43251538 0.082288206 -0.2380085
000360 f7 49 11 bf 55 d6 d9 be a6 50 90 3d 47 59 c2 be
       -0.56753486 -0.42546335 0.070466325 -0.37958738
000370 95 ee ae 3c 14 84 88 3e 6c 8f ff bd 2a 06 1e bf
       0.021354 0.26663268 -0.124785274 -0.61728156
000380 b1 b8 1c bf b8 12 95 be 67 49 36 be c0 b8 07 be
       -0.61219317 -0.29115844 -0.17801438 -0.1325407
000390 0b 33 29 bf 5d dc 96 3e 23 20 74 bf 86 43 0a bf
       -0.6609351 0.29465 -0.95361537 -0.5400928
0003a0 74 a0 54 3e 80 96 00 bf f4 bd 27 3e 00 ba 1b bf
       0.20764333 -0.50229645 0.16381055 -0.6083069
0003b0 ef aa 06 bf 1e 19 5a 3e e6 3d fd 3e 4d 02 5c 3e
       -0.52604574 0.21298644 0.49461287 0.21485253
0003c0 1d 51 db 3e 41 9c 83 3d da 7d 2c bf 1d 7d 17 3f
       0.42835322 0.064262874 -0.67379534 0.5917528
0003d0 9b ae 2c bf bc d6 a1 be 89 f8 6e 3e fe 6c 87 3d
       -0.67453927 -0.31609142 0.23336996 0.066125855
0003e0 d7 e5 54 bf e5 e6 91 3e f2 95 2f 3f e2 7c 0d bf
       -0.8316321 0.2849647 0.68588173 -0.5526868
0003f0 5e bc 23 be ab 9e 25 3f f8 7f d6 be ec d7 79 3e
       -0.15989825 0.64695233 -0.41894507 0.24398774

decoder.decoder_net.3.weight f4 [32]
000000 16 71 86 3f 95 1d 88 3f 67 83 81 3f 18 3d 82 3f
       1.0503261 1.0634028 1.0118226 1.0174894
000010 15 bd 84 3f 17 f4 80 3f e8 4a 84 3f 18 5f 7b 3f
       1.0370203 1.007449 1.033536 0.98191977
000020 55 d2 78 3f 25 16 82 3f 50 9e 87 3f 86 a7 86 3f
       0.9719594 1.0163008 1.0595188 1.0519874
000030 d7 7d 84 3f 1a e2 83 3f 01 08 7c 3f 47 1a 83 3f
       1.0350903 1.0303376 0.98449713 1.0242394
000040 13 84 72 3f 96 ef 76 3f 04 31 86 3f 8c b8 76 3f
       0.9473278 0.9645933 1.0483708 0.96375346
000050 e7 e5 82 3f 0e 3c 80 3f 01 1b 82 3f ea 68 82 3f
       1.0226411 1.0018327 1.0164491 1.0188267
000060 b2 c6 7a 3f ca 1b 83 3f f7 5c 77 3f b9 2e 82 3f
       0.97959435 1.0242856 0.9662623 1.0170509
000070 ca 4b 81 3f 26 62 93 3f 0b db 86 3f 6c 4b 82 3f
       1.0101254 1.1514328 1.0535597 1.0179267

decoder.decoder_net.3.bias f4 [32]
000000 25 68 9f 3d ad 5f b0 bc ec c0 8e bc 76 72 97 bd
       0.07783536 -0.021529997 -0.017425977 -0.073948786
000010 91 92 ba 3c 7e 7e ac bd 83 28 4c 3d 90 27 ad bc
       0.022774966 -0.08422564 0.049843322 -0.021137029
000020 c5 ea 4e bd 26 74 3c 3d 0b 9c db bc d7 bf 12 3b
       -0.050516862 0.046009205 -0.026807806 0.0022392177
000030 7d 96 82 3d 50 ac 66 3d 6d 1b 8c bc 3b f0 18 bd
       0.063763596 0.056316674 -0.017102921 -0.037338477
000040 2e 82 f2 3d 97 9f ba 3d 48 04 f7 3d e8 88 07 bd
       0.11841236 0.091124706 0.120613635 -0.03308955
000050 ec f0 5d 3c d2 80 aa 3c 64 db 1e 3c 50 10 9e 3c
       0.01354621 0.02081338 0.0096958615 0.019294888
000060 63 a9 05 bc 97 0f ad bc 00 38 b4 3d fd d8 32 3c
       -0.008158061 -0.021125598 0.08799744 0.010915992
000070 48 2d 95 bb a3 2d 88 bd a2 f9 95 3c 62 fa 88 bc
       -0.004552517 -0.066493295 0.01830751 -0.016720954

decoder.decoder_net.3.running_mean f4 [32]
000000 fc ff 7f 3e fc ff 7f 3e fc ff 7f 3e fc ff 7f 3e
       0.24999994 0.24999994 0.24999994 0.24999994
000010 fc ff 7f 3e fc ff 7f 3e fc ff 7f 3e fc ff 7f 3e
       0.24999994 0.24999994 0.24999994 0.24999994
000020 fc ff 7f 3e fc ff 7f 3e fc ff 7f 3e fc ff 7f 3e
       0.24999994 0.24999994 0.24999994 0.24999994
000030 fc ff 7f 3e fc ff 7f 3e fc ff 7f 3e fc ff 7f 3e
       0.24999994 0.24999994 0.24999994 0.24999994
000040 fc ff 7f 3e fc ff 7f 3e fc ff 7f 3e fc ff 7f 3e
       0.24999994 0.24999994 0.24999994 0.24999994
000050 fc ff 7f 3e fc ff 7f 3e fc ff 7f 3e fc ff 7f 3e
       0.24999994 0.24999994 0.24999994 0.24999994
000060 fc ff 7f 3e fc ff 7f 3e fc ff 7f 3e fc ff 7f 3e
       0.24999994 0.24999994 0.24999994 0.24999994
000070 fc ff 7f 3e fc ff 7f 3e fc ff 7f 3e fc ff 7f 3e
       0.24999994 0.24999994 0.24999994 0.24999994

decoder.decoder_net.3.running_var f4 [32]
000000 ba 43 59 3d c2 8d 06 3d 5c 0c 5e 3d 72 a4 44 3d
       0.053043105 0.032850035 0.054211006 0.04800839
000010 22 7c 63 3d eb 10 60 3d 64 e6 4b 3d 48 f0 4c 3d
       0.055538304 0.054703634 0.049780264 0.050033838
000020 9e 91 49 3d 7d 7b 67 3d 10 46 a0 3d e5 b0 88 3d
       0.049211137 0.056514252 0.07825863 0.06674365
000030 79 74 22 3d 8b d2 58 3d c8 61 5e 3d 97 a5 1b 3d
       0.03966186 0.052935164 0.05429247 0.037999716
000040 92 3d 65 3d 6d 91 86 3d 57 5a 7e 3d d5 27 38 3d
       0.05596692 0.065707065 0.062097874 0.04495986
000050 9b 5b 70 3d ac fa 8d 3d c7 ab 4f 3d ed eb 9f 3d
       0.05868111 0.069325775 0.05070093 0.07808671
000060 02 cf 97 3d 73 0a 4f 3d 28 aa 32 3d 50 a1 4c 3d
       0.074125305 0.050547075 0.043619305 0.049958527
000070 45 be b0 3d 3f 34 35 3d 60 f5 84 3d 9c 96 4f 3d
       0.08630041 0.04423928 0.06492114 0.05068074

decoder.decoder_net.4.weight f4 [32, 32, 3, 3]
000000 b8 35 90 b9 78 f5 b5 3d 08 cd c6 ba fb ef a6 3c
       -0.00027505844 0.0888471 -0.0015167305 0.020378103
000010 5c 46 93 3d 0f f8 d3 3c 51 ee b7 bc 71 08 45 3d
       0.07191154 0.02587512 -0.022452505 0.048103753
000020 e3 89 5c bb 0e a9 5a 3d 59 9f 22 3d 1c f2 b4 ba
       -0.0033651523 0.05338388 0.039702747 -0.0013805064
000030 23 f6 28 3d 08 a7 43 bc c1 0f 8e bd 75 78 b7 bc
       0.04125036 -0.011941679 -0.069365986 -0.022396306
000040 80 7e 15 bd d3 0f 1f bd 60 f7 c4 bc 2c 4c 06 bc
       -0.036497593 -0.03883345 -0.024043739 -0.008196872
000050 ba 29 17 bd fd 6f 23 3d 02 9e a1 bd df 1e 68 bd
       -0.036905028 0.039901722 -0.07891466 -0.056670066
000060 a1 fc 6f 3d 26 86 cb bc 52 44 60 3d 07 d0 2b 3c
       0.058590535 -0.02484424 0.054752655 0.010486609
000070 5d f9 c8 bc 6e 71 47 3d ba 97 25 bd fe 22 37 bd
       -0.024532968 0.04869216 -0.0404279 -0.044711106
000080 46 b0 b3 bd c2 8a 33 3d 20 58 d1 bc a9 a1 b2 bb
       -0.08773856 0.0438335 -0.025554717 -0.0054514003
000090 5e 86 41 3d ef 8d 32 3c 78 c3 32 3c 8a c7 ac 3d
       0.047247283 0.010898097 0.010910861 0.084364966
0000a0 84 4d c0 3d e0 2f cd 3b 05 cf aa bc 8c 3f 84 bd
       0.09389785 0.0062618107 -0.020850668 -0.06457433
0000b0 ff 65 d9 bb e2 02 23 bd 58 70 a1 bc 60 c2 7e bd
       -0.0066344733 -0.03979767 -0.01970689 -0.06219709
0000c0 31 05 21 3d ea 5c 51 3d a0 e0 db bc 4a bd 0f bb
       0.03931159 0.051114 -0.026840508 -0.0021932893
0000d0 a0 7b 92 bc 8c da c9 bd f2 fc 0c bd 5f 2e 8f bd
       -0.017881215 -0.09856138 -0.034420915 -0.069912665
0000e0 cf 47 d3 bc fa 4d 02 bd be 9a 83 bd 4a 5a e3 3d
       -0.025791077 -0.031812645 -0.06425999 0.11101206
0000f0 2a d8 4f bb fe 54 90 3d da 7a 06 ba b2 cf 56 3c
       -0.0031714537 0.07047461 -0.00051300006 0.013111042
000100 63 c3 b5 bb 1c 62 0d 3d 05 78 6a 3c 7e cb 14 3d
       -0.0055469736 0.034517393 0.014310841 0.036326878
000110 44 17 2a 3c f3 be eb 3c 8c 46 fd bc 06 ec 1b 3d
       0.0103815235 0.028777575 -0.030917428 0.038066886
000120 07 27 82 bd 22 f3 b0 3b b3 9b 84 bd 14 ff 87 bb
       -0.063551 0.0054000774 -0.0647501 -0.0041502807
000130 56 93 7e bd 4a 2c 78 bd e1 8f b1 bb a9 27 2c 3d
       -0.06215223 -0.060589112 -0.005418763 0.04203001
000140 46 26 3c bd bb 23 76 3b 63 ea c5 bc a7 d9 6e 3d
       -0.045934938 0.0037557918 -0.024159616 0.05831304
000150 5b 55 22 ba 7e 1c da 3c 81 0a 5b 3b 09 42 24 bd
       -0.00061925285 0.026624914 0.003342301 -0.04010204
000160 38 04 92 bd 8e f4 37 bc 44 74 90 bc ce 4c 84 bd
       -0.07129711 -0.01122774 -0.017633565 -0.06459962
000170 b3 7d 15 bd d7 fe 78 bb 85 a7 9e ba 72 04 59 3b
       -0.03649683 -0.0037993693 -0.0012104368 0.0033114222
000180 67 4c 66 bb 7b f5 9f 3c 7f 55 16 3d 93 e6 48 3d
       -0.0035140754 0.019526234 0.03670263 0.049048018
000190 aa c3 a4 3d dc c4 74 bd 3e d1 d9 3c 75 21 5d 3d
       0.080451325 -0.059758052 0.026589032 0.053986985
0001a0 5e e6 cf bd 23 2a 5a bd f2 99 6b 3d 93 80 57 3c
       -0.10151361 -0.05326284 0.05751986 0.013153213
0001b0 47 58 80 bd c5 ba 46 bc fc 51 b2 bd c4 c5 ef 3c
       -0.062668376 -0.01212949 -0.087070435 0.029269107
0001c0 b0 6e 96 bd 4f 1d 0d be 36 09 22 bc 6c eb 6f 3c
       -0.07345331 -0.13780712 -0.009889891 0.014643531
0001d0 82 e2 1b 3d 41 42 63 bc 4e dd 02 bc 6b 38 84 3c
       0.03805781 -0.013870777 -0.007987333 0.016140183
0001e0 a5 2e bf bd 0f e1 15 bd 31 2d 2d bd 03 c2 e7 3c
       -0.093350686 -0.036591586 -0.042279426 0.028290754
0001f0 39 73 29 bc 79 9d 8b 3b 5c 25 3f 38 5f e9 bd bb
       -0.010342413 0.0042607156 4.5572742e-05 -0.0057956423
000200 b3 ea 85 bd 7e 24 e6 3b 1e 0d 7d bd 4a 8c a5 3d
       -0.06538906 0.007023393 -0.061780088 0.08083399
000210 bd 2d 3c bd 18 c1 08 3c 65 51 22 bd 08 4e f5 bc
       -0.045942057 0.008346818 -0.039628405 -0.029944435
000220 b3 2d 20 3d bd 88 bc 3d 3a bb 76 3b a6 a5 83 3c
       0.039106082 0.09205768 0.0037648217 0.016070198
000230 aa 39 89 bd fd e2 cb bb c0 33 f8 bd d6 74 12 bd
       -0.06700452 -0.0062221275 -0.121192455 -0.035755955
000240 74 52 98 3c cd 9a 10 3d d2 64 72 bc 1a 75 2f 3d
       0.018594004 0.03530388 -0.014794545 0.042836286
000250 96 e6 9c 3d 59 f2 62 3c 16 aa 09 3d 08 55 b7 3d
       0.07661168 0.0138517255 0.033609472 0.08951765
000260 8d 9a 06 3c 0b 6c 4a 3c fc b0 81 bc 5c 59 f7 bc
       0.008215559 0.012354861 -0.015831463 -0.030193977
000270 fa 02 26 bd 86 5c 0c 3d df 2f a2 3d bf e4 9d bc
       -0.040530182 0.034267925 0.07919287 -0.019274114
000280 b1 7f 21 bd 0d 4d 71 3c 68 e9 8c bd 72 ae d6 38
       -0.039428417 0.014727843 -0.06880456 0.00010236808
000290 68 1c 6f bd 64 6d 24 3d 21 70 2f 3c 60 13 81 bd
       -0.0583767 0.040143386 0.010707886 -0.063025236
0002a0 c4 a5 14 3d 94 7c e0 bc af b3 10 3d 03 62 bc ba
       0.0362909 -0.027403153 0.03532761 -0.0014372471
0002b0 94 c3 24 bd 6c 4d ed b7 e6 57 0e bd 41 11 3f 3d
       -0.04022558 -2.8288654e-05 -0.034751795 0.046647314
0002c0 2d 2f ab 3c 04 1f de bc 10 56 8a 3d e2 31 15 3d
       0.020896519 -0.027114399 0.06754696 0.036424525
0002d0 35 f6 5f bc 96 5f 0c bc 88 bb b0 bd 31 f9 e1 bc
       -0.01366954 -0.008567711 -0.08629519 -0.027584644
0002e0 d0 3f 39 3d 57 5f 6b bd c8 0e ca bc e7 da 70 3d
       0.045226872 -0.05746397 -0.024665251 0.05880251
0002f0 bc 8c 32 bd a3 bc 70 3d 28 cd a9 bc 86 bb 0c 3d
       -0.043591246 0.058773648 -0.020727709 0.034358524
000300 c9 86 0c bd d3 1b 8a bd 03 b5 8b 3d f7 eb 49 bc
       -0.03430823 -0.06743588 0.068216346 -0.012324325
000310 7d 36 23 bc 88 bf f6 3b 8b 41 57 3c ef 9e f8 bc
       -0.0099617215 0.0075301565 0.013138185 -0.030349223
000320 05 5d 96 3c 1c 54 d2 3c 96 4e 9c bd 46 76 b4 3c
       0.018354902 0.025674872 -0.076321766 0.022029053
000330 72 70 fe 3c 35 18 3d 3c ff 27 7b 3c 03 d9 84 bd
       0.031059477 0.011541416 0.01532936 -0.06486704
000340 96 87 a5 3c 87 53 12 bc 9f cb b8 bc e3 5a 9a bc
       0.020206254 -0.008931047 -0.022558032 -0.018842166
000350 59 62 99 bd 1d de 0c bd 85 0d 68 bd d5 35 3a 3d
       -0.074894615 -0.03439151 -0.05665352 0.045461494
000360 c6 d7 15 be 48 62 60 bc 11 c4 bf 3b d3 25 8c 3d
       -0.14633092 -0.013695307 0.0058522304 0.06843152
000370 23 7e fe bc 56 bb ad bc cb b1 09 bc 99 5e 43 3d
       -0.031066006 -0.021207493 -0.008404206 0.047697637
000380 9a 7b 8a 3b ac 7b 47 bd 6e 1d 8d bd 58 43 c9 bd
       0.0042261602 -0.048701927 -0.06890379 -0.09827298
000390 70 36 85 3c 1d fa ed bd a4 92 da bd 41 7c 9c bd
       0.01626131 -0.11619971 -0.10672501 -0.07640887
0003a0 f1 67 e6 3b 50 36 07 3d b4 0b 1a bd 46 25 84 3d
       0.0070314337 0.03301078 -0.037608817 0.06452422
0003b0 e5 56 8e 3c 11 73 d3 3d 7b c4 19 3e 65 a2 9e 3c
       0.017375419 0.103246816 0.15016358 0.019364545
0003c0 ee 3a b8 3c 0e 42 8a bc 3f b7 00 3d c3 5e 40 bc
       0.022489037 -0.0168772 0.031424757 -0.011741343
0003d0 15 72 8f 3d 1a 99 d3 b9 05 82 b0 3c b9 ed 05 3e
       0.07004181 -0.00040359126 0.021546373 0.13078965
0003e0 9b c7 25 bd 60 53 8c 3c 3b ca 0d bc ac 5f 44 bd
       -0.04047356 0.0171296 -0.0086541725 -0.047942802
0003f0 80 4d 48 3b 42 7a 4b bd f4 45 f2 3c 0e a1 0e 3d
       0.0030563772 -0.04967714 0.029574372 0.034821562

decoder.decoder_net.4.bias f4 [32]
000000 14 a7 2f 3d 80 e6 1c 3d 7c fc 92 3c a8 a8 cc 3b
       0.042883947 0.03830576 0.01794266 0.0062456913
000010 34 cf 13 3c b3 98 8f bd 9a 85 b9 3b 13 f7 ac 3d
       0.009021569 -0.07011547 0.0056616785 0.08445563
000020 ff c3 4f 3c 23 1b 4c 3d ef 4f 88 bc 92 1a 5c bd
       0.012681006 0.049830567 -0.016639678 -0.053736277
000030 05 7f 34 3d 35 35 b1 3c 96 08 d6 bc 5d 14 a3 bd
       0.044066448 0.021631816 -0.026127141 -0.07962868
000040 9d 5b 97 bc ad b9 55 3d ff e0 10 3b da f4 bb bc
       -0.018476302 0.052179027 0.0022106764 -0.022943903
000050 f0 19 ae 3d 45 bc ae 3c d2 19 51 3d 2f 79 c5 bc
       0.08501041 0.021330008 0.051050015 -0.024105636
000060 0b c2 9b bd c1 ac 51 3c 7e 6b 18 3c 80 fc 4a bd
       -0.0760537 0.012797535 0.009302972 -0.04955721
000070 bc 64 81 3c 81 e0 72 bd c5 7d 87 bc 8b 04 a5 bb
       0.015795104 -0.059296135 -0.016539464 -0.005035942

decoder.decoder_net.6.weight f4 [32]
000000 cd 47 73 3f 0a 18 74 3f 3e 35 5f 3f a5 d7 6b 3f
       0.95031434 0.9534918 0.87190616 0.9212592
000010 4e ff 79 3f eb 4c 64 3f e1 bd 6c 3f 51 40 72 3f
       0.9765519 0.8917987 0.9247723 0.9462939
000020 3d a2 67 3f d6 7e 63 3f 08 1c 65 3f 49 7e 75 3f
       0.9048193 0.8886541 0.894959 0.9589582
000030 88 bc 69 3f c9 c1 5a 3f 97 90 59 3f bb 2a 6c 3f
       0.913033 0.8545194 0.8498625 0.922527
000040 84 a1 6c 3f 3d 3a 64 3f b6 15 75 3f 0d 23 67 3f
       0.92433953 0.89151365 0.95736253 0.9028786
000050 ab c5 6e 3f d7 54 63 3f d6 54 6b 3f 65 19 74 3f
       0.9327037 0.8880133 0.91926324 0.9535125
000060 b3 2c 76 3f 55 df 73 3f 95 78 63 3f f1 db 74 3f
       0.96161956 0.9526265 0.8885587 0.95648104
000070 d4 43 65 3f 5f a0 7d 3f 0b e1 68 3f cf 81 6d 3f
       0.8955662 0.9907283 0.9096839 0.927762

decoder.decoder_net.6.bias f4 [32]
000000 d6 1f 5d 3d d6 17 b6 bc bc 25 24 bd d5 0a 7d 3d
       0.05398544 -0.022228163 -0.04007505 0.06177791
000010 a5 28 08 3d 6c 61 e9 bc f7 1e 36 bd 6d 89 57 3d
       0.033241887 -0.028488837 -0.044463124 0.052621294
000020 6d b0 01 be 5f 16 69 3c c4 71 3f 3d 8f 20 55 bc
       -0.12664957 0.014226525 0.046739355 -0.013008251
000030 a4 c7 88 bb 75 d9 53 bd e2 d3 dc 3c 47 f9 5b 3d
       -0.0041741896 -0.051721055 0.026956502 0.053704526
000040 18 5a 0c bb a4 0b f7 3c 77 8f aa bb 77 3a e5 bd
       -0.0021416005 0.030156918 -0.0052050906 -0.11192792
000050 0e 4a 28 3d 84 66 50 bd 04 4c 6c bd f0 5d 8a bd
       0.04108625 -0.050879017 -0.05768968 -0.067561984
000060 25 60 5e bd 5b e2 9f 3b 2c 8a f5 3c 1e de 46 3d
       -0.05429091 0.0048792786 0.029973112 0.04855167
000070 fe 8c 15 bd bd f1 dd bc 10 46 1c 3d f4 18 8a ba
       -0.036511414 -0.027092809 0.038152754 -0.0010536001

decoder.decoder_net.6.running_mean f4 [32]
000000 1d 49 12 3e 1d 49 12 3e 1d 49 12 3e 1d 49 12 3e
       0.14285703 0.14285703 0.14285703 0.14285703
000010 1d 49 12 3e 1d 49 12 3e 1d 49 12 3e 1d 49 12 3e
       0.14285703 0.14285703 0.14285703 0.14285703
000020 1d 49 12 3e 1d 49 12 3e 1d 49 12 3e 1d 49 12 3e
       0.14285703 0.14285703 0.14285703 0.14285703
000030 1d 49 12 3e 1d 49 12 3e 1d 49 12 3e 1d 49 12 3e
       0.14285703 0.14285703 0.14285703 0.14285703
000040 1d 49 12 3e 1d 49 12 3e 1d 49 12 3e 1d 49 12 3e
       0.14285703 0.14285703 0.14285703 0.14285703
000050 1d 49 12 3e 1d 49 12 3e 1d 49 12 3e 1d 49 12 3e
       0.14285703 0.14285703 0.14285703 0.14285703
000060 1d 49 12 3e 1d 49 12 3e 1d 49 12 3e 1d 49 12 3e
       0.14285703 0.14285703 0.14285703 0.14285703
000070 1d 49 12 3e 1d 49 12 3e 1d 49 12 3e 1d 49 12 3e
       0.14285703 0.14285703 0.14285703 0.14285703

decoder.decoder_net.6.running_var f4 [32]
000000 fc ce 76 3b 54 67 95 3b c8 ef 51 3b 82 2b 3f 3b
       0.0037659993 0.004559437 0.003203379 0.002917022
000010 93 28 79 3b 04 b4 a1 3b d8 1c 85 3b 25 e4 73 3b
       0.003801857 0.0049347896 0.0040622763 0.0037214842
000020 09 1f 90 3b f8 42 94 3b 42 80 75 3b c3 88 49 3b
       0.004398231 0.004524585 0.003746048 0.0030751682
000030 77 f9 b4 3b 71 62 5d 3b b9 d8 c7 3b 97 5b 45 3b
       0.0055229026 0.00337806 0.0060988334 0.0030114406
000040 fc 5a 8c 3b 00 ce 67 3b d7 93 10 3c 3d 3b 73 3b
       0.004283307 0.0035370588 0.00882431 0.0037114166
000050 34 85 4b 3b 8a 6f 52 3b 2f 99 a4 3b cb d3 c8 3b
       0.0031054737 0.003210994 0.0050231437 0.0061287633
000060 9d 3c dd 3b d8 70 94 3b 74 ab 8e 3b a5 92 95 3b
       0.0067516104 0.0045300536 0.004353935 0.0045646005
000070 f9 8d b7 3b 19 d3 65 3b 36 9f 4c 3b 70 76 52 3b
       0.0056016413 0.003506845 0.0031222827 0.0032114051

decoder.decoder_net.7.weight f4 [32, 16, 3, 3]
000000 b4 f9 80 3b 31 3d a2 bd 54 9e 98 bb 1c 20 9e bc
       0.003936017 -0.079218276 -0.004657546 -0.01930242
000010 ea de d3 bc 3e f1 d2 3c b8 d1 34 3d db 55 30 bd
       -0.02586313 0.025749799 0.044145316 -0.04305063
000020 52 bd b0 3c a5 11 d7 bb f0 8b df 3a 35 a9 a7 ba
       0.02157465 -0.0065633827 0.0017055254 -0.0012791516
000030 2d 65 42 bd fc de 07 bd a4 73 cf 3d 94 ac bc 3c
       -0.04745977 -0.03317164 0.101294786 0.02303151
000040 01 5b b1 3d 14 89 40 3d 12 96 58 bb fa 3d e5 3c
       0.08659936 0.047005728 -0.0033048433 0.027983654
000050 31 0a c1 bb 4c 97 a5 3d ab ba bc 3d 7c 5f 1c 3c
       -0.0058911075 0.08085498 0.092152916 0.00954425
000060 17 56 27 bd 99 65 1d 3d 15 6e fe bc 3e 7a 87 bd
       -0.040853586 0.03842697 -0.03105835 -0.06615113
000070 fb 56 6d 3d 54 1d de 3d 66 36 9e 3b 15 ab e4 3d
       0.05794428 0.10845438 0.004828262 0.11165444
000080 5b 26 9d 3d 0a 5c 07 3d ff 7d 71 bc 57 11 47 bd
       0.07673331 0.03304676 -0.0147395125 -0.04860052
000090 45 79 74 3d 67 e0 a0 3d ad b6 df bc af 73 c8 bc
       0.059685964 0.07855301 -0.027308786 -0.024469225
0000a0 5e 46 e3 3d 13 a2 60 3c 0e 54 b5 bd b6 e1 60 bd
       0.11097406 0.0137105165 -0.08853923 -0.054902755
0000b0 16 3a fa 3c 5e c0 97 bb db 94 80 3d 13 67 79 bc
       0.030545276 -0.0046310863 0.06278392 -0.015222329
0000c0 b8 58 bf 3d 99 7a 22 3e 6e a2 4b 3d 13 38 d0 3c
       0.09343094 0.1586708 0.049715452 0.025417363
0000d0 07 6d 17 3c 61 52 33 bc 6a f3 58 3d bf e1 c1 bd
       0.009242303 -0.010944934 0.052966513 -0.09466886
0000e0 3b ca 0f bd 56 77 a6 3b 31 88 3d bc 32 22 d1 3c
       -0.03510497 0.005080144 -0.011568115 0.025529
0000f0 ba 81 5c bb 4f 8e 9e bb f2 6b 83 bd ac 94 59 bc
       -0.003364666 -0.004838742 -0.06417073 -0.013280075
000100 78 85 98 3c f2 b5 ac bc 15 f0 3c 3c 19 13 e3 3c
       0.01861833 -0.021082852 0.011531849 0.027719067
000110 30 f9 71 bd 10 9a d2 3c 60 1a f6 3c 2f 6f d6 bc
       -0.059075534 0.025708228 0.030041873 -0.026176063
000120 25 8c 9c bd aa 60 8e bc 5b 07 da 3b 3a 73 8c bd
       -0.07643918 -0.017380077 0.006653709 -0.06857915
000130 07 40 2c bd b5 5a a1 3c 8f 60 f7 bc 68 27 63 bd
       -0.04205325 0.019696573 -0.03019741 -0.055457503
000140 71 b4 9c bc 1f 9d 81 bc de e2 c2 3c 09 6f 2d 3c
       -0.01912901 -0.015821991 0.02378982 0.010585555
000150 fb 90 79 bd 81 0c 45 3c 49 a0 3f 3d 5d ea 59 bc
       -0.06092928 0.012026907 0.04678372 -0.0133005055
000160 ec 1d fb bc 86 eb 3b bd b6 a2 b6 3c 83 4d 66 bd
       -0.030653916 -0.04587891 0.022294383 -0.056226265
000170 05 ee 7a bd 2c af aa 3b 33 3a 7d 3d f4 96 26 bc
       -0.06126215 0.0052088704 0.06182308 -0.010167826
000180 47 3d 96 3c a3 65 99 bc 3d 24 de 3c 06 60 00 bd
       0.018339766 -0.018725222 0.02711689 -0.031341575
000190 98 34 db 3c 2f fd d1 bc b6 04 44 3d 86 96 67 bd
       0.026758477 -0.025633423 0.047856055 -0.056540035
0001a0 65 ea 59 bd af bc 1b 3d e1 e4 6f bd 57 6b d9 3c
       -0.05320205 0.03802174 -0.058567885 0.026540441
0001b0 57 c0 f4 39 9d 1e 12 bd e3 4a 48 bd b4 bf 8a bd
       0.0004668261 -0.035673726 -0.048899543 -0.06774846
0001c0 1e f7 12 bd de 44 34 3d c9 58 73 bd ea 61 90 3d
       -0.0358802 0.04401099 -0.059410844 0.070499256
0001d0 6a 79 ad 3b 75 4e c2 bd e4 33 88 3d e9 a2 d8 3d
       0.0052940147 -0.09487621 0.06650522 0.10577948
0001e0 a3 31 59 3d ba 3e 9b 3b d5 e4 bf 3c 5b 8b 88 3d
       0.053025853 0.004737702 0.023424545 0.06667205
0001f0 96 7e 1e 3c 1c a7 93 bd 39 c3 be bc 8e 09 31 b9
       0.009673735 -0.07209608 -0.023286449 -0.00016883595
000200 54 f7 9a 3c 4c 7c 30 3d 3b b0 97 3c a3 72 fd bc
       0.018916763 0.04308729 0.01851665 -0.030938452
000210 97 a3 ff bc 12 d1 88 3d d1 da f6 bc 3c 90 4e bd
       -0.031205935 0.06680502 -0.030133637 -0.05043052
000220 74 46 2e bc b7 93 a1 3d 5f 96 2e bd 97 04 e0 3c
       -0.0106369145 0.078895025 -0.042623874 0.027345939
000230 bc 3c af 3c 1d 3d 3f 3d 46 23 52 bd 84 f2 9b bd
       0.021391265 0.04668914 -0.05130317 -0.076146156
000240 b7 a8 98 3d 76 b3 54 3d 94 af 1e bc 55 2c c4 3d
       0.07454055 0.05192896 -0.009685416 0.09578768
000250 76 08 8a bd c1 44 a9 bd 41 80 0f bd 85 22 31 3d
       -0.06739895 -0.08265067 -0.03503442 0.04324581
000260 d1 ba 9a 3c 59 08 b6 3d b7 f1 08 3e 74 01 35 3c
       0.01888791 0.08888311 0.13373457 0.01104771
000270 5c e5 44 3d 4e 3f 74 bd 28 f2 35 3d be 54 0d bd
       0.048070297 -0.059630685 0.04442039 -0.034504645
000280 4a df af 3d a1 51 9f bc b9 93 d3 3c 2c 3a 88 39
       0.08587511 -0.019448103 0.025827276 0.00025983283
000290 aa f1 93 bc 4a d6 cb bc 18 47 60 bd 3a cb ad 3c
       -0.01805957 -0.024882454 -0.0547553 0.02121507
0002a0 6d 04 c5 3b f1 34 c7 bc 56 b5 a4 3d 5a 8f ab bd
       0.0060124905 -0.024317237 0.080423996 -0.083769515
0002b0 1d 43 61 bd e3 39 43 bd 18 9b ce bd 97 ea 99 3d
       -0.054995645 -0.047662627 -0.100881755 0.075154476
0002c0 d7 fa 95 3d a4 04 98 3c c0 72 91 3c 28 68 4e bd
       0.073232345 0.0185569 0.017754912 -0.0503923
0002d0 bd e4 9c bd 0f e8 28 bd 2c 4f 8a 3c 9f 87 0e bd
       -0.07660816 -0.041236933 0.016883455 -0.034797307
0002e0 a2 2d 8b 3d 3d fd 80 3b 84 67 40 bd c9 77 2e bd
       0.06795813 0.0039364384 -0.04697372 -0.042594705
0002f0 c3 a3 80 bd dd d3 cf bc 5b 9f 1d 3d ee 8f 25 3d
       -0.06281235 -0.025369579 0.03848205 0.040420465
000300 8e 4c 2c be e5 4f a0 bc 16 28 14 3e 8f f5 89 bd
       -0.16826078 -0.019569347 0.14468417 -0.0673629
000310 51 35 4d 3c 1a bc 08 3c 34 bb 54 bc a6 06 4f bc
       0.012524919 0.008345628 -0.012984086 -0.012635862
000320 7b bf 86 3d e5 b7 05 bc a5 fe 6c 3c 7f 6d 63 bd
       0.06579491 -0.00816152 0.014465009 -0.055524345
000330 6a f1 7a bc 89 70 a6 3d ff db 4d 3d 2d 0b ff bc
       -0.015316347 0.08126933 0.050258633 -0.031133259
000340 07 b3 e3 3b b0 3e 4c bc 40 69 cb 3b c7 08 50 bd
       0.006948832 -0.012466118 0.006207615 -0.05078962
000350 c7 07 2f bd a9 ea 85 3b 57 40 16 bc 50 f0 03 bd
       -0.042732026 0.0040868116 -0.009170613 -0.0322116
000360 db 70 8b bd e0 f5 fe 3c 06 d1 be 3c 35 bb 1f 3d
       -0.06808635 0.031123102 0.02329303 0.038996894
000370 54 06 b9 bb 4b 68 96 bd 41 e4 c9 bb 66 90 03 3c
       -0.0056465063 -0.07344111 -0.006161243 0.008030033
000380 f2 8b bf bc 93 c4 28 bd 34 72 52 3d 90 08 63 bb
       -0.02338216 -0.041203093 0.051378444 -0.0034642555
000390 82 28 ff 3d 0b 05 05 3e c2 53 20 3d 87 3c 90 3d
       0.12458898 0.12990205 0.039142378 0.07042795
0003a0 87 bf b9 bd 5a e7 33 bd 05 a7 2e 3d 21 35 1a 3b
       -0.09069734 -0.043921806 0.04263975 0.0023530202
0003b0 7d 85 be bd c4 0b 2b bc a1 6b 05 3d ab 4a d0 3c
       -0.093028046 -0.010439817 0.032573346 0.02542623
0003c0 7b 36 f8 3c fb 74 3f bd d3 16 96 bb 9c 66 54 bd
       0.030299416 -0.04674242 -0.0045803576 -0.05185567
0003d0 71 22 a6 bd 8f f6 94 3d 04 27 1b bd 60 f8 07 3d
       -0.08112038 0.0727359 -0.037879005 0.033195853
0003e0 d9 18 09 3c 51 53 b7 bc 50 1b 5f bc fc 68 16 bd
       0.008367741 -0.022378596 -0.013617352 -0.036721215
0003f0 c2 25 63 3d a3 1e 3f 3d bd 1b 6c 3c dc 42 e5 3d
       0.05545593 0.046660077 0.01441091 0.11194393

decoder.decoder_net.7.bias f4 [16]
000000 3a 8b 9a bc 2f 89 6f 3d 30 8b a0 bd 55 81 84 bd
       -0.018865217 0.058480438 -0.07839048 -0.064699806
000010 d9 2a 08 3d d4 8f 87 3d 58 23 d6 bd 3c 49 4c bd
       0.033243988 0.0661923 -0.1045596 -0.04987453
000020 3e 1b 8a 3d 21 08 5d 3c 7a 45 7e bd 70 60 2a 3d
       0.06743477 0.013490708 -0.062077977 0.041595876
000030 d3 e7 e1 3c bd b9 3b 3d ea 7b ca 3d 26 41 ae bd
       0.027576363 0.04583143 0.09886916 -0.0850852

decoder.decoder_net.9.weight f4 [16]
000000 c1 e4 6c 3f 05 9e 67 3f 63 f1 6d 3f ea e1 70 3f
       0.9253655 0.90475494 0.9294645 0.9409472
000010 77 d0 67 3f b1 e8 7f 3f 89 c2 68 3f 7a 84 62 3f
       0.9055247 0.99964434 0.9092184 0.88483393
000020 7b 71 6e 3f 5b 40 75 3f 7a 7f 63 3f 5b 91 68 3f
       0.9314191 0.95801324 0.8886639 0.90846795
000030 b9 3e 67 3f a3 ae 69 3f 0b 19 66 3f 3a ff 68 3f
       0.9033008 0.912821 0.8988196 0.91014445

decoder.decoder_net.9.bias f4 [16]
000000 a1 65 87 3c 28 4f 72 3c 9b 14 21 3e 51 18 44 bd
       0.016527953 0.01478938 0.15730517 -0.047874752
000010 38 c7 20 3b 7b dd e2 bc 4e d9 25 bd 98 1e 7a bd
       0.0024532806 -0.0276935 -0.04049044 -0.061064333
000020 54 1f 86 3c b4 db 75 3d 96 7e b6 3d 0a fb 55 be
       0.01637236 0.06002398 0.08910863 -0.20896545
000030 35 01 53 3e dd 50 d6 3d 68 b8 59 be 99 04 25 bb
       0.20605929 0.10464642 -0.21261752 -0.0025179742

decoder.decoder_net.9.running_mean f4 [16]
000000 1d 49 92 3d 1d 49 92 3d 1d 49 92 3d 1d 49 92 3d
       0.071428515 0.071428515 0.071428515 0.071428515
000010 1d 49 92 3d 1d 49 92 3d 1d 49 92 3d 1d 49 92 3d
       0.071428515 0.071428515 0.071428515 0.071428515
000020 1d 49 92 3d 1d 49 92 3d 1d 49 92 3d 1d 49 92 3d
       0.071428515 0.071428515 0.071428515 0.071428515
000030 1d 49 92 3d 1d 49 92 3d 1d 49 92 3d 1d 49 92 3d
       0.071428515 0.071428515 0.071428515 0.071428515

decoder.decoder_net.9.running_var f4 [16]
000000 5c 02 d8 3a de 61 24 3b a1 e5 0c 3b cc b9 32 3b
       0.0016480195 0.0025082747 0.0021499174 0.0027271388
000010 7a e1 05 3b 55 16 6b 3b 0e 22 89 3a b6 ef 7f 3a
       0.0020428584 0.0035871465 0.001046242 0.0009763198
000020 6a 89 17 3b 15 14 ee 3a 49 04 7d 3a 6a b3 0f 3b
       0.0023122677 0.0018163944 0.00096518226 0.0021927007
000030 e9 29 bc 3a 35 39 93 3a 6a bc 8e 3a 9c 5d d9 3a
       0.0014355752 0.0011232259 0.0010889892 0.0016583684

decoder.decoder_net.10.weight f4 [16, 1, 3, 3]
000000 4d 0b 25 be 31 93 22 3e 6e 6f 88 3d 70 91 ff bd
       -0.16117592 0.15876462 0.066618785 -0.12478912
000010 08 a7 54 3e 12 8f f0 3d bf a4 76 be fc c2 6c be
       0.20766842 0.117460385 -0.24086283 -0.23121256
000020 4a 0d d0 bd 7f ec 90 bd 28 46 4f be cc 90 53 3e
       -0.10158785 -0.07076358 -0.20241606 0.20660704
000030 e0 c0 94 3d 0c c2 6e be f4 cc 0d 3c 23 16 73 be
       0.072633505 -0.2331621 0.008654822 -0.23738913
000040 ca 30 44 be 56 1c 0c 3e 84 eb 12 3e 4e 18 98 be
       -0.19159237 0.13682684 0.14347655 -0.29706043
000050 c4 fc e4 bd af 51 6e 3e e3 22 b7 3d ae ad 62 3c
       -0.11181024 0.23273347 0.08942201 0.013835354
000060 05 68 63 be 2f c1 2b be 8d 2e 91 bc d0 ac 85 be
       -0.22207649 -0.16772912 -0.017722392 -0.26108408
000070 d0 df 1d be 26 e6 02 3b 3d 1e 89 be 85 ec 47 be
       -0.15417409 0.0019973605 -0.26780882 -0.19523819
000080 b4 0f 38 be a0 a1 85 3c 56 53 10 3e 38 5b 76 be
       -0.1797474 0.01631242 0.1409429 -0.24058235
000090 d6 27 84 bd 46 84 61 3d 41 8d 55 3e d8 cf 94 bd
       -0.064529106 0.055057786 0.20854665 -0.072662055
0000a0 87 30 c6 bd 97 7c 24 be a6 01 51 3e 2e fd ec bc
       -0.096772246 -0.16063152 0.20410785 -0.02892932
0000b0 94 d9 27 3d c3 08 a7 be 93 bc 82 be 30 da 87 be
       0.040978983 -0.32623872 -0.25534496 -0.2653365
0000c0 51 63 f1 bd e9 ed 11 bd cf 50 a1 3c 01 e0 9e bc
       -0.11786521 -0.03562728 0.019691853 -0.019393923
0000d0 b8 f6 5b 3d 6c ac 76 3c 30 49 55 bd 48 5d 25 be
       0.053702086 0.015055757 -0.05207175 -0.16148865
0000e0 5a a4 08 be 3c af b5 bd a8 ce 61 be bf 40 1b be
       -0.13343945 -0.08871314 -0.2205149 -0.15161417
0000f0 29 bc 68 bc db ec aa bd 17 f9 ad 3d 6e b5 36 3e
       -0.014205017 -0.08345958 0.08494776 0.17842647
000100 d2 03 25 3e 3f f6 14 3e 06 dc d7 bd b2 c0 c2 3d
       0.16114739 0.1454706 -0.10540013 0.0950941
000110 b6 9c 88 bd db 54 7e 3c 4f f9 93 bd 5c 67 d3 bd
       -0.06670515 0.015523161 -0.07225286 -0.103224486
000120 3e 26 80 3e d3 41 56 be 01 0d 5a be 8f 4e 50 3e
       0.25029176 -0.20923547 -0.21294023 0.20342468
000130 f0 f2 f3 bd 5e aa 66 bd f0 cf 5b bd 6b 3a 4b bd
       -0.11911571 -0.05631482 -0.0536651 -0.04961626
000140 55 b9 23 be f7 49 17 3e 03 a8 5e 3e 69 70 68 3d
       -0.15988667 0.14774309 0.21743779 0.056747828
000150 f3 53 60 3e 27 d9 89 3c 57 58 e2 3d 57 c3 01 be
       0.21907024 0.01682718 0.11052006 -0.12672172
000160 24 c5 0f 3e 4a 7f c7 bc 70 58 11 3e 56 b5 e4 bd
       0.14040047 -0.024352688 0.14193892 -0.111673996
000170 be b9 3a 3d d2 ab 10 3e 60 d2 12 be 20 9d 21 be
       0.045587294 0.14128044 -0.14338064 -0.15782595
000180 67 13 f8 3d 4b b9 4e be bd 79 b3 3d c3 b1 5f 3c
       0.12113076 -0.20187871 0.08763454 0.013653222
000190 c9 6b 06 bc 6f 64 f8 bc 42 9b a2 bd 43 09 00 3e
       -0.008204409 -0.030321328 -0.07939769 0.12503533
0001a0 96 72 64 3e 2a 8c 88 3d a0 a9 38 be cb aa 37 bd
       0.22309336 0.06667359 -0.18033457 -0.044840615
0001b0 13 e3 02 3e 8e 54 52 3e 22 5d d0 bd c1 a0 39 bd
       0.12781934 0.20540068 -0.10174014 -0.045319322
0001c0 83 11 5c 3e 88 c2 a9 bd 47 29 82 3d ef 68 a6 bd
       0.21491055 -0.08289057 0.06355529 -0.08125483
0001d0 14 f9 2d be ad eb 36 3d 32 be 21 bd e6 da 98 bc
       -0.16989547 0.04465835 -0.039488025 -0.018659066
0001e0 4d c8 86 3d ee b4 27 bd c1 de 43 be 17 9d 61 3e
       0.06581173 -0.040944032 -0.19127943 0.22032581
0001f0 4a bd e6 3d 69 b9 19 3e 92 a9 c7 b9 08 6e 02 3e
       0.11266573 0.15012135 -0.00038082578 0.12737286
000200 8a 8e 33 3e 3c f8 01 be 18 8b 34 be 6d fc 7e bd
       0.17534843 -0.1269235 -0.17631185 -0.06225245
000210 07 98 25 3e 83 9d b9 bd 9d 6d c5 bc cb eb 67 bc
       0.16171275 -0.09063246 -0.02410012 -0.0141553385
000220 13 cd 33 3e fc af 4f bc 71 bb 25 bc c9 f2 8c 3e
       0.17558698 -0.012676235 -0.01011549 0.2752898
000230 ac 45 63 3e 49 5f 7a 3d 84 bd 2b be 0f 1e 05 3e
       0.22194546 0.061126027 -0.16771513 0.12999748

encoder.encoder_net.0.weight f4 [16, 1, 3, 3]
000000 bb 40 03 be 2b ed 7a be cc d7 89 3e b6 ab 18 3e
       -0.12817661 -0.24504535 0.26922452 0.14909253
000010 79 a1 d1 bd 36 c5 ad 3d 03 dd 60 be cb f2 2c 3c
       -0.102358766 0.084848806 -0.2195931 0.010555933
000020 7a 29 98 be 0b b4 a9 3e 77 4b a0 bd cf 8f 42 3e
       -0.29719144 0.33145174 -0.07826894 0.19000171
000030 5d 32 2a be 2b 92 4a 3d 25 50 8d be ae 39 39 3e
       -0.16620775 0.049455803 -0.27600208 0.1808841
000040 38 e1 08 3e 11 70 8d bd 72 20 25 be 69 5d 7d be
       0.13367164 -0.069061406 -0.16125658 -0.24742664
000050 1f 35 89 3e fa 68 12 3d 29 50 52 3e ae 68 9d 3e
       0.2679834 0.035744645 0.20538391 0.30743927
000060 5e e6 90 be 74 73 58 3e 54 4d a7 bd be b9 52 bd
       -0.28300756 0.21137792 -0.08169046 -0.05144667
000070 58 67 5b 3e b6 5c 11 be c6 4f e6 bd 46 43 97 3e
       0.21426141 -0.14195523 -0.11245684 0.29543513
000080 f9 d2 c8 3d 70 e0 37 3e f6 8e 64 be 29 26 1a 3e
       0.09805865 0.1795671 -0.2232016 0.1505362
000090 23 12 cd 3d 12 e0 00 be 13 1c f8 bd f9 ad 8f bd
       0.10013225 -0.12585476 -0.1211473 -0.070156045
0000a0 da aa 73 3e 86 f7 67 3e 7f 52 a2 3e b9 1c 44 be
       0.23795643 0.22653016 0.31703565 -0.19151582
0000b0 6e 31 18 be 3d c1 6e 3e 6f 64 ee 3d e0 b4 93 3e
       -0.14862606 0.23315902 0.1164025 0.28848934
0000c0 81 53 29 3d 1d 97 a3 3d 48 e6 55 3e 90 30 cf bc
       0.0413394 0.07987807 0.20888627 -0.025291711
0000d0 2a fc 8e be 8e 05 93 3c 74 3b 32 be 97 12 71 be
       -0.2792676 0.017946985 -0.17405492 -0.23542248
0000e0 f8 0d 68 be c8 5f d2 be e4 3d ce 3d 26 f6 ee bd
       -0.22661579 -0.410887 0.100703984 -0.11668043
0000f0 2e 68 58 3e a0 06 b9 be d3 ac 4a be 3c 4a cf 3d
       0.21133491 -0.36137867 -0.1979249 0.10121581
000100 76 ea 96 3d f1 82 09 be b4 cf c7 3d a9 be 81 be
       0.073689386 -0.13428856 0.09756413 -0.25340775
000110 e1 7d 85 3e 71 a9 9f 3e d3 d8 d4 3e 1b 91 03 be
       0.260726 0.3118396 0.41571674 -0.12848322
000120 45 b3 43 bd d3 25 91 be 02 3c a5 bd ba 05 75 3e
       -0.047778387 -0.2834917 -0.08068086 0.23927966
000130 a9 9e 50 be 99 af f8 3d e1 8d 36 be 18 8c 2d be
       -0.20373024 0.121428676 -0.1782756 -0.16947973
000140 7a 66 5c be aa 1c 0c 3e 47 a1 24 be e3 55 99 3e
       -0.21523467 0.1368281 -0.16077147 0.2994834
000150 74 31 35 be 33 f1 36 3e e7 4a 38 3e 85 77 59 bc
       -0.17694646 0.17865448 0.17997323 -0.013273125
000160 93 05 cd 3c 0c da 64 be a1 64 55 be 81 6d fa 3d
       0.025027072 -0.22348803 -0.20839168 0.122279175
000170 95 f2 be 3d 24 fa 4f be c0 88 94 be 2c 58 8b 3e
       0.093236126 -0.20310265 -0.29010582 0.27215707
000180 75 53 52 be bd 62 9d be f7 5a f0 bd 44 a2 8b 3e
       -0.20539649 -0.30739394 -0.117361 0.27272236
000190 a2 25 81 3e 1f 7f 50 3e 15 67 7d 3d 22 ce 10 3e
       0.25224024 0.20360993 0.061865885 0.14141133
0001a0 6a af f5 3d 06 c9 23 3e a2 bc aa be 9e a0 c1 bd
       0.11996348 0.15994653 -0.3334704 -0.094544634
0001b0 52 05 93 be de 1c 70 3d 74 04 a2 be 59 24 90 3e
       -0.28714997 0.05862128 -0.31644022 0.2815273
0001c0 42 dc 8d bd 31 fc 3f 3c 21 c8 5e bd b3 14 68 be
       -0.069267765 0.011717842 -0.054390077 -0.22664146
0001d0 3b 91 d3 bd 2a f1 3c 3d 03 de 01 3e 7e ec b4 3c
       -0.10330435 0.04612843 0.12682347 0.022085425
0001e0 6b 70 a3 3d 5c 66 22 3e ba 2d 4e 3e 69 b9 70 3e
       0.079804264 0.1585936 0.20134631 0.23508228
0001f0 90 4c 3f 3e 40 12 58 3d 9c 08 1b 3e f7 90 47 be
       0.1868155 0.05275178 0.15140003 -0.19488893
000200 4d 0d 9e be 5b f1 49 be 3b 4c f6 bc 76 35 8f be
       -0.30869523 -0.19720976 -0.030065646 -0.27970475
000210 0d a4 79 3e f7 22 50 bc d4 ba 02 3d c3 c7 71 be
       0.24378987 -0.012703649 0.031916454 -0.2361136
000220 2a d0 28 be d6 65 d8 3d 1d 36 bd be a6 cc 88 bc
       -0.16485658 0.10566299 -0.36955348 -0.016699146
000230 b0 9f 53 3e ba 2d 26 be d9 1a 26 be 78 cf b9 3d
       0.20666385 -0.16228381 -0.16221179 0.09072775

encoder.encoder_net.0.bias f4 [16]
000000 a4 e6 0f 3e d5 55 8a be 3c 71 37 3e 98 98 a2 bd
       0.14052826 -0.2701861 0.17914289 -0.07939261
000010 d6 95 1c 3e 57 89 b0 3e c3 f5 58 bc 5a 70 79 3d
       0.15291533 0.34479782 -0.013242188 0.060898162
000020 9e d1 36 be 0a 81 4f bd 6a 6c a9 bd 7e c6 9c be
       -0.178534 -0.05066017 -0.082726315 -0.30620188
000030 a5 6d 18 bd 73 7b 45 bd 38 7b 05 bd 14 e7 88 3e
       -0.03721394 -0.048213433 -0.032588214 0.267388

encoder.encoder_net.2.weight f4 [16]
000000 b3 88 84 3f 2c 7a 74 3f 6a 8d 8d 3f 29 b2 86 3f
       1.0354217 0.9549892 1.1058781 1.052312
000010 37 a5 74 3f 3b 86 83 3f eb 29 93 3f 02 52 85 3f
       0.955646 1.0275339 1.1497167 1.0415652
000020 eb d8 87 3f fb 19 7c 3f ae 30 89 3f e2 37 8b 3f
       1.0613073 0.98477143 1.0717981 1.0876429
000030 6c 1e 83 3f 53 70 89 3f e5 ca 8d 3f fc 7e 87 3f
       1.0243659 1.0737404 1.1077543 1.0585628

encoder.encoder_net.2.bias f4 [16]
000000 2a c8 94 3d 73 81 83 bd ef 70 5c 3d 8c fb ac bc
       0.07264741 -0.06421175 0.05381864 -0.02111604
000010 30 af 1b 3d 1d 97 9f bd 31 d4 84 bd 38 ba ba 3d
       0.03800887 -0.077924944 -0.06485785 0.0911755
000020 14 bb ac bd 6b 29 1d bd 50 31 a6 bd ab 51 9f 3d
       -0.0843412 -0.038369577 -0.08114874 0.07779249
000030 1a 9e c5 bd d9 6a 6c bd 80 6d 02 bd 68 12 c2 bd
       -0.09649296 -0.057719085 -0.03184271 -0.09476167

encoder.encoder_net.2.running_mean f4 [16]
000000 1d 49 92 3d 1d 49 92 3d 1d 49 92 3d 1d 49 92 3d
       0.071428515 0.071428515 0.071428515 0.071428515
000010 1d 49 92 3d 1d 49 92 3d 1d 49 92 3d 1d 49 92 3d
       0.071428515 0.071428515 0.071428515 0.071428515
000020 1d 49 92 3d 1d 49 92 3d 1d 49 92 3d 1d 49 92 3d
       0.071428515 0.071428515 0.071428515 0.071428515
000030 1d 49 92 3d 1d 49 92 3d 1d 49 92 3d 1d 49 92 3d
       0.071428515 0.071428515 0.071428515 0.071428515

encoder.encoder_net.2.running_var f4 [16]
000000 37 09 7f 38 56 1d 4a 38 68 75 f6 38 a9 49 80 38
       6.080532e-05 4.8187874e-05 0.00011752063 6.117236e-05
000010 b7 79 25 38 ff b3 54 39 90 e2 ad 39 e1 ae 49 39
       3.945242e-05 0.0002028495 0.00033165934 0.00019234001
000020 17 d1 0f 39 3c 03 60 38 bc f6 3d 39 25 51 9c 39
       0.00013715435 5.3408774e-05 0.0001811636 0.00029815096
000030 d3 fe d3 38 b6 82 c2 39 f2 6f 01 39 71 4f 31 39
       0.00010108729 0.0003709995 0.00012344102 0.0001690963
