miniproject1/model_flow_cb.pt (torch, 18747 bytes, 47 tensors)

base.mean f4 [2]
0.0 0.0
00000000: 0000 0000 0000 0000

base.std f4 [2]
1.0 1.0
00000000: 0000 803f 0000 803f

transformations.0.mask f4 [2]
1.0 0.0
00000000: 0000 803f 0000 0000

transformations.0.scale_net.0.weight f4 [8, 2]
0.3943742 -0.03064859 -0.29353365 0.42987865 -1.2558002 0.34177262 -1.8813142 0.5286905
0.68068427 -0.4917332 -0.2941887 0.08074993 -0.2663223 -0.2805918 -1.6578087 0.69243854
00000000: 6aeb c93e c012 fbbc 0b4a 96be 0e19 dc3e
00000010: 10be a0bf d2fc ae3e e7ce f0bf 4358 073f
00000020: 5341 2e3f 74c4 fbbe e79f 96be 3860 a53d
00000030: 665b 88be baa9 8fbe 1333 d4bf a743 313f

transformations.0.scale_net.0.bias f4 [8]
-0.62684965 -0.58497524 23.055344 23.222603 -0.6173428 -0.58774215 -0.22679001 23.492899
00000000: 3879 20bf f0c0 15bf 5871 b841 e4c7 b941
00000010: 2e0a 1ebf 4576 16bf a43b 68be 75f1 bb41

transformations.0.scale_net.2.weight f4 [2, 8]
0.15958437 0.3519477 -0.050597697 -0.32571328 0.24520442 0.2976562 -0.17381968 0.24780324
0.23876712 0.19881198 23.14076 22.856773 -0.222617 0.3055959 0.31702635 22.747528
00000000: 166a 233e 7d32 b43e 883f 4fbd e4c3 a6be
00000010: de16 7b3e 6566 983e c9fd 31be 22c0 7d3e
00000020: 5e7f 743e 5e95 4b3e 4720 b941 acda b641
00000030: b6f5 63be 1177 9c3e 4751 a23e f0fa b541

transformations.0.scale_net.2.bias f4 [2]
-0.091819525 19.670366
00000000: e00b bcbd e95c 9d41

transformations.0.translation_net.0.weight f4 [8, 2]
0.65601605 -0.28792796 0.69111544 -0.3058461 0.44628078 -0.27489835 0.43571204 0.27703512
0.28765193 0.34391755 -0.15457988 0.08368939 0.3857631 -0.10489929 -0.10488874 0.43514472
00000000: abf0 273f 4b6b 93be f1ec 303f dc97 9cbe
00000010: ea7e e43e 7abf 8cbe a615 df3e 8cd7 8d3e
00000020: 1d47 933e f615 b03e 304a 1ebe 5865 ab3d
00000030: be82 c53e 70d5 d6bd e8cf d6bd 4acb de3e

transformations.0.translation_net.0.bias f4 [8]
-0.22392435 0.3413092 -0.20099156 -0.44435415 -0.11939791 -0.2107113 0.14631826 -0.012610501
00000000: 6d4c 65be 14c0 ae3e bbd0 4dbe 6382 e3be
00000010: e486 f4bd b4c4 57be 74d4 153e 469c 4ebc

transformations.0.translation_net.2.weight f4 [2, 8]
-0.06842303 -0.020015717 0.26074097 0.20066175 -0.2696769 -0.23846707 0.09875819 -0.28958845
-0.33818054 0.1308976 0.26183873 0.33846328 -0.24615121 0.3483756 -0.0017081263 -0.00083839905
00000000: 6021 8cbd 00f8 a3bc d77f 853e 467a 4d3e
00000010: 1713 8abe b630 74be bc41 ca3d f044 94be
00000020: 0026 adbe 050a 063e ba0f 863e 0f4b ad3e
00000030: 100f 7cbe 495e b23e 35e3 dfba 02c8 5bba

transformations.0.translation_net.2.bias f4 [2]
-0.062402993 0.09980289
00000000: 489a 7fbd 7565 cc3d

transformations.1.mask f4 [2]
0.0 1.0
00000000: 0000 0000 0000 803f

transformations.1.scale_net.0.weight f4 [8, 2]
-0.53427696 0.5408754 0.074483275 -0.61299807 0.60061496 -0.20612824 -0.26167715 0.4191778
-0.4010716 -0.2895293 0.28517032 -0.27475092 -0.44056523 0.07972306 -0.14714366 -0.321161
00000000: 60c6 08bf cf76 0a3f b08a 983d 71ed 1cbf
00000010: e7c1 193f 4813 53be 8cfa 85be 799e d63e
00000020: 4259 cdbe 2f3d 94be d801 923e 27ac 8cbe
00000030: c491 e1be d845 a33d d4ac 16be 376f a4be

transformations.1.scale_net.0.bias f4 [8]
22.995481 -0.3707568 -0.075893044 23.669645 -0.21868852 -0.015876114 -0.07587534 -0.6506927
00000000: bff6 b741 d6d3 bdbe d06d 9bbd 6f5b bd41
00000010: e2ef 5fbe a00e 82bc 8864 9bbd cc93 26bf

transformations.1.scale_net.2.weight f4 [2, 8]
23.289774 -0.24652213 0.13195011 22.762281 0.0037974715 -0.018939298 0.17651853 -0.1891924
0.25987592 0.043738812 0.2653418 0.3281813 0.22381887 0.1147072 0.008203715 0.115754664
00000000: 7551 ba41 4c70 7cbe ee1d 073e 2719 b641
00000010: 00df 783b 9626 9bbc 46c1 343e a7bb 41be
00000020: 750e 853e 7827 333d e1da 873e 6107 a83e
00000030: c630 653e 9ceb ea3d e068 063c c810 ed3d

transformations.1.scale_net.2.bias f4 [2]
20.291378 0.011613399
00000000: be54 a241 2046 3e3c

transformations.1.translation_net.0.weight f4 [8, 2]
0.17579776 -0.58306086 -0.20072556 -0.59273756 0.43324512 0.6638687 0.41326648 -0.304885
0.34829015 0.0014571196 -0.47007525 0.63097423 0.14270544 -0.4881071 -0.53248143 -0.61691564
00000000: 5404 343e 7a43 15bf 008b 4dbe a6bd 17bf
00000010: 4ed2 dd3e 4df3 293f aa97 d33e e319 9cbe
00000020: 1653 b23e d2fc be3a b4ad f0be 8787 213f
00000030: 6021 123e 2ce9 f9be b450 08bf 2fee 1dbf

transformations.1.translation_net.0.bias f4 [8]
-0.2785662 -0.0015284244 -0.5384292 -0.012694538 0.90985984 -0.40088046 -0.014043666 -0.03833127
00000000: 3ba0 8ebe 6a55 c8ba 7fd6 09bf c0fc 4fbc
00000010: 93ec 683f 3440 cdbe 6817 66bc 4001 1dbd

transformations.1.translation_net.2.weight f4 [2, 8]
0.15511557 -0.16802539 0.016778499 -0.12714131 1.393818 -0.18187219 -0.2585643 -0.21826622
-0.30895478 0.21132335 0.25051132 -0.016874492 0.0085681975 -0.00991866 -0.23378718 0.09176567
00000000: 9ed6 1e3e d90e 2cbe 1073 893c 5531 02be
00000010: a168 b23f b43c 3abe 8a62 84be 2e81 5fbe
00000020: 522f 9ebe 2665 583e 0543 803e 603c 8abc
00000030: a061 0c3c e081 22bc e865 6fbe a4ef bb3d

transformations.1.translation_net.2.bias f4 [2]
1.1853269 -0.097964376
00000000: cbb8 973f 8ca1 c8bd

transformations.2.mask f4 [2]
1.0 0.0
00000000: 0000 803f 0000 0000

transformations.2.scale_net.0.weight f4 [8, 2]
-0.40044773 0.251289 0.111554205 -0.6177572 -0.33163556 -0.56046796 -0.39645526 0.5811165
-0.25337783 0.6482695 -0.19407119 -0.4193564 0.3678816 0.44656795 -0.0634312 -0.62570757
00000000: 7c07 cdbe f4a8 803e 8876 e43d 5625 1ebf
00000010: 23cc a9be d47a 0fbf 2ffc cabe 0dc4 143f
00000020: bdba 81be fdf4 253f 99ba 46be e2b5 d6be
00000030: fa5a bc3e 8ea4 e43e 38e8 81bd 5f2e 20bf

transformations.2.scale_net.0.bias f4 [8]
-0.6778728 -0.231947 23.52124 23.556553 23.764666 22.984308 23.288488 -0.04844129
00000000: 1289 2dbf 8483 6dbe 802b bc41 d273 bc41
00000010: 091e be41 dddf b741 d34e ba41 606a 46bd

transformations.2.scale_net.2.weight f4 [2, 8]
-0.2446445 0.14830539 -0.043013006 0.23292127 -0.21381125 -0.27411228 0.33922532 0.35038826
0.012428045 -0.2621091 22.870977 22.778622 22.556347 23.301712 22.907894 -0.22459182
00000000: 1684 7abe 5edd 173e 682e 30bd ea82 6e3e
00000010: 56f1 5abe 7258 8cbe f1ae ad3e 1766 b33e
00000020: 009f 4b3c 2a33 86be c3f7 b641 9e3a b641
00000030: 6673 b441 e869 ba41 5e43 b741 66fb 65be

transformations.2.scale_net.2.bias f4 [2]
0.20835772 20.37008
00000000: ba5b 553e edf5 a241

transformations.2.translation_net.0.weight f4 [8, 2]
0.26428074 0.40471226 0.4349584 -0.31377798 0.11820102 0.6346652 0.6605982 -0.14484322
0.82597494 0.40671724 -0.6631521 -0.46380052 -0.41911656 0.43373245 -0.5549079 -0.4743428
00000000: ce4f 873e 7236 cf3e deb2 de3e 82a7 a0be
00000010: 6013 f23d 6b79 223f f71c 293f c851 14be
00000020: 1873 533f 3e3d d03e 56c4 29bf 4377 edbe
00000030: 7296 d6be 2e12 de3e 720e 0ebf 0fdd f2be

transformations.2.translation_net.0.bias f4 [8]
1.0243006 1.1552093 -0.19451106 -0.44674936 0.98566 -0.14917624 0.5828851 -0.66939926
00000000: 481c 833f e6dd 933f e82d 47be 55bc e4be
00000010: 3754 7c3f a8c1 18be f537 153f c05d 2bbf

transformations.2.translation_net.2.weight f4 [2, 8]
-0.12574217 -0.03545019 0.20377621 -0.141643 -0.34903073 -0.32691705 -0.18799058 0.12811121
-0.3825663 -0.36596596 0.122303754 0.089395076 -0.30656105 0.116643935 -0.6010446 0.27309677
00000000: 8ec2 00be 3834 11bd b6aa 503e dd0a 11be
00000010: 28b4 b2be ac61 a7be 9a80 40be 962f 033e
00000020: bbdf c3be e45f bbbe 647a fa3d c414 b73d
00000030: 92f5 9cbe 04e3 ee3d 0fde 19bf 57d3 8b3e

transformations.2.translation_net.2.bias f4 [2]
-0.03678462 -0.03712716
00000000: 78ab 16bd a612 18bd

transformations.3.mask f4 [2]
0.0 1.0
00000000: 0000 0000 0000 803f

transformations.3.scale_net.0.weight f4 [8, 2]
-0.22094584 -0.5589985 -0.56208694 0.96247274 0.48470026 0.3870743 -0.4788982 0.7415523
0.36120075 0.39498025 -0.47476915 -0.19074865 0.566202 0.20387027 0.24699587 1.0954839
00000000: a03f 62be 871a 0fbf eee4 0fbf 9d64 763f
00000010: a22a f83e 9a2e c63e 2532 f5be 5fd6 3d3f
00000020: 4eef b83e da3a ca3e f114 f3be 9d53 43be
00000030: 9df2 103f 5ec3 503e 7cec 7c3e d138 8c3f

transformations.3.scale_net.0.bias f4 [8]
-0.23132652 22.856443 23.38738 23.146616 -0.48301855 23.622507 22.862972 23.067608
00000000: dce0 6cbe ffd9 b641 5b19 bb41 452c b941
00000010: 354e f7be e5fa bc41 5ee7 b641 768a b841

transformations.3.scale_net.2.weight f4 [2, 8]
-0.22211304 23.054796 22.792116 22.935947 -0.19584396 22.573637 23.38406 22.847872
-0.16751488 0.20635268 -0.22822168 -0.14225446 -0.091617286 0.33597043 0.24840179 -0.06047669
00000000: 9a71 63be 3970 b841 4156 b641 d27c b741
00000010: 528b 48be cf96 b441 8e12 bb41 71c8 b641
00000020: 0589 2bbe 1e4e 533e f2b2 69be 27ab 11be
00000030: d8a1 bbbd 5104 ac3e 0a5d 7e3e 68b6 77bd

transformations.3.scale_net.2.bias f4 [2]
20.192074 0.0031049252
00000000: 5e89 a141 007c 4b3b

transformations.3.translation_net.0.weight f4 [8, 2]
-0.3491933 0.3544707 0.15235555 -0.5316254 -0.13837022 -0.5056632 0.49337322 -0.6344424
-0.56401813 -0.2366868 -0.42204952 0.25570315 0.47690004 -0.23172784 0.039642215 0.40336335
00000000: 77c9 b2be 2f7d b53e 1803 1c3e 9a18 08bf
00000010: ecb0 0dbe 2573 01bf 6a9b fc3e d16a 22bf
00000020: 7e63 10bf 065e 72be e016 d8be 86eb 823e
00000030: 3e2c f43e 104a 6dbe e05f 223d a485 ce3e

transformations.3.translation_net.0.bias f4 [8]
0.39540026 -5.232219e-05 -0.67003113 0.38591442 0.68846625 -0.4938046 -0.59945375 1.1116186
00000000: e771 ca3e 8674 5bb8 2987 2bbf 9396 c53e
00000010: 533f 303f f5d3 fcbe cd75 19bf 8549 8e3f

transformations.3.translation_net.2.weight f4 [2, 8]
0.73034626 -0.25456133 0.03534001 0.12246712 0.1556026 -0.005497664 0.016680926 0.30015385
0.18942544 -0.08845168 -0.31361887 0.22186533 0.0073556304 -0.12589218 -0.03746605 -0.13409175
00000000: f9f7 3a3f dd55 82be b0c0 103d 0bd0 fa3d
00000010: 4a56 1f3e c025 b4bb 70a6 883c c4ad 993e
00000020: bef8 413e 2826 b5bd a792 a0be aa30 633e
00000030: 8007 f13b e1e9 00be 0076 19bd 594f 09be

transformations.3.translation_net.2.bias f4 [2]
-0.0067124395 0.05577013
00000000: 06f4 dbbb 386f 643d

transformations.4.mask f4 [2]
1.0 0.0
00000000: 0000 803f 0000 0000

transformations.4.scale_net.0.weight f4 [8, 2]
-0.17134857 -0.0995357 23.609455 0.37686294 23.154638 -0.5417272 -0.5186094 0.27013904
22.694717 -0.1880728 22.872583 -0.2479268 22.49167 0.29768962 23.712849 -0.19665635
00000000: 0076 2fbe 60d9 cbbd 2ae0 bc41 2ef4 c03e
00000010: b33c b941 a2ae 0abf 96c3 04bf aa4f 8a3e
00000020: c88e b541 2896 40be 0dfb b641 86e0 7dbe
00000030: f1ee b341 c66a 983e eab3 bd41 4860 49be

transformations.4.scale_net.0.bias f4 [8]
-0.6676064 22.98359 23.117874 -0.65897155 23.265182 23.425303 23.00435 23.849695
00000000: 41e8 2abf 64de b741 68f1 b841 5cb2 28bf
00000010: 181f ba41 0567 bb41 e908 b841 2dcc be41

transformations.4.scale_net.2.weight f4 [2, 8]
-0.32346565 -0.092430234 -0.28238901 0.25836995 0.12875575 -0.0028516948 -0.047190398 -0.26987207
-0.29953003 23.151571 23.226017 0.25631806 22.8546 23.21481 23.13537 22.728525
00000000: 4a9d a5be 104c bdbd 4b95 90be 1149 843e
00000010: 8cd8 033e 80e3 3abb b84a 41bd ac2c 8abe
00000020: 005c 99be 6b36 b941 e2ce b941 1f3c 833e
00000030: 39d6 b641 eeb7 b941 3d15 b941 05d4 b541

transformations.4.scale_net.2.bias f4 [2]
-0.19636372 20.246895
00000000: 9213 49be a4f9 a141

transformations.4.translation_net.0.weight f4 [8, 2]
-0.02110219 -0.41242948 0.9415236 -0.29503003 -0.66074944 0.63420695 0.18461531 0.0013284683
0.91765225 -0.3348729 0.60941154 -0.31075114 0.23748192 -0.1896115 0.5090445 -0.6036137
00000000: 80de acbc f529 d3be b107 713f 2d0e 97be
00000010: e026 29bf 635b 223f cc0b 3d3e 0020 ae3a
00000020: 42eb 6a3f 7674 abbe 6502 1c3f c61a 9fbe
00000030: 762e 733e 8429 42be be50 023f 6d86 1abf

transformations.4.translation_net.0.bias f4 [8]
-0.12964857 0.7741533 -0.6148221 -0.6415236 0.5461763 -0.61119497 0.495532 0.8103846
00000000: 98c2 04be e92e 463f fb64 1dbf e43a 24bf
00000010: 36d2 0b3f 4677 1cbf 5fb6 fd3e 5d75 4f3f

transformations.4.translation_net.2.weight f4 [2, 8]
0.2643014 0.08164507 -0.33793616 0.026266664 0.27462152 0.106224984 0.29181984 -0.10224104
0.30726972 -0.5050956 0.1776227 0.16095212 -0.5795901 0.28955087 -0.8640567 -0.25487784
00000000: 8352 873e 8835 a73d f805 adbe 302d d73c
00000010: 319b 8c3e 7c8c d93d 6969 953e c063 d1bd
00000020: 7552 9d3e f24d 01bf bae2 353e a2d0 243e
00000030: 0460 14bf 0340 943e d232 5dbf 597f 82be

transformations.4.translation_net.2.bias f4 [2]
0.007281214 -0.5203015
00000000: 4097 ee3b 7b32 05bf
