miniproject2/experiments/ensemblyVAE/ND1/modelSeed773nD1.pt (torch, 144013 bytes, 37 tensors)

prior.mean f4 [2]
00000000: 0000 0000 0000 0000
0.0 0.0

prior.std f4 [2]
00000000: 0000 803f 0000 803f
1.0 1.0

decoders.0.decoder_net.0.weight f4 [512, 2]
00000000: 8cf5 5e3c c696 23bf ebc9 43bf 6eb8 083f
00000010: 463d f63e e504 1abe f899 6b3e 248a 94be
00000020: 2066 01bf 6472 c4be 3851 16bf d801 f8be
00000030: d420 893e 9224 493f a862 bf3e a3c1 1c3f
00000040: f07c 89be dcec 813e f4db 3abd bd4e 263f
00000050: 3120 9bbe 78a5 783f a3be 81be 6740 60bd
00000060: b065 cd3c 19f0 0a3e ef63 a1be 6f07 203c
00000070: ce95 5dbf 802a 9abf 1783 123f 1cff 6dbe
00000080: 4b12 9fbd 556a 253e ec61 a0be 7d77 7c3f
00000090: 75fa fdbe 3f20 27bf 4e56 2abe 61f7 91be
000000a0: c202 ea3e 52b2 c4be c420 f83e ec2a 0b3f
000000b0: 4c43 8dbe 111b 16bf bebc 013e acd2 debe
000000c0: f722 963e 2f37 27be 1eda c8be b330 80be
000000d0: 0ade 1f3f 684d 1e3f ad43 0e3e f45b 9e3e
000000e0: 6d8e 73bd 0b52 42be 8ce1 c53e 27d9 6c3e
000000f0: 0595 893e ed63 08bf 1ac1 063f a90c e23e
00000100: 319c dbbe de71 ec3e c297 ebbe a6b2 8b3e
00000110: ac56 04bf 9bf0 9cbe 4168 053f 8ffb ac3e
00000120: 3c17 2dbe ba2e 343e 5afc 723f c430 d0be
00000130: 404b 823d f754 5d3e 47d1 d4be 0970 53be
00000140: 2f76 7c3e 6c70 10bf f825 a03e f93a 643e
00000150: 42b8 0e3f c263 14bf d730 8cbe 0cb5 0bbe
00000160: 4970 083f d761 06bf 93be 3b3e 8049 9fbd
00000170: 5439 013f d7ce 213e 2101 d8be df9b 87b9
00000180: e81e 263e 4d56 22bf 8e4a b4be fe18 b83e
00000190: e30a 88bf 91f1 d93e 38dd d93e a9ac 0cbf
000001a0: 6ed1 f13e 4e9a edbe 8647 483d 7d84 3fbf
000001b0: 0a1a 0dbc 1f00 6ebe 7b44 04bf 3937 0a3f
000001c0: 3fa3 84bd a299 d7bd 3bbf 12bf 433b 253f
000001d0: 2e20 8c3d a9b3 c3be 4c16 3e3e 470f 48be
000001e0: 8149 923b 1d59 c8bd 0bee 1b3d 9c25 febe
000001f0: 1b1e f93d 170b 62be a7fd 9ebe bc22 163f
00000200: abdf bdbd d866 b1bb 94e7 8ebe 45e6 9fbe
00000210: e9d8 82be 7bcf a73e b868 1fbe 2527 0a3f
00000220: 203f cb3d dbdb 78be a4c3 2a3f e07a 26bf
00000230: 713d 1fbf b265 d7be cd0a 373f 4fb0 31bf
00000240: 9aaf d0be b666 d8bd 3f15 a73e 0bf7 8cbe
00000250: a5fd 1bbe 6294 143f 7d7c 323f 621d 993e
00000260: ead3 60be 415f 463e 84f3 0bbf cc6c 003e
00000270: b13e 003f 12e2 92be d397 92be 3c7b 233f
00000280: 3216 033f f4ee 81be fdd4 f33e 1a54 d3be
00000290: 6b6c 0ebf 7976 b2be 7d3c 2f3d 7b08 22bf
000002a0: c164 0f3f c491 2dbe 7ef6 0ebe f2c5 8a3e
000002b0: 9335 093e c9b4 4d3f a3b0 573e adcd a3bd
000002c0: 0b63 883d bcf7 05bf 7b95 c7be 5c6d 10be
000002d0: aff0 2bbf 396e 0fbe 7b58 043f 01c5 e03e
000002e0: 563f 073f f471 4abe e6b3 3a3f 8f5a edbe
000002f0: a8be acbe d873 fdbe 1ac1 3c3f 41a4 b7be
00000300: d4c2 1a3f e13c fc3d 2ea6 173f 3d30 c3be
00000310: 55c3 123d e573 2f3f 1cb5 b6be b0c4 013f
00000320: e821 2d3f f1be 613e 5516 64bf 0ff4 0a3f
00000330: f953 f33e c436 153f 43c0 c13d 218c e83d
00000340: 9b07 38bf 5d5b 2cbd e3a3 203f e715 b93e
00000350: a105 2c3f 7065 1dbf 2774 02be 3cf6 0dbf
00000360: 811d 6bbd d351 af3e 7c3f 123e c15a e83d
00000370: 4a54 d53e 77b2 3abf 4dea 483e ead2 773d
00000380: 9208 073e 37b8 723e c49d 3e3d a24a 183f
00000390: ceb3 c33d cabf a33e 72b9 963e 1cde a9be
000003a0: 4fa8 8bbe 654b da3e 14d3 dc3e cec5 3cbf
000003b0: b538 973e 1850 9c3d 86e7 16bf 490a 82be
000003c0: 74c9 c5bd 42d8 8f3e 84ab 393f fc77 123f
000003d0: 8884 d83d d413 ad3d 70fe 10bf 5afd de3e
000003e0: c778 ce3e fdc4 9a3e 4ce5 9ebe e6fa c4be
000003f0: e8a0 e13e 5cd6 2ebf 3ef2 db3d a745 e9be
0.013608348 -0.63901937 -0.7647998 0.5340642 0.48093623 -0.1504093 0.23007953 -0.29011643
-0.50546455 -0.38368523 -0.5871768 -0.48438907 0.26782858 0.78571427 0.37379956 0.61232966
-0.26853132 0.25376022 -0.04561992 0.64963895 -0.30297998 0.97127485 -0.25340757 -0.05474892
0.025072902 0.13568152 -0.31521556 0.009767397 -0.8655671 -1.204422 0.5723128 -0.23241848
-0.07767161 0.16153844 -0.31324708 0.98619825 -0.49605146 -0.6528358 -0.16634485 -0.28509048
0.4570523 -0.38417298 0.48462498 0.5436237 -0.27590406 -0.5863505 0.12669656 -0.43520105
0.2932355 -0.16329645 -0.3922891 -0.25037155 0.6244818 0.6183686 0.13893004 0.3092953
-0.059462 -0.1897661 0.3864864 0.23129712 0.26871505 -0.53277475 0.526384 0.44150284
-0.42892602 0.46180624 -0.4601422 0.27284735 -0.5169475 -0.30652317 0.52112204 0.33785674
-0.16903394 0.1759595 0.9491631 -0.40662205 0.06362009 0.21614443 -0.41565916 -0.20648207
0.24654458 -0.5642154 0.31278968 0.22288121 0.55749905 -0.5796472 -0.27381012 -0.13643283
0.53296334 -0.5249304 0.18334417 -0.07777691 0.504781 0.1580156 -0.4218836 -0.0002586534
0.16222727 -0.63412935 -0.3521313 0.35956568 -1.0628322 0.42567113 0.4255159 -0.5495096
0.47230095 -0.46406788 0.048896335 -0.74811536 -0.008612165 -0.23242234 -0.5166699 0.53990513
-0.06476449 -0.1052735 -0.57323045 0.6454355 0.06842075 -0.38223007 0.18563193 -0.19537078
0.0044643288 -0.09782622 0.038068812 -0.4963807 0.12163945 -0.22074543 -0.31052896 0.5864675
-0.09271177 -0.0054138713 -0.27911055 -0.3123037 -0.25556114 0.32775483 -0.15567291 0.5396598
0.099241495 -0.24302618 0.66704774 -0.6503124 -0.6220313 -0.42069775 0.71500856 -0.6940965
-0.40758973 -0.105664656 0.32633397 -0.2753223 -0.15233476 0.58038914 0.69721204 0.2990523
-0.21955839 0.19372274 -0.5466845 0.12541503 0.5009566 -0.28688103 -0.28631458 0.63859916
0.5120574 -0.2537762 0.47623435 -0.41275102 -0.5563418 -0.34856012 0.042782295 -0.6329419
0.56013113 -0.16950136 -0.13961217 0.27104145 0.13399343 0.8035398 0.21063475 -0.07998214
0.06659516 -0.5233114 -0.38981232 -0.14104217 -0.6716413 -0.1400689 0.5169751 0.43900302
0.5283102 -0.19770032 0.72930753 -0.46358153 -0.3373921 -0.49502444 0.7373215 -0.35867503
0.60453534 0.12316299 0.59237945 -0.3812274 0.035830814 0.68536216 -0.3568505 0.50690746
0.6762986 0.22045495 -0.89096576 0.54278654 0.47525004 0.5828669 0.09460499 0.113548525
-0.71886605 -0.04207932 0.6275007 0.36149523 0.6719609 -0.61482906 -0.12739621 -0.5545385
-0.057401184 0.34242114 0.1428203 0.11345435 0.4166587 -0.72928566 0.19620629 0.060503878
0.13186863 0.23703085 0.046537176 0.5948888 0.095557794 0.3198226 0.2943836 -0.33177269
-0.27276847 0.42635646 0.4312979 -0.73739326 0.29535452 0.07632464 -0.58947027 -0.25398472
-0.09657565 0.2809468 0.7252734 0.5721433 0.10572153 0.084510475 -0.5663824 0.43552667
0.4032652 0.30228415 -0.31034315 -0.3847267 0.44068074 -0.68295836 0.107395634 -0.45560953

decoders.0.decoder_net.0.bias f4 [512]
00000000: 2e0e a6be 2378 2a3e c771 b13e 007b b3bd
00000010: aaf0 b93e 32ff eebe 8455 1c3f 2c0f 9c3e
00000020: 5680 babe 8336 1e3e f057 c83e 7336 aabd
00000030: b82d 3a3f 8f2c 16bf e507 00bf 72ac 98be
00000040: d37c 0abf 5299 3d3f 1971 043d a98e 29bf
00000050: 3a70 18bf ff6c 0a3e 16c4 7f3e f8ca e93e
00000060: ad06 1e3c a991 f2be 87f0 183f 561c febe
00000070: 55bc e0be 275e 35be 159f 443f 093c b9be
00000080: 2855 05bd f09d b3be 32ee c1be 93eb 293e
00000090: 4f3c 073f 5fee 083f ff16 3bbf 6b50 83be
000000a0: 77dc 7bbe bfd0 cbbe a06f 183f f9f7 ff3e
000000b0: 9231 04bf ab9b 1ebf 6ed5 c4bd 82f5 a13e
000000c0: a3ef 103f c7ad 343f 870c a6be bf0e 06bf
000000d0: 1c8a c33e 4c3f 26bf d0d6 e8be 374d e8be
000000e0: 281e f0be 7e44 23bf 8094 283f 0074 3f3e
000000f0: 082b 493c 4391 4cbf edce 10bf 9b8c 18be
00000100: 33f6 de3e 3625 e8be 8403 dc3e a232 ecbe
00000110: 0211 24bf bc6b d9be edb7 2d3f 7c53 823d
00000120: b9b4 0cbf b5e1 273f 11c8 b5bd 184a 4a3e
00000130: 2cfb 223f 6764 43bf 796a 5fbe 8f5f f5be
00000140: 6be9 373d 97a5 b6bd 3b3c 163f fe63 04bf
00000150: 1aa8 0abf 88d2 57be ff92 0c3f d069 503f
00000160: dbe6 e13e 246f 813d 46f2 f43a c8f3 12bc
00000170: e88e 8e3e 5a85 783e 6f62 d23e 38fb 9bbe
00000180: e8a2 a83e 0180 a33e 5a48 cb3c ba6a ff3e
00000190: 120a f3be cce8 d8be 0571 09bd 114b e2be
000001a0: 59b1 1c3f b646 ddbe 6e87 433d ea5b 59be
000001b0: 6a27 1cbf 4250 57be ac82 0d3f 07be 8dbe
000001c0: 67cc 583d 9919 5e3d 7c5f 50bf aefa 023f
000001d0: 5195 38bd a057 26bf 81c5 ff3e 230f be3d
000001e0: f54b 163f 903d 81bd d996 943e 83ce 313f
000001f0: 5029 ca3d 8bbf 2bbe 6665 9ebe 8891 013f
00000200: 142f f0be 6dc1 443f 380b 503f 9484 173f
00000210: ac77 09bf e3b9 34bf 45e4 f23d 9ef9 6d3e
00000220: 031a 263f b70d f23b 5603 58bf 4d83 04bf
00000230: fc59 b33e 4566 be3e c32e ce3e b573 86be
00000240: dff5 983e 6cec 08bf 9aa7 5c3e 5771 333f
00000250: ed64 f33e aa3e bbbe a804 fabd 167d b93e
00000260: 1a74 64be fbc9 61be 3fb2 abbe 6cd2 36bf
00000270: 690a 71be b9f2 d7bc 2843 903e e394 c8bd
00000280: 2329 b5be d2b9 02be 7243 26bd ede9 20bf
00000290: 1231 663e 176a 373f fdf3 923d c7dd 0ebf
000002a0: c9b9 043f 152d 973e 668a ce3e 3a2c fb3e
000002b0: 162c 8bbd 4c4c f6be 7dc0 edbe 9e91 16bf
000002c0: 6fcb 34be c64a 933e 95e9 c43e f997 98bc
000002d0: 090b 83be 9e1c c5be 484f 40bf 59ef 033f
000002e0: b28f 36bf 81be 193f 062e 163f 084a da3d
000002f0: 3f9d d73e b0d8 9b3d 7b70 183f a880 a03e
00000300: 843c de3e 46a8 2fbe 8936 393f 2e38 ad3e
00000310: 6b48 883e 7e30 9f3d 377d ca3e f87d ef3e
00000320: c279 0f3f 4a57 b63e 3f4e f6be 4fb9 90be
00000330: 8987 aebe 413f 603e ebfd cd3e 9744 133f
00000340: bc9d 823e 08aa 9bbe 2c49 383f 4f6a 9dbe
00000350: 6964 373f 64f2 003f 39d1 9ebd 3afd 703d
00000360: 5239 8abe 4f3d 7b3e b91c 6dbf d72a 453f
00000370: 8c81 4c3e b2cd ebbc 1832 a6be c6b4 30be
00000380: 8044 16be a6a8 ae3e 97ea 8a3f 6827 cbbe
00000390: 1f29 fb3e f1cb a5bc 79c6 bc3e bb89 d93d
000003a0: 4cb7 f73e 2986 a1be 348d 08bf b368 393e
000003b0: d559 c0bc d18f 8e3e 38bc d2be 1c8b f0be
000003c0: 9a77 903e 06fc c53e 574f c2be 38d9 593c
000003d0: 44b4 03be 793c 2ebe 7ac0 013e da13 a5be
000003e0: 434c 2abd 9466 a63e e35f cfbd cc3c 1c3f
000003f0: 01bb 253f 1b7a f8be 938a 1dbf 03c7 66be
-0.32432693 0.16647391 0.34657118 -0.08763695 0.36316425 -0.46679074 0.61067986 0.30480325
-0.36426038 0.15450482 0.3912959 -0.083111666 0.7272601 -0.5866174 -0.50012046 -0.29819065
-0.54096717 0.74062073 0.03233442 -0.6623331 -0.59546244 0.13518141 0.24977145 0.45662665
0.009645146 -0.47376755 0.59742016 -0.49630994 -0.43893686 -0.17711698 0.7680524 -0.36178616
-0.032551914 -0.35081434 -0.3787704 0.1659377 0.528264 0.53488725 -0.73081964 -0.25647292
-0.2459582 -0.39807698 0.59545326 0.49993876 -0.5163814 -0.6195628 -0.09611021 0.3163262
0.56615657 0.70577663 -0.32431433 -0.5236625 0.38191307 -0.64940333 -0.4547639 -0.4537141
-0.46898007 -0.63776386 0.65851593 0.18696594 0.012278326 -0.7990915 -0.56565744 -0.14897387
0.4354721 -0.4534089 0.42971432 -0.4613238 -0.6408845 -0.42465007 0.67858773 0.0636358
-0.5496326 0.65578777 -0.0887605 0.19754827 0.6366451 -0.76325077 -0.2181796 -0.47924468
0.04490034 -0.089183025 0.58685654 -0.51715076 -0.5416275 -0.21076405 0.549118 0.8141146
0.4412144 0.063200265 0.0018687926 -0.008969255 0.27843404 0.2426962 0.41090724 -0.30465102
0.32936788 0.31933597 0.024814773 0.49886113 -0.4746862 -0.4236511 -0.03355505 -0.44197896
0.6120811 -0.4321801 0.047736578 -0.21226469 -0.6099764 -0.2102671 0.55277514 -0.27684042
0.05292931 0.05422363 -0.813957 0.51163757 -0.045064274 -0.64977455 0.4995537 0.09280231
0.5870965 -0.0631057 0.29021338 0.69455737 0.09871161 -0.16772287 -0.30936736 0.5061269
-0.46910918 0.76857644 0.8126712 0.59186673 -0.5369823 -0.7059614 0.11859945 0.23239753
0.6488344 0.007386889 -0.8438009 -0.5176285 0.3502959 0.371874 0.4027005 -0.26260152
0.29875085 -0.5348575 0.2154831 0.7009482 0.47537938 -0.36571246 -0.12207919 0.36228245
-0.22309914 -0.22049706 -0.33534428 -0.7141483 -0.23539127 -0.026360856 0.28176236 -0.09794023
-0.35382947 -0.12766197 -0.040591665 -0.6285694 0.22479656 0.71646255 0.07175443 -0.55807155
0.51845986 0.29526582 0.40339965 0.4905718 -0.06795518 -0.48105085 -0.4643592 -0.58815944
-0.17655729 0.28767985 0.3845946 -0.018627154 -0.25594357 -0.38498396 -0.75120974 0.5153709
-0.7131301 0.6005631 0.58663976 0.106586516 0.42112157 0.07609689 0.5954663 0.31348157
0.43405545 -0.17154035 0.7234884 0.33831924 0.2661775 0.07772921 0.39548656 0.46775794
0.5604516 0.3561347 -0.48106572 -0.2826638 -0.3408778 0.2189913 0.40232787 0.57526535
0.25510967 -0.3040316 0.7198665 -0.3074517 0.7163759 0.5036986 -0.0775475 0.058835246
-0.26996857 0.24535106 -0.9262195 0.77018493 0.19971293 -0.028784607 -0.32460093 -0.1725646
-0.14674568 0.34113044 1.0852841 -0.39678502 0.4905481 -0.020238848 0.36870173 0.10621973
0.48382032 -0.3154767 -0.5334046 0.18106346 -0.023480335 0.27844098 -0.41159225 -0.46981132
0.2821625 0.3866884 -0.37951156 0.013296418 -0.12861735 -0.17015256 0.1267108 -0.32241708
-0.041576635 0.32500136 -0.10125711 0.6103027 0.6473847 -0.4853066 -0.6153957 -0.22536854

decoders.0.decoder_net.3.weight f4 [32]
00000000: d3f1 943f 53d4 8b3f 0823 843f f566 8f3f
00000010: 16df 723f 1cc5 7d3f be91 873f 8af6 7a3f
00000020: dc7c 8e3f 89b8 7c3f d271 7a3f 1bfc 823f
00000030: d2fc 873f fb1a 873f 7db8 833f 0ead 743f
00000040: d39b 783f ccb3 803f 55d8 873f fd4a 873f
00000050: 5903 833f 3077 803f 6869 7d3f 6451 7d3f
00000060: 9f01 803f 5c3e 8d3f f46f 873f c805 803f
00000070: a66f 813f b2ca 853f 5a91 893f d845 833f
1.1636299 1.0924171 1.0323191 1.1203295 0.9487165 0.9912889 1.0591352 0.9803244
1.1131854 0.9871908 0.97829926 1.0233186 1.062403 1.0555109 1.0290676 0.9557656
0.9711277 1.005487 1.0612894 1.056976 1.0235397 1.0036373 0.9898896 0.9895232
1.0000495 1.1034656 1.058104 1.0001764 1.0112197 1.0452483 1.0747483 1.025569

decoders.0.decoder_net.3.bias f4 [32]
00000000: ec27 343c 098a 203c 5cce 7d3d bb4f 883d
00000010: 9ea0 54bd 21a7 f0bc c420 643d 89a1 e6bb
00000020: f8a7 e73c 77d9 e83c 8db2 8abc f227 773b
00000030: faec b33c 53af 9e3d ce14 d2bc e72c 8abb
00000040: 7dba 403d 09bf 173c 0956 8dbb 66e3 c2bd
00000050: 1523 823d e505 83ba 6270 8abc 4527 ef3b
00000060: e699 febc 1f23 233c 4ca7 9e3d 3281 c43c
00000070: 6a90 163a 6472 133d 0ee9 c53c 6208 a8bc
0.010995846 0.009798535 0.061964378 0.066558324 -0.05191099 -0.029376568 0.05569531 -0.0070382995
0.028278336 0.028424008 -0.016930843 0.0037713018 0.021963585 0.07748284 -0.025644686 -0.0042167786
0.04705285 0.009261855 -0.0043132347 -0.09516029 0.063543476 -0.0009996264 -0.016899291 0.0072983825
-0.031079244 0.009957104 0.07746753 0.023987386 0.0005743565 0.035997763 0.02415898 -0.02051181

decoders.0.decoder_net.3.running_mean f4 [32]
00000000: f8ff 7f3e f8ff 7f3e f8ff 7f3e f8ff 7f3e
00000010: f8ff 7f3e f8ff 7f3e f8ff 7f3e f8ff 7f3e
00000020: f8ff 7f3e f8ff 7f3e f8ff 7f3e f8ff 7f3e
00000030: f8ff 7f3e f8ff 7f3e f8ff 7f3e f8ff 7f3e
00000040: f8ff 7f3e f8ff 7f3e f8ff 7f3e f8ff 7f3e
00000050: f8ff 7f3e f8ff 7f3e f8ff 7f3e f8ff 7f3e
00000060: f8ff 7f3e f8ff 7f3e f8ff 7f3e f8ff 7f3e
00000070: f8ff 7f3e f8ff 7f3e f8ff 7f3e f8ff 7f3e
0.24999988 0.24999988 0.24999988 0.24999988 0.24999988 0.24999988 0.24999988 0.24999988
0.24999988 0.24999988 0.24999988 0.24999988 0.24999988 0.24999988 0.24999988 0.24999988
0.24999988 0.24999988 0.24999988 0.24999988 0.24999988 0.24999988 0.24999988 0.24999988
0.24999988 0.24999988 0.24999988 0.24999988 0.24999988 0.24999988 0.24999988 0.24999988

decoders.0.decoder_net.3.running_var f4 [32]
00000000: 9456 bb3d ef5b 913d c2d5 953d 4c6e 8a3d
00000010: 6889 7c3d 1171 8e3d e7df de3d 7fee 7f3d
00000020: 7609 d33d 9539 843d f9a0 233d 98c6 933d
00000030: 0150 8b3d 6ce6 893d 8548 683d 543e e03d
00000040: 486c c33d ed99 8d3d 7359 a33d 046d 863d
00000050: 06b3 ae3d 102f 9e3d 3316 d43d 9d8b 853d
00000060: 31e8 8f3d da59 953d a2e4 263d 74c3 bc3d
00000070: 558e ad3d 5535 b33d f9f5 c73d c542 8d3d
0.09147373 0.07097613 0.07316162 0.06759319 0.06165448 0.069551595 0.1088255 0.062483307
0.10304539 0.064562954 0.039948437 0.07215613 0.06802369 0.067334026 0.056709785 0.10949388
0.095421374 0.06914125 0.079760455 0.06563762 0.0853024 0.0772382 0.10355797 0.0652077
0.07026709 0.072925285 0.040745385 0.09216967 0.08474413 0.08750407 0.097637124 0.06897501

decoders.0.decoder_net.4.weight f4 [32, 32, 3, 3]
00000000: 3064 5e3d 46f9 d83d cb03 87bc b9f1 153e
00000010: c6ca 7c3d 6d62 cbbc 1377 623d 58d6 01be
00000020: 3e92 033e f741 28be 8283 533c 2b8a e4bd
00000030: d176 8b3d 7c05 213e 0a30 fcbd 0f89 7f3d
00000040: e2d6 c83c 52d7 a53d 50c4 f43d 6c0c a43d
00000050: eb8d 8b38 f988 463d 91fc 543b def7 66bd
00000060: 6c4f 2abd 40ef 81bd 230e 023d 03e4 053d
00000070: 658b 17bd e0ee 7cbc fc59 15bd f44f 223d
00000080: c0e2 563d ac84 733d 43fb 8c3d d918 5dbd
00000090: 884c 1cbd 0fe3 343d 98ac a33d a395 6abd
000000a0: 47e2 333d 1897 03be 35b5 c33d 8651 6ebd
000000b0: 0d41 50bd 21c5 a4bd 155e 08bc 59ce ca3b
000000c0: 09ca f3bd 56f6 3abd 9fef 0c3c a405 6e3c
000000d0: 2fb8 47bc f731 053d f273 64bc e9b7 2f3d
000000e0: 32b1 70bb be34 3ebd c519 90bd 75c5 d9bd
000000f0: cb92 933d f611 31bd 116e af3d 5d0f 60bd
00000100: 5fb4 5c3d 9d6e 463d 98f6 cf3d 8ec8 6dbd
00000110: ad8d 083c 50bf 81bd cfe9 a73c 2866 b73d
00000120: 0d17 c63d 3f5a c03d c37a 803d f92c 14bd
00000130: 6722 56bd e55f 0c3d 1f91 323b 93a3 63bc
00000140: 54e0 a73b 1418 00be b03b 123d bf47 883d
00000150: 33ed 1fba 2162 243e b96f 183c 6168 6c3c
00000160: 6d36 353c 24a5 95bc f542 3bba e710 2cbd
00000170: 444d b9bd e525 f73b b610 953d d34b 92bd
00000180: 1083 57bd 5c59 42bc 6fae 853d 249e 0bbd
00000190: 999c 913c 0a80 bb3d 04bb 7cbd 3ea9 60bd
000001a0: 6c03 caba fe17 3d3c e900 acbc 8bf4 d8bc
000001b0: 8470 523c 446c e33d aae3 b93d edc3 a33d
000001c0: 3797 bf3b 917d 2abc f39c 933d 7db2 b9bc
000001d0: 9809 29bd 0124 56bd bb54 25bd f4f6 5cbc
000001e0: f748 153d 6cb9 78bd 83e9 57bd 8ee4 803d
000001f0: 8933 eebc 9695 adbc 6591 ad3c 7ac6 023d
00000200: 1ded e3bc b416 103e d8d1 9c3c 9847 9cbc
00000210: 86f3 393b 45e5 dd3c a21f 023d 078c 46bd
00000220: 84b0 d9bd 5ca3 c6bd 28ff 803d ff84 4ebd
00000230: 5bd6 95bd 9f9c 823d 481c 8abd ea57 b63d
00000240: 52df 8ebd cab8 383d 653e 853b e496 fabd
00000250: de25 ed3c ead1 3b3d b3e1 d03b 46d6 c83c
00000260: c6ca b63b 610b b13c 548f f73a 0142 303b
00000270: 741f f93c a9d7 213d 84d0 9c3c d021 323c
00000280: a4cc b33b 7cf2 763a 85ac 673d 183e d3bc
00000290: eb95 7c3b 3669 153d 74a5 7bbd 0259 9a3c
000002a0: 34ac 983b dd57 c43c 2397 febb d6c9 0fbc
000002b0: f254 51bd 7c3a 293d 7cd2 da3b ae74 09bb
000002c0: 1868 2b3d 94f6 2cbd 7312 8ebc 5d62 5d3d
000002d0: a388 3ebd 03c6 9c3c a140 c0bc ffef 203d
000002e0: 6a9f 023e 772d 12bd 5dfd 11be b30f e23a
000002f0: 30c1 84bd 10a0 70bd 1dcf b73c d9c9 9fbd
00000300: 3c04 72bd 2067 6f3d 2629 e4bb 7a55 5ebd
00000310: c6b7 943d 1b43 d8bd be53 abbb 55cd 6a3c
00000320: 5f1e 4b3d c71f 08bd 99c9 93bd 3a9c d5bd
00000330: b98d 20bd a0d5 323c afc2 58bb caff 7c3d
00000340: 30e3 2ebd f336 4ebd 0ced 9fbc 0419 21bd
00000350: 2d78 26bd cd61 0ebd 5e79 a03c c3dd 323c
00000360: cc59 1a3d 9742 9abd 7040 91bc de9a 8bbc
00000370: 4a5c d03c 02c5 19be 5ee6 cd3b 6d20 3ebd
00000380: 9886 6dbb 3bb7 ca3d 7f7b 85bc abce d23c
00000390: 699e 653d 5ead 73bc a4ab 63bc 2cba f5bd
000003a0: 8506 c73d 4f8a 6dbd 5f91 0cbd 40de 883d
000003b0: 3e3a 78bd 736c 373d c87f 7d3d 1b9c 34bc
000003c0: 46ee 933d 7aad ea3c b1e7 903c d370 683d
000003d0: 88f0 ab3c d415 c83d 71ce 70be 8ba0 ec3c
000003e0: 460d b63c 4465 a43d faee 27bc c759 4f3d
000003f0: 69e5 223d 573b 1abc 64e7 723c 6b16 c7bc
0.054294765 0.1059442 -0.0164813 0.14642991 0.061716817 -0.024827207 0.05528934 -0.12679422
0.12848756 -0.16431414 0.012909772 -0.11159166 0.06809772 0.15724748 -0.1231385 0.06238657
0.024516527 0.0809771 0.11951506 0.08010182 6.654471e-05 0.04847047 0.0032499174 -0.05638873
-0.04157965 -0.063444614 0.031751763 0.032688152 -0.03699817 -0.015437812 -0.03646277 0.03962703
0.05246234 0.059452698 0.06883862 -0.053978775 -0.038158923 0.044161852 0.07991904 -0.05727161
0.043916967 -0.12850606 0.09556047 -0.058183216 -0.050843287 -0.08045412 -0.008323212 0.0061891493
-0.119037695 -0.04564508 0.008602052 0.014527712 -0.012189909 0.032518353 -0.013943659 0.0429
-0.003672671 -0.046437018 -0.07036165 -0.10633365 0.07205733 -0.04323002 0.085659154 -0.05470215
0.053882953 0.048445333 0.10154456 -0.058052592 0.008334559 -0.06335318 0.02049723 0.08955032
0.09672365 0.09392213 0.06273415 -0.0361757 -0.052278902 0.03427114 0.0027247143 -0.01389398
0.0051231775 -0.12509185 0.035701454 0.066543095 -0.0006100714 0.16053058 0.0093039805 0.014429183
0.011060339 -0.018267222 -0.0007143461 -0.042008307 -0.090479404 0.007542359 0.07278578 -0.071433686
-0.052615225 -0.011862125 0.06527411 -0.03408636 0.017774867 0.09155281 -0.06170179 -0.054848902
-0.0015412397 0.011541365 -0.020996528 -0.026483795 0.012844209 0.111046344 0.090766266 0.07996354
0.0058468836 -0.010405914 0.0720767 -0.022668118 -0.041268915 -0.05228043 -0.04036401 -0.013486613
0.036446538 -0.060723707 -0.05271293 0.06293593 -0.029077308 -0.021189492 0.021187494 0.031927563
-0.027823025 0.1407116 0.01914303 -0.019077107 0.002837391 0.027086863 0.03176845 -0.048473384
-0.10629371 -0.09699127 0.06298667 -0.050419804 -0.07316276 0.06377529 -0.067436755 0.08903487
-0.06976189 0.045098104 0.004066276 -0.12235811 0.02894872 0.045854487 0.0063745617 0.024516236
0.0055783717 0.021611871 0.001888732 0.002689481 0.030410506 0.03951231 0.019142397 0.010872319
0.0054870415 0.0009420288 0.05656101 -0.025786445 0.0038541507 0.03647729 -0.061437085 0.01884127
0.0046592 0.023967678 -0.0077694817 -0.008776149 -0.0511064 0.04131554 0.0066779237 -0.0020974088
0.04184732 -0.042227343 -0.017342782 0.054048885 -0.046517026 0.019137388 -0.023468317 0.039291378
0.12756124 -0.03568789 -0.14256807 0.001724711 -0.0648216 -0.058746397 0.022437626 -0.07802171
-0.05908607 0.058447957 -0.006962913 -0.054280736 0.072616145 -0.10559674 -0.0052284887 0.0143311815
0.04958951 -0.03323343 -0.07216186 -0.104301885 -0.039197657 0.01091519 -0.0033075025 0.061767377
-0.04269713 -0.050345372 -0.019522212 -0.039330497 -0.040641952 -0.03476124 0.019589122 0.01091713
0.037683293 -0.07532232 -0.017730922 -0.01704162 0.025434632 -0.15016559 0.0062835654 -0.046417642
-0.0036243554 0.0989823 -0.01629424 0.025733313 0.056059275 -0.014872877 -0.013895903 -0.119984
0.097180404 -0.05799323 -0.034318324 0.06683016 -0.06060242 0.04478116 0.06188944 -0.011023547
0.072231814 0.028647173 0.017688604 0.056748223 0.020988718 0.097697884 -0.23516251 0.028885147
0.022223126 0.080271274 -0.010249848 0.050622728 0.039769564 -0.009413562 0.014825676 -0.024302682

decoders.0.decoder_net.4.bias f4 [32]
00000000: c359 ce3d 23c1 4ebd 3803 783b 3ee7 3a3d
00000010: e975 b23b 098c d4bc b9df 8e3c 82a6 66bd
00000020: d3d3 ae3b b286 2fbd 2f53 ac3d 8d3a ee3c
00000030: 554e 73bd cd95 3fbd c7df 1b3c 0a2c 86bd
00000040: 8857 023c 94fb d8bd 2375 91bc c984 923d
00000050: 41c3 4c3d 7250 843d d50f 793c d2dd 8fbd
00000060: c224 97bd 4686 0f3d 4547 c13a 9178 0ebe
00000070: 738a 083c 50ce d6bd 53e6 933c c905 b73c
0.100757144 -0.05047716 0.0037843715 0.045630686 0.005446185 -0.02594568 0.017440664 -0.056311138
0.00533531 -0.042853065 0.084143035 0.029080654 -0.059400875 -0.04677372 0.009513802 -0.065513685
0.007955439 -0.1059486 -0.01775605 0.07154233 0.049990896 0.06460656 0.015201529 -0.07024731
-0.07380058 0.035040163 0.0014745971 -0.1391318 0.00833379 -0.1048857 0.018054163 0.022341626

decoders.0.decoder_net.6.weight f4 [32]
00000000: a69e 713f 91d9 803f 89d2 603f 7ff8 813f
00000010: 552d 7c3f 8da9 753f 621d 753f 85ca 6d3f
00000020: 7956 613f 7b75 673f 9790 6d3f 9f9e 663f
00000030: b05e 623f 6f5a 683f 20f8 703f 7309 6b3f
00000040: 0e2b 843f 5311 753f 4bf8 6b3f a4d3 7d3f
00000050: 1b1e 753f 79ef 6b3f 17ea 653f b879 6b3f
00000060: 0447 773f 4241 7b3f 8195 693f 9585 6e3f
00000070: 63e8 6e3f aba1 833f 499b 6c3f 4c31 733f
0.94382703 1.0066396 0.8782125 1.015396 0.9850667 0.9596184 0.9574796 0.92887145
0.8802257 0.90413636 0.9279875 0.90085787 0.8842573 0.9076299 0.9412861 0.91811293
1.0325639 0.9572956 0.9217574 0.9915106 0.9574906 0.9216228 0.8981032 0.91982603
0.96592736 0.9814645 0.9124375 0.9317258 0.93323344 1.0283712 0.92424446 0.94997096

decoders.0.decoder_net.6.bias f4 [32]
00000000: 02f9 15be d639 42bc f76e 14bd 6404 56bd
00000010: 88aa 3ebd d644 b0bd 6e46 21be b0c0 853d
00000020: 9189 95bd a495 a23d 5b8c 213d 727b b2bd
00000030: d5a8 203d db79 603d 62ab fdbd a4c3 483d
00000040: 94c7 7e3d 8c04 70bd a240 02bc 151b 543d
00000050: dfa7 8ebd 8a7e 003d 0b0b c9bd 6707 babc
00000060: 10f8 a33b 35b0 7c3d 6320 bbbd b615 9b3d
00000070: 261e 16be 4769 793d e5d4 c9bd c0f0 173d
-0.1464577 -0.0118546095 -0.036238637 -0.05225028 -0.04654935 -0.086068794 -0.15749523 0.06530893
-0.07301629 0.07938698 0.039440494 -0.087149516 0.03922351 0.05480371 -0.12386204 0.049014702
0.06220205 -0.058598086 -0.00794998 0.05178364 -0.069656126 0.031370677 -0.098165594 -0.022708608
0.0050039366 0.06169148 -0.09137037 0.075725004 -0.14659938 0.060891416 -0.098550595 0.03709483

decoders.0.decoder_net.6.running_mean f4 [32]
00000000: 1e49 123e 1e49 123e 1e49 123e 1e49 123e
00000010: 1e49 123e 1e49 123e 1e49 123e 1e49 123e
00000020: 1e49 123e 1e49 123e 1e49 123e 1e49 123e
00000030: 1e49 123e 1e49 123e 1e49 123e 1e49 123e
00000040: 1e49 123e 1e49 123e 1e49 123e 1e49 123e
00000050: 1e49 123e 1e49 123e 1e49 123e 1e49 123e
00000060: 1e49 123e 1e49 123e 1e49 123e 1e49 123e
00000070: 1e49 123e 1e49 123e 1e49 123e 1e49 123e
0.14285704 0.14285704 0.14285704 0.14285704 0.14285704 0.14285704 0.14285704 0.14285704
0.14285704 0.14285704 0.14285704 0.14285704 0.14285704 0.14285704 0.14285704 0.14285704
0.14285704 0.14285704 0.14285704 0.14285704 0.14285704 0.14285704 0.14285704 0.14285704
0.14285704 0.14285704 0.14285704 0.14285704 0.14285704 0.14285704 0.14285704 0.14285704

decoders.0.decoder_net.6.running_var f4 [32]
00000000: 7905 5d3b 7660 943b a990 c13b 5e19 c23b
00000010: ca5f aa3b a104 c73b d9d3 8f3b a560 7c3b
00000020: 6b57 7e3b 93f8 af3b 8278 583b 43f2 893b
00000030: 9768 9d3b 30f0 b63b 74be 883b bf82 9d3b
00000040: e83b 283c 35f9 073c 3ff0 7d3b 94ab 9f3b
00000050: 0dc2 da3b bdeb 993b d0d6 8e3b 755e a03b
00000060: 3e96 b13b 04e8 003c 0f2b b33b f7e6 5d3b
00000070: c734 023c 36d1 9e3b 5931 833b b5a5 5b3b
0.0033725186 0.0045281006 0.0059071374 0.005923434 0.005199407 0.00607355 0.004389268 0.0038509753
0.003880943 0.0053702085 0.0033030813 0.004209788 0.004803728 0.005582832 0.0041730944 0.004806846
0.010268189 0.008299162 0.0038747934 0.0048727486 0.0066759647 0.0046972916 0.0043591037 0.0048940727
0.0054195216 0.007867817 0.0054677795 0.003385959 0.007947153 0.004846717 0.0040036854 0.0033515517

decoders.0.decoder_net.7.weight f4 [32, 16, 3, 3]
00000000: b490 433c 9bae 263d 8cec 7a3d f7e4 93bc
00000010: cbc4 2abd a711 463c c4cc 2bbc f9e0 ebbb
00000020: 6e1d 483d 362b 71bb f882 703d 606f 50bd
00000030: c6b6 313b f878 e43b 08fb e23c 8ae8 bc3c
00000040: 2877 883d 8163 773d a2a9 783d 8bd7 7bbd
00000050: a704 8c3d 3e32 57bd 2bb8 693d 5258 843b
00000060: e002 183d 0283 b2bc 6498 ab3d 67a7 babc
00000070: 67b1 523d 7d12 2d3d b057 16bc cca3 083e
00000080: aeaa 6b36 5331 003d 6bb1 af3c 12c2 753c
00000090: 80e8 d73d 1f93 b23d a7a6 913d baf1 3c3d
000000a0: 14e5 a0b9 d9fe 30bd cc2d 283d c075 863d
000000b0: e187 d33c c8a9 08bd ae3b b33c 4c8e 74bc
000000c0: f234 783d 8d02 243e f639 c93d da13 c3bc
000000d0: 96b4 6c3d 20f7 b9bd d5a2 f6bc f9a9 043c
000000e0: b75b 3bbd 7970 aebd de63 5e3c 6b85 7fbd
000000f0: d4d5 5fbd 2917 61bd 1dbb 8c3c 7271 a33d
00000100: 6f8f 60bd 86af adbc 61ba be3c 1694 47bb
00000110: 9842 973d 7891 843d 8835 e73b f65f 8fb9
00000120: 2575 a8bc 1b4f b7bd 12ae d8bc 3cc1 403d
00000130: ce09 88bd 0abe 18bd 8ffc 823d a7b7 383d
00000140: 4dab 6bbd 9891 38bd 58fb 40bd 3bed c43c
00000150: 2dd5 c63c 4c05 d6bd b532 53bd 230b 8a3d
00000160: d743 8e3c b69c acbc 8539 453d 2f37 34bc
00000170: 1117 fcbc e345 e03c f05c 7abc dc81 86bb
00000180: 2585 c73c 389b 833d d5ff d73a e543 05bc
00000190: 193a 2dbd 04a6 4ebd 22e5 6bbb e1d5 d33d
000001a0: 19a8 453d ce8d 79bd 1180 d43d 3aa8 8dbd
000001b0: b04c 2a3d 3874 b53c 442c ac3c 7e5d 3cbd
000001c0: 60b8 5c3d 7375 9b3d 8947 bcbc 675e b93d
000001d0: dd95 b8bc 045d 5d3c 2e24 cf3d e621 a9bc
000001e0: 7e9c bdbc be5e ea3a 7b22 d83a fd73 ac3d
000001f0: 64fc 86bd caba 10bb 89c4 85bd 7378 8c3d
00000200: 8875 ab3d 2aad 283d f336 d03d 1011 bc3a
00000210: 0799 a2bc 7c88 ad3d a5ce a43c 73ed c23b
00000220: 166c 9e3d 1ec7 07bd 8fa0 2bbc d393 83bd
00000230: 47ac 4d3d 41ac 463c ae81 ebbc 1f71 df3b
00000240: 2bf8 af3c 763d 4abc 22a8 24bc f267 fcbc
00000250: 4cc2 813d 39b4 87bd 3061 c83d 7d17 0b3d
00000260: 8ede 82bd 11e4 673d 9f73 9c3d 94cf a93d
00000270: c14c cfba 480d e63c bc57 8c3d 54b3 833d
00000280: c0af 633c 1c89 2f3d 2016 ba3c b0b1 d1bc
00000290: a135 b2bc 0a7a 223d 5343 e83d 9d42 6abd
000002a0: e840 a43d 48f3 54bb 41df 7a3c a869 a03d
000002b0: e7f0 c63d 536d 813c 8d8d 893d c060 b7bb
000002c0: 1db4 ca3d 3580 24bd a5a1 143d 1280 053d
000002d0: 18c0 62bc 445b 82bb fd69 e43b 3675 313d
000002e0: 74fc 803c 4a25 813d 26c0 343d 6cb7 ee3d
000002f0: 3cca fbba 1c11 973c 2e64 163e bd76 8a3d
00000300: 9df6 7b3c 1253 ba3c e1e1 603d 3943 21bd
00000310: ed97 473d 2d93 1c3c b761 093d 8b4c b93d
00000320: d3e6 3d3c da32 0bbe dbae 34be 2fc4 3ebd
00000330: e34b 5dbd 8c55 efbc 5c31 6dba 9998 323d
00000340: 3eab 40bd 38e0 53bd c705 a43d 8e62 953c
00000350: b159 4b3c 11f4 b4bc e3c8 fabb a9b7 8fbd
00000360: e1b3 ffbb 6dca c6bd 54d1 81bc 4f9c 68bd
00000370: a46d 263d bbfe 8ebc ea20 c3bb 42cb e73c
00000380: 07a4 a4bb 768a a6bb ba41 ecbd df43 9538
00000390: 481e 283d 31d7 63bd b20d 30bc 7ca3 3f3c
000003a0: 5d52 523d 7256 17bd 81dd 213c bd9f 79bd
000003b0: 67d0 47bc 4bf9 94bd 672d 733d 8bab 65bb
000003c0: 6191 5f3d 5631 aabd 473a 4b3d aa23 4b3d
000003d0: ebfb ef3d ec08 23bd 6ed4 6b3d a8b4 273e
000003e0: b25e 863d ecd0 153d e6ba bfbc 7da8 063d
000003f0: 9913 4abd 9a38 64bd 72b7 3f3d 2084 2c3c
0.011936355 0.04069386 0.061260745 -0.018053515 -0.041691583 0.01208917 -0.010485832 -0.0071984497
0.04885619 -0.0036799437 0.05871865 -0.050887465 0.0027116998 0.0069724284 0.027707592 0.023060102
0.06663352 0.06039763 0.06070865 -0.061484855 0.06836825 -0.05253815 0.057060402 0.004038849
0.037112117 -0.021790985 0.083786756 -0.022784902 0.051438715 0.04225396 -0.00917618 0.13343734
3.5117077e-06 0.03129704 0.021446904 0.014999883 0.10542393 0.08719467 0.071118645 0.046128966
-0.00030688255 -0.04321179 0.0410593 0.06565428 0.025821628 -0.03336504 0.021879043 -0.014926504
0.060597368 0.16016598 0.09825508 -0.023813177 0.057789408 -0.090803385 -0.030106941 0.008097165
-0.045741763 -0.08517546 0.013573615 -0.062383097 -0.05464728 -0.054953728 0.017179066 0.07980622
-0.05482429 -0.02120186 0.023282232 -0.0030453256 0.073857486 0.064730585 0.007055942 -0.00027346582
-0.020563671 -0.08950635 -0.02645019 0.047059283 -0.06642495 -0.03729061 0.06395828 0.04509702
-0.057536412 -0.045060724 -0.0471147 0.024038902 0.024271572 -0.10450229 -0.05156203 0.067404054
0.017366333 -0.02107082 0.048150558 -0.010999485 -0.030772718 0.027377075 -0.015280947 -0.004104836
0.02435548 0.0642609 0.0016479442 -0.008133863 -0.042291734 -0.050451294 -0.0035994728 0.103435285
0.048256014 -0.06092625 0.10375989 -0.06916852 0.04157704 0.022150144 0.021017201 -0.0459876
0.05388677 0.07590761 -0.02298333 0.09051209 -0.022532398 0.013510946 0.101143226 -0.020646047
-0.02314591 0.0017881019 0.0016489768 0.084205605 -0.065911084 -0.0022083991 -0.06531627 0.06858911
0.08372027 0.041180767 0.10166731 0.0014348347 -0.01984836 0.08473298 0.020118067 0.0059487163
0.077354595 -0.033148877 -0.010475292 -0.064246796 0.050213125 0.0121260295 -0.02874836 0.006818905
0.02148064 -0.012343755 -0.010049852 -0.030811284 0.06335887 -0.066261716 0.09784162 0.033957947
-0.06390105 0.056613985 0.076392405 0.082915455 -0.0015815721 0.028082505 0.068526715 0.064306885
0.0138968825 0.042855367 0.022715628 -0.025597423 -0.021754088 0.039667167 0.11340966 -0.057192434
0.080201924 -0.003249364 0.015312017 0.07832652 0.09713917 0.0157992 0.06716452 -0.0055962503
0.09897635 -0.04016133 0.03628697 0.03259284 -0.013839744 -0.003978165 0.0069706426 0.04332467
0.015745379 0.063059404 0.04412856 0.11656079 -0.0019210051 0.018440776 0.14686653 0.06760929
0.015378621 0.02274469 0.054902915 -0.03937075 0.048728872 0.009556574 0.033540454 0.090478025
0.011590677 -0.13593617 -0.17644827 -0.046573814 -0.05402745 -0.029215597 -0.00090481876 0.04360256
-0.04703831 -0.051727504 0.080089144 0.018235471 0.012411521 -0.022089036 -0.007653342 -0.07017452
-0.0078034257 -0.097065784 -0.015846886 -0.056789692 0.040631905 -0.01745545 -0.0059548514 0.028295163
-0.0050244364 -0.005082424 -0.11535974 7.1175156e-05 0.041044503 -0.055625144 -0.010745453 0.011696693
0.05134808 -0.036947675 0.009879471 -0.060943354 -0.012195683 -0.07274111 0.05936947 -0.0035044875
0.054582004 -0.08310191 0.049616124 0.04959456 0.117179714 -0.03980343 0.057575636 0.16377509
0.065610304 0.036576197 -0.02340455 0.032875527 -0.049335096 -0.055718042 0.046805806 0.010529548

decoders.0.decoder_net.7.bias f4 [16]
00000000: 5d0c 233c 9b6f 17bc 0400 96bd 9074 22bd
00000010: 321c cd3d eb85 a93c cd6d 57bd 6841 88bd
00000020: 4402 013e c594 103d 1251 62bd aa01 12bc
00000030: f93f 84bd 8f24 573c 8944 3d3b 787c 33bd
0.009951678 -0.009242917 -0.07324222 -0.039661944 0.100151435 0.02069374 -0.05259495 -0.066531
0.1259852 0.035298128 -0.055253096 -0.00891153 -0.06457514 0.013131275 0.0028879961 -0.043819875

decoders.0.decoder_net.9.weight f4 [16]
00000000: c365 673f a07b 693f 8e0c 6d3f 3808 6a3f
00000010: 8d6e 6b3f 53e1 6f3f b3c1 8b3f 0a27 623f
00000020: 5b4a 683f 2f34 6f3f 2941 673f 3a69 713f
00000030: 42bc 6a3f a5c3 753f f81b 6a3f 0ae1 643f
0.9038965 0.9120426 0.9259728 0.9141879 0.9196556 0.9370319 1.0918487 0.8834082
0.9073846 0.93439 0.903338 0.9430119 0.9169351 0.96001655 0.91448927 0.8940588

decoders.0.decoder_net.9.bias f4 [16]
00000000: aa09 37be 60d6 abbc 4e91 cebc 706d 39be
00000010: f3a6 483e 0cc3 b0bd ea34 d33c aa45 a8bd
00000020: 32ba 91be 5bc1 1bbd a325 02be 2f2c b1bd
00000030: 490c 163e 670b 60bc a2bd 0ebe a1b9 07be
-0.1787478 -0.020976245 -0.025215771 -0.18108153 0.19594936 -0.08630952 0.025782067 -0.08216412
-0.28462368 -0.038026195 -0.1270967 -0.086510055 0.14653124 -0.0136745935 -0.13939527 -0.13254406

decoders.0.decoder_net.9.running_mean f4 [16]
00000000: 1e49 923d 1e49 923d 1e49 923d 1e49 923d
00000010: 1e49 923d 1e49 923d 1e49 923d 1e49 923d
00000020: 1e49 923d 1e49 923d 1e49 923d 1e49 923d
00000030: 1e49 923d 1e49 923d 1e49 923d 1e49 923d
0.07142852 0.07142852 0.07142852 0.07142852 0.07142852 0.07142852 0.07142852 0.07142852
0.07142852 0.07142852 0.07142852 0.07142852 0.07142852 0.07142852 0.07142852 0.07142852

decoders.0.decoder_net.9.running_var f4 [16]
00000000: 4ff7 de3a 8b46 0e3b c288 143b 76fe 2e3b
00000010: 365f 1a3b 50e8 083b 70a8 ac3b 2d39 bf3a
00000020: 81ff 0b3b 3325 183b 0bd9 bc3a 9861 563b
00000030: f63a 653b 8f11 743b bda6 263b 600e 153b
0.001701096 0.0021709527 0.0022664522 0.0026701964 0.0023555285 0.0020890422 0.0052691028 0.0014589183
0.002136201 0.0023215532 0.0014407946 0.003271198 0.003497777 0.003724191 0.0025428974 0.0022744164

decoders.0.decoder_net.10.weight f4 [16, 1, 3, 3]
00000000: 9d8e 70be 6b56 a7bc 5aed 5c3e 6d49 1abd
00000010: 02bc 303e 2269 133e 29d5 1abe bda9 043e
00000020: d261 fdbc 8260 423d 6dce 7b3e 1cc2 8abb
00000030: 5808 f63b bf17 0a3e 4577 d8bc 83ae fabd
00000040: 946c a4bd 667b 433e 24c1 5a3e d02a 423e
00000050: 8156 6abd 0624 3f3e 7cf5 543e 634d 9a3d
00000060: a070 3e3e eaa6 a9bd c731 b13d 850b 03bd
00000070: eb7b 2d3e d8d9 bc3d 6aa5 49be d87b 053e
00000080: c9d3 173e 691e 02bd e9ae 49bc f69a 4dbe
00000090: 9052 11be 6f66 833e 0926 84be b82d 313d
000000a0: 6576 4b3c a08d acbc aa9e 9ebd 1557 9fbd
000000b0: d178 2bbe 3dee f33d 3cd7 903d 8918 0d3e
000000c0: 27e8 b93d 7a23 3e3e 798d f93d 105f f0bd
000000d0: 55a2 03be 1618 203d 2d80 7fbe fb8e e5be
000000e0: 79e3 a5be 3a4b 503c 9cd3 423d c33e 533c
000000f0: 8cb9 0d3d 8b9b 60bc 1e35 61bd 15fb 21be
00000100: 4ec1 23be 7390 3a3d 5bc8 48be 3f71 00be
00000110: 0816 2f3d 1ee7 dcbb 79d9 2ebe cfd6 26bd
00000120: 9202 20be 44cc 5a3e 143b 32be eeaf 8dbe
00000130: 2c5d 2dbd 6a42 a53d 01c4 053e 58d6 d33d
00000140: 45ab c43d 77a4 1f3e ce4e 27be 16d8 f43d
00000150: 1ee6 583e a36c 2d3d d03b 893d b594 a0bc
00000160: 8750 603e 6e22 813d 4e94 583e 00f2 00bd
00000170: 1612 543e 82ce 8fbd e6be 1dbe 0c0a 55bd
00000180: c000 7c3d c4ab 58bc af61 15bd 8918 b33d
00000190: c393 2e3e acb1 683d 3f7c fb3d 160b 033e
000001a0: 398f 303e d376 97bb 8a94 ee3d e915 583e
000001b0: cbf3 9d3c e180 20be 825b d03d 6b23 05bd
000001c0: 91aa b9bd 34f2 7ebe 7f4a 303e 09ea 70bd
000001d0: 56cd 28be d20e 2fbd ddf5 75be 48bb 15be
000001e0: c8c5 423d c258 7ebe 344f e8bd 00cc dbbd
000001f0: 6d6e 17be 4c58 073e 3697 68bd b477 11bd
00000200: d902 083e 30a7 6fbd e2fa 923c d968 2f3e
00000210: 4034 693e a1e0 5d3e 7d47 52be 44f6 193e
00000220: 8d0a 903d a12e a83d 9b15 15bd 0da5 9d3d
00000230: 6a2e 413e bdf7 3b3d cb95 d33c 8ce8 7ebd
-0.23491903 -0.02042695 0.21574917 -0.03766768 0.1725922 0.14395574 -0.15120377 0.12955375
-0.030930433 0.04745532 0.24590464 -0.0042345654 0.007508319 0.13485621 -0.02642406 -0.12240317
-0.08028522 0.19090042 0.2136274 0.18961644 -0.057211403 0.18666086 0.2079677 0.075342916
0.1859765 -0.082837895 0.086520724 -0.031993408 0.16941802 0.09221238 -0.19692007 0.13035524
0.14826883 -0.031767283 -0.012309768 -0.20078644 -0.14191651 0.25664088 -0.2581027 0.04325649
0.012418364 -0.021063626 -0.077451065 -0.077802815 -0.16745307 0.11910675 0.07072303 0.1377889
0.09077483 0.1856822 0.12185187 -0.11736882 -0.12854894 0.03908547 -0.24951239 -0.44835648
-0.3240011 0.012713248 0.047565088 0.0128933815 0.03460078 -0.013708959 -0.054982297 -0.15818436
-0.15991709 0.045547914 -0.1960768 -0.125432 0.04274562 -0.0067414185 -0.17075147 -0.0407322
-0.1562598 0.21366984 -0.17405349 -0.27673286 -0.042325184 0.08069308 0.13063051 0.10343617
0.096029796 0.15590082 -0.16338655 0.119552776 0.21181533 0.042339932 0.067008615 -0.019602159
0.21905719 0.06305395 0.21150324 -0.03148079 0.20710024 -0.0702181 -0.15404853 -0.052011535
0.061524153 -0.013224546 -0.03647011 0.08744914 0.17048554 0.056810066 0.122795574 0.12797198
0.17242135 -0.0046223192 0.11649425 0.21102108 0.019281289 -0.15674163 0.10173704 -0.03250448
-0.09065736 -0.2489708 0.17215918 -0.058816943 -0.1648458 -0.042738743 -0.2401957 -0.14622223
0.0475519 -0.24838546 -0.11343232 -0.10732269 -0.14788218 0.13217276 -0.05678483 -0.03551455
0.13282336 -0.05850905 0.017941896 0.1712984 0.22773838 0.2166772 -0.20535083 0.15035349
0.070332624 0.08212019 -0.036397558 0.076974966 0.18865362 0.04589056 0.025828263 -0.062233493

encoder.encoder_net.0.weight f4 [16, 1, 3, 3]
00000000: 6011 47be eb83 813e 7337 22be 585f 923d
00000010: a839 52be d3af 213e dc3f a8be 9d12 843c
00000020: a3bf cabe 33df 5a3e 2efb 253e 09e8 5abe
00000030: 13df 833e 6b20 133e f6da 8fbc b248 403b
00000040: 027c 183e 162e 293e 0be8 e5bc d07a 69be
00000050: 7dc1 4d3e 6aeb 6a3d f00e 123e 1550 a03e
00000060: 3476 a3be 11df 7fbe ef17 943e 9911 8fbe
00000070: dfe1 10be ff60 2d3e 382c a03c 35b4 99bc
00000080: 4273 65bd 27d0 74be 70c8 29be cc30 353d
00000090: ee10 7cbe 99ea 883e 1d39 dbbc 2e7f 3bbe
000000a0: e0de 5d3e 86cf 95be 156e 773e 0a9a 523e
000000b0: a5f0 893d bb1e c3bd 99af 363d 10db 87be
000000c0: 4682 613c 5690 69be 33d0 c6be 1735 acbe
000000d0: 2144 6a3d 42bf 27be dfd5 81be c95c 0abe
000000e0: 5d17 8bbe c64b 0b3e 0621 d43c 8c27 cb3c
000000f0: 4321 793c 11c1 a4bd ce86 cf3d e7ab 96be
00000100: 4d55 593d 386a 823e 2d44 843a d8e6 523e
00000110: befb 863e a330 9fbe 2f6f a83e 4b5d 46be
00000120: aab1 97be 4f48 c93c b21a 113e 5b14 d5bc
00000130: 44c0 0a3e 7032 453d 48dd 50be 6cfc 6d3e
00000140: 4e2b 8cba 88e4 b83a 1e71 4e3e 0a53 963e
00000150: c8a2 7cbe 18a4 97be 7116 a2bd e8c2 073e
00000160: 3005 b6be 0079 0ebe 265a b63e c7fd 45bd
00000170: 6c4a 8abc 943d 92bd f963 60bd ccac 223e
00000180: 8bf9 293e a34e 323e 4651 03bb afca 4b3e
00000190: 6d17 693b 59a1 133e 98cd a33e dfc9 803e
000001a0: 27d6 84be c550 b43d 8e05 a8be 7b2a 6bbc
000001b0: b1cc 723c ef8a a73e 5810 ce3d 5192 863d
000001c0: 5477 33be 9e3f 18be ac7e a43e cbbf 483e
000001d0: b300 b63d ce6a c83d f366 d7bd 97fb 3b3e
000001e0: 45e3 a63e d3b7 f739 da32 1b3d 3222 5e3e
000001f0: a1de 0fbe 50cd 0ebe 3d65 033c adab 33be
00000200: 7430 853e 6e4e 79be 32e5 60be d835 cabe
00000210: 5182 943e d85c d83b 2139 52bd 16eb f43d
00000220: b456 7d3e 8d45 a8be 17c4 90be 3be2 763d
00000230: b816 693e 618f 63be 6742 603e 8e94 953e
-0.19440222 0.25295958 -0.15841465 0.071470916 -0.20529807 0.15789728 -0.3286122 0.016122157
-0.39599332 0.21374206 0.16209099 -0.21377577 0.2575613 0.14367835 -0.017560463 0.0029340205
0.14891055 0.16521487 -0.028064748 -0.22800756 0.20093341 0.057353415 0.1426351 0.31311098
-0.3192612 -0.24987437 0.2892451 -0.27943113 -0.14148663 0.16931532 0.019552335 -0.018762687
-0.05601812 -0.23907529 -0.16580367 0.04423599 -0.24615833 0.26741484 -0.026760632 -0.18310234
0.21667051 -0.2925989 0.24163087 0.20566574 0.067353524 -0.09527346 0.044601057 -0.2653432
0.01376397 -0.22808966 -0.38830718 -0.33634254 0.05719388 -0.16381553 -0.25358483 -0.13511957
-0.27166262 0.13603124 0.025894653 0.02479913 0.015205684 -0.08044637 0.10133134 -0.29428026
0.053059865 0.25471663 0.0010091119 0.20595872 0.2636394 -0.31091794 0.32897326 -0.19371526
-0.29627734 0.024570612 0.1417034 -0.026010683 0.13549906 0.048143804 -0.20396912 0.23240823
-0.0010694058 0.0014106194 0.20160338 0.2936023 -0.24671471 -0.2961738 -0.079144366 0.13257945
-0.35550833 -0.13913345 0.35615653 -0.048337724 -0.01688119 -0.07140651 -0.05478284 0.1588623
0.165991 0.1741281 -0.0020037456 0.19901536 0.0035566941 0.14417018 0.31992793 0.25154015
-0.25944635 0.08804468 -0.32816738 -0.01435339 0.01481931 0.32723185 0.10061711 0.065708764
-0.17525989 -0.14868018 0.32127893 0.19604413 0.08886852 0.097859964 -0.10517683 0.18357693
0.32595268 0.0004724847 0.037890293 0.21692732 -0.1404977 -0.13945508 0.008019743 -0.17545958
0.2601353 -0.24346325 -0.21962431 -0.39494205 0.29005674 0.0066028647 -0.051324014 0.119589016
0.24740106 -0.32865563 -0.28274605 0.060274344 0.22762573 -0.22222663 0.2190033 0.292149

encoder.encoder_net.0.bias f4 [16]
00000000: 7621 b13d e297 693e c23f 4cbe e76b 8dbe
00000010: 783e d63c a986 813e 2ee9 68be bc9d 3737
00000020: 94b6 023e e239 37be 5942 8b3e f18a 213e
00000030: 2b23 48be 5a71 b13e c552 ec3d 38dc 7a3d
0.0864896 0.22811845 -0.19946197 -0.27621385 0.026152834 0.2529805 -0.22745201 1.0944375e-05
0.1276496 -0.17893174 0.27199057 0.15775658 -0.19544666 0.34656793 0.115392245 0.061245173

encoder.encoder_net.2.weight f4 [16]
00000000: 4a3e 8c3f a0bd 833f bc22 843f e2a0 8b3f
00000010: cab1 813f 2ef5 863f 5535 883f fe2c 883f
00000020: 9eef 833f 6e8f 873f 2e1c 853f 944d 873f
00000030: 3bea 7e3f f9c2 853f 122e 863f a9e0 823f
1.0956509 1.0292244 1.03231 1.0908473 1.0132382 1.0543573 1.0641276 1.063873
1.03075 1.0590646 1.0399225 1.057055 0.9957616 1.0450126 1.048281 1.0224811

encoder.encoder_net.2.bias f4 [16]
00000000: 36b7 eebb ba98 12bd 8bca bf3c 5edb 413c
00000010: 3260 533a ade1 4abc 1f1e 93bb 133d 883d
00000020: 25bf 403c 59cf cabc 54de b0bc 8eb6 dabc
00000030: 2581 8f3d 7b64 b53d 3edf f0bc be45 3e3c
-0.007285024 -0.035790183 0.02341201 0.011832086 0.00080633454 -0.012382907 -0.0044896747 0.06652274
0.011764322 -0.024757074 -0.02159039 -0.026698377 0.07007054 0.08857056 -0.029403325 0.0116133075

encoder.encoder_net.2.running_mean f4 [16]
00000000: 1e49 923d 1e49 923d 1e49 923d 1e49 923d
00000010: 1e49 923d 1e49 923d 1e49 923d 1e49 923d
00000020: 1e49 923d 1e49 923d 1e49 923d 1e49 923d
00000030: 1e49 923d 1e49 923d 1e49 923d 1e49 923d
0.07142852 0.07142852 0.07142852 0.07142852 0.07142852 0.07142852 0.07142852 0.07142852
0.07142852 0.07142852 0.07142852 0.07142852 0.07142852 0.07142852 0.07142852 0.07142852

encoder.encoder_net.2.running_var f4 [16]
00000000: 9186 fc38 6750 7239 9559 e138 c6c4 d838
00000010: 4db0 9038 434a a339 e2e0 8538 427f 1939
00000020: 2170 6638 294c f438 4d1b d838 f827 2939
00000030: 869d 3a39 6125 e838 fa6c b838 2566 d838
0.00012041361 0.0002310887 0.00010745522 0.000103363345 6.899294e-05 0.00031145112 6.383822e-05 0.00014638624
5.49407e-05 0.000116490126 0.00010304768 0.00016131985 0.00017797024 0.000110695844 8.794102e-05 0.000103187085

encoder.encoder_net.3.weight f4 [32, 16, 3, 3]
00000000: 0613 83bd 2f78 3f3d 1845 e93d 4d58 a33b
00000010: bb1a 77bc 687f 6c3d 8130 6d3b 756b 823d
00000020: 9576 34bd 7915 1abd 3c60 5a3d 804a d3bd
00000030: 887d ab3d a1bd d2bb 44ec 8fbd b614 d73b
00000040: 2ce7 22bd 483c a1bd 3ec6 293c 703f a43c
00000050: 2ce4 21bc f6ef ebbd d34c cfbd a02f 21bd
00000060: 6871 61bd a4af 4bbd b5be 8abd 0773 bdbd
00000070: 31d5 f8bb 3796 65bc 6fa5 99bc dd42 1f3d
00000080: 333f fc3d fda2 b8bd 8e05 e33c deb4 243d
00000090: f311 f0bc 2a6e c23d 1d4a 27bd 01af 893d
000000a0: 6809 86bd 4846 e6bb 651f c2bd 3039 87bc
000000b0: 8ab7 343d 835a 9c3a 50c1 58bd c4cd ea3d
000000c0: 687e 033b 1262 5f3d ffc8 4dbc 86bf b73c
000000d0: ca46 ddbc 08d2 003d 4841 a63c de83 133d
000000e0: f723 a23d 492b dfbc 523d 5a3d d4ae b23d
000000f0: e2c2 3f3d 5cf6 28bc f3ce 3e3d 1c2a 2c3d
00000100: e1d5 b7bc 1adf b9bd 4731 edbc 5662 e1bd
00000110: 651b f1bd 4409 21be c513 1cbd 0297 5d3d
00000120: 1d06 703d 28bb a1bd a812 e4bd c3dd 9bbd
00000130: 4e6a 2bbd b855 e43c 7329 09be 1a70 15bc
00000140: 834b 513c ce04 af3c c376 1e3d f7f7 e23d
00000150: 5d27 babd ef0d 78bd 72ea 493d ce65 113e
00000160: 0265 30bb 3f31 dc3c ae4f d63d 6dee b0bc
00000170: 91ae eabc d1fe 9ebc 1faf 31bd b880 a13c
00000180: e1fe 583d 0557 88bd 718a abbd da51 0c3d
00000190: df6c aa3d f7d7 47bd e40d 6b3d f79e 53bd
000001a0: 231e c4bd 4e11 bd3a 212a 403d 98bd b4bc
000001b0: 9b15 6e3c f713 0a3d 04c4 c2bc 2e96 c93d
000001c0: a673 adbd 71f4 d5bc 8d89 81bd fb9c 60bd
000001d0: 67f5 8e3c 72ea a63d 0f76 4dbc 3f90 113d
000001e0: f454 4a3c e2c6 b13c 5211 3bbe 4d3a e73c
000001f0: 79e8 8fbd 377c a0bd 2f97 ebbc 4e55 a3bd
00000200: bc57 ae3b b9e1 32bd 06ce 443d fd46 c03c
00000210: 860f 963d e4d5 6b3c 47a8 55bd 73e8 2dbd
00000220: 4d93 1a3d 5410 17be e599 81bd 40c6 2d3d
00000230: 57c1 2c3d 4999 b5bd 3bb4 82bd bd5a 6f3d
00000240: 4f25 23bd e9ea c43c 61de 9abc 7e7a 66bd
00000250: 14f5 533d ff79 323c 567a 8abd 6306 7f3d
00000260: 9d8d a5bd 9274 ae3d 4946 cebc f895 8d3d
00000270: 9c96 9f3d 2446 63bc a875 7e3d c61c 59bc
00000280: e21f 92bd 0310 cb3c 134c da3c 8203 1dbd
00000290: 9631 aabd e24f 9a3c 3952 693d 6cb8 ec3c
000002a0: e6a6 733d 93fc 823d 2b2f a43d 0977 cebd
000002b0: eaf8 d0bc 72db 90bd de37 373c 7f5a 6b3d
000002c0: 7239 88bd 4e4c 80bd e4e7 633d 8da0 03bd
000002d0: 35fc 93bd fd2f 02bc 80da c4bb fcfc 513d
000002e0: d157 5bbd fc45 593b fa11 5cbd 94a9 923d
000002f0: a0c7 5d3d b891 1ebd c504 e83a 1790 4d3d
00000300: 392d 7cbd d07d 83bd d287 303d 2508 e73c
00000310: f2af 9dbc a058 413d 43ed c5bd d171 99bd
00000320: 9705 e23a 6658 6f3d f55c a9bd 2996 103d
00000330: 151e 60bd c281 f43c ee2d c9bc 365f 513d
00000340: b423 3a3d d355 d9bc 11da c1bd be8c 5f3d
00000350: b8b9 a8bd c8c6 32bd 2c49 cd3d ad9a f23c
00000360: 23f6 093d bddc 013d 29b6 cebd 5ef4 fe3c
00000370: d575 b73d 76c6 b6bc 6738 143c a592 b73d
00000380: b070 7d3c 7748 cebc 4260 7e3d d8a6 0ebd
00000390: ff17 673d 3494 6dbd 81f0 233d b9e4 7f3d
000003a0: f8ab 863d 0554 0b3d 6ffb 723d 3d7e 993d
000003b0: 5588 23bd bc43 e53b acd5 673d c337 11bd
000003c0: 2e38 84bc 750c 9cbd edd0 ad3b e019 d63d
000003d0: d4c1 d83b a5ef 3e3d ed1b 27bd 059f 0f3c
000003e0: c867 18bd 41e9 de3d 4b20 82bd e1bc dc3c
000003f0: 12a6 263b 040d 143d 3d60 8bbd 739a 4d3d
-0.06400113 0.046745475 0.11390132 0.0049848915 -0.015082057 0.05773869 0.003619224 0.06368152
-0.0440584 -0.037618134 0.053314433 -0.10316944 0.083735526 -0.006431297 -0.07027486 0.0065637482
-0.039771244 -0.07872826 0.010362206 0.02004978 -0.009881061 -0.11520378 -0.10122075 -0.03935206
-0.055039793 -0.04972805 -0.06774656 -0.09250455 -0.007593774 -0.014012865 -0.018755643 0.038882125
0.12316742 -0.090154625 0.02771261 0.04021155 -0.029305434 0.094936684 -0.040842164 0.067228325
-0.06544763 -0.007027421 -0.09478644 -0.016506761 0.04412035 0.001192883 -0.052918732 0.11465028
0.0020064358 0.054536887 -0.012560128 0.022430193 -0.027011294 0.0314503 0.0202948 0.03601443
0.07917016 -0.02724232 0.053281136 0.08724752 0.046816714 -0.010312643 0.04658408 0.042032346
-0.022440853 -0.09075756 -0.028954161 -0.11005084 -0.11772803 -0.15726191 -0.03810479 0.05409909
0.05859958 -0.07897025 -0.11136371 -0.07610657 -0.041849427 0.027872905 -0.13394718 -0.009120965
0.012774351 0.021364596 0.03868748 0.11082452 -0.09089539 -0.060560163 0.04929585 0.14198992
-0.0026915674 0.026878951 0.104644164 -0.021598065 -0.028647693 -0.019408615 -0.0433799 0.019714698
0.052977446 -0.06657223 -0.08376015 0.034257747 0.08321547 -0.048789944 0.057386294 -0.051665273
-0.095760606 0.0014424713 0.046915177 -0.022063062 0.014531518 0.033710446 -0.023775108 0.098430976
-0.08469324 -0.026117535 -0.06325064 -0.05483721 0.017451001 0.08150186 -0.012540354 0.035537954
0.012349356 0.02170128 -0.18268326 0.028226042 -0.070267625 -0.07836192 -0.028758613 -0.07975255
0.0053205173 -0.043672297 0.04804804 0.02347135 0.073271796 0.014394257 -0.052162435 -0.04245801
0.037738133 -0.14752322 -0.06328181 0.042425394 0.04217657 -0.088671274 -0.063820325 0.058436144
-0.039830502 0.024037795 -0.018904867 -0.05626916 0.051747397 0.010893344 -0.06761615 0.06226195
-0.08083651 0.08518328 -0.025179999 0.0691337 0.07792398 -0.013871703 0.062123924 -0.013251489
-0.071349874 0.024787908 0.026647603 -0.038333423 -0.08310239 0.01883692 0.05696318 0.028896533
0.05948534 0.06395831 0.08016809 -0.10081298 -0.025509316 -0.07073106 0.011182753 0.05745935
-0.06651582 -0.06264554 0.05564107 -0.032135535 -0.07225839 -0.007946012 -0.0060074925 0.051266655
-0.053550545 0.0033153286 -0.05372808 0.07161251 0.054145455 -0.038713187 0.0017701617 0.050186243
-0.061566565 -0.06420481 0.04309828 0.028202126 -0.019248936 0.04720366 -0.09664395 -0.07492412
0.0017244098 0.058433913 -0.08269683 0.035299454 -0.05471619 0.02984703 -0.024558034 0.05111619
0.045444205 -0.026530182 -0.09465421 0.05457758 -0.08238548 -0.043646604 0.10023722 0.02961477
0.033682 0.031704653 -0.10093338 0.031122383 0.089580216 -0.02231143 0.0090466505 0.08963517
0.015468761 -0.025181038 0.062103517 -0.034827083 0.05641937 -0.058002666 0.040024284 0.062473986
0.06575769 0.034015674 0.059321817 0.07494781 -0.03992494 0.0069966 0.056600258 -0.03545357
-0.01614007 -0.076195635 0.005304447 0.10454154 0.006614903 0.04661526 -0.040798116 0.008765941
-0.03720835 0.108843334 -0.06353816 0.026945533 0.0025428575 0.036145225 -0.06805465 0.050196122

encoder.encoder_net.3.bias f4 [32]
00000000: 84fd 8c3d a393 86bc 729f 9d3b c060 973d
00000010: 926e cd3c 51d5 0d3a b85d 45bd e232 003c
00000020: 89ab 903d 23d4 583d ac3a 59bb 8dc9 933d
00000030: 5c9d 8ebb 3324 0b3d 0545 67bd 510b 5c3c
00000040: 44e0 19bd c51d 0dbd 49dc 003d c198 8cbd
00000050: c21f 183c f366 1c3d 85b3 3f3d 5283 02bd
00000060: a0cc 403c fe4c d6bd a26d 3f3d 70ba 00be
00000070: 6b82 51bc 0036 75bd 498d 9c3d 3c6d ed3b
0.06884292 -0.01642782 0.004810267 0.073915005 0.025077138 0.000541051 -0.04818508 0.007824631
0.07063968 0.052936684 -0.0033146543 0.07216177 -0.004352255 0.03397007 -0.056462307 0.013430432
-0.037567392 -0.03445222 0.03146008 -0.06865073 0.009284915 0.038184118 0.046802063 -0.031863518
0.011767536 -0.10463904 0.046735413 -0.1257112 -0.012787442 -0.05986595 0.076441355 0.007245688
