miniproject2/experiments/ensemblyVAE/ND1/modelSeed552nD1.pt (torch, 144013 bytes, 37 tensors)

prior.mean f4 [2]
0	0x00000000	0.0
1	0x00000000	0.0

prior.std f4 [2]
0	0x3f800000	1.0
1	0x3f800000	1.0

decoders.0.decoder_net.0.weight f4 [512, 2]
0	0xbed36c6e	-0.41293663
1	0x3f10746e	0.5642766
2	0x3dc18b09	0.09450347
3	0x3e19b291	0.15009524
4	0xbe8b8a37	-0.27253887
5	0xbeadf3a5	-0.3397495
6	0x3cefb80d	0.029262567
7	0xbe282106	-0.16418847
8	0xbbc30b60	-0.0059522837
9	0x3e254389	0.16139044
10	0xbf22abc9	-0.63543373
11	0xbeba1865	-0.36346737
12	0x3f0223ef	0.5083608
13	0x3f52c3ad	0.8232983
14	0x3ed399c3	0.41328248
15	0xbefede2e	-0.49778885
16	0x3eefc406	0.46829242
17	0xbcb2319e	-0.021752175
18	0x3f1f1b28	0.6215081
19	0x3f057ff0	0.5214834
20	0x3eb969ed	0.36213627
21	0xbf0f193f	-0.558979
22	0xbece262a	-0.40263492
23	0x3ee24048	0.44189668
24	0xbe79a63f	-0.24379824
25	0x3eb0f571	0.34562257
26	0xbebcdc51	-0.36886838
27	0x3e4bd65a	0.19905987
28	0x3e3beaec	0.18351334
29	0xbf4183c9	-0.75591713
30	0xbd99c393	-0.07508006
31	0x3ec8a2e4	0.39186776
32	0x3ed9dc08	0.42550683
33	0xbdd1c54c	-0.102427095
34	0xbec9fe55	-0.39451852
35	0x3eeb8d48	0.46006227
36	0xbcf64040	-0.030059934
37	0x3ee7c67a	0.45268613
38	0x3db9708a	0.09054668
39	0xbef0b53e	-0.47013277
40	0x3e77b02d	0.241883
41	0xbf3704b4	-0.7149155
42	0xbe5b25bc	-0.21401113
43	0x3cbad1b7	0.022805078
44	0x3f186468	0.5952821
45	0x3ed9eabe	0.42561907
46	0x3f0f4e12	0.559785
47	0xbf2aa411	-0.66656595
48	0xbf1bd20a	-0.6086737
49	0xbf102083	-0.5629961
50	0xbe1cebb1	-0.15324284
51	0xbf2ef6f4	-0.6834557
52	0xbf207a15	-0.6268628
53	0xbe2ad437	-0.16682516
54	0xbe61b803	-0.22042851
55	0xbeb0b890	-0.3451581
56	0xbcc16b29	-0.023610668
57	0xbd413410	-0.04716879
58	0x3e8f78ef	0.28021953
59	0xbda20342	-0.07910778
60	0x3f28a733	0.65880126
61	0x3e935019	0.28772047
62	0x3ebdede0	0.37095547
63	0x3e881ad2	0.26582962
64	0x3dc1197e	0.094286904
65	0xbd9fdf50	-0.07806265
66	0xbe6f8ae2	-0.23392823
67	0x3e7092e5	0.23493536
68	0x3ef49f2a	0.47777683
69	0xbeddf30c	-0.43349493
70	0x3eceabd9	0.40365484
71	0xbf2594b2	-0.64680016
72	0x3f018395	0.50591403
73	0x3ef1ffcc	0.4726547
74	0xbd5e7160	-0.05430734
75	0x3ee61d8f	0.44944426
76	0xbf15b651	-0.5848132
77	0xbe9fc980	-0.3120842
78	0x3e356faf	0.17718385
79	0xbe7ad729	-0.2449614
80	0x3ef73f1f	0.48290345
81	0x3ee40949	0.44538334
82	0xbf32bb34	-0.698169
83	0x3e0cbfb6	0.13745007
84	0x3f3aaced	0.72920114
85	0xbf003a7e	-0.5008925
86	0x3e89b4db	0.26895794
87	0xbe1c5120	-0.15265322
88	0xbeb694e8	-0.3566048
89	0xbe6d6862	-0.2318435
90	0x3db59b32	0.08867492
91	0x3f2ead52	0.68233216
92	0x3ed41a4d	0.41426316
93	0x3f049745	0.5179332
94	0xbf170a33	-0.5899994
95	0xbed4481a	-0.4146126
96	0xbf01f9ec	-0.50771976
97	0xbdf7e9c8	-0.12105137
98	0xbcdb2948	-0.026753083
99	0xbed52b2c	-0.416345
100	0x3f126a98	0.571939
101	0xbed1aabf	-0.4095058
102	0xbf25a498	-0.64704275
103	0xbf2ce038	-0.6752963
104	0x3f0f7116	0.5603193
105	0xbe8d5c69	-0.27609566
106	0xbebbade8	-0.36656117
107	0x3f046972	0.51723397
108	0x3de72d88	0.11287981
109	0x3f0b26bc	0.5435598
110	0xbe9f8b55	-0.3116099
111	0xbf24dfe7	-0.6440415
112	0xbef815e5	-0.48454204
113	0xbe9e90c1	-0.30969813
114	0x3e97b7a8	0.29632306
115	0xbd170066	-0.036865614
116	0x3f18e36d	0.59722024
117	0xbe6c43a3	-0.23072676
118	0x3e8274e2	0.254798
119	0x3f1d434a	0.614308
120	0x3ebe5bf9	0.37179545
121	0xbe9e2487	-0.30887243
122	0x3d9bc10f	0.076051824
123	0x3f267b9c	0.6503236
124	0xbe939178	-0.2882192
125	0xbf258187	-0.6465077
126	0xbf1a1f25	-0.6020377
127	0xbef53b4a	-0.47896796
128	0x3ecd1d64	0.40061486
129	0xbeb64524	-0.35599625
130	0x3f0404f5	0.51570064
131	0xbefe9559	-0.49723318
132	0x3e6f27db	0.23355047
133	0x3f1dbd2f	0.61616796
134	0x3d9246de	0.07142423
135	0x3f00f7dd	0.5037821
136	0xbf25770b	-0.6463477
137	0x3f1a5c76	0.60297334
138	0x3f0ba590	0.54549503
139	0xbeca74a7	-0.39542124
140	0x3e9f94a1	0.31168082
141	0xbf356c35	-0.70868236
142	0x3e066e5e	0.13128039
143	0xbe5228f6	-0.20523438
144	0xbc0c63ab	-0.008568685
145	0xbef76bc3	-0.48324403
146	0xbda99aad	-0.08281455
147	0x3ef7e79a	0.48418885
148	0x3e4a829d	0.19776388
149	0x3edf8f6b	0.43664107
150	0x3ef6ca08	0.48201013
151	0xbec49261	-0.38392928
152	0xbf07e4f3	-0.53083724
153	0x3eb8bcc8	0.3608153
154	0xbd8af0ac	-0.06784186
155	0xbec9f56d	-0.39445058
156	0xbef9cf17	-0.4879081
157	0x3eded3f8	0.43521094
158	0x3e8fe688	0.2810557
159	0x3f1c1cb3	0.6098129
160	0xbea9fc89	-0.33200482
161	0xbe30e66d	-0.172754
162	0x3ee1846a	0.44046336
163	0xbee39775	-0.4445149
164	0xbe19f835	-0.1503609
165	0x3ae7d732	0.0017688035
166	0x3e157d58	0.14598596
167	0xbefa4790	-0.48882723
168	0xbe9fc19d	-0.31202403
169	0x3dbb88a7	0.09156924
170	0xbe5126d3	-0.20424967
171	0xbea12b78	-0.31478477
172	0xbe7ff77f	-0.24996756
173	0x3ea47e36	0.3212754
174	0xbf2538d1	-0.6453982
175	0x3f232a3b	0.63736314
176	0x3ef7d131	0.48401788
177	0x3ee1121e	0.43959135
178	0x3f4410aa	0.7658793
179	0x3eef2695	0.46709123
180	0x3ecf8fd4	0.4053942
181	0xbdbe626d	-0.09296117
182	0xbd74d5e1	-0.059774283
183	0xbecbde5c	-0.39818084
184	0xbf259c7d	-0.6469191
185	0x3f0c6bd9	0.5485206
186	0xbd7d6696	-0.06186541
187	0xbf3b445f	-0.731512
188	0x3e5c00b1	0.21484639
189	0xbe18f743	-0.14938073
190	0x3ed3308f	0.41247985
191	0xbefd8e54	-0.4952265
192	0xbe001c46	-0.12510785
193	0x3eef97ed	0.46795598
194	0x3ec4fade	0.38472646
195	0x3e3a06af	0.18166612
196	0xbeb1c5b2	-0.34721142
197	0xbf040d9f	-0.51583284
198	0xbf1eb4c6	-0.6199459
199	0xbe17b5f8	-0.1481551
200	0x3e0677e7	0.13131677
201	0x3e49e21e	0.19715163
202	0x3e9b32bc	0.30312145
203	0xbecc43d6	-0.39895505
204	0x3f208da1	0.6271611
205	0x3f207552	0.62679017
206	0x3eb1dc78	0.34738517
207	0xbe292198	-0.16516721
208	0x3ec7519d	0.38929453
209	0xbefa0fdb	-0.48840222
210	0xbee10b14	-0.43953764
211	0x3d305cfd	0.04305743
212	0x3f2196f4	0.6312096
213	0x3f18540d	0.5950325
214	0x3dd75e79	0.10516066
215	0x3e127e7e	0.14306065
216	0x3ef260ab	0.47339377
217	0xbef72ce6	-0.48276442
218	0xbf1b44b9	-0.6065174
219	0x3ed33374	0.41250193
220	0x3eecc039	0.46240404
221	0x3f2c956c	0.674155
222	0x3e354893	0.17703466
223	0x3eda0a65	0.42586055
224	0xbe12774e	-0.14303324
225	0xbe793cfe	-0.24339673
226	0xbf17219e	-0.5903567
227	0x3ed8bde0	0.42332363
228	0x3eabb45e	0.33536047
229	0xbebbd8c0	-0.36688805
230	0xbf0da77e	-0.553337
231	0x3ec25675	0.37956586
232	0xbf2891eb	-0.65847653
233	0x3f2e5153	0.6809284
234	0x3f5494e5	0.83039695
235	0x3d24b7cf	0.040214356
236	0xbe38ac84	-0.1803456
237	0xbe8b0223	-0.27150068
238	0xbeb15132	-0.3463226
239	0x3efd508e	0.4947552
240	0xbefd01c5	-0.49415413
241	0x3ee0c8db	0.4390324
242	0x3d99e501	0.07514382
243	0x3f012bfe	0.5045775
244	0x3f23e936	0.64027727
245	0xbf5c67b3	-0.8609573
246	0x3d8c6d2e	0.06856762
247	0x3eca81ac	0.39552057
248	0xbe86630e	-0.26247448
249	0xbe58bc18	-0.21165502
250	0x3f2d25dd	0.676359
251	0x3eb2b759	0.34905508
252	0xbf124a1e	-0.57144344
253	0xbe883bf4	-0.2660824
254	0xbf24a5b7	-0.6431536
255	0xbea62120	-0.32447147

decoders.0.decoder_net.0.bias f4 [512]
0	0xbee9d6c6	-0.45671672
1	0xbe651f9f	-0.22375344
2	0xbd973828	-0.07383758
3	0xbf4a458c	-0.7901237
4	0x3f022fa8	0.5085397
5	0xbe7cd8bb	-0.24692051
6	0xbe2514e4	-0.1612125
7	0x3e61ed0b	0.22063081
8	0xbf27d552	-0.65559876
9	0x3f268767	0.6505036
10	0x3eb024ea	0.34403163
11	0xbf154482	-0.5830766
12	0x3e875d09	0.26438168
13	0xbf2d3de0	-0.6767254
14	0xbee6ee23	-0.4510356
15	0x3f17ba21	0.59268385
16	0x3ec3b849	0.38226536
17	0xbe10c04f	-0.1413586
18	0xbc18432a	-0.009293357
19	0x3f2df0ae	0.67945373
20	0xbe7bac68	-0.24577487
21	0xbe4e0a7d	-0.20121188
22	0xbecf094c	-0.4043678
23	0xbda4fb43	-0.08055737
24	0x3f2343b0	0.6377516
25	0xbf0da15a	-0.5532433
26	0x3da1f68a	0.07908352
27	0x3e995509	0.2994769
28	0xbf058a46	-0.52164114
29	0xbd8501b1	-0.06494463
30	0xbf365693	-0.7122585
31	0xbe8f4c83	-0.2798806
32	0x3f45bc03	0.7724001
33	0xbeb8b9df	-0.36079308
34	0x3ed1ff16	0.41014928
35	0xbf0a95a2	-0.5413457
36	0xbed19972	-0.40937382
37	0xbe4278bf	-0.18991373
38	0x3f3e179b	0.7425477
39	0x3e2096a0	0.15682459
40	0xbf464532	-0.77449334
41	0x3ec8d5db	0.3922566
42	0xbe9ef47a	-0.31045896
43	0xbe49550b	-0.19661348
44	0x3f0d5d38	0.55220366
45	0xbed489bc	-0.41511333
46	0xbf0f3465	-0.5593932
47	0x3e837d80	0.25681686
48	0xbedd25c4	-0.43192875
49	0xbf2a6915	-0.6656659
50	0x3eb5d68b	0.35515246
51	0xbd98a5ac	-0.074534744
52	0xbe8439ba	-0.25825292
53	0x3ba232b4	0.004949892
54	0xbf171bb6	-0.5902666
55	0xbe9dd64d	-0.3082756
56	0x3f14e7f9	0.5816646
57	0x3e06fe5f	0.13182972
58	0xbecd4fa9	-0.40099838
59	0x3e6d6dfc	0.23186487
60	0xbf4337b1	-0.76256853
61	0x3f3bfbdd	0.7343119
62	0xbf2758c8	-0.65369844
63	0xbf2d05a9	-0.6758676
64	0x3bf9fc14	0.007628927
65	0xbe2b0ebb	-0.16704838
66	0x3e4ec4fd	0.20192333
67	0xbf0a6fa8	-0.54076624
68	0xbe58bbbb	-0.21165363
69	0xbf20ab30	-0.6276121
70	0x3ef6b322	0.48183542
71	0xbf0bed0b	-0.54658574
72	0xbc8d4b12	-0.01724771
73	0x3e563cd1	0.20921637
74	0xbe0875b0	-0.13326144
75	0xbf189455	-0.59601337
76	0x3f12dd65	0.5736907
77	0xbde9b14e	-0.11410771
78	0xbeefff0a	-0.46874267
79	0xbf2ac993	-0.6671383
80	0x3e199658	0.14998758
81	0xbe8425a7	-0.25809976
82	0xbcbe2cd2	-0.023214731
83	0x3dda9dea	0.10674651
84	0x3f1f668f	0.62265867
85	0xbebd6c76	-0.36996812
86	0x3eb02f89	0.34411266
87	0x3e06bbb4	0.1315754
88	0xbd71b3f7	-0.05900952
89	0xbdeebb49	-0.116568156
90	0x3d4240bd	0.04742502
91	0x3e41fda6	0.18944415
92	0x3ed6ab17	0.41927406
93	0x3eda373b	0.42620263
94	0x3e62bb7e	0.22141835
95	0xbd9f1d76	-0.07769291
96	0x3f1abd3e	0.6044501
97	0x3f003f59	0.5009666
98	0x3e120e42	0.14263251
99	0x3f352671	0.7076178
100	0xbeae01e2	-0.3398581
101	0x3d264aa7	0.040598538
102	0x3f736dfe	0.9508971
103	0x3e88bdf0	0.2670741
104	0x3ee0ae63	0.43883047
105	0x3d9f49ba	0.07777734
106	0x3f2562ea	0.64604056
107	0xbf29d234	-0.6633637
108	0xbe27f875	-0.16403373
109	0x3c28c806	0.010301596
110	0x3eebc58d	0.46049157
111	0x3d17433c	0.036929354
112	0x3e548da6	0.2075716
113	0xbeb4de30	-0.35325766
114	0x3efd8840	0.49518013
115	0x3e8e9b15	0.27852693
116	0x3e33dab0	0.17563891
117	0x3dfde3a1	0.123969324
118	0xbf22365f	-0.63364214
119	0xbebba364	-0.36648095
120	0xbf38d2f0	-0.72196865
121	0xbcc1cc18	-0.02365689
122	0x3f0a6d23	0.5407278
123	0xbce7e7db	-0.0283088
124	0xbe9d8952	-0.3076883
125	0x3f21135b	0.6292016
126	0x3ea99da7	0.33128092
127	0x3d551fc6	0.052032255
128	0xbea55d54	-0.32297766
129	0x3ec96b71	0.39339784
130	0xbec35fa2	-0.381589
131	0x3e90c92a	0.28278476
132	0x3ef81ee2	0.48461062
133	0x3f2350b1	0.63795
134	0xbcefcab3	-0.02927146
135	0xbe693a16	-0.22776064
136	0x3e41f31e	0.18940398
137	0x3e8bbbd6	0.27291745
138	0x3f80e4d7	1.0069836
139	0x3e9555bd	0.29166976
140	0x3f2a330a	0.6648413
141	0x3e6eb4ac	0.23311108
142	0xbcc975d0	-0.02459231
143	0xbf178dc7	-0.5920071
144	0xbf69b7f9	-0.91296345
145	0x3f570c2b	0.8400294
146	0x3eaad877	0.33368275
147	0x3f489259	0.7834831
148	0x3bee4fd0	0.007272698
149	0xbe8e3954	-0.27778113
150	0xbe607a66	-0.21921691
151	0xbd6fa90d	-0.05851083
152	0xbf2b6898	-0.6695647
153	0x3de5acb6	0.112145826
154	0x3e18abfc	0.14909357
155	0xbe788fe8	-0.24273646
156	0x3f648aaf	0.89274114
157	0xbeff58a1	-0.49872306
158	0xbf81611e	-1.0107763
159	0x3f29f84d	0.663945
160	0xbec1bd6c	-0.3783983
161	0xbf24d8f3	-0.6439354
162	0x3e2d4da4	0.16924149
163	0x3f3422c7	0.70365566
164	0x3f0f8ef2	0.5607749
165	0x3f202d05	0.62568694
166	0x3e82fe4f	0.25584647
167	0x3e704fcd	0.23467942
168	0x3f402d8b	0.75069493
169	0x3ec41c8e	0.38303035
170	0xbee6cdc0	-0.4507885
171	0x3f19176a	0.5980135
172	0xbd0f5be3	-0.03499974
173	0x3df7ab49	0.12093217
174	0xbf051da4	-0.51998353
175	0xbdeb0a32	-0.11476554
176	0x3ede2c8f	0.4339337
177	0xbe1a4f08	-0.1506921
178	0xbf440402	-0.76568615
179	0x3f399f1c	0.72508407
180	0xbe8bcc0b	-0.2730411
181	0xbf1076d6	-0.5643133
182	0x3ed8937c	0.42300022
183	0xbe26340e	-0.16230795
184	0x3f41790d	0.75575334
185	0xbf26dc63	-0.65180033
186	0xbf017e9b	-0.5058381
187	0xbf12a5e8	-0.572844
188	0x3eaf4245	0.34230247
189	0x3f14bbe5	0.58099204
190	0x3edb811c	0.4287194
191	0x3efe01bf	0.49610707
192	0xbe576845	-0.2103587
193	0x3f48b910	0.7840738
194	0xbe958cd7	-0.29209015
195	0xbeed82ae	-0.46388763
196	0x3eb8d40b	0.36099276
197	0x3e48eb45	0.19620998
198	0x3ddcd979	0.10783667
199	0x3f2ed184	0.68288445
200	0xbd962054	-0.07330385
201	0xbeb918d2	-0.3615175
202	0x3d923298	0.07138556
203	0xbe89688e	-0.2683758
204	0x3e367e04	0.17821509
205	0x3ddc6aff	0.107625954
206	0x3beff2a0	0.0073226243
207	0xbd7e59e3	-0.06209744
208	0x3f4640c3	0.7744257
209	0xbe8509de	-0.2598409
210	0xbf46476f	-0.7745275
211	0x3eece08e	0.46265072
212	0xbf12c1d2	-0.57326996
213	0x3ec3857b	0.38187775
214	0xbf00e1e7	-0.503447
215	0xbf0b3f62	-0.5439359
216	0xbf17a161	-0.5923062
217	0x3f213e66	0.6298584
218	0x3f2becfd	0.6715849
219	0x3eba5c0c	0.3639835
220	0xbe9ad412	-0.30239922
221	0x3f0c7f6e	0.5488194
222	0xbf1c944a	-0.6116377
223	0xbebb8091	-0.36621526
224	0xbd8ad26e	-0.067784175
225	0xbe81b6b8	-0.25334716
226	0x3f26dea8	0.65183496
227	0xbf2217be	-0.6331748
228	0x3eecc963	0.46247396
229	0x3ec921e5	0.39283672
230	0xbeed13b7	-0.46304104
231	0xbbab6d22	-0.0052315155
232	0x3f062f32	0.52415764
233	0xbf32d568	-0.6985688
234	0x3e98f291	0.29872563
235	0xbdd48eb8	-0.10378784
236	0xbf16eb65	-0.58952934
237	0x3f1007b7	0.5626177
238	0xbdc55a57	-0.096363716
239	0x3d04a5ef	0.03238481
240	0xbe55a7e3	-0.20864825
241	0xbf1ae86d	-0.60510904
242	0xbf2cb282	-0.6745988
243	0x3dd55c97	0.10418051
244	0xbc459a55	-0.012060721
245	0x3b295e99	0.0025843738
246	0x3ed16336	0.40896004
247	0x3ed897e8	0.42303395
248	0x3f3fb631	0.7488738
249	0xbeee4808	-0.4653933
250	0xbf23d0bf	-0.63990396
251	0xbeb7daa0	-0.35908985
252	0xbf3d52a2	-0.7395421
253	0xbd928e03	-0.07155993
254	0xbf081a86	-0.5316547
255	0x3cc5806f	0.024109093

decoders.0.decoder_net.3.weight f4 [32]
0	0x3f722e89	0.94602257
1	0x3f7ce230	0.98782635
2	0x3f7d1896	0.9886564
3	0x3f7d6a11	0.9898997
4	0x3f7db912	0.9911052
5	0x3f6ff423	0.937319
6	0x3f835b44	1.0262227
7	0x3f8450aa	1.0337117
8	0x3f87391f	1.0564307
9	0x3f938654	1.1525369
10	0x3f7df653	0.99203986
11	0x3f871135	1.0552126
12	0x3f824ca4	1.0179639
13	0x3f832486	1.0245521
14	0x3f81abd7	1.0130566
15	0x3f870acb	1.0550169
16	0x3f834d8c	1.025804
17	0x3f76dd5b	0.9643151
18	0x3f74cf72	0.95629036
19	0x3f8c178d	1.0944687
20	0x3f83f641	1.0309526
21	0x3f83a54a	1.0284817
22	0x3f867e4c	1.0507293
23	0x3f7c8a43	0.9864847
24	0x3f81ca94	1.0139947
25	0x3f8a8a35	1.0823427
26	0x3f85dd97	1.0458249
27	0x3f839e8d	1.0282761
28	0x3f905964	1.127728
29	0x3f7a2330	0.9770994
30	0x3f89a6a3	1.0753978
31	0x3f75dbcb	0.960385

decoders.0.decoder_net.3.bias f4 [32]
0	0x3db697fa	0.08915706
1	0x3d1149da	0.03547082
2	0xbcbb2449	-0.02284445
3	0xbc94bfe6	-0.01815791
4	0xbd21f9cf	-0.039544877
5	0x3d3959f5	0.045251805
6	0xbbd646fd	-0.006539224
7	0x3c9ac68e	0.018893506
8	0x3af9b08e	0.001904981
9	0x3cc820bc	0.024429671
10	0x3b0114ad	0.0019696162
11	0xbd9abcf3	-0.075555705
12	0x3ce8b71e	0.02840763
13	0xbd105084	-0.035233036
14	0x3d5efd26	0.05444064
15	0x3c971899	0.018444346
16	0x3c83c922	0.016087119
17	0xbe00efa5	-0.12591417
18	0xbdb71ebc	-0.08941409
19	0x3de8f2cb	0.11374434
20	0x3bbba9cf	0.00572703
21	0x3bb20cef	0.0054336707
22	0x3d1b8673	0.037970018
23	0x3dbd80c6	0.09253077
24	0x3c8f0224	0.017457075
25	0x3d575707	0.05257323
26	0xbd662ac8	-0.056193143
27	0x3c70b4b2	0.014691519
28	0x3dfa8df2	0.12234105
29	0xba8f8ef8	-0.0010952642
30	0x3caf8b04	0.021428593
31	0xbdcca976	-0.099932596

decoders.0.decoder_net.3.running_mean f4 [32]
0	0x3e7ffff8	0.24999988
1	0x3e7ffff8	0.24999988
2	0x3e7ffff8	0.24999988
3	0x3e7ffff8	0.24999988
4	0x3e7ffff8	0.24999988
5	0x3e7ffff8	0.24999988
6	0x3e7ffff8	0.24999988
7	0x3e7ffff8	0.24999988
8	0x3e7ffff8	0.24999988
9	0x3e7ffff8	0.24999988
10	0x3e7ffff8	0.24999988
11	0x3e7ffff8	0.24999988
12	0x3e7ffff8	0.24999988
13	0x3e7ffff8	0.24999988
14	0x3e7ffff8	0.24999988
15	0x3e7ffff8	0.24999988
16	0x3e7ffff8	0.24999988
17	0x3e7ffff8	0.24999988
18	0x3e7ffff8	0.24999988
19	0x3e7ffff8	0.24999988
20	0x3e7ffff8	0.24999988
21	0x3e7ffff8	0.24999988
22	0x3e7ffff8	0.24999988
23	0x3e7ffff8	0.24999988
24	0x3e7ffff8	0.24999988
25	0x3e7ffff8	0.24999988
26	0x3e7ffff8	0.24999988
27	0x3e7ffff8	0.24999988
28	0x3e7ffff8	0.24999988
29	0x3e7ffff8	0.24999988
30	0x3e7ffff8	0.24999988
31	0x3e7ffff8	0.24999988

decoders.0.decoder_net.3.running_var f4 [32]
0	0x3d824438	0.06360668
1	0x3d7abf40	0.061217546
2	0x3d5ef13f	0.05442929
3	0x3d906d47	0.07052093
4	0x3d731917	0.0593501
5	0x3da6caf6	0.081441805
6	0x3d83e77c	0.064406365
7	0x3d7763f3	0.060398053
8	0x3dbc2fa5	0.09188775
9	0x3d90ee56	0.07076709
10	0x3d602baa	0.05472914
11	0x3d6bb8ca	0.057549275
12	0x3d3e49b0	0.046456993
13	0x3d48b09d	0.048996557
14	0x3d39ad84	0.045331493
15	0x3dae02ab	0.084966026
16	0x3d9f17ed	0.07768235
17	0x3d26b8dc	0.04070364
18	0x3d832c3b	0.06404921
19	0x3d75c9a2	0.060006745
20	0x3d8befc3	0.0683284
21	0x3d7b88e1	0.061409835
22	0x3d8383bb	0.0642161
23	0x3d97c29f	0.07410168
24	0x3d6c931f	0.057757493
25	0x3d5f19c1	0.05446792
26	0x3d19d326	0.037554882
27	0x3d44339b	0.047900777
28	0x3d4e32d3	0.05034144
29	0x3d54e551	0.051976506
30	0x3d8d2a6c	0.06892857
31	0x3d252b6d	0.040324617

decoders.0.decoder_net.4.weight f4 [32, 32, 3, 3]
0	0xbcc06066	-0.023483466
1	0xbc8cf282	-0.01720548
2	0xbd2d1b6d	-0.042262483
3	0xbc37a652	-0.011209087
4	0x3d2e8ff2	0.042617746
5	0x3d67e400	0.056613922
6	0xbc679f0c	-0.014137041
7	0xbbebd2dc	-0.0071967673
8	0x3be20f9c	0.0068988334
9	0x3ce4a9c9	0.027912991
10	0x3c5014c7	0.012700266
11	0xbc9b9083	-0.018989807
12	0x3d09f7d3	0.03368361
13	0xbdb7de70	-0.089779735
14	0xbd1f7f11	-0.03893954
15	0xbd8cf3c9	-0.06882436
16	0x3d93183f	0.07182359
17	0x3c8590a7	0.016304327
18	0x3d1ad992	0.037805147
19	0x3db2dff9	0.08734126
20	0xba11ede3	-0.0005566759
21	0xbb9af654	-0.0047290716
22	0x3d6af92d	0.05736654
23	0xbd1fbbbb	-0.038997393
24	0x3cf6d8b9	0.030132638
25	0x3d6fa9de	0.058511607
26	0x3be21184	0.0068990607
27	0x3ca12e85	0.019675503
28	0x3d4b8879	0.049690697
29	0xbd243707	-0.04009154
30	0x3d6e1ece	0.058134846
31	0xbd7f3308	-0.062304527
32	0xbccefffc	-0.025268547
33	0x3d404c56	0.0469478
34	0x3c74ddfd	0.014945504
35	0x3d0d7302	0.034533508
36	0x3d1a0ed6	0.037611805
37	0xbdb8d6e3	-0.090253614
38	0x3d8f61aa	0.0700105
39	0xbd31b4a4	-0.043385163
40	0xbd927fc9	-0.07153279
41	0xbd2dacf5	-0.042401273
42	0xbd9739fd	-0.07384107
43	0x3c24ad57	0.010051093
44	0x3d19e626	0.037573002
45	0x3d3a5161	0.045487765
46	0x3c59528c	0.01326431
47	0xbc11270e	-0.008859409
48	0xbc8f6104	-0.017502315
49	0xbb6ab832	-0.0035815355
50	0x3d39cd1c	0.045361623
51	0x3c95f1c0	0.018303752
52	0xbd426152	-0.047456093
53	0x3d0beb4d	0.034159947
54	0x3cb1f14e	0.021721508
55	0x3ccb82d4	0.024842657
56	0x3d6f50a2	0.058426507
57	0x3d2efa32	0.042719074
58	0x3da3f36a	0.08005412
59	0xbaacd400	-0.001318574
60	0xba6f9188	-0.00091388123
61	0x3d697eb4	0.0570056
62	0x3bf85f2f	0.007579706
63	0x3b14d6f4	0.002271113
64	0xbc3f598b	-0.011679064
65	0xbd1bedfd	-0.03806876
66	0xbc3d0a23	-0.011538061
67	0xbd1e3287	-0.038622405
68	0x3d20bb1a	0.039240934
69	0x3daa2054	0.08306947
70	0xbc45fb51	-0.012083844
71	0xbd6627fc	-0.056190476
72	0xbc98fb2d	-0.018674457
73	0xbc9a6996	-0.018849175
74	0xbd0ee17a	-0.034883
75	0xbd564aab	-0.052317303
76	0x3c896331	0.016770931
77	0xbb8b5228	-0.004251737
78	0xbc8b32a0	-0.016991913
79	0xbcafa34e	-0.021440174
80	0xbd7a9da2	-0.061185487
81	0x3d98100b	0.07424935
82	0xbd0528c8	-0.032509595
83	0xbd794a4f	-0.06086188
84	0x3cbd4402	0.023103718
85	0xbd7cf0c5	-0.061753053
86	0x3c4d1509	0.012517222
87	0xbbaf4d65	-0.0053498023
88	0xbc67c56e	-0.014146192
89	0xbd8898c8	-0.06669766
90	0xbdcd7a19	-0.10033054
91	0x3d6573b6	0.056018554
92	0x3bf234e0	0.007391557
93	0x3d8f6086	0.07000832
94	0x3b7a53be	0.0038196887
95	0xbd7650dd	-0.06013571
96	0x3d0681b5	0.032838542
97	0xbd3c2bab	-0.045940083
98	0xbbdc2ea7	-0.0067194286
99	0x3d627210	0.05528456
100	0xbc818ea0	-0.01581508
101	0x3d02d0c7	0.031937387
102	0x3d08d897	0.03340968
103	0x3d8d3e19	0.0689661
104	0xbc55dec2	-0.013053598
105	0xbb91fa2c	-0.0044548716
106	0xbd12bcb4	-0.035824493
107	0x3b3a915e	0.0028467993
108	0xba0b0c60	-0.0005304273
109	0xbdb6cfdb	-0.08926364
110	0x3d0b0d2f	0.03394812
111	0x3d828996	0.06373899
112	0xbd43854a	-0.047734536
113	0xbbceacd9	-0.006307226
114	0xbc198a58	-0.009371363
115	0x3c3f5359	0.0116775865
116	0xb9fe202a	-0.0004847062
117	0xbd5d9827	-0.054100182
118	0xbcebe7ed	-0.028797114
119	0xbd38c782	-0.04511214
120	0xbbe4c0ea	-0.006981005
121	0xbbdf1219	-0.0068075773
122	0x3d72ca5e	0.059275024
123	0xbd69214f	-0.05691653
124	0x3d0a96c9	0.033835206
125	0xbdac6831	-0.084183104
126	0x3d451234	0.048113063
127	0xbd2e7258	-0.042589515
128	0x3d108725	0.035285134
129	0xbd1361d6	-0.035981975
130	0xba3c03d0	-0.0007172199
131	0x3ccfd772	0.025371287
132	0xbd922002	-0.07135011
133	0xbd2e8cd8	-0.042614788
134	0xba13c6c9	-0.0005637226
135	0xbd80eb74	-0.06294909
136	0x3d3d5041	0.046219114
137	0x3b0dab86	0.0021617129
138	0x3ca7e668	0.020495608
139	0x3c0a0fed	0.008426649
140	0x3cd8fa04	0.026486404
141	0xbcfc15ce	-0.030772116
142	0xbc845f50	-0.01615873
143	0x3d3d4b10	0.046214163
144	0x3cd35445	0.025797019
145	0x3ce9406f	0.028473107
146	0xbdb34e14	-0.087551266
147	0xbda048b6	-0.078263685
148	0xbc190240	-0.009338915
149	0xbbd8a00d	-0.0066108764
150	0x3cc4e553	0.024035132
151	0x3d3a12db	0.04542814
152	0xbd2c71ef	-0.042100843
153	0x3d1b7d51	0.037961308
154	0xbc4f2c8c	-0.012644898
155	0xbd67d8b7	-0.05660316
156	0x3a2ff0d2	0.0006711605
157	0x3d17619e	0.03695833
158	0xbd92b968	-0.0716427
159	0x3d2aba8f	0.041681822
160	0xbd522183	-0.05130149
161	0x3d4e81e4	0.050416842
162	0x3d1be014	0.038055494
163	0xbbcbfa5d	-0.006224914
164	0xbd31f271	-0.0434441
165	0xbc9cf2a3	-0.019158667
166	0x3cc7a37f	0.024369953
167	0xbdd67aae	-0.10472618
168	0xbd97ec2b	-0.07418092
169	0xbcb3fa37	-0.021969898
170	0x3b247b8a	0.002509805
171	0x3d30d8c2	0.043175466
172	0x3d904080	0.070435524
173	0xbc4d8b47	-0.012545413
174	0x3d0a27a5	0.033729214
175	0xbd398d2e	-0.045300655
176	0xbc1b6dfe	-0.009486673
177	0x3d8be090	0.06829941
178	0xbd986e56	-0.0744292
179	0x3cd2f94a	0.025753636
180	0xbe016b01	-0.12638475
181	0xbd0d1f22	-0.03445352
182	0x3d477b2c	0.04870145
183	0xbd15502a	-0.036453404
184	0xbc5e8102	-0.013580563
185	0xbd7ea66d	-0.062170435
186	0xbc60d034	-0.0137215145
187	0x3c667b49	0.014067479
188	0x3cbd3861	0.023098173
189	0xbb3320b4	-0.0027332725
190	0xbd3949ed	-0.045236517
191	0xbcc3363e	-0.023829576
192	0x3b128a32	0.0022360203
193	0x3c273d99	0.010207557
194	0xbd56646d	-0.052341867
195	0xbd7bb1b6	-0.061448775
196	0x3c6e99f6	0.014563074
197	0xbd143557	-0.03618368
198	0x3bf240ea	0.0073929923
199	0xbd901b79	-0.0703649
200	0xbd6a597a	-0.057214238
201	0x3c203776	0.009778848
202	0x3bfb1bdd	0.0076632337
203	0x3c5960d0	0.013267711
204	0x3d1dffca	0.038574018
205	0x3d482f4b	0.048873227
206	0xbd1d73a1	-0.03844035
207	0xbb274105	-0.0025520932
208	0xbce67ffe	-0.028137203
209	0x3ccc10a2	0.024910275
210	0xbbe83df4	-0.0070874635
211	0x3cbb3f7a	0.022857416
212	0x3d1d2f91	0.03837544
213	0x3ccc7e8f	0.024962692
214	0xbbd29553	-0.0064264922
215	0x3d90173c	0.070356816
216	0x3d10a38f	0.03531223
217	0x3c8a63db	0.016893318
218	0x3c261e1c	0.010139015
219	0xbc9b037a	-0.018922556
220	0xbd191bb0	-0.03737992
221	0x3b8e5eee	0.0043448126
222	0xbcb86652	-0.022509728
223	0xbd88f6df	-0.06687712
224	0xbc050680	-0.0081192255
225	0xbcdd8bbf	-0.027044175
226	0x3d513ef4	0.051085427
227	0x3ce54161	0.027985277
228	0x3d46af07	0.048506763
229	0xbc8d7b97	-0.017270846
230	0x3bae8471	0.005325847
231	0xbb916f46	-0.0044383137
232	0x3cdaaab0	0.026692718
233	0x3b09cb84	0.0021025846
234	0x3d0f4d29	0.034985695
235	0xbbe9e3f0	-0.007137768
236	0xbd25408f	-0.04034477
237	0xbc0b3211	-0.0084958235
238	0xbe236a43	-0.15958504
239	0xbb80896e	-0.003922633
240	0xbb5fae26	-0.00341309
241	0xbbd6aad7	-0.0065511274
242	0x3c0de3e2	0.0086602885
243	0xbc25eefb	-0.010127778
244	0xbd94cb23	-0.07265308
245	0x3c188b32	0.0093105305
246	0x3c717080	0.014736295
247	0xbd3b3a92	-0.045710154
248	0xbc898743	-0.01678813
249	0x3d7f6674	0.062353566
250	0xbd83b0d9	-0.064302154
251	0xbd0c011c	-0.034180745
252	0x3d736f96	0.05943259
253	0x3c5cf5c9	0.013486334
254	0x3ce045a5	0.02737696
255	0x3be7e038	0.0070762895

decoders.0.decoder_net.4.bias f4 [32]
0	0x3d9e9ed3	0.07745137
1	0x3cf92b68	0.030416206
2	0x3d367f0a	0.044554748
3	0x3d31e544	0.043431535
4	0xbb89069e	-0.004181697
5	0xbded6dcd	-0.115932085
6	0x3c79fadd	0.015257564
7	0xbd55bf5f	-0.05218446
8	0xbdc0f884	-0.094224006
9	0x3c9281e5	0.017884204
10	0x3ce83c77	0.028349144
11	0xbd4ca318	-0.049960226
12	0xbd0a3c33	-0.033748817
13	0xbcded915	-0.027203122
14	0xbc7a174c	-0.0152643435
15	0xbd900a15	-0.07033173
16	0x3c19254a	0.009347269
17	0xbd319790	-0.043357432
18	0xbd264a10	-0.040597975
19	0xbc83179d	-0.01600247
20	0x3cb7e836	0.022449594
21	0xbd5fb748	-0.05461815
22	0xbd2be9a9	-0.041970883
23	0xbbe72220	-0.0070536286
24	0xbbbb848a	-0.005722587
25	0x38ea23c1	0.00011164649
26	0x3d99d72a	0.075117424
27	0xbc5c3218	-0.013439678
28	0x3c86e1a0	0.016465008
29	0xbde9d42e	-0.11417423
30	0xbd437c0f	-0.047725733
31	0x3cb54c69	0.022131162

decoders.0.decoder_net.6.weight f4 [32]
0	0x3f6ce1f3	0.9253227
1	0x3f6cba97	0.92472214
2	0x3f6f3376	0.934379
3	0x3f7948d8	0.97376776
4	0x3f6caa38	0.92447233
5	0x3f62cf4e	0.8859757
6	0x3f76d0ce	0.9641236
7	0x3f7d857f	0.99031824
8	0x3f7935ec	0.97347903
9	0x3f713c0e	0.9423226
10	0x3f5dc3b3	0.8662674
11	0x3f695e5d	0.9115961
12	0x3f6ce4cf	0.92536634
13	0x3f716176	0.9428934
14	0x3f5d0d19	0.8634811
15	0x3f864707	1.0490426
16	0x3f7280e2	0.9472791
17	0x3f8a38c3	1.0798572
18	0x3f5dd486	0.8665241
19	0x3f80bb60	1.0057182
20	0x3f82534d	1.0181671
21	0x3f756d20	0.95869637
22	0x3f74487c	0.954231
23	0x3f6596a5	0.8968299
24	0x3f6d3826	0.926638
25	0x3f68ca93	0.90934104
26	0x3f6b0e16	0.9181837
27	0x3f846882	1.0344393
28	0x3f79a51b	0.97517556
29	0x3f71383b	0.94226426
30	0x3f624398	0.8838439
31	0x3f5228af	0.8209333

decoders.0.decoder_net.6.bias f4 [32]
0	0xbd09bb6c	-0.033626005
1	0xbd4ebf3b	-0.05047534
2	0x3d0b2eb2	0.03398008
3	0xbcc76f77	-0.024345143
4	0xbd0b0a6f	-0.033945497
5	0xbd4b51c4	-0.049638525
6	0xbd216377	-0.039401498
7	0xbbd2034f	-0.006409086
8	0x3ccc0b94	0.024907865
9	0xbc096e8c	-0.008388173
10	0x3cd37682	0.025813345
11	0xbd458755	-0.048224766
12	0xbd2454e8	-0.040120035
13	0xbceadbcf	-0.028669266
14	0x3bb38f09	0.0054796976
15	0x3ddc213b	0.10748526
16	0xbd1692cc	-0.03676109
17	0x3e1f49a1	0.15555431
18	0xbc9f8ff0	-0.019477814
19	0xbbdf7793	-0.0068196743
20	0x3d01d420	0.03169644
21	0x3d86bfa7	0.065795235
22	0x3d9fd202	0.07803728
23	0xbd452271	-0.04812855
24	0xbc9bf989	-0.019039886
25	0x3c37346e	0.011181934
26	0xbd8a8d90	-0.06765282
27	0x3d300f07	0.04298308
28	0x3bcaaf34	0.0061854366
29	0xbd0ec7ff	-0.0348587
30	0xbd06401d	-0.032775987
31	0x3c9c73c8	0.019098178

decoders.0.decoder_net.6.running_mean f4 [32]
0	0x3e12491e	0.14285704
1	0x3e12491e	0.14285704
2	0x3e12491e	0.14285704
3	0x3e12491e	0.14285704
4	0x3e12491e	0.14285704
5	0x3e12491e	0.14285704
6	0x3e12491e	0.14285704
7	0x3e12491e	0.14285704
8	0x3e12491e	0.14285704
9	0x3e12491e	0.14285704
10	0x3e12491e	0.14285704
11	0x3e12491e	0.14285704
12	0x3e12491e	0.14285704
13	0x3e12491e	0.14285704
14	0x3e12491e	0.14285704
15	0x3e12491e	0.14285704
16	0x3e12491e	0.14285704
17	0x3e12491e	0.14285704
18	0x3e12491e	0.14285704
19	0x3e12491e	0.14285704
20	0x3e12491e	0.14285704
21	0x3e12491e	0.14285704
22	0x3e12491e	0.14285704
23	0x3e12491e	0.14285704
24	0x3e12491e	0.14285704
25	0x3e12491e	0.14285704
26	0x3e12491e	0.14285704
27	0x3e12491e	0.14285704
28	0x3e12491e	0.14285704
29	0x3e12491e	0.14285704
30	0x3e12491e	0.14285704
31	0x3e12491e	0.14285704

decoders.0.decoder_net.6.running_var f4 [32]
0	0x3b90864c	0.0044105407
1	0x3b42d6b0	0.0029730015
2	0x3b67de26	0.0035380214
3	0x3bc5f6e3	0.006041394
4	0x3ba184e2	0.004929171
5	0x3ba3142a	0.004976769
6	0x3b90117e	0.0043966165
7	0x3c11d23e	0.008900223
8	0x3bd87378	0.006605562
9	0x3b75f7a7	0.0037531646
10	0x3b9af2bc	0.004728643
11	0x3b97ea79	0.0046361056
12	0x3b8212d3	0.003969529
13	0x3b79de6f	0.0038126966
14	0x3b81f7e2	0.0039663175
15	0x3b57c164	0.0032921666
16	0x3b905d9c	0.0044056904
17	0x3b16accf	0.0022991186
18	0x3b66c5ca	0.0035213106
19	0x3b5e4616	0.0033916286
20	0x3bc8fc67	0.0061336043
21	0x3b66004a	0.0035095387
22	0x3b80d039	0.003931072
23	0x3b6a0b09	0.0035712144
24	0x3ba9b62e	0.005179188
25	0x3b6d428f	0.0036203002
26	0x3b713feb	0.003681178
27	0x3b58b03f	0.0033064035
28	0x3bbbf990	0.0057365373
29	0x3b9f88b3	0.0048685907
30	0x3b7c939f	0.0038540137
31	0x3b658c20	0.0035026148

decoders.0.decoder_net.7.weight f4 [32, 16, 3, 3]
0	0xbd844414	-0.06458297
1	0xbb9f4581	-0.0048605804
2	0xbd666e4b	-0.056257527
3	0xbdba3d01	-0.09093667
4	0x3cceebde	0.025258955
5	0x3d2f3c0f	0.042781886
6	0xbb6d56ac	-0.003621499
7	0x3d68dcc8	0.05685118
8	0xbca21264	-0.01978416
9	0x3c6049ed	0.0136895
10	0x3d32aeff	0.04362392
11	0xbd25adf0	-0.040449083
12	0xbc0c0097	-0.0085450625
13	0x3cbb540d	0.022867227
14	0xbbc7e916	-0.006100784
15	0x3d38c14f	0.04510623
16	0x3d27327e	0.040819637
17	0x3cdaa0bf	0.026687978
18	0x3c301aa4	0.010748539
19	0x3d7828a6	0.06058564
20	0xbd97d10d	-0.0741292
21	0xbd8fded7	-0.07024925
22	0x3d3d46bb	0.046210032
23	0xbd864b57	-0.06557339
24	0xbcac1524	-0.021006174
25	0x3b8884a8	0.0041662045
26	0xbcef60d7	-0.029220982
27	0xbccac944	-0.024754174
28	0x3d337e75	0.04382177
29	0x3d8fa44f	0.07013761
30	0xbd6ac135	-0.057313163
31	0x3ce36c52	0.027761612
32	0xbcc46b5a	-0.02397697
33	0x3c76c1b4	0.015060831
34	0xbcb9c874	-0.022678591
35	0xbbbd800a	-0.0057830857
36	0x3d22de4c	0.03976278
37	0x3d1f5b36	0.038905345
38	0xbd298dcb	-0.04139499
39	0xbdab4785	-0.08363251
40	0xbb13966f	-0.0022520085
41	0xbb18e47d	-0.002332955
42	0x3d563ea8	0.052305847
43	0xbdbc56ac	-0.09196219
44	0x3d0dd58d	0.034627486
45	0xba3f856e	-0.00073059544
46	0x3b972bdc	0.0046133827
47	0x3d1bfef1	0.038084928
48	0xbd26bd9b	-0.040708166
49	0xbcca3ef7	-0.024688227
50	0xbc860a3c	-0.016362302
51	0x3a5adbb8	0.00083487807
52	0x3d5d893a	0.054085948
53	0xbd8d53ac	-0.06900725
54	0x3d1abf48	0.037780076
55	0xbd01f703	-0.03172971
56	0xbbdd2e54	-0.0067499075
57	0xbd340e84	-0.043959156
58	0x3c0c9af5	0.0085818665
59	0xbd71effd	-0.05906676
60	0xbcc46932	-0.023975942
61	0xbd884b27	-0.06654959
62	0xbd899b7e	-0.06719111
63	0x3dbee156	0.09320323
64	0x3d0e28b5	0.03470679
65	0xbd1eebba	-0.038799025
66	0x3cdca90f	0.026936082
67	0x3b124f46	0.0022325083
68	0xbdc5364d	-0.09629498
69	0xbdbe7462	-0.09299542
70	0xbdfb290d	-0.12263689
71	0xbd2bb0ca	-0.041916646
72	0xbc8a36b0	-0.01687178
73	0x3c84e6c1	0.016223313
74	0xbd85b4c8	-0.06528622
75	0xb9d70b30	-0.0004101633
76	0xbdb0f407	-0.086402945
77	0xbce248ff	-0.027622698
78	0xbd94c616	-0.072643444
79	0xbd056c5e	-0.03257405
80	0xbcd4048a	-0.02588107
81	0x3bc74e56	0.0060823364
82	0xbc16f3ca	-0.009213397
83	0xbd79f66e	-0.06102603
84	0x3c8971e9	0.01677795
85	0xbddf8775	-0.10914508
86	0x3ccfd66d	0.0253708
87	0xbb9e6cda	-0.0048347535
88	0x3c15aff3	0.009136188
89	0xbd815ab4	-0.063161284
90	0x3cb73689	0.022364872
91	0x3d891f64	0.066954404
92	0xbd26aba0	-0.040691018
93	0xbd0e903c	-0.03480552
94	0xbd187ccf	-0.0372284
95	0xbd14c795	-0.03632315
96	0x3c85c44c	0.016328953
97	0x3d862e43	0.065517925
98	0x3c8b6280	0.017014742
99	0xbd238fb4	-0.039931968
100	0x3d8f61a3	0.070010446
101	0xbcede7cb	-0.029041192
102	0xbceb6009	-0.028732317
103	0xbb859e12	-0.0040776813
104	0xbd619d7c	-0.05508183
105	0x3d863d51	0.06554664
106	0x3d903f15	0.07043282
107	0xbd8704ba	-0.065926984
108	0xbdbcab2f	-0.09212338
109	0xbdd2fddd	-0.10302327
110	0xbc74f85d	-0.014951793
111	0x3bf3fd74	0.0074459855
112	0x3aad9e22	0.001324598
113	0x3c82f675	0.01598666
114	0xbb79861c	-0.003807432
115	0xbd9d9882	-0.07695104
116	0xbd34c36a	-0.044131674
117	0x3c78778e	0.015165223
118	0xbda91153	-0.082552575
119	0xbd66c043	-0.0563357
120	0x3c3c78eb	0.011503438
121	0x3d126eeb	0.03575031
122	0xbc67daab	-0.014151256
123	0x3c8baa3a	0.017048944
124	0x3c4d1d2f	0.012519165
125	0xbbe52c59	-0.006993812
126	0x3c90b2f8	0.017663464
127	0xbda05fcf	-0.07830774
128	0xbddbccd5	-0.10732428
129	0xbd72ccd4	-0.05927737
130	0xbdb8c6c8	-0.090222895
131	0x3d0d49c0	0.03449416
132	0x3d4bbc7b	0.049740296
133	0x3c42a40b	0.011879931
134	0x3d6dd999	0.058068845
135	0x3d19d483	0.037556183
136	0xbca10e66	-0.019660186
137	0xbda6f87d	-0.08152864
138	0x3cfa689a	0.030567456
139	0x3cf678e5	0.030086944
140	0x3dbb1448	0.09134728
141	0xbd800708	-0.06251341
142	0x3d792f7c	0.0608363
143	0x3d2d485c	0.042305335
144	0xbd4e6a1f	-0.050394174
145	0xbd9ac04f	-0.07556211
146	0xbc1de2f8	-0.009636633
147	0x3c857785	0.016292343
148	0xbd189961	-0.03725565
149	0xbd3f27c2	-0.046668775
150	0xbcf75066	-0.030189704
151	0xbc62c561	-0.013841004
152	0x3d82929a	0.06375618
153	0x3cb169c5	0.02165688
154	0xbb9ccb63	-0.004784988
155	0xbcb54f05	-0.022132406
156	0x3d91cd5c	0.07119247
157	0xbce5f4fa	-0.028070915
158	0xbc5557aa	-0.013021389
159	0x3d2967e7	0.041358855
160	0x3d883648	0.06650978
161	0xbc398339	-0.01132279
162	0xbd340340	-0.043948412
163	0x3d824d52	0.06362404
164	0xbd26ba90	-0.040705264
165	0xbd7cb556	-0.061696373
166	0xbd69e877	-0.05710646
167	0xbe0ef757	-0.1396154
168	0xbd35443a	-0.04425452
169	0xbd10dc2b	-0.03536622
170	0x3cf88eb5	0.030341486
171	0x3da858aa	0.08220036
172	0x3c75149d	0.014958528
173	0xbc2db33f	-0.010601818
174	0xbd3a112e	-0.04542654
175	0xbcf364a5	-0.029711077
176	0xbd190ac4	-0.037363783
177	0xbc0f70e4	-0.008754943
178	0xbd2b6786	-0.041846775
179	0xbdd4bb64	-0.103873044
180	0x3d33531d	0.043780435
181	0xbd33d0c1	-0.043900255
182	0x3a7df3c5	0.00096875086
183	0x3d2b9c26	0.04189696
184	0xbd23d71a	-0.04000006
185	0x3b80ca11	0.003930338
186	0x3c5559fe	0.013021944
187	0xbd4346be	-0.047674887
188	0xbbc0ec0b	-0.0058875135
189	0x3a871735	0.0010306599
190	0x3d53be19	0.051694963
191	0x3c820578	0.015871748
192	0x3d04f45b	0.032459598
193	0xbdeeb98c	-0.11656484
194	0xbc122fef	-0.008922561
195	0xbd7caa97	-0.061686125
196	0x3d0c5fca	0.03427104
197	0x3d3f226a	0.04666368
198	0xbd8dfef8	-0.06933397
199	0x3c974a0f	0.018467931
200	0x3b69687d	0.0035615258
201	0xbd2d3405	-0.042285938
202	0xbe04cee0	-0.12969542
203	0xbd9d7342	-0.07687999
204	0xbd5b0c8b	-0.05347876
205	0x3c443bf9	0.011977189
206	0x3d7d41cf	0.061830338
207	0xbba3ee48	-0.0050027706
208	0xbd3f3564	-0.046681777
209	0x3cc8391c	0.024441294
210	0xbc4d98b3	-0.012548613
211	0x3b848e97	0.0040453183
212	0xbda12f2b	-0.07870325
213	0xbb332c8a	-0.002733978
214	0xbd76714d	-0.060166646
215	0x3cd76db4	0.026297428
216	0x3d9cda30	0.076588035
217	0x399ca63e	0.000298785
218	0xbd79b5b0	-0.060964286
219	0xbda00107	-0.07812696
220	0xbd36d829	-0.04463974
221	0xbba40dc1	-0.0050065224
222	0xbd5a1d08	-0.053250343
223	0xbd58f8dd	-0.05297171
224	0xbc1f1cd7	-0.009711466
225	0x3cd3a7f2	0.025836919
226	0xbd19edfa	-0.037580468
227	0xbcbbba4f	-0.022915987
228	0xbc594415	-0.013260861
229	0x3d276771	0.040870134
230	0xbcf2c381	-0.02963424
231	0x3cc7d8a6	0.024395298
232	0xbdbb7d94	-0.091548115
233	0x3c0159ec	0.007894974
234	0xbcc426c9	-0.023944275
235	0xbd8a6b27	-0.06758719
236	0xbb05a1c1	-0.0020390602
237	0xbd87b2af	-0.06625878
238	0xbda22984	-0.07918075
239	0xbcce3b11	-0.02517465
240	0xbb4082b0	-0.002937477
241	0xbdbb2f7a	-0.09139915
242	0xbd884c1e	-0.06655143
243	0xbd85594f	-0.06511175
244	0x3daabca0	0.083367586
245	0x3c1cf8a7	0.009580768
246	0xbdaf067b	-0.08546158
247	0xbcc07bc8	-0.023496523
248	0xbd3b76fa	-0.04576776
249	0x3cef81ec	0.029236756
250	0xbd8e9997	-0.06962889
251	0xbcf6629f	-0.030076323
252	0x3cc2252f	0.023699371
253	0xbdc72b1e	-0.09725021
254	0xbd82258c	-0.06354818
255	0xbd60227e	-0.054720394

decoders.0.decoder_net.7.bias f4 [16]
0	0x3d05a0f6	0.032624207
1	0xbd43fa0d	-0.04784589
2	0xbc100b91	-0.00879182
3	0x3d4cac1e	0.04996883
4	0x3c7a8cd5	0.015292366
5	0xbd6ce691	-0.057837073
6	0xbc9bc3cc	-0.019014262
7	0x3de5f5c2	0.11228515
8	0x3d44c774	0.048041776
9	0x3dee7b51	0.116446145
10	0xbd969807	-0.07353216
11	0x3be8a402	0.0070996294
12	0x3d446000	0.047943115
13	0x3cdf91ab	0.02729114
14	0x3cbe5054	0.023231663
15	0x3d117791	0.035514418

decoders.0.decoder_net.9.weight f4 [16]
0	0x3f74e4d9	0.95661694
1	0x3f6ff3ec	0.9373157
2	0x3f6f459f	0.9346561
3	0x3f6d3237	0.92654747
4	0x3f70b762	0.9402982
5	0x3f756165	0.9585174
6	0x3f70aba2	0.9401189
7	0x3f6a9d47	0.91646236
8	0x3f70405a	0.9384819
9	0x3f681f86	0.906731
10	0x3f6c1e4a	0.9223372
11	0x3f6d63ef	0.9273061
12	0x3f6511ea	0.8948046
13	0x3f63df11	0.8901225
14	0x3f703799	0.93834835
15	0x3f70d569	0.9407564

decoders.0.decoder_net.9.bias f4 [16]
0	0x3d4cf8fa	0.05004213
1	0xbd8e38ed	-0.069444515
2	0x3d71231d	0.058871377
3	0xbd529386	-0.05141022
4	0xbc9cd704	-0.019145496
5	0x3c35a921	0.011087687
6	0xbe0547a4	-0.1301561
7	0xbd82cab5	-0.063863195
8	0x3e08704e	0.13324091
9	0xbde81a37	-0.11333125
10	0xbc502f42	-0.01270658
11	0xbe3c526b	-0.18390815
12	0x3d5c9e70	0.053862035
13	0xbe20a89e	-0.15689322
14	0x3dbed11d	0.09317229
15	0x3c1fef18	0.009761594

decoders.0.decoder_net.9.running_mean f4 [16]
0	0x3d92491e	0.07142852
1	0x3d92491e	0.07142852
2	0x3d92491e	0.07142852
3	0x3d92491e	0.07142852
4	0x3d92491e	0.07142852
5	0x3d92491e	0.07142852
6	0x3d92491e	0.07142852
7	0x3d92491e	0.07142852
8	0x3d92491e	0.07142852
9	0x3d92491e	0.07142852
10	0x3d92491e	0.07142852
11	0x3d92491e	0.07142852
12	0x3d92491e	0.07142852
13	0x3d92491e	0.07142852
14	0x3d92491e	0.07142852
15	0x3d92491e	0.07142852

decoders.0.decoder_net.9.running_var f4 [16]
0	0x3b4acf75	0.0030946408
1	0x3b4d3675	0.0031312976
2	0x3b3b7adc	0.0028607165
3	0x3b53a75a	0.0032295794
4	0x3b91dc0e	0.0044512814
5	0x3b85c06a	0.0040817754
6	0x3b85f658	0.0040882044
7	0x3b496ae2	0.0030733873
8	0x3b4dae00	0.003138423
9	0x3b2235d1	0.0024751315
10	0x3b34d9a5	0.0027595547
11	0x3b5bee6b	0.0033558856
12	0x3abaef67	0.0014262021
13	0x3af4fa10	0.0018690247
14	0x3b46e9f6	0.0030351854
15	0x3b3fa853	0.0029244616

decoders.0.decoder_net.10.weight f4 [16, 1, 3, 3]
0	0xbe3e1e18	-0.18566167
1	0xbe377bca	-0.17918316
2	0xbd1b262e	-0.037878208
3	0xbc48ff11	-0.012267844
4	0xbe853f5c	-0.26024902
5	0xbe5518cd	-0.20810242
6	0xbdbc6478	-0.091988504
7	0x3e112bec	0.14176911
8	0x3dcbecfd	0.09957311
9	0xbd32b021	-0.043625
10	0xbe65b645	-0.22432812
11	0x3e11ff36	0.14257511
12	0xbe69a4c7	-0.22816764
13	0xbe627a96	-0.22117075
14	0xbe21a320	-0.15784883
15	0x3e4fe413	0.20301847
16	0x3d41f71e	0.04735481
17	0x3c5c1ab6	0.013434103
18	0x3e7f1cdc	0.24913353
19	0x3e6f72b4	0.233836
20	0xbdb24523	-0.08704593
21	0x3e4c3970	0.19943786
22	0x3e5a31d1	0.21308066
23	0xbc588e08	-0.013217457
24	0x3e12d357	0.14338432
25	0xbe40f4a3	-0.18843322
26	0x3d08c5cf	0.03339177
27	0x3df1c505	0.118051566
28	0x3dd7663e	0.10517548
29	0xbe84ec53	-0.2596155
30	0xbd5937bb	-0.053031664
31	0xbe526f55	-0.20550282
32	0xbe5b155b	-0.21394865
33	0xbd38d67e	-0.04512643
34	0xbcb59347	-0.022164954
35	0xbc86874b	-0.016421935
36	0xbd5eef19	-0.05442724
37	0x3d8cb4f5	0.06870452
38	0xbd24606c	-0.040131018
39	0xbde6ab04	-0.112630874
40	0x3e45b465	0.19307096
41	0x3e8b08d4	0.27155173
42	0xbe78dbf4	-0.24302655
43	0xbe46cd37	-0.19414221
44	0xbe147e92	-0.14501408
45	0xbe294df2	-0.1653364
46	0xbe609651	-0.21932341
47	0xbe3da608	-0.18520367
48	0xbe601168	-0.2188164
49	0x3e3bf88c	0.18356532
50	0x3e6d364c	0.23165244
51	0xbe94ff49	-0.29101017
52	0xbe27880b	-0.1636049
53	0x3d0f3af5	0.034968335
54	0xbe46822c	-0.19385594
55	0xbe95af9c	-0.29235542
56	0x3e50a5db	0.20375769
57	0xbd76714c	-0.060166642
58	0xbe8aacc9	-0.2708495
59	0x3d84a8a9	0.06477482
60	0x3e0a9745	0.13534267
61	0x3d30f305	0.04320051
62	0x3e01dae9	0.12681164
63	0xbe083b9b	-0.13303988
64	0x3e100154	0.14063007
65	0x3e213197	0.15741573
66	0xbda1e108	-0.079042494
67	0x3e28abbf	0.16471766
68	0x3e5eeb64	0.21769482
69	0xbe3e7339	-0.18598641
70	0x3e665e00	0.22496796
71	0x3e6ff271	0.23432328
72	0xbcaa688d	-0.020801807
73	0xbe80646d	-0.2507662
74	0xbd26d676	-0.04073187
75	0x3e803fec	0.2504877
76	0x3e0a9c8a	0.13536277
77	0x3d47fea1	0.048826817
78	0x3e3c1597	0.18367611
79	0x3d16fb9b	0.036861043
80	0xbe480c19	-0.19535865
81	0xbbde277a	-0.0067796083
82	0x3e52bed2	0.20580605
83	0xbe413b25	-0.18870218
84	0x3e083b7b	0.1330394
85	0x3db0b237	0.08627742
86	0x3e4d125e	0.20026538
87	0x3e1a57a9	0.15072502
88	0x3e0adf6d	0.13561793
89	0x3dfd10c5	0.12356714
90	0xbe3b7cee	-0.18309376
91	0x3e3838bb	0.17990391
92	0xbe298eee	-0.1655843
93	0x3e456cf9	0.19279851
94	0x3db7c635	0.08973352
95	0xbcc66c0b	-0.02422144
96	0x3dec4433	0.115364455
97	0x3e117d32	0.14207914
98	0xbd3292ff	-0.043597218
99	0x3e1336a9	0.1437632
100	0xbc9a69df	-0.018849311
101	0x3e62688a	0.22110191
102	0xbe7c2b89	-0.24625982
103	0x3e092a8e	0.1339514
104	0x3e3ffe4e	0.18749353
105	0xbe4996e6	-0.1968647
106	0xbcd6011e	-0.02612358
107	0xbd438389	-0.047732864
108	0xbd59020c	-0.052980468
109	0xbc515805	-0.012777333
110	0x3e4fd525	0.20296152
111	0xbc3986e8	-0.011323668
112	0x3e11f8cc	0.14255065
113	0xbde1ae2f	-0.11019551
114	0x3e0253b8	0.12727249
115	0x3e135d18	0.14390981
116	0x3dded877	0.10881131
117	0xbb153ead	-0.0022772953
118	0x3e264bfd	0.16239925
119	0xba0567e4	-0.0005089028
120	0xbd414042	-0.04718042
121	0x3d806c28	0.06270629
122	0x3d897396	0.067114994
123	0x3da074d6	0.07834785
124	0x3ced3fb3	0.028961038
125	0x3dfb2f26	0.12264852
126	0x3cc902bc	0.024537437
127	0xbdef75bf	-0.1169238
128	0xbe3354c9	-0.17512812
129	0x3e52b319	0.20576133
130	0x3d2c31d1	0.042039696
131	0xbd646ce2	-0.0557679
132	0x3e244a29	0.16043915
133	0x3d9f8d8a	0.07790668
134	0x3e27c53c	0.16383833
135	0xbd2d3fde	-0.042297237
136	0xbe23393c	-0.15939802
137	0x3e003b0e	0.12522528
138	0xbe5cdd73	-0.21568851
139	0xbe59d5e9	-0.21273006
140	0xbc805a97	-0.015668197
141	0xbe514e3f	-0.20440005
142	0xbe8b8fe2	-0.2725821
143	0xbde96f0f	-0.11398136

encoder.encoder_net.0.weight f4 [16, 1, 3, 3]
0	0x3e936d1b	0.28794178
1	0xbe864c64	-0.26230156
2	0xbd0876f2	-0.03331656
3	0xbe23d312	-0.15998486
4	0x3e3d9c15	0.18516572
5	0xbea7313a	-0.32654744
6	0xbd59ad2e	-0.053143673
7	0xbe562810	-0.2091372
8	0x3e0f2efd	0.13982768
9	0x3e85c0ae	0.26123565
10	0xbc5b1f1f	-0.013374119
11	0xbe058bef	-0.13041662
12	0x3e33a7ef	0.1754453
13	0xbc81a661	-0.015826406
14	0xbdc1d95f	-0.09465288
15	0xbdd8eb63	-0.105917715
16	0xbe3aec95	-0.18254311
17	0xbd478de9	-0.04871932
18	0xbea13b6f	-0.31490657
19	0xbeb51796	-0.35369557
20	0xbd0fbdb6	-0.03509303
21	0x3e0880c9	0.13330378
22	0x3d3a794a	0.045525827
23	0x3da4b112	0.08041586
24	0x3d78ad71	0.06071228
25	0xbe86a1af	-0.2629523
26	0x3e7f4377	0.2492808
27	0x3df5c15a	0.119997695
28	0x3e976b31	0.29573968
29	0x3de31295	0.110875286
30	0x3ebc768d	0.36809197
31	0xbdfb16ef	-0.122602336
32	0x3e93b61c	0.28849876
33	0xbd83e826	-0.06440763
34	0x3d842df8	0.0645408
35	0x3ded47ab	0.11585935
36	0xbe84ca88	-0.2593577
37	0xbdb2b71e	-0.08726333
38	0x3b1ae374	0.0023634108
39	0x3ea34841	0.31891063
40	0xbe24676a	-0.16055074
41	0xbecbda56	-0.39815015
42	0xbd939bea	-0.072074726
43	0xbe069b7b	-0.13145249
44	0xbe94f355	-0.29091898
45	0xbdb2932e	-0.087194785
46	0xbe0bfaa3	-0.13669829
47	0x3d751dc1	0.05984283
48	0xbe3f6c4f	-0.1869366
49	0x3e108397	0.14112698
50	0x3e08ce9d	0.13360067
51	0xbea391b4	-0.319471
52	0x3e55ec88	0.20891011
53	0xbe8e9673	-0.2784916
54	0x3e009eec	0.12560624
55	0xbc37ae91	-0.0112110535
56	0xbe9d0f82	-0.30675894
57	0xbc90cb1e	-0.017674979
58	0x3e85bdea	0.26121455
59	0x3d9ae959	0.07564039
60	0x3d8e00ee	0.06933771
61	0x3d8c92f2	0.06863965
62	0x3dce426e	0.10071264
63	0xbe9564a1	-0.29178336
64	0xbe6050e4	-0.21905857
65	0xbe648fea	-0.22320524
66	0x3b435ff1	0.0029811824
67	0x3d1c4e88	0.03816083
68	0xbe4deeb8	-0.20110595
69	0xbe38e077	-0.18054377
70	0x3e674980	0.22586632
71	0x3d85dc8d	0.06536207
72	0xbe38bdc7	-0.18041144
73	0x3df89bf8	0.12139124
74	0x3e4d8d51	0.20073439
75	0x3eae1a40	0.34004402
76	0x3bd3d76b	0.006464889
77	0xbddc04a6	-0.10743074
78	0x3dd8f2e0	0.105932
79	0x3dcdbb18	0.10045451
80	0xbd101775	-0.03517862
81	0xbe64f868	-0.22360384
82	0x3d9c1379	0.076209016
83	0xba6626b4	-0.0008779571
84	0xbeae88de	-0.34088796
85	0xbc8eeb94	-0.017446317
86	0xbc3f3b33	-0.011671829
87	0x3b4fcecf	0.003170896
88	0xbe15c84b	-0.14627187
89	0xbe1339b6	-0.14377484
90	0xbe211d10	-0.15733743
91	0x3e819e87	0.2531626
92	0xbe78feda	-0.24315968
93	0x3e2ff23a	0.17182246
94	0xbecbd44a	-0.398104
95	0x3e1c3a71	0.15256669
96	0x3c20e7e5	0.009820913
97	0xbdb205e6	-0.08692531
98	0x3c1946ec	0.009355288
99	0xbd77bca1	-0.060482625
100	0x3da61cd9	0.08110971
101	0x3e0ba8d8	0.13638628
102	0x3cc960f3	0.024582362
103	0x3e72ab59	0.23698176
104	0xbe479309	-0.19489683
105	0xbdd97a24	-0.106189996
106	0x3ea5210d	0.32251778
107	0x3e3f796a	0.1869866
108	0xbb8105ca	-0.0039374577
109	0x3d8cd0a7	0.06875735
110	0xbe0e9768	-0.13924944
111	0xbe93a65b	-0.28837857
112	0xbdb0a4e6	-0.08625202
113	0xbec7ebb6	-0.3904702
114	0x3e7fd008	0.24981701
115	0xbdc9d362	-0.09854771
116	0xbe5e0d50	-0.21684766
117	0xbe58256f	-0.2110803
118	0x3e88db4a	0.26729804
119	0x3d715522	0.05891908
120	0x3d167e96	0.036741816
121	0xbbd4afa3	-0.006490664
122	0xbe873741	-0.26409343
123	0xbeafc3d7	-0.343291
124	0xbe8ce717	-0.27520058
125	0xbbd69ea1	-0.0065496718
126	0x3e8406a3	0.25786313
127	0x3e492b66	0.19645461
128	0xbe909d78	-0.2824514
129	0xbe198259	-0.1499113
130	0x3ddc6f23	0.10763385
131	0x3d169106	0.0367594
132	0xbe115aa0	-0.14194727
133	0x3e11f6ce	0.14254305
134	0x3e915b3c	0.2838992
135	0xbd87ffb6	-0.0664057
136	0xbde539a6	-0.11192636
137	0xbe2ff18d	-0.17181988
138	0x3d96d6e5	0.07365207
139	0xbcaa7930	-0.02080974
140	0xbd84101a	-0.06448384
141	0xbe937985	-0.2880365
142	0xbd878c1a	-0.06618519
143	0xbe98f43d	-0.2987384

encoder.encoder_net.0.bias f4 [16]
0	0xbe926c02	-0.28598028
1	0x3e02d311	0.12775828
2	0xbe2a742c	-0.16645879
3	0x3e1e9c2e	0.15489265
4	0x3dd87f85	0.105711974
5	0xbe108084	-0.14111525
6	0x3e8cee2d	0.27525464
7	0xbe9150f8	-0.28382087
8	0xbdca4cea	-0.098779514
9	0xbd2e2fd2	-0.042526074
10	0x3eb50576	0.3535573
11	0xbe123b6b	-0.14280479
12	0xbc405da7	-0.011741078
13	0x3e932be9	0.28744438
14	0xbdfddecf	-0.12396013
15	0x3e16ca0a	0.1472551

encoder.encoder_net.2.weight f4 [16]
0	0x3f800655	1.0001932
1	0x3f8994f6	1.0748584
2	0x3f85503b	1.0415109
3	0x3f856646	1.0421836
4	0x3f8378e7	1.0271271
5	0x3f82a250	1.0205784
6	0x3f8aba28	1.083806
7	0x3f9536fe	1.1657407
8	0x3f8bc779	1.0920249
9	0x3f86005c	1.046886
10	0x3f812f3c	1.009254
11	0x3f828d43	1.019936
12	0x3f87054f	1.0548495
13	0x3f853c50	1.0409031
14	0x3f82c99b	1.0217775
15	0x3f864ce1	1.0492212

encoder.encoder_net.2.bias f4 [16]
0	0x3c976d13	0.018484628
1	0xbd7b4bbd	-0.061351527
2	0xbd2fbd9e	-0.042905442
3	0xbc8605ae	-0.01636013
4	0x3d5be46f	0.053684648
5	0x3d9c6652	0.076367036
6	0xbd68f9fe	-0.056879036
7	0x3d01f0f8	0.031723946
8	0x3d3b8538	0.045781344
9	0xbcc8d733	-0.024516677
10	0x3db80e26	0.089870736
11	0xbd5ed50c	-0.054402396
12	0xbc35076d	-0.011049134
13	0x3ca4ef52	0.020133648
14	0xbda06f88	-0.07833773
15	0x3d93d9d9	0.072192855

encoder.encoder_net.2.running_mean f4 [16]
0	0x3d92491e	0.07142852
1	0x3d92491e	0.07142852
2	0x3d92491e	0.07142852
3	0x3d92491e	0.07142852
4	0x3d92491e	0.07142852
5	0x3d92491e	0.07142852
6	0x3d92491e	0.07142852
7	0x3d92491e	0.07142852
8	0x3d92491e	0.07142852
9	0x3d92491e	0.07142852
10	0x3d92491e	0.07142852
11	0x3d92491e	0.07142852
12	0x3d92491e	0.07142852
13	0x3d92491e	0.07142852
14	0x3d92491e	0.07142852
15	0x3d92491e	0.07142852

encoder.encoder_net.2.running_var f4 [16]
0	0x38846f09	6.3149324e-05
1	0x387bb5d4	6.0012404e-05
2	0x38b4a63c	8.6140324e-05
3	0x39cbb708	0.00038855546
4	0x396b7b58	0.00022457296
5	0x387363d9	5.8028705e-05
6	0x38882466	6.491765e-05
7	0x39173d8f	0.00014423415
8	0x38ea2c0a	0.000111661924
9	0x3904c7fc	0.00012663001
10	0x37f96fb2	2.9735125e-05
11	0x390d17be	0.00013455653
12	0x393fb639	0.00018283063
13	0x390db81b	0.00013515392
14	0x38a70c6e	7.965496e-05
15	0x393c9897	0.00017985921
