miniproject2/experiments/ensemblyVAE/ND1/modelSeed775nD1.pt (torch, 144013 bytes, 37 tensors)

prior.mean f4 [2]
00000000: 0000 0000 0000 0000
0.0 0.0

prior.std f4 [2]
00000000: 0000 803f 0000 803f
1.0 1.0

decoders.0.decoder_net.0.weight f4 [512, 2]
00000000: a5ed bebe ea74 34be 6c5e 10bf 754d 26be
00000010: 918c 2abf 4518 f6be 1844 553e f30e 193f
00000020: f777 dc3e 0f05 3abd e393 373f b508 aabd
00000030: 3f22 45bf aa14 19bc 6f9c 89be 1709 1d3f
00000040: 83f6 36be 5a9f fdbe e19e fe3d 5491 a8bd
00000050: f621 b4bd ed62 423f 9d32 4dbe 4f1f a9be
00000060: 7169 dabe 5174 b33e b38e f63e fb99 07bf
00000070: 3079 30be faa5 06bf 880e 92be f4c6 113f
00000080: a25b 373e 5c01 0abf 72cf 263f bec5 9a3e
00000090: 6be5 b23e 0a39 5a3e 212b ef3e b9e4 f83d
000000a0: f04e 17be f743 b33d c966 a8be 63f6 103f
000000b0: b31f c9be d136 debe ebef 8d3e 62a7 32be
000000c0: 2dac a1be 5f50 22bf 0406 a8bd 5ef9 0dbf
000000d0: e79c 463f 73f7 6ebd 80c1 e5be 8110 b2bd
000000e0: d2a1 1e3f 83ef 743e bdfa af3e 71b8 17bf
000000f0: a0b9 153f d55b 1d3f 54ee 1f3f 9044 1dbf
00000100: 9d78 363e e963 1e3e d1f7 12be e71a 393f
00000110: e9bf 3bbe 3ca4 603e 912d e7be 1d86 623d
00000120: aaf6 8d3e 417f 5e3e 6dba 8e3e 89f1 de3d
00000130: 9504 a2be 9b3d a5bd 8cd6 c33e b0f7 42be
00000140: 40e4 f9be e1d9 dabe dc67 86be 8f44 993e
00000150: bb90 2bbf 6225 413b e91e db3e b906 683e
00000160: d2bd e13e ab27 aabe c1c9 193c afd9 ab3e
00000170: 4d65 70be 9301 93be 8da4 c1be 011d 5abd
00000180: d196 dcbd cb1c 9ebe b7e7 86be d8de dabe
00000190: f1db bcbd 125c d4be e40d 363e 17f9 bf3d
000001a0: bc81 a7be d644 913e 38d8 d1be 36c1 06bf
000001b0: d859 4dbe 9486 f73e c992 82be fc21 9fbe
000001c0: da55 823e eaa9 3fbe 5fb4 413f 5919 4d3e
000001d0: 493b 153f a0a1 343e 24d6 713e c427 963e
000001e0: 2c14 3bbe 9551 06bf 89ba 143f 5015 b6bd
000001f0: 6845 c53e 86d3 26bf 1c7c de3e 08c2 1e3c
00000200: 4943 8f3d f654 10be 6268 f2be 4fde eb3e
00000210: 2c22 96be 3675 dcbe 773b a33e 26df 4b3d
00000220: 1c83 303e 0ace 8a3e 16c5 453e 85e2 013e
00000230: 29c3 623f 9a37 8bbe b3a3 8a3e 96ce 2abd
00000240: 4629 fa3e 3e0a d63e e0ad 07bf b252 163f
00000250: a125 543f 6e1f e93e 8249 c43c b0c0 08be
00000260: 671a c63d d7cb 043f 0a7a 203f 801b 5cbe
00000270: 6b07 2abf d42e 463d d709 36be 0e3c a9be
00000280: ce1f 2cbf 3b31 aa3e f72a 253e 2edb 333e
00000290: dda5 073f e6f0 743e 6012 363e 0f6e a43d
000002a0: d08f 87bb caea 103e 6877 f03e 8c19 a23e
000002b0: a652 debe ac2f 093f 3f6d d7bd 1f3f 9cbe
000002c0: 4567 dd3e 34e6 a3be 1cbf d4be 2981 663e
000002d0: 5751 93bd 9739 66bf e22d ab3b caf9 6fbe
000002e0: 8932 943e d7b7 183f 8949 41bf a114 77bf
000002f0: 1096 f93e 5831 4b3f ecc1 5c3e 646a 27be
00000300: 0e7c 0d3f 4665 213f 8bb2 d9be 78aa 8f3e
00000310: 6cd5 d0be eefb 40bf 2fd0 433e 83d6 d23e
00000320: 6d7c 053f 099b 72be 90c9 71be a2bc 313f
00000330: 247e bd3e f9f0 89be d914 95be 4bc2 cc3d
00000340: 4672 393e eb46 a0be d22a 193e 52d7 19bf
00000350: 427a 9d3e 50d7 293f b677 863e d7a6 07bf
00000360: eb8d e13d e33b 0b3f 1417 86be 5552 a7be
00000370: facb fdbe 87de e23e 0571 713e 1aa1 ae3e
00000380: a628 49be 11c1 6dbd 0ab9 093e 7272 a5bb
00000390: 4c47 a3bd 3dc8 103f 7d81 19bf 3b0c 98be
000003a0: 8a76 f2be a728 b3be cc27 183e 4b82 193f
000003b0: 8838 503e 7161 87be e4e4 f0bd aac0 243f
000003c0: 2d27 96bd 6fb5 dc3e 173e 903d 6c88 993b
000003d0: 2cda 1bbf cea0 f53e 79df 1ebf 4b27 5d3f
000003e0: 6afa 1abf 09fa c8be 4137 b53e 9ee6 8cbe
000003f0: 1d26 db3e 3278 2ebf 42f0 22bf 8809 19bf
-0.37290683 -0.17622724 -0.56394076 -0.16240485 -0.6662074 -0.4806539 0.20826757 0.59788436
0.43060276 -0.04541498 0.7171003 -0.08302442 -0.7700538 -0.009343306 -0.26877162 0.61341995
-0.17867474 -0.49535638 0.124326475 -0.08230844 -0.0879554 0.759322 -0.20038839 -0.330317
-0.4265857 0.3504968 0.48155746 -0.5296933 -0.1723373 -0.5259701 -0.2852671 0.56944203
0.17906049 -0.53908324 0.65160286 0.3022899 0.34940657 0.21310821 0.46712592 0.121530004
-0.14776206 0.08753198 -0.3289092 0.56625956 -0.39281997 -0.43401197 0.27722105 -0.17446664
-0.31576672 -0.63403887 -0.082042724 -0.5545863 0.77583164 -0.058341455 -0.4487419 -0.08694554
0.6196567 0.23919491 0.34370986 -0.5926581 0.58486366 0.6146825 0.62473035 -0.61432743
0.17819448 0.154678 -0.14352347 0.72306675 -0.18334927 0.2193765 -0.45151952 0.05530368
0.27727252 0.21728231 0.27876607 0.10885913 -0.3164412 -0.08068391 0.38249624 -0.19039798
-0.48806953 -0.42744353 -0.26251113 0.2993512 -0.67017716 0.0029471745 0.4279702 0.22658814
0.44090134 -0.3323339 0.009386481 0.33564517 -0.23476143 -0.2871214 -0.37820855 -0.053250317
-0.107709534 -0.30881342 -0.2634866 -0.4274814 -0.09221638 -0.41476494 0.17778736 0.09373682
-0.32716167 0.2837283 -0.40985274 -0.52638566 -0.20053804 0.48344862 -0.25502613 -0.31080616
0.25456125 -0.18717161 0.7566585 0.200292 0.58293587 0.1763978 0.23616844 0.29327214
-0.18269414 -0.52468234 0.5809713 -0.08890784 0.38529515 -0.6516651 0.43454063 0.009689815
0.069952555 -0.1409491 -0.47345263 0.46068045 -0.29322946 -0.43058175 0.31881306 0.049773358
0.17237514 0.2711032 0.19313464 0.12684067 0.8857904 -0.27190858 0.27078018 -0.041700922
0.48859614 0.4180469 -0.5299969 0.58719933 0.8286992 0.4553179 0.023960833 -0.13354754
0.096730046 0.51873535 0.62686217 -0.21494865 -0.6641757 0.048384503 -0.17777191 -0.3305363
-0.6723603 0.33240685 0.16129671 0.17564079 0.5298746 0.2392002 0.17780447 0.080288045
-0.004137017 0.14152065 0.469661 0.31660116 -0.4342243 0.53588367 -0.10518884 -0.30516908
0.4324285 -0.3201157 -0.41552055 0.22510208 -0.07193249 -0.89931625 0.0052239755 -0.2343513
0.28944805 0.5965552 -0.7550283 -0.9651585 0.487473 0.7937217 0.2155835 -0.16349179
0.5526742 0.63045156 -0.4251903 0.28059745 -0.40787828 -0.75384414 0.19122384 0.41179284
0.52142984 -0.23691954 -0.23612046 0.69428456 0.370103 -0.2694166 -0.29117468 0.09997996
0.18109998 -0.31304106 0.14957741 -0.6009418 0.30757338 0.66344166 0.26263207 -0.5298895
0.11013397 0.54388255 -0.26189482 -0.32680002 -0.49569684 0.443104 0.2357827 0.34107286
-0.19644412 -0.05804545 0.13449493 -0.0050490433 -0.07972583 0.5655554 -0.5996321 -0.2969683
-0.47356063 -0.34991953 0.14858931 0.59964436 0.20334065 -0.2644153 -0.117624074 0.6435648
-0.07331691 0.43107173 0.07043093 0.004685452 -0.6087978 0.47974247 -0.6205974 0.8638808
-0.6053835 -0.39253262 0.35393718 -0.27519697 0.42802516 -0.68152153 -0.63647854 -0.5978017

decoders.0.decoder_net.0.bias f4 [512]
00000000: 8912 253e ec46 11be 3eb8 df3e d807 75bc
00000010: 50f4 0b3f 99f9 0b3f a751 9cbe 1532 b03e
00000020: e491 fbbe b498 cdbd 4516 7bbd a836 c13e
00000030: f8e0 d73e 8721 9dbe a6ef 2d3f 5275 ae3e
00000040: e6e0 18bf 2c05 84be d916 753f 5d24 1dbd
00000050: 3283 b8be e141 bf3d a79f c23e 4d2c 0f3f
00000060: 2635 b63e da13 043f 7d50 863e 26e0 17bf
00000070: d943 063f 0937 4d3e 8117 a4bd 2eff 993e
00000080: e796 f63e 2d99 293f 964d 18bf 69d4 ecbe
00000090: 7dc8 cb3e 53fe b3be a3ee f63e 5dab 32bf
000000a0: 1fd5 1abe 70e2 16bf 4121 10be aee5 a5bc
000000b0: 105a c6be c615 0cbf eef9 0a3f ea16 843e
000000c0: c888 303e 6ab0 023f 5f58 36bf 7f90 1c3f
000000d0: 461d 36bf 39f3 2c3f 9923 30bf d3f6 383e
000000e0: 63ed e83e fcd6 353f 9440 7b3e 786d 153f
000000f0: 6ffc 95be f027 d6be 5ea9 76be 0e59 de3e
00000100: a872 7ebe d896 2c3f 0d07 42bf ad4e 013f
00000110: 19c7 a73d 04fe 813e bb53 6fbd b18e 953e
00000120: 1c3b 46be 3bf9 113f cd59 203f 6dd5 953e
00000130: 6950 163e 9b21 65be ad65 acbd 80a7 53be
00000140: 97ba 0ebf 31d3 c53e 43fa 99be 7aab dd3e
00000150: 76d7 853e a88e 233f 824f de3d 1dbd b3bd
00000160: 78f2 f33e bc39 89bd 2c2b 543e 3ea4 d6be
00000170: c383 a63e 0942 e73d a861 2abf ac27 813e
00000180: 2313 253e d6e2 64bf 3c8d 823e 6b68 c03e
00000190: f1b8 4d3e e113 99be cd27 ccbe 2997 db3e
000001a0: 125a 44be 3507 013f 7855 3dbf 5bc8 0c3f
000001b0: cf49 a73e 2957 223d cab3 1c3f 8c66 6e3e
000001c0: 7a10 dcba 2a2d 84be 7b91 4c3f f6a9 fc3e
000001d0: b387 31bf d888 c13d b347 2dbf 7720 d0be
000001e0: 3d97 d13e 40ee 05bf fec2 71bd 5e1e 01bf
000001f0: 2d35 6fbe 34eb e83e 92d7 d4be 2a02 d7be
00000200: cd77 89bd da17 4b3f 6389 2ebe 41b9 a4be
00000210: e12d d33e 78ee 03be eaf7 0d3f c4d0 4b3e
00000220: 07eb d0bd 37a9 2c3f f587 dabd 280d 06be
00000230: d37b e2be e017 8ebe 0024 0dbf 6d31 cdbe
00000240: 49a8 923e 4a29 3abe 6e36 21bf 375c 96be
00000250: 380c 81be 40c7 ff3e dc91 173f 0a5f 173f
00000260: d2d6 3fbf 2609 203f 5faa e53e c320 9dbe
00000270: 1960 2a3d 652d 96bd 1720 ca3e 0406 9c3d
00000280: 83dd a2bc d57c 18be 0763 e4be eeda 1dbf
00000290: 1b47 34bf 6915 763d a09a 8c3c a898 ffbe
000002a0: 6c7a 083e 4a79 413f 5a13 2c3c 12c0 d4be
000002b0: 75fb d4be e037 d93e a739 e9be bb2d 6f3d
000002c0: a5b0 51be 75e8 163f 48b7 5a3f 2f06 113f
000002d0: 9a2a 173f 5b7c 583e 16cf 4fbf e31e b3bd
000002e0: 9b48 abbc c5d7 ddbe 3749 21bf 1e7d 1a3f
000002f0: 3696 54bd c759 d3bd 409c 043f 2579 c03d
00000300: 5c46 57be 97e9 08bf e165 223f 60d0 babe
00000310: b8a9 813e b88f eabe 9744 2a3f f778 2cbe
00000320: 5d7f b53e 1cff e03e 7be6 d23e b9e5 d1bd
00000330: 1055 023e f305 423d d854 06be 86d7 0cbe
00000340: bb46 cb3e b840 e93e 60c4 a23e 85f0 93be
00000350: 8a34 ca3e c57a 663e 3a80 f43e 28e4 1dbf
00000360: 9c29 0b3f 264e 023f 07bb babe 76a7 68bd
00000370: 1534 f9bd 6300 24bd 1032 3cbf 879c a6bd
00000380: e726 d03e 205e 403f 4279 ccbe 8e2e 3cbf
00000390: 72ea a2bc 9c95 48bf 16ea b7be 3c86 c6be
000003a0: 84bd fdbe a43e df3e f44a 373d 9e63 efbb
000003b0: a30b 3f3e 3251 03bf 6118 053f 3c74 223e
000003c0: 32ff 0b3e d36c 253d ab42 08bf 2557 7bbd
000003d0: 1f2d 4dbe 93f7 1d3f 4436 15bf 9574 233f
000003e0: 3f20 0f3f edb1 10bf 5285 233f 19dc 01bf
000003f0: 491f 2fbe 9485 ca3e ef96 7fbe 5dff 04bf
0.16120352 -0.14187211 0.43695253 -0.014955483 0.54669666 0.5467773 -0.30531046 0.3441321
-0.49134743 -0.100388914 -0.061300535 0.37737012 0.42163825 -0.30689642 0.679438 0.34073883
-0.5971817 -0.25785196 0.9573799 -0.038364757 -0.36037594 0.09338737 0.3801243 0.5592697
0.35587424 0.5159279 0.26233283 -0.593264 0.5244728 0.20040525 -0.080122955 0.300775
0.48162004 0.6624935 -0.59493387 -0.46255806 0.39801398 -0.3515497 0.4822894 -0.6979273
-0.15120362 -0.58939266 -0.14075185 -0.020251121 -0.38740587 -0.54720724 0.5428761 0.25798732
0.17239678 0.51050436 -0.71228594 0.61157984 -0.7113842 0.6755863 -0.6880432 0.18062906
0.45493612 0.71031165 0.24536353 0.5837016 -0.29294154 -0.41827345 -0.24088046 0.43427318
-0.24848425 0.6741767 -0.7579201 0.50510675 0.08192272 0.2538911 -0.05842946 0.29210427
-0.19358486 0.5702092 0.62637025 0.29264393 0.14679112 -0.223761 -0.084178306 -0.20669365
-0.55753464 0.3863769 -0.30073747 0.4329489 0.26140946 0.6388955 0.10855009 -0.08776305
0.47645926 -0.06700465 0.20719594 -0.41922182 0.325224 0.11291892 -0.6655526 0.2522558
0.16120581 -0.89408624 0.25498378 0.37579665 0.20090081 -0.2989798 -0.39874116 0.42888764
-0.19174984 0.5040162 -0.7395854 0.5499322 0.326735 0.039633904 0.61211836 0.23281306
-0.0016789578 -0.25815707 0.79909486 0.4934842 -0.69347686 0.09449929 -0.6768753 -0.4064977
0.40935698 -0.52316666 -0.05902385 -0.5043696 -0.23360129 0.45491946 -0.41570717 -0.4199384
-0.06712303 0.7933327 -0.17044596 -0.32172588 0.4124594 -0.12883937 0.5545641 0.19903857
-0.10201078 0.674457 -0.10670463 -0.13090956 -0.44235095 -0.2775259 -0.55133057 -0.4007677
0.28644016 -0.18179813 -0.6297368 -0.2936723 -0.25204635 0.49956703 0.5920694 0.59129393
-0.74937165 0.6251396 0.44856545 -0.30689058 0.041595552 -0.07332877 0.39477608 0.07618335
-0.019881016 -0.1489137 -0.44606802 -0.61662185 -0.70421 0.060079012 0.017163575 -0.49921155
0.1332795 0.755757 0.010502661 -0.41552788 -0.41598096 0.42425442 -0.45551798 0.05839322
-0.20477541 0.5894845 0.85435915 0.5665006 0.5904938 0.21141188 -0.81175363 -0.087461255
-0.020908644 -0.43328682 -0.6300234 0.60347164 -0.051901065 -0.10319858 0.5180092 0.093981065
-0.21022934 -0.5348143 0.63436705 -0.36487103 0.25324798 -0.45812774 0.6651091 -0.1684302
0.35448733 0.43944633 0.41191468 -0.10248894 0.12727761 0.047368955 -0.13118303 -0.1375409
0.397024 0.4555719 0.31790447 -0.2889444 0.3949321 0.2250777 0.4775408 -0.61676264
0.54360366 0.50900495 -0.36470816 -0.05680033 -0.12168137 -0.04003943 -0.7351389 -0.08135324
0.4065468 0.75143623 -0.39936262 -0.73508537 -0.019887183 -0.78353286 -0.3592078 -0.38774288
-0.4955865 0.43602479 0.044749215 -0.0073055765 0.18656783 -0.5129577 0.51990324 0.15864652
0.13671568 0.040386986 -0.5322673 -0.061362404 -0.20036744 0.61705893 -0.5828593 0.63849765
0.5590858 -0.56521493 0.63875306 -0.5072647 -0.17101778 0.39555037 -0.2495992 -0.51952153

decoders.0.decoder_net.3.weight f4 [32]
00000000: 4584 7d3f 8d80 843f 3a0e 813f f7c7 7c3f
00000010: 5541 843f a5c0 7f3f 5cd5 7b3f 4d18 873f
00000020: a625 843f fe87 813f 8368 7d3f 4f58 963f
00000030: 91a1 783f 2023 823f 4fed 893f d0cf 8a3f
00000040: b2b5 743f decb 7f3f e112 863f ede6 863f
00000050: 9b86 823f 756d 793f 8df1 743f 9a6d 8d3f
00000060: 4c6e 833f 9266 8a3f cd67 763f 9f89 853f
00000070: 7cf9 833f 4056 7c3f da85 7c3f 827b 813f
0.9902995 1.035173 1.0082467 0.9874262 1.0332438 0.9990333 0.98372436 1.0554291
1.0323989 1.0119627 0.989876 1.17457 0.9712153 1.0166969 1.0775546 1.0844669
0.95589745 0.9992045 1.0474511 1.0539223 1.0197328 0.97432643 0.9568108 1.1049073
1.0268035 1.0812552 0.9625214 1.0432624 1.0310512 0.9856911 0.9864174 1.0115817

decoders.0.decoder_net.3.bias f4 [32]
00000000: 2ed6 ddbc 1e2d 79bd 20c8 6ebd 6251 28bd
00000010: fc56 183d 3f81 adbd 92a1 f83d 5740 72bb
00000020: 67da bfbc bea4 d7bb ce90 c43b 17d3 b93d
00000030: 88cb fe3c 546f bb3d f993 813d a6b4 fe3c
00000040: 8ba9 963b 0b12 0ebd 631e 513c 2255 a2bd
00000050: 89e1 d8bc 6dbb be3d 7703 0fbc ecf8 94bd
00000060: a8df 5dbd e97a 6f3c 9172 0bbc 5da3 06bd
00000070: fb00 8dbd ccad 123d 8df9 643c 57f2 43bd
-0.027079668 -0.060834043 -0.058296323 -0.041093238 0.03719233 -0.08471917 0.12140192 -0.003696462
-0.023419572 -0.006580918 0.0059987074 0.09073465 0.03110291 0.091520935 0.06327052 0.031092
0.004597848 -0.034685176 0.012763592 -0.07926394 -0.026474731 0.093130924 -0.008728853 -0.072740406
-0.054168373 0.014616706 -0.0085112015 -0.03287064 -0.06884953 0.035810277 0.013975513 -0.047838535

decoders.0.decoder_net.3.running_mean f4 [32]
00000000: f8ff 7f3e f8ff 7f3e f8ff 7f3e f8ff 7f3e
00000010: f8ff 7f3e f8ff 7f3e f8ff 7f3e f8ff 7f3e
00000020: f8ff 7f3e f8ff 7f3e f8ff 7f3e f8ff 7f3e
00000030: f8ff 7f3e f8ff 7f3e f8ff 7f3e f8ff 7f3e
00000040: f8ff 7f3e f8ff 7f3e f8ff 7f3e f8ff 7f3e
00000050: f8ff 7f3e f8ff 7f3e f8ff 7f3e f8ff 7f3e
00000060: f8ff 7f3e f8ff 7f3e f8ff 7f3e f8ff 7f3e
00000070: f8ff 7f3e f8ff 7f3e f8ff 7f3e f8ff 7f3e
0.24999988 0.24999988 0.24999988 0.24999988 0.24999988 0.24999988 0.24999988 0.24999988
0.24999988 0.24999988 0.24999988 0.24999988 0.24999988 0.24999988 0.24999988 0.24999988
0.24999988 0.24999988 0.24999988 0.24999988 0.24999988 0.24999988 0.24999988 0.24999988
0.24999988 0.24999988 0.24999988 0.24999988 0.24999988 0.24999988 0.24999988 0.24999988

decoders.0.decoder_net.3.running_var f4 [32]
00000000: 7d74 873d 0f55 923d bf6b 2d3d cc01 523d
00000010: fcb8 343d e763 a33d 7c7c a03d 7546 633d
00000020: 542e 953d dab9 013d fe16 323d 2bdd 313d
00000030: 27c6 9d3d 2a7f 813d b276 283d 9c14 9b3d
00000040: 1fde 933d 9351 653d 270b 9d3d 036a 3d3d
00000050: f1d5 6d3d 0320 2d3d b013 783d 0ad1 9a3d
00000060: 3dc8 793d 175e 0e3d e5e9 8d3d a3db 7b3d
00000070: f6f1 963d cead 7f3d a947 793d aa29 8e3d
0.06614015 0.0714513 0.042339083 0.051271245 0.044121727 0.07978039 0.078362435 0.055487115
0.07284227 0.031671382 0.04347896 0.043423813 0.0770381 0.06323083 0.04112882 0.0757229
0.072201006 0.055986 0.07668143 0.04624368 0.05806536 0.042266857 0.06056565 0.07559402
0.060981978 0.0347577 0.069293775 0.06148876 0.07370369 0.062421612 0.060859356 0.069415405

decoders.0.decoder_net.4.weight f4 [32, 32, 3, 3]
00000000: e653 a2bb 177f f8bc 39ba 7bbd e3a7 503d
00000010: 182b 4a3c 6fd1 03be 627e 8abc 433f dabc
00000020: b823 8d39 f9b6 8d3b db3b 663d 5025 5cbd
00000030: 7447 e8bb 3184 7ebd 0b1d acbd 58f7 3f3d
00000040: fa85 253d 2548 f13a b268 ee3b b274 8b3d
00000050: edb0 813d 9be4 9aba 9957 0b3d 44dd 90bd
00000060: fe0f d6bc 42dc 023d f427 29bd 0d86 23bc
00000070: cce2 033d 8f60 2abc dfc8 a23c f6f7 6c3d
00000080: 38cf a0bb 8bac 10ba 8917 503d 55af 5abc
00000090: d313 41bc cbfd 9dbc dff5 43bc 33ad b1bc
000000a0: 23c1 27bd ddba 51bd 8441 2b3d ebfb f7bc
000000b0: 5aab a93c 1b4d e2bb 98c3 c5bb 8298 cabb
000000c0: 4262 6b3d 33af 51bc 0301 7e3c 8384 763c
000000d0: b23a c03d 60fd 693b 2596 b3bc b3e0 dc3c
000000e0: 0cf5 a13c 8005 16bc f35f febc f0a9 94bd
000000f0: 5005 74bd 0505 d2bc 9453 7f3d cc16 e43c
00000100: cc68 c33d 7b65 57bb b71b 35bd ef1b 2a3d
00000110: fdc4 893d 3c33 d93a 9fa2 383d c265 0c3d
00000120: ce52 a03c ddea 3e3c 106f 043d 5128 16bc
00000130: 0710 2fbc c8a7 fabb a258 8b3b 63c6 673d
00000140: b746 babd bd6d 82bc 8631 d1bb 538c b0bd
00000150: a164 893c 30ef 303c 6e7f ebba f633 d33c
00000160: bf10 6a3c 926f 3a3d 1cf8 7f3d 1b84 d1bc
00000170: de88 263d 7a4f 3a3c cc09 163d cfaf fcbc
00000180: 6299 7a3d 27a8 713a 3c2f b73d 82d3 ec3b
00000190: 9ac7 e63c 09aa a73c 4b71 d9ba 8295 d1bd
000001a0: 9a35 39bb 7b12 613d b686 56bc 40de 733c
000001b0: c1c3 cb3b 553d 5cbd cd08 74bb 3d45 f73c
000001c0: 542b 06bc af96 383d ab33 cfbc cd75 b2ba
000001d0: a8d1 9abc b1cd e2bc 0e02 4e3d ec68 543d
000001e0: 0438 103d 541f 2dbd 6e6a df3c 91e7 183d
000001f0: be62 343d 69b6 73bd ca55 8b3d 9fb4 473c
00000200: 8371 1e3d 1eac 87bd b411 5d3d 460c 16bc
00000210: 2475 3b3d eb7a 99bc 7172 8e3d d815 a33c
00000220: 5c21 d23c bf8e bb3d 39bc 5ebd 306d cebb
00000230: 1c41 33bd 95ef 8f3b 2edf bdbc 879d 77bd
00000240: 8ffb a13c 5464 5b3d 7aa2 11bd b081 a13c
00000250: 26de 4d3d 5289 323c bd77 ba3c 0f07 8f3d
00000260: 4efe a03c 771d 00bd 4dcc 9c3d 2774 58bb
00000270: 6177 42bd e9b4 2ebd f985 98bd 57b3 37bc
00000280: 4efc 9bbd 9352 2ebd fac9 c2bc 9678 2a3d
00000290: 0cbe 033d d4a0 d93c 08c1 e4bc 257c b23c
000002a0: e722 2f3b dfe7 c5bb ca5f a2bd 2b64 87bd
000002b0: 33d0 3abc 4447 29bd ba1f 7dbd 54d1 ff3c
000002c0: 1791 78bd ad63 483d 6ed8 ae3c 0692 2fbd
000002d0: 8dd6 d73c 384f b13d ab77 40bd 271f 293c
000002e0: 2b5c b43d f5eb 60bd dfeb 95bd 351d 59bc
000002f0: 78a7 5f3d ec11 283d 3dd4 913d ab62 b13c
00000300: 0d4b 9dbd d057 173d dfbd a7bd 01ba bcbc
00000310: 9575 7b3d 0163 713d 55d7 ac3c f153 a33c
00000320: 2e12 c73c 0428 23bd 669d 603d cf94 7f3d
00000330: 8a66 703d efcf 4bbd 9fcb 38bd bf5f 853c
00000340: 5c48 c23c 9053 76bd 3eb4 513d dcb0 9d3d
00000350: 7644 8ebc 17f4 223c b16c e83c 7d86 94bd
00000360: d7f5 773d 65ca c93c 92ff 5a3d c99f d7b9
00000370: 97ad 003d 2ade bc3c 8f92 bf3c 8a9f 7dbc
00000380: 1cc5 b3bc 02c5 2dbc dd84 283d e5c6 d7bb
00000390: f329 233d 916b 8fbd d831 463b 9798 c7bc
000003a0: a910 8ebd f45b 24bb 7edf 443d 57f5 fabb
000003b0: 1eb9 ae3d 6185 e1bc cefa 59bd dc16 6a3c
000003c0: aea0 873d 41e4 a4bc d0ca 89bc 8a41 06bc
000003d0: d323 b83d 4208 35bd 7042 25bc be2e 14bc
000003e0: 9793 cbbb 58a3 febb 271e 77bd e0f1 06bd
000003f0: c9a7 063d 7139 95bc de3a 92bc 5ad8 213d
-0.004953849 -0.030334039 -0.061456893 0.05094136 0.012339376 -0.12872861 -0.016905967 -0.026641494
0.00026920228 0.0043247906 0.056209426 -0.05374652 -0.007088596 -0.062137786 -0.08403977 0.046866745
0.040410973 0.0018408342 0.0072756642 0.06809367 0.06332574 -0.0011817397 0.034019087 -0.07073453
-0.026130673 0.031948335 -0.041297868 -0.009980691 0.032198712 -0.010398998 0.019871173 0.05785366
-0.004907515 -0.0005518875 0.050803695 -0.0133474665 -0.011784512 -0.019286057 -0.011960476 -0.021689033
-0.040955674 -0.051203597 0.041810527 -0.030271491 0.02071159 -0.0069061643 -0.0060352795 -0.006182731
0.057466753 -0.012798118 0.015503171 0.015046242 0.09386195 0.0035704002 -0.02192218 0.026962614
0.019770168 -0.009156585 -0.031051612 -0.072589755 -0.05957538 -0.02563716 0.062335566 0.027842902
0.09541473 -0.0032866884 -0.044215884 0.041530546 0.06727026 0.0016571055 0.045076963 0.03427673
0.019570734 0.011652675 0.03233248 -0.009164886 -0.010684974 -0.0076493956 0.004252509 0.05658568
-0.09095519 -0.015921468 -0.0063840775 -0.08620515 0.016771616 0.010799214 -0.0017967054 0.025781613
0.014286219 0.045516558 0.062492475 -0.025575688 0.04065787 0.011371488 0.036630437 -0.03084555
0.061181433 0.0009218477 0.08944556 0.007227362 0.02817135 0.020466821 -0.001658955 -0.102335945
-0.0028260709 0.054949265 -0.013093641 0.0148845315 0.006218404 -0.05376943 -0.003723669 0.030184383
-0.008189041 0.045065578 -0.025293192 -0.001361543 -0.0188988 -0.027685972 0.05029493 0.051857874
0.03520967 -0.042266205 0.02727243 0.037330214 0.04403948 -0.05950013 0.06803472 0.0121890595
0.038682472 -0.066246256 0.05397196 -0.0091582 0.04576601 -0.01873537 0.06955422 0.019907877
0.025650673 0.09158086 -0.054378722 -0.0062996373 -0.043763265 0.004392574 -0.02317771 -0.060452964
0.019773273 0.053562477 -0.03555534 0.01971516 0.050260685 0.0108969975 0.022762174 0.06983768
0.019652512 -0.0312781 0.07656155 -0.0033028217 -0.04747713 -0.042652998 -0.07447428 -0.011212192
-0.07616483 -0.042559218 -0.02377795 0.041618906 0.032163665 0.026565947 -0.027924076 0.021787712
0.0026723684 -0.006039604 -0.079284266 -0.066109024 -0.011402178 -0.04132773 -0.061797835 0.031227745
-0.060685243 0.048923183 0.021343436 -0.04286387 0.026347423 0.08657688 -0.046989124 0.010322369
0.08806642 -0.054912526 -0.073203795 -0.013251592 0.05460307 0.041032717 0.07120559 0.021653494
-0.076803304 0.03694898 -0.08190512 -0.023037912 0.06139143 0.058932308 0.021098772 0.019937487
0.024300661 -0.039833084 0.054837607 0.062397774 0.05869154 -0.049758848 -0.045116063 0.016281007
0.023716144 -0.060138285 0.051197283 0.07699749 -0.01736663 0.009945891 0.02837214 -0.07252214
0.060537186 0.024632642 0.053466387 -0.00041127045 0.03141555 0.023055155 0.023385314 -0.015479932
-0.021944575 -0.010606052 0.041142333 -0.0065849894 0.039834928 -0.070029385 0.0030242112 -0.024364753
-0.069367714 -0.0025079222 0.0480647 -0.0076586413 0.08531402 -0.02752942 -0.0532177 0.014287677
0.06622444 -0.020128371 -0.016820341 -0.008194337 0.08991208 -0.04419733 -0.010086641 -0.009044347
-0.0062126624 -0.007770937 -0.06033149 -0.032945514 0.032874856 -0.018215867 -0.017850336 0.03951297

decoders.0.decoder_net.4.bias f4 [32]
00000000: 8874 fbba e615 353d 136e 6f3d 941d abbd
00000010: 216b c6bc 9f6f a8bc 5536 bdbb dc2d 333d
00000020: 85dd 153d 6f88 0bbd add9 05bc 65f4 243d
00000030: 1e3f 33bd 89cf 683c 2481 a63d 2f6f 303d
00000040: cd49 8b3c 428f 30bd 3ba1 c43c 4776 07bd
00000050: fca4 c53c f778 d9ba 3768 653d bbcf c9bd
00000060: 5e37 03bd 1c51 5ebc e447 8a3c 7cc7 edbb
00000070: 3551 803d b3c6 2d3d db43 ea3a 02a3 463d
-0.0019184509 0.044210337 0.058454584 -0.08355251 -0.024221005 -0.020561038 -0.005774299 0.043744907
0.03658821 -0.03406566 -0.008169574 0.040272135 -0.043761365 0.0142096365 0.081301 0.043074783
0.017002964 -0.04310537 0.024002662 -0.033071782 0.024126522 -0.0016591836 0.05600759 -0.098540746
-0.032035224 -0.013569143 0.016879983 -0.0072564464 0.06265489 0.042425822 0.0017873006 0.0484953

decoders.0.decoder_net.6.weight f4 [32]
00000000: 1436 703f bdcb 763f 1cfe 6e3f 87e7 7e3f
00000010: 9148 713f 3efe 603f c088 6b3f abb4 6b3f
00000020: 9492 5c3f dae6 803f 77c7 6c3f 2d45 633f
00000030: f96b 633f 2a80 6b3f a723 693f c311 5d3f
00000040: a933 8b3f 3bce 743f f7e0 733f 1d89 653f
00000050: fef9 533f 5c6d 713f 4a16 623f e783 7d3f
00000060: 4e72 773f 0282 643f ba06 6d3f af09 593f
00000070: 4f30 7c3f 7012 7d3f cf2f 643f 3b9b 713f
0.93832517 0.9640463 0.9335649 0.9957203 0.9425135 0.8788794 0.9200554 0.9207255
0.8616116 1.007045 0.9249186 0.8877743 0.8883663 0.9199244 0.91070026 0.8635523
1.087514 0.9562718 0.95265144 0.89662343 0.8280333 0.94307494 0.8831526 0.9902939
0.9665879 0.89260876 0.9258839 0.847804 0.98511213 0.9885626 0.8913545 0.9437749

decoders.0.decoder_net.6.bias f4 [32]
00000000: 5abb 1e3d 9314 213d e027 ba3d 794d fc3b
00000010: dfac 933d 1099 46bd 8057 1dbe 57db 16bd
00000020: 22c6 463d 273d 79bd 5145 963c 13ef 15be
00000030: f1ba 083d d649 a0bd 084e fbbc bbae 9e3c
00000040: 9966 c33d d14a 2e3e 8b78 13bd 8cb8 8f3c
00000050: 934a 05bd b87a 40bd 03a4 cb3d bd67 93bc
00000060: 7af7 9d3d ed24 0dbd ba4a 613c b001 ffb9
00000070: 42af fc3c c25d b23d bb0c dd3c 94d3 833d
0.03875289 0.03932626 0.09089637 0.007699665 0.07210707 -0.048485816 -0.1536541 -0.036830273
0.048528798 -0.060849335 0.0183436 -0.14641981 0.033381406 -0.07826583 -0.030676857 0.019370427
0.09541053 0.17020728 -0.03600363 0.017544053 -0.032541823 -0.046992034 0.09943392 -0.017993802
0.07713218 -0.034459043 0.013750726 -0.00048638647 0.030845288 0.08709289 0.02698361 0.0643684

decoders.0.decoder_net.6.running_mean f4 [32]
00000000: 1e49 123e 1e49 123e 1e49 123e 1e49 123e
00000010: 1e49 123e 1e49 123e 1e49 123e 1e49 123e
00000020: 1e49 123e 1e49 123e 1e49 123e 1e49 123e
00000030: 1e49 123e 1e49 123e 1e49 123e 1e49 123e
00000040: 1e49 123e 1e49 123e 1e49 123e 1e49 123e
00000050: 1e49 123e 1e49 123e 1e49 123e 1e49 123e
00000060: 1e49 123e 1e49 123e 1e49 123e 1e49 123e
00000070: 1e49 123e 1e49 123e 1e49 123e 1e49 123e
0.14285704 0.14285704 0.14285704 0.14285704 0.14285704 0.14285704 0.14285704 0.14285704
0.14285704 0.14285704 0.14285704 0.14285704 0.14285704 0.14285704 0.14285704 0.14285704
0.14285704 0.14285704 0.14285704 0.14285704 0.14285704 0.14285704 0.14285704 0.14285704
0.14285704 0.14285704 0.14285704 0.14285704 0.14285704 0.14285704 0.14285704 0.14285704

decoders.0.decoder_net.6.running_var f4 [32]
00000000: 03e3 ab3b 7b61 d73b 0637 643b c1f6 b43b
00000010: 019a ed3b f203 e13b b05c 8b3b 0477 8e3b
00000020: 9004 603b e31a 343b b16b b13b 8bf5 6f3b
00000030: f64e 943b 7f18 8a3b dbdb b33b 4311 7c3b
00000040: b5ca 1d3c 998d 7f3b e8ab 683b c8ec aa3b
00000050: 8a20 833b 28b7 223b a479 4e3b f9bf 4a3b
00000060: 8bce be3b 797d 873b 6bbf d73b e590 713b
00000070: fa87 ce3b 8351 963b 82bb 473b 8bae f63b
0.0052455678 0.0065729 0.0034822836 0.0055225794 0.0072510247 0.0068669254 0.0042529926 0.004347684
0.0034182407 0.0027481846 0.005414449 0.003661486 0.0045260144 0.004214346 0.0054888553 0.0038462437
0.009630849 0.003899431 0.0035502855 0.005216215 0.0040016817 0.0024828408 0.003150561 0.0030937179
0.0058229617 0.0041348306 0.006584098 0.0036860046 0.0063028308 0.0045873537 0.0030476754 0.0075281314

decoders.0.decoder_net.7.weight f4 [32, 16, 3, 3]
00000000: 9647 293c 62b8 613c 173a 65bd a3b4 3fbd
00000010: 4e42 6ebc 32c0 a2bd 5d2c 6e3b d1a3 40bd
00000020: 401b 17bd e9a1 9fbc 95a3 f1bc 4413 433d
00000030: e8db 7dbd 767c 3a3d 5208 31bd 88cf bd3b
00000040: 6690 803d ff9a 4ebd b1bb 8a3c 11c6 833b
00000050: e7d3 03bd df64 523c a1d5 37bd dbff b1bc
00000060: 5174 c63c 3058 963d 0e92 1d3b 8832 8b3d
00000070: e9ae 4a3c 8402 703d aab7 f13c 39a5 bebd
00000080: 7da4 9c3d 9364 e93c bb65 61bd c6d4 8ebd
00000090: c8f9 633d c544 123d c9c0 153d 564b 613d
000000a0: 36d9 d5bc 0031 2fbd 1571 633c 862a bebd
000000b0: 2d91 fbbc e260 883d 84ef eabd de69 81bc
000000c0: 54f5 0339 4321 48bb 27d2 ac3c 3883 b83c
000000d0: b17d 70bd c8c0 d33c 44c3 51bd d7ba 1abd
000000e0: f8d1 a4bd 4c45 53bb 064e b1bd cd3f 67bd
000000f0: 4e60 2e3c febb 0d3d d1bf 80bd 4562 3e3d
00000100: 21cb fc3c 0abc 993d 148b 513d 9c2e 49bd
00000110: a640 64bd 30a4 7abd 87e1 b6bb 2ccb 433d
00000120: 8d87 63bc 17a1 27bd 6111 cf3c 5ee9 dcbc
00000130: d79d a43b d1c1 45bd c648 a639 7598 f7bc
00000140: df7b 1abd 8a1c 6b3d 14ba 3b3b f33a 0e3d
00000150: 2203 6bbc 1bf6 18bc e6f6 7f3d eec5 893d
00000160: b041 033c b74b 40bc 1099 273b 5945 b5bc
00000170: 4661 433c 1218 babb eb9f 2f3d 17ad f33d
00000180: 6669 a8bc 581e 883d c134 41bc 2a4f c63c
00000190: 25d5 c43c 0a27 a83c 3604 efba b716 c6bc
000001a0: 0f95 db3c 6f9e 943b e76a 563c be27 c03c
000001b0: fc0a ce3c d6d1 933d 9466 d23d 8ec1 8dbd
000001c0: f838 bd3d bae7 293e e875 9fbc 8011 833c
000001d0: 245d c23d 1ed9 68bd e078 4b3c 1990 8e3d
000001e0: aa6f 75bd 0e43 983d 29e5 f83d d704 c23c
000001f0: c91c 09bd bd6b 973d 7e77 acbb 0732 85bc
00000200: 0d34 9c3c a661 adbd 065b 33bd 5541 913d
00000210: 9385 2d3c 5244 4b3d b3fa acbd 1bc9 f73c
00000220: 6a05 a33c 8739 88bd 9afa ef3c f983 7bbc
00000230: 38e3 b4bd e9ce 08bd aa59 02bd c795 96bc
00000240: 20f1 52bd 9a53 95bd 2745 70bd fd08 083d
00000250: f327 aa3d 1c38 a8bd 9726 493d 4131 a63d
00000260: 9bdd 663d 227e c73d 39aa a1bd 9bf7 69bd
00000270: 6c82 78bd 7536 573d aea0 8b3c 510f 263c
00000280: 745e 7c3d fcc5 ea3c b052 6fbd 510a 2a3d
00000290: e4d4 f8bc d38c aaba aac4 41bd 41db 82bc
000002a0: 0610 c03d d5d4 73b9 6aa1 9ebc 0f12 3a3d
000002b0: 68e9 813d 4d5d 98bd dea9 953d 25fa 9cbc
000002c0: 45de bbbd a87d fc3b e4e8 1c3d 4916 863d
000002d0: 132d 1f3d 2bc0 b33d d255 063d aa0c 333d
000002e0: f4d6 183d 6567 2dbd 0aec 40bd 7018 143c
000002f0: b556 a73d 26c0 3fbd e5ca 2dbd 4a6d 783d
00000300: 732b 2fbd 00f4 65bb 838e 353c 15f9 bf3b
00000310: 9770 cdbc 6246 de3c 7071 35bc 2b6a 103d
00000320: 2f3f c9bc 29c2 4e3c ea23 bbbd 3fca 9b3c
00000330: 60f5 3f3d da20 9b3d b6cd 5fbc bbc3 25bd
00000340: 689e 87bd 745f 193d 38ab 203d 3b63 e73c
00000350: 53f1 883c ead8 98bd eca4 0abd d701 f1bc
00000360: d136 f63c f296 1cbd 5958 c5bb d5f1 1abd
00000370: 39df 0fbd 42fa efbc c3d5 6cbd b55a efbd
00000380: 7b7e 763c e32a 903d a37e ae3d 4bb6 833d
00000390: 050a 8c3c 126a 163d 8043 033d 8669 7e3c
000003a0: 96e5 3c3b ba9c 3b3c 5f45 bb3d c5f7 8cbc
000003b0: df82 1d3d d6c8 b8bc e088 29bd 69d8 273d
000003c0: a79a 91bd 3047 79bd 7895 533b a5b9 3abd
000003d0: 672a 63bd fd56 b83d 7e63 8e3d 2399 a5bb
000003e0: 8cea 64bd b95c 8c3d 5d7f bf3c bf6e 8c3d
000003f0: fafc be3c 9c2b 553d 1b79 85bd 70b7 5abc
0.010332009 0.01377687 -0.055963602 -0.046803128 -0.014542175 -0.079468146 0.003634236 -0.047031227
-0.036891222 -0.019486384 -0.029496947 0.047625795 -0.061977297 0.04552885 -0.043220825 0.005792562
0.06277542 -0.050440785 0.016935201 0.004021414 -0.032184508 0.012841432 -0.044881467 -0.021728447
0.024225386 0.07341039 0.0024043354 0.067967474 0.012370803 0.05859615 0.029506523 -0.093088575
0.07648561 0.02849034 -0.05502866 -0.06974177 0.05565813 0.035710115 0.036560807 0.055003487
-0.02610455 -0.04277134 0.013881941 -0.092854545 -0.030708874 0.06659104 -0.11471465 -0.015797552
0.00012584525 -0.0030537404 0.021096302 0.022523507 -0.05871362 0.025848761 -0.05121161 -0.03777584
-0.08047861 -0.003223735 -0.0865746 -0.05645733 0.010643078 0.03460311 -0.06286586 0.046480436
0.030858578 0.07506569 0.051158026 -0.049116716 -0.055725716 -0.061191738 -0.005581084 0.04780118
-0.013887298 -0.04092511 0.025276842 -0.026966747 0.005023699 -0.04828054 0.00031716208 -0.030224064
-0.03771579 0.057400264 0.0028644847 0.034724187 -0.014344009 -0.00933602 0.06249132 0.06727205
0.008011267 -0.011736802 0.002557341 -0.022127794 0.011925047 -0.005679139 0.04287712 0.11898249
-0.02055807 0.066464126 -0.011792363 0.02420767 0.024027416 0.020526428 -0.0018235508 -0.024180753
0.026804475 0.0045354883 0.013087011 0.02345645 0.025151722 0.072177574 0.102734715 -0.06921683
0.092393816 0.16592303 -0.019465402 0.015999556 0.094904214 -0.056847684 0.012418956 0.06961078
-0.059920944 0.07434665 0.12153084 0.023683948 -0.033474717 0.07393596 -0.005263268 -0.016259206
0.019067788 -0.084658906 -0.04378798 0.07092539 0.010590929 0.049625702 -0.084462546 0.030247262
0.019900043 -0.066515975 0.0292943 -0.015351289 -0.08832401 -0.03340045 -0.03182379 -0.018381966
-0.051499486 -0.07291336 -0.0586597 0.033211697 0.08308401 -0.08213827 0.049109068 0.08114863
0.056363683 0.09740855 -0.078937955 -0.0571209 -0.060671255 0.05254217 0.017044391 0.010135488
0.061613515 0.02865886 -0.058428466 0.041513745 -0.030374952 -0.001301194 -0.047306694 -0.015973689
0.09378056 -0.00023253572 -0.019364078 0.04542738 0.06343347 -0.07439671 0.0730779 -0.019162247
-0.09173254 0.007705409 0.03830804 0.06547219 0.038861345 0.087768875 0.03279669 0.04371325
0.03731437 -0.042334933 -0.047100104 0.0090390295 0.08170835 -0.046814106 -0.042429823 0.0606511
-0.042766046 -0.0035088062 0.011081341 0.0058585503 -0.025078101 0.02713317 -0.011074409 0.0352575
-0.024566261 0.012619534 -0.091377094 0.019017337 0.046864867 0.07574625 -0.013659885 -0.040469866
-0.066220105 0.037444547 0.039225787 0.028245559 0.016716635 -0.07463248 -0.033848688 -0.029419823
0.030055435 -0.03822989 -0.0060224948 -0.037828285 -0.03512499 -0.029294137 -0.057821047 -0.11687223
0.015044804 0.0703943 0.08520248 0.06431254 0.017094621 0.03672225 0.032046795 0.015528088
0.0028823367 0.011450941 0.09144091 -0.01720799 0.038454887 -0.022556704 -0.0413903 0.04097787
-0.07109576 -0.060858905 0.0032285135 -0.0455872 -0.05546036 0.09000967 0.069525704 -0.0050536557
-0.055887744 0.06853623 0.023376161 0.06857061 0.023313988 0.052043542 -0.0651724 -0.013349399

decoders.0.decoder_net.7.bias f4 [16]
00000000: 10c2 943d 6480 c4bc e67e b4bc 81f2 403d
00000010: c460 9fbc 48d5 03bd ca75 be3d 64e6 a3bd
00000020: 541d 003d 1dc6 64bd ee1d 4ebd bc9e ff3d
00000030: 4679 c93d c9d8 f7bc 3149 ee3c 3814 57bd
0.07263577 -0.023987003 -0.022033166 0.04710627 -0.019455321 -0.032185823 0.0929981 -0.08002928
0.03127797 -0.055852998 -0.050321512 0.12481448 0.09837584 -0.030254738 0.029087635 -0.052509516

decoders.0.decoder_net.9.weight f4 [16]
00000000: 8ce3 683f d4be 6c3f c109 683f bc41 723f
00000010: 94b9 673f 31f7 643f 0e5d 6c3f 0b67 693f
00000020: 5fa2 5e3f 4b33 653f 7d4c 713f 2076 683f
00000030: 5e26 723f d3be 733f 68ce 723f 9e17 673f
0.9097221 0.9247868 0.90639883 0.9463155 0.90517545 0.89439684 0.9232949 0.91172856
0.8696651 0.8953139 0.94257337 0.90805244 0.94589794 0.9521305 0.948462 0.9027041

decoders.0.decoder_net.9.bias f4 [16]
00000000: 3387 40bd 7650 633d d520 ccbd 4261 1d3e
00000010: 3dd6 11be 4cd2 0b3e e849 0cbd 2b2b 58bd
00000020: e9d2 813e 1491 a4bc a45b b5bd 0abb 35bd
00000030: 654e 813d bc1b 633e 2a53 26be e14e 273d
-0.047003936 0.055496655 -0.099672 0.15369132 -0.14241882 0.1365444 -0.03425017 -0.052775543
0.25356224 -0.02008871 -0.0885537 -0.044367827 0.06313781 0.22178549 -0.16242662 0.04084671

decoders.0.decoder_net.9.running_mean f4 [16]
00000000: 1e49 923d 1e49 923d 1e49 923d 1e49 923d
00000010: 1e49 923d 1e49 923d 1e49 923d 1e49 923d
00000020: 1e49 923d 1e49 923d 1e49 923d 1e49 923d
00000030: 1e49 923d 1e49 923d 1e49 923d 1e49 923d
0.07142852 0.07142852 0.07142852 0.07142852 0.07142852 0.07142852 0.07142852 0.07142852
0.07142852 0.07142852 0.07142852 0.07142852 0.07142852 0.07142852 0.07142852 0.07142852

decoders.0.decoder_net.9.running_var f4 [16]
00000000: 13b0 e93a 5834 053b 2f68 d43a bac5 323b
00000010: c814 e63a d055 b63a 36f9 233b 3ea7 583a
00000020: c1b6 ad3a a900 ad3a bae2 533b a557 ed3a
00000030: 9879 5f3b 428a 2a3b 767f 813b 64d0 833a
0.0017828963 0.0020325389 0.0016205366 0.0027278499 0.0017553801 0.0013911072 0.0025020367 0.0008264667
0.0013253317 0.0013199049 0.0032331184 0.0018107785 0.0034099575 0.002602235 0.003951962 0.0010056612

decoders.0.decoder_net.10.weight f4 [16, 1, 3, 3]
00000000: 3295 7a3e c7ec 423e 9c5d 86bd 04c8 e2bd
00000010: bbf2 373e ad7c 01be 7ea6 1ebc 7873 97bd
00000020: 30fb 14be 1cc2 5bbe b9b3 d33d ac35 73be
00000030: b43a 603e feb5 9f3d baf9 b13d fe90 123e
00000040: f539 583e 4635 49be 81e8 1b3d 2c52 0f3d
00000050: 79cd e03d 053b 28bd e6eb 4ebe f11d 483e
00000060: 17ea 36bd 4011 aabc d319 393e d18c 02be
00000070: 476b 91be df6d 423e 0d9c 6c3e 0c5f 15be
00000080: 3385 45bd 30ef 4e3e afee 7abe f73f 9e3d
00000090: dc85 8e3d dc1a 2b3e dcfa a4bd b757 62be
000000a0: 4a82 98bd 9fbf 3d3e 2e38 a2bd 68d7 2e3e
000000b0: b0b0 1b3d d3c6 0cbe 1b4c c13d 8bf0 16be
000000c0: ce91 a93d 1c35 003e 8f37 593d d810 673c
000000d0: 1239 323e fa40 3fbe d6e3 073e 4241 0ebe
000000e0: 909c 623e f37b 833e 37ce 6f3e cda2 3cbe
000000f0: 8463 99bc bd04 a5bd 5cdc 22be 8267 f53d
00000100: 6bd8 253e d7de 233e bf99 043e af8e 613e
00000110: 09d5 123e 4118 473e 3ed9 053e 2c7d cb3d
00000120: 5252 053e e21c 2a3d 4055 e73d 2d8a a53d
00000130: 8803 d2bb e688 60be d104 10be 8620 623d
00000140: cea8 40be c75a 563e 5e8a 603d 4e78 423d
00000150: b43b 5d3e 4c9f 233e 1eab e6bd d900 e53d
00000160: f8d0 ccbd ffa9 903d 872f 4e3e aa69 92be
00000170: 6efc 3ebe e949 5ebd 345e 0e3e afd4 d43d
00000180: 726a fe3d 1bac 173e 1df3 3bbd 3877 1abe
00000190: ad31 2f3c d048 b13d eed3 5ebd 611c 073c
000001a0: 0dd6 50be 8bca 41be 2f4c 153e 9b16 c93d
000001b0: c5e1 f1bd bf87 04be 18dd 12be 8420 c9bd
000001c0: 2536 a73c 1f13 7abe 1593 4bbd 1f70 823d
000001d0: 41a9 62be 2062 c13d 196f 4cbe 2117 82be
000001e0: aa16 353d 5a34 05be 3597 37bd 212a b43d
000001f0: 6bf4 32be d6db dd3d bf50 56be 89ff c1bd
00000200: 2228 a9bd 4947 04be b33f cdbd d014 7e3e
00000210: 8a38 81bd e448 593d 2f2a 8b3e ed64 e93c
00000220: 756c ed3c 3c90 443c 5af4 3a3e a5e6 2e3d
00000230: 36f7 ed3c a34d a0bd 5329 adbd cb52 21bc
0.24470976 0.19035636 -0.06560823 -0.11073306 0.17963688 -0.12645216 -0.0096832495 -0.07395071
-0.14548945 -0.21460766 0.10337014 -0.23750943 0.21897393 0.07798384 0.0869021 0.14313123
0.21115859 -0.19649228 0.03806353 0.034990475 0.10976691 -0.04107191 -0.20207176 0.19542672
-0.04465684 -0.020760179 0.18076257 -0.1274903 -0.2840216 0.18987225 0.23106404 -0.14587039
-0.04822273 0.2020843 -0.24505113 0.07727044 0.069591254 0.16709465 -0.0805566 -0.22103773
-0.07446726 0.18530129 -0.07920872 0.17074358 0.0380103 -0.1374772 0.09438344 -0.14740197
0.08279763 0.1252026 0.0530315 0.014103137 0.17404583 -0.1867713 0.13270506 -0.13892081
0.22130036 0.25680503 0.23418508 -0.18421479 -0.01872421 -0.080575444 -0.15904373 0.11982633
0.16195838 0.16002975 0.12949274 0.22027086 0.14339079 0.19442846 0.13071153 0.09935984
0.13019684 0.04153145 0.11295557 0.080829956 -0.0064091124 -0.21927223 -0.14064337 0.055206798
-0.18814394 0.20933066 0.054819457 0.047478013 0.21604806 0.15978736 -0.11263107 0.11181802
-0.10000795 0.07063674 0.20135318 -0.2859624 -0.18650982 -0.054269705 0.13903123 0.10392129
0.124226466 0.14811747 -0.045886148 -0.15084541 0.010692996 0.08656466 -0.05440133 0.008246512
-0.20394154 -0.1892492 0.14579843 0.09818765 -0.1181064 -0.12942408 -0.14342153 -0.09820655
0.02041156 -0.24421357 -0.049700815 0.06369042 -0.22134878 0.09442544 -0.19964255 -0.2540827
0.044211067 -0.13008252 -0.044821937 0.08797098 -0.1747605 0.10832946 -0.2092924 -0.094725676
-0.08259608 -0.12917818 -0.10021915 0.24812627 -0.06309612 0.05304803 0.2718062 0.028490508
0.02898238 0.011997279 0.18257275 0.04270043 0.029048543 -0.07827308 -0.084551476 -0.0098464

encoder.encoder_net.0.weight f4 [16, 1, 3, 3]
00000000: 601c 58be afe1 973e 375e 993e a968 86be
00000010: 918d 5bbd 4889 e7bb 25b9 47be 0dd1 50bd
00000020: b1d6 983e b6fc 1d3e ed5c 903e cf16 573e
00000030: 000d 2ebe a0d7 063e 3acb 283e 2be2 60be
00000040: 2d3e 123e bc60 a03e 6915 373e 1243 80be
00000050: 6e7f 71be b353 b23d 0836 83be 74f7 07be
00000060: 77a1 1abe 7fd8 343d 07d5 8d3e 9b2c a83d
00000070: 0f2f 423e 6a2f b83e 3b31 91be 1e71 f0bc
00000080: 665a 093e de0f 02be 73b0 09bc 3846 74be
00000090: a52b 9fbe 2ec8 803e dcdf 3dbe d721 b3be
000000a0: 1b2c 9fbe c0af 3ebd 3f11 4abe 5299 d33d
000000b0: 1aa8 803e 9447 9fbe 81b0 abbe f291 543e
000000c0: 5d6e 3bbe 373a 83be fce6 9a3e 34c2 603c
000000d0: 9afa c23d 8f04 1d3e 91a6 b43e d5f1 003e
000000e0: 2107 59be 4509 8d3e 1532 89bc e64f 4d3e
000000f0: 65c0 83be d1df 10be b8cb d33d 4ce8 be3d
00000100: 6059 0f3e 28f7 6fbe 5b16 a13e 5904 68be
00000110: 7339 76bc 8c17 a83e 3d43 1d3e 597a a03e
00000120: a5f3 1c3e 74d3 e9bd 11e4 d33d 9dca 00be
00000130: eede d1bd b2e7 1dbb ef67 7a3d 082b 96be
00000140: d75f 8dbe f548 6d3e 8e1d e93c b500 9abe
00000150: bf8a 123e 841f 67be ca24 3f3c f832 053e
00000160: ea97 4c3e 9a1e a8be a63a 91ba e138 b33e
00000170: 51c5 823e 25da 8dbe 477c 6e3b 9ce1 853e
00000180: 28ec 12be 8b61 053e 292c 503e adf4 1bbe
00000190: 3fc9 febd fadc 38be 6e8a 123e 2f8c b2be
000001a0: fb67 3fbe 751c 7bbc 5b70 02bd ec62 36bd
000001b0: 5383 93bd 954e 87b7 b744 2f3d 8c12 c33d
000001c0: a5f2 76bd 3b97 8c3e 0f96 463e 1aab a33e
000001d0: 4800 80be ad43 b2be df3a e0bd 2503 c83d
000001e0: ec57 cabd 546a b1be f795 60be 79c2 0abe
000001f0: 63ef 18be 23c5 35be 038c 09bd 0bdc 6b3e
00000200: b236 a53e cb7f a33e 77be c23d 6c10 b13d
00000210: 2ef3 9d3e 618c 92be fdad 32bd 637d 1bbe
00000220: f7e2 6cbc b3ab 08be 689f f1bd 3899 81be
00000230: c69b 603d c932 6f3e 4a1d 863d 5bec 903c
-0.21104574 0.2966437 0.29954693 -0.26251724 -0.053601805 -0.0070659257 -0.19504221 -0.050980616
0.29851297 0.15428433 0.28195897 0.21004795 -0.16997147 0.13168192 0.16483775 -0.21961276
0.1428153 0.31323802 0.17879261 -0.2505117 -0.23583767 0.087073706 -0.2562716 -0.1327799
-0.15100656 0.04415178 0.2770159 0.08211633 0.18963264 0.35973674 -0.28357872 -0.029350813
0.1341339 -0.12701365 -0.008403885 -0.23854911 -0.31087986 0.25152725 -0.18542427 -0.34986755
-0.31088337 -0.046554327 -0.19733141 0.10331978 0.2512825 -0.31109297 -0.335331 0.20758799
-0.18303819 -0.25630352 0.30254352 0.013718177 0.09520455 0.1533377 0.3528333 0.12592252
-0.21194126 0.27546135 -0.016747514 0.2005001 -0.25732723 -0.14147879 0.10341591 0.09321651
0.13998938 -0.23434126 0.31462368 -0.22657908 -0.015028345 0.32830465 0.1535768 0.31343344
0.15327318 -0.114172846 0.103462346 -0.12577291 -0.102475986 -0.00240944 0.061134275 -0.29329705
-0.27612182 0.23172362 0.028456476 -0.30078664 0.1431074 -0.22570616 0.011666486 0.13007724
0.19979826 -0.32835847 -0.0011080101 0.35004333 0.25541165 -0.27705494 0.0036389993 0.2614869
-0.14347899 0.13025491 0.20329346 -0.15230055 -0.124407284 -0.18053046 0.14310619 -0.34872577
-0.18692009 -0.015326609 -0.03184543 -0.044527933 -0.072027825 -1.6129847e-05 0.04279014 0.09525022
-0.060289998 0.2745913 0.1939318 0.31966478 -0.25000215 -0.34817258 -0.10948729 0.09766225
-0.09880051 -0.34651434 -0.21932207 -0.13550748 -0.14935069 -0.17750983 -0.03358079 0.23033158
0.32268292 0.31933436 0.095089845 0.0864571 0.30849594 -0.28622726 -0.04362296 -0.1518455
-0.0144584095 -0.13346748 -0.117979825 -0.2531221 0.054836057 0.23359217 0.06548555 0.017690828

encoder.encoder_net.0.bias f4 [16]
00000000: b942 a4bd 1033 513e 6d0a 5abe 5936 dbbc
00000010: dae1 0f3c ffcc 1dbe 4430 b93d 41ef 4b3e
00000020: 9d07 7abe 73fa 573d 540a 53be 9e26 e6bd
00000030: 51eb 84be aa91 3dbe cead 323d 3462 8e3e
-0.08020539 0.20429635 -0.2129304 -0.026759313 0.008781875 -0.15410231 0.09042409 0.19915487
-0.24416967 0.05272908 -0.20609409 -0.112378344 -0.25960782 -0.18512598 0.043622784 0.27809298

encoder.encoder_net.2.weight f4 [16]
00000000: 301f 7e3f 729a 8b3f 3607 833f 26c4 803f
00000010: 38ae 813f cd82 863f 3559 823f e683 873f
00000020: adc0 8f3f 7deb 7c3f 74bd 853f 4057 8b3f
00000030: 7bfa 873f 3f6c 8d3f ba7a 843f dd71 833f
0.9926634 1.0906508 1.0236576 1.005986 1.0131292 1.0508667 1.0183474 1.0587127
1.1230675 0.98796827 1.0448442 1.0886002 1.0623316 1.1048659 1.0349953 1.0269123

encoder.encoder_net.2.bias f4 [16]
00000000: e6cf 3a3d 00b3 ddbc 5df7 28bd d3c6 c0bc
00000010: a5ad 18bd 85b3 f0bc 0cb8 a1bc 6a75 1cbb
00000020: 112c 1e3d 14db 243d b8dd 113d b664 bf3b
00000030: ba64 d5bc a013 48bd 5eb3 f13c 5892 de3d
0.045608424 -0.027062893 -0.04125153 -0.023532307 -0.037274975 -0.029382477 -0.01974108 -0.0023873695
0.038616244 0.04024799 0.035611838 0.005840863 -0.026049007 -0.04884684 0.029504474 0.108677566

encoder.encoder_net.2.running_mean f4 [16]
00000000: 1e49 923d 1e49 923d 1e49 923d 1e49 923d
00000010: 1e49 923d 1e49 923d 1e49 923d 1e49 923d
00000020: 1e49 923d 1e49 923d 1e49 923d 1e49 923d
00000030: 1e49 923d 1e49 923d 1e49 923d 1e49 923d
0.07142852 0.07142852 0.07142852 0.07142852 0.07142852 0.07142852 0.07142852 0.07142852
0.07142852 0.07142852 0.07142852 0.07142852 0.07142852 0.07142852 0.07142852 0.07142852

encoder.encoder_net.2.running_var f4 [16]
00000000: 611e e938 ee56 b539 e13a cb38 f6db c738
00000010: 16ff 4239 9907 3839 4ce7 f738 0566 8639
00000020: 43e8 da38 9422 a838 c8d3 9039 fa1a 3e39
00000030: 8913 0339 24b5 bb39 f219 cf39 0d17 4b38
0.00011115964 0.00034587778 9.690761e-05 9.5300304e-05 0.00018596309 0.00017550438 0.0001182096 0.00025634482
0.00010438312 8.017305e-05 0.0002762361 0.00018129862 0.00012500411 0.0003580238 0.00039501447 4.842044e-05

encoder.encoder_net.3.weight f4 [32, 16, 3, 3]
00000000: 3ae3 983d 8908 5dbd 6d14 0c3d 3db8 153d
00000010: 9ba3 cb3c deaa 89bd b547 2c3d d35e 6e3d
00000020: 5b81 893d edb7 5b3d f017 d8bc a927 7fbd
00000030: 488a 013c 1e00 0fbd f94e 2ebd ac25 71bd
00000040: e073 54bd f511 b9bc 52ad 9e3d 2cd5 f7bc
00000050: c0f5 4f3d 9b97 073d 46fb 5d3d 70da 403c
00000060: 5bc8 f83c c807 abbc 3bfa 663d 687a bf39
00000070: 3964 a13d bc30 123b 44a9 cbbc 8688 413d
00000080: c9cd a1bd bb6b be3d a4b3 b2bd 22d7 0f3d
00000090: 8401 28bc ce80 323d 8c40 34ba 6509 ebbb
000000a0: aba2 c439 be4d 643d ed1d 3e3d f57f cb3d
000000b0: 302b 5c3d efb8 283d 42be 34bd 63c8 0ebe
000000c0: 8a9f 55bc e1cd 3e3d f99a de3b f105 a7b8
000000d0: 06ee 64bd 9594 a43d f77e 4e3d 5c26 aa3c
000000e0: 4ef7 a03c 0b2b 92bd 4819 07bd 3422 52bd
000000f0: c780 9abd f702 babc dabd cf3c 6dfd 8ebd
00000100: 9dde 333d c9f4 26bc d1c4 14be d125 09bd
00000110: 1be3 7c3d 70ca abbd 65cf 7bbd 4101 a4bd
00000120: f994 883c 8ae6 d23b da38 733d 7203 b5bb
00000130: 87fe 463d 81a2 c63d 8fb5 ce3d 8204 a63d
00000140: e2ae 98bc 4dc2 553d 6331 b6bd 5579 23bd
00000150: 31a2 2ebd fb93 8abd ac6d 473d e92e b2bd
00000160: cea4 923c ff5b 21b6 1488 5abd f3b3 2d3d
00000170: 78c1 01bd 9ce9 95bd 5b34 babd 04ec 8a3c
00000180: bd9e 57bd 66d0 b2bd 8d89 d73c c1c6 dcbc
00000190: 597f afbd b7b7 663d eacb 85bc 6da0 99bb
000001a0: c410 a83c e670 ce3d c4a5 9f3d 68b9 28bc
000001b0: df73 c1bd 9190 8e3d 96a0 8cbd 24d8 06bd
000001c0: 90d1 fbbd bdd5 e83c 8237 bfbd 5f37 a6bd
000001d0: ef95 37bc aabb 70bc 5256 c0bc 0feb 153d
000001e0: 0a82 973d 13c1 19bd f974 993d e0e7 f03d
000001f0: 863c 773d 527e a53c 3b6a 503d a17f 24bd
00000200: 220f 88bd c2b8 c2bd 698b e23c 7dc0 95bc
00000210: ade1 a7bc 7eb0 9dbd bf1a d23b 5661 64bd
00000220: 5416 3c3d 4f39 533d 7964 cb3d 8a99 a33d
00000230: 5a7b d73c 2a39 103d 8bd0 44bd e2b5 88bd
00000240: 6ad5 4b3d 6230 29bc 8c3b a73d a9f3 e43a
00000250: d2e9 243d a13b eebd 7052 3c3d 2f01 b93c
00000260: bcc4 80bd bf10 0a3b 899a 933d e264 043d
00000270: 3786 dfbd 46dd 66bc 94fb a63d d18b 30bd
00000280: 0d35 913d 768b 98bd 32e8 29bd b326 3e3d
00000290: 642c 04bd 332e 24bd 7079 4d3d 6f24 edbd
000002a0: 03e2 4fbd 7410 ed3c 4390 373d f995 a53d
000002b0: 357c 8b3c bc2e d53c ebf2 85bd 0118 78bd
000002c0: 7768 943d bdef 823c 8875 3e3d 4bf7 913d
000002d0: 1272 d93c 8b27 303d c11d 673c 107a f03c
000002e0: 89f5 ac3d 3d24 8cbd 1e23 563d f9a6 c03c
000002f0: 9d81 413d d205 14bd 3499 acbb bb41 76bc
00000300: ffd2 ad3d 1e4d e43c 97aa 523c 420f e83c
00000310: efe2 d53d 96f7 68bd a3f4 a0bd 0f06 913d
00000320: 3208 88bd 4e6f 19bc 1851 103d dd3d 183d
00000330: ca42 013c fab6 98bc 1d58 50bd 2aa1 97bd
00000340: 809b 683d 4a03 ddbb 274a 883c a6e0 aabd
00000350: 8530 213d 1873 91bd 96ed f23c 01ae 2fbd
00000360: b058 d5bc 4fbb b5bd 6d3f 133d e3c8 073e
00000370: 370d debd e080 6c3d 1ed9 813d 91ae 3c3d
00000380: d037 4e3d ff40 45bd e051 1fbd 7f57 a5bd
00000390: 3e14 97bc 2ee2 32bd 6afb 793d cfc7 95bd
000003a0: d1be e5bd 3464 0c3d 6d06 9b3c 9999 67bd
000003b0: b245 c1bb 36b7 cdbd 1f92 ce3d d677 823c
000003c0: 43a3 8a3d 79a0 073d be9d 163c fa77 ac3d
000003d0: fecf 8fbb 8a11 2a3d 1867 5a3d 7582 aebd
000003e0: bf1d 483d b8c6 c93d 6bc6 24bc a23c 083d
000003f0: b2cc 08bd af17 113c 1d51 2e3d 1743 fa3c
0.07465215 -0.053963218 0.034199167 0.036552656 0.024858287 -0.067220435 0.042060573 0.0581959
0.06714126 0.053642202 -0.026378602 -0.062293682 0.007906504 -0.03491222 -0.042555783 -0.058873817
-0.05186832 -0.02259157 0.07747902 -0.030253015 0.050771475 0.033103567 0.05419471 0.01177083
0.030368974 -0.020877734 0.056390982 0.0003652156 0.07880444 0.002230688 -0.024860986 0.04724934
-0.079005785 0.09297892 -0.0872567 0.035117276 -0.010254268 0.04357987 -0.00068760733 -0.007172751
0.0003750523 0.055738203 0.04641526 0.09936515 0.053752124 0.04119199 -0.044126756 -0.13943629
-0.013038525 0.04658306 0.0067933765 -7.964287e-05 -0.05589106 0.08036152 0.05041405 0.020770244
0.019649174 -0.07137116 -0.032983094 -0.05130215 -0.075440936 -0.022706492 0.025359083 -0.06981931
0.043913472 -0.010190197 -0.14528205 -0.03348333 0.061740022 -0.08388221 -0.061477084 -0.08008052
0.016672598 0.006436174 0.05938039 -0.0055240924 0.04858258 0.09698964 0.10093223 0.081063285
-0.018638078 0.052187253 -0.088961385 -0.039910633 -0.042635147 -0.06766506 0.048688576 -0.08700354
0.01790085 -2.4044418e-06 -0.05335243 0.04240794 -0.031678647 -0.07319948 -0.09092017 0.016958244
-0.05264162 -0.08731155 0.026310707 -0.026950242 -0.085692115 0.056327548 -0.016332585 -0.0046883137
0.020515807 0.100801274 0.07795289 -0.010298111 -0.09445929 0.069611676 -0.06866567 -0.03292097
-0.1229583 0.02842223 -0.09336759 -0.0811603 -0.011205181 -0.01469318 -0.02347866 0.036601122
0.0739785 -0.037537646 0.07493014 0.11762977 0.060360454 0.020201836 0.05088256 -0.04016078
-0.06643511 -0.09507896 0.027654367 -0.018280262 -0.020493353 -0.07699679 0.00641188 -0.05575689
0.04591973 0.051568326 0.09931273 0.079882696 0.026303936 0.035210766 -0.048050445 -0.066753164
0.049764074 -0.010326477 0.081656545 0.0017467636 0.04026205 -0.11632467 0.045977056 0.022583572
-0.06287524 0.002106711 0.072072096 0.03232277 -0.10914271 -0.014090842 0.081534535 -0.04310209
0.07090197 -0.07448475 -0.041481204 0.046423625 -0.032268897 -0.04008312 0.05016464 -0.11579215
-0.05075265 0.02893851 0.044815313 0.08085246 0.017027 0.026023261 -0.065404736 -0.060569767
0.072464876 0.015983457 0.046498805 0.071272455 0.02654365 0.04300646 0.014106215 0.029355079
0.084452696 -0.068428494 0.052279584 0.023517119 0.04724275 -0.036138363 -0.0052672867 -0.01503032
0.0848751 0.027868804 0.012858055 0.028327588 0.10443675 -0.05687674 -0.07859161 0.07081234
-0.06642188 -0.009364916 0.035233587 0.037168372 0.007889459 -0.018641938 -0.05086528 -0.074037865
0.05678892 -0.006744777 0.016636921 -0.083436295 0.039352912 -0.071020305 0.029654305 -0.042890552
-0.026043266 -0.08873617 0.03594916 0.13260226 -0.10842364 0.057740092 0.0634024 0.046064917
0.050346196 -0.04815769 -0.03889644 -0.08073329 -0.01844227 -0.043672733 0.061030783 -0.07313501
-0.11218036 0.03427525 0.018923962 -0.056542967 -0.005898201 -0.1004471 0.10086464 0.015926283
0.06769421 0.033112023 0.009192882 0.08421321 -0.0043888083 0.041520633 0.053320974 -0.085209765
0.048856493 0.09852356 -0.010057072 0.03326095 -0.033398338 0.008855744 0.042557824 0.030549569

encoder.encoder_net.3.bias f4 [32]
00000000: c9ec bb3d cdfd febc 0293 7a3d 5109 01bd
00000010: 0d92 243d 3b38 3ebd 9a05 89bd 61f5 a8bc
00000020: 66e6 8b3d defc 193d 12c1 283d 613b 67bd
00000030: b547 4fbd 142d 403d d0ee c4bc c949 47bd
00000040: 1159 2d3d c482 dc3c c9c7 2f3d 015a 55bd
00000050: 45c6 cdbd b03c 11bb 86d3 43bd a4fd 593d
00000060: e0b7 50bd 0c75 a93d 1417 a13d d243 9d3d
00000070: 1df7 3c3c c8e5 893d df5c 7c3c 9d67 453d
0.091760226 -0.031126881 0.061175354 -0.031503025 0.040178347 -0.046440344 -0.066905215 -0.020624818
0.068310544 0.03759467 0.04119975 -0.056453113 -0.050605495 0.04691799 -0.024039656 -0.04865435
0.04232127 0.026917823 0.04291514 -0.052087788 -0.100475825 -0.0022161417 -0.047809146 0.053220406
-0.050956607 0.08274278 0.0786573 0.07678951 0.011533526 0.067332804 0.015403002 0.048194516
