miniproject2/experiments/ensemblyVAE/ND3/modelSeed268nD3.pt (torch, 287219 bytes, 75 tensors)

prior.mean f4 [2]
000000 00 00 00 00 00 00 00 00
       0.0 0.0

prior.std f4 [2]
000000 00 00 80 3f 00 00 80 3f
       1.0 1.0

decoders.0.decoder_net.0.weight f4 [512, 2]
000000 b6 38 ff be bf 91 31 bd fd 0a 45 3f 70 9d 52 3e
       -0.49847955 -0.043351885 0.7696989 0.2056787
000010 8a 1a 0e be d0 d4 29 bf f6 45 c3 be a1 f0 3b bd
       -0.13877311 -0.6634035 -0.38139313 -0.04588378
000020 f2 ab 18 3f fe ed de be b1 01 49 3e 67 21 0f 3f
       0.5963737 -0.4354095 0.19629551 0.5591034
000030 ff 1d 0c 3f 16 b6 2f be 96 08 8a be 1e 85 8d be
       0.5473327 -0.17159304 -0.26959676 -0.27640623
000040 5e b8 0e 3e 7f 03 d2 3e 26 73 11 3e 62 9d 1a be
       0.13937518 0.41018292 0.14204082 -0.150991
000050 a0 46 fa bc f9 ac f9 3e dc 3a 4b 3e 94 4a e7 3e
       -0.030551255 0.4876478 0.19846672 0.45174086
000060 67 86 3b bc 71 04 2a bf 82 17 ea be 90 61 13 3f
       -0.011445618 -0.6641303 -0.4572106 0.57570744
000070 62 8c 23 3f d0 8e e1 be 47 7a f1 be 8f 4a 18 3d
       0.6388608 -0.4405427 -0.47163603 0.03718048
000080 0b aa 0f 3f 05 2c 1a bf 07 9d 45 3e 32 50 0c 3e
       0.5611884 -0.6022342 0.19298182 0.13702467
000090 e2 9d 26 bf ca c2 0f 3e 7e 31 8e be 4e fb 95 3d
       -0.6508466 0.1403915 -0.27772135 0.07323323
0000a0 03 03 50 be 0a 43 d4 be 96 f6 32 3f 0b 4f 1a 3c
       -0.20313649 -0.41457397 0.6990751 0.009418259
0000b0 f5 51 20 3f 4a 54 09 3f 88 30 5b be 52 c4 9f 3e
       0.62625057 0.5364424 -0.21405232 0.31204468
0000c0 fe de 17 3f ee e6 86 bd b8 cd d9 be 23 b8 5b bf
       0.59324634 -0.06587015 -0.42539763 -0.85827845
0000d0 a9 16 a8 be 46 13 05 3f 6a d6 c4 be 3b 7e e6 3e
       -0.32829788 0.51982534 -0.38444835 0.4501818
0000e0 8f d3 8e be 21 15 33 bf 80 10 cd 3e 08 02 26 3e
       -0.2789578 -0.69954115 0.4005165 0.16211712
0000f0 98 24 37 3f 87 49 cb 3e 35 2c 86 be 2f 7e f6 3e
       0.7154021 0.39704534 -0.26205602 0.48143145
000100 53 c4 9a 3e 2d 87 1b 3f 54 45 05 3f e9 ec 2f 3f
       0.30227908 0.60753137 0.5205891 0.6872087
000110 4d 16 09 3f 21 6c 98 3e 09 b8 d6 be ee 3f d9 3e
       0.53549653 0.29769996 -0.41937283 0.42431587
000120 53 a5 67 3e 82 06 21 3f 22 28 1f 3e 62 30 ee be
       0.2262166 0.62900555 0.15542653 -0.46521288
000130 fa c6 d7 be fb cc a3 bc de 2e be 3e 21 08 80 be
       -0.42143995 -0.019995203 0.37145132 -0.25006202
000140 da 75 2d 3d 80 ee dc 3c 48 35 03 3f 08 7c 6b 3f
       0.04234872 0.026969194 0.51253176 0.9198613
000150 a3 3e f7 be 4c 0f da 3e 94 84 15 bf 76 dc a5 bd
       -0.48289976 0.42589796 -0.58405423 -0.0809869
000160 1a dd 11 3e 15 af 61 be 66 30 91 bd 81 6a 25 bf
       0.142445 -0.22039445 -0.070893094 -0.6461564
000170 07 9c 36 3f c2 52 51 be cb fe 90 3e b1 7c 54 be
       0.7133183 -0.20441726 0.28319392 -0.20750691
000180 24 b2 dd 3c 88 f7 41 bf 8d 95 a1 3e 8d c7 8d 3e
       0.027062483 -0.7576833 0.3155941 0.27691308
000190 a8 3c 94 bd 2d 87 85 be 0e 83 7a be 0b af 0c 3f
       -0.07238132 -0.26079693 -0.24464056 0.54954594
0001a0 83 ff a0 be 5a 51 15 3f ab 82 28 bf a6 f0 39 bf
       -0.3144494 0.5832726 -0.65824383 -0.72632825
0001b0 95 36 51 3e c9 54 d1 3d 8a bb 19 bf d0 63 11 3f
       0.20430978 0.102212496 -0.60051787 0.56792927
0001c0 d2 b7 10 bf 64 8c f4 be 7e f7 7a be 72 d5 30 3f
       -0.5653049 -0.4776336 -0.24508473 0.6907569
0001d0 cc b5 d1 3e 27 25 f8 bd d8 7d f5 bd 09 56 07 3f
       0.40959013 -0.12116461 -0.119868934 0.52865654
0001e0 5e 53 e0 3e f2 06 46 be bb c6 95 bd d0 e3 f4 be
       0.43813604 -0.19338587 -0.073132955 -0.47830057
0001f0 cb 7e 13 bf 4f fb 03 3f 9f 1b 34 bf 75 c8 de 3e
       -0.57615346 0.5155534 -0.70354646 0.43512312
000200 95 b5 b1 3e 96 0b e7 be e9 4e 1e 3f b1 fe 8b 3e
       0.3470885 -0.45126027 0.6183916 0.27342752
000210 cf 69 47 3f b5 ff 19 3d 46 25 6b be a4 27 bf be
       0.77895826 0.037597377 -0.22963437 -0.3733493
000220 26 dd 2f be dc b8 21 3e 16 85 a2 be 41 ac f3 be
       -0.17174205 0.15793175 -0.31742162 -0.47592357
000230 60 12 8a 3e 4e a7 67 be 13 c6 15 bf db 9e 1b bf
       0.26967144 -0.22622415 -0.5850536 -0.6078927
000240 a0 6f 87 3e ee fa 2d 3f de c8 36 3f 1f 53 ca bd
       0.2645235 0.67961013 0.7140025 -0.09879135
000250 53 7a c8 3e 9f 3a 79 3e 4e e9 03 bf 0e 28 97 be
       0.39155826 0.24338768 -0.5152787 -0.29522747
000260 2c 94 2e be aa f8 40 3e cf 81 f1 3e 50 58 bd be
       -0.1704871 0.18844858 0.4716935 -0.3698144
000270 da 51 9a be 42 d6 89 bc 8c 07 04 bf 94 2e a7 be
       -0.30140573 -0.016825799 -0.51574016 -0.32652724
000280 1a 2a 48 3c a2 1d 3e 3e 7b 2b 39 3e 39 d1 15 3f
       0.012217069 0.18565992 0.18082993 0.58522373
000290 60 6c 82 bd e8 49 a1 3e 8e f0 13 3f 0f 38 b3 3b
       -0.06368327 0.31501698 0.5778893 0.005469329
0002a0 7b fb eb 3e 4e d4 2f 3f 5c d0 08 3d c6 a1 64 be
       0.46090302 0.68683326 0.033401832 -0.22327337
0002b0 d3 c2 4e 3f fe b7 39 3e c0 c1 9a be 72 8c 41 3e
       0.8076603 0.18136594 -0.30225945 0.18901232
0002c0 bd c7 27 3d e8 6d 2a 3e 51 dd 50 3e 57 90 1c 3f
       0.04096197 0.16643488 0.20396926 0.61157745
0002d0 6d 8a 1b 3f 7f 45 01 bf 30 ae 39 3e 4c ae 4b be
       0.60758096 -0.5049667 0.18132854 -0.19890708
0002e0 2a 4a 35 bc a9 1a fd be 61 67 3a 3e 3a 78 16 bf
       -0.011065045 -0.49434403 0.18203498 -0.587772
0002f0 d8 8d 06 3f 58 51 b3 bd c9 46 95 3e b7 fa e1 be
       0.52560186 -0.087557495 0.29155567 -0.44136593
000300 8e 49 15 3e b7 b3 05 bf 00 6e 55 bf ad 82 16 3f
       0.1457884 -0.5222735 -0.8337097 0.58793145
000310 0f 48 d1 bd f2 7a 6e be 58 21 3e bd a9 a1 d5 3d
       -0.10218822 -0.23289087 -0.046418518 0.10431225
000320 b8 48 ed be c4 3d 62 3e 48 0c c4 3e 98 8d 23 be
       -0.46344543 0.22093874 0.3829062 -0.15971982
000330 dc ea ab 3d 12 44 01 3e 90 1c 02 3e 7b 7c 34 bf
       0.08394405 0.12623623 0.12706208 -0.7050244
000340 cc e3 18 bf 69 9c 13 3e cb 47 a5 bd a2 3f 61 be
       -0.5972259 0.14415134 -0.08070334 -0.2199693
000350 e7 8d 08 3f c9 f7 e6 3e 1e 62 bb be 67 d0 b8 be
       0.53341526 0.4511092 -0.36598295 -0.36096498
000360 c3 c6 17 3d 6a 28 3a be 68 78 db 3d 09 77 22 be
       0.03705479 -0.18179479 0.10716325 -0.15865721
000370 65 1d 90 bc 61 72 de 3d 89 26 7b be 2d a2 08 3f
       -0.017592141 0.1086166 -0.24526419 0.5337246
000380 76 9f 0e 3c 2b 05 9f 3d 2c c8 fb 3e 4b 8d 1f 3f
       0.008705011 0.077646576 0.49176157 0.6232497
000390 55 d6 ab 3d 41 b3 0b 3f fd 56 54 be 6b f4 f0 3e
       0.0839049 0.54570395 -0.20736308 0.47061476
0003a0 7d 2c 2e 3f f6 5a 12 bf b4 ee 0b 3e 98 b3 cd be
       0.68036634 -0.57170045 0.13665277 -0.40176082
0003b0 e9 9b 48 bf 39 68 ac 3e 61 7d 4c be 29 48 c9 be
       -0.783629 0.33673266 -0.19969703 -0.39312866
0003c0 a6 1f e8 3e 99 39 1f 3f 8c 4a 81 be 02 e4 00 bf
       0.45336646 0.6219726 -0.25252187 -0.5034791
0003d0 a1 b8 25 bf 77 17 43 3e d2 3a a8 bc a8 5f 1b bf
       -0.64734846 0.1905192 -0.02053586 -0.60692835
0003e0 d5 43 17 3f e8 fb 13 bf be fc 56 be b6 44 93 be
       0.5908788 -0.57806253 -0.20994851 -0.2876336
0003f0 31 d2 7d 3e 24 b2 ce 3e 9e 52 a7 be ad 4d e5 3e
       0.24787213 0.40370286 -0.3268022 0.44785824

decoders.0.decoder_net.0.bias f4 [512]
000000 09 2b b7 be 9d 49 5c be f8 f4 2f bf 5e 85 c9 3e
       -0.3577502 -0.21512456 -0.6873317 0.39359564
000010 23 8f 25 bf b8 1a e3 be 6b ea 19 3f 75 19 1b 3f
       -0.64671534 -0.44356322 0.6012332 0.6058572
000020 5c 56 94 3e 69 7d 48 bf b4 cd 32 3f 5b b2 24 3d
       0.28972137 -0.7831636 0.6984513 0.040209156
000030 44 3d 12 3e 82 40 84 be 8a 66 d2 bc 56 52 04 3f
       0.14281183 -0.25830466 -0.02568366 0.51688135
000040 0a 78 e9 3e 8c 80 83 bd ec d4 15 3f 3e 72 07 be
       0.45599395 -0.06421003 0.5852802 -0.13227174
000050 b3 9f b8 3e 10 41 13 3f 01 c3 ad bd 3c 74 e0 3e
       0.3605934 0.5752115 -0.0848446 0.4383868
000060 76 b3 f4 be 8c b0 04 bf d2 6c e3 3d ec 3c 0b be
       -0.47793168 -0.5183189 0.1110474 -0.13597459
000070 7b 3f 6b be 72 22 40 bc 8c 11 48 bf 88 fd 03 bf
       -0.22973435 -0.011726962 -0.78151774 -0.51558733
000080 0e 19 26 3f ad 7d d7 3e 57 4a 56 3f b3 fb 61 be
       0.6488198 0.4208807 0.83707184 -0.22068672
000090 35 de 73 3e e3 1b 66 3c 56 37 cb bd 13 b5 b1 be
       0.23815234 0.014044735 -0.09922664 -0.3470846
0000a0 c8 d4 3a 3f ec 73 99 be 7d 1c d2 be 24 2a 20 bd
       0.7298093 -0.29971254 -0.4103736 -0.03910269
0000b0 5d e9 b6 3e db 2e 95 be 70 b5 08 3e 52 34 a4 3e
       0.35724917 -0.2913731 0.13350463 0.32071167
0000c0 50 a3 0d bf 2c ad 14 bf 08 8d 0e 3f 28 c6 8a 3e
       -0.5532732 -0.5807674 0.55683947 0.27104306
0000d0 d3 54 19 bf e5 e9 e8 be 86 7b 09 bf 70 32 ac be
       -0.59895056 -0.45490947 -0.53704107 -0.3363223
0000e0 55 a9 dd 3d bc 7e 08 3f 5d 80 15 3d a1 5b 25 bf
       0.10823313 0.5331838 0.03649937 -0.6459294
0000f0 94 48 af 3e e3 e3 26 bf 48 99 f3 3e a1 8a 22 3f
       0.3423506 -0.6519148 0.47577882 0.6349278
000100 dd 86 19 3f ac 38 16 3f 1d af 32 bf 8f 05 0d 3f
       0.5997141 0.58680224 -0.6979845 0.55086607
000110 86 49 41 3f f2 c8 3d bf 22 7e 07 3e 36 b6 c7 3e
       0.7550281 -0.74134743 0.1323171 0.39006203
000120 fa 49 32 be 55 52 8f be 36 22 0c bf dd 83 7d 3e
       -0.17411032 -0.27992502 -0.547397 0.24757333
000130 db 0c a0 be f5 c2 67 bd 41 71 5b 3e 80 c4 c0 3e
       -0.31259808 -0.05658241 0.21429922 0.37649918
000140 41 2d 09 bd a1 a6 04 bf 07 84 37 bf ef e1 c8 be
       -0.033490423 -0.51816756 -0.7168583 -0.39234874
000150 9b e8 1d be 04 d7 da 3e 36 d5 11 3f d3 eb 16 3e
       -0.15420763 0.4274217 0.5696596 0.14738397
000160 8c 8b 91 bb 20 01 2a 3e 78 c0 e8 3e 2d e0 dc be
       -0.004441684 0.16601992 0.45459342 -0.43139783
000170 6d 37 16 3f 3f 12 9e 3e d0 56 19 bd d1 3a 84 3e
       0.58678323 0.30873296 -0.037436306 0.25826123
000180 87 80 8d 3e 87 5c f2 3e 54 a4 0e 3e 92 19 bf bd
       0.2763712 0.47336218 0.13929874 -0.09331049
000190 a2 f9 27 3f 76 a8 0b bf e0 9d d8 3d f1 b4 1a bf
       0.65615284 -0.54553926 0.10576987 -0.60432345
0001a0 39 f0 99 3e dc 8d 06 3f 2e f8 25 3f fb 83 b8 be
       0.30066088 0.5256021 0.6483182 -0.36038193
0001b0 98 a1 1c bf e8 87 b5 3e 4f fb c0 3e a7 ac 1b bf
       -0.6118407 0.3545525 0.37691733 -0.6081032
0001c0 fa b6 0d 3e bb 8d 35 bf 36 a5 9f be d8 66 1b 3f
       0.13839331 -0.7091939 -0.31180733 0.607038
0001d0 74 5d 29 bd d6 96 24 bf 7e 84 cb 3d c2 e4 67 be
       -0.04134889 -0.6429266 0.0993738 -0.22645858
0001e0 e4 b6 0a bf 45 d5 5c bd be a1 c0 be 48 37 e9 be
       -0.5418532 -0.053914327 -0.376234 -0.4554999
0001f0 ed 42 04 bf c5 07 ea 3e 31 4f 28 3f f3 6f 06 bf
       -0.5166462 0.45709053 0.65745836 -0.5251457
000200 b3 01 dc bc 41 bc 43 3f 88 de dc 3e 30 5e 1a 3f
       -0.026856279 0.7645913 0.43138528 0.6029997
000210 2d 5e 31 bf a6 af 8d 3e 93 77 69 3e 9e d0 59 3c
       -0.69284326 0.27673072 0.2279952 0.013294367
000220 c9 32 68 be 8f 9f d0 be 8f f1 31 bf 9a 10 2f bf
       -0.22675623 -0.40746734 -0.69509214 -0.68384707
000230 52 b2 19 3f 0c 09 59 bf b2 f0 0f 3f 4c a9 f7 3e
       0.6003772 -0.8477943 0.56226647 0.4837135
000240 da da 12 bf d5 c1 a3 3c 78 84 80 3f a6 02 80 be
       -0.5736519 0.019989887 1.0040426 -0.2500202
000250 47 cd 1c be e7 0f 97 bd b5 b1 3b 3e e3 70 08 bf
       -0.15312682 -0.0737608 0.18329509 -0.5329725
000260 a7 ac f5 be aa a7 d6 be dd a3 a6 be 5a 7a fa 3e
       -0.47983286 -0.41924793 -0.32546893 0.48921472
000270 54 37 65 be 4f 32 e7 3e ca 14 36 bf 9f 51 e1 be
       -0.22384387 0.4515557 -0.7112547 -0.44007584
000280 2b 5e 45 3d 9d 3d d1 be b4 a0 7c bf 02 40 51 3c
       0.04818551 -0.4086732 -0.98682714 0.012771608
000290 06 f0 0c 3d e0 a7 e4 3e f2 c5 fc 3e d9 3a 8f be
       0.03440859 0.44659328 0.4936977 -0.27974585
0002a0 20 85 6a be 34 71 d7 bc e2 d2 aa 3d f9 39 95 3e
       -0.22902346 -0.026299097 0.08341004 0.29145792
0002b0 a2 e8 11 bf e8 a7 b2 be ec 60 37 3e 74 89 f2 be
       -0.56995595 -0.34893727 0.17908067 -0.47370493
0002c0 83 f2 9c be 2c b8 16 bf 0f 14 d0 3d d6 7e 1b 3e
       -0.30653772 -0.58874774 0.10160076 0.15185103
0002d0 1a 9a 24 3f d6 79 11 3f 50 1b aa be db 06 81 be
       0.6429764 0.5682653 -0.33223963 -0.25200543
0002e0 7a 68 01 3f cc 11 d3 3e 34 85 0f bf 8e b2 04 be
       0.50550044 0.41224515 -0.56062627 -0.12958738
0002f0 79 20 52 3d 43 23 45 bf 1a 36 b0 be b6 85 19 3f
       0.0513005 -0.7700693 -0.34416276 0.5996965
000300 1a 4f 4a bf 9c 66 c5 3e 41 68 ee 3e 46 45 15 3f
       -0.7902695 0.38554847 0.46563914 0.5830883
000310 d0 b2 bd be 42 3f 74 3e 10 da a9 be 09 54 89 be
       -0.37050486 0.23852256 -0.3317418 -0.26821926
000320 2d 45 bd be c2 f1 ba 3e 30 10 3a bc 95 a3 bc 3e
       -0.3696684 0.36512572 -0.011356398 0.36843553
000330 e2 39 b2 3e 22 c1 31 be c8 34 73 3e 77 4a 34 3f
       0.34809786 -0.1735883 0.23750603 0.70426124
000340 33 d1 5c 3d 0b 90 36 3f f7 31 22 bf 01 a9 82 3c
       0.053910445 0.7131354 -0.6335749 0.015949728
000350 61 aa b2 be 49 b6 07 bf f0 3a 0b bf 3e 3e 68 3e
       -0.34895614 -0.5301252 -0.54386806 0.22679994
000360 d1 e3 35 3f da f6 f8 be f2 e3 31 3e 5b 47 82 3d
       0.71050745 -0.48625833 0.1737211 0.06361266
000370 da 85 4f be a1 ab 24 3f c4 30 0c be 38 9e e2 3e
       -0.20265904 0.64324385 -0.13690478 0.44261336
000380 cd a7 bd 3e 5d c7 81 3e 32 e2 c3 be 97 11 50 3f
       0.37042084 0.25347415 -0.3825851 0.8127684
000390 34 45 f8 3e a7 26 15 3f 08 ae 05 bf 46 ac 26 bf
       0.48490298 0.58262104 -0.52218676 -0.6510662
0003a0 b9 cd c8 3e 02 1e 5b be 62 aa 62 3c 42 50 8e be
       0.39219454 -0.21398166 0.013834568 -0.27795607
0003b0 c9 15 83 3d bd b6 8b be 9b 31 00 bf 3c ef a7 be
       0.064006396 -0.27287856 -0.5007569 -0.3279971
0003c0 a1 5e 62 3e e3 77 77 3e fa ae c3 3f d7 49 0e 3f
       0.2210641 0.24166827 1.5287774 0.5558142
0003d0 49 a4 10 bf 22 8d 17 bf 75 0e 39 bf 0c 6b 8a be
       -0.5650068 -0.59199727 -0.72287685 -0.27034795
0003e0 ab 18 26 bf f7 a8 90 bc 3d e8 5d bf 32 f6 e6 be
       -0.6488139 -0.017658694 -0.8668249 -0.45109707
0003f0 db 2e 0e be 4f b7 f1 3e 50 f9 1c 3e 5d c4 5a be
       -0.13885061 0.47210166 0.1532948 -0.21363969

decoders.0.decoder_net.3.weight f4 [32]
000000 67 58 84 3f b1 e8 84 3f ae d3 85 3f ab 92 72 3f
       1.0339478 1.0383512 1.0455225 0.9475505
000010 83 c5 86 3f 8e 93 86 3f 18 a0 7e 3f 55 59 80 3f
       1.0529026 1.051378 0.99463034 1.0027262
000020 be b3 82 3f f2 ee 84 3f 68 a7 72 3f 8a 42 86 3f
       1.0211103 1.038542 0.9478669 1.0489056
000030 7b ee 82 3f 52 a6 76 3f 48 ee 81 3f 38 07 9b 3f
       1.0229028 0.96347535 1.0150843 1.2111578
000040 18 71 7d 3f 5f b0 7d 3f ce 1f 86 3f 2e 29 81 3f
       0.9900069 0.99097246 1.0478456 1.0090692
000050 66 00 83 3f 1d 50 77 3f 8c 90 84 3f f7 f3 7c 3f
       1.0234497 0.9660662 1.0356612 0.9880976
000060 a3 ef 87 3f 75 dd 80 3f 6a bf 84 3f d8 ff 88 3f
       1.0620006 1.0067583 1.0370915 1.0703077
000070 05 a2 8a 3f 3e ef 83 3f 14 21 8c 3f b2 d3 82 3f
       1.0830694 1.0307386 1.0947595 1.0220854

decoders.0.decoder_net.3.bias f4 [32]
000000 d7 57 69 3c ff ae bb 3c b5 cf 6e 3c 94 09 82 3c
       0.014242134 0.022910593 0.014575888 0.015873708
000010 72 c3 2b 3b f4 45 1b bd 11 74 38 3b da de 48 3d
       0.0026209024 -0.03790851 0.0028145353 0.049040653
000020 60 f3 a6 bc 1e 9b ac bc c6 ce 36 bd 57 c7 05 3d
       -0.020379722 -0.02107006 -0.04463079 0.03266081
000030 d9 63 56 3b cb d3 be bd 61 fb 14 bd b1 f9 5d 3d
       0.0032713322 -0.0931774 -0.036372546 0.054193202
000040 20 ee 89 3b 51 3f 2a 3d ff 98 3a 3b c4 04 d0 bb
       0.004209295 0.04156429 0.002847254 -0.0063482244
000050 db 9d af bb 7d a1 6a bc d8 26 7c 3d de b3 a3 3a
       -0.005359394 -0.014320728 0.06156048 0.0012489518
000060 23 1e d7 bc ab 01 c6 3c 44 0e a2 3c 80 89 d9 3b
       -0.026259487 0.024170717 0.019782193 0.0066387057
000070 52 33 1b 3d a6 ad 86 bc 2f 1d c2 3c bc b3 62 3c
       0.03789074 -0.016440224 0.023695556 0.013836797

decoders.0.decoder_net.3.running_mean f4 [32]
000000 f8 ff 7f 3e f8 ff 7f 3e f8 ff 7f 3e f8 ff 7f 3e
       0.24999988 0.24999988 0.24999988 0.24999988
000010 f8 ff 7f 3e f8 ff 7f 3e f8 ff 7f 3e f8 ff 7f 3e
       0.24999988 0.24999988 0.24999988 0.24999988
000020 f8 ff 7f 3e f8 ff 7f 3e f8 ff 7f 3e f8 ff 7f 3e
       0.24999988 0.24999988 0.24999988 0.24999988
000030 f8 ff 7f 3e f8 ff 7f 3e f8 ff 7f 3e f8 ff 7f 3e
       0.24999988 0.24999988 0.24999988 0.24999988
000040 f8 ff 7f 3e f8 ff 7f 3e f8 ff 7f 3e f8 ff 7f 3e
       0.24999988 0.24999988 0.24999988 0.24999988
000050 f8 ff 7f 3e f8 ff 7f 3e f8 ff 7f 3e f8 ff 7f 3e
       0.24999988 0.24999988 0.24999988 0.24999988
000060 f8 ff 7f 3e f8 ff 7f 3e f8 ff 7f 3e f8 ff 7f 3e
       0.24999988 0.24999988 0.24999988 0.24999988
000070 f8 ff 7f 3e f8 ff 7f 3e f8 ff 7f 3e f8 ff 7f 3e
       0.24999988 0.24999988 0.24999988 0.24999988

decoders.0.decoder_net.3.running_var f4 [32]
000000 a2 0c 7e 3d 37 c5 93 3d 8b 83 7e 3d 60 7d 99 3d
       0.062023766 0.0721535 0.062137168 0.074946165
000010 9c 2a 88 3d 71 a1 a9 3d fa d6 72 3d ed 1d 44 3d
       0.06648752 0.08282746 0.05928705 0.047880102
000020 ba 97 88 3d 74 92 83 3d 70 cc 9d 3d ed 9f 78 3d
       0.066695645 0.06424418 0.07705009 0.060699392
000030 5c 52 9b 3d 0e 25 75 3d 04 87 bd 3d c7 5d ba 3d
       0.07584068 0.05984979 0.09254268 0.09099918
000040 6f 95 85 3d 48 ba d6 3d 60 93 7f 3d 37 7f 84 3d
       0.06522643 0.10484749 0.062396407 0.06469577
000050 8b 17 b2 3d 33 c2 b6 3d 75 87 a1 3d 27 da b2 3d
       0.08695897 0.08923759 0.078871645 0.087330155
000060 6a 82 4e 3d 45 99 8c 3d 4e 40 c4 3d b2 ab b5 3d
       0.05041734 0.06865171 0.09582578 0.08870639
000070 6e 4f ae 3d 90 05 a6 3d 61 1e 96 3d f7 55 9a 3d
       0.08511244 0.0810653 0.07330013 0.07535928

decoders.0.decoder_net.4.weight f4 [32, 32, 3, 3]
000000 87 f4 8e 3d ca ff 94 3d 01 47 69 bd 8a ba 90 bb
       0.06980234 0.072753504 -0.05695248 -0.0044167684
000010 a8 ad 26 ba 25 29 3c bd d7 86 29 3d d4 4d e9 3b
       -0.0006358274 -0.045937676 0.04138836 0.0071198735
000020 4e 04 97 3c d0 41 64 bd 46 2b 99 3c 0e 71 3e bc
       0.01843467 -0.055726826 0.018697392 -0.011623634
000030 c2 41 cd bc 85 fb 9d 3c ba d9 99 bd 78 a2 6d 3d
       -0.02505577 0.019284973 -0.07512231 0.05801627
000040 ef 91 05 3d 93 02 b4 bd da 79 1a 3d 5a 73 85 3d
       0.032609876 -0.087895535 0.037713863 0.06516142
000050 f3 73 72 3d 1d 86 39 3c 3d eb 87 3c a0 76 8b 3a
       0.05919261 0.011323479 0.016591663 0.0010640211
000060 db 4f 22 bb d2 c4 a5 bd 48 ee a5 bd d1 e7 65 bc
       -0.0024766836 -0.08094181 -0.08102089 -0.01403232
000070 09 2a 77 3c a2 e0 9f bb d7 ff 9a bd 80 a5 45 3c
       0.015085706 -0.0048790732 -0.07568329 0.012063384
000080 cc c2 85 3d 5d 1f 3c bd 41 24 69 3a 35 27 f9 3c
       0.06531295 -0.045928348 0.0008893647 0.030414203
000090 bf 10 54 3d dc bb 84 bb 04 c9 44 bd 93 ae 0f bd
       0.051773783 -0.004050715 -0.048043266 -0.035078596
0000a0 33 e5 ce bd d1 ef 8e 3d 92 0b 99 bc 6e ae 28 bd
       -0.1010231 0.06979335 -0.018682275 -0.041181974
0000b0 4b c2 bd 3c c0 87 51 bd 32 31 ba 3c 36 7c bd 3b
       0.023163935 -0.051154852 0.022728536 0.0057826294
0000c0 37 bd 4b bd 0d b6 14 3d bd e4 4d bd 1d c0 4e 3d
       -0.049740996 0.03630643 -0.05026697 0.050476182
0000d0 78 18 90 3d 3d 0c b1 bc 66 d6 ae bc 74 82 fb 3b
       0.07035917 -0.021612281 -0.021342468 0.0076754633
0000e0 be b4 e3 3c 2e e7 ab bd 45 00 b6 3c c6 06 aa bc
       0.027796146 -0.083937034 0.022216925 -0.020755183
0000f0 33 e4 83 3c 8b 8b 2c 3d 48 d2 75 bc 75 61 bf bd
       0.016100025 0.042125266 -0.015003748 -0.0934476
000100 e2 eb d3 3c cf 91 90 bd 82 b2 c9 3c 33 7c 8b bc
       0.025869314 -0.07059061 0.024621252 -0.017026996
000110 06 99 b0 bd 84 bf a5 3d 6b 8a 72 bb 85 d6 2f bd
       -0.08622937 0.08093169 -0.0037008773 -0.04292919
000120 31 c6 48 bd 55 94 f7 3c d8 4d 2e 3d be 8a 0e bd
       -0.049017135 0.030222097 0.042554706 -0.034800284
000130 e7 4c 62 bc 94 c5 de 3c 68 8d 92 3c 00 d3 9a 3c
       -0.01381228 0.027193822 0.017889693 0.01889944
000140 c1 1c b5 3c 30 e3 1b 3b e5 50 fb bd ef e6 26 bd
       0.022108437 0.0023786537 -0.12271289 -0.04074758
000150 d6 7b 93 3c 55 32 77 3c e8 73 5c 3d 1e e0 a5 3c
       0.018003386 0.015087684 0.053821474 0.020248469
000160 a7 02 59 3d 6a 3d 66 3d 17 9d d0 bc 3e dd 95 bc
       0.052981045 0.056210913 -0.025465531 -0.018293973
000170 14 59 5f 3c ed b9 6a bd 44 d6 e2 3d ac 14 41 bc
       0.013632078 -0.05730622 0.11076024 -0.011784714
000180 8c 79 9d bc 52 4f 8a bd ab 62 f7 bc 33 33 67 bd
       -0.019222997 -0.067534104 -0.030198416 -0.05644531
000190 66 bc bd bc a1 7c d9 3a bf 7c e2 bb 8c a6 51 bc
       -0.023161124 0.0016592928 -0.0069118435 -0.0127960555
0001a0 33 53 98 3c 24 01 86 3a 2b 92 e9 bc ea ec 8a 3d
       0.01859436 0.0010223729 -0.028512081 0.06783469
0001b0 1a be 6a 3d f8 50 8e bd b6 fb 62 bd 36 3d 1d 3d
       0.0573102 -0.06949037 -0.05541583 0.038388453
0001c0 07 b5 17 3d 2d e8 03 bc 1d da 67 3d e1 7d 7c 3d
       0.037037876 -0.0080509605 0.056604493 0.061643485
0001d0 4c 00 0a 3d 4f 3c 84 3d e7 bf 96 3c a0 53 84 3b
       0.03369169 0.064568155 0.018402053 0.004038289
0001e0 89 d8 fd bb e8 f5 be bd 0b ed 52 3b ec 59 10 3d
       -0.0077467603 -0.09324247 0.0032184746 0.035242006
0001f0 66 95 84 bb e3 f4 ea 3c e9 45 55 3d 54 52 9d bd
       -0.00404613 0.028681224 0.052068625 -0.076817185
000200 68 29 a4 bc d0 38 05 3d af d0 8d 3c bb c0 fa bc
       -0.020039275 0.032524884 0.017311422 -0.03060948
000210 a5 a1 a2 bd fe 47 4c 3c ea ba 94 3d ca 7b 61 bc
       -0.079409875 0.012468336 0.072622135 -0.013762424
000220 ab 56 2b bc 9d 39 a2 bd 7c 54 f6 bc 9f 98 68 bc
       -0.010457675 -0.07921145 -0.030069582 -0.014196544
000230 16 75 12 3c d8 cc 06 3d 5f 3a f7 39 80 91 c0 3c
       0.008939048 0.032910198 0.00047155 0.02350688
000240 28 88 8c bd 73 25 81 bc a0 db 24 bd 2b 6c 8f bc
       -0.06861907 -0.015764927 -0.040248513 -0.017507633
000250 48 75 8e bd 48 c3 ab 3b 20 83 6e bd 25 d0 a5 bc
       -0.069559634 0.005241785 -0.05823052 -0.020240853
000260 60 92 29 3d 74 3e 45 3d b6 d7 01 bd 86 e9 9a 3c
       0.04139936 0.048155263 -0.03169986 0.01891018
000270 b0 46 3f bd 38 d3 b3 3c 68 16 d7 3c ce f1 e1 bb
       -0.046698272 0.021951303 0.026255801 -0.0068952804
000280 e1 fe 55 3c 6b ac b3 bc c1 7c 5b 3d 0b 66 91 bd
       0.013061256 -0.021932801 0.05358577 -0.07099541
000290 cd 3e a4 3d f0 30 32 bd c5 eb 35 bd ac 9b cf bc
       0.08019791 -0.0435037 -0.0444143 -0.025342785
0002a0 a8 83 4b 3d a9 0e a9 bd 81 49 5b bd 0d c4 e9 bc
       0.049686104 -0.08254749 -0.053536896 -0.028535867
0002b0 98 e8 52 3c 2a 1e 82 bd 69 36 32 3d fa e3 34 3b
       0.0128728375 -0.063534096 0.04350892 0.0027601705
0002c0 05 9a 3d 3d ef 36 03 bd 03 54 f7 3c d8 bd 28 bd
       0.046289463 -0.03203481 0.030191427 -0.041196674
0002d0 6d 45 d1 3c 43 e5 c1 bd ad 70 6f bb d0 f0 b0 3c
       0.0255458 -0.09467556 -0.0036535666 0.021599203
0002e0 16 c1 44 3d 27 86 14 3d ca 15 6f bd e7 3f d6 bb
       0.048035704 0.03626075 -0.05837039 -0.0065383795
0002f0 4b b7 8a 3d 6a 40 0f bc d9 bc c8 ba 19 b4 2b bd
       0.067732416 -0.008743385 -0.001531507 -0.0419198
000300 fe 84 1f bc ab 03 73 bd 8f 63 d2 bc 85 01 16 3d
       -0.009736298 -0.05932967 -0.025682239 0.036622543
000310 94 e1 a0 3b f6 68 62 bd 17 d7 77 bd 03 19 91 3c
       0.0049097035 -0.05527588 -0.06050786 0.017712122
000320 d3 e2 c6 3a c2 3d de bc 02 3d c5 3c 51 ea 82 bd
       0.00151738 -0.027129058 0.024076942 -0.063923486
000330 ee 4b a0 bc eb 3d 95 bd 75 c5 59 3d de 3d 4f 3d
       -0.019567456 -0.072872005 0.053166825 0.05059611
000340 38 fb c5 3b ba 87 72 bc dc 73 13 3d d0 e2 9a bd
       0.0060419105 -0.014802868 0.035999164 -0.07562792
000350 be 59 5a bc f5 b0 b6 3d 72 1d 81 bd 23 c2 28 bd
       -0.01332706 0.089204706 -0.063044444 -0.04120077
000360 f3 98 0a bd c7 3f a5 3d 38 f6 1a bd 36 c4 14 3b
       -0.03383727 0.08068805 -0.03783247 0.0022699959
000370 78 28 45 3d b3 36 73 3c d5 07 93 3d 63 7e 9c 3c
       0.048134297 0.014844584 0.07179228 0.019103235
000380 24 fe 52 bd 8c 07 0b 3d 63 bf 24 3d 6d 23 17 bd
       -0.0515119 0.033942744 0.040221583 -0.03689902
000390 38 bc a7 3c 0a 78 36 3d e9 bb a7 3c e9 a8 c9 3c
       0.020475492 0.044548072 0.020475345 0.024616675
0003a0 80 e5 c7 bd 22 5d 75 bc 88 26 58 3c ae 59 2f 3c
       -0.097605705 -0.014975818 0.01319278 0.010702534
0003b0 d7 f4 7a 3d 46 49 bb bc 45 b9 0e be 49 f1 c4 3a
       0.061268654 -0.022862088 -0.13937862 0.0015025522
0003c0 2d f5 e2 3c f8 9a 69 bd fc b1 23 bd 6a 03 79 bd
       0.0277048 -0.057032555 -0.03996466 -0.06079427
0003d0 a1 a0 99 bd 1a f0 3d 3c 8e 36 10 bc 0b 10 49 3d
       -0.07501341 0.011592889 -0.008802069 0.049087565
0003e0 1d f2 60 bc 2f ff b7 3c 3f bb c6 bd 18 b6 74 bd
       -0.013729599 0.022460548 -0.09703683 -0.05974397
0003f0 dd 80 4a bd e6 a5 ac bd 91 45 e7 bb 5d e4 41 3d
       -0.0494393 -0.0843008 -0.0070578535 0.047336925

decoders.0.decoder_net.4.bias f4 [32]
000000 67 2a 01 3d 9d 09 a5 3d f5 43 4a bd 51 ee a0 bd
       0.03153458 0.08058474 -0.049381215 -0.07857955
000010 ee 3d af 3d 37 5a fa 3c b8 c2 7d 3c 67 b7 13 bd
       0.08556734 0.030560596 0.015488319 -0.036063578
000020 3d 67 bd bb 41 f1 17 bd 7a 0e 7a 3d 0e 8f 99 bd
       -0.005780129 -0.037095312 0.061048962 -0.07497989
000030 7c b5 38 3d 59 64 9f 3d ca da 9a 3c 9e 32 93 3d
       0.045094952 0.07782812 0.018903155 0.07187389
000040 3b ff 19 bc f1 5f a8 3b b1 b1 bf 3c b4 06 7f 3d
       -0.009399231 0.00513839 0.02340016 0.062262252
000050 43 c6 38 bd e1 5e 15 3d 09 61 71 3d ec 21 b5 3c
       -0.045110952 0.036467437 0.05893043 0.022110902
000060 d6 3a 11 3d 44 9b 7f 3d d6 b5 9f 3b b9 c5 4a 3d
       0.0354565 0.062403932 0.0048739715 0.04950497
000070 fb ce f3 bc a8 aa 9a bd 76 18 65 bd 1a bf 91 3d
       -0.029761782 -0.07552081 -0.05593153 0.07116528

decoders.0.decoder_net.6.weight f4 [32]
000000 7d 76 68 3f 61 58 60 3f b8 8a 86 3f 9a f1 87 3f
       0.908058 0.87634856 1.0511084 1.0620606
000010 18 00 7a 3f 3e 6e 78 3f 31 07 70 3f c8 48 63 3f
       0.97656393 0.97043216 0.93760973 0.8878293
000020 24 10 61 3f 68 f1 76 3f e1 9f 76 3f 85 79 78 3f
       0.87915254 0.96462107 0.96337706 0.97060424
000030 30 bc 64 3f 75 36 74 3f 59 1a 82 3f 43 a5 73 3f
       0.8934965 0.95395595 1.0164291 0.95174044
000040 3b 19 62 3f 6e 39 69 3f 6c b4 79 3f ff 14 71 3f
       0.8831975 0.91103256 0.97540927 0.9417266
000050 6c ce 7e 3f b6 d1 71 3f 91 f8 73 3f 9c 27 6a 3f
       0.99533725 0.9446062 0.9530116 0.9146669
000060 91 0e 73 3f 3d 09 6c 3f c1 40 79 3f 87 0f 6c 3f
       0.949441 0.92201596 0.9736443 0.9221119
000070 21 c3 64 3f fe 1d 7a 3f e3 7b 81 3f 27 02 6e 3f
       0.89360243 0.97702014 1.0115932 0.92972034

decoders.0.decoder_net.6.bias f4 [32]
000000 2f 7c c9 ba 0f fd 92 bd 60 e8 9c bc 5d 7b 33 bd
       -0.0015372093 -0.07177173 -0.019153774 -0.04381882
000010 4f 34 20 3c 36 9c 4c 3d c4 7f 6b bd 6e 59 4f bb
       0.009778096 0.04995366 -0.057494894 -0.0031638998
000020 e2 e5 2c 3d d0 3e dc 3b 74 3a d4 bc bc 4e d3 bc
       0.04221142 0.006721355 -0.025906779 -0.02579438
000030 3b a4 24 3c 83 7d 97 bc 3d 9a c8 3d 90 81 c4 bc
       0.010048921 -0.018492466 0.097950436 -0.023987561
000040 3c 5e a5 bd 12 dd 77 3d 13 f5 85 3d 06 bd a4 3c
       -0.080746144 0.060513563 0.06540885 0.020109665
000050 0b 61 89 bb a4 e8 32 bd f3 fc 9a 3d 07 2d 34 bd
       -0.0041924766 -0.043678895 0.075677775 -0.043988254
000060 0b c5 07 3d 74 59 14 bd 0a c3 04 bd 6d 70 0a 3d
       0.0331469 -0.03621812 -0.032412566 0.033798624
000070 af 3d 34 bd 29 80 33 3d 74 41 0b bd b2 17 84 bd
       -0.04400414 0.043823395 -0.033997968 -0.06449832

decoders.0.decoder_net.6.running_mean f4 [32]
000000 1e 49 12 3e 1e 49 12 3e 1e 49 12 3e 1e 49 12 3e
       0.14285704 0.14285704 0.14285704 0.14285704
000010 1e 49 12 3e 1e 49 12 3e 1e 49 12 3e 1e 49 12 3e
       0.14285704 0.14285704 0.14285704 0.14285704
000020 1e 49 12 3e 1e 49 12 3e 1e 49 12 3e 1e 49 12 3e
       0.14285704 0.14285704 0.14285704 0.14285704
000030 1e 49 12 3e 1e 49 12 3e 1e 49 12 3e 1e 49 12 3e
       0.14285704 0.14285704 0.14285704 0.14285704
000040 1e 49 12 3e 1e 49 12 3e 1e 49 12 3e 1e 49 12 3e
       0.14285704 0.14285704 0.14285704 0.14285704
000050 1e 49 12 3e 1e 49 12 3e 1e 49 12 3e 1e 49 12 3e
       0.14285704 0.14285704 0.14285704 0.14285704
000060 1e 49 12 3e 1e 49 12 3e 1e 49 12 3e 1e 49 12 3e
       0.14285704 0.14285704 0.14285704 0.14285704
000070 1e 49 12 3e 1e 49 12 3e 1e 49 12 3e 1e 49 12 3e
       0.14285704 0.14285704 0.14285704 0.14285704

decoders.0.decoder_net.6.running_var f4 [32]
000000 3e f5 cf 3b ce c1 7e 3b a6 79 a4 3b 0c 2b ae 3b
       0.006346374 0.003887284 0.0050193844 0.00531519
000010 15 15 90 3b 8a 38 ce 3b 64 58 87 3b a9 f5 3b 3b
       0.0043970444 0.006293361 0.00413041 0.002868036
000020 43 49 6f 3b b0 bf aa 3b 65 2a b5 3b 1a 64 86 3b
       0.0036512173 0.005210839 0.0055287355 0.0041012885
000030 8d 24 b7 3b 87 cb 8b 3b 2a e1 84 3b 7a 67 b3 3b
       0.005589074 0.0042662057 0.004055162 0.005474982
000040 94 03 b4 3b ef 80 32 3b ee f9 99 3b 31 2f 09 3c
       0.0054935906 0.0027237495 0.0046989834 0.008373068
000050 28 cc 56 3b 2e 4b 89 3b db 49 8f 3b 84 2a a1 3b
       0.0032775495 0.0041898703 0.004372818 0.0049183983
000060 01 22 78 3b 68 9d a2 3b 84 62 8d 3b 79 b5 92 3b
       0.0037862065 0.004962612 0.0043147225 0.0044771996
000070 f8 9a f8 3b c6 1d 03 3c 5e 3c 81 3b fa 7d a8 3b
       0.007586833 0.008002704 0.003943964 0.0051419707

decoders.0.decoder_net.7.weight f4 [32, 16, 3, 3]
000000 3d 42 36 bd df c7 97 3c a7 21 0e 3d ad 22 2b bd
       -0.044496763 0.018527923 0.034700062 -0.041781116
000010 51 c8 53 bd ea e1 10 3d 4b 71 e8 3b 95 55 41 3d
       -0.05170471 0.0353717 0.0070935837 0.047200758
000020 3e 39 f3 3a 7d 3d 5c bd 50 ff 3d 3b be d2 9b 3d
       0.0018556488 -0.053769577 0.002899129 0.07608555
000030 7f 51 48 bd f3 f9 f8 bc bd 8d af bc ad 1b 9e 3d
       -0.048905846 -0.030392623 -0.02142989 0.077201225
000040 70 2c 54 3d 92 e2 09 bd cc 3d 37 bd 5d cb c8 bd
       0.05180019 -0.03366334 -0.04473667 -0.098044135
000050 3e ce f9 ba d3 c1 72 3c 33 11 ab bd 1d 9e 27 3d
       -0.0019058657 0.014816719 -0.0835289 0.040922273
000060 55 78 19 bd 40 e3 86 bb 56 80 08 3d 85 0f ae 3c
       -0.037468273 -0.004116446 0.033325516 0.021247635
000070 95 f6 ff bd 1a f0 44 bc 4c f2 29 3d cb 22 77 3b
       -0.12498204 -0.012020135 0.041490838 0.0037709947
000080 81 07 d1 bc c1 2a 0a bd 45 4b 1e 3d da 4d e6 39
       -0.025516273 -0.03373218 0.038646 0.00043927022
000090 75 75 c4 3c bc 2e cc bd 71 80 91 3d 0b 14 64 bd
       0.02398179 -0.099698514 0.071045764 -0.055683177
0000a0 f4 14 67 bd b9 e3 e3 ba ed ef 58 3d 56 cb 2d 3d
       -0.056416467 -0.0017386592 0.052963186 0.042430244
0000b0 d2 f6 81 3d f1 ab a0 ba 89 08 46 bd 40 ed f3 3c
       0.06345905 -0.0012258274 -0.048347984 0.029776216
0000c0 3d 81 56 3d 97 c1 8b 3d 9c c0 0d 3d 9b 98 71 bd
       0.052369345 0.06824034 0.034607515 -0.058983427
0000d0 0e cd 56 bd e5 a4 24 3c 2f 95 14 3d 0e 3d 71 bb
       -0.05244165 0.01004908 0.036275085 -0.0036810073
0000e0 81 8b af bc 27 d2 17 3d 52 98 45 3d d6 49 00 bd
       -0.021428825 0.03706565 0.048240967 -0.031320415
0000f0 1a ef 49 3d 2a bb 16 bd 32 69 e1 bc f5 7a 6b 3d
       0.04930029 -0.036799587 -0.027515981 0.057490308
000100 f9 52 a5 3b e4 a7 2f bc f9 4f c1 3d 17 ea 8e 3d
       0.0050452915 -0.010721181 0.09439082 0.06978243
000110 cd 40 21 bd 20 fe e8 bb 9d 19 20 bd 4a 9f 97 3c
       -0.03936844 -0.007110372 -0.039086927 0.018508572
000120 e1 61 be 3d 7d 6e 7b bd a9 cf 75 3c a8 e4 87 bd
       0.09296013 -0.061384667 0.015003123 -0.066354096
000130 a7 43 83 3c f4 8f af bc 01 7d 55 bd 60 6d 14 3d
       0.01602347 -0.021430947 -0.052121166 0.03623712
000140 75 af 5a bb a3 4e 9c bd 51 a5 5e 3c dd 0f 24 bb
       -0.003336874 -0.07632186 0.013589219 -0.002503387
000150 41 3e 53 b9 82 2a 94 bb d9 5d 23 3d 20 53 3c 3d
       -0.0002014572 -0.004521669 0.039884422 0.04597771
000160 35 71 9e bc a1 90 4c 3d a7 bd 06 bc ac f0 34 3d
       -0.01934109 0.049942616 -0.008223928 0.044174835
000170 29 99 a8 bb f4 a3 b1 bd fa 6f e9 bd 08 05 93 3d
       -0.0051452112 -0.0867385 -0.11398311 0.07178694
000180 8b eb 4d bd b1 ba 12 3d c5 b6 e8 3b 60 c3 97 3a
       -0.05027346 0.035822574 0.007101866 0.0011578612
000190 70 91 a1 3d 5b 56 88 3c df 5f 62 3d 55 dc d0 3b
       0.07889068 0.01664274 0.05526721 0.006373922
0001a0 ce 25 bf bc 11 c9 c1 3c 58 1f 4b bc 6f 35 44 3d
       -0.023333456 0.023655446 -0.01239761 0.04790252
0001b0 42 d1 1b 3d 2c 3f b9 3d 0e b1 59 bd 21 e9 93 bd
       0.03804136 0.09045252 -0.053147368 -0.072222
0001c0 e8 04 c6 bd 1d 61 60 bd 5f 0c 33 3c 24 e4 08 bd
       -0.096689045 -0.054780114 0.0109282425 -0.033420697
0001d0 60 1a 99 bb c1 62 02 3c e0 92 88 3d 75 d7 43 bd
       -0.0046723336 0.007958115 0.06668639 -0.047812898
0001e0 a4 96 57 3d 61 35 d2 bd 37 56 18 3c 40 7a 5e bc
       0.052633896 -0.102640875 0.009297899 -0.013578951
0001f0 ab 94 22 bd 1e 13 0b bd dd 0e 28 3d df 6c c3 bc
       -0.039692562 -0.03395378 0.0410298 -0.023855625
000200 9b ee 5b 3c e3 79 64 bd f0 49 b8 3c 42 6d b8 bb
       0.013423587 -0.055780303 0.022496194 -0.005628259
000210 de 2a 74 bd 57 df 8a bb fc 60 93 bc 0f 8d 3a bb
       -0.059611194 -0.00423805 -0.017990582 -0.0028465425
000220 fd b7 bd 3d 5c 55 ca bb 61 86 ad bd 41 01 ae 3b
       0.092636086 -0.0061747264 -0.08472896 0.005310208
000230 9e 1b 0c bc c1 1b 3b bd 6e a1 6d bd 45 d4 f8 bc
       -0.008551506 -0.045680765 -0.05801528 -0.030374656
000240 14 e0 d0 3c b9 0b a4 3d 0a a2 8f 3b e8 01 0c bd
       0.025497474 0.080100484 0.0043833302 -0.034181505
000250 f3 7d 65 3d 6f ee 20 bc ff 4a 9a 3c c2 7a 59 3d
       0.056028318 -0.009822472 0.018834589 0.053095587
000260 bf 43 09 3c 45 d8 fb 3a 8c 03 ad 3d 01 e5 00 3c
       0.008377968 0.0019214234 0.08447942 0.007867099
000270 13 4c 9e 3c f6 c4 cb bc c9 41 d1 ba f7 a0 62 3c
       0.019323384 -0.024874192 -0.001596504 0.013832322
000280 8d ca a8 bc 68 4d c1 3c fe 25 1e bd c6 9e c9 3c
       -0.020604396 0.02359648 -0.03861045 0.024611842
000290 3e e3 80 3d de e3 ad bd 7f dd df 3c 32 27 b3 3d
       0.06293343 -0.08490728 0.027327297 0.0874771
0002a0 7c fa ce 3c 69 26 63 bd 03 c8 bd 3c c9 f9 07 3d
       0.025265925 -0.055456553 0.023166662 0.033197198
0002b0 d4 b6 38 3d 79 57 03 3d 90 a2 b2 3d b6 6f 7d bd
       0.045096233 0.032065842 0.087224126 -0.061874114
0002c0 3b 6e 8a bd 1c 7e 21 3c ba 71 54 3c 37 d2 8c 3d
       -0.06759306 0.009856727 0.012966568 0.06876033
0002d0 d1 49 65 bd 50 9f 11 3d 5d 41 14 bd 63 d6 93 bc
       -0.0559786 0.035552323 -0.036195148 -0.018046563
0002e0 a6 f0 c2 bb c9 ab 35 3a c1 9e 93 bd a4 7b a2 3d
       -0.0059490977 0.00069302 -0.07208014 0.07933739
0002f0 5b 20 e6 3c d9 c3 7f bc 80 01 4c 3d 42 bb a7 bc
       0.0280916 -0.015610659 0.049806118 -0.020475034
000300 e3 63 ad bb 3f fa 62 bd 0d ae bf bb 86 b4 9f 3d
       -0.0052914484 -0.055414435 -0.005849606 0.07798104
000310 2d cd 87 bd f5 da a6 bc d4 89 65 bd a8 e3 08 3d
       -0.06630931 -0.020368079 -0.056039646 0.033420235
000320 e0 ff 00 bd f2 b5 05 bd 06 57 be 3a 1c 91 d0 bc
       -0.03149402 -0.03264422 0.0014521785 -0.025459819
000330 bf eb 64 bd c8 2a f3 3c 4f 92 65 bd 2a 76 8a bd
       -0.055888887 0.029683486 -0.056047734 -0.06760819
000340 f3 2e 8e bd 50 f1 3e 3d c1 eb be 3c c0 d8 cc bd
       -0.069425486 0.046616852 0.023305776 -0.10002279
000350 63 33 a6 bd f8 ce 49 bd d6 e4 a5 3a 04 76 71 bd
       -0.0811527 -0.049269646 0.0012656699 -0.05895044
000360 c9 1b 4e 3d 1f e2 5b bc 01 19 dc bc 87 95 3a bd
       0.050319467 -0.013420611 -0.026867392 -0.045552757
000370 a8 68 94 3d 1d 61 75 bd 4c 6a 72 bd f7 58 2d bd
       0.07246524 -0.059907068 -0.059183404 -0.04232117
000380 29 e7 13 bd f1 12 27 bd 68 ee c6 bc 3f 79 21 3c
       -0.036109123 -0.04078955 -0.024283603 0.0098555675
000390 17 ee 4b 3d 8f 05 dd 3c 86 ae 70 3d f7 62 28 3d
       0.049787607 0.02698019 0.05876019 0.041110005
0003a0 ca 17 8c 3d d1 a2 df 3c 80 de 27 3d b5 d1 e9 3c
       0.06840475 0.027299317 0.040983677 0.028542379
0003b0 d0 24 b9 bc 30 2e 4a bd a7 2a fd bc 41 14 e4 bc
       -0.022600561 -0.049360454 -0.030904127 -0.027841689
0003c0 c4 68 3f bd 93 21 93 bd 59 8e 71 3d 0a 7c 9a 3c
       -0.04673077 -0.07184138 0.058973644 0.018857975
0003d0 09 17 63 3d ed d3 3f bd 9c 71 e4 bc d6 ed 9e bc
       0.05544189 -0.046832968 -0.027886204 -0.019400518
0003e0 10 7b 04 bc 28 e0 5d bd 0e c8 0f 3b 5c 05 cf bc
       -0.008085981 -0.05416885 0.002193931 -0.02527111
0003f0 a3 0c 96 bd 4b 57 34 bb 58 04 cd bc 52 64 b5 bc
       -0.07326629 -0.002751785 -0.025026485 -0.022142563

decoders.0.decoder_net.7.bias f4 [16]
000000 7c fe 29 3d 08 c4 ec 3c 05 d3 8f 3d fb c9 29 bd
       0.04150246 0.028902069 0.07022671 -0.04145239
000010 2f 67 b0 bd b7 e7 19 3c 99 0d 42 3d 98 a8 8e 3b
       -0.08613431 0.009393624 0.04737625 0.004353594
000020 33 79 03 3c 52 14 ee bc 70 ec b7 3c bd 7d 98 3c
       0.008024502 -0.029062424 0.02245161 0.018614644
000030 18 ee 63 3d 3d 28 c8 3c 89 d8 02 3e 86 10 88 bd
       0.055646986 0.02443325 0.12777914 -0.066437766

decoders.0.decoder_net.9.weight f4 [16]
000000 1c ec 6c 3f b1 3f 66 3f 86 85 7f 3f 80 63 6e 3f
       0.92547774 0.89940935 0.99813116 0.93120575
000010 44 4a 63 3f bd a3 69 3f f7 29 6d 3f 40 a5 68 3f
       0.88785195 0.9126547 0.9264216 0.9087715
000020 fd 4f 74 3f 8c d1 69 3f 9d 0d 75 3f 0a 57 70 3f
       0.9543455 0.9133537 0.957239 0.9388281
000030 b4 f5 6a 3f 3c 7d 69 3f 5d 6e 72 3f 32 34 66 3f
       0.91781163 0.9120672 0.9469965 0.89923394

decoders.0.decoder_net.9.bias f4 [16]
000000 b4 e0 08 3e 43 eb ba bd f2 98 8f bd 89 a4 2f 3d
       0.13366967 -0.09126904 -0.07011594 0.042881522
000010 36 36 c7 bd 21 1f 10 3e 2c aa ff 3d ae a4 d8 bd
       -0.09727137 0.14074375 0.124836296 -0.10578285
000020 36 61 4c bd d4 7f 2d 3e f7 bf c9 bd 84 0d b3 3d
       -0.049897395 0.16943294 -0.098510675 0.08742812
000030 d5 f1 a3 bd cd 69 ef bd e6 37 33 be bc 75 8b bd
       -0.0800511 -0.11690102 -0.17501792 -0.068095654

decoders.0.decoder_net.9.running_mean f4 [16]
000000 1e 49 92 3d 1e 49 92 3d 1e 49 92 3d 1e 49 92 3d
       0.07142852 0.07142852 0.07142852 0.07142852
000010 1e 49 92 3d 1e 49 92 3d 1e 49 92 3d 1e 49 92 3d
       0.07142852 0.07142852 0.07142852 0.07142852
000020 1e 49 92 3d 1e 49 92 3d 1e 49 92 3d 1e 49 92 3d
       0.07142852 0.07142852 0.07142852 0.07142852
000030 1e 49 92 3d 1e 49 92 3d 1e 49 92 3d 1e 49 92 3d
       0.07142852 0.07142852 0.07142852 0.07142852

decoders.0.decoder_net.9.running_var f4 [16]
000000 d7 8a 5c 3b 44 95 06 3b 20 94 ac 3b 50 01 0f 3b
       0.003365209 0.0020535747 0.0052666813 0.002182085
000010 73 bb 09 3b 86 f7 03 3b 1a e6 45 3b 9d 5d be 3a
       0.002101627 0.002013655 0.0030196966 0.0014523749
000020 0b 19 9a 3b cf f2 6e 3b c5 fe 4e 3b b1 cb 21 3b
       0.0047026924 0.0036460643 0.003158496 0.002468806
000030 2a 6e 2b 3b 98 0a 17 3b e3 03 72 3b 73 fc 0d 3b
       0.0026158192 0.0023047086 0.0036928586 0.0021665364

decoders.0.decoder_net.10.weight f4 [16, 1, 3, 3]
000000 c1 46 45 be fc 0e 34 3e fd 85 14 be 10 af 01 be
       -0.19265272 0.17583841 -0.14504237 -0.12664437
000010 ef 8f 85 3e 9e f6 fd 3d 17 8f e8 bd 9d d8 9d bd
       0.26086375 0.12400554 -0.11355417 -0.07707331
000020 45 e9 b0 3c 1a a7 34 3c 9e 46 92 3a cd 93 6b bd
       0.021595607 0.011026168 0.0011159962 -0.057514
000030 cf 8f 38 be aa 81 30 be 40 3d 16 be 90 22 d6 bd
       -0.18023609 -0.17236963 -0.14671803 -0.10455811
000040 0d c4 29 3d 9b f1 1e be 0b 5b ea 3d 1f c0 bb be
       0.041446734 -0.15521853 0.11443146 -0.36670014
000050 38 3a 89 be 7f 87 3e be 8c 6d b7 3d b0 a8 65 bd
       -0.2680223 -0.18606375 0.08956441 -0.056069076
000060 ea a6 e4 bb 9c dc 4a 3d da b3 e2 3d b6 a6 51 3e
       -0.0069779055 0.049526796 0.1106946 0.20473751
000070 43 fc 50 3e 7e c8 5b 3d 71 83 84 3e 02 47 0a 3e
       0.2040873 0.053658 0.25881532 0.1350365
000080 c7 19 c9 3c 66 d2 28 3e ce fa 49 bc 9f 2d 73 bc
       0.024548424 0.1648651 -0.012327863 -0.01484242
000090 a4 b4 ca bc b6 ae 2a bd b5 8f 0a 3d 42 a7 48 be
       -0.02474434 -0.041670524 0.033828456 -0.19595054
0000a0 78 f2 4a bd ad 93 7c be 88 67 a9 bc 8c 5e 7a 3d
       -0.049547642 -0.24665709 -0.02067925 0.061125323
0000b0 9c 5e 04 be 53 09 3b 3d c6 3f 94 3d 75 bd a9 3d
       -0.12926716 0.04566319 0.07238726 0.08288089
0000c0 e8 e5 8e bd 09 d0 2e 3e 3a a9 e0 bb 31 04 45 be
       -0.06977445 0.17071547 -0.006856111 -0.1923988
0000d0 64 00 cd 3d f0 3d 58 3e 54 1e 7c 3e c0 40 53 be
       0.1000984 0.21117377 0.24620944 -0.20630169
0000e0 0d 6b f2 3d fa 2e 3f 3e 4a 9d c2 3d bb f1 5e bd
       0.118368246 0.18670264 0.09502657 -0.05442975
0000f0 67 81 7d be 28 b9 0f 3e 36 b2 12 3e 97 82 9f 3b
       -0.24756394 0.14035475 0.14325795 0.0048678624
000100 4e 3d bf 3c 54 58 3d 3d 70 d7 a6 bd 9c c1 7b be
       0.023344662 0.046226814 -0.0814656 -0.24585575
000110 78 dd 22 be 81 fc bf bd 47 5d 61 be 21 c1 41 be
       -0.15904796 -0.09374333 -0.22008239 -0.18921329
000120 3c 0d 80 be 1f fc e0 3d f2 6f 7e be 45 e3 97 bd
       -0.25010097 0.10985588 -0.24847391 -0.07416395
000130 6e cd af bc 19 89 2a bd c7 ef f5 bb f6 bf 8b bc
       -0.021460261 -0.041634653 -0.0075053903 -0.017059308
000140 ed 2a 11 be be 71 9c bd 3b 63 4d 3d 4e b9 19 be
       -0.14176531 -0.07638882 0.05014346 -0.15012094
000150 87 21 3a 3e 67 0a 8d 3e 5b e1 97 3e 57 94 08 3e
       0.18176852 0.27547 0.2966412 0.13337837
000160 1d 35 15 be 8a 45 da 3c 0f 8e 00 bd fe b5 a5 be
       -0.14571042 0.026644487 -0.031385478 -0.32365412
000170 32 53 30 be 7c c5 72 3e d4 a5 8b be 14 b6 1a bc
       -0.17219236 0.23708147 -0.27274954 -0.009442825
000180 4f 80 c7 3d c2 d3 da bd 96 c7 04 be 21 77 f6 3d
       0.0974127 -0.10684921 -0.12966761 0.12034441
000190 44 d2 0b 3e f9 bf e4 bc 24 e5 7e 3e a5 f9 64 3e
       0.13654429 -0.027923571 0.24892098 0.22360857
0001a0 22 7a 5e 3e 7a 1a 73 3e b6 db 79 3e 0d 25 06 3e
       0.21726277 0.23740569 0.2440022 0.13100071
0001b0 d8 4c 5d be 57 cc 03 bc 6e 99 0c 3d 65 a6 77 be
       -0.21611345 -0.008044324 0.03432601 -0.24184568
0001c0 e6 fd 13 be 95 3c 09 be fd dd 44 be 99 51 b5 bd
       -0.14452323 -0.13402016 -0.19225307 -0.08853454
0001d0 0e d3 13 3e dd 28 47 3e d8 b6 7e bd 75 02 fb 3d
       0.1443598 0.19449182 -0.062186092 0.12256328
0001e0 68 ad 38 be 8b 00 91 3b 42 12 ef bd 6b 0a cd bd
       -0.18034899 0.0044251136 -0.11673404 -0.10011753
0001f0 64 5e a7 bd fe 1a c7 3d 03 0b 5b bb c3 26 18 be
       -0.081723005 0.09721945 -0.0033423312 -0.14858536
000200 ac 32 bd 3d 4c 09 8e 3b c6 92 b1 be 13 15 a0 bd
       0.092381805 0.0043346044 -0.34682292 -0.078165196
000210 f8 0b 59 3e bd 11 10 3e c8 ef 66 be a5 56 52 bd
       0.21195972 0.14069267 -0.22552407 -0.051352162
000220 73 63 0d 3a ab 8b dc bd dc 86 4a bc d8 3d 30 be
       0.0005393542 -0.10768827 -0.012361255 -0.17211092
000230 70 b8 29 3e 8e b9 9c bd b7 28 91 be 83 5f 32 be
       0.16574264 -0.07652579 -0.28351375 -0.17419247

decoders.1.decoder_net.0.weight f4 [512, 2]
000000 38 41 01 bf 14 7f 3c bd 2f e6 36 3f 2b fd 46 3e
       -0.5049014 -0.04601963 0.7144498 0.19432513
000010 0e 06 9c be 9e ba 2e bf 0f 66 bc be 66 96 43 bd
       -0.3047337 -0.68253505 -0.36796615 -0.047750853
000020 9a dc 14 3f 32 d2 ca be dc a5 70 3e a0 a9 0f 3f
       0.5814911 -0.3961349 0.2350077 0.561182
000030 73 1b 15 3f c2 4f 41 be b4 60 92 be 0a ce 89 be
       0.5824501 -0.18878081 -0.28589404 -0.26915008
000040 54 31 cf 3d 56 ec cf 3e 24 81 0e 3e d0 b6 11 be
       0.101168305 0.40609998 0.1391645 -0.14229894
000050 7a 19 cc 3d 4e a8 08 3f 90 15 c8 3d 8a c2 d6 3e
       0.09965797 0.5338181 0.09769738 0.41945297
000060 46 e0 9e 3c d9 ad 2d bf 46 83 e5 be b8 af 11 3f
       0.019394051 -0.67843395 -0.44826716 0.5690875
000070 5b 21 2b 3f 08 77 e2 be a4 85 f9 be bc 29 19 3d
       0.6684777 -0.4423144 -0.48734772 0.037393317
000080 5b df 07 3f 6e ba 11 bf 03 df 55 3e 6c fd f5 3d
       0.5307519 -0.56925094 0.20885853 0.12011227
000090 97 30 28 bf ff c5 d5 3d 53 c3 9d be e9 c9 9c 3d
       -0.6569914 0.104381554 -0.30813083 0.07655699
0000a0 51 65 50 be 2f a5 c8 be 97 e9 2d 3f c6 52 1e 3d
       -0.20351149 -0.39188525 0.67934555 0.038653158
0000b0 15 9f 1a 3f 44 74 2e 3f 7d 97 4a be 49 88 a5 3e
       0.6039899 0.6814616 -0.1978435 0.3233054
0000c0 b2 3d 1f 3f 20 8c 08 bd 7e 56 dc be 8f 1a 58 bf
       0.62203515 -0.03333676 -0.43034738 -0.84415525
0000d0 ec bf b7 be 66 9f 07 3f f8 20 c9 be 8d db dd 3e
       -0.35888612 0.529776 -0.39282966 0.43331566
0000e0 d9 fd 8c be 6d b3 3c bf be c1 d2 3e ca 72 2f 3e
       -0.2753742 -0.7371128 0.4116344 0.17133632
0000f0 be b3 3e 3f 9b 41 b3 3e 85 df 7a be 50 d3 e0 3e
       0.74493015 0.3501099 -0.24499328 0.4391122
000100 32 14 9c 3e a5 ca 18 3f 42 80 06 3f af d8 29 3f
       0.30484158 0.5968421 0.52539456 0.6634626
000110 93 d8 05 3f 29 1a 90 3e eb 45 c9 be 6d e3 c7 3e
       0.5228359 0.2814496 -0.39311156 0.390407
000120 35 0c 5f 3e 6e d9 20 3f 41 7a 3d 3e 62 33 e6 be
       0.21782 0.6283177 0.18503667 -0.44961077
000130 51 c4 d1 be 0a 41 22 3a cc 13 b4 3e 21 42 89 be
       -0.4097009 0.0006189501 0.35171354 -0.26808265
000140 45 be 47 3d f5 27 b7 3c 04 7e 03 3f cc fc 53 3f
       0.04876544 0.02235792 0.5136416 0.8280761
000150 4f 56 f6 be 6c 38 e3 3e 7b 24 17 bf b8 3d 7f bd
       -0.48112723 0.44378984 -0.5904004 -0.06231472
000160 a7 98 1a 3e 9e 76 62 be 06 5f ce bd 4a bd 29 bf
       0.15097295 -0.22115561 -0.10076718 -0.6630446
000170 88 c0 31 3f d5 05 6d be aa 27 99 3e 8f 49 52 be
       0.69434404 -0.23146756 0.29913074 -0.20535873
000180 b4 bb 97 3d 7f 8f 44 bf c8 98 62 3e 1e 66 96 3e
       0.074088484 -0.7678146 0.22128594 0.29374784
000190 5f 33 49 bd 67 d4 85 be 65 90 92 be b7 ee 0b 3f
       -0.049121257 -0.26138613 -0.2862579 0.54661125
0001a0 6e 89 9e be 43 9c 16 3f e1 01 1c bf 96 d2 36 bf
       -0.30964226 0.58832186 -0.60940367 -0.7141508
0001b0 8a 67 48 3e c9 cd f8 3d 3c 22 17 bf a4 89 14 3f
       0.19570747 0.121486254 -0.5903661 0.5802252
0001c0 51 33 18 bf 19 34 ee be 55 eb 74 be a2 87 2e 3f
       -0.594533 -0.46524122 -0.23917897 0.6817571
0001d0 fc a2 c5 3e 32 2d 03 be a1 24 ed bd 27 a2 03 3f
       0.3860091 -0.1281021 -0.11579252 0.514193
0001e0 b3 bf b6 3e 43 c8 2b be b6 d9 15 be c1 d6 f5 be
       0.3569313 -0.16775613 -0.14633831 -0.48015407
0001f0 32 be 12 bf 73 06 03 3f 73 8a 30 bf b2 21 d9 3e
       -0.57321465 0.51181716 -0.68961257 0.4240852
000200 77 6e bd 3e 89 91 de be 00 34 1b 3f ff b3 a2 3e
       0.3699834 -0.4347041 0.6062622 0.3177795
000210 a1 d5 3e 3f ca 7c 03 3d 27 9e 0c be e5 cb b1 be
       0.7454472 0.03210143 -0.13732205 -0.34725872
000220 2e 51 2f be 16 80 19 3e fe 1a 9c be e9 5a ee be
       -0.17120811 0.14990267 -0.30489343 -0.46553734
000230 46 7c 9e 3e 19 9e 6d be 45 d4 19 bf ee 5a 1e bf
       0.30954188 -0.2320484 -0.6008952 -0.618575
000240 20 81 81 3e 7a a9 24 3f 73 ba 31 3f 83 8c d3 bd
       0.25293827 0.643211 0.69425124 -0.10329535
000250 a0 79 c5 3e cf 2a 83 3e a3 5d 04 bf 96 2b a3 be
       0.38569355 0.25618598 -0.5170538 -0.3186919
000260 3c 7f 4b be a7 97 41 3e e2 74 e8 3e 6f ea c1 be
       -0.19872755 0.18905507 0.45401675 -0.3787417
000270 81 3f b0 be 5b 43 82 bc b4 48 09 bf 4a b3 a8 be
       -0.3442345 -0.015901258 -0.5362656 -0.32949287
000280 d9 81 90 bc 54 3c 3b 3e 38 e5 34 3e 11 16 21 3f
       -0.017640041 0.18284732 0.17665565 0.62924296
000290 e6 d8 37 be c2 c2 8c 3e ec fb 14 3f a4 8f b1 3c
       -0.17953834 0.27492338 0.581969 0.021674938
0002a0 c1 fe fe 3e 2f f7 2e 3f 45 13 05 3d 0c a3 61 be
       0.49803737 0.6834592 0.03248908 -0.22034854
0002b0 cc f2 43 3f de 4b b8 3d 36 45 94 be 5a 47 3f 3e
       0.76542354 0.089988455 -0.28959054 0.18679562
0002c0 4e 47 82 3d c1 c8 2a 3e 0d 84 28 3e db c0 1b 3f
       0.063612565 0.16678144 0.16456623 0.6084115
0002d0 a3 79 33 3f 5b 34 e5 be ee 5b 39 3e b2 f8 4c be
       0.7010748 -0.44766507 0.18101475 -0.20016745
0002e0 76 b8 42 3b bc 31 fc be 84 84 39 3e 92 d8 16 bf
       0.0029711998 -0.49256694 0.18116957 -0.5892421
0002f0 a3 a9 15 3f dc 3f 4a bd c2 d4 8f 3e fe dc e2 be
       0.5846197 -0.049377307 0.2809201 -0.4430923
000300 a3 78 05 3e 9c 54 08 bf 2f 3a 58 bf 26 27 12 3f
       0.130343 -0.53254104 -0.8446378 0.57090986
000310 b8 74 9b bd 23 a8 50 be b2 59 b8 bd be 20 17 3e
       -0.07590622 -0.20376639 -0.09001483 0.14758584
000320 6b 87 ef be ac 90 64 3e 24 9b c7 3e 2b b8 f9 bd
       -0.46783003 0.22320813 0.3898555 -0.121933304
000330 03 1e 8b 3d 6e 86 a7 3d 79 89 06 3e 33 3e 3e bf
       0.06792834 0.08179937 0.13138379 -0.7431366
000340 9a 33 17 bf 7a 80 17 3e f6 51 ae bd 1d 45 56 be
       -0.5906311 0.14795104 -0.085117266 -0.20924802
000350 b9 45 f2 3e 29 e3 c5 3e b3 66 b7 be 58 e0 a5 be
       0.4731882 0.38649872 -0.3582054 -0.32397723
000360 47 e2 54 3d c8 0a 36 be e9 b1 f2 3d 07 c7 2c be
       0.051973607 -0.1777755 0.1185034 -0.16872798
000370 a4 38 74 bc f2 8e ff 3d 9e 53 8c be 17 ce f9 3e
       -0.014906082 0.124784365 -0.27407545 0.48790047
000380 f3 38 44 bc 69 66 5c 3d 71 9d 09 3f 3e ba 23 3f
       -0.011976468 0.053808603 0.5375586 0.6395606
000390 94 4b 55 3d 76 56 19 3f 8f f5 72 be 9e 01 da 3e
       0.05207403 0.59897554 -0.23726486 0.4257936
0003a0 89 87 31 3f dd ff 10 bf e6 46 35 3e f8 81 c4 be
       0.69347435 -0.56640416 0.17702827 -0.38380408
0003b0 3a 4f 46 bf 11 b2 a5 3e 52 85 2f be 7a 98 c7 be
       -0.7746464 0.32362416 -0.17140701 -0.38983518
0003c0 8c 21 db 3e 04 bd 20 3f 2a 84 88 be b5 ca fd be
       0.42799032 0.62788415 -0.26663333 -0.49568716
0003d0 7b 40 24 bf 7a 6c 4d 3e d1 fe 46 bd 09 93 19 bf
       -0.6416089 0.20060912 -0.048582856 -0.5998998
0003e0 f4 6c 18 3f 1c 18 12 bf ab 87 55 be 02 11 99 be
       0.5954125 -0.5706804 -0.20852534 -0.29895788
0003f0 74 13 5f 3e 73 2e c8 3e 1b cf 8f be 6e f1 f6 3e
       0.21784765 0.39097938 -0.28087696 0.4823107
