miniproject2/experiments/ensemblyVAE/ND3/modelSeed773nD3.pt (torch, 287219 bytes, 75 tensors)

prior.mean f4 [2]
00000000: 0000 0000 0000 0000
0.0 0.0

prior.std f4 [2]
00000000: 0000 803f 0000 803f
1.0 1.0

decoders.0.decoder_net.0.weight f4 [512, 2]
00000000: f461 15ba e155 3abf cf0a 42bf 9657 053f
00000010: 7acb f83e 206d 19be 68d1 6a3e 9652 0abe
00000020: 2b3f fdbe 58f9 c8be 1b82 14bf 48ee 0dbf
00000030: cf65 7a3e 36ae 493f 977b b63e 115a 223f
00000040: e506 8abe ef70 803e ac3d 72bd dbf2 2a3f
00000050: 93b4 8dbe 6c4e 743f 0c7d 76be 973f dfbd
00000060: 81ed f939 ab7d e93d 6f07 c1be 4b06 7a3c
00000070: 3352 62bf f9e3 94bf 8236 113f 3dae 69be
00000080: 092e d3bd a77e 033e 54a0 a4be 3f9c 673f
00000090: ef30 ffbe 1727 22bf 2f90 36be a095 83be
000000a0: 3409 ef3e 3fa6 c5be 8e1e f83e 8d84 013f
000000b0: ab3b 8ebe 1299 10bf 947a 0b3e ade3 e1be
000000c0: 3161 c43e 12a2 59be 5875 c7be f527 25be
000000d0: a11a 243f 720f 1a3f 501b 1f3e c511 a33e
000000e0: 8bf6 60bd 1ef6 ddbd eec0 c53e f9d8 0b3e
000000f0: 8e78 8b3e 52c4 04bf 4d50 053f 152c dd3e
00000100: 5658 d9be 9909 f43e 99ea b1be d4bb 463e
00000110: 7620 ffbe 4d6f 91be b3a0 053f 80a2 d33e
00000120: b185 2dbe 6b6e 433e c898 6d3f 22d9 bebe
00000130: b18f 833d 118e 6b3e 539d d3be 8805 3abe
00000140: 1a38 6b3e f0a8 19bf bb81 533e 0103 9b3e
00000150: cd15 0e3f 2ca5 15bf 755a 84be c829 0ebe
00000160: 8386 103f 7a0e 15bf c3b1 523e 0b96 4e3c
00000170: 0a9d f63e a272 203e 354e e1be 75f6 aabc
00000180: 7869 fe3d 2302 26bf f9a6 afbe 3dd4 a83e
00000190: b2ed 87bf 68b1 f53e a17d c63e bafe 12bf
000001a0: c0ca f53e 44a0 d8be 4c2e 7d3d 1476 46bf
000001b0: 279b b5bd 0262 87be 3b43 03bf bdfd 083f
000001c0: 381c 38bd 4b19 f3bd 5c53 15bf 1573 2e3f
000001d0: 2e85 e13d 9e64 c7be 50ec 4e3e 3e31 26be
000001e0: 1777 cb3c 5cc3 f0bd 8857 753d 48b4 ffbe
000001f0: a35b 013e f15a 91be b855 9dbe e6e0 153f
00000200: 3f2a cabd 730d ee3b 6008 9cbe 2cf0 edbe
00000210: 884e 7fbe 275d a13e 512a 2ebe b1e7 0f3f
00000220: 6ebc b33d 12d6 5cbe e544 2d3f aff0 20bf
00000230: 6419 2fbf 8091 debe 8c8b 343f 5d6d 3fbf
00000240: d449 cfbe fc2c 17be 5b50 a33e 123b 7bbe
00000250: d6b8 72bd 5828 1a3f ed28 3a3f 4aab 7d3e
00000260: f04c 62be 6970 543e c3ff 09bf ca0a 243e
00000270: 4195 043f 4219 9dbe 1e97 89be 908f 263f
00000280: e9ef 013f d830 97be d99f f03e 5385 e4be
00000290: ae24 0cbf 97f8 96be 20ef 123d 72ea 17bf
000002a0: a700 163f 141a 25be 1105 41be cb25 cf3e
000002b0: 1884 063e d7d3 483f 3865 5b3e a224 9fbd
000002c0: f496 5c3d 34ec f7be b0d6 abbe fb31 73be
000002d0: 131b 2cbf fcb4 40be 23df 033f 136a d83e
000002e0: 9b26 0e3f 53cc 64be fdd7 3d3f bbf7 debe
000002f0: 88a3 b7be 2cbc dbbe c5c8 4c3f 024e 9bbe
00000300: 3e8a 1b3f 9a27 d83d 7181 1a3f 9b3a dabe
00000310: ea2f 83bb 6f19 413f c9be a4be 07f4 013f
00000320: 3919 2e3f 7f6c b03e 8202 52bf b0c9 183f
00000330: 73d9 f23e 245e ed3e e85f da3d 8ed6 243e
00000340: 2780 2bbf 1572 b0bd f115 1e3f 3ffc a33e
00000350: 0fef 243f 47e1 f1be 37c0 27be 0afc 0ebf
00000360: 71c1 f8bd 0661 d03e 21f0 d03d d5a0 013e
00000370: 6751 ec3e 10af 33bf 2331 3f3e ea96 0b3d
00000380: 8749 053e 4090 133e 50e5 143d b443 0e3f
00000390: 9ad0 a03d d0cd 8a3e e012 983e e503 c6be
000003a0: 4b21 98be bd5c cc3e e6f6 c23e dbe0 83bf
000003b0: 639e 993e 2fe1 a83d 40d2 17bf e1b1 81be
000003c0: 12d1 a0bd 78a0 bf3e f634 473f 6123 173f
000003d0: 32bd f23d 9376 cc3d bfc0 10bf 9677 ef3e
000003e0: 06f2 d23e e5d1 703e a667 9fbe 8adb a5be
000003f0: eec4 d63e 3e62 29bf 21cf 1c3e cb03 edbe
-0.0005698495 -0.7278729 -0.7579774 0.5208677 0.4859274 -0.14983034 0.22931445 -0.13508067
-0.49462256 -0.39252734 -0.58011025 -0.55441713 0.244529 0.7878145 0.35641167 0.6341868
-0.26958385 0.25086161 -0.059140846 0.6677682 -0.2767683 0.9543216 -0.24071139 -0.10900801
0.00047669935 0.114009224 -0.37700984 0.015260289 -0.88406676 -1.1632072 0.567238 -0.22820373
-0.10311515 0.12841283 -0.3215357 0.9047279 -0.4984202 -0.63340896 -0.17828439 -0.25700092
0.4668671 -0.38603398 0.4846081 0.5059288 -0.27779898 -0.56483567 0.13620979 -0.44119015
0.383554 -0.21253231 -0.38956714 -0.16128524 0.6410313 0.6017982 0.15537763 0.31849495
-0.05492262 -0.10837959 0.38623756 0.13656987 0.27240413 -0.5186206 0.52075654 0.43197694
-0.42450207 0.47663572 -0.34749296 0.19407588 -0.49829453 -0.28405228 0.5219833 0.41334915
-0.1694553 0.1908509 0.9281125 -0.37275034 0.06423891 0.23003413 -0.41330966 -0.18166173
0.2297062 -0.60023403 0.20654957 0.3027573 0.55502015 -0.5845516 -0.25850263 -0.13883126
0.5645525 -0.58225214 0.20575623 0.012609015 0.48166686 0.15668729 -0.4400498 -0.020869473
0.1242246 -0.6484701 -0.34307078 0.32974425 -1.0619414 0.47986913 0.38767722 -0.5741993
0.48006248 -0.42309773 0.06181173 -0.7752392 -0.088674836 -0.26441962 -0.5127446 0.53512174
-0.044948786 -0.118700586 -0.5833032 0.6814435 0.1101173 -0.38943952 0.20207334 -0.16229722
0.02483706 -0.11756012 0.05989793 -0.4994223 0.12632613 -0.28389695 -0.3072946 0.5854629
-0.09871339 0.007264787 -0.3047514 -0.464723 -0.24932301 0.31516382 -0.1700833 0.5621291
0.087761745 -0.21566036 0.6768325 -0.62867254 -0.6839812 -0.43470383 0.7052543 -0.7477625
-0.40486014 -0.14763254 0.31897244 -0.24534252 -0.059258305 0.6021781 0.727187 0.24772373
-0.22099662 0.20746006 -0.53905886 0.1601974 0.51790243 -0.30683333 -0.26873106 0.6506281
0.507567 -0.29529452 0.46996954 -0.44632968 -0.5474347 -0.29486534 0.03587258 -0.5934211
0.58594745 -0.1612323 -0.18849589 0.4045852 0.13136327 0.7844824 0.2142533 -0.07770659
0.053854898 -0.48422396 -0.3356223 -0.23749535 -0.6722881 -0.1881904 0.51512355 0.42268428
0.5552766 -0.22343569 0.74157697 -0.43548378 -0.35866952 -0.42917 0.7999385 -0.30332953
0.60757816 0.105544284 0.6035376 -0.42622837 -0.0040035145 0.75429434 -0.32176808 0.5076298
0.68007237 0.34457776 -0.82035077 0.5968275 0.47431526 0.46360886 0.10662824 0.16097471
-0.6699242 -0.086155094 0.6175223 0.32028386 0.64427274 -0.47242185 -0.16381918 -0.5585333
-0.12146271 0.40699023 0.10202051 0.12659009 0.46155855 -0.70189 0.18671088 0.03407947
0.1301633 0.14410496 0.036351502 0.55572057 0.078522876 0.27110147 0.297019 -0.38674846
-0.297129 0.39914504 0.38078994 -1.0302995 0.30003652 0.08246075 -0.5930519 -0.25331023
-0.07852377 0.37427115 0.77815187 0.5903836 0.118524924 0.09983554 -0.5654411 0.46770924
0.41200274 0.23517568 -0.31133765 -0.32394058 0.4194712 -0.6616553 0.15313388 -0.46291956

decoders.0.decoder_net.0.bias f4 [512]
00000000: cf61 93be 5f13 263e fff9 df3e 7a6e 1bbe
00000010: 532e 933e bf95 fcbe 6782 143f 1aae a63e
00000020: df35 b6be 394d 333e 3c78 c93e 4daf 92bd
00000030: 1294 413f 0cb7 06bf f573 fabe d0f8 88be
00000040: b3d5 02bf f97c 453f acb1 023d 032e 22bf
00000050: 702c 21bf 51d8 dd3d 24e3 823e 1cb4 da3e
00000060: 9bdb 37bd e5fe f4be 0a88 0c3f 4431 f5be
00000070: 0200 e7be 78fb 45be fe1a 583f 6bf3 bebe
00000080: 0da6 0dbd 892e 96be 8164 efbe 5663 123e
00000090: 63a4 043f 48f7 ff3e a2bf 35bf 4aba 81be
000000a0: ed21 57be 9612 cbbe b9a0 1b3f 1b0b 033f
000000b0: 10e4 01bf 8f3a 2bbf 71a1 9ebd c40e 9e3e
000000c0: 0459 0e3f cfcd 343f e4e2 8abe 1a09 f7be
000000d0: a497 c03e 7bff 23bf 4718 04bf 757a f4be
000000e0: e1fe eabe 7bdf 23bf f341 263f 8a3b 1b3e
000000f0: 36a6 8d3c f140 5dbf 08d3 0ebf 2852 25be
00000100: 2677 da3e c665 fcbe 0a89 033f 1191 ecbe
00000110: 06da 20bf 8c3f d4be d020 263f 43bd 0c3d
00000120: 7e91 08bf 6c77 203f 2e64 f8bd b886 3e3e
00000130: 0baa 1f3f 2b72 34bf 1a28 95be 668d dcbe
00000140: ebb4 b13d 62d6 bdbd 9485 1e3f 3fa1 fcbe
00000150: e22c 16bf 8095 39be fc38 fd3e ae4a 493f
00000160: 959b dd3e 9944 f93c 9869 b4bb 89ca ffbc
00000170: cf6d 893e 215c 7a3e f509 053f 0ea3 18be
00000180: aaf6 933e 0b1b 513e 33e5 c33c f58d f93e
00000190: bf66 00bf e309 d2be 1fa1 55bd b068 e0be
000001a0: 7cf4 333f 9e07 cbbe 5c4e 803d 4554 55be
000001b0: 02bb 2abf 5bae 4bbe de56 063f fbaf 96be
000001c0: fb9e a33d 7952 303d 3af0 47bf 74e2 063f
000001d0: 1760 53bd bd83 33bf 7902 003f 7bc0 dd3d
000001e0: 0133 153f 0462 b7bd dbe6 8e3e aa68 2e3f
000001f0: 0bf7 a73d a45c 03be a4e0 98be 4ff9 ed3e
00000200: 77f6 edbe ae91 4f3f d46d 4e3f 37e3 2a3f
00000210: d93c 02bf f358 3bbf b6b5 e23d 145c 453e
00000220: 2fd8 1a3f 5cfb 17bc b573 70bf 9a31 04bf
00000230: 2c2d b53e 0239 9d3e 0de2 d43e f600 94be
00000240: 95b7 aa3e a09f 0abf 7829 413e a2c6 313f
00000250: 55b9 e43e c3a9 bcbe 590e 01be d1f6 c43e
00000260: fa2e 82be a84d 53be becc a1be 0e8a 39bf
00000270: 2509 47be dcc1 fbbc 83ff 8f3e 15b1 b7bd
00000280: 3ea2 c3be 417f c5bd ee0c 92bd 14b0 1bbf
00000290: da1c 4f3e 188b 383f f9b0 0d3e a1bb 0fbf
000002a0: 82e7 093f b6bb 893e 79fa d93e 80b2 f73e
000002b0: 8873 77bd 715b ecbe 728e f2be 339d 16bf
000002c0: 6c65 35be 893f 8d3e 5f7e c13e a33c 5abd
000002d0: 0132 80be 49fa a4be 3484 31bf 7f11 053f
000002e0: a223 32bf 578e 143f 558f 143f def8 1b3e
000002f0: c5ba ba3e 29de b83d b0d8 123f 80a8 873e
00000300: 3b46 f03e c621 0ebe 6809 333f b100 a73e
00000310: 1c76 853e 8c15 b83d c260 e23e b2b9 fb3e
00000320: f5db 0a3f ed1d aa3e 131a f8be 2a29 8ebe
00000330: a499 b8be 9c81 433e 1409 ca3e d5b6 113f
00000340: 42e5 893e e3af 91be 8e9d 063f 60ff 9cbe
00000350: 75ae 2e3f 71a3 f13e 8342 ccbc 7630 6c3d
00000360: 7f4c 8cbe a0f0 8e3e 0947 3dbf e921 4b3f
00000370: c658 5a3e 6951 05bd 21ed 6fbe 1049 42be
00000380: 35d0 3abe 5ced a73e 9da5 8b3f c81c c6be
00000390: 235c fc3e aab5 873c 34f1 c13e 5b88 073e
000003a0: 0744 f93e 2bf5 a9be 6539 09bf 5421 223e
000003b0: 40e6 04bd 10f7 883e eb93 c9be a71d f4be
000003c0: 04ae 923e 2d0c bd3e fb36 99be 44d7 373c
000003d0: e803 0abe 277b e8bd 644d d33c 6222 a8be
000003e0: cb44 75bd 0671 b43e ce43 98bd ae8c 1c3f
000003f0: 897e 283f 48fd 00bf 8f98 13bf 580d 6cbe
-0.2878556 0.16218327 0.4374542 -0.15178862 0.2874628 -0.49332997 0.5801148 0.32554704
-0.35587975 0.17509927 0.39349544 -0.07162342 0.7561656 -0.5262306 -0.48916593 -0.2675233
-0.5110733 0.7714382 0.031907722 -0.6335146 -0.6295843 0.10832275 0.2556392 0.42715538
-0.044887166 -0.4785072 0.5489508 -0.4788915 -0.45117193 -0.19334209 0.84416187 -0.37295088
-0.034582186 -0.29332379 -0.46756366 0.14295706 0.51813334 0.49993348 -0.70995533 -0.2533744
-0.21009035 -0.39662617 0.6079212 0.5118882 -0.5073862 -0.6688623 -0.07745636 0.3087064
0.5560458 0.7062654 -0.2712623 -0.4824913 0.37615693 -0.6406171 -0.51599544 -0.47749677
-0.45897582 -0.6401288 0.6494438 0.15159431 0.01729117 -0.8642722 -0.5579076 -0.16144621
0.42669028 -0.49296397 0.5138098 -0.46204427 -0.6283268 -0.41454732 0.6489382 0.03436018
-0.53347003 0.62682223 -0.12128483 0.18606079 0.6236884 -0.70486706 -0.29132158 -0.43076628
0.086770855 -0.09269406 0.61922574 -0.4934177 -0.58662236 -0.18123436 0.49457538 0.7862958
0.43282762 0.030428218 -0.005505752 -0.031224506 0.2684159 0.24449207 0.5196832 -0.1490595
0.28899127 0.20420472 0.023913002 0.48741117 -0.5015678 -0.41023168 -0.05215561 -0.4382987
0.7029493 -0.3965425 0.06264946 -0.20832928 -0.666916 -0.1989073 0.524763 -0.29431137
0.079893075 0.043047402 -0.7810093 0.5268929 -0.05160531 -0.7012289 0.5000377 0.10827728
0.5828095 -0.08954242 0.27910504 0.68128455 0.082014166 -0.12828308 -0.29858887 0.4647927
-0.464771 0.81081665 0.80636334 0.6675295 -0.50874096 -0.731826 0.11069815 0.19273406
0.6048612 -0.009276237 -0.93926555 -0.51638186 0.35386026 0.30707556 0.41578713 -0.28906983
0.33343187 -0.5414982 0.18863475 0.69443715 0.44672647 -0.36848268 -0.1260313 0.38469556
-0.25426465 -0.20635092 -0.31601518 -0.7247628 -0.19437082 -0.030732088 0.28124627 -0.089693226
-0.38209718 -0.096434124 -0.071313724 -0.6081555 0.2022585 0.7208724 0.13837041 -0.56145674
0.5386888 0.26901025 0.42573908 0.48378372 -0.060412914 -0.46163514 -0.47374302 -0.58833617
-0.1771447 0.27587536 0.37791726 -0.053280484 -0.2503815 -0.32222202 -0.6934235 0.5197982
-0.6958562 0.58029693 0.5803121 0.15231654 0.3647062 0.09026749 0.5736189 0.26495743
0.46928582 -0.13880071 0.6993623 0.32617715 0.26066673 0.08988485 0.44214445 0.49165112
0.5424188 0.33225957 -0.48457393 -0.2776578 -0.36054718 0.19092411 0.3946005 0.56919605
0.26932722 -0.28454503 0.5258416 -0.30663586 0.6823495 0.47195008 -0.024934059 0.057663403
-0.27402112 0.27917957 -0.73936516 0.7934862 0.21322927 -0.032548342 -0.23430301 -0.18973184
-0.18243487 0.32798278 1.0909916 -0.38693833 0.49289045 0.016566116 0.37879336 0.13235609
0.48684713 -0.3319486 -0.536032 0.15833026 -0.032446146 0.26750994 -0.39370665 -0.47678873
0.28648388 0.36923352 -0.2992476 0.011220757 -0.13478053 -0.113516144 0.025793739 -0.32838732
-0.05988006 0.3524248 -0.07434808 0.6115216 0.6581808 -0.50386477 -0.5765466 -0.23051965

decoders.0.decoder_net.3.weight f4 [32]
00000000: 1d0f 953f 6fbc 8a3f a6ff 853f e17b 903f
00000010: c331 703f 7c01 803f f146 883f 5f0d 783f
00000020: a859 8f3f 4ea5 833f 039d 793f e7a7 843f
00000030: e93c 883f d8ec 813f a50a 833f 15ae 763f
00000040: d9a9 793f 5ae0 7f3f 7b74 873f 982e 893f
00000050: 0236 833f b289 833f 0c76 813f ac89 7a3f
00000060: 1c09 813f 2a73 8c3f e5b1 873f 9932 803f
00000070: 02a2 803f 00dd 843f 5279 883f 9bcf 833f
1.1645237 1.0838755 1.0468643 1.1287805 0.9382593 1.0000453 1.064665 0.968954
1.1199236 1.0284822 0.97505206 1.036374 1.0643588 1.0150404 1.0237623 0.9635938
0.9752479 0.9995171 1.0582422 1.0717344 1.0250857 1.0276396 1.011415 0.9786632
1.0080905 1.0972645 1.0601164 1.0015441 1.0049441 1.0379944 1.0662024 1.0297731

decoders.0.decoder_net.3.bias f4 [32]
00000000: 9338 caba eb4c 9e3a 5bba 7a3d faae ae3d
00000010: 9453 1dbd 96f4 16bc 25e0 873c e17e 033d
00000020: 7963 213d 195e 513d b7f0 cfbb c63b 013c
00000030: 6635 253d ee7d 873d 7b7a 2bbd b132 8cbc
00000040: ed0b 213d 0f8a 50bb 9989 803b a213 81bd
00000050: 77d7 713d 0615 933c 39f0 cabc 70d3 fc3b
00000060: b990 f5bc 41b9 643c 683f 993d 913a 2a3d
00000070: 8d3b ce3a 18a5 b43c e780 3f3d 1624 a1bc
-0.0015428237 0.0012077367 0.06121288 0.08529468 -0.038409784 -0.009213587 0.016586373 0.032103423
0.039401505 0.05111513 -0.006345834 0.007887786 0.040334128 0.06615816 -0.041864853 -0.017114015
0.039318014 -0.003182057 0.003922653 -0.06302573 0.059043374 0.01795436 -0.02477275 0.007715635
-0.029976236 0.013960184 0.07482797 0.04155976 0.00157343 0.02205138 0.04675379 -0.019670527

decoders.0.decoder_net.3.running_mean f4 [32]
00000000: f8ff 7f3e f8ff 7f3e f8ff 7f3e f8ff 7f3e
00000010: f8ff 7f3e f8ff 7f3e f8ff 7f3e f8ff 7f3e
00000020: f8ff 7f3e f8ff 7f3e f8ff 7f3e f8ff 7f3e
00000030: f8ff 7f3e f8ff 7f3e f8ff 7f3e f8ff 7f3e
00000040: f8ff 7f3e f8ff 7f3e f8ff 7f3e f8ff 7f3e
00000050: f8ff 7f3e f8ff 7f3e f8ff 7f3e f8ff 7f3e
00000060: f8ff 7f3e f8ff 7f3e f8ff 7f3e f8ff 7f3e
00000070: f8ff 7f3e f8ff 7f3e f8ff 7f3e f8ff 7f3e
0.24999988 0.24999988 0.24999988 0.24999988 0.24999988 0.24999988 0.24999988 0.24999988
0.24999988 0.24999988 0.24999988 0.24999988 0.24999988 0.24999988 0.24999988 0.24999988
0.24999988 0.24999988 0.24999988 0.24999988 0.24999988 0.24999988 0.24999988 0.24999988
0.24999988 0.24999988 0.24999988 0.24999988 0.24999988 0.24999988 0.24999988 0.24999988

decoders.0.decoder_net.3.running_var f4 [32]
00000000: ace9 bb3d 711b 943d a9af 8f3d a704 923d
00000010: 306e 883d 7375 943d abf7 e63d e277 843d
00000020: 6d73 e23d 8350 8e3d df79 1e3d 86ef 9c3d
00000030: 68d2 963d 5f23 7c3d 6d7e 693d 29ba de3d
00000040: 4c27 c33d a3f8 8a3d 65cf a13d 0b85 903d
00000050: 6d37 bd3d 75b7 a83d d677 d13d eb5f 8f3d
00000060: a3a6 913d 24f5 933d ec41 213d d37e c63d
00000070: 6374 b03d c82f b83d 12fd d03d d7d5 8b3d
0.09175429 0.072317965 0.070159264 0.071297936 0.066616416 0.07248964 0.11277708 0.06468178
0.11057172 0.0694895 0.038690444 0.07662873 0.073643506 0.06155717 0.057005335 0.10875351
0.0952898 0.06785705 0.079008855 0.07056626 0.09239087 0.08238117 0.10227935 0.07000717
0.071118616 0.07224491 0.03936951 0.096921586 0.08615949 0.089934886 0.10204519 0.06827896

decoders.0.decoder_net.4.weight f4 [32, 32, 3, 3]
00000000: 14e7 723d 03ec bd3d 3e2c 4ebb 61ac c53d
00000010: 1061 023d 4072 aabb 1fc8 5d3d 34ac c3bd
00000020: b8d1 c73d dd34 1cbe 8d8b 733c 65c2 0bbe
00000030: d931 8d3d 7a79 283e d0fa febd 518e 753d
00000040: 4348 64bc 2ff5 aa3d a194 073e a25e 843d
00000050: f8e9 883b f2d3 943d 643a 883c 4c4a 5fbd
00000060: 3f53 82bd 41ed 1dbd b17f 2f3d feee f53c
00000070: 1070 d1bc 0c9d 04bd bc41 19bd e4e4 143d
00000080: fd99 743d 56c7 723d 4492 c13c 98d0 29bd
00000090: 6a4f 9bbd 052d 1b3d 5567 933d 7603 3abd
000000a0: d7ff 453d 04b7 13be 6abe b43d 27ac 61bd
000000b0: b0e6 43bd 6787 b1bd 8b65 97bb 761a ec3c
000000c0: 8f20 efbd ea12 6fbd e016 943c 5ecc a93c
000000d0: 5f35 673b f332 f53c d92a 90bc 7eb6 e33c
000000e0: 0c1c 553a 571e 8a3a d52d 9fbd 89da cebd
000000f0: d1cb a33d ffb6 31bd 71eb da3d 72ab 4dbd
00000100: 059e 193d e9cc 173d 8699 b13d 32f9 f1bc
00000110: faea 953c c8ba 8ebd 59a3 e03c d5ee ca3d
00000120: 5757 cb3d ba1d b93d 7741 803d 8f74 21bd
00000130: 97d4 81bd b69e 343d 3577 4f3c 158f 2bbc
00000140: 7898 873b c8fd 1ebe ca31 193d f15a 433d
00000150: 7950 37ba c2e3 393e a457 3c3c adfc 833c
00000160: 53de 893c 026f 45bc eea2 603b 26db 0abd
00000170: 16fe cabd 0d29 2c3c 87c8 913d 173e 79bd
00000180: b301 8cbd 67ff 13bd 0a61 8c3d d05b 72bd
00000190: 2333 183d c9d3 a03d 1661 96bd d316 0cbd
000001a0: 3aba 9cbb 4abb 8d3c ee8f c4bc 6c05 96bc
000001b0: 3b1a 833c c447 f33d 8801 b13d 97b9 d23d
000001c0: c34f a73c 8e7f b4bc 29a4 783d d887 5ebc
000001d0: 1b6b dbbb 29ce aabd 4fe0 f5bc a586 a4bc
000001e0: 40c0 893d 0c8e 76bd 8490 a5bc 88fb 813d
000001f0: d6e7 30bd 8f5f 13bc ba09 223d 163d 433d
00000200: 2c2d bcbc 71be 003e 8e31 1e3d 808a 12bd
00000210: 1cc2 f7bb dc0b 9d3c 8a6c 0b3d 284c 7fbd
00000220: cf1c c4bd 7402 b8bd a479 8e3d 14a9 89bd
00000230: a54c 79bd 13b4 8e3d 410f 8abd 5cc4 be3d
00000240: ab06 99bd 006b 873d f735 ef3c 2777 e9bd
00000250: 0ec9 573c 0cc4 103d 5595 943b 6cfe 293c
00000260: e83b a2bb a75f aa3c ec2e 8a3b fd1c 8b3b
00000270: f15c 163d 5174 cd3c e683 f73c 262e 213c
00000280: ece4 4abc 2bd8 42bb e951 653d b8f2 1d3b
00000290: fcc8 52bb b037 4b3d d242 6cbd fc89 8e3b
000002a0: b9a0 62bb 48a7 ef3c e48c fbbb c5ec 203c
000002b0: d9b8 55bd a6ee 4b3d 6474 763c 5d19 9f3b
000002c0: 7433 403d 8760 4cbd 4d60 f6bc 2920 423d
000002d0: 9544 c0bc 9199 043c 14be 92bc efd6 0f3d
000002e0: 30f7 fb3d 27d8 fdbc b993 11be 885e 02bc
000002f0: 7a32 0abd dcc5 29bd 0708 783c 63f5 8ebd
00000300: e4c5 2dbd b31a 623d c88b e53b e7fc 34bd
00000310: 7d02 803d d36f aebd 5001 11bb f09a db3b
00000320: 5547 523d b953 36bd 4d06 a3bd 134a dcbd
00000330: 394f 62bd 773d ba3c 5ef5 ef3b 1cd8 673d
00000340: 6b54 ccbc a084 68bd cce4 ccbb 456c 2abd
00000350: ecb5 d9bc b3e2 e0bc 0cea 263c 19f2 f63b
00000360: 630d 763d 720d a9bd 88df a0bc e787 19bd
00000370: 48c5 023d 8ec7 10be 92ae 49bc 97bd 7cbd
00000380: bad6 41ba a337 a63d c8d3 34bc 2faa ef3b
00000390: 6f52 a93d abb1 f9bc c985 9d3b 2dec c6bd
000003a0: 3468 e23d bf2f 46bd e705 03bd d97f 533d
000003b0: a1aa 8bbd 20ce da3c ac08 a93d 88d1 e3bb
000003c0: 5656 9a3d 3226 f23c 6695 123c 5c50 893d
000003d0: 0296 e33c 30ec c83d fc55 6cbe ffee 8b3c
000003e0: 7003 8a3c 7bf6 a73d ba66 eeb9 9642 423d
000003f0: c329 213d 2519 d2bc cee2 be3c ab74 13bd
0.059302405 0.09273531 -0.0031459476 0.09652019 0.031830847 -0.005201608 0.05414593 -0.095543295
0.097567976 -0.1525454 0.0148648145 -0.13648374 0.06894273 0.1645259 -0.124501824 0.059950177
-0.013933244 0.08347546 0.13240291 0.06463362 0.004178282 0.07266988 0.016629405 -0.054514214
-0.06363534 -0.03855634 0.042846385 0.030021187 -0.02556613 -0.032376334 -0.037416205 0.0363511
0.059717167 0.059272133 0.023629315 -0.041458696 -0.075835064 0.03788473 0.071974434 -0.045413457
0.04833969 -0.14425284 0.08825381 -0.055095818 -0.047827423 -0.08668404 -0.004620259 0.028821211
-0.11676132 -0.058367647 0.018077314 0.020727333 0.0035279614 0.029931521 -0.017598556 0.02779698
0.00081294845 0.0010537606 -0.07772414 -0.10100276 0.07997859 -0.04338741 0.10689438 -0.05021233
0.037504215 0.037060652 0.086718604 -0.02953777 0.018300522 -0.069692194 0.02742164 0.09908835
0.09928768 0.09038873 0.062624864 -0.0394178 -0.063393764 0.04409667 0.0126626985 -0.010471125
0.0041380487 -0.15526497 0.037401 0.04769415 -0.00069928874 0.18153289 0.0114955045 0.016111696
0.016829645 -0.012050392 0.00342768 -0.033900402 -0.09911744 0.010507834 0.07118326 -0.06085023
-0.068362616 -0.036132243 0.06854446 -0.05916959 0.037158143 0.07852895 -0.073427364 -0.034201454
-0.004782942 0.01730122 -0.023994412 -0.018313132 0.016003719 0.118789226 0.0864287 0.10289305
0.020423776 -0.022033479 0.06070343 -0.013582192 -0.0066961176 -0.08340103 -0.030014185 -0.020083735
0.06726122 -0.06019406 -0.020210512 0.06346804 -0.043189846 -0.008994951 0.039560057 0.047665678
-0.022970758 0.12572648 0.038621478 -0.035776615 -0.0075609814 0.019170694 0.034039058 -0.062328488
-0.09575807 -0.08984843 0.06956795 -0.06721702 -0.06086411 0.0696794 -0.06741191 0.09314796
-0.07471975 0.066122055 0.029200537 -0.1139968 0.013170494 0.035343215 0.0045344033 0.0103756
-0.004950989 0.020797564 0.0042170193 0.004245399 0.03670973 0.025079878 0.030214261 0.009837663
-0.012383681 -0.0029730897 0.05598632 0.002410097 -0.0032163253 0.049613655 -0.057680912 0.004349945
-0.0034580661 0.02925457 -0.0076767076 0.009822075 -0.052178238 0.04978814 0.015042398 0.0048553185
0.04692407 -0.049896743 -0.030075217 0.04739395 -0.023470202 0.008093254 -0.017912902 0.035117086
0.12303007 -0.030986859 -0.14216508 -0.007957108 -0.033739544 -0.04144846 0.015138633 -0.069803976
-0.04242505 0.055201244 0.0070051886 -0.0441865 0.062504746 -0.085174225 -0.0022126026 0.0067018196
0.05133756 -0.044513438 -0.07960186 -0.10756316 -0.055251334 0.022734387 0.007322951 0.056602582
-0.024942597 -0.056767106 -0.0062528607 -0.04160716 -0.026576005 -0.027451849 0.010187637 0.0075361845
0.06007136 -0.082545176 -0.019637838 -0.037483122 0.031926423 -0.14138624 -0.012309687 -0.061704244
-0.00073943625 0.081160806 -0.011036821 0.0073139886 0.08267676 -0.030480227 0.004807208 -0.09713016
0.110550314 -0.048385378 -0.03198805 0.051635597 -0.06819654 0.026709616 0.08253607 -0.0069524683
0.075359985 0.029559229 0.008946752 0.067047805 0.02778149 0.09810674 -0.23079675 0.017081736
0.016847342 0.08201309 -0.00045471435 0.047426783 0.039346468 -0.025646755 0.023301508 -0.035999935

decoders.0.decoder_net.4.bias f4 [32]
00000000: ee4f aa3d a586 cabd fbbc 02bd cea8 5c3d
00000010: 81d9 a1bd 824a d6bc 91ad a03c 4d99 9e3d
00000020: c535 1fbb 5e7c e1bc da60 c63b 87b7 453c
00000030: 7292 bdbc d85a 2bbd 1c98 2fbd 2f52 38bd
00000040: be31 bf3d 25b7 debc fc3b 9c3d a897 173d
00000050: 9983 76ba 90b3 733b 2c1f be3c 62c1 73bd
00000060: 5428 72bd d4f3 f63b 4c31 bd3a 95ca 7cba
00000070: 2841 4d3d d681 c13c b32b f13c 0a71 4cbd
0.08316027 -0.09888963 -0.031918507 0.053871922 -0.07902814 -0.026158575 0.019614013 0.077440836
-0.0024293524 -0.027525123 0.006054026 0.012067682 -0.02314112 -0.041834682 -0.042869672 -0.04500025
0.093356594 -0.02718694 0.076286286 0.037009865 -0.0009403765 0.0037185885 0.023208223 -0.059510596
-0.05912049 0.007536391 0.0014434247 -0.0009643224 0.050110966 0.02362148 0.029439783 -0.04991249

decoders.0.decoder_net.6.weight f4 [32]
00000000: 8b54 6c3f 5653 813f d0e9 643f c44d 823f
00000010: f8aa 773f 4757 773f 1220 773f c558 6e3f
00000020: c520 5f3f fcf6 6b3f 05c4 6e3f eb5a 653f
00000030: 75bd 633f 5224 683f 262a 733f 8a99 683f
00000040: 62ce 843f e7ae 763f e26a 6a3f 4b40 803f
00000050: 734d 773f ec51 6a3f 4f2c 693f f087 6b3f
00000060: 494f 7b3f 9f32 7c3f cfcd 693f df4d 703f
00000070: a70a 6f3f 6317 833f 1e69 6b3f ae59 773f
0.923165 1.0103557 0.8941927 1.0179982 0.9674525 0.9661755 0.9653331 0.931042
0.8715938 0.92173743 0.9326785 0.89591855 0.88960963 0.9068042 0.9498619 0.9085928
1.0375483 0.9636063 0.9156934 1.0019621 0.96602553 0.9153125 0.91083235 0.920043
0.98167855 0.9851474 0.91329664 0.9386882 0.9337563 1.0241512 0.9195727 0.96621215

decoders.0.decoder_net.6.bias f4 [32]
00000000: af3e 1abe 9b15 1ebd a1fd 44bd 8606 80bd
00000010: 7a33 1abd d212 d0bd 80a6 16be f162 a33d
00000020: f0b0 43bd abbd c13d 336d 7b3d 2c31 8ebd
00000030: 641c 373c 7c51 763d d56d e5bd 15fe 943d
00000040: c811 973d 671d 52bd 61cb 59bc 0d89 e73c
00000050: d3af 7dbd 8862 263b 0d7c ddbd 3555 32bd
00000060: 0b82 d43c 15ed 873d e3ea dfbd 30b7 b83d
00000070: 8044 05be efd4 933d b669 b4bd 4e6e 6c3d
-0.15062974 -0.038594823 -0.048093442 -0.06251244 -0.037646748 -0.1015984 -0.14711952 0.07977856
-0.047776163 0.094600044 0.061383437 -0.069429725 0.011176202 0.060136303 -0.112025894 0.07275025
0.073764384 -0.05129757 -0.013293118 0.028263593 -0.061935257 0.002538832 -0.108146764 -0.04353829
0.025940916 0.06637017 -0.10933473 0.09019315 -0.13014412 0.07218348 -0.08809225 0.057722382

decoders.0.decoder_net.6.running_mean f4 [32]
00000000: 1e49 123e 1e49 123e 1e49 123e 1e49 123e
00000010: 1e49 123e 1e49 123e 1e49 123e 1e49 123e
00000020: 1e49 123e 1e49 123e 1e49 123e 1e49 123e
00000030: 1e49 123e 1e49 123e 1e49 123e 1e49 123e
00000040: 1e49 123e 1e49 123e 1e49 123e 1e49 123e
00000050: 1e49 123e 1e49 123e 1e49 123e 1e49 123e
00000060: 1e49 123e 1e49 123e 1e49 123e 1e49 123e
00000070: 1e49 123e 1e49 123e 1e49 123e 1e49 123e
0.14285704 0.14285704 0.14285704 0.14285704 0.14285704 0.14285704 0.14285704 0.14285704
0.14285704 0.14285704 0.14285704 0.14285704 0.14285704 0.14285704 0.14285704 0.14285704
0.14285704 0.14285704 0.14285704 0.14285704 0.14285704 0.14285704 0.14285704 0.14285704
0.14285704 0.14285704 0.14285704 0.14285704 0.14285704 0.14285704 0.14285704 0.14285704

decoders.0.decoder_net.6.running_var f4 [32]
00000000: e60a 593b 38ac 973b 8a4d cd3b 5314 bd3b
00000010: 9b0e a23b 57f1 cb3b 4666 913b 883f 9a3b
00000020: fc68 7c3b 8ca0 ba3b afdd 693b f31f 993b
00000030: 3877 913b eb77 833b 2850 8f3b c82c 9d3b
00000040: c6c0 3c3c 942a 073c 4ee7 543b b78a 9d3b
00000050: e541 bd3b 2c5d 603b 0e4b 983b 6e86 8f3b
00000060: d692 a33b ae93 eb3b 22f3 bd3b 71f1 5a3b
00000070: 4ef0 023c 74cd ab3b 8b5a 6b3b cfa5 503b
0.0033118068 0.0046286844 0.006265347 0.005770245 0.0049455888 0.0062238383 0.004437241 0.0047072805
0.0038514724 0.005695408 0.0035685112 0.004672998 0.004439261 0.004012098 0.004373569 0.004796598
0.01152057 0.0082498975 0.00324865 0.004807796 0.0057756775 0.0034235222 0.004647619 0.004380039
0.0049918694 0.0071892357 0.005796806 0.003340807 0.007991863 0.005242998 0.0035912122 0.003183711

decoders.0.decoder_net.7.weight f4 [32, 16, 3, 3]
00000000: f027 253c 5cbf 2b3d 4d7e 5a3d bdaa 22bd
00000010: ce3e 06bd 1c3c c53b 18bc bebc 48ae 3fbc
00000020: 6e9e 133d 72fb 09bb 10f3 3d3d 61ba 63bd
00000030: 8c6b d83a ed74 493c f034 7e3c eb90 043d
00000040: 588e 653d ced1 673d def9 7b3d 424a 91bd
00000050: 673b 903d 1693 3fbd cf27 463d 8a91 64bb
00000060: 1483 e23c cf39 7cbc d23c b53d 0d22 a8bc
00000070: 572e 0c3d ee5b 7e3d 151c 02bd 33d8 053e
00000080: b7e7 e8bb 045d a43c 5580 813c d930 ba3c
00000090: 614c ce3d 67cc a63d ff8c 873d d93b 823d
000000a0: ca11 04bb c390 33bd ff3c 483d 56f6 703d
000000b0: fde2 b53c a7b7 01bd 524e 083b 6cf6 e5bc
000000c0: d908 a03d 49d8 e53d 45dc d23d b25c 9bbb
000000d0: f7bf 7e3d 0548 c2bd 32ef 5dbc e337 fd3a
000000e0: bf1d 2fbd cd3f babd 4fe8 073d de85 9cbd
000000f0: b2f9 56bd 9e3e 78bd 1022 913c a244 863d
00000100: 8e13 52bd abe3 66bc 8fcd 1d3d 0810 38bc
00000110: f020 923d 7dbc 723d e002 ad3c 4592 f9bb
00000120: 766d 9cbc bfad c6bd 3490 38bd 0c52 ce3c
00000130: 6e8e bebd bf89 2dbd 73f3 943d 8592 823d
00000140: c4d0 78bd b1ba d2bc 1da3 efbc 9290 c23c
00000150: 87f3 2e3d f483 c6bd dd22 8fbd fff3 6c3d
00000160: 1086 303d d988 06bd f3e9 793d 1dd4 1bbd
00000170: a28c 87bc d65c ae3c 6e38 8bbb ec4f 063c
00000180: fcba a43c 62c7 843d 0ab2 7f3a d8ba 19bc
00000190: 953f 49bd cdca 44bd d0cb 823b a083 bf3d
000001a0: 9fb2 5e3d f2dd 75bd d57a cc3d 6af1 acbd
000001b0: 9a7f 623d 4ad3 dd3c 580d 243c f065 16bd
000001c0: 236d 3d3d aeb0 813d 98e5 9bbc d4cb 903d
000001d0: 1f76 c3bc 62fb 8a3c 0d04 9e3d 50e7 59bc
000001e0: da76 1bbd 2a5d 303c a0ea a33c c14a 9e3d
000001f0: f22e 8ebd 364a f9ba 19d0 89bd 41b6 5b3d
00000200: ade5 a13d e44a 0c3d 25bf b83d 5183 c7bb
00000210: 312c ffbc 2b42 b03d 714a 913c 86c7 9a3b
00000220: 0731 a73d 873a f0bc ee55 9ebc 8875 80bd
00000230: 5ec9 263d efb5 ec3c 3a39 44bd e744 afbb
00000240: 0fca 283c ec0e 0f3c 339d 4d3c 7659 13bb
00000250: 54bd b23d eb5c 95bd 9f3e c73d 06ed c23c
00000260: 0206 84bd c4ca 443d bc00 9a3d 2a86 963d
00000270: eb56 bdbc a730 253d 1230 963d 3971 883d
00000280: cbd8 b43c 5615 413d 8e7a 623c 4788 d7bc
00000290: 0801 a5bc 748b 293d ec0e 0b3e fd3d fcbc
000002a0: 10f2 a13d 767d e53b c935 323c 1f83 943d
000002b0: 051f ec3d cfe0 4f3c d452 893d 11a2 c43b
000002c0: 0186 c83d 7257 18bd ace0 133d be99 ea3c
000002d0: 7d42 2fbc c0c2 723c 3273 d03c d6d7 113d
000002e0: 999e 1e3c 1e14 803d 4a0e 373d 3f99 e43d
000002f0: 8991 8e3b e6f9 673c 8d4d 193e b21d a43d
00000300: 3cdc edbb 6be0 c53c dbd9 8b3d 254c 3ebd
00000310: c02d 9f3d 2ecd 903c 904a 0a3d 7dd7 9c3d
00000320: 2e2d f53a 21b0 0fbe 1edd 33be 5d3b 6cbd
00000330: 895e 0fbd 167c b9bc f96b 113c 0f42 4d3d
00000340: 9f6f 02bd a9a5 4bbd d2a8 a93d 7309 163c
00000350: 4dea 3e3b 26a0 03bc 4412 95bc 3915 95bd
00000360: e2e0 24bb fac1 bebd decd efbc 0fc1 29bd
00000370: c452 f43c 16aa 94bc 5072 a9bb f350 bd3c
00000380: 2c35 e9bb a612 28bb 7150 c7bd bb3d 543c
00000390: ab00 003d 7c17 65bd 028d 893b 6abd 5c3c
000003a0: 6cf2 873d aade 1bbd 9fdb fe3c ce9c 41bd
000003b0: 24ca e3bc b62a 72bd 20aa 423d 6a3c 683c
000003c0: 0e8e 5d3d 3f68 9dbd 56d3 883d 82de 453d
000003d0: dda0 f63d 5333 18bd bd9c 1f3d f591 233e
000003e0: 6f4d 723d 0cff e13c f5ae 86bc 6cbb 433d
000003f0: 40cf 0dbd 6c7f 37bd 415a 563d 06bd 96bb
0.010080323 0.04193054 0.053343106 -0.03971361 -0.03277474 0.0060191285 -0.02328305 -0.011699267
0.036039762 -0.0021054414 0.04637438 -0.055597667 0.0016511544 0.012295944 0.015515551 0.032364767
0.056043953 0.05659657 0.06151759 -0.07094242 0.0704258 -0.04677113 0.04837781 -0.0034876787
0.027650394 -0.015394642 0.08849491 -0.02052405 0.03422388 0.06209939 -0.031765062 0.13070755
-0.0071077007 0.020063885 0.015808264 0.02272837 0.10073162 0.081444554 0.0661869 0.06359071
-0.0020152205 -0.043839227 0.048886295 0.058828674 0.022202963 -0.031669285 0.0020798636 -0.028071605
0.078141876 0.11222894 0.10295919 -0.0047412748 0.06219479 -0.09486393 -0.013545798 0.0019319024
-0.042752977 -0.090942 0.03318053 -0.07642721 -0.05248422 -0.06060659 0.017716438 0.065560594
-0.05128818 -0.014092366 0.038526114 -0.011234291 0.071351886 0.059261788 0.021119535 -0.0076163136
-0.019095164 -0.09701108 -0.045059398 0.025185607 -0.0930451 -0.042367693 0.07272997 0.06375603
-0.06074597 -0.025723787 -0.029252583 0.023750577 0.042712715 -0.09693137 -0.069890715 0.05784988
0.043096602 -0.03284535 0.061014127 -0.038044084 -0.016546551 0.021284502 -0.0042486703 0.008197766
0.020108692 0.06483342 0.0009754008 -0.009382926 -0.049132902 -0.04804497 0.0039915815 0.09351277
0.054369565 -0.060026117 0.09984366 -0.084444836 0.05529747 0.02707829 0.010012947 -0.03671831
0.04624666 0.06332527 -0.019030377 0.07070127 -0.023860035 0.016965572 0.077156164 -0.013299778
-0.037955143 0.0107644 0.020009339 0.07729102 -0.06942548 -0.0019019309 -0.067291446 0.053640608
0.07905135 0.03425111 0.09020833 -0.006088652 -0.031149002 0.086063705 0.017735692 0.004723492
0.08163648 -0.029324783 -0.019328084 -0.06272417 0.040719382 0.028895346 -0.047906138 -0.00534879
0.010302081 0.008731585 0.012549686 -0.0022483743 0.08727518 -0.07293113 0.09728741 0.023794662
-0.064464584 0.048044935 0.07519671 0.073498085 -0.023112735 0.0403296 0.073333874 0.066622205
0.022076031 0.04713949 0.013823165 -0.0263101 -0.020142093 0.04139276 0.13579911 -0.030791277
0.07907498 0.0070034815 0.010877081 0.07251572 0.11529354 0.012687876 0.06705251 0.006000765
0.09791184 -0.03719277 0.036102936 0.028637763 -0.010697004 0.01481694 0.025445554 0.035606228
0.009681367 0.06253837 0.04469136 0.11162042 0.0043508452 0.0141587015 0.1497099 0.080134764
-0.00725892 0.024154862 0.06828662 -0.046459336 0.07772398 0.017675962 0.033762515 0.07658289
0.0018705481 -0.14032032 -0.17564818 -0.0576738 -0.035002265 -0.022642177 0.00887584 0.050111827
-0.03184473 -0.049718533 0.08284153 0.009157526 0.0029131353 -0.008033788 -0.018197186 -0.072794385
-0.0025158455 -0.09314342 -0.02927297 -0.04144388 0.029824622 -0.01814751 -0.005171098 0.023109889
-0.0071169343 -0.002564588 -0.0973214 0.012954171 0.031250637 -0.0559306 0.0041977176 0.013472894
0.06638035 -0.038054146 0.031110583 -0.04726868 -0.02780635 -0.059122764 0.047525525 0.01417456
0.054090552 -0.07685899 0.06680934 0.048307903 0.12042401 -0.03715832 0.038967837 0.15973647
0.059155878 0.027587436 -0.016440848 0.04778616 -0.034621477 -0.044799253 0.052332167 -0.00460017

decoders.0.decoder_net.7.bias f4 [16]
00000000: 74f2 08bd cb38 b23c 9c97 d6bb f491 943d
00000010: 1b5b 283e b30f fbbb 575c 653d 356e a73b
00000020: dcbe cf3d 5fa0 d13c ee6a afbc 1940 f2bc
00000030: 75c7 bebc e7fd 863d 6285 113e 8a03 23bd
-0.033434346 0.021755597 -0.006548835 0.07254401 0.16441004 -0.0076617836 0.055996265 0.0051095732
0.101438254 0.025589166 -0.021413293 -0.02957158 -0.023288468 0.06591397 0.14211038 -0.039798297

decoders.0.decoder_net.9.weight f4 [16]
00000000: 41a3 683f 5182 6a3f 2690 6c3f 64e7 693f
00000010: d78d 6a3f 934d 703f 2d10 8c3f 8064 623f
00000020: 295d 683f f214 703f 663e 673f 993c 713f
00000030: 26c7 6b3f fa0c 773f 040b 6b3f ec08 653f
0.90874106 0.916051 0.92407453 0.913687 0.9162268 0.9386837 1.0942436 0.884346
0.9076715 0.9378196 0.9032959 0.9423309 0.9210075 0.96504176 0.91813684 0.8946674

decoders.0.decoder_net.9.bias f4 [16]
00000000: 745b 35be 762d 7ebc 5ae0 ebbc 938d 4ebe
00000010: 4149 4b3e f8de b0bd 9e69 bc3c 2cf0 a3bd
00000020: eaa6 89be ef39 1fbd 9b00 f3bd cbcd b2bd
00000030: 62fb 113e a984 47bc 40ef 0dbe 843a 09be
-0.17710668 -0.015513768 -0.028793503 -0.20171194 0.19852163 -0.08636278 0.022999581 -0.080047935
-0.26885158 -0.03887361 -0.1186535 -0.08730658 0.14256051 -0.012177625 -0.13860798 -0.13401228

decoders.0.decoder_net.9.running_mean f4 [16]
00000000: 1e49 923d 1e49 923d 1e49 923d 1e49 923d
00000010: 1e49 923d 1e49 923d 1e49 923d 1e49 923d
00000020: 1e49 923d 1e49 923d 1e49 923d 1e49 923d
00000030: 1e49 923d 1e49 923d 1e49 923d 1e49 923d
0.07142852 0.07142852 0.07142852 0.07142852 0.07142852 0.07142852 0.07142852 0.07142852
0.07142852 0.07142852 0.07142852 0.07142852 0.07142852 0.07142852 0.07142852 0.07142852

decoders.0.decoder_net.9.running_var f4 [16]
00000000: c28a fa3a d5e6 183b 12e1 083b d999 313b
00000010: 62d6 103b c043 123b c3f2 af3b 1829 c53a
00000020: 676c 1c3b 8408 1f3b 88a7 c63a b255 623b
00000030: 4214 7e3b f75a 903b 661b 323b e2cd 213b
0.0019114839 0.0023330946 0.0020886105 0.0027099757 0.0022100438 0.0022318214 0.0053695156 0.0015042154
0.0023868324 0.002426655 0.0015156129 0.0034535942 0.0038769399 0.004405375 0.0027176975 0.0024689366

decoders.0.decoder_net.10.weight f4 [16, 1, 3, 3]
00000000: c590 74be da52 bfbc 5d3c 623e c13b 4bbd
00000010: b4d4 303e 2be1 223e 2e1f 1bbe 87b3 113e
00000020: 6241 08bd 3573 103d 1967 813e c0e6 8abb
00000030: 486e 1eba 2ae3 103e 0fe3 08bd 0201 02be
00000040: fd6f b5bd cfaf 393e 1415 553e 0622 413e
00000050: 695d 50bd 94fa 463e 9414 543e 5d7a 9a3d
00000060: 17cd 3a3e 0454 a0bd 0d6c b63d 5a37 07bd
00000070: e2bf 293e b04b cc3d 90cc 4abe b36e 093e
00000080: 6ef7 1d3e 61e6 08bd 0bbb a6bc 363d 47be
00000090: 92bd 10be 1315 833e 0c73 7dbe a785 1e3d
000000a0: 60ac 853c 5bc5 91bc 61f6 90bd 7ae5 94bd
000000b0: c6d6 30be ba94 ff3d cb97 883d 98cb 043e
000000c0: 3d0e be3d 955c 463e 5c7c f23d 8329 e4bd
000000d0: 1365 07be 4b3f 3c3d 9ee0 7fbe a0f3 e8be
000000e0: a657 a7be 321e 463c 01f2 233d c06d 493c
000000f0: 7987 f73c 2aa0 9ebc 6036 48bd 2208 21be
00000100: f593 1dbe f8cb 413d 99fb 4dbe 739e f6bd
00000110: 44d6 1c3d 1f24 4abb 2636 35be 84b7 38bd
00000120: 3181 17be bd32 6d3e 1dec 34be 9f6f 8bbe
00000130: af88 39bd 7860 8f3d f7db 063e 0300 cc3d
00000140: ff27 b53d 095c 2c3e 1707 2ebe 5200 f43d
00000150: 2a94 583e 9df5 013d e70a 833d 8e4c 9fbc
00000160: ed48 653e 5ff1 623d 3459 573e bdea 15bd
00000170: 0dad 583e 1df6 9abd a52f 1fbe 9faf 7bbd
00000180: 2f5d 833d 1573 2ebc 2a6b 3bbd 0be0 b03d
00000190: dbaf 2a3e 2d2c 693d 5feb 023e 69e9 f13d
000001a0: e4f7 2c3e 6eec f5bb 476a f23d ba06 5d3e
000001b0: eb6f be3c 40fc 23be 5424 dc3d e476 09bd
000001c0: 9706 a8bd bd85 80be 5274 383e 3a98 56bd
000001d0: e3a5 2fbe d8aa 46bd ae01 74be b791 19be
000001e0: 66cd 553d baae 85be f1eb e8bd 1f2b e8bd
000001f0: b689 23be 13cf 063e 5a5d 72bd db06 2abd
00000200: 172f 0d3e 93fe 95bd 4b38 4c3c da6d 2d3e
00000210: 1907 6f3e d686 5a3e eb31 59be 8b33 193e
00000220: f03f 933d 6275 ac3d 25a5 fbbc 88dc 863d
00000230: 1cdf 413e 767a 3c3d 0849 c83c 276e 87bd
-0.2388335 -0.023354936 0.2209334 -0.049617533 0.1726864 0.15906207 -0.15148613 0.1422864
-0.03326548 0.03526612 0.2527397 -0.0042389333 -0.0006043655 0.14149156 -0.033419665 -0.12695697
-0.08859251 0.18133472 0.20808822 0.18860635 -0.050870333 0.19431525 0.20710975 0.0754287
0.18242298 -0.07828525 0.08907328 -0.03301177 0.16577104 0.09975374 -0.19804597 0.13421135
0.15426418 -0.03342283 -0.02035286 -0.19456944 -0.14134815 0.25602016 -0.24750918 0.03870168
0.016317546 -0.017794302 -0.07078243 -0.07270332 -0.1726943 0.12479539 0.06669577 0.1296829
0.092800595 0.19371255 0.11840126 -0.1114073 -0.1322215 0.0459588 -0.24988028 -0.4549837
-0.32684058 0.01209216 0.040025715 0.012294233 0.030215966 -0.019363482 -0.04887998 -0.15725759
-0.15388472 0.04731366 -0.20115508 -0.120419405 0.038290277 -0.0030844284 -0.17696437 -0.04509689
-0.14795376 0.23163886 -0.17668195 -0.27233598 -0.045296367 0.07000822 0.13169847 0.0996094
0.08845519 0.16831984 -0.16994892 0.119141236 0.2115027 0.031728376 0.06398564 -0.019445684
0.223911 0.05540597 0.21030122 -0.036600817 0.21159764 -0.07566474 -0.15545519 -0.061446782
0.06414258 -0.010647555 -0.045756496 0.08636483 0.16668646 0.056926895 0.127851 0.118120976
0.16891438 -0.0075049913 0.11836677 0.21584597 0.023246726 -0.16014194 0.107491165 -0.03356065
-0.08204382 -0.25102034 0.18013123 -0.05239127 -0.17153125 -0.048502773 -0.23828766 -0.14996992
0.052197836 -0.26109868 -0.11373127 -0.1133635 -0.15970501 0.1316493 -0.05917106 -0.041510444
0.13787495 -0.07323947 0.012464593 0.16936436 0.23342551 0.21340498 -0.21210448 0.14961068
0.071899295 0.084208265 -0.030718395 0.06585032 0.18932766 0.046015225 0.024448887 -0.06612807

decoders.1.decoder_net.0.weight f4 [512, 2]
00000000: fe68 163c 8404 3bbf 6101 44bf 6ae7 0a3f
00000010: 50d7 ef3e 50a9 00be 3323 7a3e 7367 ffbd
00000020: a487 f8be 1331 b4be 672c 11bf 77bb 12bf
00000030: f7ac 883e 2321 3f3f 76dd b13e 9a2b 1f3f
00000040: a8ae 81be bd98 893e 7181 bdbd 95e2 2b3f
00000050: dfb8 96be 3699 653f 5630 79be 5244 05be
00000060: a769 f7bc ad6a ea3d 87a6 96be 9522 ce3d
00000070: 0581 5ebf 8b74 9fbf 6910 173f eec2 cabd
00000080: 8b58 91bd f17f 193e d675 b2be 4775 703f
00000090: 2315 05bf 44f8 23bf f7f7 35be ac56 54be
000000a0: 7fce f43e eeee b6be bbc9 f03e ece6 d43e
000000b0: 36e9 88be 190a 13bf 7811 0b3e 7e22 c5be
000000c0: 13c5 ba3e 6e41 1bbe 00e1 b2be cd85 2bbe
000000d0: a265 223f 2739 1c3f 8a3a 0d3e 5adb 8a3e
000000e0: ad93 a6bd ef92 1cbe 51a8 bf3e 64ea 2d3e
000000f0: c75f 943e 8777 f8be 32b6 093f ad4f be3e
00000100: 93b3 d2be a7d5 e33e 7d5a e9be 641a 8e3e
00000110: 0259 09bf 475e 94be 90f2 103f b4ab cf3e
00000120: 154a 37be 926a 773e c11a 613f 0d83 b7be
00000130: 0c81 503d 75d8 6d3e 1545 e2be cbdf 58be
00000140: e29f 623e 0184 1bbf e205 9d3e 10c8 693e
00000150: e378 183f 1821 1fbf 2e71 8ebe 80a0 79bd
00000160: 299e 0b3f 39d3 1cbf 08db 4e3e 23d0 2abd
00000170: 93e9 0c3f 564f 1c3e beab cfbe 79b4 09bd
00000180: 14ce 093e 0273 2fbf 0f7d acbe db99 c13e
00000190: eb48 86bf a545 f43e 525a c83e 01e2 02bf
000001a0: caa0 f33e 416d c4be eebe a93d 5adc 5cbf
000001b0: 467b 1abb 269e 66be 3d85 04bf 9cd9 0c3f
000001c0: a02d 49bd f9de eabd 13f1 15bf 0594 223f
000001d0: 2855 9f3d a44a babe 23aa 5c3e 954e 83be
000001e0: 04c1 b93c c0eb e3bd 532f 8c3a 9f92 fcbe
000001f0: eaad 053e e63e a2be 03dc 9fbe abbd 193f
00000200: a608 c2bd 3f68 2f3d b509 a1be 9741 b9be
00000210: 2318 6ebe 462e ae3e 11a1 22be 61a2 103f
00000220: c391 da3d cb82 61be 234e 2d3f 5bbb 09bf
00000230: ec86 2bbf 13b5 d3be 2983 333f 7f1c 53bf
00000240: 5615 cfbe a5af 11be 3e07 a23e 6e87 10be
00000250: b569 e1bd 017b 1a3f 95b7 333f 8161 903e
00000260: a129 67be 2928 3f3e e84b 06bf a433 e33d
00000270: d9d9 043f 64e6 a6be 6977 91be badc 273f
00000280: f899 fe3e db7d 95be c7e9 be3e d713 91be
00000290: 6b12 05bf a67d 98be 5f1e 513d 0e29 25bf
000002a0: dbf5 173f 8765 37be 10ad 3dbe d356 9e3e
000002b0: a126 023e 299b 483f 97de 533e 5d13 82bd
000002c0: b0bf b23d c91e f8be 7fa7 abbe e1e1 44be
000002d0: 1842 33bf 039a 3ebe 68bb 033f e3ae dc3e
000002e0: 2ea6 083f 923b 71be d9e4 3e3f 1220 d1be
000002f0: 7261 a6be 22f2 d3be cb31 453f 612b cabe
00000300: f921 183f 62fb 2d3e 615d 153f 1323 bebe
00000310: 7c34 d5bb 3025 323f e32e b3be 71dc 003f
00000320: c7ea 2b3f 030a b63e 7855 63bf 5817 213f
00000330: 9e22 fd3e 541c 073f aafa e93d 66c0 4f3e
00000340: 9444 1dbf fbd2 e3bc 8c34 1f3f 220e a63e
00000350: bc4f 1e3f e962 05bf a417 12be 76e0 11bf
00000360: 75ac 10be d45c df3e b3fc 183e 7ae5 893d
00000370: 42df db3e a2e4 31bf c7cd 443e f060 613d
00000380: 734b 093e 073d be3e 3239 643d cad6 123f
00000390: 9bbe cf3d 4184 793e 8ade 863e fe87 e8be
000003a0: 68c8 8bbe 7f7a e13e aaff cd3e dc2c 3bbf
000003b0: abf1 993e 377d 523d b4ca 19bf b581 98be
000003c0: 7a88 cbbd 7fc8 9e3e 9a67 3c3f fda1 1d3f
000003d0: 7949 e03d 12dd 0f3e 62bb 0abf 661e 033f
000003e0: 7e96 cf3e ba38 773e fe96 a1be b3c0 cabe
000003f0: 7641 d13e e6ae 20bf 3686 503c d4c5 cfbe
0.0091803055 -0.73053765 -0.76564604 0.5425936 0.46843958 -0.12564588 0.2442749 -0.12470903
-0.48540986 -0.3519369 -0.5670838 -0.573173 0.26694462 0.7465994 0.34739274 0.62175906
-0.25328565 0.26874343 -0.092532046 0.6714261 -0.2943792 0.89686906 -0.24334845 -0.13014343
-0.030201746 0.11446128 -0.29423925 0.1006519 -0.8691562 -1.2457441 0.59009415 -0.09900461
-0.07096966 0.14990212 -0.34855527 0.9392895 -0.5198538 -0.640507 -0.17770372 -0.20736188
0.47813794 -0.35729164 0.47028908 0.4158243 -0.26740426 -0.5743728 0.13580883 -0.38502878
0.3647848 -0.15161678 -0.34937286 -0.1675026 0.6343633 0.6102471 0.13791862 0.27120477
-0.08133636 -0.15290426 0.37433103 0.16983944 0.28979322 -0.48528692 0.53793633 0.37170163
-0.4115263 0.4449894 -0.4557685 0.2775451 -0.5365144 -0.28978178 0.5662012 0.40560687
-0.17899354 0.24161747 0.8793145 -0.3584217 0.05090432 0.23227103 -0.4419333 -0.2117912
0.22131303 -0.60748297 0.3066855 0.22830224 0.5955946 -0.6215987 -0.27820724 -0.06094408
0.5453821 -0.612598 0.20200741 -0.0417024 0.55043906 0.1526464 -0.40560716 -0.033619378
0.13457519 -0.68534863 -0.33689162 0.37812695 -1.0491003 0.47709385 0.3913141 -0.51126105
0.4758361 -0.38364604 0.0828837 -0.8627373 -0.0023572012 -0.22521266 -0.51765805 0.55019546
-0.049115777 -0.1146831 -0.58570975 0.6350711 0.07779914 -0.3638507 0.21549277 -0.2564589
0.022675045 -0.1112895 0.0010695256 -0.49330613 0.13054624 -0.31688613 -0.31222543 0.60055035
-0.09474306 0.042824026 -0.31452718 -0.36182854 -0.23251395 0.3401968 -0.15881754 0.5649777
0.10672333 -0.2202255 0.6769735 -0.53801507 -0.6700275 -0.41349086 0.7012201 -0.82465357
-0.40445966 -0.1422716 0.3164615 -0.14114162 -0.1100649 0.6034394 0.70202 0.2819939
-0.22574474 0.18667664 -0.52459574 0.11093834 0.5189491 -0.3259765 -0.28411415 0.65571177
0.49726844 -0.29197583 0.37287733 -0.2833545 -0.5198123 -0.29783362 0.051054355 -0.6451577
0.5935952 -0.17909823 -0.1852305 0.30925617 0.12710048 0.78361756 0.2069038 -0.063513495
0.08727968 -0.48460987 -0.33526227 -0.19226791 -0.70022726 -0.18613438 0.51457834 0.43102178
0.5337857 -0.2355788 0.74567944 -0.4084478 -0.3249622 -0.4139567 0.77029103 -0.3948622
0.5942684 0.16990426 0.5834561 -0.37136135 -0.0065065008 0.69587994 -0.3499671 0.50336367
0.67155117 0.35554513 -0.8880229 0.62926245 0.49440473 0.527776 0.114247635 0.20288238
-0.61432767 -0.027810564 0.62189555 0.32432657 0.61840415 -0.5210405 -0.1426683 -0.56983125
-0.14128287 0.4362551 0.14940147 0.06733222 0.4294377 -0.6948949 0.19219123 0.055024087
0.13407688 0.37155935 0.05571861 0.5735899 0.10143777 0.24366857 0.2634166 -0.45416254
-0.27301335 0.4403877 0.4023412 -0.73115325 0.3006719 0.051388945 -0.60074925 -0.2978646
-0.0993814 0.3101234 0.73595583 0.615753 0.10951514 0.14049175 -0.54192173 0.5121826
0.40544504 0.24142733 -0.3156051 -0.39600143 0.40870255 -0.62766874 0.012727311 -0.40580618

decoders.1.decoder_net.0.bias f4 [512]
00000000: c3b5 8dbe 1bc2 403e 1471 e33e c79e 14be
00000010: 76d0 a43e 66b5 febe 4111 213f 8afd b93e
00000020: 7616 c8be c8bf 0b3e 62d6 c63e 454b b4bd
00000030: 6f26 413f fa68 0abf 576a 03bf 23ae a9be
00000040: 6517 0dbf 4465 433f 98b6 563d b537 21bf
00000050: 0894 22bf 0ae6 eb3d ca9d 863e 01f9 de3e
00000060: f1f4 99bb 2f6d f3be d43b 0d3f 4add f0be
00000070: ad56 d9be 4106 33be 7b1b 513f 96f9 c4be
00000080: f0d7 1cbd 2918 9abe b0b3 e4be 90dc 373e
00000090: 335d 073f 4123 093f 2a82 3fbf 4740 82be
000000a0: 0237 4dbe 6eaf dfbe 6cbe 293f b6ba 063f
000000b0: 81d2 f8be b86c 23bf 120c cebd 954c 8c3e
000000c0: 8484 063f 73e9 2f3f c6e4 97be 70a1 ffbe
000000d0: 9b66 c63e a778 26bf fe72 0abf c282 e3be
000000e0: 487b e6be 76a7 22bf 09d7 2c3f 81d5 183e
000000f0: e421 b93c 3101 48bf dd01 0fbf 5966 34be
00000100: df03 e63e 6d95 f3be 8254 023f 900e edbe
00000110: d861 25bf dc1d d3be 40a3 213f 4af3 3c3d
00000120: bc75 0abf 6bc1 2e3f 6f43 c2bd d7ac 573e
00000130: a47c 253f 3e08 3fbf e228 8bbe e8c1 eabe
00000140: 8e89 413d d522 e4bd 1a28 273f f083 04bf
00000150: b6c0 13bf 9a71 2dbe 595c f13e 95e4 4f3f
00000160: aa1f cf3e 750b 4f3d 9b75 f0bb c01c 113c
00000170: c947 903e be06 723e 1e53 fc3e 0bbb 82be
00000180: 109c a53e 6694 4b3e 081c 81ba 3825 ef3e
00000190: b0ff fcbe 11dc b4be 52ae 8fbd 3196 debe
000001a0: a166 213f 8172 e0be b973 9a3c 0134 52be
000001b0: 9c86 28bf ad71 41be 50aa 183f 2460 33be
000001c0: e807 d83d 2589 153e 0d3a 4ebf e0b8 fb3e
000001d0: 149d 8dbd adfd 4abf b340 033f cec9 c83d
000001e0: 12b3 123f 0664 06be 99ab 983e 2446 303f
000001f0: b58c ab3d bfdd 5fbe 4d36 98be f9f3 013f
00000200: cabf e7be d24f 793f 00e2 503f f4ce 103f
00000210: aa03 04bf a449 58bf 1930 bd3d 5256 1f3e
00000220: bddc 213f 43d9 9abd 9fcb 59bf 2ce2 14bf
00000230: ae31 a23e b624 cd3e b2d4 a83e 4c1f 85be
00000240: 5ce4 a63e 8f8d 09bf e24c 1a3e 22ce 393f
00000250: 6054 e73e d48f cdbe cf68 c0bd e3a1 c03e
00000260: f7cd 2dbe e6c6 5ebe 0917 a2be 0ced 3abf
00000270: 8311 83be 87d7 a23b cc51 8d3e a2c8 d1bd
00000280: f4d5 adbe 1bdd 72bd f707 9bbd 1827 21bf
00000290: 6b79 483e 9d7f 333f 4125 193e cdca 10bf
000002a0: 5a2b 043f b634 843e 0cae da3e 9623 033f
000002b0: 0e61 3dbd 91e9 f1be b524 f2be 016e 1fbf
000002c0: 59e7 40be 8420 983e 6c25 b73e bd57 45bd
000002d0: 0b34 88be 109e b4be 6169 3cbf 6911 023f
000002e0: 6765 33bf dd91 183f 4898 113f 5a79 303e
000002f0: 23f6 c83e b89b 8a3d 61ec 183f a462 703e
00000300: 9eb8 ed3e 5ee8 0dbe e838 353f 661e b13e
00000310: 94d6 8a3e b735 b53d fd71 be3e db95 ec3e
00000320: 1bc1 093f 6270 ac3e 06fe f6be b274 8dbe
00000330: fe00 b4be 80ff 673e ecc4 c83e dee4 0f3f
00000340: 48f2 8f3e f9b3 82be e248 0c3f 8a01 afbe
00000350: f6cf 2b3f 04f9 f13e be97 ccbd dde0 a23d
00000360: e746 8fbe dd30 793e fd83 3dbf e56b 4a3f
00000370: ad4a 623e 60b7 23bd f04b 65be e08a 2ebe
00000380: f22c 43be eb46 943e b99e 813f 945e d0be
00000390: 8790 f33e 90df 173d eba3 ca3e 9518 e03d
000003a0: 54da 023f 46a1 a0be 03d0 11bf 7437 333e
000003b0: 3fe1 c7bc f432 793e 23a3 cbbe 3046 ffbe
000003c0: 663b aa3e cb15 c53e 3a98 bdbe c619 3e3d
000003d0: e389 09be fda3 e8bd 8f9c 7a3d 454f 9dbe
000003e0: 8d30 00be 7b39 a73e 1ee0 e3bc 9969 183f
000003f0: 7479 2d3f 3d45 ffbe ec04 2abf 8f2b 55be
-0.27677736 0.18824045 0.4442221 -0.14513694 0.32190293 -0.4974777 0.6291695 0.36326247
-0.39079636 0.13647377 0.38835436 -0.08803419 0.7544927 -0.5406643 -0.51334137 -0.33140668
-0.5511382 0.76326394 0.05242023 -0.6297563 -0.6350713 0.11518486 0.26292259 0.4354935
-0.0046983887 -0.47544238 0.55169415 -0.4704383 -0.4244894 -0.17482854 0.81682557 -0.3847167
-0.03829187 -0.30096558 -0.4466834 0.17955232 0.52876586 0.5356942 -0.7480799 -0.25439665
-0.20040515 -0.4368853 0.66306186 0.5262865 -0.48598102 -0.63837767 -0.10060896 0.27402177
0.5254595 0.6871559 -0.29666728 -0.49927855 0.38750157 -0.6502785 -0.54081714 -0.44435698
-0.4501593 -0.63536775 0.6751562 0.14925195 0.022599168 -0.7812682 -0.5586222 -0.17617168
0.44924828 -0.4757494 0.509102 -0.46300173 -0.6460242 -0.41233718 0.63139725 0.046130456
-0.540859 0.6826388 -0.09485518 0.21062027 0.6464331 -0.7462195 -0.2717963 -0.45851064
0.047250323 -0.11139456 0.65295565 -0.5176382 -0.5771593 -0.16937867 0.47140768 0.81208163
0.40453845 0.050548036 -0.0073382384 0.008856952 0.28179768 0.23635384 0.49282163 -0.25533327
0.3234563 0.19880828 -0.0009850273 0.46708083 -0.49413824 -0.35324147 -0.07015671 -0.43473962
0.63047224 -0.4383736 0.018854009 -0.2052765 -0.658304 -0.1889102 0.59634876 -0.17517143
0.10548383 0.14603098 -0.8055733 0.49164486 -0.06914726 -0.7929333 0.512706 0.09804116
0.5730449 -0.13124093 0.2981842 0.68857026 0.08376447 -0.21861933 -0.29728928 0.507629
-0.4526351 0.9738742 0.8159485 0.56565785 -0.5156809 -0.84487367 0.092376895 0.15560272
0.63227445 -0.07560971 -0.85076326 -0.5815761 0.31678528 0.4006707 0.32974774 -0.2600044
0.325961 -0.53731626 0.15068391 0.7258016 0.4518156 -0.40148795 -0.09394991 0.3762351
-0.169731 -0.21755561 -0.316582 -0.73017955 -0.25599298 0.0049695405 0.2760147 -0.10243346
-0.33952296 -0.059292894 -0.075698785 -0.6295028 0.19577567 0.701166 0.14955617 -0.5655945
0.5162865 0.25821465 0.42710912 0.51226175 -0.046235137 -0.4724851 -0.4729363 -0.6227723
-0.18838252 0.29712307 0.35770738 -0.048179377 -0.26602206 -0.35276842 -0.73598295 0.50807816
-0.700766 0.5959757 0.5687299 0.17233792 0.39250287 0.06767982 0.59735686 0.23475128
0.46429914 -0.13858172 0.7078996 0.34593505 0.27116835 0.08848136 0.3719634 0.4620808
0.5381028 0.3367949 -0.4824068 -0.27628094 -0.35157007 0.2265606 0.3921274 0.562086
0.28114533 -0.25527933 0.5479871 -0.34180862 0.671142 0.47260296 -0.0998988 0.079530455
-0.27983782 0.24335046 -0.74029523 0.79070884 0.22098799 -0.039969802 -0.22392249 -0.17045164
-0.19060114 0.28960356 1.0126563 -0.40697157 0.47571203 0.03707844 0.39578184 0.10942189
0.5111439 -0.31373042 -0.56958026 0.17501622 -0.024399398 0.24335843 -0.397729 -0.49858236
0.33248442 0.3849319 -0.37030202 0.0464113 -0.13431506 -0.11359403 0.061184462 -0.3072454
-0.1251852 0.32661042 -0.027816828 0.5953613 0.6776345 -0.49857512 -0.6641376 -0.20817398

decoders.1.decoder_net.3.weight f4 [32]
00000000: 2e60 933f 9875 8b3f 9cbd 863f ee29 903f
00000010: 3978 783f 8d39 803f 9ffe 863f 0597 773f
00000020: 04cb 8e3f 6eb5 823f 2ff2 763f 0284 843f
00000030: 7c13 873f 4ab6 813f d855 813f d369 793f
00000040: 4582 7a3f 476f 803f b105 863f 9ef4 843f
00000050: 43ee 823f ef1d 843f 08c3 823f 0326 7a3f
00000060: c800 813f 03ea 8c3f 21df 833f a0f3 803f
00000070: d6d5 813f 2753 863f b71d 873f a74e 833f
1.1513727 1.0895262 1.0526614 1.1262796 0.97058445 1.0017563 1.0546454 0.9671481
1.1155705 1.0211618 0.9646329 1.0352786 1.0552821 1.0133755 1.0104322 0.974271
0.97855026 1.0033959 1.0470487 1.0387151 1.0228962 1.0321635 1.0215769 0.9771425
1.0078363 1.1008915 1.0302469 1.0074348 1.0143383 1.0494126 1.0555943 1.0258378
