miniproject3/graph_vae_undirected.pt (torch, 67316 bytes, 15 tensors)

gcn1.bias f4 [64]
0.01302889 -0.17022632 -0.056258574 0.0013958658 -0.09286495 -0.17465389 0.12196217 -0.796961
-0.0010345369 0.036483046 0.1872007 0.096970566 0.14454205 -0.10786992 0.24694733 0.14378211
-0.11422266 -0.23035182 -0.0052158698 0.14962813 0.27931857 0.2265164 -0.8430725 0.31178385
0.11305435 0.096646704 0.21642692 -0.14387468 -0.03143703 -0.08241315 0.050405778 0.016780848
-0.06476808 0.07023325 0.038209002 0.24751048 -0.005132344 -0.045618065 -0.03609142 -0.07173064
0.1721082 0.05911223 -0.1457109 -0.91451573 -0.04762291 0.17342389 0.04953546 0.035986155
0.17823088 0.08001519 0.06826373 0.19325583 0.058315486 0.0520163 0.017237773 -0.05473053
-0.034244638 -1.1587689 0.021717086 0.02586708 0.15588088 0.14107192 -0.10906012 -0.012783157
00000000: 2077 553c cf4f 2ebe 646f 66bd 7cf5 b63a
00000010: fb2f bebd 78d8 32be 4dc7 f93d a305 4cbf
00000020: 4c99 87ba 3f6f 153d 8ab1 3f3e 8198 c63d
00000030: d502 143e e8ea dcbd c3df 7c3e 9e3b 133e
00000040: 92ed e9bd 59e1 6bbe e3e9 aabb 1e38 193e
00000050: d802 8f3e eaf3 673e 99d3 57bf 22a2 9f3e
00000060: 0a89 e73d b5ee c53d 059f 5d3e e253 13be
00000070: 1dc4 00bd 3ac8 a8bd 4a76 4e3d fd77 893c
00000080: 21a5 84bd 73d6 8f3d 0b81 1c3d 6373 7d3e
00000090: 392d a8bb 02da 3abd 99d4 13bd 84e7 92bd
000000a0: 223d 303e aa1f 723d 3d35 15be b41d 6abf
000000b0: 3e10 43bd 0896 313e b2e5 4a3d 3866 133d
000000c0: 2882 363e 01df a33d dbcd 8b3d dbe4 453e
000000d0: 38dc 6e3d 0b0f 553d 3b36 8d3c 1f2d 60bd
000000e0: 1b44 0cbd 8a52 94bf 08e8 b13c 33e7 d33c
000000f0: 3d9f 1f3e 2875 103e ea5a dfbd 7270 51bc

gcn1.lin.weight f4 [64, 7]
0.1690652 0.05516943 0.17645289 -0.18642394 -0.19512548 0.017161554 -0.1993672 0.18334845
0.2683271 0.08741024 -0.079309896 0.019744426 0.014827838 -0.09910286 0.20099294 0.17433406
0.046273142 -0.11069268 -0.35070238 0.09393703 -0.16666007 0.26241922 0.026123947 0.3177478
0.04218407 0.20357329 0.087192476 0.43182957 0.17576167 0.12726526 0.010063464 0.33130231
-0.015416018 -0.0035648362 -0.13755822 0.19594239 0.29717377 0.101511516 0.43554613 -0.19123574
0.028994752 -0.104633756 0.23997736 0.09886394 0.09073303 0.07628588 0.015343554 0.2213191
-0.05728934 -1.8343657 -0.46419966 -0.46734238 0.02729524 -0.16855869 -0.006392036 0.117484905
0.17593692 0.14044586 0.04780273 -0.008548588 0.24565479 0.14935932 -0.025749194 0.16324002
0.08962954 -0.013637039 0.15535179 -0.18284734 0.20415162 -0.06314396 0.13895917 -0.032184355
0.080605894 0.18547033 0.32195374 0.08398575 -0.048893206 0.13770726 -0.24482137 0.1402581
0.21835677 0.29468054 0.39746884 0.032553487 -0.074699365 0.10852555 0.255891 -0.067610815
0.102247275 0.2859992 0.3888084 0.15393445 0.091280654 0.2875342 0.13078907 -0.033276115
-0.09171535 -0.31611317 0.024255926 0.07150906 -0.055306878 0.095636524 0.45744783 0.14726722
0.050741766 -0.057393637 0.1399287 0.22549032 0.059893854 0.07107001 0.28174114 0.0679185
0.1105639 -0.09296681 0.1735715 0.04240653 -0.09855556 -0.0023997198 0.3445373 -0.1648897
0.22987497 -0.6871579 0.00600835 -0.088531695 -0.08133254 0.17718968 0.113136165 0.019218093
0.231816 0.032300893 0.14027506 0.123858325 -0.06976031 -0.114294335 0.030789176 0.18653794
0.15655175 0.5448032 0.18213974 -0.008972844 0.06380081 0.13229428 0.006914984 0.097560726
-0.03381657 0.19896393 0.12984425 -0.0011323829 -0.16245562 -0.00025776314 -0.014472534 -0.13638702
0.057241462 -0.03873126 -1.8996348 -0.56693745 -0.6568683 -0.11482072 0.19985624 -0.5051224
-0.08022034 0.07546076 0.22796762 0.04314291 0.15684193 -0.24695711 0.20307998 0.1597892
0.14435907 0.01024243 0.06267118 0.20921664 -0.2566719 0.03180052 0.38439256 0.16902165
0.03703024 0.09715384 0.16217564 0.071633026 0.13903509 -0.055099405 -0.035168197 0.09512699
0.26145273 0.08847294 -0.16836998 0.28845 0.10353581 0.2683646 -0.5431093 -0.048288208
-0.02887551 -0.18366423 0.04714479 -0.12760735 0.17111225 0.14521089 -0.10036478 0.0271135
-0.18268397 0.029960893 -0.21668945 0.18969372 0.18158218 0.08676792 -0.024306804 0.08461882
0.056662373 0.03274804 0.1451419 0.040172677 0.02267372 0.27857634 -0.108559765 0.1520386
0.026684113 0.14171483 -0.027411414 -0.01263667 0.091555156 -0.17632942 -0.058043607 -0.09027222
0.26875526 0.25153175 -0.03422761 0.34663516 -0.33499342 0.077464625 -0.07143695 0.16668509
0.041120578 0.08560041 -0.022499058 -0.034351792 0.14649017 -0.05486307 -0.6348698 -0.89717597
0.25281382 0.013819181 -0.10803221 0.2858499 -0.04670359 -0.011215404 0.13239032 -0.011313385
0.19097126 0.56231743 0.24499416 -0.012285756 0.24401528 0.18050455 -0.06321694 0.09382626
00000000: 6e1f 2d3e 57f9 613d 11b0 343e ebe5 3ebe
00000010: f9ce 47be 6396 8c3c ea26 4cbe b2bf 3b3e
00000020: 2b62 893e 2404 b33d 3a6d a2bd 10bf a13c
00000030: 76f0 723c 71f6 cabd 18d1 4d3e a184 323e
00000040: e888 3d3d d8b2 e2bd 438f b3be 0f62 c03d
00000050: f0a8 2abe d05b 863e e301 d63c d7af a23e
00000060: 34c9 2c3d 8475 503e f891 b23d c418 dd3e
00000070: defa 333e d351 023e 3ae1 243c 75a0 a93e
00000080: 7793 7cbc 07a0 69bb 10dc 0cbe 1fa5 483e
00000090: 2927 983e 45e5 cf3d e7ff de3e 4dd3 43be
000000a0: 6786 ed3c 394a d6bd a0bc 753e 2d79 ca3d
000000b0: 3dd2 b93d c53b 9c3d 8863 7b3c 79a1 623e
000000c0: 3aa8 6abd 7fcc eabf 94ab edbe 8047 efbe
000000d0: 449a df3c a69a 2cbe 4974 d1bb ed9b f03d
000000e0: cf28 343e 0ad1 0f3e cccc 433d 600f 0cbc
000000f0: ee8c 7b3e a6f1 183e f9ef d2bc 6428 273e
00000100: b18f b73d e36d 5fbc 8a14 1f3e 553c 3bbe
00000110: 1f0d 513e 9f51 81bd 504b 0e3e bed3 03bd
00000120: b414 a53d efeb 3d3e 1fd7 a43e b900 ac3d
00000130: 3e44 48bd 2203 0d3e 74b2 7abe d29f 0f3e
00000140: eb98 5f3e 5ee0 963e 0981 cb3e ce56 053d
00000150: fbfb 98bd a542 de3d 2504 833e 8a77 8abd
00000160: 0567 d13d 7d6e 923e e511 c73e fea0 1d3e
00000170: 5af1 ba3d af37 933e 92ed 053e 894c 08bd
00000180: 42d5 bbbd 96d9 a1be 5db4 c63c 5873 923d
00000190: 7789 62bd 15dd c33d 9a36 ea3e 38cd 163e
000001a0: 99d6 4f3d 9715 6bbd 7849 0f3e efe6 663e
000001b0: 4253 753d 278d 913d 6040 903e db18 8b3d
000001c0: 536f e23d 6265 bebd babc 313e 78b2 2d3d
000001d0: 7fd7 c9bd 9e44 1dbb 3167 b03e d8d8 28be
000001e0: 5864 6b3e 95e9 2fbf b1e1 c43b 1b50 b5bd
000001f0: ad91 a6bd 3671 353e efb3 e73d 436f 9d3c
00000200: 2c61 6d3e f14d 043d 44a4 0f3e 6fa9 fd3d
00000210: 7ede 8ebd 2613 eabd 9539 fc3c cd03 3f3e
00000220: 1a4f 203e 3978 0b3f d782 3a3e d602 13bc
00000230: 00aa 823d 2778 073e 1797 e23b ebcd c73d
00000240: 3e83 0abd 33bd 4b3e e4f5 043e 776c 94ba
00000250: c45a 26be 6224 87b9 351e 6dbc 0aa9 0bbe
00000260: 0676 6a3d aba4 1ebd 3c27 f3bf d022 11bf
00000270: 8528 28bf 2027 ebbd 1da7 4c3e b44f 01bf
00000280: 904a a4bd 2c8b 9a3d 5870 693e 9fb6 303d
00000290: 2c9b 203e 53e2 7cbe 33f4 4f3e c89f 233e
000002a0: ddd2 133e ddcf 273c bf59 803d e33c 563e
000002b0: 806a 83be 4341 023d 1acf c43e 0314 2d3e
000002c0: 05ad 173d 98f8 c63d 5f11 263e 56b4 923d
000002d0: 375f 0e3e eaaf 61bd 870c 10bd f0d1 c23d
000002e0: 22dd 853e 4d31 b53d 2e69 2cbe b8af 933e
000002f0: 950a d43d 1667 893e 3609 0bbf dbc9 45bd
00000300: 558c ecbc 7a12 3cbe e51a 413d 80ab 02be
00000310: 0d38 2f3e 2ab2 143e 0d8c cdbd 211d de3c
00000320: 8211 3bbe 8c70 f53c d7e3 5dbe 123f 423e
00000330: aef0 393e 61b3 b13d 101f c7bc a24c ad3d
00000340: ce16 683d cf22 063d 14a0 143e 1b8c 243d
00000350: 3dbe b93c 8fa1 8e3e 9554 debd 02b0 1b3e
00000360: a498 da3c b11d 113e e78d e0bc 090a 4fbc
00000370: 4581 bb3d b38f 34be 22bf 6dbd a4e0 b8bd
00000380: 4a9a 893e c5c8 803e 4032 0cbd 2a7a b13e
00000390: 4284 abbe c6a5 9e3d 894d 92bd 7faf 2a3e
000003a0: 0d6e 283d 454f af3d f24f b8bc 77b4 0cbd
000003b0: 8501 163e 19b8 60bd d486 22bf 53ad 65bf
000003c0: d070 813e d969 623c fe3f ddbd eb5a 923e
000003d0: 434c 3fbd d0c0 37bc 5491 073e c75b 39bc
000003e0: f88d 433e 09f4 0f3f c0df 7a3e 324a 49bc
000003f0: 24df 793e 2fd6 383e e277 81bd fb27 c03d

ln1.weight f4 [64]
0.6742278 0.8178529 0.73377025 0.68586665 0.6782369 0.8290451 0.5872635 0.9865043
0.60933465 0.6965948 0.6453116 0.5605708 0.8429079 0.7195053 0.7967782 0.78045857
0.7024093 0.90133506 0.65592223 0.83988947 0.6076102 0.8087751 1.0 0.57890093
0.6978765 0.5830848 0.7565597 0.657586 0.6606972 0.6459213 0.663017 0.6967171
0.67143285 0.6610395 1.505112 0.6343485 0.5862483 0.61669546 0.60331565 0.76126933
0.75359267 0.69913125 0.7592941 1.0 0.63771665 0.91756386 0.62716824 0.69518685
0.67143595 0.6477659 0.73931533 0.6426671 0.5544417 0.6935804 0.70336473 0.7321905
0.60023487 1.0 0.7366088 0.6258799 0.760873 0.86027414 0.6796352 0.6620966
00000000: 319a 2c3f cf5e 513f 5ed8 3b3f f594 2f3f
00000010: efa0 2d3f 4d3c 543f e756 163f 8c8b 7c3f
00000020: 5bfd 1b3f 0954 323f 2433 253f 9181 0f3f
00000030: d0c8 573f 8031 383f a8f9 4b3f 22cc 473f
00000040: 19d1 333f e5bd 663f 85ea 273f ff02 573f
00000050: 588c 1b3f e30b 4f3f 0000 803f da32 143f
00000060: 09a8 323f 0c45 153f e6ad 413f 8e57 283f
00000070: 7423 293f 195b 253f 7bbb 293f 0d5c 323f
00000080: 06e3 2b3f e239 293f 83a7 c03f aa64 223f
00000090: 5e14 163f c1df 1d3f e572 1a3f 8ce2 423f
000000a0: 73eb 403f 44fa 323f 1961 423f 0000 803f
000000b0: 6641 233f 77e5 6a3f 198e 203f c4f7 313f
000000c0: 3ae3 2b3f fcd3 253f c543 3d3f d585 243f
000000d0: e4ef 0d3f 7c8e 313f b60f 343f d670 3b3f
000000e0: fea8 193f 0000 803f 6592 3c3f aa39 203f
000000f0: 93c8 423f ed3a 5c3f 93fc 2d3f 2a7f 293f

ln1.bias f4 [64]
-0.21474251 -0.19174974 -0.17873646 -0.3948602 -0.31971076 -0.20041801 -0.36059198 -0.011943489
-0.35511008 -0.17578444 -0.40075186 -0.3975496 -0.25004166 -0.27673513 -0.3006785 -0.25539842
-0.22913279 -0.117643006 -0.20481987 -0.112029746 -0.35966232 -0.20391351 0.0 -0.4282574
-0.33088368 -0.32811862 -0.27258933 -0.33750272 -0.30185047 -0.34836915 -0.33325106 -0.2569277
-0.28583068 -0.30425063 -0.0383016 -0.3455171 -0.3876379 -0.33751842 -0.3574568 -0.23249386
-0.35036615 -0.22854863 -0.22635622 0.0 -0.33961636 -0.21824588 -0.3199832 -0.21358946
-0.29622856 -0.29015732 -0.28593484 -0.26515245 -0.326532 -0.2803337 -0.24044736 -0.22402658
-0.35958013 0.0 -0.20128684 -0.32835495 -0.31902865 -0.14649323 -0.34819794 -0.26872203
00000000: 76e5 5bbe 0b5a 44be b106 37be 1e2b cabe
00000010: 21b1 a3be 613a 4dbe 839f b8be a0ae 43bc
00000020: fdd0 b5be d600 34be 592f cdbe 9f8b cbbe
00000030: 7605 80be 3ab0 8dbe 88f2 99be 95c3 82be
00000040: c9a1 6abe d1ee f0bd 4dbc 51be da6f e5bd
00000050: a925 b8be b4ce 50be 0000 0000 8e44 dbbe
00000060: 9669 a9be 2aff a7be d490 8bbe 28cd acbe
00000070: 258c 9abe 715d b2be e29f aabe 078c 83be
00000080: 6658 92be bdc6 9bbe 23e2 1cbd 9ee7 b0be
00000090: 7a78 c6be 37cf acbe 9404 b7be df12 6ebe
000000a0: 3163 b3be a708 6abe edc9 67be 0000 0000
000000b0: 32e2 adbe d97b 5fbe d7d4 a3be 32b7 5abe
000000c0: 45ab 97be 808f 94be 0d66 92be 10c2 87be
000000d0: 342f a7be e687 8fbe d537 76be 3967 65be
000000e0: e31a b8be 0000 0000 231e 4ebe 241e a8be
000000f0: b957 a3be 5202 16be 0047 b2be ef95 89be

gcn_mu.bias f4 [32]
-0.02003922 0.07505257 0.03198746 -0.005160598 0.011297456 0.0004141105 -0.08301573 -0.014447477
-0.06750802 0.0020255996 0.004072394 -0.04992887 0.0036957208 -0.040443297 0.0633735 -0.043021046
-0.13261274 0.064187855 0.014191442 -0.46721742 -0.008769787 0.003320384 -0.035851087 0.05040248
0.04062723 -0.052327182 0.040423553 -0.11479241 -0.07213035 -0.1170455 -0.03629585 -0.039572116
00000000: 4a29 a4bc 29b5 993d 4805 033d 3c1a a9bb
00000010: f718 393c f81c d939 2704 aabd 1cb5 6cbc
00000020: a541 8abd ecbf 043b b871 853b 3782 4cbd
00000030: e833 723b dfa7 25bd f7c9 813d d636 30bd
00000040: a2cb 07be ec74 833d 3983 683c 1f37 efbe
00000050: 27af 0fbc cd9a 593b 97d8 12bd d572 4e3d
00000060: bd68 263d 0755 56bd 2b93 253d 4818 ebbd
00000070: 14b9 93bd 8db5 efbd f5aa 14bd 5f16 22bd

gcn_mu.lin.weight f4 [32, 64]
0.14493197 0.1717868 -0.0291031 0.08039618 -0.19385625 0.07331902 0.26947314 0.07280787
0.16482824 0.08115004 0.2845697 -0.060712833 -0.033399414 -0.060187325 -0.04079055 -0.10496297
0.2112769 -0.03839459 0.1420761 0.044625577 0.004695447 0.29230836 -0.15068415 -0.087658286
0.23697273 -0.06528543 0.014176391 0.13610376 -0.16862327 -0.23355609 0.20250368 -0.048016705
0.1303408 -0.0957598 -0.0996062 -0.037957586 -0.10139716 -0.16946122 0.17872757 0.124061994
0.075935766 0.0040218187 -0.11207821 -0.066104084 0.20220725 -0.039207343 -0.060802985 0.041188903
0.08215377 -0.08757809 -0.09385627 0.046385664 0.010019395 -0.103150636 0.19476017 0.06691287
-0.08945484 0.084662855 0.1738504 -0.08770795 -0.100871615 0.043128468 0.0020383615 -0.22394145
-0.20258014 -0.03424491 -0.09403496 -0.12727594 0.0073735295 -0.050358053 -0.13651259 -0.16168979
0.15712239 -0.15097982 0.10077546 -0.22040941 0.06872129 -0.053584486 0.024118893 -0.09520069
0.04659524 0.1687499 -0.007818527 -0.09680319 0.113743156 -0.040097564 0.21150786 -0.07585456
-0.14128199 -0.18107128 0.070887186 0.07452266 0.009473906 0.12719238 -0.07704432 0.07892523
-0.10068735 -0.10134481 0.17843977 0.1421992 0.08354125 0.03101683 -0.04590967 0.21269384
0.08511403 0.050207913 0.2714876 0.022480786 -0.21201381 -0.02815579 -0.09413431 -0.018063901
0.106153324 -0.056005336 -0.1700187 -0.13665219 -0.034823637 0.06862974 -0.053132482 -0.09085053
-0.18529382 -0.027124226 -0.15322915 -0.10532173 -0.016591802 -0.18701059 -0.0064820903 0.19955984
-0.033739924 0.0023955517 -0.13789183 -0.07933492 0.10262171 0.15581436 0.13648534 -0.14066483
0.1269629 0.06686011 -0.17108394 -0.07511639 0.08288194 -0.12932667 -0.0026247716 0.08028467
-0.026073515 0.08310791 0.107104726 0.06351801 0.15163274 -0.19025178 0.13419461 -0.085945405
0.08597659 -0.0012910091 -0.0052002203 0.20348015 -0.025839066 0.094217084 0.09042213 0.009419395
-0.047714848 -0.074442625 0.16807662 -0.087081596 0.013495543 0.05531943 -0.048322067 -0.072987035
-0.17014076 -0.20658788 -0.028467609 -0.038809836 -0.08061517 0.10955379 -0.10449033 -0.19390984
-0.04638891 -0.06276308 0.030983485 -0.028905123 -0.039378095 0.21236192 0.17816803 0.07487488
0.17094304 0.15271285 -0.044729766 -0.02152961 0.12152751 0.03988655 0.066657476 -0.15566616
-0.008027653 0.113720275 0.02459264 0.077989444 -0.2855603 0.03478668 0.10404663 -0.2160727
0.041594982 0.054796524 -0.10276806 -0.009831225 0.06507661 0.1806672 0.17106809 -0.097202845
0.0013688143 0.17172277 0.00030690903 0.08667834 -0.053065956 0.08359385 0.10164678 -0.0057978523
-0.15679218 -0.10462643 0.02260017 0.10306566 0.06885423 0.09452081 -0.1524184 -0.07100467
-0.085247554 -0.16387664 -0.07648868 0.012776578 -0.031761542 -0.020120127 -0.095364526 -0.0025868781
0.023383768 -0.15968494 -0.06144819 0.053177416 -0.17830749 0.14190058 -0.060252126 0.06541823
-0.05883563 -0.107470095 -0.10277063 0.11574542 -0.0862591 0.060700312 -0.07269557 -0.08048114
0.051736243 0.16276193 0.03759304 -0.030145463 -0.10889742 -0.108611815 -0.08528842 0.12762636
00000000: 0c69 143e e1e8 2f3e a069 eebc c1a6 a43d
00000010: 4182 46be 4828 963d 62f8 893e 4b1c 953d
00000020: bcc8 283e fe31 a63d 1fb3 913e 05ae 78bd
00000030: d3cd 08bd fc86 76bd fe13 27bd d3f6 d6bd
00000040: f958 583e a543 1dbd 667c 113e 4fc9 363d
00000050: 44dc 993b 71a9 953e f24c 1abe 3086 b3bd
00000060: fba8 723e 5eb4 85bd 1844 683c c95e 0b3e
00000070: 94ab 2cbe 5429 6fbe 205d 4f3e 2aad 44bd
00000080: 0f78 053e b71d c4bd 56fe cbbd 6a79 1bbd
00000090: 50a9 cfbd 3e87 2dbe 5c04 373e 3714 fe3d
000000a0: 3684 9b3d 76c9 833b 4389 e5bd 9461 87bd
000000b0: 6b0f 4f3e e197 20bd 8d0c 79bd b2b5 283d
000000c0: 3c40 a83d 245c b3bd b737 c0bd e5fe 3d3d
000000d0: 6328 243c a440 d3bd 366f 473e 9d09 893d
000000e0: 1934 b7bd b863 ad3d d705 323e 3aa0 b3bd
000000f0: c795 cebd 7aa7 303d 0896 053b e850 65be
00000100: 2b71 4fbe 6444 0cbd 6795 c0bd a054 02be
00000110: a69d f13b 3f44 4ebd f5c9 0bbe 0292 25be
00000120: b1e4 203e 749a 1abe 5d63 ce3d 01b3 61be
00000130: bfbd 8c3d 687b 5bbd fc94 c53c 94f8 c2bd
00000140: a6da 3e3d c6cc 2c3e 4719 00bc c040 c6bd
00000150: 2cf2 e83d 583d 24bd 8495 583e a359 9bbd
00000160: 3aac 10be c06a 39be 4d2d 913d 569f 983d
00000170: 7138 1b3c b83e 023e 6ac9 9dbd 8da3 a13d
00000180: 2b35 cebd de8d cfbd eab8 363e ab9c 113e
00000190: ad17 ab3d 0217 fe3c c70b 3cbd 6acc 593e
000001a0: 4450 ae3d d0a6 4d3d 6c00 8b3e a029 b83c
000001b0: 261a 59be f9a6 e6bc 7dc9 c0bd bffa 93bc
000001c0: ea66 d93d da65 65bd 6219 2ebe 8dee 0bbe
000001d0: 3ba3 0ebd c08d 8c3d 72a1 59bd d80f babd
000001e0: aabd 3dbe a033 debc 1ae8 1cbe ebb2 d7bd
000001f0: 88eb 87bc b47f 3fbe b767 d4bb 6a59 4c3e
00000200: e032 0abd b0fe 1c3b 8433 0dbe 597a a2bd
00000210: 552b d23d cd8d 1f3e d0c2 0b3e 710a 10be
00000220: 9002 023e f4ed 883d a130 2fbe 9fd6 99bd
00000230: 02be a93d 366e 04be 5c04 2cbb 4a6c a43d
00000240: 2098 d5bc 7b34 aa3d b959 db3d bb15 823d
00000250: 9d45 1b3e 5dd1 42be 506a 093e 2504 b0bd
00000260: 7f14 b03d 1437 a9ba 9c66 aabb 1a5d 503e
00000270: 73ac d3bc e3f4 c03d 3d2f b93d ce53 1a3c
00000280: a570 43bd 6075 98bd 471c 2c3e d657 b2bd
00000290: 691c 5d3c a096 623d 5ced 45bd 3a7a 95bd
000002a0: 6139 2ebe c68b 53be e734 e9bc 10f7 1ebd
000002b0: 9119 a5bd bd5d e03d 07ff d5bd 4d90 46be
000002c0: 4c02 3ebd ee89 80bd 14d1 fd3c 70ca ecbc
000002d0: ed4a 21bd 6775 593e ae71 363e 0058 993d
000002e0: b10b 2f3e c260 1c3e 8f36 37bd dd5e b0bc
000002f0: 6ae3 f83d 1460 233d b783 883d f366 1fbe
00000300: 6b86 03bc 2de6 e83d 8176 c93c eeb8 9f3d
00000310: f634 92be 7a7c 0e3d 6616 d53d 2942 5dbe
00000320: 805f 2a3d 5272 603d 1078 d2bd 2513 21bc
00000330: e346 853d d300 393e 792c 2f3e 4912 c7bd
00000340: c969 b33a 18d8 2f3e a2e8 a039 6a84 b13d
00000350: b05b 59bd 4133 ab3d 302c d03d e9fb bdbb
00000360: 218e 20be 6246 d6bd fe23 b93c 1714 d33d
00000370: 7203 8d3d 2094 c13d 9213 1cbe e56a 91bd
00000380: 4596 aebd 47cf 27be 19a6 9cbd da54 513c
00000390: 6418 02bd f7d2 a4bc 7a4e c3bd 9d88 29bb
000003a0: 518f bf3c 7384 23be 19b1 7bbd 90d0 593d
000003b0: 3d96 36be 634e 113e efca 76bd fef9 853d
000003c0: a1fd 70bd 4819 dcbd 6879 d2bd ef0b ed3d
000003d0: 9ca8 b0bd e4a0 783d 6ae1 94bd 4cd3 a4bd
000003e0: 62e9 533d 10ab 263e 29fb 193d 9ef3 f6bc
000003f0: 9c05 dfbd df6f debd b2ab aebd 7cb0 023e

gcn_logvar.bias f4 [32]
-0.012739959 -0.036730725 -0.042861164 -0.028127233 -0.09246482 -0.038289115 -0.0146920495 -0.012189018
-0.056204114 -0.00039651204 -0.035531767 -0.026729632 -0.04860931 -0.038866077 -0.0306159 0.01490748
-0.05658949 -0.04070012 -0.04551985 -1.0041108 -0.035373867 -0.04248016 -0.085794814 -0.026215797
-0.011802986 -0.071496405 -0.04431052 -0.056019053 -0.06203646 -0.026084134 -0.01592119 -0.035473444
00000000: 43bb 50bc f572 16bd 308f 2fbd 156b e6bc
00000010: 325e bdbd 0cd5 1cbd ecb6 70bc 72b4 47bc
00000020: 4936 66bd f2e2 cfb9 c289 11bd 1af8 dabc
00000030: 8e1a 47bd 0932 1fbd 32ce fabc 813e 743c
00000040: 62ca 67bd 2bb5 26bd 0673 3abd b486 80bf
00000050: 30e4 10bd adff 2dbd 31b5 afbd 83c2 d6bc
00000060: 5061 41bc b56c 92bd f37e 35bd 3c74 65bd
00000070: f119 7ebd 65ae d5bc 286d 82bc 9a4c 11bd

gcn_logvar.lin.weight f4 [32, 64]
0.044313185 0.033087105 -0.011227985 -0.055124972 0.11106036 0.18740986 0.22914256 0.1803718
-0.09132174 0.010647668 0.0020057096 0.02819437 0.023744816 0.11926704 -0.14097276 0.031128328
-0.009332681 0.1021274 0.0641509 0.039584592 -0.1580613 -0.05727092 -0.056192994 -0.12098897
0.15789118 0.014864434 0.07670346 -0.2531532 -0.15018481 -0.2384767 0.29039657 0.13428493
0.1432779 0.033535805 -0.068186775 0.098019026 0.08571466 0.10736143 -0.037498157 0.095644474
-0.062450163 0.051224872 0.16215698 0.22837988 0.0071363826 -0.014816379 0.22809115 -0.062050827
-0.102497 0.014152014 0.046235595 0.0021300083 -0.15307519 -0.16994603 0.12342756 -0.1582743
0.09723709 0.08109632 -0.2740111 0.13710584 -0.05561317 0.0074695433 -0.12944019 0.114585176
0.07064538 -0.17894885 0.01717463 0.1138954 -0.054074295 0.0949036 0.1310311 -0.009459962
0.17817466 0.05498212 -0.16146407 0.07480371 0.06707416 0.04573998 0.11681068 -0.0062471586
0.096935354 0.11949013 0.22103903 0.00070424034 -0.13860556 0.18868035 -0.117628545 0.12988438
0.04336166 0.19289424 0.035397746 0.06188584 0.019906623 0.18635118 0.43964827 0.22526774
0.046330504 -0.029980002 0.060375746 -0.15259011 0.031863008 -0.18829462 0.0002711431 0.06326812
-0.066764414 0.07654416 0.11609122 0.23566377 -0.089388065 -0.11156605 0.08103599 -0.07428828
-0.028263483 0.035883766 0.005197206 -0.01677464 0.017404094 0.039220538 0.118812814 -0.04022733
-0.12150123 0.15601847 -0.05525249 -0.14648512 0.017595958 0.07998402 0.18066953 -0.11221051
0.021540394 0.085321516 0.12964657 0.08932436 -0.06386189 0.03287898 0.05878233 -0.10819709
-0.15484323 0.013008033 0.35639617 0.11996619 -0.02800994 0.15946864 -0.16492663 0.11132783
-0.03152611 -0.18700157 -0.11703698 -0.04342965 0.10948934 0.22592768 -0.18015581 -0.0803816
-0.06255622 0.1091679 -0.10796447 -0.0017160244 0.23487674 -0.058897763 0.28503466 -0.19791658
0.06612113 0.105039366 0.03002737 0.14023226 0.067359306 -0.019971244 0.07637325 0.08785497
-0.0396906 0.18446441 -0.08443545 0.18979919 -0.058545705 -0.050058644 0.09149186 -0.14944288
-0.032974653 0.09768091 0.07534578 -0.02999126 -0.043452583 -0.010206558 -0.06612076 -0.07714933
-0.17151275 -0.10472193 0.1562862 -0.08202009 -0.051146287 -0.038246725 0.12443243 -0.05033675
-0.09146958 0.022071915 -0.09074696 0.11971129 0.064442694 -0.04477455 0.076987915 0.013158249
0.070738815 0.08803798 0.07820307 0.22775458 -0.11019736 0.14948195 -0.1149933 0.124446265
0.053350642 -0.013778737 -0.13689482 -0.041676946 -0.12526047 0.26245657 -0.02234757 -0.10277232
0.078883015 -0.13260686 -0.0049026827 0.002450587 0.10553434 0.067631826 0.03618238 0.20322649
0.012248164 -0.07677785 0.15472564 0.015026149 -0.023568803 -0.15135753 0.0011166063 0.031192815
0.077708855 0.0023725613 0.026717898 0.1679331 -0.060163204 -0.0011228792 -0.12634861 0.054543085
0.018450465 -0.03185238 0.18072563 -0.108761795 -0.028339624 -0.018844886 0.18332669 -0.00012063973
0.18164054 0.23432401 -0.17761423 -0.116966724 0.044306573 0.071262114 0.06570887 0.15045376
00000000: be81 353d 5886 073d 95f5 37bc b9ca 61bd
00000010: 9d73 e33d 5fe8 3f3e 59a4 6a3e 63b3 383e
00000020: e406 bbbd 8e73 2e3c 3972 033b e1f7 e63c
00000030: 7d84 c23c 4742 f43d 2a5b 10be d600 ff3c
00000040: 1ae8 18bc 2c28 d13d 8c61 833d 7423 223d
00000050: d2da 21be ea94 6abd a02a 66bd 11c9 f7bd
00000060: 3aae 213e f489 733c b416 9d3d 4c9d 81be
00000070: 0cca 19be 3c33 74be dcae 943e fd81 093e
00000080: 71b7 123e d75c 093d 82a5 8bbd 33be c83d
00000090: 2b8b af3d 4fe0 db3d ab97 19bd 40e1 c33d
000000a0: becb 7fbd 2cd1 513d 7b0c 263e 6adc 693e
000000b0: 51d8 e93b 66c0 72bc ba90 693e 0229 7ebd
000000c0: f2e9 d1bd d9dd 673c 8961 3d3d 9c97 0b3b
000000d0: bebf 1cbe 5506 2ebe 97c7 fc3d a812 22be
000000e0: 3d24 c73d d415 a63d 2f4b 8cbe 7965 0c3e
000000f0: a3ca 63bd 12c3 f43b f88b 04be a2ab ea3d
00000100: 86ae 903d 5e3e 37be cfb1 8c3c fe41 e93d
00000110: 027d 5dbd d25c c23d 042d 063e f5fd 1abc
00000120: 6b73 363e ee34 613d d656 25be b032 993d
00000130: 2d5e 893d d859 3b3d 703a ef3d f7b4 ccbb
00000140: 0b86 c63d 3eb7 f43d 0e58 623e c59c 383a
00000150: 9eee 0dbe 6c35 413e 3ce7 f0bd 6900 053e
00000160: ff9b 313d 1186 453e 3afd 103d 027c 7d3d
00000170: 3713 a33c d8d2 3e3e 9419 e13e 96ac 663e
00000180: 0ec5 3d3d 9f98 f5bc 8f4c 773d 9540 1cbe
00000190: c982 023d 4ed0 40be 3628 8e39 b792 813d
000001a0: c8bb 88bd 2fc3 9c3d 3cc1 ed3d d851 713e
000001b0: 1711 b7bd be7c e4bd 32f6 a53d 7424 98bd
000001c0: d288 e7bc dbfa 123d 534d aa3b f86a 89bc
000001d0: 0893 8e3c b7a5 203d 2254 f33d 6ac5 24bd
000001e0: a3d5 f8bd 4ec3 1f3e 6f50 62bd 3200 16be
000001f0: 6625 903c a9ce a33d 6f01 393e a0ce e5bd
00000200: 7b75 b03c 0cbd ae3d 12c2 043e b1ef b63d
00000210: 06ca 82bd 1cac 063d bec5 703d 7096 ddbd
00000220: 398f 1ebe a51f 553c 8f79 b63e d5b0 f53d
00000230: 1a75 e5bc bf4b 233e 87e2 28be d8ff e33d
00000240: 8621 01bd 577d 3fbe 16b1 efbd 4ae3 31bd
00000250: f23b e03d 9659 673e c47a 38be 1c9f a4bd
00000260: 7a1d 80bd 6c93 df3d 7a1c ddbd 39ec e0ba
00000270: 8783 703e c83e 71bd 10f0 913e a5aa 4abe
00000280: 846a 873d e11e d73d f6fb f53c 0c99 0f3e
00000290: adf3 893d bc9a a3bc 9469 9c3d 4eed b33d
000002a0: 9c92 22bd 3de4 3c3e 7eec acbd b85a 423e
000002b0: 9fcd 6fbd 4b0a 4dbd 1660 bb3d 8e07 19be
000002c0: 6e10 07bd ee0c c83d e34e 9a3d 3bb0 f5bc
000002d0: 56fb 31bd 6839 27bc 526a 87bd 7800 9ebd
000002e0: 0aa1 2fbe 7478 d6bd 7d09 203e 26fa a7bd
000002f0: c57e 51bd 99a8 1cbd 6ed6 fe3d e82d 4ebd
00000300: 6754 bbbd 29d0 b43c 8bd9 b9bd 312b f53d
00000310: 88fa 833d 8565 37bd d7ab 9d3d b295 573c
00000320: 83df 903d 424d b43d ee28 a03d 7f38 693e
00000330: 27af e1bd cc11 193e 9b81 ebbd afdd fe3d
00000340: 3486 5a3d 36c0 61bc 282e 0cbe 72b5 2abd
00000350: 4844 00be b560 863e 4012 b7bc 4b7a d2bd
00000360: 6b8d a13d 18ca 07be afa6 a0bb 079a 203b
00000370: 6322 d83d 8e82 8a3d fa33 143d 9b1a 503e
00000380: 86ac 483c b53d 9dbd 6670 1e3e 3d30 763c
00000390: 5d13 c1bc 78fd 1abe 175b 923a 1388 ff3c
000003a0: d225 9f3d f97c 1b3b 7edf da3c a8f6 2b3e
000003b0: b16d 76bd 932d 93ba 8861 01be 9268 5f3d
000003c0: 6e25 973c a477 02bd 2410 393e 81be debd
000003d0: 8028 e8bc 9760 9abc feb9 3b3e f6ff fcb8
000003e0: faff 393e a2f2 6f3e 81e0 35be 408c efbd
000003f0: cf7a 353d dff1 913d 5f92 863d 8d10 1a3e

decoder.convs.0.bias f4 [32]
0.7240335 0.43005833 0.67896116 0.69153 -0.6186924 0.63099587 0.6270477 0.9032022
0.5841347 0.4691984 1.0156007 0.59260285 0.6563631 0.5398916 0.84761024 1.0836985
0.8727259 0.47651875 0.6324793 0.4820525 0.8913782 0.72628117 0.9052179 0.6755943
0.6840231 0.6325398 0.7291354 0.6095596 0.6430373 0.93564385 0.6306556 -0.1410887
00000000: 425a 393f 9b30 dc3e 66d0 2d3f 1c08 313f
00000010: a062 1ebf f288 213f 3386 203f 4238 673f
00000020: da89 153f c63a f03e 34ff 813f d2b4 173f
00000030: 6a07 283f 5636 0a3f fcfc 583f a2b6 8a3f
00000040: f76a 5f3f 44fa f33e 2aea 213f 96cf f63e
00000050: 5d31 643f 90ed 393f 5cbc 673f bff3 2c3f
00000060: 231c 2f3f 21ee 213f 9ea8 3a3f 190c 1c3f
00000070: 189e 243f 5b86 6f3f a572 213f 8e79 10be

decoder.convs.0.lin.weight f4 [32, 32]
-0.055851895 0.012859033 0.24565811 0.20419748 0.028051337 -0.30804464 -0.12181631 0.1551051
0.01576993 0.13041826 0.17462656 -0.14669994 -0.024405153 0.060126565 -0.18125334 -0.1539357
-0.15172434 0.2549796 -0.0867833 -0.014149596 0.08731971 0.14784865 -0.0065275775 0.17403337
-0.0010769089 0.19971557 -0.2251281 -0.078461975 -0.028983112 -0.102921896 -0.07208058 -0.016347826
-0.25733104 0.16176373 0.10834376 -0.08449767 -0.11875117 0.24783762 0.058414984 0.24969524
-0.13691004 -0.06204771 0.15696314 0.13777827 -0.01242598 -0.20068136 -0.011447217 0.32586235
0.120652094 0.17862514 0.35187882 -0.34086826 -0.19610554 0.087777495 -0.2033583 -0.3153029
-0.19587606 0.11031234 -0.23473397 0.07917242 0.135913 -0.09953894 0.27261373 0.002550974
-0.0988949 -0.07358418 -0.098201625 -0.10552906 -0.12343027 -0.008662436 0.4043112 -0.21252833
-0.14589888 0.16416256 -0.094549924 -0.072042495 0.25037017 0.1817225 0.14452365 -0.10145421
0.20472464 0.17754802 -0.006430966 -0.14920393 0.14883374 0.12050188 0.13987246 -0.16574627
0.15205188 -0.032652847 -0.12978728 -0.39776328 -0.12056063 -0.117609106 -0.031008236 -0.046002883
-0.17348963 -0.23637763 0.0016803356 0.18505606 -0.013316749 -0.08949903 -0.22518584 -0.10406149
0.08207756 0.06569815 0.16316617 -0.19762823 0.11377354 -0.080897294 0.25509372 0.14680676
-0.15711717 -0.17190014 -0.16878596 -0.1853816 -0.14384155 -0.22034225 0.0010597386 -0.3205537
0.0352717 -0.04100004 -0.23819141 0.036972098 -0.051190402 0.11563069 -0.13735858 -0.2671191
0.01723695 -0.013901521 0.012031548 0.013437157 -0.021014728 -0.009537362 0.0208486 0.018267635
-0.018811427 0.02604759 0.050961707 -0.00937962 -0.05899382 0.06534071 -0.009096052 -0.026878363
0.06858021 -0.07880198 -0.013554047 1.6060668 0.02270157 -0.057679597 0.013395317 -0.010076545
0.008874104 0.013711547 0.027433522 -0.030808479 0.022929419 -0.046467636 0.0074583986 -0.027503796
-0.08095581 0.010267584 0.109683454 0.04543018 0.19087371 -0.14672495 0.09808238 -0.11787241
0.19179574 0.403392 -0.14915839 0.051068876 -0.1844314 0.2374981 0.05170653 -0.022287708
-0.048282705 -0.15364899 0.3736404 -0.096542 -0.14477843 -0.25531036 0.048286803 -0.02598966
0.024548901 0.15788323 0.025470803 0.039459165 -0.016414832 0.0556472 0.11997901 0.1509559
0.13757716 0.033067673 -0.16402557 0.106089585 -0.3012224 -0.14237 0.2885762 -0.013248585
0.088118285 0.20741247 0.13711494 0.04043736 -0.1793067 -0.12887761 -0.2890398 0.1769024
0.23580484 -0.10971766 0.01784727 -0.21365796 -0.28664923 0.14360851 -0.13955258 0.23671798
0.007372504 -0.037102405 0.10642942 -0.033582028 -0.032332893 0.21605426 -0.123196 -0.0126729915
0.15409955 0.06726939 -0.22719489 -0.020744039 0.18304422 0.03312788 0.124850996 0.09635315
0.024770804 0.048786927 -0.07972555 -0.107159026 0.042818166 0.010638277 0.11143598 -0.19384
0.19390288 -0.01637178 -0.16838701 -0.15951657 -0.068825744 0.011920666 -0.12593327 -0.054676514
0.026506668 0.13978812 -0.14534287 0.09078311 0.33340803 0.15692572 0.046024073 0.12911108
00000000: f5c4 64bd b2ae 523c cd8d 7b3e 2519 513e
00000010: ebcb e53c 07b8 9dbe d47a f9bd dfd3 1e3e
00000020: f12f 813c 5d8c 053e 4ed1 323e 8238 16be
00000030: 51ed c7bc 4647 763d 7a9a 39be 52a1 1dbe
00000040: a05d 1bbe b08c 823e 71bb b1bd b5d3 67bc
00000050: add4 b23d a365 173e 4ae5 d5bb ce35 323e
00000060: 1127 8dba 3d82 4c3e fb87 66be acb0 a0bd
00000070: fe6d edbc b7c8 d2bd fc9e 93bd e0eb 85bc
00000080: e5c0 83be 64a5 253e 55e3 dd3d 1d0d adbd
00000090: d033 f3bd 25c9 7d3e 8d44 6f3d 1cb0 7f3e
000000a0: 2532 0cbe bd25 7ebd f2ba 203e bf15 0d3e
000000b0: 5696 4bbc 6a7f 4dbe 1c8d 3bbc 6ed7 a63e
000000c0: 7218 f73d 82e9 363e 7629 b43e 4986 aebe
000000d0: e4cf 48be b0c4 b33d 283d 50be 626f a1be
000000e0: bc93 48be 70eb e13d 1a5e 70be 2625 a23d
000000f0: c72c 0b3e 12db cbbd 0794 8b3e 3e2e 273b
00000100: 6989 cabd 4db3 96bd ef1d c9bd 9f1f d8bd
00000110: 02c9 fcbd e4ec 0dbc e101 cf3e 07a1 59be
00000120: 8466 15be 3b1a 283e 64a3 c1bd 048b 93bd
00000130: 8530 803e 7715 3a3e 02fe 133e 3ac7 cfbd
00000140: 56a3 513e 26cf 353e daba d2bb eac8 18be
00000150: df67 183e b1c9 f63d ba3a 0f3e 64b9 29be
00000160: 7db3 1b3e febe 05bd f5e6 04be a1a7 cbbe
00000170: 7ee8 f6bd 0bdd f0bd fc04 febc 856d 3cbd
00000180: 44a7 31be fa0c 72be b53e dc3a 567f 3d3e
00000190: 7e2e 5abc 444b b7bd 1e97 66be 311e d5bd
000001a0: 4818 a83d c08c 863d 0815 273e 0e5f 4abe
000001b0: 1a02 e93d 7bad a5bd a59b 823e 8354 163e
000001c0: 53e3 20be 9706 30be 3ad6 2cbe add4 3dbe
000001d0: 334b 13be 66a1 61be ede6 8a3a 9d1f a4be
000001e0: 0f79 103d a8ef 27bd 73e8 73be 0e70 173d
000001f0: 07ad 51bd c8cf ec3d baa7 0cbe d6c3 88be
00000200: 8134 8d3c 35c3 63bc f81f 453c 8527 5c3c
00000210: 1427 acbc 9842 1cbc afca aa3c 02a6 953c
00000220: 6c1a 9abc c161 d53c 39bd 503d faac 19bc
00000230: 81a3 71bd 5ad1 853d 9b07 15bc 0330 dcbc
00000240: c873 8c3d ef62 a1bd cb11 5ebc 9993 cd3f
00000250: a5f8 b93c 7141 6cbd 0878 5b3c 1818 25bc
00000260: b164 113c 65a6 603c 44bc e03c 1062 fcbc
00000270: 7ad6 bb3c d954 3ebd 9565 f43b a44f e1bc
00000280: 29cc a5bd 5e39 283c b8a1 e03d ff14 3a3d
00000290: 6674 433e 113f 16be 6adf c83d 1767 f1bd
000002a0: 1a66 443e 6589 ce3e fabc 18be 992d 513d
000002b0: 96db 3cbe b432 733e 3aca 533d b694 b6bc
000002c0: 16c4 45bd 2956 1dbe cb4d bf3e d0b7 c5bd
000002d0: cc40 14be 0ab8 82be 62c8 453d 44e8 d4bc
000002e0: c71a c93c 24ac 213e 25a8 d03c ef9f 213d
000002f0: 6678 86bc 52ee 633d 8eb7 f53d 2f94 1a3e
00000300: 07e1 0c3e f871 073d 52f6 27be 7f45 d93d
00000310: d339 9abe 71c9 11be 42c0 933e 9810 59bc
00000320: 5c77 b43d ef63 543e dc67 0c3e a5a1 253d
00000330: 2d9c 37be 7ef8 03be 06fd 93be e725 353e
00000340: d376 713e a7b3 e0bd 7034 923c 27c9 5abe
00000350: b0c3 92be 1c0e 133e dfe6 0ebe 3366 723e
00000360: 0c95 f13b b1f8 17bd abf7 d93d 4f8d 09bd
00000370: 7f6f 04bd 543d 5d3e 2f4e fcbd 61a2 4fbc
00000380: 46cc 1d3e 89c4 893d c7a5 68be 67ef a9bc
00000390: f26f 3b3e 1ab1 073d e1b1 ff3d cd54 c53d
000003a0: 24ec ca3c cdd4 473d 2647 a3bd 3176 dbbd
000003b0: 1a62 2f3d 2b4c 2e3c 8c38 e43d fe7d 46be
000003c0: 7a8e 463e 1c1e 86bc a56d 2cbe 5058 23be
000003d0: 83f4 8cbd e64e 433c a7f4 00be 7bf4 5fbd
000003e0: 8324 d93c 9e24 0f3e c3d4 14be 7fec b93d
000003f0: 75b4 aa3e 23b1 203e bd83 3c3d b235 043e

decoder.convs.1.bias f4 [32]
0.5280763 0.67875874 0.6096197 0.549446 0.56729406 -0.12833846 0.6423894 0.51206255
0.4772217 0.5781164 0.43263984 0.37903386 0.2971715 0.25153977 0.39783818 0.25752574
-0.09471425 0.59934855 0.6199284 0.5582225 0.26145813 0.56242925 0.49327293 0.40693825
0.66005117 0.6098188 0.50395554 0.5340571 0.5781111 0.5170428 0.5344079 0.5549934
00000000: 0230 073f 22c3 2d3f 0910 1c3f 7ea8 0c3f
00000010: 2f3a 113f 286b 03be a273 243f 8816 033f
00000020: 6756 f43e 70ff 133f f882 dd3e ba10 c23e
00000030: dd26 983e d2c9 803e 72b1 cb3e 6ada 833e
00000040: 8bf9 c1bd e86e 193f a1b3 1e3f abe7 0e3f
00000050: d7dd 853e 5dfb 0f3f 458e fc3e 365a d03e
00000060: 1df9 283f 161d 1c3f 3b03 013f f7b7 083f
00000070: 17ff 133f eb5c 043f f5ce 083f 0c14 0e3f

decoder.convs.1.lin.weight f4 [32, 32]
-0.158983 -0.23913224 -0.04720214 0.15567692 -0.3096526 -0.21373695 -0.13749117 0.076536916
-0.21398939 -0.18866508 -0.19839348 -0.2607591 0.38115367 -0.14940962 0.17396943 0.114029385
-0.05433541 0.49628103 0.08594434 -0.069171034 0.16703127 -0.16110112 -0.16125958 -0.23380901
-0.0022473729 -0.13631518 0.30889308 0.114635065 -0.12014811 0.34405047 0.3186149 0.08373038
-0.064090006 0.31538972 0.15281424 0.12966944 -0.0058235307 0.19781199 -0.3326781 0.21276452
0.14413288 0.084195174 0.42206284 -0.2974638 0.15271157 -0.2825571 -0.02531473 -0.10939706
0.018242793 -0.019271653 0.27370223 0.028539067 -0.18076001 -0.514566 0.23559561 -0.099614404
-0.040563427 -0.11248621 0.07866626 -0.23596847 -0.025064655 -0.3751072 0.11649158 -0.12736803
-0.089566395 0.2715264 -0.22934398 0.000558391 -0.12861976 0.0128765665 0.034963205 0.2507237
-0.4716312 0.23026264 0.088529386 0.35120046 0.15184861 0.32726577 0.32583883 0.30902407
-0.023280514 0.040143017 -0.3306006 -0.27410263 0.14891657 0.1973129 -0.039479107 -0.2195903
-0.14131026 -0.04840817 -0.059132285 -0.17162748 -0.17417742 -0.3209494 -0.022955382 0.06272378
-0.09786606 -0.0050961548 -0.29407266 -0.057327162 -0.20163812 -0.18093243 0.029703256 -0.20937537
0.02256372 0.22503838 0.20901887 -0.017631995 -0.19127712 -0.027203545 -0.29431212 -0.08480953
0.47308296 0.404655 0.00880867 0.22537899 -0.21638261 0.3526389 0.3779786 -0.12676796
0.12002182 -0.069274716 -0.0077134157 -0.08613529 -0.058280427 0.0332315 0.11449405 -0.12405899
0.30862477 -0.051588234 0.081953004 -0.020495996 0.122380294 -0.13443398 0.05490499 0.16598734
0.30419978 0.19947156 0.035754416 -0.14090388 -0.28441304 0.227849 0.03029849 0.14334317
-0.5264738 0.23952039 -0.07424 -0.055773314 -0.25148767 0.00523691 -0.03506683 -0.13865682
0.27949885 -0.04157636 0.104915515 -0.030936645 -0.13319701 -0.20172736 -0.10587534 0.075847216
-0.026595382 -0.3030584 -0.28008392 -0.22970219 0.83054423 -0.12286755 -0.21575542 -0.20806427
0.0031982746 -0.41814217 0.14471179 -0.32914287 0.08974266 -0.34475517 -0.28424433 0.25120178
0.09427117 -0.21086775 0.019271376 -0.025978697 -0.124906205 0.016283825 -0.04739829 -0.31619167
-0.002338512 -0.3078666 -0.20590967 -0.3095601 -0.2927138 0.04936203 -0.012202966 1.0021185
0.0027956115 0.19674739 0.108181566 0.0489199 0.18012367 -0.06754645 -0.09197044 -0.3414603
-0.15986417 0.22485912 0.08612038 0.16643265 -0.2786439 -0.04113928 0.02031011 -0.40561417
-0.4662238 0.33449632 -0.05302995 -0.15148109 0.038019896 0.073379636 -0.029415622 0.48427987
-0.28467435 0.24310505 0.3853061 0.17770955 -0.08756905 -0.09908299 -0.041296408 0.40056252
0.1273723 -0.2869713 0.11212651 -0.022339877 -0.14650707 0.18872823 -0.19945936 0.49028835
-0.17922145 -0.10498929 -0.078956865 0.35627937 -0.26146993 -0.03164452 0.1643838 -0.25944152
0.070791245 -0.0137609355 0.015427888 0.4431957 -0.04284938 -0.09342532 0.04207641 0.015287545
0.08922616 -0.12880087 -0.04902458 0.21456325 -0.28585926 -0.030153677 0.13359167 0.20654447
00000000: 71cc 22be 15df 74be 0857 41bd c569 1f3e
00000010: c98a 9ebe dcdd 5abe 7cca 0cbe 63bf 9c3d
00000020: 0920 5bbe 6b31 41be a927 4bbe 3782 85be
00000030: 9326 c33e d6fe 18be 0b25 323e 3d88 e93d
00000040: cf8e 5ebd 8c18 fe3e 9603 b03d 8ba9 8dbd
00000050: 3f0a 2b3e b1f7 24be 3b21 25be a16b 6fbe
00000060: a948 13bb 3596 0bbe 3c27 9e3e cac5 ea3d
00000070: 3610 f6bd 6227 b03e 7e21 a33e d57a ab3d
00000080: 9f41 83bd c37a a13e 567b 1c3e 11c8 043e
00000090: 51d3 bebb 3a8f 4a3e c954 aabe f1de 593e
000000a0: 9297 133e 856e ac3d 9f18 d83e 2d4d 98be
000000b0: 6c60 1c3e 53ab 90be d660 cfbc 910b e0bd
000000c0: e971 953c 96df 9dbc b322 8c3e c3ca e93c
000000d0: 2719 39be 99ba 03bf fa3f 713e a302 ccbd
000000e0: d625 26bd 2c5f e6bd c71b a13d b8a1 71be
000000f0: 6454 cdbc 0d0e c0be 2393 ee3d c46c 02be
00000100: 966e b7bd 8205 8b3e 26d9 6abe fc60 123a
00000110: e6b4 03be 3cf8 523c 9435 0f3d db5e 803e
00000120: a579 f1be f8c9 6b3e e54e b53d 8cd0 b33e
00000130: 347e 1b3e 618f a73e 59d4 a63e 6738 9e3e
00000140: c7b6 bebc 016d 243d 7b44 a9be 2e57 8cbe
00000150: 967d 183e 650c 4a3e d8b4 21bd 48dc 60be
00000160: a3b3 10be a547 46bd b234 72bd 1dbf 2fbe
00000170: 915b 32be 7b53 a4be ed0c bcbc 5375 803d
00000180: 006e c8bd a5fd a6bb b190 96be e3cf 6abd
00000190: 397a 4ebe 5a46 39be 3e54 f33c 7f66 56be
000001a0: 8dd7 b83c 7670 663e 0b09 563e f970 90bc
000001b0: 26de 43be f8d9 debc 14b0 96be 9eb0 adbd
000001c0: ee37 f23e f12e cf3e 3d52 103c c0c9 663e
000001d0: 6793 5dbe 168d b43e 6986 c13e 76cf 01be
000001e0: 00ce f53d e7df 8dbd d2c0 fcbb b367 b0bd
000001f0: 75b7 6ebd c11d 083d db7b ea3d a412 febd
00000200: 1104 9e3e 2f4e 53bd fad6 a73d 38e7 a7bc
00000210: 85a2 fa3d 10a9 09be 0ee4 603d 96f8 293e
00000220: 13c0 9b3e 4642 4c3e 3973 123d 1b49 10be
00000230: 969e 91be 4051 693e 8a34 f83c 8dc8 123e
00000240: fdc6 06bf d544 753e 240b 98bd 8f72 64bd
00000250: fec2 80be 639a ab3b 3da2 0fbd 0efc 0dbe
00000260: 791a 8f3e f94b 2abd f2dd d63d d96e fdbc
00000270: cc64 08be 9e91 4ebe 2cd5 d8bd c955 9b3d
00000280: 8fde d9bc 782a 9bbe 2967 8fbe 0d37 6bbe
00000290: 8c9e 543f fba1 fbbd fdee 5cbe cd0e 55be
000002a0: 259a 513b bb16 d6be 542f 143e 6a85 a8be
000002b0: 00cb b73d c083 b0be 7988 91be 859d 803e
000002c0: 3e11 c13d b7ed 57be 01df 9d3c 47d1 d4bc
000002d0: d3ce ffbd a865 853c b624 42bd e0e3 a1be
000002e0: b941 19bb b1a0 9dbe fcd9 52be a97e 9ebe
000002f0: 95de 95be d72f 4a3d f3ee 47bc 6b45 803f
00000300: 9436 373b 2678 493e 4c8e dd3d 3c60 483d
00000310: 5772 383e cb55 8abd ff5a bcbd e2d3 aebe
00000320: 6fb3 23be 7841 663e e25f b03d 526d 2a3e
00000330: 6aaa 8ebe a981 28bd 6361 a63c a9ac cfbe
00000340: e3b4 eebe 1a43 ab3e ef35 59bd dc1d 1bbe
00000350: c0ba 1b3d 1048 963d 08f9 f0bc 88f3 f73e
00000360: d6c0 91be 88f0 783e d746 c53e 7ef9 353e
00000370: 6757 b3bd 06ec cabd 6c26 29bd 8816 cd3e
00000380: e26d 023e e7ed 92be 95a2 e53d 1e02 b7bc
00000390: f305 16be f941 413e 133f 4cbe 1307 fb3e
000003a0: d485 37be a004 d7bd 23b4 a1bd 406a b63e
000003b0: 63df 85be af9d 01bd 3a54 283e 85d5 84be
000003c0: 00fb 903d 8c75 61bc 41c5 7c3c 8cea e23e
000003d0: d582 2fbd c655 bfbd 5058 2c3d 9c78 7a3c
000003e0: 34bc b63d 60e4 03be ffcd 48bd 78b6 5b3e
000003f0: 255c 92be d804 f7bc 41cc 083e 6580 533e

decoder.mlp.0.weight f4 [64, 128]
-0.08531562 -0.03492003 0.05996787 -0.108233094 0.051512875 -0.104880586 -0.09574651 -0.22710693
0.021910353 -0.0125744715 -0.040066715 -0.18108088 -0.088611975 -0.098786004 -0.104955986 -0.14236501
-0.283247 -0.09786517 -0.09432286 -0.028003886 0.003210794 -0.0748451 -0.3905743 -0.14167988
-0.060108002 -0.05400195 -0.0004398543 -0.033268187 -0.07806387 -0.13401225 -0.11954158 -0.06921142
-0.12263282 -0.16879538 -0.1426349 -0.066425286 -0.17419371 0.46321127 -0.12818606 -0.07345516
-0.14825216 -0.124925695 -0.109164536 -0.06826492 -0.06730092 -0.12280047 -0.033249296 -0.027911786
-0.09264053 -0.063808165 -0.1427664 -0.09912981 -0.2162508 -0.04324929 0.13993692 -0.050595313
-0.1646986 -0.027326405 -0.111126795 -0.09598939 -0.15082791 -0.07854888 -0.120617285 -0.0969833
0.23404148 0.1364638 0.1966215 0.13344754 0.06902942 0.6643179 0.1966475 0.24224219
0.123894654 0.12907697 0.14193626 0.13672113 0.14812714 0.19535133 0.10857137 0.26762497
0.16329937 0.14980425 0.018719347 0.16043508 0.13653001 0.24021396 0.69072723 0.027589884
0.14421801 0.00023894213 0.13236225 0.22554594 0.17054857 0.11301596 0.26236287 0.11916288
-0.03885166 -0.11454007 -0.08536058 -0.0579244 -0.20279545 -0.021146104 -0.20950635 -0.057958372
-0.029680854 0.0016621313 0.07026731 -0.011418023 -0.0038745748 0.03499559 0.048661966 -0.09479865
0.033830907 -0.20269546 0.0256906 -0.08529328 -0.1105615 -0.023444658 -0.07957776 -0.014235543
-0.0655645 0.0035844008 -0.121092 -0.08218195 -0.011867847 -0.081304856 -0.06325946 -0.10816667
0.042635713 -0.014446998 0.20110936 0.008065111 0.011705137 0.0055081393 0.15928057 0.049060497
0.1316648 0.034484867 0.012770969 0.058711816 0.045207076 0.10921893 0.020894747 -0.0640428
0.15421595 0.10567145 0.18048401 0.047140535 -0.021538084 0.084505215 0.0047926544 0.009904934
0.06307593 0.060431886 -0.0479948 0.09744783 -0.019403385 0.04183968 0.06726456 0.10626503
0.17117767 0.235629 0.038530115 0.06199962 0.07259266 0.015359286 0.17125821 0.12371837
0.12713854 0.05526115 -0.021887423 -0.002641395 0.055257045 -0.073796175 0.104147114 0.04144862
-0.35907176 -0.049388822 0.14711611 0.09442163 0.02230911 -0.010756229 -0.020545902 0.04012374
0.13251014 0.12509498 0.16204728 0.11483354 0.19692041 0.097529784 0.18284193 0.14820534
0.3379882 0.44856766 0.2600731 0.4433351 0.44469592 0.03716741 0.35955465 0.28181794
0.38096675 0.45860413 0.3574863 0.43365112 0.27182978 0.2808546 0.36035693 0.15004592
-0.26940686 0.3749135 0.3351895 0.38091004 0.37002677 0.24940415 0.3144381 0.3236151
0.34038463 0.3216563 0.290264 0.38441435 0.4374477 0.372154 0.43583807 0.24276204
-0.11071783 -0.165722 -0.20954593 -0.07768999 -0.1399499 -0.004277605 -0.26053378 -0.16468652
-0.18140489 -0.14766183 -0.100182496 -0.19595204 -0.13094711 -0.15243964 -0.15216526 -0.06606146
-0.0917439 -0.13855417 -0.22101957 -0.11055191 -0.12736471 -0.11240702 0.047239505 -0.146658
-0.1442478 -0.116079986 -0.012601326 -0.16797173 -0.077272356 -0.09732593 -0.18735936 -0.1355799
00000000: f5b9 aebd 4e08 0fbd dfa0 753d 50a9 ddbd
00000010: 2aff 523d a2cb d6bd bf16 c4bd b88e 68be
00000020: 577d b33c 2805 4ebc ff1c 24bd 446d 39be
00000030: 327a b5bd 5150 cabd 2af3 d6bd 22c8 11be
00000040: c005 91be 896d c8bd 582c c1bd 6868 e5bc
00000050: 2f6c 523b 6348 99bd 5bf9 c7be 8814 11be
00000060: cf33 76bd 2631 5dbd 3f9c e6b9 3944 08bd
00000070: f3df 9fbd 823a 09be 37d2 f4bd b8be 8dbd
00000080: ea26 fbbd b2d8 2cbe e20e 12be fb09 88bd
00000090: d65f 32be 072a ed3e 3543 03be a96f 96bd
000000a0: 6acf 17be 0bd9 ffbd a891 dfbd 7ace 8bbd
000000b0: 11d5 89bd d07e fbbd 6a30 08bd 42a7 e4bc
000000c0: 51ba bdbd dbad 82bd 5b31 12be 9204 cbbd
000000d0: da70 5dbe 2b26 31bd a04b 0f3e 083d 4fbd
000000e0: c0a6 28be a0db dfbc 7296 e3bd 1696 c4bd
000000f0: a272 1abe 3cde a0bd 3206 f7bd 2e9f c6bd
00000100: 92a8 6f3e 2bbd 0b3e 2657 493e 79a6 083e
00000110: 4c5f 8d3d bd10 2a3f f65d 493e 560e 783e
00000120: 7bbc fd3d c12c 043e bd57 113e a000 0c3e
00000130: a4ae 173e 2e0a 483e ab5a de3d 2406 893e
00000140: f337 273e 4966 193e 5159 993c 1849 243e
00000150: 86ce 0b3e a6fa 753e 80d3 303f 2e04 e23c
00000160: e3ad 133e 8a8c 7a39 f889 073e 84f5 663e
00000170: 49a4 2e3e e974 e73d 6d54 863e ab0b f43d
00000180: eb22 1fbd fc93 eabd 87d1 aebd 2342 6dbd
00000190: 9ca9 4fbe 983a adbc d588 56be c265 6dbd
000001a0: 4325 f3bc dfdb d93a 4fe8 8f3d a912 3bbc
000001b0: 94ec 7dbb 8957 0f3d c551 473d cb25 c2bd
000001c0: 4792 0a3d 668f 4fbe 1875 d23c 3eae aebd
000001d0: 116e e2bd 030f c0bc aaf9 a2bd 323c 69bc
000001e0: ae46 86bd 44e8 6a3b 15ff f7bd 034f a8bd
000001f0: 5c71 42bc 2983 a6bd 2d8e 81bd 7d86 ddbd
00000200: c9a2 2e3d 1ab3 6cbc 9def 4d3e 8723 043c
00000210: e7c6 3f3c 9f7d b43b 721a 233e a9f3 483d
00000220: 23d3 063e 0140 0d3d 543d 513c cd7b 703d
00000230: 0e2b 393d 2dae df3d 762b ab3c df28 83bd
00000240: c9ea 1d3e 466a d83d cdd0 383e 6f16 413d
00000250: a370 b0bc 1211 ad3d b30b 9d3b 4e48 223c
00000260: f42d 813d 6d87 773d 3296 44bd ba92 c73d
00000270: d9f3 9ebc 1660 2b3d 00c2 893d 7ba1 d93d
00000280: 3349 2f3e bb48 713e c1d1 1d3d 50f3 7d3d
00000290: 76ab 943d 84a5 7b3c 505e 2f3e 0f60 fd3d
000002a0: 9b30 023e 8459 623d 414d b3bc 411b 2dbb
000002b0: 3655 623d 7322 97bd 154b d53d 07c6 293d
000002c0: 41d8 b7be ef4b 4abd 9ba5 163e 2160 c13d
000002d0: 98c1 b63c e53a 30bc e14f a8bc ca58 243d
000002e0: bdb0 073e e618 003e b9ef 253e d92d eb3d
000002f0: 81a5 493e b2bd c73d ea3a 3b3e 24c3 173e
00000300: ca0c ad3e a9aa e53e 4d28 853e d1fc e23e
00000310: 2faf e33e db3c 183d 8c17 b83e 714a 903e
00000320: 130e c33e 29ce ea3e 7208 b73e 8507 de3e
00000330: 462d 8b3e 2dcc 8f3e b480 b83e a3a5 193e
00000340: b2ef 89be aaf4 bf3e f59d ab3e a406 c33e
00000350: 2674 bd3e cd63 7f3e 08fe a03e e1b0 a53e
00000360: e546 ae3e 22b0 a43e 7c9d 943e f5d1 c43e
00000370: 25f9 df3e f88a be3e 2b26 df3e 9d96 783e
00000380: 08c0 e2bd 07b3 29be 3593 56be ee1b 9fbd
00000390: 074f 0fbe 272b 8cbb af64 85be 95a3 28be
000003a0: 34c2 39be aa34 17be 7b2c cdbd a7a7 48be
000003b0: 0017 06be 2319 1cbe 36d1 1bbe 3b4b 87bd
000003c0: 3ae4 bbbd 25e1 0dbe f452 62be 0a69 e2bd
000003d0: e56b 02be a735 e6bd 367e 413d 842d 16be
000003e0: b2b5 13be 58bb edbd cb75 4ebc c800 2cbe
000003f0: f840 9ebd d152 c7bd 22db 3fbe 75d5 0abe

decoder.mlp.0.bias f4 [64]
-0.49931595 -0.24983706 -0.010331515 0.4533233 0.32803065 -0.17004505 -0.15183355 0.13182476
-0.09287659 -0.40535858 -0.14633292 0.34842044 -0.18211247 0.47979924 -0.086337216 -0.11670949
-0.25141412 -0.11250003 0.0020866569 0.4077015 -0.091959946 0.5158917 0.18161699 -0.18102452
-0.64883363 0.13778436 -0.06417739 -0.18163805 -0.40395713 0.38370132 0.36455858 -0.3240227
-0.19133791 0.5005741 -0.24568166 -0.25099623 -0.2009937 -0.13527931 -0.123316236 0.027755562
0.6553836 -0.015739698 -0.4165257 -0.24106444 -0.28073552 -0.19733043 -0.24773367 0.3972733
-0.35100353 0.48455098 -0.33088863 0.38431364 0.39157286 0.34596822 0.38839883 0.024609918
-0.5561394 -0.44122806 0.6598795 -0.2534576 -0.047935117 -0.20670916 0.01945876 0.14342794
00000000: 57a6 ffbe 49d5 7fbe 8445 29bc fe19 e83e
00000010: a2f3 a73e 4a20 2ebe 417a 1bbe 12fd 063e
00000020: 1536 bebd 298b cfbe 4cd8 15be 2a64 b23e
00000030: b17b 3abe 3fa8 f53e 91d1 b0bd 6305 efbd
00000040: 5ab9 80be 6a66 e6bd 4bc0 083b 40be d03e
00000050: 7f55 bcbd 7a11 043f cef9 393e 7e5e 39be
00000060: f619 26bf 5817 0d3e 6f6f 83bd 53ff 39be
00000070: 78d3 cebe 8074 c43e 6ca7 ba3e 4ee6 a5be
00000080: 16ee 43be a025 003f f993 7bbe 9482 80be
00000090: 4bd1 4dbe a986 0abe 398d fcbd a25f e33c
000000a0: 38c7 273f 8af0 80bc db42 d5be 99d9 76be
000000b0: 91bc 8fbe fd10 4abe e5ad 7dbe 6867 cb3e
000000c0: bcb6 b3be 1117 f83e 3c6a a9be c2c4 c43e
000000d0: 3d7c c83e bf22 b13e 36dc c63e bd9a c93c
000000e0: 275f 0ebf a5e8 e1be dded 283f 32c5 81be
000000f0: 9d57 44bd 91ab 53be fa67 9f3c c6de 123e

decoder.mlp.2.weight f4 [1, 64]
-0.49556065 -0.22031009 0.019908588 0.345759 0.037505023 -0.11016126 -0.77856404 -0.015201115
-0.010391564 -0.058164407 -0.40180802 -0.011615412 -0.32411948 0.015223672 -0.31711054 -0.16878079
-0.2880002 -0.112874195 0.1496879 0.02537621 -0.13901615 0.011972074 0.50650233 -0.10484313
-0.61404455 1.5306416 -0.069166526 -0.3060319 -0.2637746 0.027962051 0.09836448 -0.14329945
-0.13417259 -0.0023120928 -0.24926232 -0.13717246 -0.17718084 -0.3133044 -0.10452033 0.014544182
0.027485913 -0.036847405 -0.2780859 -0.09121241 -0.11884697 -0.07161069 -0.074037455 0.0015779213
-0.15548556 -0.0034821196 -0.13068438 -0.0007747862 0.039177794 -0.006256568 0.0038518014 -0.009642676
-0.1467138 -0.3099088 0.43271068 -0.011762055 0.020501377 -0.07012647 0.0021990798 0.012821829
00000000: 20ba fdbe f898 61be 5617 a33c 5307 b13e
00000010: de9e 193d 3a9c e1bd f94f 47bf 190e 79bc
00000020: 6141 2abc cd3d 6ebd c8b9 cdbe 924e 3ebc
00000030: fdf2 a5be b56c 793c 505c a2be dfd4 2cbe
00000040: c374 93be 962a e7bd c947 193e c5e1 cf3c
00000050: 405a 0ebe 8526 443c 23aa 013f ffb7 d6bd
00000060: 0632 1dbf 10ec c33f 2ea7 8dbd 37b0 9cbe
00000070: 770d 87be ac10 e53c 5173 c93d 17bd 12be
00000080: 8a64 09be 7b86 17bb 9f3e 7fbe f076 0cbe
00000090: e56e 35be 6f69 a0be c10e d6bd b94a 6e3c
000000a0: 232a e13c 4eed 16bd 4661 8ebe 92cd babd
000000b0: 0a66 f3bd a0a8 92bd f3a0 97bd 41d2 ce3a
000000c0: 9b37 1fbe 4634 64bb 20d2 05be 061b 4bba
000000d0: e578 203d e503 cdbb 816e 7c3b 51fc 1dbc
000000e0: 243c 16be 5eac 9ebe 418c dd3e a2b5 40bc
000000f0: 81f2 a73c 779e 8fbd 701e 103b a612 523c
