miniproject3/graph_vae.pt (torch, 21532 bytes, 6 tensors)

gcn1.bias f4 [64]
00000000: de0c ba3b f159 a5bd f984 8bbd 269a c73d
00000010: 5bd8 ebbc e726 6c3d 1ed8 9a3d e41f 893d
00000020: f28c 343c 9b1b c63d 5ec9 98bd d939 d639
00000030: 2647 093e 0162 e7bc c466 8cbd dbd5 dd3c
00000040: eee4 47bc f20b 43be d27c 9fbd d771 ff3d
00000050: 3a85 c1bd 489e 393e c309 fe3c 77d6 0f3d
00000060: 3d7e 9bbc e119 2cbd 886d b73d 429a 533d
00000070: f102 29bd 6851 31be 765f 2f3e af14 603d
00000080: 9cc2 b13d 74ab b93c fede d1bd 0862 8c3c
00000090: a44c 283d 06a7 9a3b 61a2 813d e4c8 c5bd
000000a0: 0211 ec3d fe0e fb3c c938 ce3c e0af f63d
000000b0: 444a 723d d779 3abd a41e 963d 7b74 1abd
000000c0: 6ea9 543d 6544 5cbe ed61 0bbe 2d18 84bd
000000d0: 605c d23d 7e67 42bd 3b88 e83d 79ee 143e
000000e0: 1c9b 85bb 22d8 473c b263 80bc 0000 0000
000000f0: 43c1 82bc 3d63 b2bd eea8 dbbc d85b acbd
0.0056778034 -0.080737956 -0.06812472 0.09746198 -0.02878969 0.057654288 0.07560752 0.06695536
0.011019932 0.09673234 -0.07460283 0.0004086036 0.13406047 -0.028244974 -0.068555385 0.027079513
-0.012200577 -0.19047526 -0.077874795 0.12472885 -0.09449239 0.18126786 0.031010514 0.03511664
-0.018981094 -0.042016868 0.08956438 0.051660784 -0.04126257 -0.1731621 0.17126259 0.054707225
0.08679697 0.022664763 -0.102476105 0.017136589 0.041088715 0.004719618 0.063297994 -0.096574575
0.115266815 0.030646797 0.025173562 0.12045264 0.059152856 -0.04552635 0.07330063 -0.03770874
0.051919393 -0.21510465 -0.13611574 -0.06449924 0.102715254 -0.04746198 0.11354109 0.14544095
-0.0040773284 0.012197526 -0.015672538 0.0 -0.015961295 -0.087103345 -0.02681395 -0.08415955

gcn1.lin.weight f4 [64, 7]
00000000: 0279 9fbe b01d 0dbd 431f 0f3f 08ab 053f
00000010: 8862 f6bd 7235 4b3d 7a71 243d 3e3d bdbd
00000020: 2d98 f0bd d1a9 983e 1b57 89be 63d6 d33e
00000030: b895 01be 7da2 89bd 2d3d 423e 1372 f63e
00000040: 4c2a 71be 79e7 a23d 8a11 80be e668 d13d
00000050: e707 bfbd 0908 abbe b546 2e3f e9e8 88be
00000060: 4261 90be 0c2f 62be f675 26be b299 883e
00000070: ca64 49be eb41 c73e 2ad0 e53e ed38 f6bd
00000080: 4497 8cbe f55d 823d 11ad ee3d 306c 693d
00000090: 7379 f03e 5347 023e 7187 a5be 092a 1ebe
000000a0: 4327 b5be c7b4 cabe 4685 b2bd 94e7 eebf
000000b0: 1483 0f3f b383 843e 4a6b e9bd b1c6 49be
000000c0: cdbb 1cbe a0b3 41bd 0d6a c63e d471 ec3e
000000d0: 4dc5 6abe 5212 2b3f 0f82 36be 236f a43c
000000e0: 01f8 973e 93e0 94bf 0dc8 823e 459b a43e
000000f0: eead 813e 841a 933d d50c ae3e 0827 87be
00000100: 1da3 f43e e4b1 12bf fd8c 8dbe 60c9 24be
00000110: ce2f 7ebe 5e68 f0bd e41f 8a3d 09fb 5b3e
00000120: 444f 86bc a28e 48be b480 6e3e 6425 8b3e
00000130: e498 a33e 27b2 3b3e ae93 af3d 58cb 03be
00000140: 6b18 a43e 70d4 c4be e0a4 963e df46 ae3d
00000150: 5ad8 28be f93d a7be 5f3c c5be 7ac1 f2bc
00000160: 2a88 403f 35da 55be 9a1a 693e de88 293e
00000170: 4874 5abf e700 7f3e ffeb 223e d136 e93d
00000180: 0431 13be ffaf d43e 11d7 2b3e 2cc6 b43e
00000190: 4c32 1cbe 49c9 773d 4fd7 c8be 619b 533e
000001a0: b5c0 fc3e 09c8 88be 41c2 413f 1587 1ebf
000001b0: 38e1 623d d6c1 9abd 107d 89be 02d8 7bbe
000001c0: 3e85 ae3d 128c 183e 2fa0 12be b701 0e3e
000001d0: 9ce9 af3d 5501 8a3e 6f91 5c3d e91b 183e
000001e0: 4505 b5bd 59b6 c93e 17f2 913d c509 19be
000001f0: 89f4 783e 046d 32bd ecc2 9f3c 22f9 2bbe
00000200: d93c 823e 399a 913b 391f 283f 40e4 85be
00000210: 129d 87be 5cf8 ab39 b859 843e d465 f93e
00000220: 0e56 14bc 3b99 143f 39ec 9fbd 7534 d4be
00000230: 03a7 bdbc 07df 3fbe 6ffc 9c3e 96ae 23bd
00000240: 3a9b c03e 14a3 e3bc e889 84bc 7f0d acbe
00000250: 2c09 ab3e 3e8d d4bd bdd8 2ebe 47e3 81be
00000260: 478d 013e 6608 083f 93b7 9d3e 972d dd3e
00000270: f0ee 12be 11fb b13e eff2 c2be 4deb d43e
00000280: ea5e 2dbe 573c d6bd 5a65 9ebe 0262 3dbe
00000290: 11a7 8e3e d328 38be ef44 6ebe 8e4f 2a3f
000002a0: 7cba b73b 56fa 7cbe 596e 50be fee5 74be
000002b0: deb9 7a3b e7ca 9d3e 02d8 88be 03c7 21bb
000002c0: 3f39 34be 7c24 fc3c fc4a dbbd d366 973d
000002d0: c4da 73be 7a50 5fbe 6161 26bd 5c2a 153e
000002e0: adf9 923e 12b4 f33c 0802 a13e 385f 08bd
000002f0: 85b4 5a3e 1d0d c53d 1bfb 543e b9a1 85be
00000300: 0fd2 033e f4e8 673e b269 993e 3634 b13e
00000310: 5c3a 62bd cc70 3a3e b5a5 223e ca75 3fbe
00000320: 6eda 47be e04b 74be 5d4d 453d a8d3 0f3e
00000330: dabd 25bd ef3a b63e 1144 9a3e 6cfc 5f3e
00000340: 2dfa 4d3d 74dc 4a3d 67c7 8dbd 085b f63e
00000350: a6f2 5a3e 2fdb a0bd a414 933e 28e7 94be
00000360: 99be b4be 70b6 253c b4e0 c23e 9fd2 d7be
00000370: 9ee4 6b3c 6263 e3bd 4940 293e e8aa aa3e
00000380: 7fef 96be 58b4 1c3f f85b 22bf ecfc 10bc
00000390: 62ec 0ebe 2bf4 1fbd 191f 67be 4451 c33e
000003a0: 38d8 013e 0750 f0bc 9999 9f3d a7bd e9be
000003b0: 4758 ef3e c896 a63e 42ce 423d d3a6 c7bd
000003c0: 3e84 86be f225 cb3d 1756 8e3e 7a52 1abe
000003d0: 976f 013f ec74 b23e 0f06 b33e 27e8 41be
000003e0: e071 993e aded 1cbf 9930 023f d1e7 0cbe
000003f0: 408d 6c3e b738 a6bd b01e 70be b82e df3e
-0.3114701 -0.03445214 0.55907077 0.522141 -0.12030512 0.049611516 0.040147282 -0.09240197
-0.11747775 0.2981706 -0.2682427 0.41374502 -0.1265477 -0.06720445 0.18968649 0.48133907
-0.23551291 0.07954306 -0.2501338 0.10225086 -0.09327679 -0.33404568 0.6807664 -0.26740196
-0.28199202 -0.2208826 -0.16255936 0.2667976 -0.19667354 0.3891748 0.4488538 -0.120225765
-0.27459157 0.06365577 0.116541035 0.05698794 0.46967658 0.1272252 -0.32329896 -0.15445723
-0.35381517 -0.39591047 -0.08716826 -1.8664422 0.56059384 0.2588173 -0.11397417 -0.19704701
-0.15306015 -0.047290444 0.38752785 0.46180594 -0.22926827 0.6682483 -0.17823051 0.020072525
0.296814 -1.1631035 0.25543252 0.3214971 0.2532801 0.07182792 0.33994165 -0.26396966
0.47780696 -0.5730269 -0.27646628 -0.16092443 -0.24822924 -0.117386565 0.06744364 0.21482481
-0.016395219 -0.1958566 0.23291284 0.27176964 0.31952584 0.18329678 0.085730895 -0.12870538
0.3204988 -0.38443327 0.29422665 0.08509611 -0.16488782 -0.3266447 -0.38522622 -0.029633272
0.7520777 -0.2088402 0.22764054 0.16556117 -0.8533368 0.24902688 0.15910338 0.113874085
-0.14374167 0.41540524 0.1678126 0.35307443 -0.15253562 0.060494695 -0.39226767 0.20664741
0.49365774 -0.26715115 0.7568703 -0.6192487 0.055390567 -0.075565025 -0.26853228 -0.24594119
0.08521508 0.14897183 -0.14318918 0.13867842 0.08589479 0.2695414 0.053849634 0.14854397
-0.08838896 0.39396933 0.07126253 -0.14945133 0.24312033 -0.043560997 0.019502126 -0.16794255
0.25437048 0.0044434336 0.6567264 -0.26150703 -0.26487023 0.00032800704 0.258497 0.487105
-0.00905372 0.5804631 -0.07808728 -0.41446272 -0.023150926 -0.18737422 0.30661342 -0.03996142
0.37618428 -0.027787723 -0.01617904 -0.33604047 0.33405435 -0.10378502 -0.17074867 -0.2536871
0.1265155 0.53137815 0.3080412 0.43198845 -0.1434896 0.3476186 -0.3807597 0.4158577
-0.16930738 -0.10460728 -0.309367 -0.18494418 0.27861837 -0.17984323 -0.23268484 0.6652764
0.0056069475 -0.2470487 -0.20354594 -0.2391586 0.0038257758 0.30818865 -0.267273 -0.002468527
-0.17599963 0.030779116 -0.107076615 0.07392659 -0.23813921 -0.21808043 -0.04062021 0.1456694
0.28706113 0.02974895 0.31446862 -0.033293933 0.21357925 0.09621642 0.20798914 -0.26099947
0.128731 0.22647458 0.29963452 0.34610146 -0.055231437 0.18207091 0.15883525 -0.18697277
-0.19516918 -0.23857069 0.048169482 0.14045584 -0.04046426 0.35591838 0.30130056 0.21873635
0.050287414 0.049526647 -0.069227986 0.48116326 0.21381626 -0.07854306 0.28726685 -0.29082608
-0.35301664 0.010114297 0.3806206 -0.4215288 0.014397768 -0.1110294 0.16528429 0.33333516
-0.29479596 0.6121268 -0.63421583 -0.008849364 -0.1395736 -0.039051216 -0.22570457 0.38147938
0.12680137 -0.029335035 0.07792968 -0.45652506 0.46747038 0.32536912 0.047559984 -0.09748616
-0.26272768 0.09919347 0.27800056 -0.15070525 0.505609 0.3485483 0.3496556 -0.18936215
0.29969692 -0.61300164 0.50855404 -0.13760306 0.23100758 -0.08116286 -0.23449206 0.4359033

gcn_mu.bias f4 [32]
00000000: 0d00 6f3d aade d4bc 2037 aa3d 7e74 af3d
00000010: 6f7f a13d 46f2 a63d 5cfa 103d f947 ed3c
00000020: e77e 6b3d b00e 863d 9664 073d d6ea ab3a
00000030: 1845 19bc 5da9 03be f372 743c 4e97 a0bc
00000040: 6944 423d 8b85 d6bc 12da 053d 7c25 cdbd
00000050: b5b2 35bc 1b20 e8bc 1ff9 443d d60d f4bc
00000060: ea12 c3bc 6a79 36bd cc2c ae3d 366f c5bc
00000070: 1a7c 97bd e4f0 033d 1b65 a93c 7b4e d0bc
0.058349658 -0.02598508 0.083112955 0.08567141 0.07885634 0.08151679 0.03539501 0.028964983
0.05749407 0.0654577 0.03305491 0.0013116251 -0.009354852 -0.12857576 0.014919984 -0.019603398
0.047428522 -0.026186725 0.03267867 -0.10016915 -0.01108997 -0.028335622 0.048089143 -0.029791754
-0.02381273 -0.044549383 0.08504638 -0.024100881 -0.07396717 0.032212153 0.020678094 -0.025428047

gcn_mu.lin.weight f4 [32, 64]
00000000: e96a 43bd 9f0f 20bd 74be acbd 54e5 0a3d
00000010: e32a 673e 4ba5 2cbe 366e 8abf 1797 2bbe
00000020: b2b0 44be cdb1 0abe d482 2bbd 7806 f13d
00000030: a8cd 663e 9330 7d3d 8914 113e 9bfc 18bc
00000040: 25a2 353d fc38 903e 38a1 66bd d211 2bbe
00000050: ac4c 543e 2e81 e73e ca3a 253c bba8 033e
00000060: 8980 06be d76f 0cbe 7666 b3bd 4cfd 993d
00000070: 9070 113e 3328 0f3e 39f4 17be abfe 483e
00000080: db09 51be f2fc 853e 1f87 2cbe 88b5 b63c
00000090: c311 f23d b630 a2bd ecae 3f3e a908 cbbd
000000a0: 5857 c4be 47ac dbbd 2a7a b23d 1f5c 63be
000000b0: 9476 62be 4364 383b c3b1 0dbe c01d b83d
000000c0: fd8c c53c 098b 6b3e 0c7e 9bbd 5f2b 75be
000000d0: 7fe4 92bd ce3d 623d 8684 4bbe f053 083e
000000e0: 75ef 293d f890 a2bd b691 8a3d bc9a c4bd
000000f0: 9dc1 6d3e fcd5 5abe b598 313d a85b 54bd
00000100: eb02 1a3e 9a87 683e 1e0a e7bc 319c bdbd
00000110: 6736 4b3e 2058 e73c 2fb0 f8be 024b 2fbe
00000120: 1a58 8c3d 5db8 bbbe d8ca 103e ee70 ec3d
00000130: a012 133e df42 3fbd c821 2b3e 6454 49be
00000140: e2e1 d13c ea94 8abd 6a8f b23b 6b76 383e
00000150: 02fb acbd da16 8b3e 448c b83d c6a1 d0bd
00000160: 3300 9e3e b140 d53d f9df d5bd 723f 323e
00000170: bbda bf3d 0e23 d3bd 7388 8dbd 971f fa3d
00000180: 5647 74be f5b9 3abd 21bc 1bbe 287c e53d
00000190: b813 50bd ea61 7c3d 5585 a33d 43be c3bd
000001a0: 1777 a03d f68d 60be 6f1c 5bbb 47cb 13be
000001b0: 975a 97be 4084 65bd d5f1 83bd 72f8 51bc
000001c0: 2572 203e 8b6e ff3d c952 f4bc 7334 11bd
000001d0: 00c3 87be 2d28 22be 64ed 87be 5bee a6be
000001e0: 6119 fd3d 83af 89bd 8589 6ebd 80d7 b13d
000001f0: 3219 3cbe d059 c4bc e1c8 7dbd 0144 abbc
00000200: efc8 ad3d 2c60 52be 7517 843d 0ccb 063f
00000210: f714 973e 542b 3ebe 0adf 033e 68f8 02be
00000220: c66a 93bd e554 b43e 7092 debd b699 36be
00000230: 57d3 3cbe 8d55 813e 5e6a 02be b9e6 d03e
00000240: 85ea c9bd 4cfb 1a3d beb0 bc3d f588 e8bd
00000250: a2cb a7be e1c1 033f e82c 1cbc 7482 3f3e
00000260: 466c 133e 0de0 633e 6800 393e 4137 3ebe
00000270: 913f 313e f82a a8bd 2305 88be 4707 33be
00000280: a9d1 873d ba11 54be b00e f73d 34bf 563d
00000290: dd43 ad3d 62b6 02be d399 90bd 23da 3fbe
000002a0: 00ba 0c3f 7404 30be 11e0 c73d 886f fdbd
000002b0: cfbb 3cbd dc70 f1bd e721 a23e 1eca c13e
000002c0: b9e9 60be 9fa7 90bd ebed 1dbe 3bfb debe
000002d0: 0d0c 5abe 8bf4 893e 8233 bf3c 4f15 fe3e
000002e0: bdc5 2c3e 2ae1 3ebd 5fd2 12bd 881c 753e
000002f0: b920 763e bfe5 113e 9e1e 70be 055d 64be
00000300: 1e19 853c eb80 a33c e5b8 aabe 9f08 173f
00000310: cacd 8b3e d3ba 9abe 7fe4 3b3e 6fa5 6abd
00000320: d02b a73e b68a 453e 70ef 38be 019c a3bd
00000330: a54f 483e 1005 753e 315a a4bd d1ee 2b3f
00000340: 0110 c63c 06bc 05be 8ffe 2bbe 7584 0a3e
00000350: c6ba 85be 2684 c73e d2dc 403d 57d5 ce3e
00000360: 2076 e53d e7eb 2fbe 0742 7abe 7810 21be
00000370: 1b28 303e 6240 45be 366e 5dbe b3c1 dabd
00000380: 1777 1a3f 5f65 babe a4cf 3a3d 792d f1bd
00000390: dd8f 9fbb 815e 42be 017c 123d e460 593d
000003a0: d5b0 f43e e48a d73b 8c72 263d f922 f13e
000003b0: b934 203e f1ce 4fbe 521e d83e d005 833d
000003c0: e5ea 17be 00d1 4abb 4693 67bc 1b23 14bf
000003d0: 39d7 4fbd e3f2 393e 3f95 0d3f de69 2a3f
000003e0: cc79 bf3c 1c8d 9abe 208d 2bbb 6c5a f23d
000003f0: cb6d 1c3d b2c9 863e 1c69 a2bc c38b 17be
-0.04770938 -0.039077397 -0.084347636 0.03391011 0.22574954 -0.1685993 -1.0814884 -0.16756855
-0.19208029 -0.13544388 -0.041872814 0.11768812 0.22539389 0.061813902 0.1416799 -0.00933757
0.044344086 0.28168476 -0.056306094 -0.16706017 0.20732373 0.45215744 0.010084817 0.12857334
-0.1313497 -0.13714539 -0.08759777 0.07519016 0.14203095 0.13980179 -0.14839257 0.19628398
-0.20413916 0.26169544 -0.1684842 0.022303358 0.11819794 -0.07919447 0.18719071 -0.09913761
-0.38347888 -0.10726219 0.08714707 -0.2220311 -0.22115546 0.0028135933 -0.13837342 0.08990049
0.02411508 0.23002256 -0.07592401 -0.23942326 -0.071724884 0.055234723 -0.19874772 0.1331327
0.04148813 -0.07937807 0.067660734 -0.09599826 0.23218389 -0.21370691 0.043358523 -0.051845223
0.15040176 0.22707978 -0.028203066 -0.09258307 0.19844972 0.028240263 -0.48571917 -0.17118457
0.068527415 -0.36664096 0.14139879 0.11544977 0.14362574 -0.046694633 0.16712105 -0.19661099
0.025620405 -0.06766684 0.005449225 0.18013923 -0.084463134 0.27165872 0.090111285 -0.10187106
0.30859527 0.104127295 -0.1044311 0.17407015 0.093678914 -0.103094205 -0.06910791 0.122130565
-0.23855338 -0.0455875 -0.15208484 0.112053216 -0.050800055 0.061616816 0.079844154 -0.09557774
0.078352146 -0.21929154 -0.0033433696 -0.14433013 -0.29561302 -0.056034327 -0.0644261 -0.012815582
0.15668543 0.12472256 -0.029824631 -0.03545041 -0.2651596 -0.15835638 -0.26548302 -0.32603726
0.12358356 -0.06722929 -0.058236618 0.086836815 -0.18368986 -0.023968607 -0.06195915 -0.02090645
0.08485591 -0.20544499 0.064497866 0.52653575 0.29508182 -0.18571216 0.12878051 -0.12790072
-0.071981 0.3522102 -0.108677745 -0.17832074 -0.18439995 0.25260583 -0.12735888 0.40801027
-0.09859184 0.03783731 0.092133984 -0.113542475 -0.32772547 0.5146771 -0.009532191 0.18702108
0.14396772 0.22253437 0.18066561 -0.18575765 0.17309405 -0.08211321 -0.2656642 -0.17483245
0.066317864 -0.20709887 0.12063348 0.05242844 0.084602095 -0.12764886 -0.0706059 -0.18735556
0.54971313 -0.17189199 0.09759534 -0.123747885 -0.046077546 -0.11789104 0.3166649 0.37849516
-0.21964158 -0.07063221 -0.1542279 -0.4355105 -0.2129366 0.26944384 0.02333999 0.49625632
0.16872306 -0.046601452 -0.035845157 0.23936665 0.2403592 0.14247797 -0.2344918 -0.22301109
0.016247328 0.019958934 -0.33344188 0.5899753 0.27305442 -0.3022066 0.18348883 -0.057286676
0.32650614 0.19291195 -0.18060088 -0.0798874 0.19561632 0.23927712 -0.08025015 0.6716128
0.024177553 -0.13060006 -0.16796325 0.13527091 -0.2611906 0.3896801 0.04708559 0.4039714
0.11204171 -0.17179833 -0.2443925 -0.15728939 0.17202799 -0.19262841 -0.21624073 -0.106814764
0.60337967 -0.36405465 0.045608178 -0.11776251 -0.0048694448 -0.18981363 0.03576279 0.053070918
0.47791162 0.0065778363 0.040636584 0.47096995 0.15645112 -0.20293786 0.42210633 0.06397593
-0.14835699 -0.0030947328 -0.014134234 -0.57866067 -0.05074236 0.1815906 0.55305856 0.6656779
0.023373507 -0.30185783 -0.0026176646 0.11833653 0.038190644 0.26325756 -0.01982551 -0.14799409

gcn_logvar.bias f4 [32]
00000000: 9c6c 41be 8584 5abe ea73 6dbe 6fb0 67be
00000010: aee9 5fbe 8d86 59be 2da9 5abe e105 69be
00000020: e01d 29be c450 85be 8674 44be 12f9 62be
00000030: 9ff2 6cbe b98a 16bf 7146 35be c121 8abe
00000040: b0fc 64be ed8a 5dbe 0bd0 4ebe d78a 63be
00000050: 4d10 5fbe efc6 33be 58a6 5bbe 1170 54be
00000060: 61d4 7bbe abbd 5cbe a9f0 6abe d260 5cbe
00000070: 6990 69be 9d78 82be 4701 77be 2497 54be
-0.18889087 -0.21339615 -0.23188749 -0.22625898 -0.21866485 -0.21242733 -0.21353598 -0.22756149
-0.16515303 -0.26038182 -0.19185075 -0.22165325 -0.23139428 -0.58805424 -0.17702653 -0.26978877
-0.22362018 -0.21635027 -0.2019655 -0.22220932 -0.21783562 -0.17556356 -0.21450174 -0.20745875
-0.24592735 -0.21556728 -0.22943367 -0.21521309 -0.22808994 -0.25482646 -0.24121581 -0.2076078

gcn_logvar.lin.weight f4 [32, 64]
00000000: f2c4 1fbe 0f8b 9a3d fcc2 18be 0bfa 6b3c
00000010: 5953 1dbe 2387 3f3d 5715 68be a8d9 14be
00000020: 030c 0b3e ea59 b33d ef12 99be 341f 263c
00000030: d3b3 04be ca21 0bbe c6aa 73be 545d 23be
00000040: 8e7a bbbd f89f 25be 37c6 de3a b429 d9bd
00000050: 9d7d e13d 2bea 483e b0a0 debe bb75 903d
00000060: 87de 3fbd 212f 6d3d 7ec8 a7be c423 eebe
00000070: c016 d63d 3548 0abe 4399 5ebd 0595 b7bd
00000080: cac3 18bd d6cb cdbe 983e e83e 6b61 02be
00000090: 0516 acbb 2a90 d3bd 13ff 8bbe dd22 11be
000000a0: 1e36 c8be 2fb0 acbe 51f6 05bf 842a 80be
000000b0: 58c5 91be a8ca dbbe e084 993d c5f9 9ebc
000000c0: 3fa4 cebe c9cd d0be b8eb 0bbe 9636 7bbe
000000d0: ec8b b4bd c007 bbbe f804 8d3e d2d9 93bd
000000e0: cd92 cfbe a81b 13be e1f2 65be b852 3bbd
000000f0: c3a1 0bbe 91cb 633e 6c59 72be ad6e 49bd
00000100: 8a9e cb3d aede 4f3d 611f 19bd a91f c03d
00000110: c4c9 4c3d 7d32 68be aa5e b0be 0163 cdbe
00000120: 4b2e 77bd 4031 973e 3235 abbe f868 adb8
00000130: b938 94bd 4b20 19be 1bc3 08bd 7927 8e3e
00000140: 5646 c5be 05b6 2bbe 2c0c 3ebe 23ee ebbe
00000150: dc5c e33d 7208 283e 8167 74be 0716 243e
00000160: 2952 cb3e b06a 8a3d 0d49 f9be 5fb3 ecbe
00000170: 653c 903e 0f55 97bd 5812 b1be fe5e b3be
00000180: c0b5 683e f0b9 8fbe 2457 053e a99a c5be
00000190: 9feb debe e772 9cbd b569 ab3d 12c4 81be
000001a0: 1bbd 13be ef0f 813c 1654 98be bc7c e8bd
000001b0: 219e 8cbb bdd8 a0bd 53eb 7b3e 51b8 053e
000001c0: 875b f3be da7a 3ebe dbf2 393d 0e61 a6be
000001d0: 522e e2bd 6ddd dcbe 99d3 02bd 2882 0a3e
000001e0: af90 09bc 6337 e7be 2ad0 fcbc 7ae8 263e
000001f0: 7f94 0ebe 5024 253e 8375 c4be b5a1 7b3d
00000200: 691b aabe ac91 babe 2737 74be f77f 5cbd
00000210: f3a1 813d de07 30be dfdc afbd f874 adbe
00000220: ca0c a7bd 99df e93e 372a 98be f8b9 57be
00000230: cb17 13bc eb77 adbd e6e1 ffbd bec8 a03e
00000240: 69d5 8cbe 480a acbe 9ee1 7dbe be5a 84be
00000250: 9da2 79be f1e9 d03d 9d5b e0be 3b6d 8fbc
00000260: a6d7 623b 1688 da3d b94c a2be 25d8 acbe
00000270: c48e ff3d 6150 cebd 684c c2bd c27a 8cbe
00000280: f814 8a3e b4d5 b5be e124 743e 1a22 99be
00000290: 3016 68be 4e88 89be 466b 32bd 47b8 bebe
000002a0: babe b5be 2b95 b2be 3ca5 aebe 2c95 ecbd
000002b0: a5cc 82be 7322 7cbe f3c4 8bbd b898 723c
000002c0: eede c6bd 6082 a8be f70e a3be a69c 79bd
000002d0: 7892 dfbe 8a49 babd bc3d ba3e e467 fbbc
000002e0: 7f66 d8bd 6aa6 edbe 9a90 c93a 0647 27be
000002f0: 27f6 1abe de36 653e 3c19 ff3a 6720 d2bc
00000300: 6acf 143d abaf 55be c23e 9bbe b0f1 f3bc
00000310: 4767 83bd 85f6 cdbe ef50 7bbe 335f babe
00000320: 903b 6dbe b3ba 783e 878d 85be 7d50 03be
00000330: 6723 43be 64e8 72be 98f6 b8be 2152 473d
00000340: eddd 91bd b647 03bf 2258 25be 9013 c7be
00000350: 3757 38be cb26 7d3e db41 4dbe 1514 cdbe
00000360: f229 723d 09b1 993c f284 a6bd b164 e7be
00000370: 09d1 7abd b6f6 c5bd d86b 80be 8db2 c7be
00000380: 84a5 1bbd dbec 89bd 3457 4abe 6c3b 98be
00000390: 01a4 a1be 0124 82bd 96a1 d9bc fe25 52be
000003a0: 0a85 96be ac8a 5a3d 2afc bdbd f452 573d
000003b0: c888 d3bd a8e4 c1be ec0e 473e 5388 43bc
000003c0: 638c 69be 0406 9fbe 030c b9be 120b 093c
000003d0: b883 693d c1f8 46be 78ca 363e aad8 32bd
000003e0: 3861 bfbe ddfa e5be ccbf 54bb e697 5f3e
000003f0: 3954 1cbe 8486 7bbd 315e 9ebe ed6f a03d
-0.15602472 0.075460546 -0.1491813 0.014402877 -0.15363826 0.046759736 -0.2266439 -0.14536154
0.13578801 0.08757384 -0.29897258 0.010139275 -0.12959222 -0.13587108 -0.23795614 -0.1595357
-0.09154235 -0.16174304 0.0016996328 -0.10603657 0.11010287 0.19620578 -0.4348197 0.07053705
-0.046843078 0.057906274 -0.3277015 -0.46511662 0.10453558 -0.13504107 -0.05434538 -0.0896397
-0.037296094 -0.40194577 0.45360255 -0.12732475 -0.0052516484 -0.103302315 -0.27343044 -0.14173456
-0.39103788 -0.33728167 -0.52328974 -0.25032437 -0.28470874 -0.42928052 0.07496047 -0.019406209
-0.40359685 -0.40782002 -0.13664138 -0.24532542 -0.088157505 -0.3652935 0.27542853 -0.0721928
-0.40541688 -0.14366019 -0.22455932 -0.045733184 -0.13635926 0.22245623 -0.23666924 -0.049177814
0.09942348 0.050749473 -0.03738344 0.09381039 0.049997106 -0.2267551 -0.34447223 -0.40114596
-0.060346883 0.29529762 -0.33439022 -8.268835e-05 -0.072373815 -0.14953725 -0.033389192 0.2776449
-0.38530225 -0.16768654 -0.1855933 -0.4608012 0.11101696 0.16409472 -0.23867609 0.16024028
0.3971112 0.0675863 -0.48688546 -0.462306 0.28171077 -0.073892705 -0.34584308 -0.3503341
0.22725582 -0.28071547 0.13021523 -0.3859456 -0.4353914 -0.076391034 0.083697714 -0.25344902
-0.14427607 0.015754668 -0.29751652 -0.11351916 -0.0042913114 -0.078538395 0.24601488 0.13058592
-0.47530767 -0.18601552 0.04539762 -0.32495922 -0.11043991 -0.43137684 -0.031940077 0.13526213
-0.008396312 -0.45159444 -0.03086098 0.1629962 -0.13923834 0.16127133 -0.38370904 0.061433513
-0.33224037 -0.36439264 -0.23849164 -0.053832974 0.063297175 -0.17190501 -0.0858705 -0.33878303
-0.08156736 0.45678404 -0.29719707 -0.21067035 -0.008977841 -0.08470138 -0.124942586 0.31403154
-0.2750657 -0.33601594 -0.24793097 -0.2585048 -0.24378438 0.10200871 -0.43819895 -0.01750814
0.00346134 0.106704876 -0.3169916 -0.33758655 0.12478402 -0.10073925 -0.094872296 -0.27437407
0.26969123 -0.35514605 0.23842193 -0.2990883 -0.22664714 -0.26861805 -0.043559335 -0.37249967
-0.35497075 -0.3487943 -0.3411044 -0.1155189 -0.25546756 -0.24622516 -0.068246745 0.014806919
-0.09710489 -0.32911968 -0.31847355 -0.060940407 -0.43666434 -0.09096058 0.36375225 -0.030689187
-0.105664246 -0.46416026 0.0015378178 -0.16335687 -0.15132962 0.22384211 0.0019462476 -0.025650216
0.036330618 -0.20867793 -0.30321318 -0.029778332 -0.06416183 -0.40227142 -0.24542592 -0.36400756
-0.23167253 0.2428997 -0.2608454 -0.12823673 -0.19056474 -0.23721462 -0.36125636 0.04866231
-0.07122407 -0.512813 -0.16146901 -0.38882113 -0.1800202 0.2472183 -0.20044653 -0.40054384
0.059122033 0.018761175 -0.08130826 -0.4519401 -0.061234508 -0.09666197 -0.25082278 -0.3900341
-0.037999645 -0.0673463 -0.19759828 -0.29732835 -0.31570438 -0.063545235 -0.026566308 -0.20522305
-0.29398376 0.053354904 -0.09276612 0.052569345 -0.10328823 -0.37869763 0.19439286 -0.011934358
-0.2280746 -0.31059277 -0.36141977 0.008364456 0.057010382 -0.1943083 0.17850673 -0.04366366
-0.3737886 -0.44917956 -0.0032462953 0.21835288 -0.15266503 -0.06140758 -0.30931237 0.07833848
