miniproject2/experiment_2/model.pt (torch, 140599 bytes, 37 tensors)

prior.mean f4 [2]
00000000: 0000 0000 0000 0000
0.0 0.0

prior.std f4 [2]
00000000: 0000 803f 0000 803f
1.0 1.0

decoder.decoder_net.0.weight f4 [512, 2]
00000000: 3a04 6a3e dcf0 c8bd 5a07 9a3e e997 3ebb
00000010: 0c1d f93e 93d1 cf3a 100c 853b b57c 1fbf
00000020: fe0c c53d 36cb 21bf 8518 cd3d 710d a5bc
00000030: 42ed 1fbe 245a 383f eb40 6b3d 3a4b 9f3e
00000040: c4bf a93e a78a 06bf 5242 a4be 470a 3b3f
00000050: a0aa 51bf 5806 d4bc 8be4 e6bc 3e15 003f
00000060: 9656 c6bd 56f4 423e 5d4b 7dbd aa91 d9be
00000070: 75b7 adbe 588e e7be 1e83 3cbf adab febe
00000080: 5f70 3e3d 4412 093f 2fee f63d dda3 e5be
00000090: 8e91 aa3e 4cff ccbe caf2 53be 5378 b6be
000000a0: c2ce 8dbd 21ab 28bf 4f67 b13e 087d 683e
000000b0: a807 e5bd 6759 e73e 07d3 a03e 1f13 513e
000000c0: 50c9 933e 569f 89bc 3f64 c43e a41f d83e
000000d0: b217 4e3f 3cbf bb3e 41d0 31be 52b4 0fbd
000000e0: 4f18 1abe ef2e cc3e b211 773d f9ce 3a3f
000000f0: d4ae 943e be2d 50bf bc54 4b3e af12 033f
00000100: b94e 043f ef51 44bd cd84 4b3e 7ed8 17bf
00000110: c62f 62be f00a 153f a847 70bf 0db7 4b3f
00000120: f861 86be 0787 9f3e 0bfa 8abd 75b2 163e
00000130: 89fe 413e 03ee 1dbf 8bc1 f2bd 5d51 bbbe
00000140: e6bc e13e d463 6ebe e3c2 1ebf f77a 013e
00000150: 2fd5 fb3e 59db d8be 18fa 2cbe f3d3 c53e
00000160: 5a27 e3be d28d bdbe 4d13 60be 2c8d d0be
00000170: 27d8 b0bc d60a 44be d155 3e3f 434a 1b3e
00000180: 06b2 eebe ea83 00bf b388 0abf 0a62 a9be
00000190: e371 c9be 666e 02be 09ef c5be 3a3b 723e
000001a0: 1f0f cb3e 55d1 823e 3785 2c3f 83b7 b43e
000001b0: d760 fbbe 7546 66bb abcf a43e 2dc3 12bf
000001c0: ff01 84be 8063 5bba bbb1 fcbe 8b5b 79be
000001d0: 5b50 43be c396 343f 06fc dfbd 9792 dc3e
000001e0: 1793 c13e 8637 933e 917c 31bf 4753 3a3f
000001f0: 353a 543f ef00 f4be f23c 96be 261b ed3e
00000200: 0cbd f5be 094c 27bf 0720 14bf ce2f 7a3e
00000210: c239 32be e0e9 1bbf d822 433e d5e6 ba3e
00000220: baba 6a3e 48db 27bf d70e 553f b2a5 28be
00000230: 2c68 18bf 2157 a5bd fa68 e83e dabd 8f3e
00000240: 1a09 37bd 013e 0a3f 7a12 2ebf 1102 0d3f
00000250: 4da4 1c3f 9794 23bf 887f 9d3e 101b 9dbd
00000260: a859 12bf e6fe 503c 023f adbe 88ca 17bf
00000270: 6868 16bf c563 c93c ea07 1e3f dfc4 993e
00000280: 09d9 10bf e2ba 0d3f e9bf 3a3d f121 38bf
00000290: ed3e f03d 4074 df3e 4e44 1dbf 78cc 7b3d
000002a0: 98c9 bbbe 46d4 0ebf 3060 06bf ccad 8a3d
000002b0: 2db5 393f 2ae3 81bd 3b74 1abf 7a52 0fbe
000002c0: 8203 0abf 3ef2 25bd fbe4 263f 242a be3e
000002d0: 897e f8be fbc0 9bbe cdde e23e feb7 593e
000002e0: 48e7 21bf 78ed d5be f991 51be dc72 513e
000002f0: 21d1 d33e a644 cf3e 1068 c93e e80c 25bf
00000300: 5f02 bd3e 83db d33e 61dd e23c 7f6a bfbe
00000310: 0e14 5cbd b681 e1be dcec d63e 646b 2e3f
00000320: a3f3 2fbd b06c e2be 7bb8 d9be bae6 fbbe
00000330: 3a52 96be bd04 093f 4c17 1d3e f8c5 21be
00000340: 0f69 4ebe 0ad5 bdbe 0a06 f5be 6166 41be
00000350: 1e2d 0f3e 6b7f c1be 4cd5 26bf 2b31 5d3d
00000360: 03bb 233e f980 b3be e36d 843d c0da 1b3f
00000370: 4f1a 053e e3f1 0bbf 4cdb 293f 051e 023f
00000380: 083d f1bd 2b76 96be bd86 8fbe bd5e 293f
00000390: e184 343f 7975 d8be 1583 463e 736d 673e
000003a0: 9488 d43d 7ba6 05bd 0e4d c9be 493a 9ebb
000003b0: 8904 3dbe a986 8abe d9c8 f9bd cef0 9dbe
000003c0: 8678 82be 2abe 453e 95c7 26bf fa23 28bf
000003d0: 56a8 e33e 01e3 8f3e 12f6 863e efb9 9d3e
000003e0: 7cec 32be 7b8b 8ebe ff29 e4be f24b eebd
000003f0: bfb5 043d df1c 14bf b3ef 12bf 68af c13e
0.22853175 -0.09811565 0.30083734 -0.0029082245 0.48654974 0.0015855305 0.004060276 -0.6229966
0.09621619 -0.632007 0.10014442 -0.02014801 -0.1561785 0.72012544 0.057434957 0.3111208
0.33154118 -0.52555317 -0.32081848 0.73062557 -0.8190098 -0.025881931 -0.02818515 0.50032413
-0.09684484 0.1903852 -0.06183945 -0.42493945 -0.3392903 -0.45225787 -0.7363757 -0.49740353
0.046493884 0.53543496 0.12057149 -0.4485158 0.33314174 -0.40038526 -0.20698085 -0.35638675
-0.069242015 -0.6588612 0.3464913 0.22703946 -0.11183101 0.45185396 0.31411 0.2041745
0.28864527 -0.01679961 0.38357732 0.4221164 0.80504906 0.36669338 -0.17364599 -0.035084076
-0.15048335 0.39879557 0.06031961 0.72972065 0.29039633 -0.813198 0.19856542 0.51200384
0.5168262 -0.0479297 0.19874878 -0.59314716 -0.22088537 0.58219814 -0.9385934 0.7957619
-0.2624662 0.31157705 -0.06785973 0.14716513 0.18944754 -0.616913 -0.11853322 -0.36585513
0.4408943 -0.23280269 -0.62016124 0.12644564 0.49186084 -0.4235485 -0.16892278 0.38638267
-0.4436596 -0.37022263 -0.21882363 -0.40732706 -0.021587444 -0.19144759 0.74349695 0.15165047
-0.46620196 -0.50201285 -0.54114836 -0.3308261 -0.393447 -0.12737426 -0.38658932 0.23655406
0.39659974 0.25550333 0.6739077 0.35296258 -0.4909732 -0.003513721 0.32189688 -0.57329065
-0.25782773 -0.00083690137 -0.49354348 -0.24351327 -0.19073622 0.70542544 -0.109367415 0.4308059
0.37807533 0.287533 -0.693307 0.7278332 0.82901317 -0.47656962 -0.29343373 0.46309775
-0.47995794 -0.65350395 -0.5786137 0.24432299 -0.17404845 -0.6090374 0.1905626 0.36504236
0.22922793 -0.6556897 0.8322577 -0.16469458 -0.59533954 -0.08073259 0.4539259 0.28074533
-0.044686414 0.5400086 -0.67996943 0.5508128 0.61188203 -0.63898605 0.3076136 -0.076711774
-0.57168055 0.012756085 -0.33837134 -0.59293413 -0.5875306 0.024583707 0.61730826 0.30033013
-0.5658117 0.55363286 0.045593176 -0.7192679 0.11730752 0.4364338 -0.6143235 0.061474293
-0.3667724 -0.55792654 -0.5249052 0.067714304 0.7254208 -0.06342156 -0.60333604 -0.13996306
-0.539116 -0.040514223 0.65193146 0.37141526 -0.4853404 -0.3042067 0.44310609 0.21261594
-0.6324353 -0.41782737 -0.2046584 0.20453972 0.4137049 0.40482062 0.39337206 -0.6447282
0.36915872 0.41378412 0.027693452 -0.37385938 -0.053730063 -0.44044274 0.41977584 0.68132615
-0.04295696 -0.44223547 -0.4252356 -0.49199468 -0.2935961 0.53522855 0.15340918 -0.15798175
-0.20157264 -0.37076598 -0.4785617 -0.1888671 0.13982055 -0.37792525 -0.65169215 0.05400197
0.15989308 -0.35059336 0.06466272 0.6088066 0.12998317 -0.54665965 0.66350245 0.50827056
-0.11779219 -0.2938703 -0.28032485 0.66160184 0.7051526 -0.42277125 0.19385941 0.22600345
0.10377613 -0.03262947 -0.393166 -0.0048287255 -0.18458761 -0.27055863 -0.12196512 -0.30847782
-0.25482577 0.19310823 -0.6514829 -0.65679896 0.44464368 0.28102878 0.26359612 0.3080592
-0.17473024 -0.2784079 -0.4456329 -0.11635579 0.03239989 -0.57856554 -0.57397 0.37829137

decoder.decoder_net.0.bias f4 [512]
00000000: 867a d6bd 41d3 ebbd 24b2 b43e a1f4 923e
00000010: 5536 10bd 7533 233e 05cb aabc 5ac3 2f3f
00000020: b6d6 d4bd b398 093f 8f69 49bf f537 6f3e
00000030: 99eb 50be af77 0ebf 06b0 c83e 3300 9c3e
00000040: bd10 d3be 7f61 acbe a430 193f c30c 8f3e
00000050: 85f1 0fbf 1ab7 563d 5841 fcbd f0d8 003f
00000060: dd00 073f c6b0 d9be fe48 7cbe c703 18bd
00000070: 3d98 2dbf f263 333d 3259 103f 6884 213f
00000080: cb1c 183e 8f36 943e bb00 8e3e 88ea b33e
00000090: 78f3 ad3d 00e2 033f b159 603f 4468 043e
000000a0: 428f 30bf 223d 43bf b199 793c 44c5 a1be
000000b0: 8217 77be 58f0 c5be 7489 edbe 9450 0a3f
000000c0: e22c 80be 4d6b c5be 5892 1ebf 5e35 12bf
000000d0: 1757 f3be 5a06 2cbf 401f 03bf 0aaf 84be
000000e0: 25cf bd3e f6f7 eb3d 1fdc 373f a066 1e3f
000000f0: 0800 da3e 6386 bc3e 10bd 3ebe 3406 053f
00000100: bf67 8d3d af35 2abf 6e7b 1e3f 6fd8 1fbf
00000110: bc68 043e 7097 1a3f cbea b93e 03e0 19bf
00000120: c3f5 b83e 2ecc 1a3e 669e 16bd 0c01 4fbc
00000130: f50b 1dbf 10c5 1ebf 6ebd 1cbe 5917 f53d
00000140: 8ca4 2e3f 4eeb 57be 025e 22be 874e 083d
00000150: 9888 25bf 0ca8 963e 06db 8dbe c779 08bf
00000160: 42a0 27bf a217 103f 8996 f43e 54f8 e33e
00000170: 08e4 eabd 66de 213f 5c7f 58bd a506 88be
00000180: 208a 923d 5d88 1f3f 436e 75bf b564 1dbf
00000190: 2b60 d23e d39c cb3e d3ac 2cbf cc75 8dbe
000001a0: b7e5 85be caa2 883e 20bc 1c3f 8e90 0dbf
000001b0: 8a7e e9be ec71 573e 31ea 143f ae16 253b
000001c0: ae22 a9bd 1d8c 42be 9f2d 493f 49c0 e9be
000001d0: 635a 2abf c996 2d3f b71c 9a3d b794 54be
000001e0: 4e51 37bf fba9 22bd 7612 193d d4ac 75be
000001f0: 190b 473e 502f d63e 945e 1a3f 3567 493e
00000200: 298c a5be 2a88 d43d 5094 0dbf a8c8 b13d
00000210: 5c06 d43e 5b90 8f3e 559a 1bbf 0084 fc3e
00000220: 7e8a e03d 4611 b5be 418c 0d3f e86c 873e
00000230: 20e5 d8be 1259 36bf 7af8 f7be fea5 d93e
00000240: 925c 95be db0c db3e f4a7 c1be dc22 203f
00000250: a838 ee3e dab6 b43e 4e12 e0be 8489 ac3e
00000260: b0b8 d33e 278b cebe 975c b3bd e283 c73e
00000270: e618 2d3f 4b28 c3be 0f13 b43e 44bc ac3e
00000280: b021 093f d3e6 ff3d 3b94 a23f 8c1d 29bf
00000290: c73f 2cbf 8f1b 213e 13eb 10be 0917 833e
000002a0: c1dc 393e 930e 5b3d 3f51 09bf 3118 3a3d
000002b0: d717 173d aed6 513d 73b4 b8be 3a8a c13e
000002c0: 12c8 28be 386d 533f a1c2 22be 7af5 553f
000002d0: 4aac ae3e 6ec6 46bf 114f a23d 8c80 063f
000002e0: 2049 af3e 869e 983e 754c 49bd 6238 2a3e
000002f0: 180c 0ebe e001 88be 1ffd 45be e7d5 093f
00000300: 9473 bdbe ae5f 42be cb63 403f 5b4c e2be
00000310: eca4 20bf ff6e abbe 60b9 103f 2094 a6be
00000320: 3e75 073f 4899 acbd 623d f93d 0482 8b3e
00000330: 60f4 21bf d2d5 3bbf 9bdc 14be 62e4 533e
00000340: 4c19 b8be d5a6 f83e 6780 46bf cc7a 6f3e
00000350: c75e ac3d dd8d 433f 27f4 cdbe 9c48 8e3e
00000360: 4ccb bfbc 37d2 05bf 245e 563e c664 293e
00000370: 7b8d 073e ab1c fcbe 8777 2a3f c34d 913e
00000380: 6cc9 4cbe d4b1 243f 0682 383e 23b4 91be
00000390: 7129 dfbe 0960 333f 8302 b03e e9d6 94be
000003a0: 0c25 453d 4cfd c43e ff9f 2c3e f2d4 e93d
000003b0: d5a5 17bf 72f9 41bf f6ea 4abd 2879 18bf
000003c0: d6b9 1ebf 7dce 883d d9ef 0bbf 00b4 1c3f
000003d0: eea0 11bf ed6c a6be 4eb9 2bbf d0fb a1bd
000003e0: 2bee 7bbe 3200 923e 7083 473e cff5 27bf
000003f0: 71db a6be 81f9 f3bd 4a87 123e 04d9 0ebf
-0.10472588 -0.11514903 0.3529216 0.28702262 -0.035208065 0.15937598 -0.02084876 0.6865746
-0.10392515 0.53748626 -0.78676695 0.2336119 -0.20402373 -0.5565137 0.39196795 0.30468902
-0.41223708 -0.33668134 0.59839845 0.27939424 -0.56227905 0.052420713 -0.12317151 0.5033102
0.5273569 -0.4251768 -0.2463722 -0.037112977 -0.6781042 0.043796487 0.563861 0.6309266
0.14854734 0.28947875 0.27734932 0.3513987 0.084937036 0.51516724 0.8763686 0.12930399
-0.68968594 -0.76265156 0.015234397 -0.31595814 -0.24130061 -0.3865993 -0.4639393 0.540292
-0.25034243 -0.38558426 -0.6194205 -0.5711268 -0.47527382 -0.6719719 -0.5121956 -0.25914794
0.370721 0.11521904 0.71820253 0.61875343 0.4257815 0.3682128 -0.18626809 0.5196259
0.069045536 -0.66488165 0.6190709 -0.62439626 0.12930578 0.60387325 0.36311945 -0.6010744
0.36125 0.15116951 -0.036772154 -0.012634527 -0.6134637 -0.62019444 -0.15306637 0.11967344
0.6821983 -0.21085855 -0.15856174 0.033278015 -0.6466155 0.29425085 -0.27706164 -0.5331082
-0.6547891 0.5628606 0.477711 0.44525397 -0.11469275 0.6322998 -0.052855834 -0.2656757
0.071552515 0.6231745 -0.9587137 -0.6148179 0.41088995 0.39768085 -0.6745121 -0.27628934
-0.2615182 0.26686698 0.61224556 -0.552987 -0.45604354 0.21039551 0.5816985 0.002519052
-0.08258568 -0.18998761 0.7858524 -0.45654514 -0.6654417 0.67808205 0.07525008 -0.20759855
-0.71608436 -0.039712887 0.03737112 -0.2399171 0.19437827 0.41832972 0.60300565 0.19668277
-0.32333496 0.10377534 -0.5530443 0.0868085 0.41411102 0.28039822 -0.60782367 0.49319458
0.10963915 -0.3536474 0.55292135 0.26450276 -0.42362309 -0.7122966 -0.4843176 0.42509454
-0.29172188 0.42783245 -0.3782345 0.6255319 0.465276 0.35295755 -0.43763965 0.33698666
0.41351843 -0.4034054 -0.087578945 0.38967806 0.67616117 -0.3811668 0.3517079 0.33737385
0.5356703 0.12495198 1.2701486 -0.6606071 -0.67284817 0.15733169 -0.14152174 0.25603512
0.18150617 0.053480696 -0.53639597 0.045433227 0.03688797 0.051230125 -0.36075172 0.3780077
-0.16482571 0.8258853 -0.15894558 0.8357769 0.3411582 -0.7764653 0.07925237 0.52539897
0.34235477 0.29808444 -0.04914518 0.16623071 -0.13871801 -0.2656393 -0.1933484 0.53842014
-0.37002242 -0.18981811 0.7515227 -0.4419888 -0.6275165 -0.3348312 0.5653286 -0.32534885
0.5291327 -0.084276736 0.12169911 0.27247632 -0.6326351 -0.7337314 -0.1453728 0.2069259
-0.359568 0.48564783 -0.77539676 0.23386687 0.08416515 0.7638834 -0.40225336 0.27789772
-0.02341237 -0.5227389 0.2093435 0.16542348 0.13237564 -0.49240622 0.66588634 0.2837964
-0.19998711 0.64333844 0.1801835 -0.28457746 -0.43586305 0.70068413 0.34376916 -0.29070213
0.048131034 0.384745 0.16857909 0.11417569 -0.59237415 -0.7577125 -0.049540482 -0.5955987
-0.62002313 0.066800095 -0.54662853 0.6121216 -0.56886184 -0.3250498 -0.6707963 -0.079093575
-0.24602573 0.28515774 0.19483733 -0.6560945 -0.32589296 -0.119128235 0.14309421 -0.5579989

decoder.decoder_net.3.weight f4 [32]
00000000: b43f 783f 5031 823f 630d 833f 952a 773f
00000010: 2e4d 793f fac0 803f 769e 873f c606 773f
00000020: 5b96 883f 9ca2 7a3f 7543 843f 9074 823f
00000030: d232 843f 09af 863f 1bed 783f aa86 813f
00000040: ae3f 823f 430a 893f 1be9 893f 696b 893f
00000050: 1b8a 833f 3979 813f 55ab 813f ba5b 813f
00000060: 80ea 7f3f 822c 8a3f fc02 893f 20aa 853f
00000070: c9cb 883f 851c 863f 1a3d 853f c5a0 893f
0.96972203 1.0171299 1.023846 0.9654935 0.9738339 1.0058892 1.0595233 0.9649471
1.0670885 0.9790437 1.0333086 1.0191822 1.0328009 1.0522166 0.97236794 1.0119221
1.0175683 1.0706257 1.0774263 1.0735904 1.0276521 1.0115119 1.0130411 1.0106118
0.99967194 1.0794833 1.0704036 1.0442543 1.068719 1.0477453 1.0409272 1.0752188

decoder.decoder_net.3.bias f4 [32]
00000000: 1f7f d8bc fbe6 78bd a009 443d d9ea b6bc
00000010: f147 73bd 2183 393d 0a96 3ebc c1bf 7e3c
00000020: 5735 62bd 12cc ea3c b044 75bc 2441 8a3d
00000030: cba4 8bbc cc22 86bd 3500 15bd 7866 ac3c
00000040: 2d0e d53c 32d5 5ebc ab78 1f3d 9d8f 19bd
00000050: 9d04 91bd 5bda a3bc 9dc9 0cbd f42e b63c
00000060: 5544 8ebd d6d6 0d3e 5690 da3c 7913 6d3d
00000070: 1ad6 94bd a1da aebc 6b8a 463d c8d7 54bd
-0.026427804 -0.060767155 0.04786074 -0.022328781 -0.05939478 0.04529107 -0.011632452 0.015548647
-0.05522665 0.028661761 -0.01496999 0.06750706 -0.017046353 -0.06549606 -0.03637715 0.021044955
0.026007736 -0.013600634 0.038933437 -0.037490476 -0.07080958 -0.020001581 -0.03437196 0.022239186
-0.06946627 0.13851485 0.026680153 0.0578799 -0.07267399 -0.021344485 0.04847185 -0.051963598

decoder.decoder_net.3.running_mean f4 [32]
00000000: fcff 7f3e fcff 7f3e fcff 7f3e fcff 7f3e
00000010: fcff 7f3e fcff 7f3e fcff 7f3e fcff 7f3e
00000020: fcff 7f3e fcff 7f3e fcff 7f3e fcff 7f3e
00000030: fcff 7f3e fcff 7f3e fcff 7f3e fcff 7f3e
00000040: fcff 7f3e fcff 7f3e fcff 7f3e fcff 7f3e
00000050: fcff 7f3e fcff 7f3e fcff 7f3e fcff 7f3e
00000060: fcff 7f3e fcff 7f3e fcff 7f3e fcff 7f3e
00000070: fcff 7f3e fcff 7f3e fcff 7f3e fcff 7f3e
0.24999994 0.24999994 0.24999994 0.24999994 0.24999994 0.24999994 0.24999994 0.24999994
0.24999994 0.24999994 0.24999994 0.24999994 0.24999994 0.24999994 0.24999994 0.24999994
0.24999994 0.24999994 0.24999994 0.24999994 0.24999994 0.24999994 0.24999994 0.24999994
0.24999994 0.24999994 0.24999994 0.24999994 0.24999994 0.24999994 0.24999994 0.24999994

decoder.decoder_net.3.running_var f4 [32]
00000000: fe2b b23d 368e 9c3d a440 d83d 67cb b83d
00000010: 8df0 a03d 9055 c13d 55f5 c93d 0dad 8c3d
00000020: fed0 8b3d aa8c a63d 56ef 983d 59b4 7d3d
00000030: bf44 c93d 1dae 8f3d daed a73d 1e50 b73d
00000040: 488b d33d c7b9 503d 0a04 4d3d ae41 bd3d
00000050: 9272 3f3d 991d a33d 55aa b63d 865e d63d
00000060: edcc 9d3d c782 813d 52f2 a13d c8ed 8e3d
00000070: 399f d53d 0bea 893d f075 993d 594a be3d
0.08699797 0.07644312 0.10559204 0.09023171 0.078583814 0.09440148 0.098612465 0.06868944
0.068269715 0.08132298 0.07467525 0.06193957 0.098275654 0.07015631 0.081996635 0.08950828
0.103293 0.05095842 0.05005268 0.09241043 0.046740122 0.0796463 0.08919207 0.10467248
0.07705102 0.06323772 0.07907547 0.06978947 0.1043076 0.06734093 0.07493198 0.092915244

decoder.decoder_net.4.weight f4 [32, 32, 3, 3]
00000000: 3cd0 76bc 2ac0 b8bc deb8 863d 1dd4 c6bc
00000010: 1455 27bd 1290 41bd 50dc 9eba 09c2 0ebd
00000020: f556 6c3c 12f4 813c dfb2 8cbd 35ae 23bd
00000030: bce7 b93d f308 e63c ae1f 57bd 3cd1 23bc
00000040: bfc2 a93a 2a3d e93c f29e 83bd 31c0 313d
00000050: a37e bc3a 5a1d 053c 8f96 6d3d 4086 513c
00000060: 8bac b0bc 0638 b9bd a4fa 21bd dc05 34bd
00000070: 92bb 00bc a864 fd3c b1d4 293d 82a9 9a3d
00000080: f48f 623c 7a0a 0a3d 9084 5fbc b29c debb
00000090: d147 22bd 6cbc ffbc 0636 943c 84ca 78bd
000000a0: 3ec7 ecbc a600 453d 1454 3fbd dc63 d83d
000000b0: adb0 ffbc 56e4 ba3d 0f83 f33c 450c 813c
000000c0: 64d0 143d c779 8e3d 0a2c ffbc a028 423d
000000d0: 4acc a23c 4e0c 19bd c1ee 183d 9540 f23c
000000e0: 9c92 e43c f23b c33a cd26 333c 8f10 733c
000000f0: 85ae f3bc cf67 1d3c 0076 9abd 3d27 9bbd
00000100: a7c2 c3bc 9658 c4bb f019 5abc ac0c 373d
00000110: ee4d 02bd 1483 753d a02a 103b e12a da3c
00000120: 69a3 803d 3e25 4fbd a001 15bd efa5 613d
00000130: b782 a0bc c87f 033d 7ffd 073c 26e2 df3c
00000140: ebd2 103d 304f 753c 9da3 fe3c 1d62 8d3d
00000150: cd73 af3c 0dc1 083d dffa 523d efb7 803d
00000160: 0650 f0bc 68cb 54bd f522 9c3c 598f 7e3d
00000170: a4c1 273c 609d 34bd 46c0 9c3b 511f febc
00000180: 1c60 54bc b051 58bb eac2 0b3d 5e1e 3b3c
00000190: ae3d aa3c b9c4 16bd de2e 583d bcad ff3c
000001a0: 5774 56bd 8068 28bd 40f3 bfbb afcf 513d
000001b0: b2a2 073d 87b4 493b 6fb1 31bd 2cc4 773c
000001c0: 19ff 64bd 4be4 a53c d69a 76bb 725b 273c
000001d0: a730 f1bc d335 9ebd 98ca db3c 993e 18bd
000001e0: 896a a7bd bee6 73bd e69c 183d c591 34bd
000001f0: 8b84 493d 6153 803d 21cc 193d d531 4ebd
00000200: 163c 483d df30 3bbc b04e 0b3d d005 c03a
00000210: 170a 67bd 8006 903d 13e6 2d3c f031 823c
00000220: e19d 44bd 7a66 33bd 4199 643d 7960 313c
00000230: fd61 86bc c1c5 30bb 3b05 83bc 925d f8bb
00000240: d590 123d 1041 c3bb 2eb0 1c3d 05b0 1d3c
00000250: 1236 2e3d 705a a23c b6a6 8abc 2880 723d
00000260: e3ad e83c 1cb0 c9bc 4d32 523d 21ec 16bd
00000270: fb26 8c3d 87ce 41bc 5360 583b c57b 803d
00000280: ed01 5bbd b866 fbbc f6b8 c4bc fa3b 753d
00000290: b210 723c 4f2a b3bd 51aa ee3c 4967 1e3d
000002a0: 075f 5dbd da3a b33c 6f39 da3c 5d68 35bd
000002b0: 927c 85bd 7fc1 943b 7a7e d2bc ebbb b33c
000002c0: faa0 88bd ee80 9abc 4509 04bd a8fe 203d
000002d0: c85b 13bd 65cd a5bc ac7d ccbc ff8a ecbc
000002e0: ea86 2bbd be0b ebbc 296d 683c 9af9 943c
000002f0: ae7c 67bd 1903 d2bc 4169 b0bc dbe1 2cbd
00000300: 2e9a 81bd 1cee 09bd 6212 5fbd eb86 00bd
00000310: 7038 ccbc d1f3 503d 2c77 e73b 7923 92bc
00000320: 9caa 393c 3da6 d1bb d40d 73bd 72da eebb
00000330: 4bb5 eebc 9f85 2c3c bfb0 be3c 4331 04ba
00000340: f6a0 173d b717 a0bd 8cab dd3d aa64 5abd
00000350: 3b96 81bc 0b5c cf3c 2077 29bd 0970 94bc
00000360: 1d14 7ebd 530b 5c3d a1bd d1bc f8ab 8d3c
00000370: 2814 ed3c 064c 6d3d e661 3ebd a41b 10bc
00000380: fcdf 5b3d d623 12bd c037 c6bc 27a8 cc3c
00000390: 3f13 f7bb 0874 a4b8 3e61 3fbd b67b c13d
000003a0: dbbf 24bd 2511 22bd c8fd 91bd fd00 763c
000003b0: 936e 88bc 91e1 5b3d 6766 1bbd 3ec2 d93b
000003c0: b2aa 9a3c 4450 3bbd f17c a1bc 5e02 8fbd
000003d0: 7931 c63c 5917 4e3c 40a8 70bd 0284 943d
000003e0: 7415 c2ba 2e2a d1bc c3cd 76bd 272c dfbd
000003f0: 4149 9bbd f60e b4bb 4c10 3cbc 7740 b33d
-0.015064295 -0.022552568 0.06578229 -0.024271065 -0.04085262 -0.047256537 -0.0012120102 -0.034853015
0.014425029 0.015863452 -0.068700545 -0.03996106 0.09077403 0.02808044 -0.052520446 -0.009998616
0.0012951716 0.028471548 -0.06426801 0.04339618 0.0014381002 0.008124674 0.058004912 0.012788355
-0.02156665 -0.09043889 -0.03954567 -0.0439509 -0.00785722 0.030931786 0.041462604 0.07551862
0.013828266 0.033701397 -0.013642445 -0.006793582 -0.03961927 -0.031217776 0.018092167 -0.06074001
-0.0289036 0.04809632 -0.046711043 0.10565922 -0.031212175 0.09125583 0.02972558 0.01575292
0.03633155 0.06956821 -0.03114893 0.047402024 0.019872803 -0.03736525 0.03733707 0.02957181
0.02790194 0.0014895184 0.010934544 0.014835491 -0.029746303 0.009607269 -0.07542038 -0.075758435
-0.023896528 -0.0059920056 -0.013311848 0.04468982 -0.0318126 0.05993946 0.0021998063 0.026631774
0.06281168 -0.050572626 -0.036378503 0.055089887 -0.01959358 0.032104284 0.008300184 0.027329516
0.035357397 0.014972493 0.031083876 0.06903479 0.021417523 0.033387233 0.05150878 0.062850825
-0.029335033 -0.051951796 0.019059638 0.062148426 0.010239039 -0.044095397 0.004783663 -0.031020792
-0.012962367 -0.0033007674 0.03412143 0.011420814 0.020781364 -0.036808703 0.05277907 0.031210773
-0.052357044 -0.041115284 -0.005857855 0.051223453 0.033114143 0.0030777769 -0.043382104 0.015122455
-0.055907343 0.02025046 -0.003762891 0.010214673 -0.029442145 -0.0772511 0.026830003 -0.037169073
-0.08174617 -0.059546225 0.037259005 -0.04408433 0.04919867 0.06265903 0.037548188 -0.050340492
0.048885427 -0.011425226 0.03401059 0.001465017 -0.056406107 0.0703249 0.010613936 0.015892953
-0.048002128 -0.0437989 0.055810217 0.0108262235 -0.016404146 -0.002697334 -0.015993705 -0.007579514
0.035782654 -0.005958684 0.038253956 0.009624486 0.042532034 0.019818515 -0.016925197 0.05920425
0.028403228 -0.024620108 0.0513175 -0.036846284 0.068433724 -0.011829025 0.0033016398 0.06273607
-0.053468633 -0.030688629 -0.024013977 0.05987165 0.014774488 -0.08748304 0.029133948 0.03867272
-0.054045703 0.021878649 0.026638715 -0.04428898 -0.065179005 0.004539668 -0.025695074 0.021940192
-0.06671329 -0.018860307 -0.032235403 0.03930536 -0.0359762 -0.020239541 -0.024962269 -0.028874872
-0.04187671 -0.028692123 0.014186182 0.018185426 -0.05651539 -0.025636243 -0.021534564 -0.04220758
-0.063282356 -0.033674344 -0.05446089 -0.031378668 -0.024929255 0.05101377 0.007063767 -0.01783918
0.01133218 -0.006397991 -0.05933936 -0.0072892243 -0.029139182 0.010529905 0.023277638 -0.0005042741
0.03701874 -0.07817023 0.108237356 -0.053318657 -0.015818706 0.025312444 -0.041373372 -0.018119829
-0.0620309 0.053721737 -0.025603117 0.017293915 0.028940275 0.05793383 -0.046480082 -0.008795653
0.053680405 -0.035678707 -0.024196506 0.024982525 -0.007540136 -7.841742e-05 -0.046723597 0.09447424
-0.04022203 -0.03956713 -0.07128483 0.015014884 -0.016654288 0.053681914 -0.037939455 0.00664547
0.018880222 -0.045730844 -0.019712897 -0.069828734 0.024193512 0.012578809 -0.058754206 0.07251741
-0.0014807419 -0.025532808 -0.060254823 -0.10897093 -0.075823314 -0.0054949475 -0.011478495 0.0875253

decoder.decoder_net.4.bias f4 [32]
00000000: 4a86 45bc f8a7 b63d a4ed b7bd e00e e1bc
00000010: b181 953d fb45 85bc 2300 d63c a04f 983d
00000020: 93d6 0f3c 5afb 2c3c 1774 923d 74b3 6a3c
00000030: f265 6fbd 925e b73c 9e44 f0bb 3ab5 97ba
00000040: 07cf 543c 8f85 043b da9f c23c cc6c 14bd
00000050: 4c64 88bc dd78 24bd 44b9 d03d aaf9 953c
00000060: a9cc 303b aee1 a83d 0b95 febc a2b8 883d
00000070: 720f 8a3b 0d1d 523b 6c28 04bd 3402 48bd
-0.012055943 0.08918756 -0.08980873 -0.027472913 0.07300127 -0.01626872 0.026123112 0.07437062
0.008779186 0.010557974 0.07151049 0.0143250115 -0.058446832 0.022383962 -0.0073323986 -0.0011574395
0.012988812 0.0020221209 0.023757864 -0.03623657 -0.016649388 -0.040154327 0.101915866 0.018307526
0.0026977456 0.0824617 -0.031076929 0.06675841 0.004213267 0.0032060773 -0.03226511 -0.048830226

decoder.decoder_net.6.weight f4 [32]
00000000: 9f46 713f e17d 6c3f 2ebc 593f c957 5a3f
00000010: 9771 733f 6364 683f 7d2b 783f 6eed 723f
00000020: 10ae 753f a360 7f3f 43ea 6c3f 2f45 733f
00000030: 957d 693f 55e2 753f 4dbc 803f ac78 653f
00000040: 4461 623f 9830 673f da35 5b3f c22f 6f3f
00000050: 28cf 6d3f 845b 693f 4dae 673f 62fd 693f
00000060: df73 6f3f 9cc8 733f 715d 7c3f 0bfd 7a3f
00000070: 41d9 693f 9a4d 943f 4513 683f a73f 6c3f
0.94248384 0.92379576 0.85052764 0.852902 0.950952 0.9077818 0.9694136 0.9489354
0.95968723 0.9975683 0.92544955 0.9502744 0.9120725 0.9604848 1.0057465 0.89637256
0.88429666 0.90308523 0.85629046 0.9343225 0.9289422 0.91155267 0.90500337 0.91402256
0.9353618 0.9522798 0.9858008 0.9804236 0.9134713 1.1586182 0.906544 0.92284626

decoder.decoder_net.6.bias f4 [32]
00000000: 3bb8 dc3b be84 3bbc cc4b 783d b837 b1bd
00000010: 2d76 6e3d d32f cfb9 ef5c 4a3d d53a 223c
00000020: 40c6 67bd 2eb4 093d b0cb 5d3d 0bb7 cdbd
00000030: d124 32bb 1702 6f3d d151 5bbd 81ab cf3c
00000040: bb21 a2bc 991f fbbc ba47 23bb fbe4 df3b
00000050: 4fdb 4cbc 223c ce3c f940 093d bfa0 69bd
00000060: 9648 b83b 7034 883d 5e17 d1bd 2c85 5b3d
00000070: 35d9 f93b 557f ad3d c6aa 8a3d 178f 143d
0.006735829 -0.011445222 0.06061916 -0.08653206 0.05821817 -0.00039517749 0.049405035 0.009901722
-0.05658555 0.0336191 0.05414933 -0.10044678 -0.0027182589 0.058351602 -0.053544823 0.025350334
-0.019791475 -0.030654715 -0.0024914579 0.0068327165 -0.012503459 0.025175158 0.03350923 -0.057038065
0.0056238873 0.06650627 -0.10209535 0.0535938 0.00762477 0.08471552 0.06770854 0.036269274

decoder.decoder_net.6.running_mean f4 [32]
00000000: 1d49 123e 1d49 123e 1d49 123e 1d49 123e
00000010: 1d49 123e 1d49 123e 1d49 123e 1d49 123e
00000020: 1d49 123e 1d49 123e 1d49 123e 1d49 123e
00000030: 1d49 123e 1d49 123e 1d49 123e 1d49 123e
00000040: 1d49 123e 1d49 123e 1d49 123e 1d49 123e
00000050: 1d49 123e 1d49 123e 1d49 123e 1d49 123e
00000060: 1d49 123e 1d49 123e 1d49 123e 1d49 123e
00000070: 1d49 123e 1d49 123e 1d49 123e 1d49 123e
0.14285703 0.14285703 0.14285703 0.14285703 0.14285703 0.14285703 0.14285703 0.14285703
0.14285703 0.14285703 0.14285703 0.14285703 0.14285703 0.14285703 0.14285703 0.14285703
0.14285703 0.14285703 0.14285703 0.14285703 0.14285703 0.14285703 0.14285703 0.14285703
0.14285703 0.14285703 0.14285703 0.14285703 0.14285703 0.14285703 0.14285703 0.14285703

decoder.decoder_net.6.running_var f4 [32]
00000000: dc81 013c d567 c13b 6f32 773b d43d 963b
00000010: 3e16 0a3c 24f6 103c dca0 c83b 0aee 253c
00000020: dfde 823b 5776 853b fa68 953b 80d0 863b
00000030: f3a0 9a3b a9da 4e3b c7c7 a33b 6923 923b
00000040: b86c a13b ae1e b83b 8166 e13b 3703 ac3b
00000050: a04a 8a3b 3a42 6a3b a6c0 e83b d917 713b
00000060: 3fc9 c03b 0e3a 003c aa9c 983b 6635 ee3b
00000070: 0328 403c b8de 923b 7232 0f3c 308d a63b
0.007904496 0.0059022703 0.003771927 0.004585007 0.0084281545 0.008847747 0.0061226916 0.010127554
0.0039938535 0.004072945 0.0045596333 0.0041142106 0.0047188937 0.0031563437 0.0049981805 0.0044597876
0.0049262904 0.0056188917 0.0068786745 0.0052494067 0.004220322 0.003574504 0.0071030436 0.0036787896
0.0058833654 0.007826341 0.0046573477 0.007269549 0.01172829 0.0044821166 0.008740054 0.005082749

decoder.decoder_net.7.weight f4 [32, 16, 3, 3]
00000000: db41 37bc f170 e3bb 3458 cebc 3958 ab3d
00000010: fce9 2f3d 2114 2b3d 3b16 5a3d 86e9 8c3d
00000020: 169e 783d 58f5 9c38 6545 c6bc 063c c13c
00000030: 22c5 b23d 67a0 ad3c e642 9cbc 55e3 80bd
00000040: d1df a2bc 284b 5e3c b04d e23d e6dc a6bc
00000050: a57c 6bbd 52c0 913c cb5c bfbc eda3 313d
00000060: 7ed0 00bd fec5 fd3c b47a eb3d 917f e8bc
00000070: 9e24 71bd ad81 4a3c 9774 2bbd 9a2c b3bd
00000080: 8142 ebbc b03b b73d 010a b9bd b4db c6bc
00000090: 3ce0 a93b 7c71 ce3b 3642 51bc 0f4b 953d
000000a0: 6235 8b3c b421 e33b 2d46 abbc e041 d63b
000000b0: 7951 3fbd 9e72 7f3d fe03 c43c 660d 33bc
000000c0: 2b48 25bd 361d 8e3d e9e5 50bc b8a1 aabc
000000d0: 288f 2a3d bb33 c8bb 3969 a2bc 53f6 8c3c
000000e0: bb1c 903d 2fbf 823d f107 5c3d 5a91 9c3c
000000f0: 942b 18bd d0bb b2ba e263 ad3a e958 81bc
00000100: 6f57 acbd cd76 22bd 47f2 363d b91b 813d
00000110: c8e1 2cbd 8a0e 3fbd 26fd 753d 4a35 023d
00000120: 8ffc a43d 53b0 b1bd 2f78 113d a395 6ebc
00000130: 0657 a0bb 9e2b 5c3d e5c6 f13c 046f 7b3d
00000140: cf49 6f3d eb97 423d 97fd 2d3c a5bb f0bb
00000150: fdfc da3c ff58 b53c 6722 bf3c e8f8 d3bc
00000160: 4f4b 7d3d 14bb 863d 7ca0 603c 9679 713b
00000170: 90b1 3d3d 7156 033d b589 1c3c 064f 92bc
00000180: 6a92 a73d fc8e 683d 80af b43d 48b2 563d
00000190: 4b31 463d f97c ae3b 03a5 873d b051 d0bd
000001a0: f25e 333a af46 983c 7e6d ed3b ba35 6abd
000001b0: b72f a1bd 8b4c d43b 3636 c33b 14da aa3d
000001c0: 212f c03b ee2f 4ebd 55b1 6a3d 4c86 60bd
000001d0: 1b1a e23c ac99 823d 06c7 373d c86f cabc
000001e0: c7e1 06bd af95 933c c946 e43d 471c ec3c
000001f0: 500e 233c 10dd f73c 6ed5 383d c559 993d
00000200: fd0c d13c 0873 afbd e99a 8f3b 6712 93bd
00000210: 847d abbc 2a5f 273c c81a 04bb 82de 343d
00000220: 64d7 b33d 03ee 493b 65e0 3dbd bd92 1c3d
00000230: 2508 733d 704c b33c 7e65 193c 59fb 3d3d
00000240: 3088 c13c 8497 ee3c 9a19 88ba 3300 3a3d
00000250: 3c23 473d 963d 26bd ee41 c43c 5071 553d
00000260: b6d8 21bd c4a2 a63d 3a94 4f3d a045 88b9
00000270: 3e03 863c a972 acbc 7e42 2a3d 5597 b8bd
00000280: 655a f7bb 71e1 4fbd 35fd cb3c da00 9bbc
00000290: b3fd 293d 44d4 48bc da9d 653c b478 c6bc
000002a0: 32b9 3c3d a3c7 393d 79ef 82bc 4ef0 1a3d
000002b0: 21f2 593c bf2f a53b e945 883d 2a6b 3abd
000002c0: ea83 0abd b48e 4dbd b07b 0cbd 2394 783d
000002d0: 9019 f73b a739 3a3d b093 0e3d dc64 d13c
000002e0: 8690 b4bc d2e4 43bb 70e1 ed3c fe1e e7bc
000002f0: 212f 81bd 88a8 663d 9ded bf3c 5e74 0f3c
00000300: c441 713c d0bd 3c3d 7fa9 9dbd cb21 6abb
00000310: 77ed 903c c482 08bd c452 e5bc d1d6 5b3a
00000320: 59fd 36bd effb 133d 5cf8 523e 8775 e6bc
00000330: 2593 423d f7e5 c83d 6c44 90bc ae20 72bd
00000340: 50a3 063d 38bb aa3b f70b 8dbd c5e8 323b
00000350: bcd5 23bc 6b8f 59bd 3339 68bd ce34 84bd
00000360: a9dd 793d 5836 f5bc 6fd2 08bd 3724 b4bc
00000370: 346f 8b3c 1be3 4d3c d55a a4bc 01db 293c
00000380: 8fae 1f3d 797c 773d 40fb a23d 4ae3 003d
00000390: 6d53 4a3d f8b8 2fbd efce f1bb 52df 05bd
000003a0: 1d27 2d3d 0fd4 043d 3484 ee3a 7599 793d
000003b0: e105 413d ab93 9f3d 31b9 983d 9aa9 3b3c
000003c0: 9c06 843d 6589 2b3c 254e f0bc d5dd 28bd
000003d0: ac8a 793d 16f9 a73d 92b7 983d 3d3f 053d
000003e0: 64b5 6ebd 4107 b63c cd5c d53d b6dc 5a3d
000003f0: a973 933d aed7 313b 4db7 c33d 4c26 e03c
-0.011185135 -0.006940954 -0.025188543 0.083664365 0.042947754 0.041767243 0.053243857 0.068804786
0.060697637 7.4843585e-05 -0.024203012 0.023588192 0.08729006 0.02119465 -0.019074868 -0.0629336
-0.019882115 0.013567723 0.11049974 -0.020369004 -0.057491917 0.0177919 -0.023359677 0.043369222
-0.031448834 0.0309782 0.11498013 -0.02838114 -0.05887281 0.012360019 -0.041859236 -0.087487414
-0.028718235 0.08946931 -0.09035111 -0.024274684 0.0051842015 0.0063001495 -0.012772134 0.07289707
0.016993228 0.006931508 -0.020907486 0.0065386146 -0.046708558 0.062365167 0.023927685 -0.010928487
-0.040352028 0.06939165 -0.012750127 -0.020829067 0.04164043 -0.0061096824 -0.019825565 0.0172073
0.0703673 0.063841216 0.05371851 0.019112278 -0.037150934 -0.0013636295 0.001322862 -0.015789466
-0.08415114 -0.03966408 0.044664647 0.06304116 -0.04220751 -0.046644725 0.060055874 0.0317891
0.08055984 -0.08676209 0.035515007 -0.014562043 -0.0048931865 0.053752534 0.029513786 0.06138517
0.05842 0.04750816 0.010619543 -0.0073465877 0.026731962 0.022137163 0.023331834 -0.025875524
0.061839398 0.06578651 0.013710137 0.0036846153 0.046311915 0.03206486 0.009554316 -0.017859947
0.08182223 0.056776986 0.088225365 0.052416116 0.048386853 0.0053249565 0.0662327 -0.10171831
0.0006842456 0.018588392 0.0072457185 -0.057180144 -0.07870429 0.006478851 0.00595739 0.08342376
0.005864993 -0.050338678 0.057298023 -0.054815575 0.027600339 0.06376967 0.044867538 -0.024711505
-0.03293016 0.01801571 0.11146314 0.028822077 0.009952143 0.030256778 0.045125417 0.07487825
0.025518889 -0.08566862 0.0043824804 -0.07181244 -0.020933874 0.01021556 -0.0020157564 0.044157512
0.08781317 0.0030812032 -0.046356577 0.038225878 0.05933394 0.021887034 0.0093625765 0.046382282
0.02362451 0.029124983 -0.0010383606 0.045410346 0.048617586 -0.040586077 0.023957219 0.052110016
-0.039513312 0.08136514 0.05067847 -0.00025991816 0.016358968 -0.021050768 0.04156732 -0.09013239
-0.0075486177 -0.050752107 0.024901012 -0.018921304 0.041501712 -0.012257639 0.0140146855 -0.024227478
0.046075054 0.045356404 -0.01598333 0.03782683 0.013302357 0.005041092 0.06653959 -0.045512356
-0.03381721 -0.05018492 -0.034297645 0.06068815 0.007540889 0.045465138 0.034808815 0.025560789
-0.02204157 -0.0029891026 0.029038161 -0.02821302 -0.06307817 0.056313068 0.023428733 0.008755771
0.014725152 0.046079457 -0.076983444 -0.0035725709 0.017691357 -0.033327833 -0.027993567 0.0008386197
-0.044675205 0.036128934 0.20602554 -0.028132213 0.04750361 0.09809487 -0.017610751 -0.059113197
0.03287059 0.0052103065 -0.06887048 0.0027299386 -0.009999689 -0.05311529 -0.056695174 -0.06455384
0.061002407 -0.02993314 -0.03340381 -0.021989925 0.0170208 0.012566353 -0.020062843 0.010367156
0.03898483 0.06042144 0.079580784 0.03146676 0.049395967 -0.04290101 -0.0073794047 -0.032683678
0.04227363 0.032428797 0.0018197359 0.060937364 0.047124747 0.07791837 0.074571975 0.01145401
0.06446573 0.010469769 -0.029334137 -0.04122718 0.060923263 0.08201806 0.07456888 0.03253101
-0.058278456 0.022220256 0.10418091 0.053433143 0.07199795 0.0027136612 0.09556446 0.027362011

decoder.decoder_net.7.bias f4 [16]
00000000: f05c eebc 1961 b53d b1c3 83bd 9409 773c
00000010: 65e3 bd3c 66d8 173c 5ee8 a0bc 3420 7b3d
00000020: ea34 a13d 9cb5 093e 191c 013d d017 a13d
00000030: c64e ea3c 308b 2b3d 96e1 a63c 14a9 0e3b
-0.02909705 0.088564105 -0.064338095 0.015077967 0.02317972 0.009267902 -0.019642051 0.06131001
0.07871421 0.13448185 0.031520937 0.0786587 0.028602015 0.041880786 0.02037124 0.002176826

decoder.decoder_net.9.weight f4 [16]
00000000: 5835 6e3f b733 723f b406 6d3f e779 6f3f
00000010: 1b8a 793f 6805 7a3f 9850 723f 7040 703f
00000020: e7eb 6b3f da2c 803f 7315 703f 4cca 6e3f
00000030: 581c 753f 7412 6d3f bae9 683f c82b 6c3f
0.93050146 0.9461016 0.92588353 0.93545383 0.9747636 0.976645 0.94654226 0.93848324
0.92156833 1.0013688 0.9378273 0.9327743 0.95746374 0.9260628 0.9098164 0.92254305

decoder.decoder_net.9.bias f4 [16]
00000000: 0de4 eebd 931e b1bb 1cfd 553d bdfa aebd
00000010: 8ac4 b73c 0378 063e 5e2e 883d d678 cd3c
00000020: 695a 123e 0426 7ebc 8264 52bd 5326 903d
00000030: f4e9 983c 501b c93c a7e2 213e 581b c63d
-0.11664591 -0.005405256 0.052243337 -0.08543918 0.022432584 0.13131718 0.06649469 0.025082033
0.14292301 -0.015511993 -0.051365383 0.0703856 0.018666245 0.024549156 0.15809117 0.09673184

decoder.decoder_net.9.running_mean f4 [16]
00000000: 1d49 923d 1d49 923d 1d49 923d 1d49 923d
00000010: 1d49 923d 1d49 923d 1d49 923d 1d49 923d
00000020: 1d49 923d 1d49 923d 1d49 923d 1d49 923d
00000030: 1d49 923d 1d49 923d 1d49 923d 1d49 923d
0.071428515 0.071428515 0.071428515 0.071428515 0.071428515 0.071428515 0.071428515 0.071428515
0.071428515 0.071428515 0.071428515 0.071428515 0.071428515 0.071428515 0.071428515 0.071428515

decoder.decoder_net.9.running_var f4 [16]
00000000: 7cb4 5c3b 35e3 743b 0a3a 5f3b e577 a53b
00000010: 152a 783b 0bd7 783b df4d e53a 5ecb 543b
00000020: a649 4e3b 8429 8b3b 5a95 7f3b ec03 8c3b
00000030: f55b b93b 0274 fc3a 6fde 453b 9ae7 1b3b
0.0033676913 0.0037366871 0.0034061694 0.005049693 0.003786688 0.0037969972 0.0017494521 0.003246985
0.0031477003 0.0042468924 0.0038998933 0.0042729285 0.005656714 0.0019260647 0.0030192395 0.0023789168

decoder.decoder_net.10.weight f4 [16, 1, 3, 3]
00000000: 72d5 b9bd e2e1 923e ba04 9ebb 5c7f adbd
00000010: ebd4 15be bec6 523e 24c2 8c3e dbe9 923e
00000020: 5292 06be 7f58 7c3e ff3e f43d 7a71 e9bd
00000030: 34be 23be 9f01 ef3d 9e17 f1bd ad72 2fbe
00000040: 307e 38be 598b 5f3e f20c 253d caf7 843e
00000050: da57 093e aa0d 28be 1144 623d 0f6d 33be
00000060: 2797 8a3e 58fb 7bbe 8422 56bd 08b6 7d3e
00000070: f978 44be 79bd fdbd a5bc 8dbe 208e 0ebe
00000080: e44d 093e fb6f 543e 4cab 87be 08d4 9e38
00000090: efb1 05be 4db3 abbe 93eb bf3c 585d e4bc
000000a0: d7e7 4d3e cfd0 cb3d 2abe 43bd ac3f 723d
000000b0: 6953 313d b408 0bbe 1d8c a3be 9324 14be
000000c0: ec7f 403b 715d 58bd 2a95 b9bd e15e 5a3e
000000d0: fc25 5c3c 73c6 0f3d 29c5 d33d d3aa 253e
000000e0: 259e 4c3e 586e 553e 1e8b 9b3e 94cc 1a3e
000000f0: d901 b13d ae2f 223d 0b2d 06bd 2787 013e
00000100: 2b7a 403e 8499 f13b 4143 333e 59dd 1dbd
00000110: 21ec 283e ff82 5bbe 6b76 ae3d fbdb 9f3c
00000120: 225b 5f3b c419 1f3e d56f 58be ebdc 4f3e
00000130: 2c2d d4bd 74ab 4fbe 7f1a 1a3e 0872 66be
00000140: efe4 18be dc9a 90be de9c 05be 70ff 403c
00000150: 3be0 6a3d 42e4 c4bd 3a61 8abd 0e49 44be
00000160: 8a76 acbd e68c e73c 562f a2bc 3438 29bd
00000170: 7a78 553e 0248 10be 7c70 2c3e ae4d 9c3d
00000180: 68c6 36be da51 ddbc 2f40 02bb 8c10 13be
00000190: 3dab 673e 9234 afbc 608f 803e 3d90 cabd
000001a0: 85a1 00be a300 1c3e 494d debd ebda 9dbc
000001b0: 241a 90be 5dfc 283e b140 53be efbc 583e
000001c0: 93bb 23be 13c1 45be 500a b43c f876 053e
000001d0: 40ee 4fbc 82c9 4a3e b05b 13be 094c 853d
000001e0: 45e2 debd c55b 26bd 756c e63c 40ef 29bd
000001f0: 6428 02be cdc6 5d3b 915c 1c3d f23f 10be
00000200: 9219 553e a569 633e 315f 383e 1033 4d3d
00000210: 6a85 6a3d 3d7a 183e 76e3 67be 5a27 953d
00000220: c265 093e ed79 27be 8c8f 783c 2704 cdbc
00000230: 359e babd 336d ff3c 34fe 1cbe 2f50 80be
-0.090739146 0.2868796 -0.004822341 -0.084715575 -0.14632003 0.20583627 0.27491868 0.28694043
-0.13141754 0.24643134 0.11926078 -0.11398597 -0.15990525 0.11670231 -0.11772083 -0.17133589
-0.18016887 0.218305 0.04029555 0.25970298 0.13412419 -0.16411462 0.055240694 -0.17522071
0.27068445 -0.24607599 -0.05227901 0.2477647 -0.19186772 -0.12389655 -0.27682987 -0.13921404
0.13408619 0.20745842 -0.26497877 7.573521e-05 -0.13056158 -0.33535233 0.02342776 -0.027876541
0.20107971 0.099519365 -0.047788776 0.059142753 0.043292437 -0.13577539 -0.31942835 -0.14467077
0.0029373122 -0.052823488 -0.09061654 0.21325256 0.013436791 0.035101365 0.1034034 0.16178446
0.19982202 0.20842874 0.30379575 0.15117103 0.086429305 0.039596252 -0.0327578 0.12649213
0.18796603 0.007373037 0.17506124 -0.03854117 0.16496326 -0.2143669 0.0851868 0.019514075
0.003408142 0.15537173 -0.2113641 0.20299117 -0.10360178 -0.20280248 0.1504917 -0.22504437
-0.14931081 -0.28243148 -0.13048121 0.011779651 0.05734275 -0.09613849 -0.06756826 -0.19168493
-0.08421047 0.028265428 -0.019797962 -0.041313365 0.2084674 -0.14089969 0.16839784 0.07632004
-0.17849123 -0.027016569 -0.0019874682 -0.14361781 0.22623916 -0.021387372 0.25109386 -0.098907925
-0.12561615 0.15234618 -0.10854585 -0.019269427 -0.28144944 0.16502519 -0.20630147 0.21165822
-0.15989523 -0.19311933 0.021977574 0.13033664 -0.012691081 0.19803432 -0.14390445 0.06508643
-0.10883001 -0.040614862 0.028127888 -0.041487932 -0.1271072 0.0033840418 0.038174216 -0.14086893
0.20810536 0.22208269 0.18005063 0.050097525 0.05725614 0.1489038 -0.22645363 0.07282896
0.13417724 -0.16355105 0.015170943 -0.025026394 -0.09112207 0.03118 -0.15331346 -0.25061175

encoder.encoder_net.0.weight f4 [16, 1, 3, 3]
00000000: c135 dbbd eb87 60be 2d3f 813e 060a 2e3e
00000010: 4b99 aa3d a18c 6d3c d4f5 23be 7f5b 09be
00000020: 4a2e 2f3e dd3e 063e 518c 3a3e 1b77 623e
00000030: f394 2ebe ce46 8bbe aff5 2c3e 2e55 083b
00000040: f77e a3be 2409 1a3e 6ce4 0abe 0a08 8fbe
00000050: b881 a73e 374f 723d ad6c a03e 1063 7a3e
00000060: 48cc 4dbe f0e9 823d 90a7 883e 9326 edbd
00000070: 5768 a6be 3e1c 76be 42ef 08be c45e e53d
00000080: 2ba5 9abe 840f f5bd 732e f83c 154e 95be
00000090: 455a 9abe c1f7 93be 4288 6abe 32e9 913e
000000a0: 60a5 27bd eb0e d03d a0b9 40be 5802 d1bc
000000b0: 8d9d 973d fb65 99be fad6 463e e64f 85bd
000000c0: 0b3a cdbd 0f55 41bd caf4 59be cdb4 c63d
000000d0: 094a bbbe 6a5d 75be 975d 98bd 4ec1 55be
000000e0: 397b 8cbe a582 0fbe df0a 86be fab1 8fbe
000000f0: 38af 26be 8595 dbbc d206 7e3e 5c87 e73d
00000100: a286 f6bd b19b 98bd 3f04 70be 5da5 cbbe
00000110: b368 39be 5275 6ebd eee6 59be b0b7 7bbe
00000120: 1de0 4a3e 7e4b c63d 7d47 90be fe2d 86be
00000130: eed7 11be b56e b23e ea5a 963e 8e89 d83d
00000140: 3245 703e 4871 3abe 9e74 5c3b 9004 643e
00000150: f97d 4b3e 4915 963e 4b14 a53e f422 80be
00000160: 9b35 0bbe e5df 4abd 06ea 85be 47b0 6d3e
00000170: 902e 653c 3c02 773e 4eb1 813d 7919 87be
00000180: 61d0 8e3e f817 33be fda5 c9bd 9d03 f33d
00000190: c99f 43be bf77 afbd 4572 84bd 4266 383c
000001a0: 8592 4cbd a341 793d 758c 1e3d c9f0 da3d
000001b0: d118 9fbd 9d59 303e ad9b 743e b422 aebd
000001c0: 99be 953e a6e1 57be ba20 253c 921c 9e3e
000001d0: 1b38 993e e532 153e b7f5 a03e 3386 1d3e
000001e0: 67f7 5f3e 58dc a53e 324e 55be 58f8 183e
000001f0: 7be9 9a3e ee94 59be b4bb 243e 9581 1a3e
00000200: acc0 33bd 5a4b 313e ee26 d93d 28eb 203e
00000210: acb7 8e3e 0d04 383e 38ca 723c 4186 a8bc
00000220: b14b 493d f125 763e 5f7b a23c abaa df3d
00000230: b06f 643e 2536 dabd bc85 363e c606 843e
-0.10703612 -0.21926849 0.25243512 0.16996011 0.083300196 0.014498861 -0.16011745 -0.13413809
0.17107502 0.13109918 0.18217589 0.22115748 -0.17049007 -0.27202457 0.16890596 0.0020802724
-0.31932804 0.1504255 -0.13563699 -0.2793582 0.32716155 0.059157576 0.31332913 0.24451852
-0.20097458 0.06392276 0.2669034 -0.11579623 -0.3250148 -0.24034211 -0.1337252 0.11199716
-0.30204138 -0.1196585 0.030295586 -0.29161134 -0.30146995 -0.2889996 -0.2290354 0.28498226
-0.0409292 0.101590954 -0.1882081 -0.025513813 0.07403097 -0.29960617 0.19417945 -0.0650938
-0.100208364 -0.04720026 -0.21284786 0.09702454 -0.36579922 -0.23961416 -0.07439726 -0.20874521
-0.2743776 -0.1401468 -0.2618017 -0.28065473 -0.16277778 -0.026804695 0.24807289 0.113051146
-0.12037398 -0.07451571 -0.2343912 -0.397746 -0.18106346 -0.058217354 -0.21279499 -0.2458179
0.19812055 0.09682368 -0.2817954 -0.26206964 -0.14242527 0.34850088 0.29366237 0.105731115
0.23463896 -0.18207276 0.0033638845 0.22267365 0.19872274 0.29313114 0.32242045 -0.25026667
-0.13594668 -0.04952993 -0.26155108 0.23211776 0.013988152 0.24121946 0.06332646 -0.26386622
0.27893355 -0.17489612 -0.09846113 0.118659236 -0.19103922 -0.08567762 -0.06467108 0.011254849
-0.04994442 0.06085361 0.03870817 0.106904574 -0.07768405 0.17221685 0.2388751 -0.08502713
0.29246977 -0.21082172 0.010078603 0.30881172 0.29925618 0.14570196 0.31437466 0.15383224
0.2187172 0.3239467 -0.2083061 0.14938486 0.30256256 -0.21248218 0.16087228 0.15088494
-0.043884918 0.173139 0.106031284 0.15714705 0.27874506 0.17970295 0.0148187205 -0.02057183
0.04914445 0.24037911 0.019834219 0.10921224 0.2230823 -0.106548585 0.17824453 0.25786418

encoder.encoder_net.0.bias f4 [16]
00000000: 93fe a0be 74da 8c3e 6f59 c23d ed37 8a3d
00000010: 4d3e 963e cb97 293e 9efa 963e 4f7d 4e3d
00000020: 16d8 48be bcbc 9dbe 4a48 ff3d 2525 75bd
00000030: 17d4 15bd b7db f43d 3d63 28bd 0cad b3bd
-0.31444225 0.27510417 0.09489714 0.06748948 0.29344407 0.1656181 0.2948808 0.050412472
-0.1961368 -0.30808055 0.1246496 -0.059849877 -0.036579218 0.1195597 -0.041110266 -0.087732404

encoder.encoder_net.2.weight f4 [16]
00000000: dd6f 6f3f 6a5b 873f b585 803f 3b27 8c3f
00000010: 8098 853f 1762 873f df87 913f 6f9b 893f
00000020: 8f09 813f df9c 853f 89ba 833f a48a 823f
00000030: 98e0 813f 8628 8c3f 4b4b 893f a65d 843f
0.93530065 1.0574772 1.0040804 1.0949472 1.0437164 1.057681 1.136959 1.075056
1.0081042 1.0438498 1.0291301 1.019856 1.0146666 1.0949867 1.0726103 1.0341079

encoder.encoder_net.2.bias f4 [16]
00000000: 4372 4e3d 1180 ba3d 96b9 58bd 8854 8ebd
00000010: 946c 3abd c51e 543d 6699 813c 752b a6bc
00000020: 591b a2bc e7c6 b9bc 9980 dc3c fcf2 dbbc
00000030: 908f f53c 3667 fabc c11e 9bbc e330 813d
0.050401937 0.09106458 -0.052911364 -0.06949717 -0.045513704 0.051787157 0.015820216 -0.020284394
-0.019788431 -0.022677852 0.026916789 -0.026849262 0.029975682 -0.030566793 -0.018935563 0.063081525

encoder.encoder_net.2.running_mean f4 [16]
00000000: 1d49 923d 1d49 923d 1d49 923d 1d49 923d
00000010: 1d49 923d 1d49 923d 1d49 923d 1d49 923d
00000020: 1d49 923d 1d49 923d 1d49 923d 1d49 923d
00000030: 1d49 923d 1d49 923d 1d49 923d 1d49 923d
0.071428515 0.071428515 0.071428515 0.071428515 0.071428515 0.071428515 0.071428515 0.071428515
0.071428515 0.071428515 0.071428515 0.071428515 0.071428515 0.071428515 0.071428515 0.071428515

encoder.encoder_net.2.running_var f4 [16]
00000000: c832 d237 2751 8538 b0d5 8b39 fbdc 9e39
00000010: 4ca5 d138 d87e 4939 700b 9039 e810 b539
00000020: e802 0439 45ab 1039 28e7 7a38 35d2 7037
00000030: 619c 9b39 cace 183a 4699 d439 497e 9f39
2.5057598e-05 6.35705e-05 0.00026671356 0.00030300752 9.9966855e-05 0.00019216107 0.00027474342 0.00034535606
0.00012589584 0.00013796713 5.9819926e-05 1.4354057e-05 0.00029680415 0.0005829154 0.0004054999 0.00030420933

encoder.encoder_net.3.weight f4 [32, 16, 3, 3]
00000000: 361c 61bd 8e67 7b3d 0b26 6ebd de22 a93d
00000010: f2e6 4cbd 4420 413d 8118 4c3c 07a9 e6bc
00000020: ea45 3bbd 182c 983d 3858 aebd a1b2 eebc
00000030: a88c 963c 3ef2 03bd 7330 e0bb 7259 a43a
00000040: 0d35 e33c 2b5d f9bc 9091 bc3d 1469 61bd
00000050: c067 79bd 8243 38bd c442 72bc 96cd 003d
00000060: bf4d 1abd ac69 adbd c3b8 9fbc 6fc9 403d
00000070: 67e5 233d 65e7 d03d 5d72 6f3d 22a7 22bd
00000080: 8f81 903d f16c 873c 7310 813d aaee caba
00000090: a0a8 273c e8d5 82bd 6619 6b3c 47d7 f43d
000000a0: 5446 723d aa7e d43d fdea a73d 62a8 80bc
000000b0: c855 373c e2e0 213d 24c6 0e3c 3f97 693c
000000c0: ee42 c83d c9a3 0d3d 0215 323d 15fd 243d
000000d0: 1353 683d 5a14 1b3d c04e dd3c 8441 253c
000000e0: 43b0 593d 68f1 ab3d 6f83 313c a2f6 b03c
000000f0: 8ea2 083d ff40 70bd c0fe 0c3d 1711 ef3c
00000100: 4a28 8abb eaae 5b3d 4deb ed3d b0ad 3e3d
00000110: b7db 17bd d999 3cbd e227 4bbb a0e6 ea3c
00000120: d835 813d 1918 35bd a6da 62bc 4793 5d3d
00000130: 7d77 323d 7bae c43c a289 0c3c 111f bc3c
00000140: c537 75bd 32d1 833d 87df b23d 3647 8abd
00000150: e7a8 a6bd c832 c2bb 9d7f 6a3c 3a6d 3bbc
00000160: 0a0c 9b3b a367 9ebd 4dbe 26bd 7e9f bb3c
00000170: 1e1b b93c 171e 8abd f2ce 8abd b2e8 a33d
00000180: b698 9b3d 5a69 c63c 535d 643d d3c1 c53d
00000190: 4a24 413c 5db5 983d ee39 31bb b17f 943d
000001a0: 9eeb 843d 7535 b73c d416 793d 94fb 60bd
000001b0: 20a5 f1bc 8214 9cbd 0c3a 3d3b 1c5e b0bd
000001c0: 5f86 5abb 1529 23bc d50e be3c e412 923c
000001d0: e0e7 fc3b b071 313d 0513 933d 0d9c b03c
000001e0: e473 a0bd 7343 53bb 38f7 053b 36c9 84bd
000001f0: 3047 2e3b 340f 95bb dec9 69bb 1cc7 c8bb
00000200: 293d 8fbd 8688 aa3b 93cb f13c bc57 4dbc
00000210: 69a7 6bbd aeb4 733d 7b5c ec3b c865 79bc
00000220: 6d44 54bd 8fd9 1cbd 2104 b9bd ebfd 24bd
00000230: 5898 a03c 867a 923d 29fe 85bd e604 08bd
00000240: 5582 88bc ae7c 93bd ddba 863c 0c74 6fbd
00000250: 708f 093b 62c6 afbc 2361 71bd acc8 03bd
00000260: e6b3 abbd 5ae5 47bc cf1b 12bd 5c10 e83c
00000270: 08b2 d8bd d02d 4b3d a636 7abb 53e2 d9bc
00000280: ad08 0dbd 7454 32bd e79d 9cbd c41b 4f3d
00000290: 52a4 22bc 43ec 953b 8114 f7bd fc63 40bd
000002a0: bf35 9abd 50dd 4ebd 62e1 32bd ca93 803d
000002b0: efeb 71bd da27 7e3b d577 26bc b6fc 103b
000002c0: dcbc 323d 8873 fbbc 9e9b 943d 7fe6 c43b
000002d0: 86d4 a23d 3ad7 3c3c c245 8f3d 3b0b c7bc
000002e0: 8904 87bc 3ec3 0cbd 77b1 713d 4cee b4bc
000002f0: f585 8d3c b4b2 543d ff4e 373d 6a37 6d3d
00000300: af4e 1abd 3007 08bc df8a c3bc 4c6c 8bbd
00000310: b1ef 1f3d 1bb6 e53d ab33 033d 00c2 813d
00000320: f07d ebbc 5eab 94bd 8c56 6e3d 4683 de3d
00000330: 2539 3a3c 5e66 3e3c b020 e23d e291 503d
00000340: ef6e 8c3d 9cda f0bc 382f 8cbd ad3d f3bc
00000350: c945 f13d 769f 4fbd 79b3 6dbd 6492 be3b
00000360: 29da 95bd 52d4 4cbc ffc3 c7bd fa7b 45bd
00000370: d9bb 6bbd 4a6f 7f3d 9449 a4bc b2db bbbb
00000380: e398 47bd 19dd 7cbd 6c8d aebc f415 c53c
00000390: 7f41 98bd d6bf e8bd d5e1 e8bd a3cf 503d
000003a0: 273b db3c fe7a aebd 1e0d 123c 32b1 f7b9
000003b0: b9c9 54bc ccfe 3e3b d655 76bc 4cbb 13bc
000003c0: 3209 86bd 9154 333d 83ec 4dbd abf6 fa3d
000003d0: f528 973d d9a8 09bc 9827 2c3d cc9c d83d
000003e0: ab21 00bd e9f5 a53c 8377 9dbd 6b62 5abd
000003f0: cb5b 79bd a9a1 93bb 879b a7bd 2224 3b3d
-0.054958545 0.061378054 -0.05814175 0.082586035 -0.050024934 0.04714991 0.012457014 -0.02815677
-0.045720972 0.07430285 -0.0851292 -0.029137911 0.018377617 -0.032213442 -0.006841713 0.0012538864
0.027735258 -0.030439934 0.09207451 -0.05503185 -0.06088996 -0.044986255 -0.014786426 0.031446062
-0.0376718 -0.08467421 -0.019497281 0.047067102 0.040013697 0.10200385 0.058458675 -0.03971017
0.07055961 0.01653144 0.063019656 -0.0015482504 0.010233074 -0.06388456 0.014349317 0.119551234
0.0591491 0.10375722 0.08199117 -0.015705291 0.011189885 0.039521106 0.008714233 0.014257251
0.09778391 0.034580026 0.043477066 0.04028042 0.05671985 0.037861206 0.02701509 0.010086421
0.053146612 0.08395654 0.010834559 0.021601979 0.03335815 -0.058655735 0.034422636 0.029182954
-0.0042162286 0.053633608 0.11617146 0.04655236 -0.03707477 -0.046045158 -0.0030999114 0.028674424
0.06309098 -0.044212434 -0.013846075 0.054095533 0.043570984 0.02400898 0.008577736 0.022964032
-0.05986764 0.06436385 0.08734041 -0.06751864 -0.08137684 -0.0059264638 0.014312652 -0.011439616
0.00473166 -0.07734611 -0.04070883 0.0229032 0.022595938 -0.067440204 -0.06777753 0.080033675
0.07597487 0.024220157 0.055753063 0.0965611 0.011788437 0.07456467 -0.0027042585 0.07250918
0.06490253 0.022364357 0.060812786 -0.054927424 -0.029497683 -0.07621099 0.002887371 -0.086117
-0.0033344252 -0.009958525 0.023200432 0.017831273 0.0077180713 0.04332131 0.07181362 0.021558786
-0.078346044 -0.0032236248 0.0020441543 -0.064836904 0.0026592724 -0.0045489315 -0.00356733 -0.0061272513
-0.06994087 0.005204263 0.029516017 -0.012533125 -0.0575327 0.05949848 0.007213173 -0.01522202
-0.05182307 -0.038293418 -0.09033991 -0.040281218 0.019603893 0.07152276 -0.06542618 -0.033207797
-0.01666371 -0.07201515 0.016446525 -0.05846028 0.0020990036 -0.021456901 -0.058930527 -0.032173797
-0.08383922 -0.012200678 -0.03567105 0.028328113 -0.10580832 0.049604237 -0.0038179546 -0.026597178
-0.034432102 -0.043537572 -0.07647305 0.05056359 -0.009926872 0.0045752837 -0.12064458 -0.046970353
-0.075297825 -0.05050403 -0.043671973 0.062781885 -0.059062894 0.0038781078 -0.010160406 0.0022123284
0.04363714 -0.030694738 0.07256244 0.0060089226 0.07950692 0.011525923 0.06995727 -0.024297347
-0.016481655 -0.034365885 0.059007134 -0.022086285 0.01727579 0.051928237 0.04475307 0.057914175
-0.037672695 -0.008302495 -0.02386993 -0.06807765 0.039046947 0.112163745 0.032031696 0.06335831
-0.028746575 -0.07259248 0.058188006 0.10864882 0.011366163 0.011621086 0.11041391 0.050920375
0.068570964 -0.029401116 -0.06844944 -0.029692495 0.117808886 -0.050689183 -0.058032487 0.005815791
-0.073170014 -0.012501793 -0.0975418 -0.048213936 -0.057552192 0.062361993 -0.020054616 -0.005732977
-0.04872979 -0.061734293 -0.02130767 0.02405832 -0.074343674 -0.11364715 -0.11371199 0.050979268
0.026761604 -0.08519553 0.00891426 -0.00047243532 -0.012987548 0.002914357 -0.015035113 -0.009016823
-0.065447226 0.04378182 -0.050274383 0.122540794 0.07380859 -0.008402073 0.042029947 0.10576782
-0.03128211 0.02025886 -0.07688811 -0.053316515 -0.060878556 -0.0045053554 -0.08183961 0.045688756

encoder.encoder_net.3.bias f4 [32]
00000000: 3eb4 c73d 8be2 65bd 32dc 1e3d f3bd ba3d
00000010: 311c 9b3c e773 843d 4456 253c 8187 14bd
00000020: 8826 263c dc6b 2f3d dea8 80bd b70f 8bbd
00000030: 959e 383d cf1f a93d 200e 71bb e650 d73d
00000040: 0c90 033d eb3a 6f3d 4817 58bc 57a6 8b3d
00000050: 3363 6bbc aacb 79bb 589e 5dbd 691e 8b3b
00000060: 8501 c4bb 6dd8 cabc 0d9d b53d 46a9 4ebd
00000070: 6aca 863d eec3 38bc 2d47 c5bd 2528 1b3d
0.09751175 -0.05612425 0.038784213 0.09118261 0.018934341 0.06467419 0.010091368 -0.03626204
0.0101410225 0.042827472 -0.06282209 -0.06790107 0.04507311 0.0825802 -0.00367821 0.10513477
0.032119796 0.058405798 -0.013189144 0.06818836 -0.014366913 -0.0038115778 -0.054106086 0.0042455685
-0.0059816265 -0.024761403 0.08867846 -0.0504544 0.06581576 -0.011277182 -0.09632716 0.03788008
