miniproject2/experiment_2/model_decoder_1.pt (torch, 143309 bytes, 37 tensors)

prior.mean f4 [2]
000000 00 00 00 00 00 00 00 00
       0.0 0.0

prior.std f4 [2]
000000 00 00 80 3f 00 00 80 3f
       1.0 1.0

decoder.decoder_net.0.weight f4 [512, 2]
000000 de 1f 66 be 69 b9 16 bf af e8 61 3e ed d2 eb bc
       -0.22473094 -0.58876663 0.22061418 -0.0287871
000010 4c 7b 3b 3e 28 07 a0 be e6 06 3b 3e de 41 1c bf
       0.18308753 -0.3125546 0.1826435 -0.61038005
000020 37 e7 6c be af e9 19 bf b9 3c 40 3e 0f fd df bb
       -0.23135076 -0.601222 0.18773164 -0.006835587
000030 05 74 36 3f ce dc 37 3f 78 dd 76 be b1 96 2b bf
       0.7127078 0.71821296 -0.24107921 -0.6702681
000040 fc 2e 2d 3f 01 75 ec bd f3 90 ae bc e3 eb a0 3d
       0.6764982 -0.11545754 -0.021309352 0.07857492
000050 48 8e e7 3d 51 f7 46 3c 98 3f 8a 3e 16 be 3c bd
       0.11306435 0.012143926 0.27001643 -0.046079718
000060 6d 3c 88 3e f6 3c a7 3e 9d fb 2a be 22 4d 0a 3f
       0.266086 0.32663697 -0.16697545 0.54023945
000070 8b 6c 5c bf 56 42 62 be 51 4d d4 3e f7 ff 21 3e
       -0.86103123 -0.22095618 0.41465238 0.15820299
000080 61 bf 01 3f 3a 6f 96 be 60 f9 7a bd 5f 25 18 3f
       0.50682646 -0.29381734 -0.06127298 0.59432024
000090 ae a5 f1 3e 56 cf c4 bd a9 ab 4d bf b4 a3 3b 3f
       0.47196716 -0.09609859 -0.8034006 0.73296666
0000a0 8e 90 22 bf 32 72 11 be 32 27 c7 bc 8a a6 b2 be
       -0.6350182 -0.14203718 -0.024310682 -0.34892684
0000b0 19 6a 88 3e 51 b8 59 3e f8 2e 4d be 8e e7 31 3e
       0.26643446 0.21261717 -0.20037448 0.17373487
0000c0 2f 10 f8 3d fb 45 12 bf 83 f6 8a be 5e b6 31 bf
       0.12112462 -0.5713803 -0.271412 -0.69418895
0000d0 c3 ae 80 3e bc eb b1 3c 4f e0 25 3f ab 5d 2d be
       0.25133333 0.021718852 0.6479539 -0.16930263
0000e0 1c e3 09 3f 20 7c c4 3d a5 b8 b7 be e8 b8 91 3e
       0.53862166 0.095939875 -0.3588306 0.28461385
0000f0 b0 a4 9a 3e d7 b7 13 be 7f c3 81 be 98 e7 cf 3d
       0.30203772 -0.14425598 -0.25344464 0.10151595
000100 22 3f 18 3f ff 8d 97 3e e0 06 9a be a7 2b 27 bf
       0.59471333 0.29600522 -0.3008337 -0.65300983
000110 93 e7 86 bf a2 60 0e bf 8d af 45 3e ac c2 ef be
       -1.0539421 -0.556162 0.19305249 -0.4682821
000120 66 57 bf be 53 d7 34 be d6 ed 7b 3e d6 80 bb bc
       -0.37371367 -0.17660265 0.24602446 -0.022888582
000130 91 5a a1 3e 65 bf 87 3e cc 8d b0 be ce bf 50 3e
       0.3151441 0.2651321 -0.34483182 0.20385668
000140 d5 a4 23 3f 38 aa 70 bb d8 6b eb 3e de 93 a0 be
       0.6392339 -0.0036722552 0.45980716 -0.31362814
000150 61 71 81 3e 6a 11 e2 be c2 de 69 3d d2 42 ad 3e
       0.25281814 -0.4415391 0.057097204 0.33840042
000160 82 1c cf 3e 03 d0 29 bf 1b dd e1 3e e6 a1 15 3f
       0.40451437 -0.66333026 0.44114003 0.5845016
000170 50 e8 76 bd bc 9c 1d 3f 1b 1a db be 92 22 14 3e
       -0.060280144 0.6156728 -0.42793354 0.14466313
000180 b4 49 23 3f fb 73 4d 3e 5e c0 60 3e bb d2 0c 3f
       0.6378434 0.20063774 0.21948382 0.5500905
000190 34 72 bb be e1 75 e1 3e f8 b5 0c 3f 20 d8 54 3e
       -0.36610568 0.44035247 0.5496516 0.2078557
0001a0 53 ed 13 3f 72 4c cb 3e f1 97 de be 4b fe 58 be
       0.57784003 0.3970676 -0.43475297 -0.21190755
0001b0 33 ed 09 3f 70 d9 cd be db 3b 87 be c5 c7 81 be
       0.5387756 -0.40204954 -0.26412854 -0.25347725
0001c0 6c 78 45 3e 51 07 6d be c1 0b 8f 3e 0f 14 4d bb
       0.19284219 -0.23147322 0.27938655 -0.0031292473
0001d0 ed 4a 03 3f 4b ff 57 3d b0 09 80 be bd 34 38 3d
       0.512862 0.0527337 -0.2500739 0.04497217
0001e0 6c 35 27 3e d3 79 df 3e 41 0d 29 3d cd 11 47 be
       0.16328973 0.43647632 0.041272406 -0.19440384
0001f0 3e 6c f2 be 9d bd 6b be dc 9b 56 be 7c 01 e9 be
       -0.47348207 -0.2302155 -0.20957893 -0.45508945
000200 83 dd 2a be 39 04 1c be 4b d8 ec be 10 e7 2b bf
       -0.16686063 -0.15235986 -0.46258768 -0.6714945
000210 a1 87 ab 3e 57 36 2a 3f 38 7d 76 be 75 1d 16 bf
       0.33501914 0.66489166 -0.24071205 -0.586387
000220 d4 34 eb 3e fd 8e 6c be e9 71 a7 3e 62 bc 29 3f
       0.45938742 -0.2310142 0.32704094 0.66303074
000230 98 58 5c 3d e3 7b ae be 4b 1a 82 bd d3 38 ae be
       0.053795427 -0.34078893 -0.06352671 -0.34027728
000240 a4 d5 a1 be 21 d7 81 3d b9 ac db bd c8 fd d9 3e
       -0.31608307 0.06339861 -0.107263036 0.42576432
000250 6b 99 22 3f 61 4b 12 3e 8b 87 03 3e 79 9b 88 bd
       0.6351535 0.14286567 0.12844674 -0.06670279
000260 3e 02 59 3e 25 0f 9f be d7 cf 17 3f 69 18 18 3f
       0.21192262 -0.31066242 0.59301513 0.59412247
000270 78 9a fc 3e 86 c0 32 3f 66 e8 e3 3e bf 58 06 3f
       0.493366 0.6982502 0.44513243 0.52479166
000280 5e 9b fe be 8a ae eb be c0 c5 f1 3e 3c 22 13 3f
       -0.4972791 -0.460316 0.47221184 0.5747411
000290 4a a9 ef 3e 3f 26 a7 3e 54 fc 9d 3e 8c c9 10 bf
       0.46808845 0.32646367 0.30856574 -0.56557536
0002a0 c1 4f e1 3d 91 e8 b1 be 85 ca d1 bc 97 a1 51 be
       0.1100154 -0.34747747 -0.025609264 -0.20471798
0002b0 0d 8f 0b 3e e9 51 27 3e 14 3a 52 be eb 7f 64 3e
       0.13628788 0.1633984 -0.20529968 0.22314422
0002c0 db 99 55 3d 64 a9 08 3f 22 9f d9 bc 7b 26 34 bf
       0.05214868 0.5338347 -0.026565138 -0.70371217
0002d0 25 fc 2f 3f c2 41 15 be 7f 51 02 bf 92 64 e6 be
       0.6874412 -0.14575866 -0.50905603 -0.44998604
0002e0 4e 4b 0b 3f a6 34 05 3e 35 b5 39 be 33 70 3c bf
       0.5441178 0.13008365 -0.18135531 -0.736087
0002f0 6d ce e9 3e 73 9e 1b 3e 76 ed fd be 79 43 08 3f
       0.45665303 0.15197162 -0.4959523 0.53227955
000300 a6 e2 0f 3f ef b9 24 3f b9 18 0d be 35 2f 66 3d
       0.56205213 0.6434621 -0.13778962 0.056197364
000310 d4 af bb 3e b7 56 ad be 85 c5 ae 3c f7 dd 2e 3f
       0.36657584 -0.3385522 0.021334419 0.6830744
000320 c8 f8 d2 3e 3b 3d ce 3e 88 c3 1b bf 9d b7 ae bb
       0.4120543 0.4028109 -0.6084523 -0.005331947
000330 ee 8f 48 be ff 77 e2 bd 10 b1 01 3d 6f 49 63 be
       -0.19586155 -0.11058044 0.031663 -0.22195981
000340 83 15 08 3f 48 be 1d bf 1a c3 b5 3d 38 ae 1b 3e
       0.53157824 -0.6161847 0.08875103 0.15203178
000350 18 08 ce 3e df 08 04 bf 47 cf 9d bc 28 49 d4 3e
       0.4024055 -0.51576036 -0.019263877 0.41462064
000360 1b e9 c2 be f6 19 b2 be e6 5e a0 3e c5 4e 3b bf
       -0.3806847 -0.34785432 0.31322402 -0.7316707
000370 e2 87 05 3e 34 da 29 bf a8 b7 74 be 07 63 b5 3e
       0.13040116 -0.66348577 -0.23898184 0.35427114
000380 9b 5b 3c be 5a 87 ae be c3 14 33 3e a6 40 b6 3e
       -0.1839432 -0.3408764 0.17488389 0.35596198
000390 4b 49 08 3f 7c 5b 9e 3e 9f 8b 1c 3f f6 02 ee be
       0.53236836 0.30929172 0.61150545 -0.46486634
0003a0 28 b2 a3 bd 7d 29 17 3f 41 9c 5a be 57 71 0e 3f
       -0.07992965 0.5904768 -0.21348669 0.5564169
0003b0 84 46 27 3f 49 44 48 be 24 33 cc be 1f b0 75 3e
       0.65341973 -0.19557299 -0.39882767 0.23992966
0003c0 6a f5 90 3e 78 46 d7 be 09 aa 2e 3c fe e8 0e 3f
       0.28312236 -0.4204595 0.010660657 0.5582427
0003d0 98 f4 57 bc 87 ce d6 be 3e cf cf 3e 18 f7 4b 3e
       -0.013180874 -0.41954443 0.405878 0.19918478
0003e0 3c 44 12 3f d6 d5 80 3e 08 4a 1c 3b 25 36 3e bf
       0.5713537 0.25163144 0.0023847837 -0.7430137
0003f0 31 6a 17 bf 7e 04 4a bf e1 c2 00 bf 54 99 0e bc
       -0.5914641 -0.78913105 -0.5029736 -0.008703548

decoder.decoder_net.0.bias f4 [512]
000000 c5 43 95 3e e8 5f 37 3f 34 4e f8 3e 33 22 a6 3e
       0.29153267 0.71630716 0.48497164 0.32447967
000010 64 2c 4b 3e 02 e0 23 bf 53 5b 37 be 5b 22 17 be
       0.19841152 -0.64013684 -0.17905931 -0.147592
000020 9a 72 9b be 7e 6b 0a 3f 0e 1d 2a bf 8f 17 b3 bd
       -0.30360872 0.5407027 -0.66450584 -0.08744728
000030 44 30 63 be 13 a6 47 be e0 30 da be 62 fe e8 be
       -0.2218638 -0.19496946 -0.42615414 -0.4550658
000040 b1 0e 57 3e 86 04 c2 be 7b 2e 26 3f ea 74 f7 3c
       0.21001698 -0.37894076 0.64914674 0.030207116
000050 10 27 ad be 40 49 9e be ec 63 9f 3e 59 f1 09 bf
       -0.33818865 -0.3091526 0.31130922 -0.5388389
000060 c2 85 28 3f a6 21 98 be bc e0 f5 3e 94 e2 03 3f
       0.658291 -0.29713172 0.4802302 0.51517606
000070 e8 ce 35 bf 43 17 3d 3f e7 75 83 be f9 42 68 be
       -0.7101884 0.7386362 -0.2567589 -0.22681798
000080 65 5e f8 bb e0 7a e7 3e 98 03 e7 3d 7f d7 b4 bd
       -0.007579612 0.45210934 0.11279982 -0.08830165
000090 76 05 f9 be 3f f1 b7 3e 15 01 d3 be 6f 80 02 bf
       -0.4863698 0.35926244 -0.41211763 -0.50977224
0000a0 19 e4 90 3d 14 4d 82 3d a8 49 57 3f 22 6a 56 3e
       0.07074756 0.06362358 0.84096766 0.20938924
0000b0 0b 58 00 be fc e5 5d bf d0 a0 16 bf bb 7f 06 bf
       -0.12533586 -0.86679053 -0.5883913 -0.5253865
0000c0 f1 99 f4 be c8 40 99 bd db 53 4e bc 9b 85 f2 3d
       -0.47773698 -0.07483059 -0.012593235 0.118418895
0000d0 e1 fa 12 bf 76 66 9e 3e de e3 84 3e 20 5e 5e be
       -0.5741406 0.30937546 0.259551 -0.21715593
0000e0 a8 a2 9f 3e 7d 0c 85 3e df 52 73 be 72 c7 c1 3d
       0.31178784 0.2598609 -0.23762082 0.09461869
0000f0 8c 55 74 be ec 5c 2c 3f 3c 71 ed bd 76 e3 c1 be
       -0.23860759 0.6732929 -0.11593863 -0.3786885
000100 0f 7e 8d be ed 40 92 bf e4 7a 1c 3f dc a3 8e 3d
       -0.27635238 -1.1426064 0.61125016 0.069648474
000110 7a 5e 9a 3c 98 74 42 bc e7 83 56 3e d8 16 8f be
       0.018843878 -0.011868618 0.20948754 -0.27947116
000120 2d 0e 09 bf 58 9a de be 6e 22 18 3f 64 42 18 bf
       -0.53537256 -0.4347713 0.59427536 -0.59476304
000130 8f 0f 9d 3d 57 8f a1 3e b0 31 cc 3d 82 14 77 3d
       0.07668983 0.31554672 0.09970415 0.060322292
000140 a9 86 a6 3e 55 7a a3 bd 97 18 a6 3e 63 d8 27 bf
       0.32524613 -0.07982317 0.32440636 -0.65564555
000150 8c 02 9d 3e f1 20 2f 3f 8e bf a5 3e e8 81 bb 3e
       0.30666006 0.6840964 0.32372707 0.36622548
000160 2c e3 17 be 47 35 ce 3e 0f 2f 0f be af 4f 8b be
       -0.14832753 0.40275022 -0.13982795 -0.2720923
000170 18 39 16 3f 36 0f 13 3f 61 a0 fa 3d 28 98 3b 3e
       0.5868087 0.57445085 0.12237621 0.18319762
000180 86 6d ed 3e 6f 0b 0d bf 20 43 08 bf 3b 52 f3 bd
       0.46372622 -0.5509557 -0.53227425 -0.118809186
000190 74 98 27 bf e9 3c be 3e 37 bb 32 3f 8a 4a 15 be
       -0.65467 0.37155846 0.6981692 -0.14579216
0001a0 ff 2c 6d be 9e de 04 bf e7 a9 8d 3e 56 4d 0f 3d
       -0.23161696 -0.51902187 0.27668688 0.034985863
0001b0 5a 06 ef 3e 66 44 14 3f 46 e8 f2 be 0e ca 2a 3f
       0.46684533 0.5791687 -0.47442836 0.6671456
0001c0 c2 77 b7 bd 01 40 2b 3f ce 56 38 3f d1 a7 f0 3e
       -0.08958389 0.6689454 0.72007453 0.47003034
0001d0 45 bc 2f 3e 2c 58 52 be af 28 37 be ee e4 f0 3e
       0.17161663 -0.20541447 -0.17886613 0.4704966
0001e0 45 74 c6 3e e0 8f 11 bf 38 6f 28 bf 48 e5 2d be
       0.38760582 -0.5686016 -0.65794706 -0.16981995
0001f0 b9 46 1d bf ce a7 29 bf b0 0c 2f be b2 fc 41 be
       -0.6143604 -0.66271675 -0.17094684 -0.18944052
000200 cc d4 0a bf 41 3f 70 3f a9 e7 fa be ab cb 01 bf
       -0.5423095 0.9384652 -0.49004868 -0.507014
000210 93 cc 13 3f bf e0 4d bf f7 ea 00 bd 8b e9 ef 3c
       0.5773403 -0.8042106 -0.03147408 0.029286167
000220 72 d1 2d be c0 20 d6 3d fd d4 e5 3d 1c 7b 6e 3e
       -0.16974428 0.10455465 0.11222265 0.2328915
000230 f2 5d ea bd cc 33 4a bd 01 fe 2b 3f 14 ff e7 be
       -0.114437 -0.049365804 0.67184454 -0.45311797
000240 51 de eb be 8a 18 5d 3f fe 78 48 be 3a d7 72 be
       -0.4606805 0.8636557 -0.19577405 -0.23714915
000250 72 0d 00 be b0 7a 15 bf 8e 0c ff bd 09 4b 24 3f
       -0.12505129 -0.5839033 -0.124535665 0.64176995
000260 75 a2 9b bd af c8 b0 3e 01 74 4f 3e a0 c9 91 bd
       -0.075993456 0.3452811 0.20259096 -0.07118535
000270 91 fb d9 be 05 36 f3 be d8 80 b2 be 5e 69 55 3e
       -0.42574742 -0.4750215 -0.34863925 0.20840976
000280 65 a7 78 be 53 db 30 3f 6d 3a a7 3e c0 b6 14 bf
       -0.24282606 0.6908466 0.32661763 -0.58091354
000290 e3 1a 3d 3e 5b 8c 4a be b0 90 fa be c1 f2 28 3e
       0.18467288 -0.19780104 -0.48938513 0.16498853
0002a0 31 e8 0e 3f bc 1d 08 bf 6e a5 05 3f 80 3e 24 bf
       0.55823046 -0.5317037 0.5220555 -0.6415787
0002b0 8c f4 db be 29 3b 1d 3f a9 59 64 bd d8 24 8d bd
       -0.42960012 0.61418396 -0.05574957 -0.06891793
0002c0 6b 1a 1e 3f 24 b3 6a bf df 7f 5e 3e e9 f1 29 bf
       0.6175906 -0.91679597 0.21728466 -0.6638475
0002d0 c0 18 43 3e aa 0f 18 3f e4 68 05 bf cd 29 b0 be
       0.1905241 0.593989 -0.52113175 -0.3440689
0002e0 f1 b5 46 be ad d9 40 3f 82 89 05 3f 06 8d 80 3e
       -0.19405343 0.75332147 0.52162945 0.25107592
0002f0 f9 77 f8 3e 07 25 47 3f bd b4 25 bf f7 42 e9 be
       0.48529032 0.77790874 -0.6472891 -0.45558903
000300 9b 87 72 be 71 11 14 3f 0f 0c 11 3f ae 66 2c 3f
       -0.23684542 0.57839113 0.56659025 0.67344177
000310 88 7f db 3e 7c 86 09 be 30 f9 01 bf 20 09 da be
       0.42870736 -0.13430208 -0.50770855 -0.42585087
000320 b9 c5 42 3d 31 32 9c 3e 00 78 cb bd a1 6c 98 3e
       0.047551844 0.30507043 -0.099349976 0.29770377
000330 93 a8 05 bf a8 3e 26 3e d2 b2 07 3f 8b 0f 8c 3e
       -0.5221035 0.16234839 0.53007233 0.27355608
000340 f7 f0 0e bf 1b 78 68 3d 6e 1a f2 3d f1 11 13 bf
       -0.55836433 0.056755167 0.11821447 -0.5744925
000350 c7 cc b4 3d bd b8 1c 3f 0f db 86 be 37 0d 7b be
       0.08828121 0.6121939 -0.26339003 -0.2451676
000360 65 38 29 be e9 15 87 be b4 f7 b2 3e 77 06 cf bd
       -0.16525419 -0.26383904 0.34954607 -0.10108655
000370 45 9f 8c 3e 05 25 bd bd cf cb 21 bf e7 76 3d 3e
       0.27465263 -0.092355765 -0.6320161 0.18502389
000380 fc 59 5f bb 6c ef fe 3e 07 e0 84 be b5 b1 d8 bd
       -0.0034080734 0.4979204 -0.2595217 -0.1058077
000390 ca cd de 3c 05 41 3b bf 87 8c 51 be 85 90 c9 3e
       0.027197737 -0.73146087 -0.20463763 0.39368072
0003a0 f1 a9 06 3f 0e 79 15 bf 3c 2e 19 3f 47 80 0e bf
       0.5260306 -0.5838784 0.59836173 -0.55664486
0003b0 50 77 d4 be 41 95 a6 3e de 84 07 3f ab 1c fb be
       -0.41497278 0.32535747 0.52937114 -0.4904531
0003c0 3f af f2 3e 62 91 24 bf b3 da b8 be f6 ab d2 be
       0.47399327 -0.64284337 -0.36104354 -0.4114682
0003d0 02 7f f7 be 11 be 91 be fd 85 a5 3c ff 74 e2 bd
       -0.48339087 -0.28465322 0.020205492 -0.110574715
0003e0 99 21 ca be 47 da af bd 21 da 14 bf 21 1d 28 3f
       -0.39478758 -0.08586555 -0.5814534 0.6566945
0003f0 2e 44 02 3f 50 8c 0e bf 93 14 98 be 45 86 25 bf
       0.50885284 -0.5568285 -0.29703197 -0.64658004

decoder.decoder_net.3.weight f4 [32]
000000 ef a3 7c 3f d9 13 83 3f 90 85 81 3f 4c e7 83 3f
       0.9868764 1.0240432 1.0118885 1.0304961
000010 c1 82 7a 3f 72 81 7f 3f 05 69 8b 3f 04 43 8c 3f
       0.97855765 0.9980689 1.0891424 1.0957952
000020 c1 cd 86 3f 4b d6 83 3f 0f 11 85 3f ee b1 80 3f
       1.0531541 1.0299772 1.0395831 1.00543
000030 e0 d3 80 3f 07 39 81 3f 78 8b 86 3f 74 0f 77 3f
       1.0064659 1.0095528 1.0511312 0.96507955
000040 cc 8f 88 3f a4 29 8a 3f ec 23 80 3f 4c 92 83 3f
       1.0668883 1.0793958 1.0010962 1.0279021
000050 9b a3 8b 3f f9 77 83 3f d5 64 80 3f f3 bb 83 3f
       1.0909303 1.0270988 1.0030771 1.0291733
000060 e4 29 84 3f 32 73 7d 3f 81 1e 88 3f a0 01 82 3f
       1.0325284 0.990039 1.0634309 1.0156746
000070 90 fa 74 3f 99 0a 81 3f 05 4d 7c 3f da 7d 85 3f
       0.9569483 1.0081359 0.9855502 1.0429032

decoder.decoder_net.3.bias f4 [32]
000000 ba 88 b7 bc 10 d5 3d 3d 88 f0 78 3d c5 e9 86 3c
       -0.022404063 0.04634577 0.060776263 0.016468892
000010 52 c4 2b bd d7 68 a7 3d 46 fe 34 3d 61 3e 98 3d
       -0.041935273 0.081742935 0.044187807 0.07433773
000020 51 2d 05 bc f4 5a 20 bb a1 9d 24 3d fa 31 4b bd
       -0.00812848 -0.0024468275 0.04018939 -0.04960821
000030 72 63 4b ba d5 81 a4 3c 26 fd 4a bd 9f c9 69 3d
       -0.0007758654 0.02008144 -0.049557827 0.057077046
000040 02 54 bc 3b bf f2 7a 3d f6 db 46 3c f9 32 45 bd
       0.005747319 0.061266657 0.012137404 -0.048144314
000050 45 3b 99 3d a8 1f 8f bb cd 4a d3 bb a4 13 36 bc
       0.07482008 -0.0043677874 -0.006448126 -0.011113081
000060 17 e3 97 3d 7a ca 6b bd 78 82 65 bc 51 e1 af bc
       0.07416361 -0.057566144 -0.014008157 -0.021469744
000070 ed 80 0f bd 04 e5 04 bd 77 b2 fa 3c 9b 65 9e bc
       -0.035035063 -0.03244497 0.030602677 -0.019335559

decoder.decoder_net.3.running_mean f4 [32]
000000 fc ff 7f 3e fc ff 7f 3e fc ff 7f 3e fc ff 7f 3e
       0.24999994 0.24999994 0.24999994 0.24999994
000010 fc ff 7f 3e fc ff 7f 3e fc ff 7f 3e fc ff 7f 3e
       0.24999994 0.24999994 0.24999994 0.24999994
000020 fc ff 7f 3e fc ff 7f 3e fc ff 7f 3e fc ff 7f 3e
       0.24999994 0.24999994 0.24999994 0.24999994
000030 fc ff 7f 3e fc ff 7f 3e fc ff 7f 3e fc ff 7f 3e
       0.24999994 0.24999994 0.24999994 0.24999994
000040 fc ff 7f 3e fc ff 7f 3e fc ff 7f 3e fc ff 7f 3e
       0.24999994 0.24999994 0.24999994 0.24999994
000050 fc ff 7f 3e fc ff 7f 3e fc ff 7f 3e fc ff 7f 3e
       0.24999994 0.24999994 0.24999994 0.24999994
000060 fc ff 7f 3e fc ff 7f 3e fc ff 7f 3e fc ff 7f 3e
       0.24999994 0.24999994 0.24999994 0.24999994
000070 fc ff 7f 3e fc ff 7f 3e fc ff 7f 3e fc ff 7f 3e
       0.24999994 0.24999994 0.24999994 0.24999994

decoder.decoder_net.3.running_var f4 [32]
000000 a5 4d 80 3d 3e aa 80 3d 1a 64 5a 3d 03 75 74 3d
       0.062648095 0.06282471 0.05331812 0.059681904
000010 db 17 77 3d 3a 18 85 3d 44 00 7f 3d 8c ec 96 3d
       0.060325485 0.064987615 0.062256113 0.073693365
000020 07 e7 52 3d 87 f9 77 3d 55 e9 89 3d 0e 82 92 3d
       0.051489856 0.060540702 0.06733958 0.07153712
000030 4c fa 46 3d 42 b5 2f 3d 96 71 9c 3d 0b 4c 89 3d
       0.048578545 0.04289747 0.07638852 0.06703957
000040 6d 63 91 3d 37 0a 8b 3d dc 37 84 3d 7b be 9f 3d
       0.07099042 0.06789058 0.06455967 0.07800003
000050 16 85 a9 3d 71 bb 73 3d 39 c6 81 3d 23 ed 89 3d
       0.08277337 0.05950493 0.06336636 0.06734683
000060 bf a2 a0 3d 78 87 35 3d 13 90 48 3d 0c 22 a9 3d
       0.07843541 0.044318646 0.048965525 0.08258447
000070 d9 f8 39 3d d7 17 96 3d 49 de 98 3d 20 5c 4f 3d
       0.045403335 0.07328766 0.074642725 0.050624967

decoder.decoder_net.4.weight f4 [32, 32, 3, 3]
000000 67 38 61 bd 1f cb 6d bd 0c c3 6a 3d e1 c8 a9 3c
       -0.05498543 -0.05805504 0.057314917 0.02072567
000010 5f b4 db 3d 6f 5c b0 3d 46 28 95 3c ec d1 c0 3c
       0.107277624 0.0861138 0.01820768 0.023537599
000020 a6 c3 52 bd 77 f7 6c bc 38 8c 67 bd 54 ec 12 3d
       -0.051456116 -0.014463297 -0.056530207 0.03586991
000030 3e 9c ca 3c 99 90 a8 bd 91 fa b4 3d bd 4d e4 3c
       0.024732705 -0.08230705 0.08836854 0.0278691
000040 7b 70 3e bc a0 be d9 bc 24 c0 0d 3d f8 b8 12 bc
       -0.011623497 -0.026580155 0.034607068 -0.008955233
000050 00 a4 a7 bd 1f c2 3a bd ec 36 c2 bd ba a9 19 bc
       -0.081855774 -0.045595285 -0.09483132 -0.009378845
000060 7d 44 09 3d 5c 22 fd 3a 14 b3 92 3d 52 9c cf 3b
       0.03351258 0.0019312608 0.07163063 0.0063357735
000070 95 72 b4 3b 75 a4 73 3b d4 63 7d 3d 5a b0 fd 3c
       0.0055068233 0.0037176881 0.06186278 0.03096788
000080 7c 8c 6d 3d e9 2f 33 3c 92 77 96 bd f3 40 53 3c
       0.057995304 0.010936716 -0.07347025 0.012893903
000090 6b 30 81 3d 86 6c 18 bd d3 d4 44 bd a2 64 dc bc
       0.06308063 -0.03721287 -0.048054527 -0.026903454
0000a0 c3 46 94 3c 59 08 0c bd 51 68 dc bc 27 ee de bb
       0.018100148 -0.03418765 -0.02690521 -0.0068032923
0000b0 3c ad f0 bb 6d d7 9f 3c ac 3f 12 3d 93 71 aa bd
       -0.00734487 0.019511903 0.035705253 -0.08322444
0000c0 be f5 98 3c f9 c9 6b 3c 2c e7 53 bd b5 0f 86 3b
       0.018671867 0.014391416 -0.051734135 0.004091228
0000d0 af 04 f1 bb b6 00 8b 3a 04 56 5e bd ab ef f2 3c
       -0.0073552947 0.001060507 -0.05428125 0.029655298
0000e0 0d bf 78 3d 38 74 a3 3b 2c 37 26 3d 6e 6b 3d 3d
       0.060729075 0.0049882196 0.04057996 0.04624503
0000f0 9f 15 4b 3d ea 5b a1 bc 88 40 01 bd b8 65 26 bd
       0.049581166 -0.019697148 -0.031555682 -0.04062435
000100 b6 4f d9 3d 61 47 31 ba c5 5b e2 bc 81 2b 51 bc
       0.10610907 -0.00067626504 -0.02763165 -0.01276672
000110 26 e5 dd 3c 51 ef 55 bd de a1 64 3b 86 c7 9f 3c
       0.027086806 -0.052230183 0.003488652 0.01950432
000120 e3 03 b1 bb be 30 27 3c 6b 54 7c bd 22 d2 82 3d
       -0.0054020747 0.010204492 -0.061603945 0.06387736
000130 73 0f 84 3d 27 43 ca bc 64 70 88 3c f2 53 2a 3d
       0.06448259 -0.024690224 0.016655155 0.041583963
000140 90 f7 a8 3d e2 58 0e bb 27 96 18 bd 35 67 2d bd
       0.08250344 -0.0021720459 -0.03725257 -0.042334754
000150 9c 17 07 3d d4 5d 52 bd 38 a6 a2 3d 18 64 7a 3b
       0.0329815 -0.051359013 0.0794186 0.0038206633
000160 6d 4b 9a bd 34 f9 9d bc 86 52 d6 3c 24 88 dc 3c
       -0.075339176 -0.019283868 0.026162397 0.026920386
000170 8b 86 db 3c a1 f0 ab bc cb f1 d4 bd 4e d7 80 bd
       0.026797554 -0.020988764 -0.10397681 -0.06291066
000180 1b 1f 5e 3c 16 2b 92 3c 27 f2 49 bd 68 4e 74 3d
       0.013557221 0.01784281 -0.0493032 0.059645087
000190 2e 05 90 3c 4d e3 3e bd b2 25 bb 3c 31 62 2c bd
       0.017580595 -0.04660349 0.022845123 -0.04208583
0001a0 b0 5f 12 3c 7e 96 a9 3c 17 a5 3a 3c f1 25 6f bc
       0.0089339465 0.020701643 0.0113919 -0.014596448
0001b0 54 bd 79 bc 40 d0 c0 3c 96 66 e4 3c e6 eb c3 bc
       -0.015242893 0.023536801 0.027880948 -0.023916196
0001c0 11 4a e6 3d b5 50 9e 3c 49 fb 2f bd ae ca ed bb
       0.11244596 0.019325593 -0.042964254 -0.0072568273
0001d0 32 36 15 bd 44 a4 ed 3c e2 cd 80 bc 05 9d 20 bd
       -0.036428638 0.029008992 -0.015723173 -0.039212245
0001e0 ee 40 0c bd f1 51 87 3d f2 4a 3d bd 1b 8f c5 bc
       -0.03424161 0.06607426 -0.04621405 -0.02411609
0001f0 13 60 c5 3a b3 cb 96 bc ee 88 07 bd ec 13 18 b9
       0.001505854 -0.018407678 -0.03308957 -0.00014503271
000200 e5 12 67 3d 86 7d 55 bd 68 76 ba bd 55 e8 af 3c
       0.056414504 -0.05212166 -0.091046154 0.02147309
000210 58 c1 55 3c 9d fb e0 bc 7c 90 1c bd 63 a6 1c ba
       0.013046585 -0.027463729 -0.03822373 -0.0005975721
000220 e2 d9 76 bd b3 c8 2f 3d 6f d7 b0 3d 17 48 d0 bc
       -0.060266383 0.04291601 0.08634841 -0.025425
000230 a4 cd b1 3d 8c 85 1b bc 4d 0a fc 3c 5d 34 4c 3b
       0.08681801 -0.009492289 0.03076663 0.003115914
000240 d7 e3 0d bd 21 6c 11 3c f1 1f 4e 3d 70 0a 2d 3d
       -0.034641113 0.008875878 0.05032343 0.042246282
000250 2d 11 4c 3d c1 b9 bb bc b4 ef e1 3c 55 39 5c bd
       0.049821068 -0.022915723 0.02758012 -0.053765614
000260 85 3d 93 bd 7c 85 43 3d 9e a3 9a 3d c1 23 ba 3d
       -0.07189468 0.047734722 0.07550739 0.09088851
000270 26 c4 2f b8 e9 bd 02 3c 33 8f d7 bc 5b 30 7f bc
       -4.190593e-05 0.007979848 -0.0263134 -0.015575494
000280 d1 a1 13 bc d9 f2 c1 bd ea bf 01 3d 61 03 ad bd
       -0.009010748 -0.09470148 0.031677164 -0.0844791
000290 74 d8 5c bd 74 6b 27 3c 25 99 da 3c 56 df 16 3c
       -0.053917363 0.01021849 0.026684353 0.009208521
0002a0 29 7a 3e 3c 82 22 4e 3d 96 d0 3e 3d e5 0e d3 bb
       0.011625805 0.050325878 0.04658564 -0.0064409846
0002b0 a1 53 49 3d 3d 21 50 3c ca 22 f0 3a cd 5d 51 bc
       0.04915202 0.012703237 0.0018320915 -0.0127787115
0002c0 10 69 7d 3d 0e 60 51 3d 3c 09 b1 bc 15 ec 85 3c
       0.061867774 0.051116996 -0.021610849 0.016347924
0002d0 04 66 29 b9 22 b6 02 bd 06 87 23 bd 84 39 8d bd
       -0.000161551 -0.031911977 -0.03992369 -0.06895736
0002e0 76 79 ce 3b 4f be 75 bd 8e f1 63 bd 9f cd ce 3c
       0.0063011004 -0.059995946 -0.055650286 0.025244532
0002f0 b2 5b 06 3c 1a 69 25 bc d8 ff d0 bb d3 a8 58 3c
       0.008200573 -0.010095859 -0.006378155 0.013223845
000300 3f a8 a9 bc 48 34 15 bc bc 9d 2b 3d e4 32 85 3b
       -0.020710109 -0.009106703 0.041898474 0.0040649045
000310 ee 4d 68 bd bc e9 79 bd 8c b3 65 bd a7 ee d6 3b
       -0.056714945 -0.061013922 -0.056079432 0.0065592113
000320 08 5d 04 bd 1c 17 57 bd ee a4 33 3c 07 cc 0d bc
       -0.032315284 -0.052512273 0.010964615 -0.008654601
000330 71 b9 f3 3c 29 bb ca bc 19 4b 8b bd 1c 5e 9a bd
       0.029751511 -0.024747448 -0.06801433 -0.07537481
000340 37 b5 8e 3d 47 21 42 3d 89 9b 07 bd 45 b8 b3 ba
       0.06968158 0.047395017 -0.033107314 -0.0013711533
000350 ea b7 17 bc a4 fc 00 3c fb 59 f8 3c 99 04 0b bc
       -0.009260157 0.007872734 0.030316344 -0.008484983
000360 16 3d dc 3b 96 cf 82 3c 60 f9 71 3b 22 58 e8 bb
       0.006721149 0.015968125 0.003692232 -0.0070905844
000370 7f 03 9e bd d6 7b 05 3d 3a 18 2f 3c 15 f3 71 bc
       -0.077155106 0.032588802 0.010686928 -0.014767428
000380 4a 3d c3 bc 71 b0 03 bd 02 cf 2c 3c 03 69 9f bd
       -0.023832936 -0.03215069 0.010547401 -0.07783701
000390 2c 54 4d 3d 4c e0 b9 bc 56 e8 56 3d c9 7f 5a 3d
       0.0501291 -0.02268996 0.052467667 0.05334452
0003a0 e2 1e e0 bc 08 6b 86 bd 8d 56 85 3c 48 79 04 3d
       -0.027358476 -0.06563383 0.016276622 0.032342225
0003b0 e9 09 6c bd f6 8a f8 3c 00 c1 fb bc 9e bb ea bb
       -0.05762664 0.0303397 -0.030731678 -0.007163479
0003c0 68 67 a6 ba 55 93 16 bc 4a c1 89 ba c9 4c 1a bc
       -0.0012695612 -0.0091904 -0.0010509875 -0.009417721
0003d0 48 d0 a7 3d 6e 02 46 bc 6d 63 89 bd 18 dd 08 bc
       0.08194023 -0.01208554 -0.06708417 -0.008353494
0003e0 57 ad 24 bd 24 5f 5b bd 25 2e d0 3c c0 5f 95 3d
       -0.040204372 -0.05355753 0.025412628 0.072936535
0003f0 22 16 12 bc 14 80 1d bd d0 df a8 3d 75 ec 24 3d
       -0.00891641 -0.038452223 0.08245814 0.040264565

decoder.decoder_net.4.bias f4 [32]
000000 2b de 88 bd f3 d1 a6 3d c5 0b 91 3d 11 23 61 bb
       -0.06683 0.081455134 0.07082323 -0.0034353177
000010 1c 7c ee 3c 38 59 b4 ba 6b f7 c2 3d e9 1a 24 3d
       0.029111914 -0.0013759499 0.095198475 0.040064726
000020 e4 b7 7f 3c 3a 79 98 bd 27 7e c9 bc d0 be 0d ba
       0.015607808 -0.07444997 -0.024596287 -0.00054071564
000030 4b a8 d5 3c 30 18 5d bb 6f f8 fa 3d 8b 2f 13 bd
       0.026081225 -0.003373634 0.12254416 -0.035934012
000040 b9 d3 87 3d ed e5 0b bd 63 97 8f 3b d9 46 fb 3c
       0.0663218 -0.03415482 0.0043820604 0.030673431
000050 3c d0 48 bc ff 8e 73 bd d6 75 da bd 39 43 ef 3d
       -0.012256678 -0.059462544 -0.10667007 0.116827436
000060 0c 62 62 bd ea 61 ce bc 3c 06 83 3c ae 87 8c 3b
       -0.055269286 -0.025193173 0.015994184 0.004288635
000070 74 23 51 bc 98 85 0d 3d d4 4b 92 3a 2d 3a 33 bd
       -0.0127648 0.034551233 0.0011161515 -0.043756653

decoder.decoder_net.6.weight f4 [32]
000000 f1 a0 66 3f 5d 3a 6c 3f a6 4f 61 3f f0 e3 6e 3f
       0.9008933 0.92276555 0.8801216 0.93316555
000010 5e fe 67 3f 4a d1 6b 3f 8e 7e 72 3f 4d e2 80 3f
       0.9062251 0.92116225 0.9472436 1.0069062
000020 b5 44 66 3f e4 d4 62 3f d9 7f 60 3f 3e f4 6b 3f
       0.8994859 0.88606095 0.8769508 0.9216956
000030 fb 95 60 3f 1d b3 6b 3f 89 4d 66 3f 53 85 7d 3f
       0.8772885 0.9207018 0.8996206 0.9903156
000040 72 91 6f 3f 1a 6c 6c 3f fb 07 68 3f a0 69 76 3f
       0.93581307 0.9235245 0.9063718 0.9625492
000050 42 60 7c 3f 3c fa 6c 3f 34 18 68 3f c2 99 6e 3f
       0.9858438 0.9256933 0.9066193 0.93203366
000060 0e 54 61 3f 4f ef 6e 3f dd 54 62 3f 59 9f 6f 3f
       0.8801888 0.93333906 0.8841074 0.9360252
000070 ce a8 64 3f e1 1b 62 3f 2b ed 5b 3f 84 05 70 3f
       0.89320076 0.8832379 0.85908765 0.93758416

decoder.decoder_net.6.bias f4 [32]
000000 2d 96 3a 3c a9 8f 2a 3d bc f5 73 3d d7 ce ad 3b
       0.011388344 0.04164091 0.059560522 0.0053041982
000010 0b d7 6c 3c f9 dc 94 3c e2 e7 1a bd 62 6b a0 bc
       0.014455567 0.018171774 -0.037818797 -0.019582454
000020 f4 88 91 3d 44 42 c5 bc df d2 d2 3b f1 77 63 bd
       0.071062 -0.02407945 0.006433829 -0.055534307
000030 e8 53 9e 3d 73 01 87 bc 55 9e 04 3d 25 70 38 bc
       0.077308476 -0.016480183 0.03237756 -0.011257206
000040 28 11 ba 3c ff e3 1b bc 54 70 ed 3c ba 7d 2b bc
       0.022713259 -0.009514808 0.028984226 -0.010466987
000050 cc a7 ee 3c b6 5c 39 3c 36 99 16 3d 3f fe b4 bc
       0.029132746 0.011313608 0.036767207 -0.02209389
000060 63 45 9f bd d6 60 c1 3d 30 41 bc 3c 3a 52 9a bd
       -0.07776906 0.09442298 0.022980303 -0.07535215
000070 04 d7 21 3d c1 25 51 bc f5 85 48 3d 71 90 5c 3d
       0.039511696 -0.012765349 0.048955876 0.053848688

decoder.decoder_net.6.running_mean f4 [32]
000000 1d 49 12 3e 1d 49 12 3e 1d 49 12 3e 1d 49 12 3e
       0.14285703 0.14285703 0.14285703 0.14285703
000010 1d 49 12 3e 1d 49 12 3e 1d 49 12 3e 1d 49 12 3e
       0.14285703 0.14285703 0.14285703 0.14285703
000020 1d 49 12 3e 1d 49 12 3e 1d 49 12 3e 1d 49 12 3e
       0.14285703 0.14285703 0.14285703 0.14285703
000030 1d 49 12 3e 1d 49 12 3e 1d 49 12 3e 1d 49 12 3e
       0.14285703 0.14285703 0.14285703 0.14285703
000040 1d 49 12 3e 1d 49 12 3e 1d 49 12 3e 1d 49 12 3e
       0.14285703 0.14285703 0.14285703 0.14285703
000050 1d 49 12 3e 1d 49 12 3e 1d 49 12 3e 1d 49 12 3e
       0.14285703 0.14285703 0.14285703 0.14285703
000060 1d 49 12 3e 1d 49 12 3e 1d 49 12 3e 1d 49 12 3e
       0.14285703 0.14285703 0.14285703 0.14285703
000070 1d 49 12 3e 1d 49 12 3e 1d 49 12 3e 1d 49 12 3e
       0.14285703 0.14285703 0.14285703 0.14285703

decoder.decoder_net.6.running_var f4 [32]
000000 77 95 79 3b 86 d8 e0 3b 12 cd db 3b 28 7b be 3b
       0.0038083473 0.006861749 0.006707796 0.005813021
000010 9f 75 ed 3b 63 06 96 3b d1 2b 91 3b cf 46 a6 3b
       0.0072466875 0.004578398 0.004430272 0.005074359
000020 09 c5 b7 3b 0a c0 84 3b fc d6 19 3c bc 10 57 3b
       0.005608205 0.004051213 0.009389635 0.003281637
000030 35 53 4b 3b f3 c1 93 3b aa 72 85 3b 79 3a 88 3b
       0.0031024937 0.0045092045 0.004072507 0.004157361
000040 3f f7 89 3b c0 4e a8 3b a5 0d bd 3b 49 63 85 3b
       0.0042103822 0.005136341 0.005769449 0.0040706736
000050 5f c4 89 3b 81 57 87 3b bb 93 c0 3b 61 76 3e 3b
       0.0042043175 0.0041303043 0.005876986 0.0029062259
000060 8e 60 80 3b 7a a5 eb 3b 0d 72 69 3b 83 fc a3 3b
       0.00391776 0.007191357 0.0035620958 0.005004467
000070 2b 90 8a 3b ac f1 6a 3b 13 22 63 3b c6 6a a4 3b
       0.004228612 0.0035849614 0.003465776 0.005017611

decoder.decoder_net.7.weight f4 [32, 16, 3, 3]
000000 79 6d 16 3d fc f4 06 bd ca 59 8f 3c 58 d7 e1 bc
       0.036725495 -0.03294848 0.01749887 -0.027568504
000010 0a 59 3b bc 18 17 07 3a d9 a0 13 3b 29 3b b7 3d
       -0.011434803 0.00051532825 0.0022526293 0.08946831
000020 2c cf c5 bd 03 19 15 3d e8 a5 69 3c 9c 76 25 3d
       -0.096586555 0.036400806 0.014260747 0.040396318
000030 8d 21 9a bd c1 42 d4 bd 9a 9a 46 ba b9 74 61 3b
       -0.075259306 -0.10364295 -0.0007576138 0.0034401848
000040 34 1c a9 3c ed 14 b5 3c 79 63 48 bd 83 94 4e bd
       0.020643331 0.022104705 -0.04892299 -0.0504346
000050 ec 45 04 bc aa 31 36 bd c0 68 b7 bd 2f bc cf bd
       -0.008073311 -0.044480957 -0.08955526 -0.10143315
000060 23 ac 51 3d c8 d1 38 3d d9 ee aa 3c c0 60 7e bd
       0.051189553 0.045121938 0.020865845 -0.062103987
000070 f5 9e 2c 3c 83 c6 a4 bd 65 71 ee bb e2 57 03 3d
       0.010535945 -0.080456756 -0.0072767013 0.032066233
000080 3d b3 73 3d 20 98 77 bd 29 c2 26 bd 8e 2d 94 3d
       0.059497107 -0.060447812 -0.04071251 0.07235251
000090 0c fd 55 bd 8a 74 15 bc e4 f6 a4 bc 0c ba 60 bd
       -0.052243277 -0.009122023 -0.020137258 -0.054864928
0000a0 1b 81 96 3d 8e 99 f1 3c 6a 1b 0d bd ec fc ae 3c
       0.07348844 0.029492166 -0.034449972 0.021360837
0000b0 f6 93 22 3d fa c5 62 bd 51 0c e3 3c b3 d8 9e bc
       0.039691888 -0.055364586 0.027715834 -0.01939044
0000c0 1f 5e 40 3c 29 08 c8 bd e9 c1 20 bc 9f be 32 bd
       0.01174119 -0.097671814 -0.009811857 -0.04363882
0000d0 df c8 5a bd f8 a1 91 3d 53 e5 15 3d 32 e6 0b bd
       -0.05341422 0.07110971 0.036595654 -0.03415508
0000e0 25 6b 10 3b 84 b5 f2 bd 28 ad b7 bc 55 ff 0f bc
       0.002203652 -0.118510276 -0.022421435 -0.008788903
0000f0 f9 33 4a bd 10 94 d8 3c 37 89 a4 3d 49 9f 2d bd
       -0.04936597 0.02643779 0.08033984 -0.042388234
000100 44 0f 99 bd 0c c5 26 3d 51 b7 c6 3b c1 50 98 bd
       -0.07473615 0.040715262 0.0060643335 -0.074372776
000110 e0 e0 04 3e 46 95 a3 bc dd 98 94 3d 4b bc 01 3b
       0.12976408 -0.01996864 0.07255719 0.001979607
000120 37 23 65 bd 86 90 4b 3d 2b a8 fe bc 41 43 3d bd
       -0.055941787 0.049698375 -0.031086048 -0.046206716
000130 20 50 16 3d c0 a3 40 3c 61 02 6e 3d 15 2e 3d 3c
       0.036697507 0.011757791 0.058107737 0.011546631
000140 e5 66 fb 3c 2a 38 bc bd 3a 5e 8a bd a9 a9 05 3d
       0.030688712 -0.091904 -0.067562535 0.032632504
000150 b8 ee 27 3d a3 5d 5d 3b 81 d8 86 3d 33 ec 2a 3d
       0.040999144 0.0033777736 0.065842636 0.041729163
000160 9b a7 01 bd 22 91 05 3b 0c ea c4 3d 0d ac d9 3c
       -0.03165398 0.0020380695 0.096149534 0.026571298
000170 8a 9c ff 3b c3 27 80 bd 0c 79 48 bd 57 53 49 bd
       0.0078006433 -0.06257584 -0.048943564 -0.049151745
000180 5e f2 e8 bc 57 dc cd 3d 6f ab c7 bb 1f 9f 79 3d
       -0.028435882 0.10051792 -0.0060934345 0.060942765
000190 45 99 12 3c 61 97 f3 3a 61 7d a8 3b 2c 85 03 3d
       0.008947675 0.0018584543 0.0051418995 0.032109424
0001a0 b8 b8 02 bd d8 8d 39 3d 88 2b 7a 3c e0 5b f0 3c
       -0.031914443 0.04530129 0.015269168 0.029340684
0001b0 f3 40 5f bd 10 58 85 bd 78 b3 22 3d a1 b6 0c 3d
       -0.0545053 -0.06510937 0.039721936 0.034353856
0001c0 f2 a4 98 bd 6e e5 9c 3c 97 1d ef bb f6 f8 79 bc
       -0.07453336 0.01915237 -0.0072972286 -0.015257111
0001d0 07 8d e7 3c 62 8c 87 bc bb 21 52 3b 55 78 54 bc
       0.02826549 -0.016546432 0.0032063562 -0.0129681425
0001e0 7c 28 8b bd 13 6f e5 bc 8c b2 38 3c 5f 79 40 3d
       -0.06794831 -0.028007066 0.011273038 0.04699075
0001f0 f1 3f 74 3d 1b 03 d6 3d 28 16 82 bd 84 02 9d ba
       0.05963129 0.10449811 -0.06351882 -0.0011978899
000200 1a 01 95 bd e8 e3 1b 3a e7 6f 67 bb 0e 70 18 be
       -0.07275601 0.00059467414 -0.0035314502 -0.14886495
000210 4a 9d 9a bc 43 4f 98 bd 37 59 3b 3d 41 4f 81 3d
       -0.01887383 -0.07436993 0.04573938 0.063139446
000220 35 1e 8e 3d 01 8e 10 be f7 43 11 3d ac 8a 9e bc
       0.06939355 -0.1411667 0.035465207 -0.019353233
000230 bd 7d 2a bd 3a f9 07 3d dd 40 40 3d 2f 0e 5d 3b
       -0.04162382 0.033196665 0.04693686 0.0033730378
000240 d4 b2 56 3a 40 8a 6c 3d 3f 09 14 bc 2c 83 ff bc
       0.00081900996 0.057749033 -0.009035408 -0.031190477
000250 f9 05 bf bc 56 20 14 3c e2 cf c3 3d a1 ea f0 bc
       -0.023318278 0.009040913 0.09561135 -0.029408755
000260 37 0f e2 3b 90 87 77 bd 0e 1d 96 bc 6f 5a f3 3b
       0.0068987864 -0.060432017 -0.018324401 0.007426552
000270 48 a0 71 bd ad be cd 3d d5 5c f5 3c 53 79 a4 3d
       -0.058990747 0.10046134 0.029951492 0.08030953
000280 20 83 a2 bd ec 2c 36 3d fc 04 05 bc 9c 7e 34 bd
       -0.07935166 0.044476435 -0.008118864 -0.044066057
000290 fb 7c 5e bc 5e 14 df bb 57 8b cc bb 82 52 3a ba
       -0.013579602 -0.006807848 -0.0062421965 -0.00071076315
0002a0 69 c6 25 3d 1a f2 f2 bb 1e 7e af bd af 1a 1b 3d
       0.04047242 -0.0074141147 -0.08568977 0.037867244
0002b0 aa 9d 74 3d 79 62 af bd 8e 1d f5 bd 8a 8d 24 bd
       0.059720673 -0.08563704 -0.11968528 -0.040174045
0002c0 d6 93 83 bc 1d 8a 98 bb 14 81 8b bc 41 99 59 bb
       -0.016061705 -0.0046551363 -0.017029323 -0.0033202919
0002d0 f6 0e d1 bc 34 59 0d bd cd 4a 41 3d 62 ad 3c 3d
       -0.02551983 -0.0345089 0.047190476 0.04606379
0002e0 85 f6 ef bc d5 03 6e bd a5 85 41 bd 04 ff c5 ba
       -0.029292354 -0.058109123 -0.047246594 -0.0015105908
0002f0 f1 7e 1a 3d 54 2e b5 3c aa ac 1e 3d c3 e2 7b bd
       0.037718717 0.022116818 0.038738884 -0.061495554
000300 c2 92 64 3c f8 56 d0 bd 6b 59 5c 3d 1c 4b 52 bd
       0.013951005 -0.10172838 0.053796213 -0.05134116
000310 43 a0 ad bd 9a ad 08 3d 79 75 be bd 7e 71 b3 bb
       -0.08477833 0.033368684 -0.0929975 -0.005476176
000320 a2 f6 7e 3d fd f3 93 bc 88 cf 2a bc bc df aa bd
       0.062246926 -0.018060679 -0.010425456 -0.08343455
000330 51 03 78 bc 6c 81 ea 3c 5b df cb 3b 5c 64 05 3d
       -0.015137509 0.028626166 0.0062216944 0.032566413
000340 5c 78 a7 3d b8 cc aa bd 42 6a ff 3c 3f e6 b2 bc
       0.081772536 -0.08339828 0.031178597 -0.021838306
000350 56 ab 15 3d 1c 58 35 bd 61 74 04 bd e3 c1 2c ba
       0.03654035 -0.04427348 -0.03233755 -0.00065901707
000360 b8 57 80 bd f2 e0 66 bd e0 7f 16 3d eb 7e 6b 3d
       -0.06266731 -0.05636687 0.036743045 0.057494085
000370 88 04 02 3d 9c 1d bb bd 29 a2 a2 bd d2 87 54 bc
       0.031742603 -0.09136507 -0.07941086 -0.012971835
000380 7a 66 94 bc 93 16 2d bd 60 b3 01 3e bc c6 6c ba
       -0.01811527 -0.042257857 0.12666082 -0.0009032299
000390 a0 a4 43 3b 1b ed 77 bd 3b d3 8f bc f3 f7 b8 3d
       0.0029852763 -0.060528856 -0.017556777 0.090316676
0003a0 27 74 94 bd e7 9b 97 bd 57 08 1f bd e4 d3 b4 3d
       -0.07248717 -0.07402783 -0.038826313 0.088294774
0003b0 1e 2f 05 3d e3 40 1e 3c bc b9 95 3d ac 1f a3 bd
       0.032515638 0.009659025 0.07310817 -0.07965025
0003c0 70 a6 6d b9 97 2c 93 3c 58 39 55 3d e4 43 30 bd
       -0.00022664084 0.017965598 0.05205664 -0.043033496
0003d0 4c 95 cc bd 05 40 4c 3d 07 32 e4 bc ae e3 0c bb
       -0.099894136 0.04986574 -0.027855886 -0.0021498012
0003e0 8c b8 40 3d 7a ed e0 3c 2a 28 66 3d 8e 58 94 bc
       0.047050998 0.027456988 0.056190647 -0.018108632
0003f0 96 4c ac 3c 99 26 d3 3d 6b 44 c1 bc f0 cc 93 bc
       0.021032613 0.10310096 -0.023592195 -0.018042058

decoder.decoder_net.7.bias f4 [16]
000000 c6 d8 25 bd f0 7e b6 bd 52 ec 18 bd a1 f1 a6 bd
       -0.040489934 -0.0891093 -0.037334748 -0.08151556
000010 3b 2f 87 bd 8b 47 5e 3d 98 ff 5e bc 43 21 e6 3d
       -0.06600805 0.054267447 -0.013610743 0.11236813
000020 f3 9a 9c 3c 9e 51 8d 3d ef bb d9 bc 78 61 db 3d
       0.019116854 0.06900333 -0.026578872 0.1071195
000030 7e 0f a2 bd 0c ac d9 bc 4f ea 09 be d4 6c 85 bd
       -0.07913111 -0.026571296 -0.13468288 -0.06514898

decoder.decoder_net.9.weight f4 [16]
000000 8d 78 63 3f b6 20 6a 3f b9 91 67 3f 3d 24 66 3f
       0.8885582 0.9145616 0.9045673 0.89899045
000010 b4 1e 6a 3f f2 82 64 3f ed 9d 68 3f ed bc 62 3f
       0.914531 0.89262307 0.90865976 0.8856953
000020 1a 93 67 3f 1b 2d 66 3f 9f 82 67 3f 03 47 65 3f
       0.90458834 0.89912575 0.90433687 0.8956148
000030 ff 0b 66 3f c9 f2 65 3f e1 07 88 3f 5e 90 63 3f
       0.89862055 0.89823586 1.0627404 0.8889216

decoder.decoder_net.9.bias f4 [16]
000000 f5 90 9c 3d 5e 3f fe 3d 47 15 70 bd f8 ac f5 3d
       0.07644836 0.1241443 -0.05861404 0.11995882
000010 6e c0 05 3d c8 71 80 3d e4 d2 31 bc ec 72 26 3e
       0.03265422 0.06271702 -0.010853503 0.16254777
000020 0a c1 a6 3d fc 4b 4d bc 52 d0 f7 3d 32 15 a0 3d
       0.08142288 -0.012530323 0.12100281 0.07816543
000030 8f df e0 3d e3 86 34 3e 27 a8 37 3e e9 63 45 be
       0.109801404 0.1762958 0.17935239 -0.19276394

decoder.decoder_net.9.running_mean f4 [16]
000000 1d 49 92 3d 1d 49 92 3d 1d 49 92 3d 1d 49 92 3d
       0.071428515 0.071428515 0.071428515 0.071428515
000010 1d 49 92 3d 1d 49 92 3d 1d 49 92 3d 1d 49 92 3d
       0.071428515 0.071428515 0.071428515 0.071428515
000020 1d 49 92 3d 1d 49 92 3d 1d 49 92 3d 1d 49 92 3d
       0.071428515 0.071428515 0.071428515 0.071428515
000030 1d 49 92 3d 1d 49 92 3d 1d 49 92 3d 1d 49 92 3d
       0.071428515 0.071428515 0.071428515 0.071428515

decoder.decoder_net.9.running_var f4 [16]
000000 e4 a1 bb 3a 5b 97 23 3b 26 bd 02 3b 02 af ad 3a
       0.0014315215 0.002496204 0.0019949167 0.0013251009
000010 b3 b7 9a 3a 8a 60 6a 3a 01 94 aa 3a 50 ea d1 3a
       0.0011804014 0.0008940777 0.0013014079 0.0016015265
000020 7e 94 72 3a 23 3d 5c 3a 8f e0 cb 3a ae a4 89 3a
       0.00092536944 0.0008401444 0.0015554595 0.0010501349
000030 17 e5 7a 3a 50 a9 98 3a 57 25 81 3b 08 e3 89 3a
       0.000957088 0.0011647139 0.003941219 0.0010519931

decoder.decoder_net.10.weight f4 [16, 1, 3, 3]
000000 14 38 54 be df 4a ac 3d 91 cf 4c 3e f6 02 64 3e
       -0.20724517 0.08412718 0.20001055 0.22266755
000010 8d 13 ff bd 76 00 93 3d a9 60 28 3e ee a1 20 3d
       -0.12454901 0.07177822 0.16443123 0.03921693
000020 b1 0c 26 be 04 9c 2e 3e 22 fd 30 3d ae 5e ed bd
       -0.16215779 0.17051703 0.043210156 -0.11590324
000030 36 a2 2f 3e 9c 53 2a 3e 21 78 76 bd 92 94 c8 3d
       0.17151722 0.16633457 -0.060173158 0.097939625
000040 20 08 46 bc d1 f5 77 3e 56 02 54 be 16 f8 38 be
       -0.012086898 0.24214865 -0.20704016 -0.18063387
000050 5e 0d b1 3c 23 90 70 be 1e 1a f9 bd f2 a0 a3 3b
       0.02161282 -0.23492484 -0.121631846 0.0049935514
000060 6c e7 2f be 46 84 2d 3e 06 08 f2 3c 95 d1 1e 3d
       -0.17178124 0.1694499 0.029544841 0.03877409
000070 fe e0 2b ba 46 ca 9b 3d 00 23 0d 3e 74 88 fe 3d
       -0.0006556659 0.0760694 0.13782883 0.1242837
000080 2c 1b cb 3d 90 b6 b1 3c eb 0b 14 3e cd e9 0f 3d
       0.09917292 0.021693498 0.14457671 0.03513508
000090 0f b4 0f bb d6 6c f1 3c 42 a4 33 3e d3 5f 41 be
       -0.0021927392 0.029470842 0.17543128 -0.1888421
0000a0 ee 86 bc 3d fb 43 ac 3c 20 8c 02 3e d7 b3 79 be
       0.09205423 0.02102851 0.12748766 -0.2438501
0000b0 28 e9 2f 3e 29 22 87 3d 0a 52 4b 3e 6d c7 d3 3d
       0.17178786 0.065983124 0.19855514 0.10340772
0000c0 91 55 58 bd bd 61 18 3d 05 f7 da 3d ba 11 00 3e
       -0.052815977 0.037202585 0.106916465 0.12506762
0000d0 e3 22 a4 3d 36 e7 bd 3d 99 43 8a bd 54 71 b9 3d
       0.080144666 0.092726156 -0.067511745 0.09054819
0000e0 98 bd 1b bd bf 89 19 3e d7 1b 2a be 37 7d d8 3d
       -0.038022608 0.14993952 -0.16612183 0.10570758
0000f0 3c 8d e5 bd aa 32 e5 3d c1 0f 07 be 58 e7 36 be
       -0.11208579 0.11191304 -0.13189603 -0.17861688
000100 2c 65 ea 3d 0c 9a 1e 3d d4 b5 ba 3d cd 99 2a 3e
       0.11445078 0.03872113 0.09116712 0.16660233
000110 e7 df 15 3e 86 55 6c bd ab 3f 58 3e 47 3a 09 3e
       0.14636193 -0.05769875 0.21118037 0.13401137
000120 89 44 a1 3d 30 d5 48 3e 7e 6b cd 3d 17 f0 a5 3d
       0.078744 0.19612575 0.10030268 0.08102434
000130 d2 0c 47 3d 45 fd 3e 3e b6 13 ab 3d 7e 8b 1a 3e
       0.04859621 0.18651302 0.08353369 0.15092275
000140 6d cf c0 3d cc 10 af 3d 8a ab 11 3e 0f 49 f0 3d
       0.09414563 0.085481256 0.14225593 0.11732685
000150 ec d8 a4 bd b5 1d a7 bd e0 d4 e6 3c ea 62 4a 3d
       -0.08049187 -0.08159963 0.028177679 0.049410738
000160 7d ff 2c bd 61 c1 e4 bb 32 51 e9 3d e1 b7 14 3e
       -0.04223584 -0.0069810604 0.1139244 0.14523269
000170 16 9b 1e 3d d9 f5 2d be 94 48 4e 3e f4 10 ff 3d
       0.03872212 -0.16988315 0.20144874 0.124544054
000180 5e 5f e7 bd 26 a6 be 3d 77 7f 32 bd 09 c7 63 bd
       -0.11297487 0.09309034 -0.04357859 -0.055609737
000190 42 cd 2d 3e ce 63 85 3b e3 c4 97 bd 2f 58 c6 bc
       0.16972831 0.0040707355 -0.074106 -0.024211971
0001a0 85 ff 3d 3e 69 fa 53 3c 2c af f3 bd 4b 64 65 3e
       0.18554504 0.01293812 -0.11898646 0.2240154
0001b0 97 fb 1f 3d aa 76 c6 3d cf 78 6d bd 7b af 37 3e
       0.039058294 0.09690602 -0.05797654 0.17938034
0001c0 79 4a 98 3d ce f4 0c 3c ff 19 b5 bc 7e 99 3c be
       0.074360795 0.008603288 -0.022107122 -0.18417928
0001d0 13 75 10 be 15 b0 b1 bd 7b 08 98 3d f6 64 b7 3d
       -0.1410716 -0.08676163 0.074234925 0.08954804
0001e0 23 64 0f 3e bc da 8b 3e 75 6d 67 bd 47 25 0b 3e
       0.14003043 0.2731532 -0.05650087 0.13588439
0001f0 52 15 ce 3d 8a 0e ab bd 3b 80 82 be 46 16 db be
       0.1006266 -0.083523825 -0.25488457 -0.4279043
000200 44 01 99 be 99 cc af 3d 63 8d 87 3d 1d 49 82 3c
       -0.29883778 0.08583946 0.06618764 0.015904004
000210 70 06 f3 3d d2 e0 38 bd 43 c7 24 3d fa 15 b9 bd
       0.11866462 -0.04513628 0.040229093 -0.09037395
000220 61 cc bd 3d 2c 26 bd bd 6c 56 ac bd 41 89 7b be
       0.09267498 -0.09235796 -0.08414921 -0.24564077
000230 38 e4 80 bd 6a a0 cc 3d 46 0d f1 bd 51 a2 96 3c
       -0.06293529 0.09991534 -0.1177011 0.018387945

encoder.encoder_net.0.weight f4 [16, 1, 3, 3]
000000 a6 09 6c 3c e9 7f 50 be 2b 2d 8e be a1 e0 45 bd
       0.014406597 -0.20361294 -0.27768835 -0.048309926
000010 9f 03 f6 bd a5 f3 3a be 2a 47 aa 3d 8c 17 ff 3d
       -0.120124094 -0.18257006 0.08314355 0.12455663
000020 eb ab 8b be ea 9e 1a 3e 0f ab 86 3e c2 75 b0 be
       -0.272796 0.15099683 0.26302382 -0.34464842
000030 f5 30 7f 3e 4a 4e 8d 3e 65 15 32 3e 6a 21 11 bd
       0.2492102 0.27598792 0.17390974 -0.035432257
000040 27 18 7f bd 6c d7 46 be 66 26 75 3e 8c e5 9c be
       -0.062278893 -0.19418114 0.23940429 -0.3064388
000050 be 5b 80 bd 71 ca 65 be 5b 28 6b be d6 e6 5b 3d
       -0.062674984 -0.22440507 -0.22964613 0.05368694
000060 00 88 c2 3d 52 30 98 3e 62 d4 6a be a5 71 a7 3e
       0.09498596 0.29724365 -0.2293258 0.3270389
000070 e1 9a 8a be 08 b5 e6 bd 6e 8b 30 3e fe 41 3e 3e
       -0.27071288 -0.11264998 0.17240688 0.18579862
000080 f5 c1 44 bd 1b ed fe bd cd ec 0a be a7 79 64 3e
       -0.048036534 -0.12447568 -0.13566895 0.22312032
000090 25 c1 8e 3e a7 6d 1c 3e 61 82 10 3e 03 84 e7 3d
       0.27881733 0.15276204 0.14112236 0.11304476
0000a0 ba bf 97 3e 06 1e f0 bb 06 15 b2 bd 1a da 67 be
       0.29638463 -0.007327798 -0.08695416 -0.22641793
0000b0 e9 18 4e be 58 75 8b bd e2 ff 0f be fd 7e a0 be
       -0.2012669 -0.06809491 -0.14062455 -0.31346884
0000c0 45 fb b3 3e 8a 2b 5e 3e b9 b6 f5 3b 82 7b d9 3c
       0.3515264 0.21696296 0.007498589 0.02654815
0000d0 36 01 63 be df 8f bb bd 33 64 51 3e be 67 d3 bd
       -0.2216843 -0.091583006 0.20448379 -0.103225216
0000e0 45 2e 87 be 0c 31 7a 3d 3e 1c e6 3d fe 89 a4 be
       -0.26402488 0.06108193 0.112358555 -0.3213653
0000f0 16 4a cb bd 24 aa 4f 3e c0 94 ec 3d b6 cf 35 be
       -0.0992624 0.20279747 0.11551809 -0.17755017
000100 09 76 9a bd 62 00 8b be ae 71 4e bd ac 46 1e 3e
       -0.07542045 -0.2714873 -0.050401382 0.15456647
000110 3e 12 71 be e2 2d 1b 3e 5e bf 04 3e 1d e4 03 be
       -0.23542115 0.15154222 0.12963626 -0.12879987
000120 8a 2a b1 bc 97 c3 74 be 1f db c6 3c 5a 67 b4 be
       -0.02162673 -0.23902737 0.024274407 -0.352351
000130 2f 0a 0f be 34 a2 48 be f6 fa b1 be 67 e4 a3 be
       -0.13968728 -0.19593126 -0.3476178 -0.32010195
000140 70 15 fa bd d8 b1 83 3d 72 70 5f 3e 66 06 2d 3e
       -0.1221112 0.064304054 0.21820238 0.16896972
000150 d3 4d aa 3e 07 85 17 3e 0a 33 9f be 84 a5 ef 3d
       0.332625 0.1479684 -0.31093627 0.117014915
000160 c4 22 9e 3e ab 63 07 3d 00 bd 8f be 93 55 90 bd
       0.308859 0.033054035 -0.28073883 -0.07047572
000170 fa b7 7a bd 52 ff 8b 3e f8 21 9b be 6e 1b 0d 3e
       -0.06121061 0.2734323 -0.30299354 0.13779995
000180 38 dc 07 be c8 03 9d be 4d 86 8c be d1 5c d4 3d
       -0.132676 -0.30666947 -0.27446213 0.10369266
000190 bf b3 aa be 4b 5b 8b be 41 3b 27 be f4 e8 e4 bd
       -0.3334026 -0.27218089 -0.16331197 -0.11177245
0001a0 12 e4 3a 3e 54 58 44 3d 06 d0 a7 be c2 41 a6 3d
       0.18251064 0.0479358 -0.32775897 0.08118011
0001b0 aa d8 cd 3d de bf a3 3d dc f8 3b bd 57 17 95 3c
       0.10051091 0.0799558 -0.045891628 0.018199606
0001c0 31 c2 a8 bc 26 70 21 be 44 f1 90 3d 0e fe 1c be
       -0.02060041 -0.15765437 0.07077268 -0.15331289
0001d0 10 57 df bd ef 0e 32 bd 20 ff 95 3e a7 de 9d be
       -0.10905278 -0.043471273 0.29296207 -0.30833933
0001e0 58 81 48 3b 4c d0 35 be 96 7f 90 3c 05 0a a0 3c
       0.0030594673 -0.1775524 0.017638963 0.019536028
0001f0 13 ee 06 3e c4 fa 9a be dd ef b6 be 37 35 39 3e
       0.13176756 -0.30269444 -0.35729876 0.18086706
000200 ac b2 06 be 28 58 64 be e5 95 82 be 13 6f 57 3d
       -0.13154095 -0.22299254 -0.25504985 0.052596163
000210 60 0e d9 bd 52 b5 3e be f7 88 c2 bd c6 03 02 3e
       -0.10598445 -0.18623856 -0.0949878 0.12696752
000220 ad 93 67 be 30 ea ab 3d 81 d2 d7 bd 2d 54 9d be
       -0.22614928 0.08394277 -0.10538197 -0.30728284
000230 bf d5 32 bd 87 4a 90 3e 95 7b 99 be 33 8c f4 3d
       -0.043660875 0.2818186 -0.29977098 0.119408034

encoder.encoder_net.0.bias f4 [16]
000000 03 48 f1 bd 46 bf 74 3e 55 09 87 3e 06 e0 30 be
       -0.11781313 0.2390109 0.26374307 -0.17272958
000010 05 f3 81 3e 6f 06 09 be 77 64 23 3d 80 53 e8 3d
       0.25380722 -0.1338136 0.039890733 0.11344051
000020 5a bf 8c bd d6 c6 9d be 31 1c 89 3e 8a 0a 1e 3e
       -0.06872435 -0.30815762 0.2677932 0.15433708
000030 56 57 c6 3d b0 01 9e 3d 1a ac 78 3e 01 29 8d be
       0.09684627 0.077151656 0.24284402 -0.27570346

encoder.encoder_net.2.weight f4 [16]
000000 7f 1e 87 3f 10 8a 8a 3f 37 bc 84 3f 55 e8 79 3f
       1.0556182 1.0823383 1.0369939 0.97620136
000010 5f 63 8e 3f 1f 29 82 3f fd e3 7b 3f e4 a9 8b 3f
       1.1124076 1.0168799 0.9839476 1.0911222
000020 4a 01 9e 3f cb fa 91 3f a7 3e 88 3f d7 ab 86 3f
       1.2344143 1.1404661 1.064412 1.0521191
000030 c4 ef 88 3f 5c 73 83 3f c1 57 89 3f 2d c2 7f 3f
       1.0698171 1.026958 1.0729905 0.99905664

encoder.encoder_net.2.bias f4 [16]
000000 5c 7e 45 bd cc 13 82 3c 13 b7 bb 3c d3 12 c3 bc
       -0.04821621 0.01587858 0.022914445 -0.023812687
000010 3b 33 06 bc 08 64 4c bc 46 3e 36 bc 8a d0 6d bd
       -0.008190925 -0.012475021 -0.011123246 -0.058060206
000020 02 41 a3 3b 13 57 a3 ba 87 f0 19 bd 08 1e 3c bd
       0.004982115 -0.0012461863 -0.0375829 -0.045927078
000030 7f 11 07 bd 5c 21 ed bb 67 07 1a bd 64 5b 0b bd
       -0.03297567 -0.0072366428 -0.037604716 -0.034022704

encoder.encoder_net.2.running_mean f4 [16]
000000 1d 49 92 3d 1d 49 92 3d 1d 49 92 3d 1d 49 92 3d
       0.071428515 0.071428515 0.071428515 0.071428515
000010 1d 49 92 3d 1d 49 92 3d 1d 49 92 3d 1d 49 92 3d
       0.071428515 0.071428515 0.071428515 0.071428515
000020 1d 49 92 3d 1d 49 92 3d 1d 49 92 3d 1d 49 92 3d
       0.071428515 0.071428515 0.071428515 0.071428515
000030 1d 49 92 3d 1d 49 92 3d 1d 49 92 3d 1d 49 92 3d
       0.071428515 0.071428515 0.071428515 0.071428515

encoder.encoder_net.2.running_var f4 [16]
000000 e8 a7 2d 39 2a b7 2d 39 8d ed 69 38 be a8 27 38
       0.00016561116 0.000165668 5.5772765e-05 3.9973056e-05
000010 01 42 55 39 a6 a0 56 38 e9 e4 4b 38 76 02 a2 38
       0.00020337851 5.117119e-05 4.861216e-05 7.72522e-05
000020 4f 25 eb 39 c1 81 cc 39 07 db 43 39 fe cd 1a 39
       0.0004485049 0.00039006586 0.00018678243 0.00014763323
000030 b4 65 27 38 61 2e 4b 38 35 59 67 39 c9 8f 83 38
       3.991062e-05 4.8442165e-05 0.00022063109 6.273349e-05
