miniproject2/experiment_0/model_decoder_0.pt (torch, 143309 bytes, 37 tensors)

prior.mean f4 [2]
000000 00 00 00 00 00 00 00 00
       0.0 0.0

prior.std f4 [2]
000000 00 00 80 3f 00 00 80 3f
       1.0 1.0

decoder.decoder_net.0.weight f4 [512, 2]
000000 b4 35 3d 3d d9 47 a5 3e 85 2f fb be 12 9d 15 bf
       0.046193793 0.32281378 -0.49059692 -0.58442795
000010 aa 25 0e be 60 30 e5 3d af 49 2f bd 10 03 1d 3f
       -0.13881555 0.111908674 -0.04279488 0.613328
000020 6f c1 3a bc d9 9e a5 3a 11 83 59 be b5 ec 72 3c
       -0.011398657 0.0012635841 -0.21241404 0.014826943
000030 2f 3e 48 bf 2c d5 08 bf 52 1d a6 be 7e c7 2b 3e
       -0.78219885 -0.53450274 -0.32444245 0.16775319
000040 09 c9 05 3e 7e cc 05 3f 3b 08 01 bf ce fc cf be
       0.1306497 0.52265155 -0.50403184 -0.40622562
000050 a5 41 14 3f 08 6f 36 3f 30 d1 a1 bd 74 23 e1 3e
       0.57912666 0.7126317 -0.079012275 0.4397236
000060 1d 65 e0 bd b3 79 52 3e 89 9f 89 3e e1 ed fa be
       -0.10956786 0.20554237 0.26879528 -0.49009612
000070 d6 6b 02 bf 0f 62 3c be b7 85 87 be 75 a8 12 3f
       -0.50945795 -0.18396781 -0.26469204 0.57288295
000080 f0 79 fb be 4b fa ab be 7c 6f fa be eb cf 1e bf
       -0.49116468 -0.33589396 -0.4891318 -0.6203601
000090 3b 65 dd be b6 52 38 3f 87 3a 06 3f cf 03 a5 3e
       -0.43241295 0.72001207 0.52433056 0.32229468
0000a0 85 b1 8e 3b 75 6d 50 be e6 f6 b8 3d 33 af 2b bf
       0.004354658 -0.20354255 0.09031467 -0.6706421
0000b0 11 68 01 bf d9 0e eb be 03 3b b0 3e 3d 1e 92 3e
       -0.5054942 -0.45909765 0.34420022 0.28538695
0000c0 a7 19 84 be fc 61 d3 bd d0 e4 06 3f 35 45 34 3f
       -0.2580082 -0.103214234 0.5269289 0.704181
0000d0 85 2a b8 3e a2 b3 16 3e 37 f8 da 3e 54 b3 42 be
       0.3596994 0.14716962 0.42767498 -0.19013721
0000e0 5f a1 22 3e d3 35 18 bf 29 9a 03 bf 76 6d cf be
       0.1588187 -0.5945713 -0.51407105 -0.405132
0000f0 40 69 ad 3e 69 28 85 bd 07 2b b8 be 58 b3 ad 3e
       0.33869362 -0.06501848 -0.35970327 0.3392589
000100 f0 4b 9e 3e 5f 34 65 bd bc bb 06 3b ee 59 9c 3e
       0.3091731 -0.055958148 0.0020558676 0.3053736
000110 46 44 fb 3e 9b 21 55 3f 14 92 07 bf f0 5b 80 be
       0.49075526 0.832544 -0.5295727 -0.25070143
000120 66 1a b9 3e 31 4a e3 3e 9c 38 49 3f 65 7e 0c 3f
       0.36152953 0.4439254 0.78602004 0.5488036
000130 db 9d 24 3e d0 26 94 bf 84 c8 00 3c 07 72 d2 be
       0.16075842 -1.1574345 0.007860307 -0.4110262
000140 0f 0d 3e bf 96 2b 10 3f ef 56 18 3f 3a f0 11 bf
       -0.74238676 0.56316507 0.5950765 -0.5700718
000150 29 e8 24 3d 82 14 56 3e f0 52 94 be 63 57 d0 be
       0.040260468 0.2090626 -0.28969526 -0.4069167
000160 2d bd cd 3e 5c e8 3c be b3 15 5b 3e bf ea 3c 3e
       0.40183392 -0.18448013 0.21394996 0.18448924
000170 2d 41 31 3f fc 9b 28 3d 1e 9f 20 bf b0 c3 ee be
       0.69240075 0.041164383 -0.62742794 -0.46633673
000180 07 84 b2 3e 8f ca af 3e 85 11 1d bf 36 e3 9c be
       0.34866354 0.34334227 -0.6135486 -0.30642098
000190 73 56 38 3f 95 76 1c 3f 2b b0 82 be 5d 6a 0a be
       0.7200691 0.6111844 -0.2552503 -0.13517137
0001a0 9e cc 2f bf 45 47 2f 3e f5 f3 03 bf ed 7b 04 bf
       -0.68671596 0.17117031 -0.51544124 -0.51751596
0001b0 ee 0f b5 bb 3d 32 d1 3c 53 63 83 be 1f 81 a4 3e
       -0.0055255806 0.02553665 -0.25661716 0.32129762
0001c0 44 38 d8 be c8 92 c7 3e 7b 48 d9 3e a2 39 e8 be
       -0.42230427 0.38979173 0.4243811 -0.4535647
0001d0 5d dc f6 bd dd 74 56 3e 5b 77 85 bc 59 4c 83 3d
       -0.1205375 0.20943017 -0.016292265 0.064110465
0001e0 a2 a9 8b 3e 3d d2 b2 3d c7 aa 95 be 27 b8 de 3d
       0.27277857 0.08731506 -0.29231855 0.10874968
0001f0 39 f6 3d bf 2d a4 1e bf 6b d4 46 be 1d 59 25 be
       -0.7420383 -0.6196926 -0.19416969 -0.16147275
000200 f5 f3 91 be 5d 4e c4 be 10 e7 8f bd 3b 60 84 3e
       -0.28506437 -0.38341036 -0.070264935 0.25854668
000210 ce 01 07 bf 32 63 b4 bd a3 c1 ce 3e be e4 8a bd
       -0.5273713 -0.088079825 0.40382108 -0.0678191
000220 9d 97 b2 bd 3a 45 a5 bd 97 ef c7 3d 98 56 d6 3e
       -0.08720324 -0.080698445 0.09762495 0.4186294
000230 a2 81 67 3f 16 37 18 3f 4c 0b 25 3f fe 0e 4a bd
       0.9043218 0.59459054 0.6447036 -0.049330704
000240 dc ec 1f bf 0f 4c 95 be 84 f3 b9 3e 83 ac 80 bc
       -0.62470794 -0.2915959 0.363186 -0.01570726
000250 55 d3 b2 be 74 36 09 bf 67 dc 1e bf 49 85 1b bf
       -0.3492686 -0.53598714 -0.6205506 -0.6075025
000260 96 73 a9 bd 31 a4 0b 3e a5 5c be 3e e0 86 4f bf
       -0.082739994 0.13636853 0.37180057 -0.8106518
000270 47 0c 3c 3f 31 35 25 bf ec 0f 28 be 68 51 97 be
       0.73456234 -0.6453429 -0.16412324 -0.29554296
000280 a1 36 19 be 8a c5 10 bd 92 64 17 bf d6 ce 31 bf
       -0.14962246 -0.035344638 -0.59137833 -0.6945623
000290 63 e1 ed bd c1 59 f9 bd d7 11 b3 be de e7 9e 3e
       -0.11615255 -0.12175322 -0.34974548 0.31036276
0002a0 79 f7 38 bf c3 9f 9a bd fa b4 2f 3f f9 69 66 be
       -0.72252613 -0.075500034 0.68635523 -0.22501363
0002b0 d2 ff 20 3f 53 d9 e8 3e de 80 19 bf 3b 81 af 3e
       0.6289035 0.45478305 -0.5996226 0.34278283
0002c0 c3 c9 1c 3c d2 7a 37 be f9 66 0f 3f 43 e4 ee be
       0.009569588 -0.17917946 0.560165 -0.46658525
0002d0 63 61 38 3e a8 aa 1a be 60 8b f8 3e 3c cd 35 3e
       0.180059 -0.15104163 0.48543835 0.17754072
0002e0 6c 44 ce 3e 41 ee 44 3e 53 b4 77 be 0e a1 a2 be
       0.40286577 0.19231512 -0.24189882 -0.317635
0002f0 71 c9 27 bf ea d7 8b 3e 9d 4f 0a 3f 94 ef 12 3f
       -0.6554175 0.27313167 0.5402773 0.5739682
000300 3a 17 08 bf ee e8 5c be 55 b6 20 bf ac 65 8e be
       -0.5316044 -0.2157323 -0.62778217 -0.27811944
000310 3b 82 dd be 31 32 fb 3d f0 bc 04 bf 23 0c 48 3e
       -0.4326342 0.122654326 -0.51850796 0.1953588
000320 22 06 e6 3d 15 20 98 3e e4 fe e3 be ee 10 fd be
       0.112316385 0.29711977 -0.44530404 -0.4942698
000330 b2 e3 c0 be 3b 60 ff 3e de bc 09 be 87 be fe 3e
       -0.37673718 0.49878106 -0.13450953 0.49754736
000340 26 8f 8b 3e 75 8c 65 3e d6 7a 89 3d 0a c9 8c be
       0.2725765 0.22416861 0.06712882 -0.2749713
000350 51 e4 d9 3d 15 43 e7 bd dc 54 04 bd 09 ef 0e 3e
       0.10639251 -0.11292092 -0.03230749 0.13958372
000360 22 74 0c bf 46 75 77 be f2 2a f0 3e 9a f2 0f bf
       -0.54864705 -0.2416583 0.46907765 -0.56229556
000370 1b e3 96 bd d5 d4 3e 3f b8 d6 71 3e ac 17 05 be
       -0.07367536 0.74543506 0.23617065 -0.12997311
000380 97 c3 0d bf 50 35 50 3e 8e 13 0f bf aa c1 66 bc
       -0.5537657 0.20332837 -0.55889213 -0.014084259
000390 a0 43 88 be 79 fe 40 3d d5 09 bc bd 56 f4 18 3f
       -0.26614094 0.047117684 -0.09181563 0.5974783
0003a0 30 25 a5 bc 1b 32 2c 3f ad 0a 06 3f 47 c3 b7 be
       -0.020159334 0.67263955 0.5236004 -0.35891172
0003b0 81 eb 29 3e 1d 71 a2 be 2d dd 75 be 8e 6f 57 3d
       0.16593744 -0.31726924 -0.24010153 0.05259662
0003c0 a7 af 5c 3e b3 58 c6 3e f9 58 34 be 80 9a fb bd
       0.21551381 0.38739547 -0.17612065 -0.12285328
0003d0 ae 8d c5 3e 22 2b 4e bf d6 7a eb 3e 0c 90 eb be
       0.38584656 -0.80534565 0.45992154 -0.46008337
0003e0 a3 33 35 3d db cf e2 bb 7c 91 c8 be b3 87 94 bd
       0.044238698 -0.006921751 -0.39173496 -0.07252445
0003f0 f1 8c 28 3f 44 d8 80 be 52 3c d4 be e9 40 23 be
       0.6584006 -0.25164998 -0.4145227 -0.1594273

decoder.decoder_net.0.bias f4 [512]
000000 a7 c4 96 bd ad 8d 23 bf bf 9f 24 bf ca 46 af 3e
       -0.07361727 -0.63888055 -0.64306253 0.34233695
000010 35 2d 6a be ad 32 df 3e 78 27 5c 3f e8 99 92 bc
       -0.22868808 0.4359335 0.85997725 -0.017895654
000020 37 e2 7f bd b8 6b 4a be fe f3 34 be 26 04 ce 3d
       -0.062471595 -0.19767654 -0.176712 0.10059385
000030 ad 69 05 bf be a9 d5 bd 11 ae 31 bf 21 f8 00 3f
       -0.52114373 -0.104327664 -0.6940623 0.50378615
000040 86 6a 08 bf e7 e7 34 3f c2 84 94 be 2d 95 f6 be
       -0.5328754 0.70666355 -0.29007536 -0.48160687
000050 25 79 ef 3e 2c b1 63 3d 96 07 07 3f 25 9a ae 3e
       0.46772113 0.055588886 0.5274595 0.34101978
000060 ae fa 2c bf a1 7a b3 3e 10 5a 78 3c d1 ed 98 be
       -0.67570007 0.35054496 0.015158191 -0.2986894
000070 de d2 cc 3e 59 70 07 3f 4a 19 1a bf f3 6b 04 be
       0.4000463 0.52905804 -0.6019484 -0.12931804
000080 9c ba 14 3f 3d 11 3d 3e 46 27 32 3f ec 0b 1c be
       0.58097243 0.18463607 0.69591177 -0.15238923
000090 67 10 ec be 6d c6 1d 3f 7f 4e 88 3e 34 8e 12 3f
       -0.46106264 0.616309 0.26622388 0.57248235
0000a0 dc eb 2f be 99 06 05 bf de e4 f7 bd a3 69 09 bf
       -0.17179817 -0.5196319 -0.121042 -0.53676814
0000b0 20 59 0f 3e 23 14 2f 3f 54 1b df 3c 97 78 75 bd
       0.13998842 0.683901 0.02723471 -0.059929457
0000c0 31 3b bf 3e c9 69 d8 be a4 20 16 3f fa d1 31 bf
       0.37349847 -0.42268208 0.58643556 -0.69461024
0000d0 00 ed 3d bf 9a 31 68 be a8 ba 2a 3f 24 57 95 3d
       -0.7418976 -0.22675171 0.66691065 0.072920114
0000e0 81 1c 9a 3e 96 7f 31 bf c3 68 b1 3e 25 c5 96 bd
       0.30099872 -0.69335306 0.3465024 -0.07361821
0000f0 c9 6d 6f 3e 68 a6 19 3f 92 21 3a 3e 97 ee 95 bd
       0.23381723 0.6001954 0.18176869 -0.07320898
000100 d4 44 d7 bc 76 59 ed be b6 3e a6 be 01 f4 cf 3e
       -0.026277937 -0.46357316 -0.3246972 0.40615848
000110 7b b5 2b be 1d 6c dc 3e 10 15 ca be 60 11 9c bd
       -0.16768448 0.43051234 -0.39469194 -0.076205015
000120 bb 81 1c 3d 2f 7a 14 bf 5b 02 29 3d 79 e9 6a bd
       0.038209658 -0.5799894 0.041262012 -0.057351563
000130 8b 55 0c be 2b 2d 1c be b4 33 28 3f 43 0a fd 3e
       -0.13704507 -0.15251605 0.6570389 0.49421892
000140 e4 b0 15 bf 38 ab bd 3e 22 6a 0a bf 06 9b 09 bf
       -0.5847304 0.37044692 -0.54068196 -0.5375217
000150 47 c5 97 3e da 30 d3 3c c7 7d c8 be e9 c9 3b bf
       0.29642698 0.02578013 -0.3915846 -0.73354965
000160 58 5c 78 be 8b 93 49 3e fd 03 18 bf 23 c8 33 bf
       -0.24253976 0.1968519 -0.59381086 -0.7022726
000170 ec 35 01 bd 4e b5 14 bf b8 e2 23 bf c0 71 98 be
       -0.031545565 -0.5808915 -0.6401782 -0.29774284
000180 78 5c a8 bd 59 4e 32 bf 5c 8d 8d be 8c dd d8 bc
       -0.08220762 -0.696508 -0.2764691 -0.02647283
000190 77 41 32 bf c8 6d 0a be cb ad fd be 66 0c f6 be
       -0.6963114 -0.1351844 -0.49546656 -0.48056334
0001a0 d8 4f 12 3e cf 41 08 bf 06 aa 32 bf 4c eb c9 3e
       0.1428827 -0.53225416 -0.69790685 0.3943733
0001b0 06 5f 39 3e 24 c3 40 3f 9d 09 51 be 48 26 8f be
       0.18102655 0.7529776 -0.20413823 -0.27958894
0001c0 4e 09 b4 bd 93 a9 b0 3c 62 ab 42 3f a2 95 4c bf
       -0.08790837 0.021565234 0.7604276 -0.7991582
0001d0 e1 dd 17 bd 8c 1e b7 3e 3b 33 01 bf f7 1b 9a be
       -0.037076835 0.35765493 -0.50468796 -0.3009946
0001e0 08 aa 08 3f 7f 75 35 bf ce 4b 0b 3e 04 10 0e bf
       0.5338445 -0.7088241 0.13603136 -0.5549319
0001f0 72 0b 4f 3e e2 64 20 bf 1d 56 ad 3e d5 1e 2e bf
       0.2021921 -0.62653935 0.33854762 -0.68015796
000200 d8 ab 08 bf 99 be 00 bd b6 1a 7c 3f 5e 3a 4d bf
       -0.5338721 -0.031431768 0.9847826 -0.80167186
000210 ad cb ae be b6 10 28 3f e9 b8 ed be d5 10 93 3e
       -0.34139767 0.656505 -0.46430138 0.2872378
000220 c1 b6 2c bf 22 9c 2e be d6 75 1d bf 5d 09 20 3f
       -0.6746636 -0.17051747 -0.6150793 0.6251429
000230 be fa 36 3e 14 a5 10 bf fd 39 62 be 7f 69 db 3a
       0.17869088 -0.5650189 -0.22092433 0.0016739814
000240 76 5a 69 be 2e e0 d7 be 92 4f 04 bf 47 a2 18 3f
       -0.22788414 -0.42163223 -0.51683915 0.59622616
000250 d0 9f 06 bf 51 f1 0b bf e0 9e 8f be bc 8b 90 3d
       -0.52587605 -0.54665095 -0.280509 0.07057902
000260 cd 8a 44 3e c2 8c 51 3d 19 21 9c bd 5e c1 02 bf
       0.19193573 0.051159628 -0.076235004 -0.51076305
000270 77 2a 2c be b5 c3 94 be 12 e2 30 3f f1 b9 17 bf
       -0.16813074 -0.29055563 0.69094956 -0.592681
000280 5d 34 f2 be 2e ac 0d bf 60 77 d7 be aa e0 0d 3f
       -0.47305575 -0.5534085 -0.42083263 0.55420935
000290 60 8a 0f 3f 55 a3 26 bf 6b 65 35 be 12 27 d2 3e
       0.5607052 -0.65092975 -0.17714469 0.41045433
0002a0 11 c6 92 3e 4b 7b 12 3f 62 3e 44 bd d8 2e 0e bf
       0.28666738 0.5721938 -0.047911055 -0.5554023
0002b0 4c 42 16 3f eb 1e 40 be 49 3b 08 3f fe 13 05 be
       0.5869491 -0.18761794 0.5321546 -0.12995908
0002c0 02 5b cb 3e fd fd 33 3f 07 f8 5b 3f 7b 46 1e bf
       0.3971787 0.7030943 0.85925335 -0.61826295
0002d0 4f 26 f6 be 2b c8 a3 be 17 2a fd be 24 13 39 3f
       -0.48076102 -0.31988654 -0.49446175 0.7229483
0002e0 a4 0c 87 bd 39 b1 fc be 9c d3 d8 be 47 b0 da be
       -0.06594208 -0.4935396 -0.42348945 -0.42712614
0002f0 f2 15 40 3e c2 12 1e bf 8f fb 63 bf ca 3e 47 bf
       0.18758371 -0.6174737 -0.8905572 -0.77830184
000300 70 65 ff 3d bf 54 e6 3e 89 df 25 bf 4c 61 8d 3e
       0.124705195 0.4498653 -0.6479421 0.27613294
000310 10 20 19 3f 4c 8e 61 3d c1 25 1f be c6 92 d5 3c
       0.5981455 0.055067345 -0.15541746 0.026070964
000320 77 b9 39 bd 73 29 d5 3e ad e6 eb be 9c c0 ac 3e
       -0.04534289 0.41633186 -0.4607443 0.337407
000330 3b ff c0 3e 8c 1d 0b bf b2 70 50 3f d0 46 33 3f
       0.37694725 -0.5434196 0.8142196 0.70029926
000340 0e f8 c0 bd e9 69 b3 be b8 af ce 3e b2 a5 0e bf
       -0.09422313 -0.3504174 0.40368438 -0.5572158
000350 b8 f5 52 3e 9e e6 47 3e 75 60 fd 3e 93 9f 21 bf
       0.20601547 0.19521567 0.49487653 -0.63134116
000360 5f 25 51 bf b7 a1 b6 3e e5 21 59 3e 16 9f 30 bf
       -0.8169765 0.35670254 0.21204336 -0.68992746
000370 95 3a c3 be 30 79 35 bf ab a1 1f bf b5 4a 97 be
       -0.38130632 -0.7088804 -0.6235606 -0.29549184
000380 6c b2 0f 3f e3 eb a5 3e 98 b7 ba bd b1 c2 4d 3f
       0.56131625 0.3240653 -0.09117049 0.803752
000390 8a ba 9e 3e 0f bb 1b bf c1 95 bb 3e 4e 6e 8e 3e
       0.31001693 -0.60832304 0.3663769 0.2781853
0003a0 26 7b 12 3f bb 00 5a bf 52 84 d3 3e 78 a8 f8 3e
       0.5721916 -0.85157365 0.4131189 0.4856603
0003b0 6c d2 1e bf 66 b4 38 be dd 3c 33 3f 73 29 da be
       -0.6203983 -0.18037567 0.70014745 -0.42609748
0003c0 15 1c a6 3e 81 dd a9 3e f0 c8 ae 3e a6 a7 5e 3f
       0.324433 0.33176807 0.34137678 0.8697456
0003d0 39 ee f2 3e 3f 37 18 3f 54 a2 a5 bd 78 4b 03 3f
       0.47447374 0.594593 -0.08087602 0.5128703
0003e0 98 f7 2a bf 02 bb c6 be cf a8 1c be 87 d6 06 be
       -0.6678405 -0.3881455 -0.1529877 -0.13167773
0003f0 ec c8 1a 3f a9 93 a9 3e cb 22 a5 3e 7a e3 e0 3e
       0.6046283 0.33120468 0.32253107 0.4392355

decoder.decoder_net.3.weight f4 [32]
000000 47 40 81 3f ee 5f 82 3f e7 a3 80 3f 38 6a 84 3f
       1.0097741 1.0185525 1.0050019 1.0344915
000010 c4 35 80 3f 4b 34 82 3f 84 d3 80 3f 61 00 86 3f
       1.0016408 1.0172209 1.006455 1.0468866
000020 f6 07 88 3f e6 5e 85 3f 98 e3 73 3f ab 35 83 3f
       1.062743 1.0419586 0.95269156 1.0250753
000030 dd f9 86 3f 6b d5 88 3f f1 a8 83 3f 15 ea 7e 3f
       1.0545002 1.069013 1.0285932 0.9957593
000040 64 80 7c 3f 41 71 8b 3f 33 c5 8c 3f 3c dc 7e 3f
       0.9863341 1.0893937 1.099768 0.995548
000050 17 9b 7e 3f 22 d3 85 3f bb 99 81 3f 19 e5 7e 3f
       0.994554 1.0455058 1.012504 0.99568325
000060 18 55 7a 3f 31 50 90 3f 74 b1 74 3f 7f 79 83 3f
       0.9778609 1.1274472 0.9558327 1.0271453
000070 d9 cd 85 3f e1 4e 82 3f 55 09 80 3f 3b 9b 8a 3f
       1.0453445 1.0180322 1.0002848 1.0828623

decoder.decoder_net.3.bias f4 [32]
000000 53 c0 26 3b f7 0a dc bc df ec 20 3d 56 4f 99 bb
       0.0025444224 -0.026860697 0.039288398 -0.004678647
000010 20 95 8e 3c 5b c3 d1 bc 7b 17 45 3d 8a d8 35 3d
       0.017405093 -0.025605848 0.048118096 0.04439596
000020 eb a7 ed 3d ff 76 c6 bb e3 40 85 bc 34 9d 97 bb
       0.116042934 -0.006056666 -0.016266292 -0.0046268944
000030 7a d1 2b bd 1c 47 e6 3c 6d 02 4f 3d 67 f1 e1 bc
       -0.04194782 0.02811008 0.050539423 -0.02758093
000040 46 90 9c bc 72 bc ec 3c 7d 46 26 3d 58 f1 ec bc
       -0.019111764 0.028898451 0.040594567 -0.028923675
000050 9b a6 4b bb bc ae ef bc 88 7a 6f 3d d6 5b 1f 3d
       -0.0031074646 -0.029258125 0.058466464 0.03890594
000060 d4 18 20 bd 14 3e aa 3b e2 4b 22 bd 55 cf 39 3d
       -0.039086178 0.0051953886 -0.03962315 0.045363743
000070 38 a5 d0 bb 9b b1 88 3d 6d 43 06 3d 10 3e ad bd
       -0.006367352 0.066745006 0.032779146 -0.08459103

decoder.decoder_net.3.running_mean f4 [32]
000000 fc ff 7f 3e fc ff 7f 3e fc ff 7f 3e fc ff 7f 3e
       0.24999994 0.24999994 0.24999994 0.24999994
000010 fc ff 7f 3e fc ff 7f 3e fc ff 7f 3e fc ff 7f 3e
       0.24999994 0.24999994 0.24999994 0.24999994
000020 fc ff 7f 3e fc ff 7f 3e fc ff 7f 3e fc ff 7f 3e
       0.24999994 0.24999994 0.24999994 0.24999994
000030 fc ff 7f 3e fc ff 7f 3e fc ff 7f 3e fc ff 7f 3e
       0.24999994 0.24999994 0.24999994 0.24999994
000040 fc ff 7f 3e fc ff 7f 3e fc ff 7f 3e fc ff 7f 3e
       0.24999994 0.24999994 0.24999994 0.24999994
000050 fc ff 7f 3e fc ff 7f 3e fc ff 7f 3e fc ff 7f 3e
       0.24999994 0.24999994 0.24999994 0.24999994
000060 fc ff 7f 3e fc ff 7f 3e fc ff 7f 3e fc ff 7f 3e
       0.24999994 0.24999994 0.24999994 0.24999994
000070 fc ff 7f 3e fc ff 7f 3e fc ff 7f 3e fc ff 7f 3e
       0.24999994 0.24999994 0.24999994 0.24999994

decoder.decoder_net.3.running_var f4 [32]
000000 eb c4 36 3d 38 ed 8b 3d a8 11 87 3d f3 ca 41 3d
       0.04462139 0.06832355 0.065951645 0.047312688
000010 80 6a 78 3d 12 5b af 3d c6 76 39 3d 81 18 7f 3d
       0.06064844 0.08562292 0.045279287 0.062279228
000020 d9 d9 88 3d 0c 7b 50 3d 92 40 b3 3d 27 b5 62 3d
       0.06682176 0.050898597 0.0875255 0.05534854
000030 25 0c 6a 3d 2f 12 47 3d c0 dd 97 3d 4d 6b 8e 3d
       0.05714049 0.048601326 0.07415342 0.0695406
000040 d1 e5 7e 3d 72 09 90 3d be 09 cb 3d 19 07 94 3d
       0.06223089 0.070330516 0.099139675 0.07227916
000050 98 30 5b 3d cf f3 91 3d ea 4b 9c 3d 3f a8 8c 3d
       0.05351314 0.07126581 0.07631667 0.06868028
000060 fc 0b 4f 3d e8 0c 6a 3d 79 c6 8a 3d df 1f 20 3d
       0.05054854 0.057141215 0.06776137 0.039092895
000070 d2 07 95 3d 14 f0 ba 3d 72 a9 92 3d 98 29 64 3d
       0.07276882 0.091278225 0.071612254 0.05570373

decoder.decoder_net.4.weight f4 [32, 32, 3, 3]
000000 49 a8 2f 3c e3 69 04 3c 7d 3c 17 3c 74 6d b7 3c
       0.010721275 0.008081886 0.00923073 0.022391059
000010 c9 fb 84 3d 80 08 be bd 11 af 81 bc 23 17 14 ba
       0.06493337 -0.09278965 -0.015830548 -0.00056491996
000020 6a d3 a2 3c 20 41 e6 3c bf 1c a6 ba 44 d6 d3 bc
       0.0198762 0.028107226 -0.0012673362 -0.025859006
000030 8b 03 6f bd a0 bf 93 bd 79 1f bb bc 81 5f f6 bb
       -0.05835299 -0.07214284 -0.022842156 -0.007518709
000040 71 59 8c 3c e1 66 d8 3c a8 ca 67 3c 46 de 3a 3a
       0.017132493 0.026416244 0.014147438 0.0007128458
000050 e2 dd 40 3c ab 3c fe bc 3a c8 9b bc 6b cd 69 bd
       0.011771651 -0.031034788 -0.019016374 -0.057080667
000060 b3 08 f2 bc 43 dd bb 3c 76 f1 42 bd b6 13 95 bd
       -0.029545164 0.022932654 -0.047593556 -0.0727915
000070 2b e3 0c 3d f2 72 d5 bc 17 df 0c bc f8 f9 c9 bd
       0.03439633 -0.026055787 -0.008598111 -0.09862131
000080 ca a7 85 bd 9b f6 15 3d 9d 4b d7 bd 29 e2 1b bd
       -0.06526144 0.036612134 -0.10512469 -0.03805748
000090 79 23 50 3d 51 3a 75 bb 2e 98 13 bd 0a 83 b7 bc
       0.05081508 -0.0037418792 -0.0360338 -0.022401351
0000a0 43 cd 61 3c ba 64 ab bc 59 d1 b5 bc e0 c3 c7 3c
       0.013781848 -0.020922054 -0.022194551 0.024385393
0000b0 db 63 cb 3c 6a d6 4e 3d eb 9a 8f bd 04 cd 32 3c
       0.024827888 0.05049745 -0.0701197 0.010913137
0000c0 93 da 39 bb c9 bc 11 3d 53 45 b4 3c 2c 7a 5c bc
       -0.002835904 0.03558043 0.022005713 -0.013456862
0000d0 91 ab a5 3d 70 e1 1e 3d 67 e6 34 3d 76 08 08 3c
       0.08089364 0.038789213 0.04416504 0.0083027985
0000e0 7f ba c1 bc 17 c9 4c bb 03 2b 81 3d 02 6b d7 3c
       -0.023648499 -0.0031247789 0.06307032 0.026296142
0000f0 c2 c3 fd bc 5d 09 bf 3c 65 e1 ba bc 13 ae 2d bd
       -0.030977134 0.023319894 -0.022812555 -0.04240234
000100 50 31 52 bd 6d 91 92 3d 95 7b f4 3c 1c 89 b6 3c
       -0.05131656 0.07156644 0.029844085 0.022282176
000110 3e 7c a8 3c c7 75 7f 3c 70 dc bb 3d 85 af 39 bc
       0.020567056 0.015592045 0.091729045 -0.011333351
000120 9f 68 15 bd bc 0d a6 3c 1e de 7f bb 6d 4f b2 bc
       -0.036476728 0.020270221 -0.0039042304 -0.021766389
000130 06 ca a3 3b a4 67 23 3c 0f b7 22 bd fd ff 49 3d
       0.0049984483 0.00997344 -0.03972536 0.049316395
000140 e2 ca 35 3c 68 24 87 ba b4 5d b3 bd 3f 80 58 3d
       0.011095734 -0.0010310533 -0.08758107 0.05285668
000150 b0 bb 77 3d be fb 20 3d d4 b8 2b bd d1 e5 a2 3d
       0.060481727 0.03930258 -0.041924313 0.0795399
000160 78 ef ca 3c d2 8c 05 bc 43 8a 35 3d 18 02 14 3d
       0.02477239 -0.00815125 0.04432131 0.03613481
000170 f5 2c 5c 3c af 54 6a bd a7 37 f0 bc e1 23 86 bc
       0.013438453 -0.057209667 -0.029323412 -0.01637453
000180 2c c1 0a 3d f0 cb 20 3d 0d a7 10 bd 84 eb 72 bd
       0.03387563 0.03925699 -0.035315562 -0.059306636
000190 28 45 a1 3a 88 8b 2e 3d a2 83 ee 3c f8 4b 15 bc
       0.0012303935 0.042613536 0.029115502 -0.009112351
0001a0 11 a3 9c bc 78 38 b4 bd 58 21 ac 3d ad f8 ef bc
       -0.019120725 -0.08799833 0.08404797 -0.029293383
0001b0 92 d8 78 3c 6f bf 16 bd b2 f2 0b bb a6 d5 d5 bc
       0.015188353 -0.03680366 -0.0021354374 -0.026102852
0001c0 87 0c 9a bd 9e 26 9a bc 72 4a 35 3b 66 6e c3 bc
       -0.07521921 -0.018817242 0.002766278 -0.023856353
0001d0 85 f7 86 bd ce 90 9e bd 90 50 79 3c 11 3a bc 3c
       -0.06590179 -0.07742463 0.0152169615 0.022976907
0001e0 45 17 38 3d ce d3 7e 3b b0 e4 95 3d 65 d2 9f 3c
       0.044944067 0.003888357 0.07319009 0.019509504
0001f0 23 2d 05 b8 3d ae 00 bd 9a 87 7c 3c 05 8c 75 bc
       -3.1751708e-05 -0.031416167 0.015413189 -0.014986997
000200 46 cf 49 bc 12 67 ae b9 80 81 d0 bd 05 bf 13 3d
       -0.012317484 -0.0003326466 -0.1018095 0.036070842
000210 61 9c a2 3c e0 f4 8c bc 2b 85 47 bc d4 0e 5c 3c
       0.019849958 -0.01720661 -0.012177746 0.01343127
000220 51 ca 98 bd 92 e6 b7 3c 7f 7b 0d 3d a6 eb be 3b
       -0.07460464 0.022448812 0.034541603 0.0058264313
000230 a7 ed 89 3d e6 de c2 bc 96 a3 ee bc 4c fa a8 3b
       0.06734782 -0.023787927 -0.029130738 0.005156791
000240 06 dc ac bd 36 63 cb bc 83 00 db bc 8f be e9 bd
       -0.08440404 -0.02482758 -0.026733642 -0.11413299
000250 df 20 89 bd d8 ae 42 bd ca 88 2d bd a8 b9 70 3c
       -0.06695723 -0.047530025 -0.04236678 0.014692701
000260 ea 37 51 bd 5e 87 21 3c 38 61 53 3d 67 37 28 bb
       -0.051078714 0.009858934 0.051606387 -0.0025667788
000270 55 b3 19 3d f8 77 ac bd c7 71 30 3d 4c 7e b4 3c
       0.03752454 -0.0842132 0.043077257 0.02203288
000280 e7 b5 a1 bc b9 dc d6 3c ef 33 fd bc 5e ad 3b bd
       -0.019740058 0.026228296 -0.030908553 -0.045819633
000290 56 09 e8 3b 12 5c 84 bd 7d 8e 13 3c a5 8b 93 bc
       0.007081191 -0.064628735 0.00900614 -0.018010924
0002a0 16 c5 7c bd df b1 64 bd 2c 24 86 3d eb 71 88 bc
       -0.061711393 -0.055833694 0.06549868 -0.016655883
0002b0 6d 7c 98 bc bc 4b a6 3d b9 7f 37 3d 29 04 23 3d
       -0.018614018 0.08119914 0.04479954 0.03979889
0002c0 43 bb a4 3c 3c 25 2e bd ed 99 13 bd 84 92 14 3d
       0.020108825 -0.04251598 -0.036035467 0.03627254
0002d0 98 e4 09 3d d6 c9 f0 3c b0 7c 0d 3d 03 ae db bd
       0.03366527 0.029393118 0.03454274 -0.107265495
0002e0 ed d3 a9 3d 90 b3 43 bd 2c 33 86 bc 84 8d 5a bc
       0.08292375 -0.047778666 -0.016381823 -0.013339404
0002f0 04 1e 92 3c 9b 30 eb bc a4 d9 98 3d 3b 72 a5 bc
       0.017836578 -0.0287097 0.07463387 -0.02019607
000300 b5 f9 99 3c d1 35 1f bd 99 c3 a1 3d df 38 9e 3d
       0.018795827 -0.038869683 0.078986354 0.07725691
000310 14 75 91 bc 11 e8 4d 3d e6 91 79 3d bd aa b7 3c
       -0.017756023 0.050270144 0.060930155 0.022420282
000320 7a 67 1f 3d 0f 74 da bc 9a 1a 8a 3d 8f 34 e9 ba
       0.038917042 -0.02666667 0.06743355 -0.0017792153
000330 dd 9f 7d bd ae 24 7c 3d 09 17 0c bc f3 53 e8 3b
       -0.061920036 0.061558418 -0.008550414 0.0070900857
000340 f4 98 4a bd d2 e1 92 3a 66 55 1f 3c 67 c8 1f bd
       -0.049462274 0.0011206216 0.00972495 -0.039009478
000350 ec 33 d4 bd 2d 0c 06 bd 29 72 5c bd 81 04 35 3d
       -0.10361466 -0.032726455 -0.05381981 0.04419375
000360 54 d6 65 3d 5c 46 82 bd fe 1e 01 bc 9d 4d 0c 3c
       0.056112602 -0.06361076 -0.007880924 0.008563426
000370 43 ed 11 3d 97 d8 37 3d 96 88 75 bc a8 6c 4c 3d
       0.03562666 0.04488429 -0.014986178 0.04990831
000380 c9 97 a9 bd 7b ac 20 bc ca cd ae bc 9b 25 f9 bc
       -0.08280904 -0.009806748 -0.021338362 -0.03041344
000390 bd 03 30 3d 99 08 ea bb 56 96 0c bc 78 0b b6 3d
       0.042972315 -0.007142138 -0.008580765 0.08888906
0003a0 ec d6 de 3c 89 66 f1 bc ea fa 86 bd e2 bd 95 3b
       0.027202092 -0.029467838 -0.06590827 0.004569755
0003b0 27 f9 21 bd dd a8 a8 3c 3e cf 97 3c 6f 71 e6 3c
       -0.03954425 0.020588333 0.018531438 0.028130261
0003c0 5f f5 83 bd 8c 71 51 3d 3d 66 d0 3c ae d6 34 3d
       -0.06443285 0.051133677 0.025439376 0.044150047
0003d0 db 2a 2d 3d 58 5b 44 bb c6 6b 0e bd f7 6b 19 3d
       0.0422772 -0.0029961672 -0.03477075 0.03745648
0003e0 5d ae 6f 3c c0 2d a4 bd bf 2f b4 bc 2d f4 ae bc
       0.014628974 -0.080165386 -0.021995423 -0.021356666
0003f0 8a b9 be bc b1 33 85 3c 89 a3 e1 3c a2 a5 1a 3d
       -0.023281831 0.01626 0.0275438 0.037755616

decoder.decoder_net.4.bias f4 [32]
000000 93 b8 6e bd 3e 87 61 bd 0b ed e1 3b 14 ef 56 3d
       -0.058281492 -0.055060618 0.006894713 0.052474096
000010 2f 7f b0 bd 86 b7 b4 bc 20 de 9f 3d 77 94 b4 bd
       -0.08618008 -0.022060167 0.07806039 -0.0881738
000020 e2 fa 95 3c 8f d6 5f 3d da 3f af 3c c0 d4 97 3d
       0.018308107 0.05464798 0.021392751 0.07413626
000030 21 30 c3 3d 66 b0 ab 3b 32 f9 6d bd 43 21 9a bc
       0.09530664 0.005239534 -0.05809898 -0.018814689
000040 c3 48 e4 3a e9 ba 06 bd 89 8d 2e 3d 4d 92 73 bc
       0.0017416704 -0.032893095 0.042615447 -0.014866424
000050 67 1c 3f bd 0c f1 1e bc c0 54 c7 bd 7b 18 12 bd
       -0.046657946 -0.009701025 -0.09732962 -0.035667878
000060 f1 50 d0 3c a3 25 62 3c 09 26 76 3d 14 1a cb bc
       0.02542922 0.013802919 0.060094867 -0.024792708
000070 33 dc e1 bc 74 ea 2e 3d 5a ae 95 bd 2e 80 0c bd
       -0.02757082 0.04270406 -0.073086455 -0.03430193

decoder.decoder_net.6.weight f4 [32]
000000 b7 03 61 3f 9e 72 6e 3f 5e 9d 77 3f 21 48 79 3f
       0.87896293 0.9314364 0.967245 0.97375685
000010 4d bc 70 3f 32 0f 61 3f f7 c1 67 3f 6e 7f 6a 3f
       0.94037324 0.8791381 0.9053034 0.9160069
000020 49 ab 66 3f aa 59 70 3f f8 02 67 3f b8 c0 6f 3f
       0.9010511 0.93886817 0.90238905 0.9365344
000030 ab ea 85 3f 6a 54 6c 3f 22 74 86 3f eb 26 76 3f
       1.046224 0.92316306 1.0504191 0.96153134
000040 ef b3 7b 3f 37 77 68 3f ad b9 62 3f 25 50 51 3f
       0.9832143 0.9080691 0.8856457 0.81762916
000050 06 74 6a 3f c1 dc 6b 3f 4d a5 70 3f b3 dc 67 3f
       0.9158329 0.9213372 0.9400223 0.90571135
000060 6f 77 52 3f 62 da 5d 3f 85 02 66 3f 8b b3 61 3f
       0.8221349 0.8666135 0.89847594 0.88164586
000070 90 47 6e 3f d9 bf 6d 3f 0b 60 65 3f 6b d2 63 3f
       0.93077946 0.9287086 0.89599675 0.8899295

decoder.decoder_net.6.bias f4 [32]
000000 19 9d d3 3c db 5b a8 bb fb 8c a8 bd 40 42 cf bd
       0.025831746 -0.005137903 -0.08230015 -0.10120058
000010 60 af 1d 37 c1 fe 9f 3d c8 2b 35 3c 68 a7 40 3d
       9.398762e-06 0.07812262 0.011057802 0.04703465
000020 58 e6 09 bd 8f b2 b2 3c 69 26 59 bc e5 78 41 b9
       -0.03366694 0.021813659 -0.013253787 -0.00018450951
000030 2a ca 3f ba 8b 63 a1 3c 85 e2 41 bd 0c 8b 16 bd
       -0.00073161966 0.019700786 -0.047335166 -0.0367537
000040 ac 82 97 3d 36 3d 26 bc d4 66 a8 bc 33 98 8e 3c
       0.073979706 -0.01014643 -0.020556845 0.017406559
000050 02 d2 53 bc f0 c6 90 bd 70 3f 2c 3c 38 3e 80 ba
       -0.012928488 -0.07069194 0.010513172 -0.0009784168
000060 e2 5f 5d bd e3 8a 1a 3c 5a f8 87 3d c4 a8 95 bd
       -0.05404652 0.009432527 0.06639166 -0.0730758
000070 c6 2d 0a 3d fe 9b e5 3c 74 d5 72 bd 4f 0a 35 bc
       0.03373506 0.028028484 -0.059285596 -0.011049821

decoder.decoder_net.6.running_mean f4 [32]
000000 1d 49 12 3e 1d 49 12 3e 1d 49 12 3e 1d 49 12 3e
       0.14285703 0.14285703 0.14285703 0.14285703
000010 1d 49 12 3e 1d 49 12 3e 1d 49 12 3e 1d 49 12 3e
       0.14285703 0.14285703 0.14285703 0.14285703
000020 1d 49 12 3e 1d 49 12 3e 1d 49 12 3e 1d 49 12 3e
       0.14285703 0.14285703 0.14285703 0.14285703
000030 1d 49 12 3e 1d 49 12 3e 1d 49 12 3e 1d 49 12 3e
       0.14285703 0.14285703 0.14285703 0.14285703
000040 1d 49 12 3e 1d 49 12 3e 1d 49 12 3e 1d 49 12 3e
       0.14285703 0.14285703 0.14285703 0.14285703
000050 1d 49 12 3e 1d 49 12 3e 1d 49 12 3e 1d 49 12 3e
       0.14285703 0.14285703 0.14285703 0.14285703
000060 1d 49 12 3e 1d 49 12 3e 1d 49 12 3e 1d 49 12 3e
       0.14285703 0.14285703 0.14285703 0.14285703
000070 1d 49 12 3e 1d 49 12 3e 1d 49 12 3e 1d 49 12 3e
       0.14285703 0.14285703 0.14285703 0.14285703

decoder.decoder_net.6.running_var f4 [32]
000000 e2 91 a6 3b 44 ae 73 3b 32 a8 2e 3b c9 3a 44 3b
       0.0050833086 0.0037182728 0.0026650545 0.0029942265
000010 78 05 9a 3b a1 e1 c3 3b 24 a1 85 3b 84 13 94 3b
       0.004700359 0.005977825 0.0040780474 0.004518928
000020 30 46 b1 3b ab ce 39 3b dc 9e 7e 3b 91 a1 97 3b
       0.0054099783 0.0028351943 0.0038852012 0.0046274145
000030 22 94 a5 3b 8c 61 69 3b 19 c6 ac 3b 17 52 a4 3b
       0.005053059 0.003561112 0.0052726385 0.0050146687
000040 02 76 6d 3b c3 d2 95 3b bd ca 9e 3b 81 3e 87 3b
       0.0036233668 0.004572244 0.0048459456 0.004127324
000050 ea ac db 3b af 21 4d 3b 8b 97 8d 3b e5 44 2a 3b
       0.0067039626 0.0031300595 0.004321044 0.0025981006
000060 21 a2 cf 3b a1 26 75 3b bb 9b a1 3b 7f 6f a6 3b
       0.006336466 0.0037407058 0.0049318946 0.0050792093
000070 26 6a 70 3b 2c 7d 98 3b 94 80 c7 3b 76 73 4e 3b
       0.0036684363 0.0046535935 0.0060883258 0.0031501926

decoder.decoder_net.7.weight f4 [32, 16, 3, 3]
000000 cd 70 52 bc 24 10 9f bd ed a5 6c 3c fa bb 4a 3d
       -0.012844277 -0.077667505 0.014443857 0.049495675
000010 76 af 80 bd 4c a7 fd ba ba 30 68 bd b6 2c db 3d
       -0.062834665 -0.0019352227 -0.056687094 0.10701887
000020 e7 10 bf bc e7 fb a3 3c 8f 7b 8b bb 9d 7c 8a bd
       -0.02332349 0.020017577 -0.0042566727 -0.06762049
000030 66 c0 ae 3d 63 2c c1 bb 99 ac ce bc 4c a4 3e 3d
       0.08532791 -0.005895184 -0.025228785 0.046543404
000040 c3 34 fe bc 5b 59 2d 3d 4a eb 2e bd 87 ff ad bc
       -0.031031018 0.042321544 -0.042704858 -0.021240009
000050 2e 79 71 bb 18 84 2a bd d4 4f f2 bc be 2f 94 bc
       -0.003684591 -0.04162988 -0.02957908 -0.018089171
000060 bb b5 24 bc 7c b1 a9 bc 8b 80 40 bb 67 4b 78 bd
       -0.010053094 -0.020714514 -0.0029373493 -0.060618784
000070 e9 33 92 bc fa 66 c8 3c 7b 25 92 bc 9d 5c c7 bd
       -0.017847018 0.024463166 -0.017840138 -0.097344615
000080 e7 9e a8 bb d1 12 4f 3c 8b bf e0 3b f6 33 75 3c
       -0.0051458958 0.0126387635 0.006858771 0.014966002
000090 7e 2f 0d bd 6c 43 1c bd 18 06 06 bd f5 ac 99 3b
       -0.03446912 -0.038150236 -0.032720655 0.0046898075
0000a0 98 19 89 3d 20 a8 5f bd 56 f5 a7 3d 1c 24 9c 3d
       0.06694335 -0.054603696 0.08201091 0.07624075
0000b0 db 48 9e bd 0f 18 16 bc a5 e1 7d bd 2c bf 8d 3d
       -0.0772874 -0.009161009 -0.06198277 0.06921229
0000c0 2c 5a 50 3b 98 1b 0e 3c 82 37 97 bc e6 a8 ab bd
       0.0031792028 0.008673571 -0.018459085 -0.08381824
0000d0 25 2f 90 bc c2 f2 68 bd 78 4c 9a 3b a9 c3 07 be
       -0.017600605 -0.056872137 0.004708823 -0.13258232
0000e0 f0 34 2e bc 42 e9 94 bd 73 c8 36 bc 97 7a 6c 3d
       -0.0106327385 -0.07271053 -0.011156189 0.0577341
0000f0 b4 d2 10 3d 9f da 73 3d 49 a9 41 3c be a1 13 3c
       0.035357192 0.059534665 0.011820146 0.00901073
000100 45 ae 90 bc 0e ab 5c bd a9 eb d8 bd 09 74 34 bd
       -0.017661223 -0.053874068 -0.105918236 -0.044055972
000110 67 05 a5 3b a6 78 8f 3d a5 20 e1 3c 1b a3 16 3d
       0.0050360444 0.07005434 0.027481386 0.036776643
000120 de ab 05 3d 7f 3e 41 bd df 3d 03 bd 3a 0d 8a bd
       0.03263461 -0.04717874 -0.032041427 -0.06740804
000130 11 1d 75 3b 9d e1 c5 bc c9 65 e7 3c f0 ee 00 bc
       0.0037401358 -0.024155432 0.028246777 -0.007869467
000140 af 94 ca 3c c9 3b 55 bd cc 85 f2 bc 83 cb 4b 3d
       0.024729101 -0.05205897 -0.029604815 0.04975463
000150 1b f5 f5 3c 9d 66 10 3d 8d fd d6 bc 2f 6d 2d bd
       0.030024102 0.03525411 -0.02624395 -0.042340454
000160 97 52 5e 3d 04 8d 90 bc 86 80 38 bb 38 03 14 3d
       0.054277983 -0.017645366 -0.0028152778 0.036135882
000170 51 9e 79 bd 50 30 d3 bc 76 ab 53 bd 45 c6 62 ba
       -0.060941998 -0.025779873 -0.05167719 -0.000865076
000180 b2 53 51 3d f4 d5 a5 bc 90 f6 91 bb 85 ae 86 3c
       0.05110521 -0.020243622 -0.0044544414 0.01644064
000190 f5 8c b4 bd 64 bd c4 3c d1 a4 31 bd f8 76 f1 bc
       -0.08815948 0.02401609 -0.04337007 -0.029475674
0001a0 e5 cb 93 bc 8e 41 a2 3d 49 63 3b 3c 46 8b d5 3c
       -0.01804156 0.0792266 0.011437246 0.026067387
0001b0 eb 3d c2 3d 46 bd 3e 3a c5 c6 11 bd bd 3f 7c 3d
       0.09484466 0.0007276129 -0.035589952 0.061584223
0001c0 80 c1 4f bd 2c 69 1f 3d da 48 6b 3d fb 21 0d 3d
       -0.050721645 0.03891866 0.057442524 0.034456234
0001d0 90 c8 99 3c 68 2d 51 bd be 8c f4 bc 1a 5d 2e bb
       0.018772393 -0.051068693 -0.029852267 -0.0026605786
0001e0 fc 16 77 bd d6 ca 0c 3d 0f e1 17 bd fc 4d 1c 3d
       -0.060324654 0.034373127 -0.037079867 0.03816031
0001f0 92 57 e2 bb bd 8d 7e 3c db a2 f3 bd 46 f8 5c bd
       -0.006907412 0.015536723 -0.118962966 -0.05394771
000200 6d f6 07 3e 4c 8e 82 3d e2 a2 91 3a a1 c3 cd bb
       0.13277598 0.06374797 0.0011111165 -0.0062794243
000210 17 5b fc 3d 2e a4 b1 bd 40 c3 0d bd a4 fd 77 bd
       0.123220615 -0.08673893 -0.034610033 -0.060544625
000220 a9 a1 ea bd 73 d9 75 bd 30 29 88 3d 07 6f 72 3c
       -0.114566155 -0.06002183 0.06648481 0.014796979
000230 1a 9e ec bb 80 65 69 3d db f2 23 bc d6 dd 8f bd
       -0.0072209956 0.056981564 -0.010006632 -0.07024734
000240 c3 e4 a0 3d c6 5e 95 3d 08 18 3b bd f9 f5 c3 3c
       0.07856133 0.07293467 -0.045677215 0.023921
000250 89 b4 2c 3d d5 bb c9 3d b1 56 ab 3d 4d c6 fd 3c
       0.04216436 0.09850279 0.083661444 0.030978346
000260 7b fb 41 b9 2e 34 f0 bc 86 41 50 3b f1 99 3a 3d
       -0.00018499598 -0.029321756 0.0031777336 0.045556966
000270 8b b8 60 bd 42 01 97 3d 99 85 3d bd 1b 47 7d 3d
       -0.054863494 0.07373287 -0.046269987 0.06183539
000280 cc fc 72 3d 6f 41 93 3d b7 aa 3b 3d af 6d aa 3d
       0.059323117 0.07190215 0.045817103 0.08321702
000290 ab 9c 40 bd 85 8f 82 bd 45 ef 17 bd 3e 97 82 3d
       -0.04702441 -0.063750304 -0.03709342 0.063765034
0002a0 95 bd 14 3d c5 82 89 3d 51 76 76 3c e6 36 bd 3c
       0.036313612 0.067143954 0.015042857 0.023097467
0002b0 eb 27 a8 bd 06 6a 71 3d 62 5e 88 bd ee 28 01 bd
       -0.08210739 0.058939002 -0.06658627 -0.031533174
0002c0 7c 07 e2 bd f4 65 f1 3c c6 3f 8f b9 85 86 0b 3c
       -0.11036584 0.02946756 -0.000273226 0.008515959
0002d0 87 25 e2 3d ed 78 43 3d 79 93 98 3d e7 83 63 bd
       0.11042314 0.047722746 0.07450003 -0.055545714
0002e0 8d 5a cf 3d 5e 06 db 3d 64 f8 ae bb 12 40 56 3b
       0.10124693 0.10694574 -0.005339669 0.0032691997
0002f0 3f c8 0e bd d6 7e 8d ba 94 27 f0 bc ab c6 7b bd
       -0.03485894 -0.0010795246 -0.029315747 -0.06146876
000300 2d 22 24 bd 41 8f f3 3c e0 05 2e bc bc 04 00 bd
       -0.040071655 0.029731395 -0.010621518 -0.031254515
000310 f5 76 a9 3d a5 a2 42 bd e8 92 71 bd 13 60 e7 3c
       0.082746424 -0.04751839 -0.05897799 0.028244054
000320 19 03 ce bc ab 32 40 3d c5 1b b6 bd 00 ae 59 bc
       -0.025147961 0.04692332 -0.08892015 -0.013286114
000330 e9 48 b8 bb f0 80 ff bb 48 ec 52 3d 15 36 80 3b
       -0.005623926 -0.007797353 0.051494867 0.003912697
000340 bb 0d 99 3d 48 96 b7 3c 25 f7 15 3d 64 2d 13 3e
       0.07473322 0.022410527 0.03661265 0.14372784
000350 35 c3 05 3d d9 7c be bc c1 ea 84 bc 1b 63 77 3d
       0.032656867 -0.023252891 -0.01622522 0.06039725
000360 8b d7 e4 3c 08 37 9d bd bf 02 5b 3d 99 bb 4c 3d
       0.02793481 -0.07676512 0.053469416 0.049983595
000370 97 95 0c 3d 54 70 11 3d bf d9 03 ba 32 2e 0a 3d
       0.034322347 0.035507515 -0.00050297 0.03373546
000380 92 9c 8a bd c5 be 9f 3c d1 15 6e 3d 2c ed c8 bd
       -0.06768145 0.019500146 0.058126274 -0.09810862
000390 ce 3a 31 3c 99 36 d9 3d 9f 60 75 bc e8 13 4e 3d
       0.010817243 0.10606117 -0.01497665 0.050311953
0003a0 90 da 1a 3d a2 a3 86 3b bc 31 41 3c f9 aa 30 3d
       0.037806094 0.004108862 0.011791643 0.043131802
0003b0 0d 4d 3f bd ff ca 88 bc 94 a4 c4 bc 37 e2 99 3b
       -0.04670434 -0.016698359 -0.024004258 0.0046961564
0003c0 07 73 ec bc ce a7 7c bd 06 19 92 3d 6d 50 33 bc
       -0.028863443 -0.06168347 0.07133679 -0.010944468
0003d0 fc 0c 3c 3d 69 af 85 3c 3e 36 fc 3c 9e d0 fa 3c
       0.04591082 0.016318994 0.030787583 0.030617055
0003e0 11 ce 43 bd 49 76 3b 3c 55 94 6f bc 16 95 84 bd
       -0.047803942 0.011441776 -0.014622767 -0.064737484
0003f0 71 f6 08 3e 67 bf 43 bc a2 99 3f 3c b5 2c e4 3c
       0.1337526 -0.011947489 0.011694344 0.02785335

decoder.decoder_net.7.bias f4 [16]
000000 34 a3 d8 bb 47 52 7c 3d 13 9a 7a 3d 74 c4 d8 3d
       -0.006611252 0.061601903 0.061182093 0.105843455
000010 72 0e 1a 3d 8b 6c 82 3d 13 6d d9 3c 99 d5 b4 bd
       0.037611432 0.06368359 0.026541268 -0.08829803
000020 61 bc 5e bd a9 26 99 3d 43 5a a9 bd 29 45 e0 3c
       -0.05437887 0.07478077 -0.08269169 0.027376728
000030 8a 93 de 3d 49 01 55 3c 92 91 cf bc bf bc e9 3c
       0.108679846 0.013000795 -0.025337968 0.028532384

decoder.decoder_net.9.weight f4 [16]
000000 3c b3 76 3f ac 8d 6e 3f 18 d4 66 3f d4 17 63 3f
       0.9636724 0.93184924 0.9016738 0.88708234
000010 b9 22 68 3f f9 d6 6b 3f 5e de 64 3f 58 89 6a 3f
       0.9067798 0.921249 0.89401805 0.9161582
000020 71 4b 6c 3f 59 ef 6b 3f e5 f1 73 3f 5d ae 6f 3f
       0.92302614 0.9216209 0.95290977 0.9362543
000030 fd da 64 3f f9 11 69 3f b4 6c 72 3f d7 33 6e 3f
       0.8939665 0.9104305 0.9469712 0.9304785

decoder.decoder_net.9.bias f4 [16]
000000 8c c8 5c 3d 94 b6 14 3e ab c6 75 3e 47 1f 8a 3d
       0.053902194 0.14522773 0.24001567 0.06744247
000010 ed 51 bb bc d9 8d 18 3e bb 05 62 3d 5e ce be 3d
       -0.022866214 0.1489786 0.055181246 0.09316705
000020 91 51 42 bb 3b 9c 33 3c 6f ef 92 bc d2 c4 eb bd
       -0.0029650668 0.010962541 -0.017936436 -0.1151215
000030 e0 76 b4 bc e4 e6 b3 3b 7b 20 20 3c d5 49 87 bd
       -0.02202934 0.005490171 0.009773369 -0.06605879

decoder.decoder_net.9.running_mean f4 [16]
000000 1d 49 92 3d 1d 49 92 3d 1d 49 92 3d 1d 49 92 3d
       0.071428515 0.071428515 0.071428515 0.071428515
000010 1d 49 92 3d 1d 49 92 3d 1d 49 92 3d 1d 49 92 3d
       0.071428515 0.071428515 0.071428515 0.071428515
000020 1d 49 92 3d 1d 49 92 3d 1d 49 92 3d 1d 49 92 3d
       0.071428515 0.071428515 0.071428515 0.071428515
000030 1d 49 92 3d 1d 49 92 3d 1d 49 92 3d 1d 49 92 3d
       0.071428515 0.071428515 0.071428515 0.071428515

decoder.decoder_net.9.running_var f4 [16]
000000 21 c6 8f 3b e1 1c 89 3b 3d 41 47 3b 27 61 c7 3a
       0.0043876325 0.004184351 0.0030403875 0.0015211449
000010 1c c5 c9 3a 77 84 d8 3a 46 9c 8b 3a 34 85 07 3b
       0.0015393826 0.001651897 0.0010651432 0.002067876
000020 f1 1c 6f 3b 58 ff d2 3a 9a 57 d2 3a c5 d0 2c 3b
       0.0036485756 0.0016097827 0.0016047836 0.0026369554
000030 fd e0 ca 3a 9b 17 18 3b 05 5e c4 3a 62 1e e2 3a
       0.0015478429 0.002320743 0.0014981633 0.0017251486

decoder.decoder_net.10.weight f4 [16, 1, 3, 3]
000000 35 41 22 be dc d7 7b 3e 04 86 b3 bd 90 8f 59 3e
       -0.15845187 0.24594063 -0.08765796 0.21246171
000010 e3 f0 2b 3e 0c e9 9d 3c 51 5c 4d 3e f9 10 0d 3d
       0.1679111 0.019276164 0.20054747 0.034440015
000020 f5 27 a3 3d 80 f5 a0 bd 77 89 ab be 4f 93 82 be
       0.079666056 -0.078593254 -0.33503315 -0.25503013
000030 d6 88 28 3e cf 1b 4f 3d 1e 1c 82 bd 41 bf da bd
       0.16458449 0.05056363 -0.06353019 -0.1068101
000040 97 ee 16 bd 3b af 19 be 5a 84 45 bd b2 b5 57 3e
       -0.03684863 -0.15008251 -0.048221923 0.21065405
000050 cc cf 71 3e f7 e9 59 3e 32 e0 9e bc 77 53 0f be
       0.23614424 0.21280657 -0.019394014 -0.13996683
000060 44 e7 fd 3d 7f 4b 85 bd e0 0f 2e be 27 ee 30 3d
       0.12397626 -0.0650854 -0.16998243 0.04319587
000070 1c 55 20 3c 77 44 45 3e 93 2d 45 3d ec 61 bd 3d
       0.009785917 0.19264399 0.048139166 0.09247193
000080 40 79 4b 3d b6 4a fc 3c 57 ef 33 be c7 8a 65 3b
       0.04967618 0.030797344 -0.1757177 0.0035025345
000090 d2 b5 05 3d ee d0 c4 bd 58 99 2f 3e 21 91 d0 bc
       0.0326441 -0.09610163 0.1714834 -0.025459828
0000a0 4f 8f c8 3c 79 cd 98 3d 4f 6a 20 bd 27 56 f6 3d
       0.024482397 0.07461066 -0.039163884 0.12028151
0000b0 23 44 ac 3d 37 f5 55 3d ff 9b 2a be 84 34 20 bd
       0.084114335 0.05223581 -0.1666107 -0.039112583
0000c0 98 24 1b 3d 7e 7a 3d bd 48 a9 6c bd 3f 50 a4 bb
       0.037876695 -0.046259396 -0.057778627 -0.005014449
0000d0 95 c2 32 bc c4 9c 9b bd b9 47 3f 3e 02 b1 0b 3e
       -0.01091065 -0.0759826 0.18679704 0.13641742
0000e0 e8 e2 0f 3e fc 55 bb 3d 51 2b df 3d 6a 60 d3 3c
       0.14051402 0.091472596 0.10896934 0.02580281
0000f0 28 c4 80 bd 4e b5 dc bc 2d ab bd bd f8 87 7f be
       -0.06287414 -0.026941922 -0.09261165 -0.24954212
000100 f9 d4 7e bc de 4c a7 3d 33 d9 ac 3d 22 38 74 3e
       -0.015553706 0.08168958 0.08439865 0.23849538
000110 1c a9 ad 3d 6b 15 7f 3d f4 d7 a0 3d 16 15 16 3e
       0.08479521 0.062276285 0.0785369 0.14656481
000120 9d 3b 52 3e c5 aa 49 be ca 3e 04 be 49 99 37 bd
       0.20530553 -0.1969405 -0.12914577 -0.04482392
000130 b5 d5 8f 3b 2b ed 0b 3e bd e8 7a be 91 fb 5a be
       0.0043894895 0.13664691 -0.24502845 -0.21385027
000140 f8 95 0e be 4d 67 a3 3c e2 88 2a be ba 18 85 bc
       -0.13924396 0.019946719 -0.16653779 -0.016247142
000150 a9 4c 03 bd ca d4 c0 3d 22 26 a8 3d ba b1 64 3c
       -0.03205553 0.09415586 0.08210398 0.013958389
000160 b1 8e 36 3e bb 31 9a 3d b2 2f 8e 3c 18 60 44 be
       0.1782787 0.075290166 0.017356727 -0.19177282
000170 c7 7a 95 bd 7f 08 27 be f8 96 58 be 7d fe 08 be
       -0.072988085 -0.16311835 -0.2115134 -0.1337833
000180 3c 1e 53 bd 59 81 b6 bc 6a 06 1a bd 84 02 74 be
       -0.051542506 -0.022278475 -0.037603773 -0.23829085
000190 38 db 51 be ca e8 a3 3c d3 cf c4 bc 11 8a 67 be
       -0.20493782 0.020008463 -0.02402488 -0.22611262
0001a0 72 d6 dd bb af f4 d8 3d 2e c8 5e 3e 4a cf ae 3c
       -0.0067699486 0.10593545 0.2175605 0.021339078
0001b0 3d a8 e8 3d 63 3d 58 bd ce 5e 3f 3e 81 ea 34 be
       0.11360214 -0.052792918 0.18688509 -0.17667581
0001c0 22 04 05 be 66 13 2e be ab bd 73 bd a7 05 4c 3d
       -0.12989858 -0.16999587 -0.059507053 0.049810078
0001d0 3d 72 9e 3d a1 f8 25 3e 17 c4 5e 3e 4d 58 d2 bd
       0.07736633 0.16208126 0.2175449 -0.10270748
0001e0 ad f2 ea bd a9 60 4c 3c 7f e1 41 be 54 3c 00 be
       -0.11472068 0.012474217 -0.18933676 -0.12523013
0001f0 9f 93 9e bd 64 54 4a be e2 db 8b bd 44 7f a3 bd
       -0.07743 -0.19758755 -0.06829049 -0.07983258
000200 79 89 b8 bd c2 0e a3 bd bd a9 b8 bd 72 f3 c4 bd
       -0.09010596 -0.07961799 -0.0901675 -0.09616746
000210 50 da d2 bd 5e 2d 19 be 48 55 8b bd a7 92 47 bd
       -0.10295546 -0.14958712 -0.068033755 -0.048723843
000220 42 2d 20 be b4 42 36 be 98 19 1d be 5d c2 6d be
       -0.15642264 -0.17798883 -0.15341794 -0.23218675
000230 65 54 72 bd c3 8e 60 bc ad 41 09 bd 68 55 81 bc
       -0.059162516 -0.013705912 -0.0335099 -0.015787795

encoder.encoder_net.0.weight f4 [16, 1, 3, 3]
000000 78 df 25 3e e3 6a f4 3c 67 ad 65 3e b0 c0 a9 3e
       0.16198528 0.029836124 0.22429429 0.3315482
000010 15 39 c9 3d 99 ef 91 3e 81 f9 80 3c 92 0f 7e be
       0.09825341 0.2850311 0.015743973 -0.24810627
000020 d5 e9 9a bd e9 5c bc 3d fc 1c 5a 3e 20 a2 03 3e
       -0.07564131 0.09197409 0.21300119 0.12854815
000030 57 b6 10 3e 80 21 b1 bd d7 a3 ac 3d d6 bf 6a 3d
       0.14132057 -0.08648968 0.084296875 0.057311855
000040 8f 07 f0 3d bd f0 3b 3e 71 5d c1 bd b9 02 ae 3d
       0.11720192 0.18353553 -0.09441651 0.08496613
000050 f7 de a5 be a3 b8 9a be 84 3c 5f be 17 f6 e5 3d
       -0.3239667 -0.30218992 -0.21800429 0.112285785
000060 5e ec a8 bd 5d 4b 58 be 58 1b 81 3e 98 d1 8c bd
       -0.082482085 -0.21122499 0.25216174 -0.06875914
000070 96 9b 12 3e 6d e6 ea 3d 55 db c1 3e 8e dc 61 3e
       0.14317164 0.114697315 0.3786265 0.22056791
000080 5b 80 0a 3d dc 61 33 3e d7 f3 93 bd dc 48 3f 3e
       0.033813816 0.17517799 -0.07224243 0.18680137
000090 7b e5 c5 3e 1f 0e 3d 3c 71 2d 23 be 23 7f ce 3c
       0.38651642 0.011539011 -0.15935303 0.025207108
0000a0 a6 b5 c2 3e 43 c2 76 be a8 9b e8 3d 6f ae e1 3d
       0.38029212 -0.24097542 0.11357814 0.11019599
0000b0 68 ce 08 3e 4d b8 89 be b6 a1 70 3e 16 e0 aa 3d
       0.13359988 -0.26898423 0.23499188 0.08343522
0000c0 86 33 0b be ee c6 67 be 4a 63 99 3d 45 db 98 3e
       -0.13593873 -0.2263448 0.07489641 0.2985479
0000d0 b0 fb b7 3e 46 41 0f 3e d5 dd 53 3e ae c5 56 3e
       0.3593421 0.13989744 0.20690091 0.20973846
0000e0 7e b3 f7 3c 05 38 87 bd 93 cb 5e 3e aa 64 b5 3e
       0.030236956 -0.06602482 0.21757345 0.35428363
0000f0 f7 9d 5d be 7c 88 b2 bd 9e 75 45 bd c4 f4 61 be
       -0.2164229 -0.087174386 -0.04820787 -0.22066027
000100 3e 36 63 3e 76 bb 23 3e 99 5e 29 bd 36 0c 81 be
       0.2218866 0.1598948 -0.04134998 -0.2520463
000110 42 8d 6a 3e 3c a6 3d be bb d6 ba be a1 40 b5 be
       0.22905448 -0.18520445 -0.3649195 -0.3540087
000120 c1 11 7d be a7 bf b1 be b6 57 4a 3e 23 5a a9 3d
       -0.24713804 -0.34716532 0.19760022 0.08269145
000130 ac 2e cd be 15 0e 31 3e e2 19 ad be 12 b3 da 39
       -0.4007467 0.17290528 -0.3380881 0.00041713618
000140 65 bb 42 be 84 c0 5d 3e 90 f0 39 be 7a 49 bf bd
       -0.19016798 0.2165547 -0.18158174 -0.093401864
000150 d8 35 0d 3e 81 48 e3 bd f4 31 1c be c5 6e 9c 3d
       0.13790071 -0.110978134 -0.1525343 0.07638315
000160 90 e3 7f 3c 86 47 49 be b1 8b 95 be d6 88 f4 bd
       0.01561822 -0.1965619 -0.2920814 -0.11940162
000170 1f e4 4d 3e f6 33 17 3e 9f 4a 94 3e 00 e1 cc bd
       0.20106553 0.14765915 0.2896318 -0.10003853
000180 c0 30 4b be ea 33 7e be 23 cb ce bd c3 34 78 bd
       -0.19842815 -0.24824491 -0.10097339 -0.060597192
000190 ec 8f 9c be 1c 19 2f 3e a4 13 7d be 2f e5 c3 3d
       -0.30578554 0.17099422 -0.24714524 0.09565198
0001a0 a2 0a 95 3d 2e e7 04 3e 0b 85 28 bd 5b a0 61 be
       0.07277419 0.12978813 -0.041142505 -0.22033827
0001b0 c0 84 53 3e 67 a6 12 be 68 1a a2 3e 77 e7 99 bd
       0.20656109 -0.1432129 0.3166077 -0.075148515
0001c0 75 3c 97 3e 03 26 11 3a 10 92 b3 be cf 7d 90 3e
       0.29538313 0.0005536975 -0.35072374 0.28220984
0001d0 cb 59 bb bd 24 36 1b 3e e6 31 62 be 21 a9 34 3e
       -0.09147986 0.15157372 -0.22089347 0.17642643
0001e0 36 df e4 3d 3d 02 91 3d 15 7d c3 be 60 a5 74 be
       0.111753866 0.07080505 -0.38181368 -0.2389121
0001f0 62 dd d4 bc d4 17 35 be 46 78 dc bd 38 be 81 3d
       -0.02598447 -0.17684871 -0.10765128 0.063351095
000200 ba fd 53 3d ad 36 93 3e a8 d6 a9 bd 33 bd 7f be
       0.051755644 0.28752652 -0.082928956 -0.24974518
000210 6e b7 ae 3e a9 45 67 3e 42 b5 dd 3c 13 d2 ad bd
       0.3412432 0.22585167 0.02706397 -0.08487334
000220 bb d6 4f be d5 d0 c1 bc 15 9f 94 3e 90 1d 7c be
       -0.20296757 -0.02365915 0.2902762 -0.24620652
000230 98 45 6b 3e c5 ce 4d be e3 35 ed 3d a7 6e 82 3e
       0.22975767 -0.20098408 0.11582544 0.25475046

encoder.encoder_net.0.bias f4 [16]
000000 66 a1 2d 3a 6e a6 1d 3d 67 e4 ec 3d c0 11 a2 bd
       0.00066234765 0.038488798 0.11567002 -0.07913542
000010 5e f2 8e 3d 59 4e 8c 3e 9a 10 2c bb 8e 33 6c be
       0.069798216 0.27403525 -0.0026255012 -0.23066542
000020 f6 d7 8c be bc 6a 34 3e 59 2d a4 be da 42 95 3e
       -0.27508515 0.17618841 -0.32065848 0.29152566
000030 bc a9 76 be df f2 b2 be f4 ad aa 3e 05 ba ee bd
       -0.24088186 -0.3495092 0.3333584 -0.11656574

encoder.encoder_net.2.weight f4 [16]
000000 3d 2c 87 3f 4d 1d 8b 3f 07 11 88 3f 3a 63 89 3f
       1.0560375 1.0868317 1.0630196 1.0733407
000010 29 13 88 3f 86 7b 80 3f bf ca 8d 3f 5f 85 86 3f
       1.0630847 1.0037696 1.1077498 1.0509452
000020 50 86 8f 3f 65 26 8d 3f f4 36 80 3f 39 48 82 3f
       1.1212864 1.1027342 1.001677 1.0178291
000030 0c ec 88 3f ed 17 83 3f 56 5b 7e 3f 28 e7 86 3f
       1.0697036 1.0241677 0.9935812 1.0539293

encoder.encoder_net.2.bias f4 [16]
000000 8f cb b8 3c 0b 45 5e 3d cb 86 6a 3d f0 13 aa 3b
       0.022558002 0.054265063 0.057257455 0.005190365
000010 a1 ba 31 bd f1 69 0f bd 31 7d c1 bd 20 79 30 3d
       -0.043390874 -0.035013143 -0.094477065 0.043084264
000020 02 15 a2 3c 22 ee 08 bc 8f 33 a9 3b c2 42 fe bc
       0.019785408 -0.008357557 0.005163617 -0.031037692
000030 d2 19 ae 3c 4c 36 1b bd c5 6d 93 3d b4 8d b3 3c
       0.021252546 -0.03789358 0.07198671 0.021918155

encoder.encoder_net.2.running_mean f4 [16]
000000 1d 49 92 3d 1d 49 92 3d 1d 49 92 3d 1d 49 92 3d
       0.071428515 0.071428515 0.071428515 0.071428515
000010 1d 49 92 3d 1d 49 92 3d 1d 49 92 3d 1d 49 92 3d
       0.071428515 0.071428515 0.071428515 0.071428515
000020 1d 49 92 3d 1d 49 92 3d 1d 49 92 3d 1d 49 92 3d
       0.071428515 0.071428515 0.071428515 0.071428515
000030 1d 49 92 3d 1d 49 92 3d 1d 49 92 3d 1d 49 92 3d
       0.071428515 0.071428515 0.071428515 0.071428515

encoder.encoder_net.2.running_var f4 [16]
000000 70 e0 89 39 5e 17 59 39 53 18 28 39 d3 ba c5 39
       0.00026297895 0.00020703438 0.0001603079 0.00037713963
000010 51 86 5b 39 fc be 35 39 59 2b 37 39 3a 1b 34 39
       0.00020935504 0.00017332652 0.00017468388 0.0001717628
000020 12 30 70 39 22 01 8c 38 5d e2 44 38 4f fb 3e 38
       0.00022906091 6.675931e-05 4.694086e-05 4.553358e-05
000030 1a c8 d5 38 72 ff ba 38 d5 dd 1d 39 31 0f 7c 38
       0.00010193903 8.9167515e-05 0.00015055326 6.009563e-05
