miniproject2/experiment_1/model_decoder_1.pt (torch, 143309 bytes, 37 tensors)

prior.mean f4 [2]
0.0 0.0
00000000: 0000 0000 0000 0000

prior.std f4 [2]
1.0 1.0
00000000: 0000 803f 0000 803f

decoder.decoder_net.0.weight f4 [512, 2]
0.120961875 0.26202852 0.5476439 0.7647164 -0.35229436 -0.40967834 -0.8017913 -0.3012764
-0.2872977 0.25061893 0.43440205 0.44951934 0.8401627 0.57265687 -0.34072244 -0.16578424
-0.29002112 0.47973114 -0.75090593 0.6555353 -0.17582126 0.65766716 -0.45404232 -0.29572755
-0.3094292 0.19016142 0.00929707 0.58666724 -0.55545694 0.5982656 0.3614552 0.24594161
-0.5626026 -0.21109578 -0.46759135 0.06895221 0.15441313 -0.21497664 0.04619105 0.034019105
0.1822132 0.22193268 0.004866489 0.6141507 -0.64243585 -0.32978904 0.53156 0.49551177
0.6180952 0.4369387 -0.30036262 -0.43707898 0.96160614 -0.5539097 0.7715133 -0.423234
0.3778318 -0.27193516 0.23238605 -0.09637138 0.024379667 0.37233928 0.013044427 0.535924
0.4476804 0.63663036 -0.23277077 -0.46088588 0.6976647 0.6159383 0.36767077 0.3710385
-0.43148988 0.6298599 0.54858553 0.6284375 0.06780715 -0.110424325 -0.3570821 0.5756774
-0.43194443 -0.58157444 0.0834755 -0.024453046 0.078557454 0.07204397 -0.5543496 -0.19831832
0.007924253 -0.7209465 0.16324006 -0.43803018 0.20443429 0.06109023 -0.5305701 -0.4554698
0.63088393 0.5131563 -0.54667383 -0.002100346 -0.06800251 0.16033569 0.2647512 0.13468638
0.30731365 -0.3473089 -0.7117049 -0.3137788 -0.07955429 -0.43847793 0.25122994 -0.53229135
-0.19511129 -0.26241955 0.7854146 0.47016442 0.6106492 -0.32997578 -0.17156729 0.498863
-0.36484453 0.18294252 0.6172012 -0.19794986 0.43527183 -0.54808915 -0.28735015 -0.073611155
-0.21193743 -0.16945657 0.30195895 0.41899815 0.30033872 0.2514121 -0.49902913 0.5230804
-0.38954723 -0.5380646 -0.23937565 0.40934303 0.23263271 0.6099766 0.19141741 0.21321514
-0.26626843 0.59141356 -0.20687135 0.33688003 0.68425983 0.64682937 0.36210623 -0.51548445
-0.5871663 -0.49137387 0.36421606 -0.19803107 -0.1554816 -0.6299558 -0.72580284 0.38849056
0.37742004 -0.23983455 -0.2697077 -0.15016772 0.4610306 0.4347395 -0.08675723 0.15201499
-0.10569657 0.3493127 0.099648036 0.25494283 -0.4923861 0.29515857 0.7714409 -0.30557096
0.18824838 -0.038981564 -0.08882799 0.13528495 -0.40894136 -0.4552454 0.53567326 -0.069696836
-0.3568749 -0.12239272 -0.3835724 0.03673721 0.709294 -0.38099056 0.4038294 0.4405504
-0.019807657 0.57522464 -0.45697296 -0.5460534 0.80538756 -0.59736496 -0.2031386 0.6405817
0.46315664 0.46643978 -0.6256245 -0.62997305 0.46325704 -0.779769 -0.62470394 0.46362695
-0.20067017 -0.29339653 0.43081987 0.042754628 -0.18948469 0.2828764 -0.3167234 0.31637317
-0.045819018 -0.33570245 0.49356627 -0.426071 -0.58685 0.2472629 -0.59423965 -0.2546145
0.25564083 0.0147464955 0.014482278 0.059878055 0.38020355 -0.6633565 0.13623129 0.39744082
0.31237593 0.41545275 -0.23710558 0.67915446 0.6867247 -0.6301298 0.2944178 0.64921314
-0.21158366 0.2445513 -0.6450193 -0.06419641 -0.577242 -0.15896536 0.083271585 -0.32932332
-0.02547538 -0.32017505 -0.2944144 -0.10057239 0.8670818 -0.33853015 -0.40198028 0.25726518
00000000: dcba f73d 9a28 863e 6432 0c3f 74c4 433f
00000010: ed5f b4be 5cc1 d1be 3242 4dbf e640 9abe
00000020: af18 93be 2051 803e f269 de3e 6627 e63e
00000030: e714 573f a499 123f 2c73 aebe 58c3 29be
00000040: a67d 94be 529f f53e 5f3b 40bf 29d1 273f
00000050: 7d0a 34be e05c 283f 3c78 e8be 9a69 97be
00000060: 816d 9ebe adb9 423e bd52 183c d32f 163f
00000070: 6d32 0ebf ef27 193f a810 b93e 1ed8 7b3e
00000080: b906 10bf 7e29 58be 2268 efbe d136 8d3d
00000090: 7a1e 1e3e d622 5cbe d432 3d3d 9e57 0b3d
000000a0: 1996 3a3e 5242 633e 1277 9f3b fb38 1d3f
000000b0: ad76 24bf 1cda a8be 5114 083f b8b3 fd3e
000000c0: 7d3b 1e3f 6eb6 df3e 21c9 99be d1c8 dfbe
000000d0: d22b 763f 07cd 0dbf e581 453f 20b2 d8be
000000e0: 2b73 c13e 163b 8bbe 9cf6 6d3e 5c5e c5bd
000000f0: deb7 c73c 41a3 be3e 4bb8 553c 5132 093f
00000100: 5e36 e53e 35fa 223f 765b 6ebe 3cf9 ebbe
00000110: 279a 323f 22ae 1d3f 583f bc3e c2f8 bd3e
00000120: 3eec dcbe 803e 213f 1a70 0c3f 48e1 203f
00000130: 7ade 8a3d 2626 e2bd 77d3 b6be 985f 133f
00000140: d227 ddbe 10e2 14bf 34f5 aa3d c151 c8bc
00000150: bbe2 a03d ca8b 933d dbe9 0dbf f513 4bbe
00000160: bad4 013c f38f 38bf 6728 273e 7e45 e0be
00000170: 3957 513e c039 7a3d 71d3 07bf 5633 e9be
00000180: 9c81 213f 365e 033f d1f2 0bbf f5a5 09bb
00000190: e644 8bbd 0a2f 243e 788d 873e 3aeb 093e
000001a0: 3758 9d3e 79d2 b1be 4b32 36bf 9da7 a0be
000001b0: 5ced a2bd 2e80 e0be 36a1 803e 3f44 08bf
000001c0: 41cb 47be db5b 86be ee10 493f 64b9 f03e
000001d0: 8253 1c3f 96f2 a8be 56af 2fbe f96a ff3e
000001e0: e7cc babe 4955 3b3e e600 1e3f 5eb3 4abe
000001f0: f3db de3e 924f 0cbf 8f1f 93be 72c1 96bd
00000200: 2006 59be 0686 2dbe 5d9a 9a3e ed86 d63e
00000210: ffc5 993e 16b9 803e bf80 ffbe 99e8 053f
00000220: bc72 c7be 9abe 09bf e41e 75be 6995 d13e
00000230: 4537 6e3e 6d27 1c3f ed02 443e 1255 5a3e
00000240: 5654 88be e166 173f 15d6 53be 8a7b ac3e
00000250: a72b 2f3f 9c96 253f fd65 b93e caf6 03bf
00000260: 8850 16bf 5b95 fbbe 877a ba3e a8c8 4abe
00000270: 9236 1fbe c944 21bf 37ce 39bf 3ce8 c63e
00000280: 333d c13e 3097 75be 2117 8abe 91c5 19be
00000290: 340c ec3e 2d96 de3e c6ad b1bd d1a9 1b3e
000002a0: 7177 d8bd 1dd9 b23e 4514 cc3d de87 823e
000002b0: 081a fcbe 061f 973e 277d 453f cc73 9cbe
000002c0: 2fc4 403e 22ab 1fbd 73eb b5bd 2388 0a3e
000002d0: c360 d1be ed15 e9be e221 093f 37bd 8ebd
000002e0: 4fb8 b6be 09a9 fabd 9a63 c4be c279 163d
000002f0: 4b94 353f 3211 c3be bac2 ce3e d28f e13e
00000300: ab43 a2bc ec41 133f 5cf8 e9be 28ca 0bbf
00000310: e12d 4e3f e9ec 18bf 9103 50be 2afd 233f
00000320: de22 ed3e 32d1 ee3e ed28 20bf ea45 21bf
00000330: 0730 ed3e f19e 47bf 99ec 1fbf 8360 ed3e
00000340: 7b7c 4dbe 1238 96be 6c94 dc3e 7a1f 2f3d
00000350: 4608 42be 2dd5 903e 9229 a2be aafb a13e
00000360: b9ac 3bbd 31e1 abbe b8b4 fc3e fa25 dabe
00000370: cd3b 16bf 7c32 7d3e 1720 18bf d55c 82be
00000380: 5be3 823e 499b 713c 1447 6d3c b142 753d
00000390: 0aaa c23e bbd1 29bf 3780 0b3e 5d7d cb3e
000003a0: bdef 9f3e 39b6 d43e cecb 72be 11dd 2d3f
000003b0: 31cd 2f3f 3050 21bf eebd 963e d532 263f
000003c0: 63a9 58be a86b 7a3e fc1f 25bf 6879 83bd
000003d0: 22c6 13bf d1c7 22be 4b8a aa3d 119d a8be
000003e0: beb1 d0bc fced a3be 7cbd 96be e6f8 cdbd
000003f0: 13f9 5d3f d353 adbe 5cd0 cdbe 43b8 833e

decoder.decoder_net.0.bias f4 [512]
0.72695625 -0.79439443 0.01228082 -0.66095585 -0.25270057 0.40162012 -0.78222114 0.43463948
-0.40197927 -0.5512119 -0.5461011 -0.55015475 -0.7023326 0.5156648 -0.03675537 0.1289726
-0.13272946 0.030995531 0.71580356 0.024273848 -0.011431368 0.6698856 -0.35993496 0.26527554
0.39333177 0.10608186 -0.21512218 0.035442106 -0.11789651 0.05183046 -0.012800436 -0.45396417
-0.6184128 0.1752233 0.49579984 0.3008016 -0.33206218 0.49817967 0.41339445 0.22992794
0.6194206 -0.025041744 0.58319086 -0.586349 -0.73849463 -0.34737813 -0.7028001 0.044724446
0.4013973 0.01710641 0.38461864 -0.13561293 -0.33523202 0.55972284 -0.21416824 0.44789234
0.44005474 -0.10588923 0.5951554 -0.41288963 0.7252388 0.40760696 -0.7464283 0.08084296
-0.31847504 -0.025719864 -0.82957476 0.7275079 0.07452725 -0.2648362 0.6376968 0.2397512
-0.41303405 0.25767776 -0.23284882 0.6323487 -0.035588562 0.533778 -0.14417757 -0.19552036
-0.027251434 0.62758404 0.22162817 -0.45299035 0.6008629 -0.3165972 0.6041683 0.6896058
-0.2974887 -0.62288374 0.36887574 0.6932472 0.5643829 -0.42257068 -0.17632394 0.26708356
-0.37326333 -0.6795655 -0.9924691 -0.20269507 0.4888659 0.07665405 0.4052034 0.6201344
-0.5027897 0.24782334 0.615914 0.15691943 -0.19365473 0.5732832 -0.054137554 -0.42883122
-0.46663335 -0.34012055 -0.25738025 0.14893506 0.22797228 -0.18778022 0.10856414 0.49389657
0.7399909 0.37923846 -0.07011036 -0.39434195 0.21741131 0.40893298 0.38988733 -0.1336913
0.17948899 -0.7459953 0.47625816 -0.1812715 -0.31707525 0.49921826 -0.6720819 0.20292638
0.27407044 -0.16888759 0.14622971 -0.013723661 -0.395678 0.08815309 0.36616403 -0.75702417
-0.10125064 0.79912895 -0.28273565 -0.6860298 0.7900618 -0.47094274 -0.25808835 0.65254515
0.42069152 0.49055827 -0.4595561 0.452145 -0.014244382 0.12759022 0.6632633 -0.5391938
0.29273194 -0.13672909 -0.10184567 -0.21875976 -0.5979683 0.3312253 0.0685474 -0.10613212
-0.58460623 0.50979275 -0.3474895 -0.338891 0.5377813 -0.19673692 0.5862654 0.36624098
-0.6155142 -0.041150212 0.50754124 0.39666414 0.4161926 -0.5208755 -0.22378947 -0.038123816
0.01222208 0.33635637 0.024193581 -0.32161105 0.13580781 0.6702242 0.693513 -0.66038257
-0.25745228 -0.78327864 0.5170638 -0.65534145 -0.48533756 0.54662037 0.48661226 0.18118685
-0.75675446 -0.138259 0.15629706 0.024018455 -0.29259083 0.02546987 0.16700682 0.053503737
-0.38152644 -0.33350018 0.19382493 0.48460758 0.3064653 0.179268 -0.47663268 -0.50323266
-0.07555698 -0.33318442 0.6664488 0.54380435 -0.17126764 -0.073139146 0.24139151 0.22025263
-0.51409113 0.14591585 -0.7326806 -0.62813663 -0.09366299 0.71905303 0.61022407 0.09865788
0.43875518 -0.5602861 -0.13263294 0.34478515 -0.0033427079 0.2416922 -0.103425175 -0.42943418
-0.21579596 0.4523378 0.86318 -0.001207371 0.7319663 0.08668439 0.1857087 -0.37257904
-0.15341184 0.3865445 -0.1931647 0.43257412 -0.46338183 -0.027235106 -0.6446165 -0.2490152
00000000: ce19 3a3f 6f5d 4bbf 7e35 493c 6734 29bf
00000010: f861 81be 27a1 cd3e a53f 48bf 1189 de3e
00000020: 3ad0 cdbe 391c 0dbf 48cd 0bbf f1d6 0cbf
00000030: 12cc 33bf 9c02 043f cd8c 16bd 6511 043e
00000040: 3bea 07be 57ea fd3c e73e 373f f3d9 c63c
00000050: a24a 3bbc 9f7d 2b3f 6549 b8be 32d2 873e
00000060: c862 c93e 7241 d93d fd48 5cbe be2b 113d
00000070: ba73 f1bd 2d4c 543d ebb8 51bc fe6d e8be
00000080: 4d50 1ebf bd6d 333e 7ad9 fd3e ab02 9a3e
00000090: 0e04 aabe 6811 ff3e 70a8 d33e 3b72 6b3e
000000a0: 5992 1e3f 5824 cdbc ff4b 153f f81a 16bf
000000b0: fc0d 3dbf 8cdb b1be b5ea 33bf fb30 373d
000000c0: f283 cd3e be22 8c3c bcec c43e 1ede 0abe
000000d0: 88a3 abbe ff49 0f3f eb4e 5bbe 2552 e53e
000000e0: db4e e13e 74dc d8bd 1b5c 183f 4566 d3be
000000f0: 40a9 393f dcb1 d03e ed15 3fbf fe90 a53d
00000100: 290f a3be 77b2 d2bc 035f 54bf f53d 3a3f
00000110: bea1 983d 9c98 87be 1940 233f 5781 753e
00000120: 3379 d3be 57ee 833e ec6f 6ebe 9be1 213f
00000130: 50c5 11bd ada5 083f 49a3 13be 7d36 48be
00000140: 663e dfbc 59a9 203f 7ff2 623e 5aee e7be
00000150: 27d2 193f 0719 a2be c6aa 1a3f 018a 303f
00000160: 7050 98be 4f75 1fbf 48dd bc3e a678 313f
00000170: 667b 103f 2f5b d8be 438e 34be 2dbf 883e
00000180: 5f1c bfbe 01f8 2dbf 7412 7ebf 4c8f 4fbe
00000190: a24c fa3e ccfc 9c3d d276 cf3e 21c1 1e3f
000001a0: d3b6 00bf 67c5 7d3e 8aac 1d3f 7daf 203e
000001b0: 6d4d 46be b0c2 123f 57bf 5dbd c48f dbbe
000001c0: 91ea eebe 4824 aebe 58c7 83be 6f82 183e
000001d0: 9171 693e 7549 40be e056 de3d 03e0 fc3e
000001e0: 0b70 3d3f 8b2b c23e 0596 8fbd 30e7 c9be
000001f0: 12a1 5e3e aa5f d13e 509f c73e 5fe6 08be
00000200: f6cb 373e 8cf9 3ebf 1cd8 f33e 3c9f 39be
00000210: b057 a2be 8999 ff3e 8f0d 2cbf efcb 4f3e
00000220: f652 8c3e def0 2cbe 3ebd 153e 35d9 60bc
00000230: 4f96 cabe 9b89 b43d da79 bb3e 56cc 41bf
00000240: 7f5c cfbd b793 4c3f bac2 90be a69f 2fbf
00000250: 7d41 4a3f 681f f1be 2824 84be 330d 273f
00000260: e164 d73e 742a fb3e f04a ebbe 8d7f e73e
00000270: 4561 69bc 03a7 023e a0cb 293f 9b08 0abf
00000280: f6e0 953e b602 0cbe 7694 d0bd 8f02 60be
00000290: 7314 19bf 5d96 a93e 9462 8c3d cc5b d9bd
000002a0: c1a8 15bf c781 023f 25ea b1be 1f83 adbe
000002b0: 09ac 093f 6775 49be 7d15 163f f083 bb3e
000002c0: 5792 1dbf 208d 28bd 39ee 013f 9017 cb3e
000002d0: 3217 d53e 1958 05bf 1129 65be b827 1cbd
000002e0: 1e3f 483c e736 ac3e 9e31 c63c 34aa a4be
000002f0: 3411 0b3e d093 2b3f 118a 313f d50e 29bf
00000300: c9d0 83be f384 48bf 4b5e 043f 75c4 27bf
00000310: 2a7e f8be 50ef 0b3f 3e25 f93e 0c89 393e
00000320: a9ba 41bf c493 0dbe 560c 203e 5ac2 c43c
00000330: 77ce 95be 30a6 d03c d603 2b3e bc26 5b3d
00000340: 6f57 c3be 89c0 aabe 0b7a 463e 7c1e f83e
00000350: 05e9 9c3e 0892 373e 3309 f4be dbd3 00bf
00000360: 9ebd 9abd 2697 aabe 639c 2a3f c336 0b3f
00000370: c960 2fbe fac9 95bd 562f 773e e889 613e
00000380: 7a9b 03bf f76a 153e f590 3bbf 90cd 20bf
00000390: 62d2 bfbd dc13 383f a537 1c3f 250d ca3d
000003a0: 85a4 e03e e96e 0fbf eed0 07be ae87 b03e
000003b0: 5511 5bbb 297e 773e 94d0 d3bd ccde dbbe
000003c0: 9ef9 5cbe d298 e73e 5df9 5c3f a640 9eba
000003d0: 2562 3b3f 9687 b13d 6c2a 3e3e aec2 bebe
000003e0: fe17 1dbe 29e9 c53e f8cc 45be 5b7a dd3e
000003f0: 6240 edbe 281c dfbc 9605 25bf d7fd 7ebe

decoder.decoder_net.3.weight f4 [32]
1.1611822 1.0006398 0.9167665 1.0084597 0.9679267 0.9994326 1.0771694 1.0106106
0.99422675 1.0233002 0.99960303 1.1583211 0.9509227 0.9600755 1.0134474 1.0357634
0.99202144 1.0127609 1.0957801 1.102509 1.101982 1.1022595 1.0011821 1.0054374
1.0504814 0.99513745 1.0530602 0.9603464 1.0497078 1.029528 1.0862718 1.0459158
00000000: 9ea1 943f f714 803f 36b1 6a3f 3515 813f
00000010: 0bca 773f d1da 7f3f b0e0 893f b05b 813f
00000020: a585 7e3f 80fb 823f fce5 7f3f de43 943f
00000030: ac6f 733f 82c7 753f a5b8 813f e593 843f
00000040: 1ef5 7d3f 26a2 813f 8642 8c3f 041f 8d3f
00000050: bf0d 8d3f d716 8d3f bc26 803f 2cb2 803f
00000060: 2d76 863f 54c1 7e3f adca 863f 43d9 753f
00000070: d35c 863f 93c7 833f f40a 8b3f 92e0 853f

decoder.decoder_net.3.bias f4 [32]
0.025677195 -0.027128242 -0.0626618 0.049286254 -0.113563314 0.029078368 -0.09995787 0.008270381
-0.026673166 -0.00803089 0.0005968449 -0.019851565 -0.060437527 -0.066658504 0.02720461 0.06108913
-0.06729808 0.016831111 -0.0035579742 0.043936647 0.08456352 0.04887485 0.01726622 0.024034372
-0.06305458 -0.007066875 -0.053448364 0.040020928 0.07177192 -0.062476225 0.015900213 -0.019910758
00000000: fb58 d23c 0c3c debc d454 80bd 62e0 493d
00000010: e293 e8bd c235 ee3c b6b6 ccbd 7e80 073c
00000020: af81 dabc fe93 03bc 9575 1c3a c09f a2bc
00000030: 578d 77bd 4184 88bd 34dc de3c 9838 7a3d
00000040: 93d3 89bd 66e1 893c e72c 69bb eaf6 333d
00000050: a42f ad3d ff30 483d e371 8d3c bbe3 c43c
00000060: c222 81bd 3f91 e7bb acec 5abd fcec 233d
00000070: 28fd 923d 12e7 7fbd 2a41 823c e31b a3bc

decoder.decoder_net.3.running_mean f4 [32]
0.24999994 0.24999994 0.24999994 0.24999994 0.24999994 0.24999994 0.24999994 0.24999994
0.24999994 0.24999994 0.24999994 0.24999994 0.24999994 0.24999994 0.24999994 0.24999994
0.24999994 0.24999994 0.24999994 0.24999994 0.24999994 0.24999994 0.24999994 0.24999994
0.24999994 0.24999994 0.24999994 0.24999994 0.24999994 0.24999994 0.24999994 0.24999994
00000000: fcff 7f3e fcff 7f3e fcff 7f3e fcff 7f3e
00000010: fcff 7f3e fcff 7f3e fcff 7f3e fcff 7f3e
00000020: fcff 7f3e fcff 7f3e fcff 7f3e fcff 7f3e
00000030: fcff 7f3e fcff 7f3e fcff 7f3e fcff 7f3e
00000040: fcff 7f3e fcff 7f3e fcff 7f3e fcff 7f3e
00000050: fcff 7f3e fcff 7f3e fcff 7f3e fcff 7f3e
00000060: fcff 7f3e fcff 7f3e fcff 7f3e fcff 7f3e
00000070: fcff 7f3e fcff 7f3e fcff 7f3e fcff 7f3e

decoder.decoder_net.3.running_var f4 [32]
0.044205867 0.04690389 0.06376866 0.05362707 0.044456683 0.037911378 0.04408764 0.046480082
0.031498704 0.03931251 0.04474272 0.038800117 0.041287426 0.037874866 0.04718718 0.05400077
0.05589342 0.04842434 0.034660097 0.06537233 0.04311787 0.05621264 0.037154764 0.045126162
0.051709622 0.059911184 0.027467921 0.038056437 0.041288238 0.036900572 0.032141726 0.038727652
00000000: 3611 353d 4b1e 403d 2599 823d 0fa8 5b3d
00000010: 3618 363d f648 1b3d 3e95 343d e661 3e3d
00000020: c904 013d 2806 213d 2444 373d dfec 1e3d
00000030: 011d 293d ad22 1b3d 5847 413d e92f 5d3d
00000040: 80f0 643d 9a58 463d bff7 0d3d eee1 853d
00000050: 5d9c 303d 3a3f 663d 982f 183d 36d6 383d
00000060: 78cd 533d 6e65 753d 6804 e13c 11e1 1b3d
00000070: db1d 293d 0e25 173d 0ba7 033d e3a0 1e3d

decoder.decoder_net.4.weight f4 [32, 32, 3, 3]
-0.040337503 0.058567345 0.010586067 -0.010635735 -0.05664397 0.032694962 0.016940085 -0.080451354
0.00073721615 0.010797658 -0.01969617 0.059116952 -0.012203298 0.0103429295 0.06280998 -0.01159805
-0.04649034 -0.061733957 -0.0059958994 0.017758442 0.009394715 -0.050158918 0.02822024 -0.06926726
0.05243199 0.024760157 -0.028002743 -0.06794858 0.06719728 -0.0001467803 -0.13223495 0.07825893
0.07257714 0.09283634 0.030864695 -0.057985295 0.028923731 0.07560006 -0.014578993 -0.07332293
-0.017691428 -0.01037588 -0.05012448 -0.061317876 -0.06286622 -0.084864505 -0.018931279 -0.03557537
0.056630574 0.0033456914 0.03006523 0.0037999963 0.073574916 -0.024419388 -0.07822389 0.09965846
-0.004738597 -0.0024922343 0.0016406057 0.049270593 0.010720006 0.0617136 0.07302153 0.071187876
-0.020856075 -0.058583952 0.0032816236 -0.052992824 -0.053603526 0.0027347868 0.0395853 -0.029276246
-0.06909133 0.017271284 0.069862865 0.09569838 0.004975564 -0.033286594 -0.002054444 -0.026549188
-0.08628128 0.021077394 0.08505106 0.006900893 -0.038409524 0.0044384566 -0.022387238 0.014522585
0.050428145 -0.050806526 0.0059337937 -0.05920065 -0.021090023 0.022840701 -0.049405985 0.040365737
0.061109744 -0.02356444 -0.023601662 -0.032787845 -0.0409821 -0.05132741 0.050349362 -0.07002033
0.017800706 -0.054595433 -0.08272437 -0.05685578 -0.03374734 -0.011250281 -0.030734196 0.043119214
-0.0070767347 0.025668906 -0.037951645 0.09212042 -0.03769514 0.03409788 -0.0135908695 -0.02862058
0.00806753 0.017488329 -0.1805688 -0.038297888 -0.01671839 0.08781589 -0.023934232 0.012152161
-0.0093268035 -0.08228592 -0.051907066 0.1177822 -0.011609331 0.02968804 -0.019268153 0.020055762
-0.035269786 0.021891853 0.072112076 0.017988745 -0.09068109 0.0697184 -0.11632262 -0.08107656
-0.012983949 -0.0976231 -0.022565829 0.018450601 0.0572659 -0.007001473 0.035651304 0.081521
0.005961693 -0.0014132702 -0.011218275 -0.004519766 -0.054144554 -0.033974554 0.025948232 -0.056273274
0.060210403 -0.0138247125 0.047069117 0.034086764 0.10310898 0.06929718 0.041809097 -0.075906456
0.046874866 -0.003415933 -0.045620773 0.036303177 -0.017428845 -0.100954816 0.033355337 -0.021644596
-0.030691734 -0.038094044 -0.09506065 0.10968378 -0.04509199 0.036865152 -0.07964716 0.07874465
-0.029502882 -0.004023108 0.034943804 0.070796855 -0.005196635 -0.09948282 -0.016414646 0.04967713
-0.04295104 -0.021249175 -0.029604428 0.045319125 -0.01663157 0.020002192 0.031642523 0.010158675
-0.018637188 0.09107282 0.012973573 0.009113719 -0.058181085 0.019004675 -0.017263426 -0.0074460194
-0.02761412 -0.00895619 -0.068749554 0.022439357 0.0761634 0.0020421017 0.07209618 -0.0146525
-0.01754497 -0.06724361 -0.022870494 0.040235166 0.08878806 0.038399067 -0.024840541 -0.019702462
0.03528699 -0.11420095 -0.04207919 -0.023481706 0.0014757492 0.0507427 0.006568236 -0.10149926
0.0008271419 0.054088328 0.020759262 0.0093509955 -0.11636751 -0.06309537 -0.11098379 -0.00744405
0.0509782 0.03922894 0.031414147 0.009534436 -0.016488496 0.05169327 -0.031132052 0.064498164
0.05932471 -0.05319663 -0.045878287 -0.0026387325 0.022473799 -0.027660022 0.0059878873 0.0017723651
00000000: f038 25bd 50e4 6f3d 2f71 2d3c 8141 2ebc
00000010: 8203 68bd 27eb 053d efc5 8a3c aec3 a4bd
00000020: bd41 413a a9e8 303c dd59 a1bc 9e24 723d
00000030: 57f0 47bc 6475 293c 85a2 803d bf05 3ebc
00000040: a86c 3ebd bfdc 7cbd 4079 c4bb 277a 913c
00000050: 4aec 193c 7073 4dbd 222e e73c fedb 8dbd
00000060: edc2 563d d0d5 ca3c 0266 e5bc a028 8bbd
00000070: ba9e 893d 09e9 19b9 9968 07be 3846 a03d
00000080: 53a3 943d fb20 be3d f5d7 fc3c fd81 6dbd
00000090: 76f1 ec3c 34d4 9a3d bbdc 6ebc 552a 96bd
000000a0: 9ded 90bc 98ff 29bc 544f 4dbd 7428 7bbd
000000b0: 01c0 80bd 71cd adbd c515 9bbc 7bb7 11bd
000000c0: 76f5 673d 6343 5b3b 5b4b f63c 5c09 793b
000000d0: 72ae 963d 2b0b c8bc d933 a0bd bc19 cc3d
000000e0: 3c46 9bbb c154 23bb 9809 d73a f6cf 493d
000000f0: f7a2 2f3c 66c7 7c3d 508c 953d f3ca 913d
00000100: 5cda aabc baf5 6fbd 8210 573b 010f 59bd
00000110: 5f8f 5bbd 1c3a 333b 3224 223d bdd4 efbc
00000120: c17f 8dbd 827c 8d3c 4314 8f3d 83fd c33d
00000130: 0e0a a33b 8657 08bd daa3 06bb af7d d9bc
00000140: 3db4 b0bd 80aa ac3c 402f ae3d e320 e23b
00000150: 4e53 1dbd 7970 913b 7165 b7bc 23f0 6d3c
00000160: be8d 4e3d 811a 50bd 4570 c23b 617c 72bd
00000170: fcc4 acbc 6c1c bb3c ee5d 4abd 8b56 253d
00000180: 364e 7a3d 360a c1bc 4658 c1bc 8c4c 06bd
00000190: d9dc 27bd b13c 52bd 223b 4e3d d266 8fbd
000001a0: c9d2 913c 769f 5fbd 656b a9bd 9be1 68bd
000001b0: a73a 0abd 1953 38bc 48c6 fbbc c69d 303d
000001c0: f4e3 e7bb 9947 d23c 2f73 1bbd a1a9 bc3d
000001d0: 3866 1abd 38aa 0b3d 3dac 5ebc b575 eabc
000001e0: ac2d 043c af43 8f3c 07e7 38be 3fde 1cbd
000001f0: 01f5 88bc d1d8 b33d b911 c4bc dc19 473c
00000200: 73cf 18bc 8585 a8bd 819c 54bd cb37 f13d
00000210: 1035 3ebc 5534 f33c 3fd8 9dbc fb4b a43c
00000220: 0d77 10bd 8b56 b33c 7faf 933d 225d 933c
00000230: 02b7 b9bd 85c8 8e3d 8e3a eebd 780b a6bd
00000240: a1ba 54bc 9fee c7bd f9db b8bc b725 973c
00000250: a68f 6a3d 9d6c e5bb 1a07 123d 7bf4 a63d
00000260: 4e5a c33b 7b3d b9ba dbcc 37bc 8c1a 94bb
00000270: aec6 5dbd e728 0bbd 6391 d43c ce7e 66bd
00000280: 2f9f 763d 0c81 62bc 8ccb 403d 909e 0b3d
00000290: cd2a d33d aeeb 8d3d 0440 2b3d d874 9bbd
000002a0: dcff 3f3d d9dd 5fbb d9dc 3abd a4b2 143d
000002b0: f0c6 8ebc 66c1 cebd 9b9f 083d 0250 b1bc
000002c0: 3b6d fbbc 8008 1cbd 28af c2bd e4a1 e03d
000002d0: 61b2 38bd eaff 163d 0d1e a3bd e044 a13d
000002e0: 07b0 f1bc 47d4 83bb 3c21 0f3d f1fd 903d
000002f0: 8948 aabb a6bd cbbd 0278 86bc 3f7a 4b3d
00000300: 6eed 2fbd c012 aebc fc84 f2bc 8ca0 393d
00000310: ee3e 88bc a3db a33c 979b 013d 9270 263c
00000320: 04ad 98bc 6384 ba3d 1c8f 543c b551 153c
00000330: 4a4f 6ebd b1af 9b3c 076c 8dbc bdfd f3bb
00000340: 0237 e2bc fcbc 12bc 91cc 8cbd bed2 b73c
00000350: 8ffb 9b3d c8d4 053b 29a7 933d 0a11 70bc
00000360: 78ba 8fbc 05b7 89bd e75a bbbc a1cd 243d
00000370: 84d6 b53d 5748 1d3d 647e cbbc 0f67 a1bc
00000380: 1789 103d 30e2 e9bd 3b5b 2cbd b55c c0bc
00000390: ed6d c13a 94d7 4f3d 5b3a d73b d8de cfbd
000003a0: 8ed4 583a b98b 5d3d 540f aa3c eb34 193c
000003b0: 1752 eebd 2538 81bd 784b e3bd 38ed f3bb
000003c0: 84ce 503d 86ae 203d 1fac 003d 5336 1c3c
000003d0: e212 87bc 53bc 533d a508 ffbc 9d17 843d
000003e0: 78fe 723d b6e4 59bd dfea 3bbd 96ee 2cbb
000003f0: f91a b83c 4597 e2bc 0a36 c43b b44e e83a

decoder.decoder_net.4.bias f4 [32]
0.05583893 0.01508884 -0.06284038 0.08944736 -0.10988739 -0.030453855 -0.019453157 -0.0071384883
0.030336564 0.023926657 -0.01836759 -0.09570632 -0.012340401 0.0038875714 -0.07993687 0.031770296
-0.05305898 0.14604583 0.10074469 -0.020403698 -0.008213148 0.035462886 0.038984496 0.052171692
-0.0053639663 -0.12945876 -0.06566712 0.060248923 -0.02040507 -0.0075758416 0.04369048 0.0016271526
00000000: 5db7 643d 2f37 773c 75b2 80bd 2d30 b73d
00000010: a40c e1bd 5d7a f9bc 3a5c 9fbc fbe9 e9bb
00000020: 6384 f83c d601 c43c a177 96bc ad01 c4bd
00000030: 652f 4abc a0c6 7e3b f1b5 a3bd 9221 023d
00000040: 5f54 59bd 0a8d 153e 3b53 ce3d a825 a7bc
00000050: 7190 06bc 8841 113d 35ae 1f3d fcb1 553d
00000060: 36c4 afbb d690 04be 7c7c 86bd 93c7 763d
00000070: 8928 a7bc c43e f8bb caf4 323d 2e46 d53a

decoder.decoder_net.6.weight f4 [32]
0.93995434 0.90220135 1.0237579 0.9235277 0.97287154 0.9692248 0.93027306 1.0688298
0.96801656 0.9545572 0.8715937 0.9432939 0.9806635 1.0143706 0.907044 0.9465061
0.92657167 0.90094167 0.8969899 0.9307009 0.92445874 0.94103146 0.8964285 0.9328814
0.9354988 0.9626414 0.9050456 0.9523652 0.90844756 0.947758 0.8798414 0.94597876
00000000: d9a0 703f abf6 663f 800a 833f 506c 6c3f
00000010: 1c0e 793f 1e1f 783f 6026 6e3f 6acf 883f
00000020: efcf 773f dc5d 743f c420 5f3f b67b 713f
00000030: c30c 7b3f e5d6 813f 0934 683f 394e 723f
00000040: cd33 6d3f 1da4 663f 21a1 653f 6a42 6e3f
00000050: 54a9 6c3f 70e7 703f 577c 653f 51d1 6e3f
00000060: d97c 6f3f ab6f 763f 12b1 673f 35ce 733f
00000070: 0590 683f 45a0 723f 493d 613f aa2b 723f

decoder.decoder_net.6.bias f4 [32]
0.05751812 0.022411264 0.03822391 -0.09038643 0.008235286 0.06420358 0.034432493 -0.029484307
0.000578223 -0.049951263 0.008013353 0.0032713509 0.046089508 0.03375299 -0.00417467 0.040155232
-0.02133641 0.045995973 0.07462405 0.03747278 0.020675864 -0.022449654 0.05782702 0.010433415
0.09720843 0.0076340106 0.046496086 0.04069996 0.0898315 0.01567657 0.11460521 0.017351067
00000000: 1f98 6b3d d497 b73c ad90 1c3d 851c b9bd
00000010: 4bed 063c 2b7d 833d 1609 0d3d 1389 f1bc
00000020: e393 173a b299 4cbd 704a 033c 2964 563b
00000030: 5ac8 3c3d 9340 0a3d accb 88bb d079 243d
00000040: b2c9 aebc 4666 3c3d 7ed4 983d 0f7d 193d
00000050: 6e60 a93c 56e8 b7bc 06dc 6c3d eaf0 2a3c
00000060: 3715 c73d b926 fa3b ae72 3e3d 00b5 263d
00000070: 94f9 b73d 266c 803c 23b6 ea3d d323 8e3c

decoder.decoder_net.6.running_mean f4 [32]
0.14285703 0.14285703 0.14285703 0.14285703 0.14285703 0.14285703 0.14285703 0.14285703
0.14285703 0.14285703 0.14285703 0.14285703 0.14285703 0.14285703 0.14285703 0.14285703
0.14285703 0.14285703 0.14285703 0.14285703 0.14285703 0.14285703 0.14285703 0.14285703
0.14285703 0.14285703 0.14285703 0.14285703 0.14285703 0.14285703 0.14285703 0.14285703
00000000: 1d49 123e 1d49 123e 1d49 123e 1d49 123e
00000010: 1d49 123e 1d49 123e 1d49 123e 1d49 123e
00000020: 1d49 123e 1d49 123e 1d49 123e 1d49 123e
00000030: 1d49 123e 1d49 123e 1d49 123e 1d49 123e
00000040: 1d49 123e 1d49 123e 1d49 123e 1d49 123e
00000050: 1d49 123e 1d49 123e 1d49 123e 1d49 123e
00000060: 1d49 123e 1d49 123e 1d49 123e 1d49 123e
00000070: 1d49 123e 1d49 123e 1d49 123e 1d49 123e

decoder.decoder_net.6.running_var f4 [32]
0.00500964 0.0049545807 0.004286378 0.004735737 0.0047577578 0.0042904555 0.0037221604 0.003841052
0.0065684305 0.0039606104 0.0026807878 0.005166842 0.005393093 0.0056133852 0.0033942945 0.004753151
0.0039432733 0.0031990863 0.0043648183 0.007259189 0.0043951133 0.006164015 0.0032488792 0.005000048
0.0054065017 0.0053011565 0.0036048861 0.003602846 0.003503998 0.0063394755 0.0063112774 0.0045275837
00000000: e827 a43b 095a a23b bf74 8c3b 3e2e 9b3b
00000010: f7e6 9b3b f396 8c3b 7def 733b 29ba 7b3b
00000020: fd3b d73b 02c8 813b 28b0 2f3b 9d4e a93b
00000030: 8bb8 b03b 7df0 b73b d072 5e3b 52c0 9b3b
00000040: 9336 813b c3a7 513b c006 8f3b 7ede ed3b
00000050: e204 903b 81fb c93b 26eb 543b 71d7 a33b
00000060: 0629 b13b 53b5 ad3b f43f 6c3b ba1d 6c3b
00000070: 55a3 653b 60bb cf3b d5ce ce3b 205c 943b

decoder.decoder_net.7.weight f4 [32, 16, 3, 3]
-0.062739335 -0.059327 0.011530129 -0.009128515 0.03600053 0.052932594 0.07958571 0.101009816
0.03739025 -0.00589209 0.0442971 -0.07162169 0.054079026 0.048432667 0.03634228 -0.10539238
-0.06355354 0.09371939 -0.06390308 -0.0018267501 -0.041156355 0.1393505 -0.025457319 -0.04888898
-0.06707277 0.10094044 0.0649356 -0.017391687 -0.0037074406 -0.05719525 0.06559648 0.021259418
-0.1095191 -0.059767365 0.014650817 0.09872395 -0.004870933 0.063952915 0.05747064 -0.055166442
0.0009353814 0.0065070507 0.051594395 -0.05347009 0.059381954 -0.029628921 0.018807124 -0.0753254
0.0421318 -0.057271898 -0.032268547 0.004827038 0.03666192 0.07224551 0.025771935 -0.051243585
-0.071610816 0.07823854 0.027022637 -0.047374997 -0.07362765 -0.022887945 0.03669716 0.03881229
-0.043406993 -0.021133197 -0.09893966 -0.011402722 0.055002544 0.02794438 -0.031432793 -0.031266008
0.021572411 0.02698922 -0.031655017 -0.007340726 0.03435977 0.050874203 -0.057344493 -0.06061493
-0.11298536 -0.013330774 -0.020160208 -0.03673737 0.023846727 -0.086103685 0.03353782 -0.035431128
0.05558986 0.12657112 0.003156548 -0.05082601 -0.051183775 -0.024895133 -0.002749201 -0.028996607
-0.024041343 0.007931888 -0.016455006 -0.0079153385 -0.06552656 -0.0038979652 -0.059716385 -0.07255635
0.02896995 -0.024957445 -0.022371547 0.05732738 -0.03236561 -0.085554235 -0.038318988 0.06326695
-0.013336118 -0.0014705142 -0.073028535 0.0018914335 0.008015794 -0.035380848 -0.0002699893 0.070782356
0.059720337 0.010575116 0.066059135 0.034193274 -0.018328428 -0.04155619 0.076192245 -0.06117629
0.029911026 0.06436131 0.0539259 0.028824078 0.023765435 -0.046826728 -0.03629468 0.06871084
0.064062454 -0.028167892 -0.06932795 0.029120238 0.09532906 0.09804181 0.0013573937 -0.09261234
0.054009628 0.07691773 0.03691827 0.03996914 0.031697884 0.03378954 0.023399604 0.018988183
0.04148957 0.0887051 -0.017702186 0.034822702 0.08675786 -0.036673885 0.020873858 0.038560458
-0.038038243 -0.0039706617 -0.022871986 0.030905139 -0.077792495 -0.023906484 0.0010844728 0.029642664
-0.05719261 0.0028382873 0.027561951 0.03458069 -0.019406615 0.058784757 -0.036298264 -0.14176801
-0.0468797 0.026219742 0.008536654 0.056826662 -0.024783207 -0.016827488 -0.06775752 0.03787633
-0.10370399 0.067586444 -0.06768596 -0.065081686 0.05329067 -0.016919188 -0.073026694 -0.03586219
-0.002681894 -0.022071805 -0.045796752 0.0029277292 -0.09689732 0.06369614 0.010092252 -0.033899203
0.0070740157 0.026477462 -0.011176242 0.0032749593 -0.06683134 0.01978198 -0.034153234 0.034424685
-0.07868583 -0.081684045 0.004099676 -0.16043694 -0.051276773 0.018081257 -0.022335742 0.039381977
0.023951633 -0.09800938 0.054415133 -0.038864896 -0.037329182 0.020808967 -0.0225003 -0.050370455
0.032304097 0.012401736 0.042017866 -0.08075437 0.07257726 -0.014842989 -0.017734751 -0.026003193
0.080075994 -0.006891249 -0.029247424 0.04807872 -0.040053297 0.10621166 0.09966516 -0.04623613
0.08864115 -0.043970447 0.0032689057 -0.04979945 0.007839272 -0.04435776 0.08388526 -0.05276117
0.023949716 -0.020434858 0.023480548 0.00973204 -0.013598348 -0.08241952 -0.012875818 -0.12201594
00000000: 7b7d 80bd de00 73bd dee8 3c3c c48f 15bc
00000010: 4b75 133d d9cf 583d d5fd a23d 3cde ce3d
00000020: 8526 193d 6f12 c1bb e070 353d 65ae 92bd
00000030: f881 5d3d 5561 463d a5db 143d f6d7 d7bd
00000040: 5c28 82bd f4ef bf3d 9edf 82bd 906f efba
00000050: 9193 28bd e6b1 0e3e de8b d0bc d03f 48bd
00000060: 735d 89bd ddb9 ce3d f5fc 843d 0379 8ebc
00000070: 88f8 72bb 9145 6abd 7357 863d 3b28 ae3c
00000080: 8d4b e0bd a0ce 74bd fb09 703c c82f ca3d
00000090: 599c 9fbb bff9 823d 5566 6b3d 35f6 61bd
000000a0: 6234 753a 1939 d53b a554 533d 7403 5bbd
000000b0: 7e3a 733d 5ab8 f2bc 6611 9a3c 3444 9abd
000000c0: 6592 2c3d f095 6abd 062c 04bd 212c 9e3b
000000d0: cf2a 163d 74f5 933d aa1f d33c cbe4 51bd
000000e0: b1a8 92bd 873b a03d 945e dd3c 490c 42bd
000000f0: 18ca 96bd 807f bbbc c34f 163d a3f9 1e3d
00000100: 88cb 31bd 871f adbc e0a0 cabd 7cd2 3abc
00000110: 594a 613d 9deb e43c acbf 00bd c910 00bd
00000120: a0b8 b03c 7f18 dd3c b1a8 01bd 798a f0bb
00000130: d5bc 0c3d 7861 503d 0fe2 6abd 5c47 78bd
00000140: de64 e7bd 5269 5abc 0527 a5bc ed79 16bd
00000150: 365a c33c 2157 b0bd f45e 093d 3b20 11bd
00000160: 31b2 633d dc9b 013e 16de 4e3b ef2e 50bd
00000170: 14a6 51bd e1f0 cbbc f02b 34bb 4b8a edbc
00000180: 5af2 c4bc c0f4 013c a6cc 86bc 56af 01bc
00000190: ca32 86bd 0175 7fbb 2b99 74bd 6c98 94bd
000001a0: 6352 ed3c 8e73 ccbc 8944 b7bc 1dd0 6a3d
000001b0: cd91 04bd 0f37 afbd 5ff4 1cbd 1a92 813d
000001c0: bc7f 5abc 45be c0ba fc8f 95bd fae9 f73a
000001d0: ad54 033c 82eb 10bd 5a8d 8db9 57f6 903d
000001e0: 509d 743d 4043 2d3c 034a 873d 3f0e 0c3d
000001f0: 8025 96bc d336 2abd ae0a 9c3d fd93 7abd
00000200: f807 f53c ddcf 833d 68e1 5c3d 7920 ec3c
00000210: bbaf c23c 62cd 3fbd bba9 14bd 45b8 8c3d
00000220: 2d33 833d 5ac0 e6bc d0fb 8dbd 918d ee3c
00000230: e23b c33d 25ca c83d 93ea b13a 8aab bdbd
00000240: 3339 5d3d 0b87 9d3d 9d37 173d aeb6 233d
00000250: a4d5 013d e766 0a3d 87b0 bf3c 1b8d 9b3c
00000260: f8f0 293d 05ab b53d 2d04 91bc 40a2 0e3d
00000270: 1bae b13d 5b37 16bd a7ff aa3c 92f1 1d3d
00000280: fdcd 1bbd 531c 82bb 085e bbbc c62c fd3c
00000290: ac51 9fbd 88d7 c3bc de24 8e3a 2cd5 f23c
000002a0: cc42 6abd 8f02 3a3b 9ac9 e13c 7ba4 0d3d
000002b0: 9ffa 9ebc 49c8 703d 7dad 14bd a22b 11be
000002c0: ee04 40bd c9ca d63c 52dd 0b3c 13c3 683d
000002d0: 2706 cbbc cdd9 89bc 74c4 8abd 3624 1b3d
000002e0: c262 d4bd c36a 8a3d f09e 8abd 8c49 85bd
000002f0: 5147 5a3d 1c9a 8abc 058f 95bd 3be4 12bd
00000300: b7c2 2fbb eecf b4bc 6095 3bbd 25df 3f3b
00000310: 1a72 c6bd 1f73 823d f959 253c e4d9 0abd
00000320: 25cd e73b 43e7 d83c 8e1c 37bc b3a0 563b
00000330: dfde 88bd d20d a23c 43e4 0bbd e600 0d3d
00000340: 0926 a1bd f749 a7bd 9356 863b 9549 24be
00000350: 9807 52bd 251f 943c 72f9 b6bc ff4e 213d
00000360: 3736 c43c 24b9 c8bd 67e2 5e3d cc30 1fbd
00000370: 7ce6 18bd 9177 aa3c 8d52 b8bc 4051 4ebd
00000380: 4d51 043d a730 4b3c ed1a 2c3d 8c62 a5bd
00000390: 63a3 943d 0230 73bc 7848 91bc a604 d5bc
000003a0: e2fe a33d fdcf e1bb 4b98 efbc 31ee 443d
000003b0: ed0e 24bd 8085 d93d 3f1d cc3d 1962 3dbd
000003c0: 7e89 b53d 5b1a 34bd 233b 563b 82fa 4bbd
000003d0: 4a70 003c 7cb0 35bd 09cc ab3d 191c 58bd
000003e0: 3232 c43c 0167 a7bc 475a c03c 2273 1f3c
000003f0: 9bcb 5ebc 91cb a8bd 18f5 52bc 7ee3 f9bd

decoder.decoder_net.7.bias f4 [16]
-0.10595974 -0.09582592 -0.04526879 0.033189904 0.05277994 -0.013025107 -0.038701534 0.005514553
0.020475784 0.042357266 -0.054799225 0.10470049 -0.17563027 -0.011772673 -0.0833472 0.07018803
00000000: 6c01 d9bd 6140 c4bd c46b 39bd 23f2 073d
00000010: c72f 583d 4267 55bc 8085 1ebd 6cb3 b43b
00000020: d5bc a73c d07e 2d3d 2775 60bd 366d d63d
00000030: 6cd8 33be 2be2 40bc f0b1 aabd bebe 8f3d

decoder.decoder_net.9.weight f4 [16]
0.96917385 0.91429114 0.957201 0.91923934 0.94916254 0.92849904 0.9052798 0.8826871
0.8667496 0.89972764 0.88745964 0.8965619 0.9336808 0.95609534 0.91372275 0.9461527
00000000: c71b 783f fc0e 6a3f 200b 753f 4553 6b3f
00000010: 51fc 723f 1db2 6d3f 6bc0 673f c8f7 613f
00000020: 4de3 5d3f 8d54 663f 8e30 633f 1585 653f
00000030: b405 6f3f aac2 743f bce9 693f 1037 723f

decoder.decoder_net.9.bias f4 [16]
-0.032722276 0.08379591 0.023525853 -0.15304218 -0.020520214 0.041324932 -0.1335615 0.06710979
-0.10852195 -0.021283915 -0.04786474 0.009048405 0.10549465 0.13792159 -0.0015010306 -0.029588845
00000000: cb07 06bd 319d ab3d 4ab9 c03c 17b7 1cbe
00000010: 021a a8bc 5544 293d 59c4 08be dc70 893d
00000020: c240 debd 9b5b aebc d10d 44bd c33f 143c
00000030: 940d d83d 513b 0d3e 3bbe c4ba 4e64 f2bc

decoder.decoder_net.9.running_mean f4 [16]
0.071428515 0.071428515 0.071428515 0.071428515 0.071428515 0.071428515 0.071428515 0.071428515
0.071428515 0.071428515 0.071428515 0.071428515 0.071428515 0.071428515 0.071428515 0.071428515
00000000: 1d49 923d 1d49 923d 1d49 923d 1d49 923d
00000010: 1d49 923d 1d49 923d 1d49 923d 1d49 923d
00000020: 1d49 923d 1d49 923d 1d49 923d 1d49 923d
00000030: 1d49 923d 1d49 923d 1d49 923d 1d49 923d

decoder.decoder_net.9.running_var f4 [16]
0.003823418 0.002377652 0.004425096 0.0026663262 0.003838909 0.003288397 0.0024705762 0.001138825
0.0012081313 0.0012324596 0.0015390308 0.0010546035 0.0029755775 0.003821145 0.002631022 0.0036601475
00000000: 4f92 7a3b 62d2 1b3b 6500 913b 88bd 2e3b
00000010: 3596 7b3b 2682 573b 64e9 213b a044 953a
00000020: 295a 9e3a 7b8a a13a 4eb9 c93a 9f3a 8a3a
00000030: e801 433b 2d6c 7a3b 396d 2c3b 16df 6f3b

decoder.decoder_net.10.weight f4 [16, 1, 3, 3]
-0.1620647 -0.044408936 -0.08619054 0.002094192 -0.23830934 -0.17774254 -0.24444424 -0.23711509
-0.07943593 0.10866101 0.1275837 -0.15118791 0.16752593 0.20185652 0.08571338 -0.09734444
-0.019577622 0.023085985 -0.15771218 -0.27187008 -0.15325819 -0.18254119 0.124829866 -0.023948777
0.03207748 0.0017402151 -0.009960829 -0.07289548 -0.07717201 0.21287656 -0.13957283 -0.17165089
-0.028737016 0.1288755 -0.008533943 0.060223006 0.055359356 -0.14679636 0.06340132 -0.17176592
-0.24276179 0.06326143 -0.01328511 -0.2037096 0.142839 -0.20203155 0.11453655 -0.07572732
0.19532198 0.2708445 -0.14932576 -0.071930274 0.19208263 -0.25455743 -0.01464889 -0.20845631
-0.14495926 -0.019316882 -0.19608597 0.13322215 0.06652656 0.1832756 -0.17851105 -0.08574859
0.1352015 0.060838185 0.107090846 0.1872261 0.18808411 0.00945314 0.1033622 0.02539323
-0.05210424 -0.016220754 -0.036252487 -0.15572152 -0.1937039 -0.14423974 -0.13586052 0.07877862
-0.0123799285 0.22890294 0.06625219 -0.014022858 0.018263733 -0.102384135 0.0897028 -0.0559432
-0.00085154804 0.21473578 0.016991807 -0.15683876 -0.16677439 -0.20112559 -0.17547828 -0.009403161
-0.09388769 -0.097329825 -0.01464944 -0.12067229 -0.033718985 0.12872821 -0.15734054 0.07209649
0.0338691 0.023792738 0.1320372 -0.061674017 -0.000121847566 0.15933003 0.17659639 0.08778252
0.1169502 0.119731285 0.018435847 -0.15137817 0.10473248 -0.076441385 -0.3324002 -0.17035887
0.2828856 0.04242843 0.065735064 0.15661053 0.06496836 0.073442414 0.06776083 0.08317482
0.029995063 -0.19291583 0.15564826 0.052265003 0.11930749 0.23468089 0.22496508 -0.1317913
-0.21533181 -0.14750353 -0.24038477 -0.03890315 0.12213147 -0.1423869 -0.027158262 -0.11250932
00000000: 4af4 25be 25e6 35bd aa84 b0bd b63e 093b
00000010: 5d07 74be 2402 36be 974f 7abe 4cce 72be
00000020: 4eaf a2bd aa89 de3d 4da5 023e 01d1 1abe
00000030: eb8b 2b3e 7ab3 4e3e 7f8a af3d 865c c7bd
00000040: 4061 a0bc d21e bd3c 4d7f 21be 8e32 8bbe
00000050: b7ef 1cbe 14ec 3abe cda6 ff3d 3a30 c4bc
00000060: ad63 033d ee17 e43a bf32 23bc 3a4a 95bd
00000070: 5c0c 9ebd 50fc 593e 2eec 0ebe 40c5 2fbe
00000080: e469 ebbc f0f7 033e f4d1 0bbc 66ac 763d
00000090: 7ec0 623d c951 16be 8dd8 813d 68e3 2fbe
000000a0: 8c96 78be 358f 813d caa9 59bc 4099 50be
000000b0: 6344 123e 5ce1 4ebe 2492 ea3d ed16 9bbd
000000c0: 7c02 483e 21ac 8a3e dae8 18be 2e50 93bd
000000d0: 4fb1 443e 5a55 82be e601 70bc 9275 55be
000000e0: 3370 14be 703e 9ebc c3ca 48be 636b 083e
000000f0: 143f 883d 99ac 3b3e 9acb 36be f59c afbd
00000100: 4372 0a3e 7631 793d 7252 db3d 33b8 3f3e
00000110: 1f99 403e 58e1 1a3c 90af d33d 7705 d03c
00000120: 416b 55bd 63e1 84bc 7d7d 14bd 7675 1fbe
00000130: 515a 46be 95b3 13be 051f 0bbe af56 a13d
00000140: 2fd5 4abc 8865 6a3e 3aaf 873d 21c0 65bc
00000150: d39d 953c c6ae d1bd 1ab6 b73d b224 65bd
00000160: 6c3a 5fba b2e3 5b3e 6732 8b3c 579a 20be
00000170: e8c6 2abe def3 4dbe 94b0 33be b70f 1abc
00000180: 3048 c0bd dc54 c7bd 3404 70bc 0923 f7bd
00000190: eb1c 0abd 54d1 033e e11d 21be 53a7 933d
000001a0: 53ba 0a3d fde8 c23c c234 073e e59d 7cbd
000001b0: 6a88 ffb8 6927 233e afd5 343e 52c7 b33d
000001c0: 9683 ef3d ad35 f53d c606 973c e102 1bbe
000001d0: fc7d d63d 4d8d 9cbd 5c30 aabe 8e72 2ebe
000001e0: 62d6 903e 6fc9 2d3d 1ba0 863d 835e 203e
000001f0: 220e 853d fa68 963d 31c6 8a3d 8f57 aa3d
00000200: 35b8 f53c ba8b 45be 4262 1f3e d413 563d
00000210: 7c57 f43d 3050 703e 3f5d 663e 4cf4 06be
00000220: f17f 5cbe 2a0b 17be 6d27 76be e958 1fbd
00000230: 1020 fa3d dfcd 11be 017b debc 496b e6bd

encoder.encoder_net.0.weight f4 [16, 1, 3, 3]
0.18724246 0.2924326 0.16818745 0.34939742 0.16805159 0.10593953 0.09483574 0.15701964
-0.16458647 0.25344974 -0.0023672758 -0.09088929 0.23401852 0.093081854 0.25708914 -0.24899282
0.08910732 0.044538833 0.0804134 0.13528451 -0.21121196 -0.03963112 0.071692646 -0.09510784
0.2787641 0.10776724 -0.099749506 0.30864218 -0.22169937 0.3934456 -0.023985097 -0.08006713
0.09816611 -0.023277156 0.37109074 0.057618987 -0.29714215 0.00491019 -0.21717414 0.28021175
-0.260921 -0.015565418 0.29078373 0.02968275 -0.17805044 -0.010367337 -0.24459903 0.11623784
-0.02415 0.15867317 0.36283594 0.20849986 0.25449273 0.1679785 0.093851596 0.1844007
-0.14811352 -0.118300684 0.27681363 0.32405886 0.060436655 0.13231689 -0.17975995 -0.11050468
0.29317728 -0.23461376 -0.112268895 0.14510801 -0.24606012 0.22436535 -0.33339053 -0.17997833
0.28947207 0.14504589 0.007584641 -0.24204825 0.34594738 -0.32915685 0.14836852 0.07979019
-0.0074036843 0.23643768 -0.24594253 0.13754496 -0.012764955 -0.18697804 0.29122472 0.24978332
-0.06801779 -0.18589722 0.2305382 -0.322527 -0.050682932 0.14578398 0.0022929907 -0.28927788
-0.18516807 -0.0056870333 -0.047837276 -0.23931547 -0.032623168 0.15106894 -0.1693761 -0.06680302
-0.2595461 -0.011168473 -0.10164137 -0.24029616 -0.07767232 -0.22736053 -0.013364753 0.24786115
0.35304433 -0.055181436 0.19501561 0.30611873 -0.2344691 -0.062072266 -0.004574481 -0.29184908
-0.31193244 0.093987525 -0.26564732 -0.26027906 -0.36023057 -0.32735258 0.0793942 0.17166832
0.3062358 0.17541577 0.12630837 -0.16566414 -0.14852132 -0.3023695 -0.19945823 0.3491185
0.21791013 -0.17429756 0.08472503 -0.16842918 0.2518781 -0.17627281 0.12625057 0.18065949
00000000: 7dbc 3f3e bab9 953e 5539 2c3e 38e4 b23e
00000010: b715 2c3e d3f6 d83d 3e39 c23d c2c9 203e
00000020: 5b89 28be 2ac4 813e 4c24 1bbb 2a24 babd
00000030: 8da2 6f3e b3a1 be3d 30a1 833e f9f7 7ebe
00000040: e67d b63d 5a6e 363d c8af a43d 0688 0a3e
00000050: f347 58be 3e54 22bd 98d3 923d e6c7 c2bd
00000060: 2bba 8e3e 12b5 dc3d 7849 ccbd 5906 9e3e
00000070: 2905 63be b471 c93e 657c c4bc 3cfa a3bd
00000080: 500b c93d bcaf bebc 9bff bd3e e301 6c3d
00000090: 0423 98be a9e5 a03b e662 5ebe ea77 8f3e
000000a0: 7097 85be 1806 7fbc 9be1 943e 3d29 f33c
000000b0: db52 36be c3db 29bc 2b78 7abe 1b0e ee3d
000000c0: 39d6 c5bc 387b 223e a2c5 b93e fd80 553e
000000d0: df4c 823e 8e02 2c3e 4435 c03d 89d3 3c3e
000000e0: 12ab 17be a147 f2bd 84ba 8d3e 0beb a53e
000000f0: 6d8c 773d 147e 073e fe12 38be 4750 e2bd
00000100: 551b 963e 973e 70be 3ced e5bd 3297 143e
00000110: 2ff7 7bbe 08c0 653e 2ab2 aabe 3d4c 38be
00000120: af35 943e e986 143e 9588 f83b 7fdb 77be
00000130: 0420 b13e 3f87 a8be ebed 173e 0a69 a33d
00000140: 9b9a f2bb b81c 723e 5cd8 7bbe 96d8 0c3e
00000150: 1a24 51bc 2c77 3fbe 681b 953e 33c7 7f3e
00000160: e94c 8bbd d75b 3ebe 3512 6c3e 4222 a5be
00000170: e898 4fbd 6548 153e 0046 163b 3b1c 94be
00000180: b39c 3dbe 4b5a babb 05f1 43bd 1d0f 75be
00000190: df9f 05bd d1b1 1a3e ee70 2dbe 06d0 88bd
000001a0: 3ae3 84be f9fb 36bc 5a29 d0bd 3210 76be
000001b0: aa12 9fbd 33d1 68be d6f7 5abc 50cf 7d3e
000001c0: 3ac2 b43e ee05 62bd 2cb2 473e 98bb 9c3e
000001d0: ab18 70be 7d3f 7ebd 87e5 95bb 3e6d 95be
000001e0: 9cb5 9fbe 887c c03d ed02 88be 4c43 85be
000001f0: 2470 b8be c29a a7be 6d99 a23d d2c9 2f3e
00000200: f0ca 9c3e 31a0 333e fb56 013e dca3 29be
00000210: f915 18be 2dd0 9abe c73e 4cbe a9bf b23e
00000220: d523 5f3e 0f7b 32be 5184 ad3d b378 2cbe
00000230: 2bf6 803e dc80 34be d447 013e cdfe 383e

encoder.encoder_net.0.bias f4 [16]
0.312903 0.033687815 0.2926223 0.10154655 0.35095873 -0.17027861 -0.014217516 -0.27898866
-0.0055455454 0.15577605 0.03280114 -0.059002306 -0.031944644 0.20830815 0.114687406 0.2510255
00000000: d234 a03e 3cfc 093d 97d2 953e a3f7 cf3d
00000010: ddb0 b33e 845d 2ebe 96f0 68bc 9ad7 8ebe
00000020: 68b7 b5bb c283 1f3e 7d5a 063d 67ac 71bd
00000030: 63d8 02bd bb4e 553e 3be1 ea3d 6a86 803e

encoder.encoder_net.2.weight f4 [16]
1.1309451 1.0678123 1.1002033 1.0251732 1.0227784 1.0593333 1.0969431 1.002673
1.0411146 0.97411394 1.1254046 1.0609328 1.0060451 1.1211784 1.0861921 1.0043882
00000000: cfc2 903f 13ae 883f 76d3 8c3f e038 833f
00000010: 67ea 823f 3c98 873f a268 8c3f 9757 803f
00000020: 3e43 853f 885f 793f 420d 903f a5cc 873f
00000030: 16c6 803f c682 8f3f 5808 8b3f cb8f 803f

encoder.encoder_net.2.bias f4 [16]
-0.058824547 -0.011311541 0.042147923 -0.00047767203 0.058278833 0.04291074 0.038637757 0.017992442
0.039022565 -0.039133307 0.022842504 0.013290216 0.040420264 0.024244864 -0.061201144 0.033990305
00000000: 02f2 70bd 0b54 39bc 4da3 2c3d 0e70 fab9
00000010: c9b5 6e3d 2cc3 2f3d a042 1e3d e364 933c
00000020: 20d6 1f3d 3f4a 20bd 3420 bb3c 35bf 593c
00000030: b88f 253d 2a9d c63c 0dae 7abd 6b39 0b3d

encoder.encoder_net.2.running_mean f4 [16]
0.071428515 0.071428515 0.071428515 0.071428515 0.071428515 0.071428515 0.071428515 0.071428515
0.071428515 0.071428515 0.071428515 0.071428515 0.071428515 0.071428515 0.071428515 0.071428515
00000000: 1d49 923d 1d49 923d 1d49 923d 1d49 923d
00000010: 1d49 923d 1d49 923d 1d49 923d 1d49 923d
00000020: 1d49 923d 1d49 923d 1d49 923d 1d49 923d
00000030: 1d49 923d 1d49 923d 1d49 923d 1d49 923d

encoder.encoder_net.2.running_var f4 [16]
0.0006532713 0.00012843993 5.4590575e-05 0.00019508821 7.5006574e-05 0.00039845286 0.00014627239 9.480886e-05
9.15774e-05 2.8451017e-05 8.744311e-05 0.00016762537 0.00018132667 0.00045628048 0.00013194185 0.00013391394
00000000: 4b40 2b3a d5ad 0639 2ff8 6438 9890 4c39
00000010: d94c 9d38 70e7 d039 b260 1939 1ed4 c638
00000020: 3e0d c038 18aa ee37 aa61 b738 98c4 2f39
00000030: 8222 3e39 ee38 ef39 df59 0a39 406b 0c39

encoder.encoder_net.3.weight f4 [32, 16, 3, 3]
-0.021255823 -0.07724507 -0.0024910043 -0.116468 -0.03987441 0.09499392 -0.09296155 -0.0228497
0.061677333 -0.07482124 -0.039121587 0.05522707 -0.049404483 -0.091121405 0.02746807 -0.070404544
0.122977875 0.047953136 0.059697174 -0.031264722 -0.061317746 -0.059182037 0.03848977 -0.001782787
-0.047659785 -0.069158524 0.07304309 -0.07910206 -0.047272384 -0.0041703167 0.009710349 -0.015687807
-0.012484373 -0.055921424 0.05476976 0.07103962 -0.07042294 0.013445846 0.0033592177 -0.037653416
0.02226106 -0.08174931 -0.03168278 -0.07675684 0.13278261 -0.07966718 0.02511034 0.034463704
-0.066405855 -0.058914706 0.00510353 0.03771577 0.004241248 -0.046730623 0.020111486 -0.12372525
-0.054302376 -0.10472641 0.04575508 0.014343431 -0.018860884 0.11760357 -0.0096950745 0.03113813
0.0715564 0.0031169853 0.068881795 -0.0070554954 0.04207494 0.051215388 -0.080363184 0.050502677
0.031689804 0.0060441373 -0.02606758 -0.06401758 0.03400453 -0.027554102 -0.009263865 -0.056269296
0.08443845 -0.029561678 0.015522439 -0.042906202 -0.032243345 0.019391961 -0.033640392 -0.0051109055
-0.05482288 -0.030067494 0.03540655 -0.00874237 -0.06105831 -0.03840872 0.033374704 -0.011583831
0.067545526 -0.033159483 0.07181418 0.015274784 0.09583075 -0.07904833 0.009167256 -0.052006517
0.07142231 0.083520636 -0.060987957 0.02102141 -0.108518 -0.025426751 0.02902798 -0.013112602
0.059792288 0.06609805 0.041083485 0.042519107 0.12309618 -0.061813183 0.05243028 0.016588658
0.011874997 0.030525228 -0.031664576 0.054632187 -0.005516366 0.012674808 0.114097826 -0.020773629
-0.052459553 0.038907602 -0.10098292 -0.07228068 -0.034269407 -0.04809647 0.088987105 0.071505226
-0.063793495 0.009020501 -0.05560155 -0.02616877 -0.074809894 -0.0139228115 0.03434089 -0.08103948
0.071893275 -0.06966898 -0.0013074806 -0.046379022 0.0110417735 0.002236464 0.09100264 -0.048017822
0.013579512 -0.08583933 -0.10851864 0.05203505 -0.025547711 -0.07688443 -0.037721742 -0.034758605
0.08995067 0.091155484 0.08869776 -0.06714042 0.1030354 0.110130794 -0.026110258 -0.03250804
-0.061433524 0.008996182 -0.005982122 -0.060207855 -0.051070478 -0.0326901 0.07622705 -0.027904995
-0.05367956 -0.016973672 -0.038324274 -0.045699205 0.008642809 -0.07842518 0.0085143745 -0.052788563
0.02932099 0.01053604 0.036686104 0.017047143 -0.048368014 0.004596759 0.0049224533 0.053894464
0.05403092 -0.081269234 0.01881649 0.002239359 0.040357795 -0.013585262 -0.06258463 -0.009721882
0.036553457 -0.02074099 -0.016924784 -0.016956132 -0.047334537 0.031623427 0.071643606 0.061045703
-0.048285294 -0.04860712 0.048707154 0.07605394 -0.048826616 -0.0014024657 -0.051363997 -0.03389319
0.089134 -0.037057135 0.09512714 0.07456838 -0.06629779 0.02445878 -0.010837405 0.07503984
0.008935647 -0.007032892 -0.041840915 -0.030297263 0.047639713 -0.030392734 -0.0011349478 -0.028722065
0.023263603 0.054677296 -0.0067849755 0.045817684 0.079552196 -0.09662108 0.052714795 -0.00021399287
0.0016732998 0.024617774 -0.031447504 0.0413972 -0.02159502 0.077841125 -0.09426983 0.05766979
0.018709151 -0.081052154 -0.05514023 -0.057115085 0.06054735 0.07021089 0.00029945452 -0.022294965
00000000: b120 aebc aa32 9ebd 1e40 23bb c686 eebd
00000010: 5953 23bd 2c8c c23d a062 bebd 4b2f bbbc
00000020: 5fa1 7c3d e13b 99bd f53d 20bd c835 623d
00000030: 5b5c 4abd dc9d babd b804 e13c 4230 90bd
00000040: d3db fb3d 826a 443d 0685 743d 700f 00bd
00000050: 5128 7bbd dd68 72bd 73a7 1d3d 68ac e9ba
00000060: e836 43bd fca2 8dbd 9e97 953d 4300 a2bd
00000070: b0a0 41bd 27a7 88bb 2818 1f3c b783 80bc
00000080: 418b 4cbc dd0d 65bd 4256 603d 387d 913d
00000090: e739 90bd f74b 5c3c 5226 5c3b 783a 1abd
000000a0: d45c b63c 2f6c a7bd cdc5 01bd b132 9dbd
000000b0: 2af8 073e 8c28 a3bd 33b4 cd3c d029 0d3d
000000c0: cbff 87bd 8c50 71bd 833b a73b da7b 1a3d
000000d0: 2bfa 8a3b 9c68 3fbd d8c0 a43c aa63 fdbd
000000e0: 2b6c 5ebd cd7a d6bd ae69 3b3d b600 6b3c
000000f0: 2482 9abc 24da f03d 17d8 1ebc 6415 ff3c
00000100: 298c 923d 5646 4c3b e611 8d3d c931 e7bb
00000110: c656 2c3d 3ac7 513d 7495 a4bd e5db 4e3d
00000120: 2bcd 013d e60d c63b ad8b d5bc a61b 83bd
00000130: 5648 0b3d 24b9 e1bc 77c7 17bc a27a 66bd
00000140: 11ee ac3d 552b f2bc d451 7e3c 6abe 2fbd
00000150: 9911 04bd e4db 9e3c 82ca 09bd 6279 a7bb
00000160: f58d 60bd 1b50 f6bc 7506 113d 283c 0fbc
00000170: 4718 7abd 7652 1dbd eab3 083d 1cca 3dbc
00000180: 4f55 8a3d 3dd2 07bd 5013 933d 1643 7a3c
00000190: ea42 c43d 17e4 a1bd 4232 163c c904 55bd
000001a0: dc45 923d de0c ab3d 82ce 79bd 1835 ac3c
000001b0: af3e debd c34b d0bc 16cc ed3c 3dd6 56bc
000001c0: c2e8 743d 6a5e 873d 2847 283d 8428 2e3d
000001d0: da19 fc3d d22f 7dbd 22c1 563d f0e4 873c
000001e0: 598f 423c 0b10 fa3c b7b2 01bd 00c6 5f3d
000001f0: a2c2 b4bb ffa9 4f3c 1fac e93d 752d aabc
00000200: d4df 56bd 945d 1f3d 22d0 cebd e507 94bd
00000210: 145e 0cbd ce00 45bd df3e b63d 5571 923d
00000220: 2aa6 82bd b9ca 133c 73be 63bd e35f d6bc
00000230: ee35 99bd 811c 64bc 08a9 0c3d 07f8 a5bd
00000240: c83c 933d 9cae 8ebd c55f abba eef7 3dbd
00000250: 8ee8 343c a491 123b 985f ba3d 56ae 44bd
00000260: 9a7c 5e3c 88cc afbd 053f debd b422 553d
00000270: 6f49 d1bc 9675 9dbd 1d82 1abd 0a5f 0ebd
00000280: 0f38 b83d baaf ba3d 2ca7 b53d eb80 89bd
00000290: 3904 d33d 418c e13d 2ee5 d5bc 2727 05bd
000002a0: b8a1 7bbd b964 133c ad05 c4bb 839c 76bd
000002b0: 472f 51bd 0ee6 05bd ed1c 9c3d 0499 e4bc
000002c0: 19df 5bbd 5f0c 8bbc eaf9 1cbd 172f 3bbd
000002d0: 929a 0d3c 619d a0bd e07f 0b3c d238 58bd
000002e0: 9332 f03c 5b9f 2c3c 2b44 163d 73a6 8b3c
000002f0: 8a1d 46bd 69a0 963b 884c a13b 71c0 5c3d
00000300: 874f 5d3d 7c70 a6bd 0a25 9a3c 36c2 123b
00000310: 374e 253d b894 5ebc 5f2c 80bd 8748 1fbc
00000320: 14b9 153d 02e9 a9bc d8a5 8abc 96e7 8abc
00000330: dce1 41bd 9187 013d e2b9 923d 0f0b 7a3d
00000340: cdc6 45bd 4218 47bd 2781 473d 2bc2 9b3d
00000350: 6bfe 47bd f1d2 b7ba 0e63 52bd 96d3 0abd
00000360: e38b b63d 39c9 17bd 05d2 c23d 4fb7 983d
00000370: 23c7 87bd c85d c83c 5f8f 31bc 7dae 993d
00000380: d266 123c 2d74 e6bb 6161 2bbd f731 f8bc
00000390: dc21 433d 2ffa f8bc 87c2 94ba 894a ebbc
000003a0: 5093 be3c 4df5 5f3d 8054 debb 53ab 3b3d
000003b0: 43ec a23d 46e1 c5bd 78eb 573d 4663 60b9
000003c0: a052 db3a 37ab c93c 19cf 00bd 1c90 293d
000003d0: 0ae8 b0bc 2b6b 9f3d 8a10 c1bd 2837 6c3d
000003e0: ef43 993c acfe a5bd b9da 61bd 82f1 69bd
000003f0: 8000 783d baca 8f3d 1b00 9d39 eea3 b6bc

encoder.encoder_net.3.bias f4 [32]
0.07157302 0.028167568 0.00042967254 0.026790025 0.061007205 -0.008161188 -0.016723957 0.027125651
-0.11282124 -0.040612325 0.052712973 -0.06441346 0.0025867037 0.016160619 0.047778975 -0.02202384
-0.0967174 -0.02416119 -0.032610565 -0.04619808 0.057833306 -0.02115889 0.039697867 -0.040222216
-0.05696876 0.029134609 0.09510331 -0.008218414 -0.03260398 0.07856411 0.044958703 0.013256863
00000000: e094 923d acbf e63c ac45 e139 c176 db3c
00000010: b1e2 793d 81b6 05bc ae00 89bc 9d36 de3c
00000020: d30e e7bd 1c59 26bd 8fe9 573d 34eb 83bd
00000030: b085 293b 4663 843c e3b3 433d 576b b4bc
00000040: c613 c6bd b0ed c5bc a892 05bd 333a 3dbd
00000050: 9ee2 6c3d 6955 adbc 3b9a 223d 0dc0 24bd
00000060: 1358 69bd b4ab ee3c 86c5 c23d 87a6 06bc
00000070: c08b 05bd 38e6 a03d 9e26 383d 5033 593c
