miniproject2/experiment_123/model_decoder_2.pt (torch, 143309 bytes, 37 tensors)

prior.mean f4 [2]
0	0x00000000	0.0
1	0x00000000	0.0

prior.std f4 [2]
0	0x3f800000	1.0
1	0x3f800000	1.0

decoder.decoder_net.0.weight f4 [512, 2]
0	0xbf14802c	-0.58008075
1	0xbcdb9592	-0.02680472
2	0xbdabf5d7	-0.083964996
3	0x3ea2c46e	0.3179049
4	0xbd8a53f6	-0.067542955
5	0xbef2bb2d	-0.4740843
6	0x3f32c42a	0.6983057
7	0x3ebeaabd	0.37239638
8	0xbf093cf0	-0.5360861
9	0x3e57fa34	0.21091539
10	0xbe771686	-0.24129686
11	0x3e24f3e4	0.16108662
12	0xbd3795dd	-0.044820655
13	0xbf050e77	-0.51975197
14	0xbf3f4aef	-0.74723715
15	0xbec79c8a	-0.38986617
16	0x3ef9336f	0.48672053
17	0xbecb04ad	-0.39652005
18	0xbcd145a9	-0.025545912
19	0x3d169778	0.036765546
20	0x3ef557c1	0.47918513
21	0x3ee7ada2	0.4524966
22	0xbe153567	-0.14571153
23	0xbea593eb	-0.32339415
24	0xbe16a3e6	-0.1471096
25	0xbea6adfc	-0.32554615
26	0xbe707523	-0.23482184
27	0x3d8afee9	0.067869015
28	0xbf1b2c25	-0.60614234
29	0x3f22a8b2	0.6353866
30	0x3ec7fb57	0.39058945
31	0x3eb71c1d	0.35763636
32	0xbdbb1a78	-0.09135908
33	0x3e26b05a	0.1627821
34	0x3f07b47e	0.53009784
35	0xbeb03071	-0.34411958
36	0x3f11a8ae	0.5689801
37	0xbd9fb85b	-0.07798835
38	0xbe1f9b2d	-0.15586539
39	0xbe38eba8	-0.18058646
40	0xbede7f8a	-0.4345668
41	0x3ee4fdc3	0.44724855
42	0x3f1d6cee	0.6149434
43	0x3eb7bcbc	0.3588618
44	0x3ec89fc0	0.3918438
45	0xbe134e9e	-0.14385459
46	0xbef086a3	-0.4697772
47	0x3ee9e9a1	0.45686057
48	0xbde38783	-0.11109831
49	0x3e90c067	0.2827179
50	0x3f14bddc	0.581022
51	0xbde249d4	-0.11049238
52	0xbe15223b	-0.14563839
53	0x3ed507ab	0.41607413
54	0x3efa7a5e	0.48921484
55	0x3ee44abd	0.4458827
56	0x3ee556e8	0.44792867
57	0x3e7eb5aa	0.24873987
58	0x3ebcd102	0.3687821
59	0xbe2b7b2d	-0.16746207
60	0xbf92e3aa	-1.1475728
61	0xbf2c893b	-0.673969
62	0x3f301350	0.6877947
63	0x3dc53db3	0.09630909
64	0xbef64592	-0.48099953
65	0x3d677cca	0.056515492
66	0xbe8adf76	-0.27123612
67	0x3ed9054a	0.42386848
68	0x3f10849a	0.56452334
69	0x3d6a081b	0.057136636
70	0xbd982598	-0.074290454
71	0xbe0ea376	-0.13929543
72	0xbf55fc2e	-0.8358792
73	0x3f3c1df4	0.73483205
74	0x3df523a1	0.11969686
75	0x3e188d06	0.14897546
76	0x3e957233	0.2918869
77	0x3f521754	0.82066846
78	0xbe73bfce	-0.23803636
79	0xbe1eec0c	-0.15519732
80	0x3e83a685	0.25712982
81	0xbd16d5d3	-0.036825012
82	0xbe8033f7	-0.25039646
83	0xbef5ec0a	-0.48031646
84	0x3e3649ee	0.1780164
85	0xbf0eb173	-0.55739516
86	0xbebd2663	-0.3694335
87	0x3f2f159f	0.68392366
88	0x3f3223bf	0.69585794
89	0xbe6ff82b	-0.23434512
90	0xbe1bffbe	-0.15234277
91	0x3e78a53d	0.24281783
92	0x3f27b343	0.65507907
93	0xbea7d467	-0.32779238
94	0x3eede087	0.46460363
95	0xbdf6bf95	-0.1204826
96	0xbd19bc24	-0.03753294
97	0xbea26594	-0.31718123
98	0x3f0263e2	0.5093366
99	0x3e991b88	0.29903817
100	0x3d40218b	0.04690699
101	0xbeda52cd	-0.42641297
102	0xbe452336	-0.19251713
103	0x3d38c33b	0.04510806
104	0xbeb24320	-0.34816837
105	0x3f28beeb	0.6591632
106	0x3f04d8d0	0.5189333
107	0x3dc51a55	0.09624163
108	0xbeea9077	-0.45813343
109	0x3e644260	0.22290945
110	0xbe9987bd	-0.29986373
111	0x3e9c8a8d	0.30574456
112	0x3e89a3ef	0.26882884
113	0x3f0f43c0	0.55962753
114	0xbd999fb7	-0.07501166
115	0xbe495a8c	-0.19663447
116	0xbec6b168	-0.38807225
117	0xbeb6e050	-0.35718012
118	0x3f027086	0.5095295
119	0xbc59186a	-0.01325045
120	0xbe9cf91a	-0.306588
121	0xbef41caf	-0.47678134
122	0x3f0f95e1	0.5608807
123	0x3e1416b3	0.14461784
124	0x3e9b3b41	0.30318645
125	0xbee45649	-0.4459708
126	0x3f1f2dba	0.6217915
127	0x3d1f5d4c	0.038907334
128	0x3ecbd7fe	0.39813226
129	0xbf034c9f	-0.5128879
130	0x3dba69da	0.09102221
131	0xbea467e7	-0.3211052
132	0x3f2e1bda	0.6801125
133	0x3ef2fb5d	0.474574
134	0x3f31ddac	0.6947887
135	0x3eb2b69d	0.34904948
136	0x3ec98382	0.39358145
137	0x3f04f981	0.5194321
138	0x3ee2d9fb	0.4430693
139	0x3e2dfb36	0.1699036
140	0xbf6cb678	-0.92465925
141	0xbeededb7	-0.46470425
142	0xbedbbfae	-0.42919677
143	0xbe799819	-0.24374427
144	0xbf12def4	-0.5737145
145	0x3f4b55c9	0.7942777
146	0x3f435a92	0.76310074
147	0xbf162502	-0.5865022
148	0xbed0ee4b	-0.40806803
149	0x3e5da612	0.21645382
150	0xbea9e2fb	-0.33180985
151	0x3e024430	0.12721324
152	0xbebe207f	-0.37134168
153	0xbf05720b	-0.5212714
154	0x3eb12bdd	0.34603778
155	0x3ec4a4c4	0.38406956
156	0x3f4878e9	0.78309494
157	0xbe02b70b	-0.12765138
158	0xbf124521	-0.5713673
159	0x3eb279b7	0.34858486
160	0x3ecbd456	0.39810437
161	0x3d4c39ec	0.049859926
162	0x3eb9c70b	0.3628467
163	0xbea11fab	-0.31469473
164	0xbf4bc210	-0.7959299
165	0xbead83c8	-0.33889604
166	0x3f05819a	0.5215088
167	0xbf401d8d	-0.7504509
168	0x3c9d3907	0.019192232
169	0x3f0939d2	0.5360385
170	0x3f1679d2	0.58779633
171	0xbea3f880	-0.32025528
172	0xbef8acc3	-0.48569307
173	0xbf48cb23	-0.7843496
174	0xbf195503	-0.5989534
175	0x3ea82102	0.32837683
176	0x3e35fd87	0.17772494
177	0xbef1a918	-0.4719932
178	0xbe421cff	-0.18956374
179	0xbf0fe6a3	-0.562113
180	0x3e8e43ee	0.277862
181	0x3f17168e	0.5901879
182	0xbf2850a9	-0.6574808
183	0x3f2f6f95	0.68529636
184	0x3e607933	0.21921234
185	0x3e313b49	0.17307772
186	0x3ed0de00	0.40794373
187	0x3f42843e	0.75983036
188	0x3e9468bc	0.28986156
189	0x3e3f66c6	0.18691549
190	0xbef64a95	-0.48103777
191	0x3f1124fd	0.56697065
192	0x3efd1a96	0.49434346
193	0xbd12cb21	-0.03583825
194	0x3ebf180e	0.3732304
195	0xbecfbab8	-0.40572143
196	0x3f466263	0.77493876
197	0xbebfe482	-0.37479025
198	0xbf17ee5a	-0.5934807
199	0xbe232a03	-0.15933995
200	0xbe336306	-0.17518243
201	0x3e503968	0.20334399
202	0xbd0c8b84	-0.03431274
203	0x3f0d3a5c	0.55167174
204	0x3ea406b0	0.32036352
205	0xbe13d677	-0.1443728
206	0x3d8b3a62	0.06798245
207	0x3f55d6b3	0.8353073
208	0xbed9f361	-0.42568496
209	0xbea9b890	-0.33148623
210	0x3f1dfd9e	0.61715114
211	0x3eca4c67	0.39511415
212	0xbf5b3b52	-0.8563739
213	0xbd81835a	-0.063238814
214	0x3e9e0333	0.30861816
215	0xbf016dc5	-0.5055812
216	0x3f3e86dc	0.7442453
217	0xbf35598a	-0.7083975
218	0x3e5502af	0.20801805
219	0x3db04dba	0.08608575
220	0x3e1f3913	0.15549116
221	0xbec07325	-0.37587848
222	0xbeec1728	-0.46111417
223	0xbf001b2f	-0.5004148
224	0x3ec0cbd0	0.37655497
225	0x3e73ca20	0.23807573
226	0x3f3eeb17	0.7457747
227	0x3d012742	0.03153158
228	0x3e732f2e	0.23748466
229	0xbf013e2c	-0.5048549
230	0xbd14cb42	-0.036326654
231	0xbeaf97cd	-0.34295502
232	0x3ee7cb42	0.4527226
233	0xbc25ef0a	-0.010127792
234	0xbedcabde	-0.43099874
235	0x3f118be6	0.56854093
236	0xbe34f4ca	-0.17671505
237	0x3f1f94f8	0.62336683
238	0xbefd10f4	-0.49426997
239	0xbe998a44	-0.299883
240	0x3f309250	0.68973255
241	0xbf33cb53	-0.70232123
242	0x3edb2290	0.42799807
243	0x3c664478	0.01405441
244	0xbe0bce3f	-0.13652895
245	0xbf144ee7	-0.57932895
246	0xbe2293b9	-0.15876664
247	0xbcf57ab0	-0.029965729
248	0x3e720c59	0.23637523
249	0xbe25defb	-0.16198342
250	0xbeae0672	-0.33989292
251	0xbe61f16f	-0.22064756
252	0xbf045cd4	-0.51704144
253	0x3f1617c7	0.5863003
254	0x3f262fda	0.64916766
255	0xbe1a64e6	-0.15077552

decoder.decoder_net.0.bias f4 [512]
0	0xbea50362	-0.32229143
1	0xbea1eaa7	-0.31624338
2	0x3cd941fe	0.026520725
3	0xbcb048e4	-0.021519132
4	0x3ec58dfe	0.38584894
5	0xbf211ea9	-0.6293741
6	0xbe427d27	-0.18993054
7	0xbd2d97e8	-0.042381197
8	0xbec6bcae	-0.38815826
9	0xbe75e754	-0.24014026
10	0xbf144e43	-0.5793192
11	0x3e0a9df8	0.13536823
12	0xbd40b3bf	-0.04704642
13	0xbe14b3ad	-0.14521666
14	0xbf75a6e0	-0.95957756
15	0xbe9323d5	-0.28738275
16	0x3c1e8325	0.009674822
17	0x3f01381f	0.5047626
18	0xbe4a887f	-0.19778632
19	0x3e4ce1da	0.2000803
20	0xbeb6db9c	-0.35714424
21	0x3c4d0606	0.012513643
22	0x3e63c5ec	0.2224347
23	0x3ec83b66	0.39107817
24	0xbf436ee2	-0.7634107
25	0xbf360b30	-0.7111082
26	0xbe84f462	-0.259677
27	0x3dca65e5	0.09882716
28	0x3e646214	0.22303039
29	0x3f00d7f2	0.50329506
30	0x3d30d10c	0.043168113
31	0xbe847a81	-0.25874713
32	0x3f0fe37e	0.562065
33	0xbcc84a82	-0.02444959
34	0xbe6979c7	-0.2280036
35	0xbe9cfdb5	-0.30662313
36	0xbe77c836	-0.24197468
37	0x3d53b2a2	0.05168403
38	0x3cfc55a0	0.030802548
39	0xbe256f84	-0.16155821
40	0xbdd8da4d	-0.105885126
41	0x3ef421f4	0.47682154
42	0x3e973164	0.2952987
43	0xbe38ada3	-0.18034987
44	0xbd5f8d97	-0.05457839
45	0xbf2a6e2e	-0.6657437
46	0x3c9eb34a	0.019372601
47	0x3a0512dd	0.0005076358
48	0x3e5e9cec	0.21739548
49	0xbf41ff3a	-0.7578007
50	0xbdb0248e	-0.08600722
51	0x3eccc42a	0.3999341
52	0x3f00f13e	0.50368106
53	0xbf1f9abe	-0.6234549
54	0x3edfdeca	0.43724662
55	0x3eff9ec4	0.49925816
56	0x3eccb842	0.39984328
57	0x3eba3f2f	0.3637633
58	0xbed8775b	-0.4227856
59	0x3f00b5d6	0.5027746
60	0x3e3c1b2a	0.18369737
61	0x3efcdd0b	0.49387392
62	0xbca02e9c	-0.019553475
63	0xbf1894a7	-0.59601825
64	0xbf119d7f	-0.56880945
65	0x3de325ed	0.11091218
66	0x3ea7cfb9	0.32775667
67	0xbe5bdddb	-0.2147135
68	0x3ed649f3	0.41853294
69	0x3f098b23	0.5372793
70	0xbd272e02	-0.04081536
71	0x3ea5314f	0.32264182
72	0xbed8774b	-0.42278513
73	0xbef1d5e5	-0.472335
74	0x3d709b9c	0.05874215
75	0x3dc0c1ee	0.09411989
76	0x3e9d162e	0.30680984
77	0x3e1b68a5	0.15176637
78	0xbeab3f28	-0.33446622
79	0xbedda941	-0.43293193
80	0xbf228561	-0.6348477
81	0x3ec8520e	0.39125103
82	0x3e2e6aa8	0.17032874
83	0x3f1b9164	0.60768723
84	0xbda5d316	-0.08096902
85	0x3eb9dd9f	0.36301896
86	0xbe3cee7d	-0.18450351
87	0xbec4a8a0	-0.384099
88	0x3eb05219	0.34437636
89	0xbf09add2	-0.53780854
90	0xbf088c18	-0.53338766
91	0x3e173654	0.14766818
92	0xbf454cb5	-0.7707017
93	0xbf17e53a	-0.59334147
94	0x3d3304d3	0.043705773
95	0xbdd46f1e	-0.103727564
96	0x3e90bdb5	0.28269735
97	0xbf4a7e5d	-0.79099065
98	0x3f7022cf	0.93803114
99	0xbe82f520	-0.2557764
100	0x3f284762	0.6573392
101	0x3f04edea	0.5192553
102	0xbea842e5	-0.32863536
103	0x3e1b05f5	0.15138991
104	0x3e9ca566	0.3059494
105	0xbe86c880	-0.26324844
106	0xbdc1c542	-0.09461452
107	0xba8f1c99	-0.0010918557
108	0x3e084fd4	0.13311702
109	0x3f29c6d1	0.66318995
110	0xbf27fa3f	-0.6561622
111	0x3ed14d22	0.4087916
112	0xbebccbf0	-0.36874342
113	0x3ebeabf5	0.37240568
114	0xbe119819	-0.14218177
115	0xbed59dc4	-0.41721928
116	0x3e86b8f0	0.2631297
117	0xbe8efc99	-0.27927092
118	0xbea1ac7f	-0.31576917
119	0xbef1ca59	-0.47224692
120	0x3f651f45	0.8950084
121	0x3f0f937b	0.5608441
122	0xbd0f5d55	-0.035001118
123	0xbecda89f	-0.4016771
124	0xbed1c34c	-0.40969312
125	0xbeaa2078	-0.33227897
126	0x3f06440c	0.5244758
127	0x3f03df5f	0.5151271
128	0xbf0738d3	-0.5282108
129	0xbea36c3a	-0.31918508
130	0x3c9b6fc6	0.018974196
131	0xbe499b16	-0.19688067
132	0x3f1b2213	0.6059887
133	0xbc1e6e38	-0.009669833
134	0x3e9f7c88	0.31149697
135	0x3ebdc6df	0.3706579
136	0xbee553e6	-0.44790572
137	0x3ef9d44e	0.48794788
138	0x3d2cbbd3	0.04217131
139	0x3f1bc27e	0.60843647
140	0x3f3565b2	0.708583
141	0xbf36e0f7	-0.7143702
142	0x3f292053	0.6606495
143	0xbeecdb4e	-0.46261066
144	0xbe431dfb	-0.19054405
145	0xbf49eb3b	-0.7887456
146	0xbedaa0b1	-0.42700723
147	0xbedd4a76	-0.43220872
148	0x3e527916	0.20554003
149	0x3f24a2b9	0.64310795
150	0x3ec0cd1a	0.3765648
151	0xbd5a78d8	-0.0533379
152	0xbef8e345	-0.48610893
153	0x3e2845a5	0.16432817
154	0xbeb7a407	-0.3586733
155	0x3eaef1c7	0.34168836
156	0xbf1bd29f	-0.6086826
157	0xbe3c6736	-0.18398747
158	0xbf08a8cf	-0.5338258
159	0xbedc9b0d	-0.43087044
160	0x3f5bd57c	0.85872626
161	0x3f2eb90a	0.682511
162	0x3f1597e2	0.5843488
163	0xbec7a129	-0.38990143
164	0x3e26aa3c	0.16275877
165	0xbe8ab66d	-0.27092305
166	0x3d31f96e	0.043450765
167	0x3eb0bbbb	0.34518227
168	0xbeb1bcfd	-0.347145
169	0x3f1a0ac2	0.60172665
170	0x3e53d16f	0.20685361
171	0xbe8282d5	-0.25490442
172	0x3ed0a9ec	0.4075464
173	0xbf2383b1	-0.6387282
174	0xbf3410d2	-0.70338166
175	0x3f0b34ad	0.5437725
176	0xbd20978b	-0.039207023
177	0x3e1cf73b	0.15328686
178	0xbd6fbb01	-0.05852795
179	0x3e1ff99f	0.15622567
180	0xbd01e680	-0.031713963
181	0x3e70daaf	0.23520921
182	0x3f0a1f9a	0.5395447
183	0x3e5cc679	0.21560086
184	0xbe8cd30b	-0.27504763
185	0x3e958437	0.29202434
186	0x3ecc12d8	0.39858127
187	0x3ed7618a	0.42066604
188	0x3d8448e7	0.064592175
189	0xbdd2719f	-0.10275578
190	0x3d2200a6	0.0395514
191	0x3e519337	0.20466314
192	0x3cde06cc	0.02710285
193	0x3f3c21d1	0.734891
194	0x3ef1d0df	0.47229668
195	0x3d834948	0.06410462
196	0x3ecee616	0.40409917
197	0xbf1e6710	-0.6187601
198	0x3ee3c794	0.44488204
199	0x3f0d4fbf	0.5519981
200	0xbf31a641	-0.6939431
201	0x3f147234	0.5798676
202	0x3dbd3a9e	0.09239696
203	0xbed03805	-0.4066774
204	0x3f1f7c9a	0.622995
205	0x3e7333a7	0.23750173
206	0x3c9fcfc7	0.019508256
207	0xbd2aed76	-0.041730367
208	0xbd8f8d3d	-0.07009361
209	0xbe0e9b69	-0.13926472
210	0x3f2c06e9	0.67198044
211	0xbe8813c8	-0.26577592
212	0xbf00897e	-0.50209796
213	0xbf12b844	-0.5731242
214	0x3e9bd9b1	0.30439523
215	0x3e676e98	0.22600782
216	0xbf5ee923	-0.8707449
217	0x3f179a16	0.5921949
218	0x3e8fcb55	0.28084818
219	0xbe3cb25f	-0.18427418
220	0x3eedcb0a	0.4644397
221	0x3e15affb	0.14617912
222	0x3f13f5e0	0.5779705
223	0xbe3df880	-0.18551826
224	0x3e2874b5	0.1645077
225	0x3e931b2e	0.28731674
226	0xbf2e18e0	-0.68006706
227	0x3dca2a13	0.09871306
228	0x3eb5d070	0.35510588
229	0xbdd68170	-0.10473907
230	0x3e5ec781	0.21755792
231	0xbeaa3d6f	-0.33249995
232	0x3f290a6b	0.6603152
233	0xbd14eece	-0.036360554
234	0x3eb3d6e4	0.35124886
235	0xbe19462b	-0.14968173
236	0xbe84df0e	-0.25951427
237	0x3e8e2610	0.27763414
238	0x3f421d9a	0.7582642
239	0x3e73a0e8	0.2379185
240	0xbf102457	-0.5630545
241	0xbef79d5a	-0.48362237
242	0xbf2d5345	-0.67705184
243	0xbedbd257	-0.42933914
244	0xbdabdc06	-0.083915755
245	0x3ebb578c	0.3659023
246	0x3eb81867	0.35956118
247	0x39c561cf	0.0003764764
248	0xbf19c6bf	-0.6006889
249	0x3e893a24	0.2680217
250	0xbef7b290	-0.4837842
251	0x3ef36eb7	0.47545406
252	0x3e5ceabe	0.21573922
253	0xbf0a0fd2	-0.5393039
254	0x3f1e989a	0.619516
255	0xbf0524ee	-0.52009475

decoder.decoder_net.3.weight f4 [32]
0	0x3f87d833	1.0612854
1	0x3f883549	1.0641261
2	0x3f799b66	0.97502744
3	0x3f7294a7	0.94758075
4	0x3f821476	1.0162494
5	0x3f8092da	1.0044816
6	0x3f8411a5	1.0317885
7	0x3f850c56	1.039439
8	0x3f86f142	1.0542376
9	0x3f86fd87	1.054612
10	0x3f738e1c	0.95138717
11	0x3f7dbe06	0.9911808
12	0x3f82a6fd	1.0207211
13	0x3f88d4a6	1.0689895
14	0x3f8a0c90	1.0785084
15	0x3f823927	1.0173692
16	0x3f840abf	1.031578
17	0x3f88d8d3	1.069117
18	0x3f72ec76	0.9489206
19	0x3f820bf4	1.0159898
20	0x3f7e3bab	0.99309796
21	0x3f802719	1.0011932
22	0x3f80498e	1.0022447
23	0x3f875abd	1.0574566
24	0x3f7deca2	0.991892
25	0x3f7769b1	0.9664565
26	0x3f8959cb	1.0730528
27	0x3f7d59ee	0.98965347
28	0x3f87a474	1.0597062
29	0x3f7e3b21	0.99308974
30	0x3f83c31c	1.0293918
31	0x3f840c50	1.0316257

decoder.decoder_net.3.bias f4 [32]
0	0xbc501986	-0.012701398
1	0x3d9061b1	0.07049883
2	0xbe07a4e0	-0.13246489
3	0x3d587477	0.052845445
4	0xbd47e463	-0.04880179
5	0x3d1b2429	0.037876282
6	0xbca9e2de	-0.020738062
7	0x3d901d33	0.07036819
8	0x3d57d8c4	0.05269696
9	0xbcd7e919	-0.026356267
10	0xbbed235d	-0.0072368816
11	0xbd10d43e	-0.03535866
12	0xbcd15f40	-0.025558114
13	0xbc94b75e	-0.018153843
14	0xbc0074aa	-0.007840315
15	0xbd74f57f	-0.059804436
16	0x3cb37103	0.021904474
17	0x3d8d403d	0.06897018
18	0x3d2da43b	0.04239295
19	0x3d4e56bb	0.05037568
20	0x3bb64556	0.0055624647
21	0xbe01e6e4	-0.12685734
22	0xbc676533	-0.014123249
23	0x3c34f886	0.011045581
24	0xbc9f4d42	-0.01944602
25	0xbc7e5d21	-0.015525133
26	0xbca85198	-0.02054672
27	0xbd09e07d	-0.033661354
28	0xbd4e6158	-0.050385803
29	0x3cd192db	0.025582721
30	0x3d9ff7ad	0.07810912
31	0x3d4c9698	0.049948305

decoder.decoder_net.3.running_mean f4 [32]
0	0x3e7ffffc	0.24999994
1	0x3e7ffffc	0.24999994
2	0x3e7ffffc	0.24999994
3	0x3e7ffffc	0.24999994
4	0x3e7ffffc	0.24999994
5	0x3e7ffffc	0.24999994
6	0x3e7ffffc	0.24999994
7	0x3e7ffffc	0.24999994
8	0x3e7ffffc	0.24999994
9	0x3e7ffffc	0.24999994
10	0x3e7ffffc	0.24999994
11	0x3e7ffffc	0.24999994
12	0x3e7ffffc	0.24999994
13	0x3e7ffffc	0.24999994
14	0x3e7ffffc	0.24999994
15	0x3e7ffffc	0.24999994
16	0x3e7ffffc	0.24999994
17	0x3e7ffffc	0.24999994
18	0x3e7ffffc	0.24999994
19	0x3e7ffffc	0.24999994
20	0x3e7ffffc	0.24999994
21	0x3e7ffffc	0.24999994
22	0x3e7ffffc	0.24999994
23	0x3e7ffffc	0.24999994
24	0x3e7ffffc	0.24999994
25	0x3e7ffffc	0.24999994
26	0x3e7ffffc	0.24999994
27	0x3e7ffffc	0.24999994
28	0x3e7ffffc	0.24999994
29	0x3e7ffffc	0.24999994
30	0x3e7ffffc	0.24999994
31	0x3e7ffffc	0.24999994

decoder.decoder_net.3.running_var f4 [32]
0	0x3d5f44d9	0.054509018
1	0x3d7a4963	0.061105143
2	0x3d9cfd2b	0.076654755
3	0x3d492830	0.04911059
4	0x3da56a64	0.08076933
5	0x3dbae2f8	0.09125322
6	0x3daa1a78	0.0830583
7	0x3dac50bc	0.08413836
8	0x3d9a5aba	0.07536836
9	0x3d656774	0.056006864
10	0x3dc2fca5	0.09520844
11	0x3d9ca866	0.07649307
12	0x3d70ee5e	0.058821075
13	0x3d575dee	0.052579813
14	0x3d85caa3	0.065327905
15	0x3d59e402	0.05319596
16	0x3d80c22b	0.062870346
17	0x3d9c69ae	0.07637344
18	0x3d9bf387	0.076148085
19	0x3d5325c3	0.051549684
20	0x3d6acf26	0.05732646
21	0x3d9a3c54	0.07531038
22	0x3d641b2e	0.055689983
23	0x3da8b548	0.08237702
24	0x3d770f58	0.060317367
25	0x3d61e80a	0.05515293
26	0x3d9cd060	0.07656932
27	0x3d65ab55	0.056071598
28	0x3d3b24ce	0.045689397
29	0x3d9d0999	0.07667846
30	0x3db46113	0.08807578
31	0x3d950f42	0.07278301

decoder.decoder_net.4.weight f4 [32, 32, 3, 3]
0	0xbd939ad2	-0.07207264
1	0xbc820ea8	-0.01587613
2	0x3adbf970	0.0016782712
3	0xbdbdab8c	-0.092612356
4	0x3cae7adc	0.021298818
5	0x3b4d9b92	0.0031373245
6	0x3df5b913	0.11998191
7	0xbccde364	-0.025132842
8	0x3d125c41	0.03573251
9	0x3bf41da4	0.0074498225
10	0xbc8b82af	-0.017030088
11	0x3bb0ec3d	0.0053992555
12	0x3d804564	0.06263235
13	0xbccb0e19	-0.024786996
14	0x3cc7efd0	0.024406344
15	0x3d1c17e9	0.03810874
16	0x3daf32bd	0.085545994
17	0x3cfe45e7	0.031039191
18	0xbc149ab2	-0.009070085
19	0xbce4d980	-0.027935743
20	0xbcb82c11	-0.02248195
21	0xbd07777a	-0.033072926
22	0xbcfff9a1	-0.031246962
23	0x3cc91f3a	0.024551023
24	0xbc75d8c6	-0.015005296
25	0xbd121b1a	-0.035670377
26	0x3be18ad5	0.006883005
27	0x3c1cb5bf	0.009564816
28	0xbaf458e0	-0.001864221
29	0x3dc914ad	0.09818397
30	0x3d344ed2	0.04402048
31	0x3d410352	0.047122307
32	0x3dd5caf6	0.10439102
33	0x3d76f18a	0.060288943
34	0x3d49ef16	0.049300276
35	0x3c08b537	0.008343986
36	0xbd177671	-0.03697819
37	0x3d333fde	0.04376208
38	0xbcd2ace4	-0.025717206
39	0x3c6f08fd	0.014589545
40	0x3d60389b	0.054741483
41	0xbca208e7	-0.019779636
42	0xbd503dfa	-0.050840355
43	0xb99812ef	-0.00029005806
44	0x3ce86d42	0.02837241
45	0x3bebbf91	0.0071944674
46	0xbd744e20	-0.05964482
47	0xbd80e43f	-0.062935345
48	0x3da08a27	0.078388505
49	0x3d997d3e	0.07494591
50	0xbcf7701d	-0.030204827
51	0xbce214b3	-0.02759776
52	0x3d10b42b	0.03532807
53	0xbd042c95	-0.03226908
54	0x3c3a07d0	0.011354402
55	0x3b38f641	0.002822295
56	0xbd545fdb	-0.051849227
57	0xbd9f3d80	-0.07775402
58	0x3cda19bd	0.026623601
59	0xbd3b8984	-0.045785442
60	0xbc1cb99c	-0.009565737
61	0xbd379bd5	-0.044826347
62	0x3d90f57c	0.070780724
63	0xbc66925b	-0.01407298
64	0x3d36a35f	0.044589397
65	0x3ce2ca5e	0.027684387
66	0x3c3a9cc8	0.011389919
67	0x3d65f085	0.05613758
68	0x3b97e7ef	0.004635803
69	0xbd26d442	-0.04072977
70	0xbce74775	-0.028232316
71	0xbcf21b8f	-0.029554157
72	0x3cce911f	0.025215684
73	0x3d0edb4f	0.034877118
74	0x3c474dcb	0.012164543
75	0x3d05ea5a	0.0326942
76	0x3d658efe	0.05604457
77	0x3c62acf3	0.01383518
78	0x3ad4b107	0.0016227075
79	0xbd9de871	-0.0771035
80	0x3d27f78b	0.04100756
81	0x3cae531b	0.021279862
82	0xbd2c6b74	-0.042094663
83	0x3ce8c7fe	0.028415676
84	0x3c993ca7	0.01870568
85	0xbc85e8ee	-0.016346421
86	0xbbe76ad9	-0.007062298
87	0xbdac88c8	-0.084245265
88	0xbc311289	-0.010807642
89	0xbcb716a6	-0.022349667
90	0x3dd90269	0.10596163
91	0xbcbce766	-0.023059558
92	0xbbf3fff8	-0.0074462853
93	0x3ad9c00a	0.0016613018
94	0xbdcf91d2	-0.10135235
95	0x3d2c6871	0.04209179
96	0xbd8fee35	-0.07027856
97	0xbd698285	-0.05700924
98	0xbda8208d	-0.082093336
99	0x3d273a56	0.040827118
100	0x3cf3a738	0.029742822
101	0xbc3aeeaa	-0.011409441
102	0x3df77725	0.12083272
103	0x3beeb0e1	0.007284269
104	0x3d96123d	0.073276974
105	0xbd8766a3	-0.06611373
106	0xbcfb6632	-0.030688379
107	0xbdcce822	-0.10005213
108	0x3cf1e5a9	0.029528456
109	0x3bda1ffa	0.006656644
110	0x3d33270b	0.043738406
111	0x3d3ba1de	0.045808665
112	0x3be6d06c	0.007043889
113	0x3db21993	0.08696284
114	0x3dd37c55	0.10326449
115	0xbc6bed56	-0.014399847
116	0x3c692083	0.014228943
117	0xbca1b2e3	-0.01973862
118	0x3cd40d49	0.025885241
119	0xbd4a89bb	-0.049447756
120	0xbc7b92fc	-0.015354868
121	0x3d0c5246	0.03425815
122	0x3d2b08fd	0.04175662
123	0x3d16cd5b	0.036816936
124	0x3ce9ac9b	0.028524688
125	0x39ca8a21	0.00038631356
126	0x3d381188	0.044938594
127	0xbcfcd451	-0.03086296
128	0xbc803f7a	-0.015655268
129	0x3c4d6e38	0.012538485
130	0x3d912153	0.07086434
131	0xbcc6b283	-0.024255043
132	0xbbf5ab1f	-0.007497206
133	0x3d497060	0.049179435
134	0x3d380400	0.04492569
135	0x3d1e5ef7	0.038664784
136	0x3c909205	0.017647753
137	0x3c30504c	0.010761332
138	0xbcf3135d	-0.02967232
139	0x3c48cb0d	0.012255442
140	0xbd65f8dc	-0.056145534
141	0xbcfdb11c	-0.030968241
142	0xbc6f2684	-0.014596585
143	0xbba566c1	-0.0050476496
144	0xbc1dfbaf	-0.009642526
145	0x3d015745	0.031577367
146	0xbb39cc09	-0.0028350374
147	0xbd69cd32	-0.057080455
148	0x3d549f38	0.051909655
149	0x3c3a4518	0.011369012
150	0xbbf203ca	-0.0073857056
151	0x3dcdd06b	0.10049518
152	0x3c1c1dc8	0.009528585
153	0xbd088fae	-0.03334015
154	0x3b6701d4	0.0035248892
155	0x3c12b3f5	0.008954038
156	0xbd021bbd	-0.031764735
157	0x3d518d21	0.05115998
158	0x3d173f9f	0.03692591
159	0x3d5476f5	0.05187126
160	0xbd02db56	-0.031947456
161	0x3d076f61	0.033065204
162	0x3d3df152	0.04637272
163	0x3d17c90b	0.037056964
164	0x3d83a762	0.0642841
165	0xbd1ed97a	-0.03878162
166	0xbd26cd81	-0.040723328
167	0x3d3727c5	0.04471566
168	0xbbb77919	-0.0055991528
169	0xbc11a161	-0.008888573
170	0x3d0a34ed	0.03374188
171	0xbc12c931	-0.008959101
172	0x3dd78156	0.10522716
173	0xbc5ce456	-0.013482174
174	0x3d4f630e	0.050631575
175	0x3d311ce4	0.043240443
176	0x3d1dcab5	0.038523395
177	0x3d05c6f4	0.03266044
178	0xbd0bb788	-0.034110576
179	0x3cba6322	0.022752348
180	0xbd77b2e5	-0.06047334
181	0xbc0aa0ef	-0.008461221
182	0x3d14007a	0.036133267
183	0xbc3e92fb	-0.011631723
184	0xb99f9a2c	-0.0003044171
185	0x3cae6d41	0.02129233
186	0x3d8740a9	0.0660413
187	0xbd081f75	-0.033233125
188	0xbd0ccd0c	-0.034375235
189	0xbd93e270	-0.07220924
190	0xbbd3b433	-0.0064606904
191	0xbd0afa57	-0.03393015
192	0xbca517b3	-0.020152902
193	0x3d0cec86	0.034405254
194	0xbd2850be	-0.041092627
195	0x3da11cb1	0.078668006
196	0xbc6a5f89	-0.014305004
197	0xbcdc6cb2	-0.026907299
198	0x3e115273	0.14191608
199	0xbab16bd1	-0.001353616
200	0xbdb20d92	-0.086939946
201	0xbc318e35	-0.010837127
202	0x3d8abc68	0.06774217
203	0xbdd71aba	-0.105031446
204	0xbc728834	-0.014802981
205	0xbb9c95ee	-0.004778615
206	0xbd3cb714	-0.046073034
207	0x3c81cf80	0.015846014
208	0x3c64d3a8	0.013966478
209	0x3d447503	0.047963154
210	0xbcd3cb2d	-0.025853718
211	0x3ad725da	0.0016414479
212	0xbc81dfb3	-0.015853738
213	0xbd00e44b	-0.031467717
214	0xbcae3b26	-0.021268439
215	0xbdc1fbdc	-0.094718665
216	0xbcce756d	-0.025202477
217	0xbd91b004	-0.071136504
218	0x3c0459f0	0.008078083
219	0xbde0096b	-0.10939296
220	0x3da08bab	0.078391396
221	0xbca675c3	-0.020319825
222	0xbdca3ac0	-0.09874487
223	0x3dadc049	0.08483941
224	0x3c9bfc7d	0.019041294
225	0x3d04ac20	0.032390714
226	0x3ce158e4	0.027508207
227	0xbd073216	-0.03300675
228	0x3ded5211	0.115879185
229	0x3c9ca05f	0.01911944
230	0x3c85d9db	0.016339233
231	0x3d410d4a	0.047131814
232	0xbd3c32ec	-0.045947
233	0x3d72c232	0.05926723
234	0xba922384	-0.00111495
235	0x3d272ba9	0.040813122
236	0x3ca6f5fd	0.020380968
237	0x3cd9e910	0.02660039
238	0xbd88430b	-0.066534124
239	0x3da47afa	0.080312684
240	0xbd84c6fd	-0.064832665
241	0xbc8dd90e	-0.017315414
242	0x3d1b4cec	0.037915155
243	0x3d1d254a	0.03836564
244	0x3d365cc1	0.04452205
245	0xbc2ad494	-0.010426659
246	0xbdcf95d8	-0.10136002
247	0xbb110252	-0.0022126627
248	0x3ba481a7	0.0050203386
249	0x3bb9f40a	0.0056748437
250	0xbd25dafe	-0.04049205
251	0xbd6fd0e8	-0.058548838
252	0x3b5428de	0.0032372992
253	0xbd0c52af	-0.03425854
254	0xbc264e48	-0.0101505
255	0xbd431b44	-0.047633424

decoder.decoder_net.4.bias f4 [32]
0	0x3dd50eb9	0.10403199
1	0xbcb7c238	-0.022431478
2	0xbc366ef6	-0.011134854
3	0xbcb9b92b	-0.022671303
4	0x3d88bc4c	0.0667654
5	0x3d3704f2	0.04468245
6	0x3d0609d0	0.0327242
7	0x3d458571	0.048222963
8	0xbc5fc3e7	-0.013657547
9	0x3d77037e	0.060306065
10	0xbd77a231	-0.060457412
11	0x3d9c3128	0.07626563
12	0xbce619e0	-0.02808851
13	0xbd2df33a	-0.042468287
14	0x3d93e2f2	0.07221021
15	0xbd7fdfe0	-0.062469363
16	0xbc9d4683	-0.019198662
17	0xbcfee8c3	-0.031116849
18	0xbd09be63	-0.033628833
19	0x3c02febf	0.0079953065
20	0xbc810e64	-0.015753932
21	0xbdbc330c	-0.09189424
22	0x3d41ef7f	0.047347542
23	0x3c1c9504	0.0095570125
24	0x3c0fa768	0.00876794
25	0x3c66cde8	0.014087178
26	0x3deddbb2	0.11614169
27	0x3cf92322	0.03041226
28	0x3da9b679	0.08286757
29	0xbde394ff	-0.11112403
30	0x3d603bad	0.05474441
31	0xbd2a1646	-0.041525148

decoder.decoder_net.6.weight f4 [32]
0	0x3f6da6b9	0.92832524
1	0x3f71c781	0.94445044
2	0x3f6da3f5	0.92828304
3	0x3f48dba5	0.7846015
4	0x3f6e0963	0.92983073
5	0x3f6fe670	0.93710995
6	0x3f66221c	0.89895797
7	0x3f7bc007	0.98339885
8	0x3f7af87f	0.98035425
9	0x3f6afe4b	0.9179427
10	0x3f76c2a3	0.9639074
11	0x3f83b558	1.0289717
12	0x3f7c802a	0.9863306
13	0x3f7391f0	0.9514456
14	0x3f6c117a	0.9221417
15	0x3f872120	1.0556984
16	0x3f8069d3	1.0032295
17	0x3f6c4748	0.92296267
18	0x3f69fec0	0.9140434
19	0x3f66ecf5	0.9020532
20	0x3f74953e	0.95540226
21	0x3f61543b	0.8801915
22	0x3f651247	0.89481014
23	0x3f81bfa6	1.0136611
24	0x3f656b65	0.89616996
25	0x3f6fc031	0.93652636
26	0x3f67bece	0.9052552
27	0x3f661758	0.8987937
28	0x3f6d913e	0.92799747
29	0x3f5c794f	0.861226
30	0x3f61b3d2	0.8816501
31	0x3f6f77bf	0.93542093

decoder.decoder_net.6.bias f4 [32]
0	0x3d1fd3ba	0.039020278
1	0xbdc8eb55	-0.09810511
2	0x3bd578b8	0.006514635
3	0x3d6b930d	0.057513285
4	0x3d1f220c	0.03885083
5	0x3c5df2d5	0.013546665
6	0xbc053404	-0.008130077
7	0x3ddb22a6	0.10699968
8	0xbdbfdc34	-0.09368172
9	0x3e10179f	0.1407151
10	0x3d01268e	0.03153091
11	0xbbeb7195	-0.007185171
12	0x3d740e9e	0.059584253
13	0x3bbe83a8	0.0058140345
14	0xbd475712	-0.04866702
15	0x3d8293eb	0.06375869
16	0x3da6ce28	0.0814479
17	0x3d8fc827	0.07020598
18	0x3d13c4c6	0.03607633
19	0x3de7c4f0	0.1131686
20	0x3d9ed90c	0.07756242
21	0xbbf997e6	-0.0076169847
22	0xbdb7dec6	-0.089780375
23	0x3b710e54	0.0036782222
24	0xbd45eaa8	-0.04831949
25	0x3c01fd31	0.007933901
26	0x3ccb64b3	0.02482829
27	0x3dd3db4b	0.10344561
28	0x3e0faa37	0.14029776
29	0xbc754f3c	-0.014972504
30	0xbd19ed4e	-0.037579827
31	0xbab6dca7	-0.0013951258

decoder.decoder_net.6.running_mean f4 [32]
0	0x3e12491d	0.14285703
1	0x3e12491d	0.14285703
2	0x3e12491d	0.14285703
3	0x3e12491d	0.14285703
4	0x3e12491d	0.14285703
5	0x3e12491d	0.14285703
6	0x3e12491d	0.14285703
7	0x3e12491d	0.14285703
8	0x3e12491d	0.14285703
9	0x3e12491d	0.14285703
10	0x3e12491d	0.14285703
11	0x3e12491d	0.14285703
12	0x3e12491d	0.14285703
13	0x3e12491d	0.14285703
14	0x3e12491d	0.14285703
15	0x3e12491d	0.14285703
16	0x3e12491d	0.14285703
17	0x3e12491d	0.14285703
18	0x3e12491d	0.14285703
19	0x3e12491d	0.14285703
20	0x3e12491d	0.14285703
21	0x3e12491d	0.14285703
22	0x3e12491d	0.14285703
23	0x3e12491d	0.14285703
24	0x3e12491d	0.14285703
25	0x3e12491d	0.14285703
26	0x3e12491d	0.14285703
27	0x3e12491d	0.14285703
28	0x3e12491d	0.14285703
29	0x3e12491d	0.14285703
30	0x3e12491d	0.14285703
31	0x3e12491d	0.14285703

decoder.decoder_net.6.running_var f4 [32]
0	0x3b3f4b2d	0.0029189095
1	0x3be28af2	0.006913536
2	0x3b8b96b8	0.0042599104
3	0x3b47d000	0.0030488968
4	0x3b4b19bf	0.0030990688
5	0x3b4f1bc4	0.0031602243
6	0x3b623651	0.0034517238
7	0x3b193a60	0.0023380741
8	0x3b93a2bd	0.004505484
9	0x3b25dfda	0.0025310428
10	0x3c0a7644	0.008451048
11	0x3b075c56	0.0020654402
12	0x3b656122	0.0035000523
13	0x3bb8266a	0.0056198137
14	0x3b77ecfd	0.0037830465
15	0x3bd639fd	0.0065376745
16	0x3bfe47e7	0.0077600363
17	0x3bb0c137	0.0053941268
18	0x3ba647cc	0.005074477
19	0x3bada8c6	0.0052996604
20	0x3b6e1f7d	0.0036334686
21	0x3b236e8a	0.0024937713
22	0x3b6c09d8	0.003601661
23	0x3b2b680a	0.0026154541
24	0x3b7f055a	0.0038913102
25	0x3bb84dc1	0.0056245034
26	0x3b9af283	0.0047286167
27	0x3b82a666	0.0039871214
28	0x3b8a8453	0.0042272
29	0x3bba22e4	0.005680429
30	0x3bb92af3	0.005650872
31	0x3baa93d1	0.0052056094

decoder.decoder_net.7.weight f4 [32, 16, 3, 3]
0	0xbd057e7d	-0.03259133
1	0xbd18ec22	-0.03733457
2	0x3d8c5231	0.06851614
3	0x3cf83249	0.030297415
4	0xbdb3b06b	-0.087738834
5	0xbe02b60b	-0.12764756
6	0x3d97df8d	0.07415686
7	0xbd9e40bf	-0.07727193
8	0x3bf6c7a7	0.0075311246
9	0x3c96e47c	0.018419497
10	0xbd1fa98b	-0.03898005
11	0xbcc3e24b	-0.023911616
12	0xbd1edc20	-0.038784146
13	0xbd857b0c	-0.0651761
14	0x3d024b4a	0.031810082
15	0x3d1d6246	0.0384238
16	0xbcea7942	-0.028622273
17	0xbbb09af1	-0.005389564
18	0x3d683cb4	0.056698516
19	0xbdb2d276	-0.087315485
20	0xbb7de8ce	-0.0038743499
21	0xbca1c294	-0.019746102
22	0xbd111dbe	-0.035428755
23	0x3d8f8af8	0.07008928
24	0x3c8b65ab	0.017016253
25	0xbd6f7f0a	-0.058470763
26	0xbcc46d2a	-0.023977835
27	0xbd20c281	-0.039247993
28	0x3d5a4e10	0.053297102
29	0x3b56aed9	0.0032758026
30	0xbd840cfe	-0.064477906
31	0xbca9ba64	-0.02071876
32	0x3b80d8d5	0.0039320984
33	0xbd144f6d	-0.03620856
34	0xbdad53a2	-0.08463217
35	0xbd911a5f	-0.07085108
36	0x3cef2d5f	0.02919644
37	0xbbe692f3	-0.0070365607
38	0xbc2dad04	-0.010600332
39	0x3d8e92f1	0.069616206
40	0xbd56e4c4	-0.05246426
41	0x3cb85450	0.02250114
42	0xbc3045ca	-0.0107588265
43	0xbd8803f9	-0.06641383
44	0x3c2efeea	0.010680893
45	0x3d6ef4b6	0.058338843
46	0x3cc2755a	0.023737598
47	0xbd2b8671	-0.04187626
48	0x3d7a6541	0.06113172
49	0x3d492b20	0.049113393
50	0x3cf589ba	0.0299729
51	0x3c8a731c	0.016900592
52	0x3d885928	0.0665763
53	0xbd1bbee5	-0.038023848
54	0x3b838238	0.004013326
55	0xbd92e95c	-0.07173416
56	0x3a4cfcac	0.00078196335
57	0xbd334ff0	-0.043777406
58	0xbd4a33e4	-0.049365893
59	0x3d4ae59e	0.049535386
60	0xbd7558d2	-0.05989916
61	0xbd2ad45e	-0.041706435
62	0x3c2f6297	0.010704658
63	0x3d4ef44b	0.050525945
64	0xbdac77f9	-0.084213205
65	0xbdc4fdcb	-0.0961872
66	0x3d378c44	0.044811502
67	0x3d81cdff	0.06338119
68	0xbd0fe9aa	-0.03513495
69	0x3c1a96f5	0.009435405
70	0xbc92a585	-0.017901191
71	0xbc381e02	-0.011237623
72	0x3d04d26b	0.032427233
73	0xbc96262c	-0.018328749
74	0x3cc8dc57	0.024519129
75	0xbc8d872c	-0.017276369
76	0x3cf895a3	0.03034479
77	0xbd979cc2	-0.07402946
78	0xbd85566f	-0.065106265
79	0x3cccc821	0.024997773
80	0xba98882a	-0.001163726
81	0xbce38d47	-0.027777327
82	0xbd3d2d2d	-0.04618566
83	0xbd22b746	-0.039725564
84	0x3dba5284	0.0909777
85	0xbd86ef34	-0.06588593
86	0x3ca4c112	0.020111594
87	0x3d3d64fe	0.04623889
88	0xbc914106	-0.0177312
89	0x3ca214b7	0.019785268
90	0x3c27430b	0.010208855
91	0xbd4a6168	-0.0494093
92	0x3c37d6f6	0.011220684
93	0x3cff8c33	0.031194782
94	0x3cf66837	0.03007899
95	0xbb13cd1d	-0.0022552677
96	0x3c0162e2	0.007897111
97	0x3d186a36	0.037210666
98	0xbce4d896	-0.027935307
99	0x3d8da338	0.06915897
100	0x3c717c68	0.014739133
101	0x3db504ed	0.0883883
102	0x3d35375c	0.044242248
103	0x3dbd915e	0.09256242
104	0x3d4014b5	0.046894748
105	0x3cd5120f	0.026009588
106	0x3ce0ba80	0.02743268
107	0xbd1fb947	-0.038995054
108	0x3db993e3	0.0906141
109	0xbc83ef8b	-0.016105434
110	0x3da903fa	0.082527116
111	0xbc0d0c2d	-0.00860886
112	0xbe1f27a9	-0.15542473
113	0x3d178cf4	0.036999658
114	0xbd138bf6	-0.03602215
115	0xbd5880a8	-0.05285707
116	0x3d0d4147	0.03448608
117	0xbd9290e9	-0.07156546
118	0xbd80483e	-0.06263779
119	0xbc5f8512	-0.013642566
120	0x3d9ce113	0.07660117
121	0x3d1a380a	0.0376511
122	0x3d192007	0.03738406
123	0x3d2c2f53	0.04203732
124	0xbd679c4b	-0.056545537
125	0xbddbdde0	-0.10735679
126	0x3d130eac	0.035902664
127	0xbc8418ac	-0.016125046
128	0xbd02707c	-0.031845555
129	0x3cf9da7f	0.030499695
130	0xbdb95035	-0.090485014
131	0xbd9bd1c5	-0.0760837
132	0xbdbf2b53	-0.09334435
133	0x3cc7ef8c	0.024406217
134	0xbcc1eed7	-0.023673458
135	0x3c2b50cd	0.010456276
136	0x3cd27459	0.025690245
137	0x3d45b523	0.04826845
138	0x3bb25ace	0.0054429537
139	0x3be25d65	0.006908106
140	0x3dadd667	0.084881596
141	0x3caf8d4c	0.02142968
142	0xbdeb1791	-0.11479104
143	0xbd53b235	-0.051683623
144	0x3d9ad78f	0.07560646
145	0x3dd8d9c7	0.10588413
146	0x3d6e3f60	0.058165908
147	0xbc7f56e5	-0.015584682
148	0x3bbbcdaf	0.0057313065
149	0x3de40039	0.11132855
150	0x3c0fa627	0.008767641
151	0x3ca214a1	0.019785227
152	0x3d488b24	0.04896082
153	0xbcad414c	-0.0211493
154	0x3da7b69b	0.08189126
155	0x3cbf58d1	0.02335778
156	0xbd60d013	-0.054885935
157	0x3db82cfe	0.089929566
158	0x3dae77c8	0.0851894
159	0x3dc206f6	0.09473984
160	0x3d97a78b	0.07405003
161	0x3c760e24	0.01501802
162	0x3d0389fb	0.03211401
163	0xbaa24435	-0.0012379946
164	0xbd5559d4	-0.05208762
165	0xbc8abac0	-0.016934752
166	0x3cae3b6c	0.021268569
167	0xbce51a34	-0.027966596
168	0xbd4517e6	-0.048118494
169	0x3c70eb5e	0.014704553
170	0x3cb53387	0.022119297
171	0xbcb30ddf	-0.0218572
172	0x3d70f36d	0.0588259
173	0x3d848f24	0.064726144
174	0x3cfc45da	0.030795027
175	0x3ce1dfd1	0.027572544
176	0xbd005907	-0.031334903
177	0xbd375724	-0.04476084
178	0xbd41b291	-0.047289435
179	0xbd8727bf	-0.06599378
180	0xbd223888	-0.039604694
181	0x3d9aef17	0.07565134
182	0x3d6183c1	0.05505729
183	0x3d8f9d0d	0.07012377
184	0xbd90be8c	-0.07067594
185	0xba44379f	-0.0007485095
186	0xbd4b9796	-0.04970511
187	0xbd51a662	-0.051184066
188	0xbd7ed4c8	-0.062214643
189	0x3cf1a470	0.029497355
190	0xbce2a098	-0.027664468
191	0xbb4ac5cc	-0.003094065
192	0xbd7b4196	-0.061341844
193	0x3dce4e42	0.1007352
194	0x3c0a2c5c	0.008433428
195	0xbd0524bd	-0.03250574
196	0x3d5fdb2f	0.05465239
197	0x3d40f148	0.047105104
198	0xbc41cb6a	-0.011828283
199	0x3d63c291	0.055605475
200	0x3d85f89a	0.065415576
201	0xbdabc913	-0.08387961
202	0xbd078ac3	-0.033091318
203	0xbd6f6210	-0.05844313
204	0x3d8397ea	0.0642546
205	0xbc933a14	-0.01797203
206	0xbd6ab664	-0.057302848
207	0x3a92e47f	0.0011207013
208	0x3d04fd93	0.03246839
209	0x3d298a4c	0.041391656
210	0x3bc193f8	0.005907532
211	0x3cd5dd06	0.026106369
212	0x3d9621f7	0.07330697
213	0xbd8c9f6a	-0.06866343
214	0xbd946b93	-0.07247081
215	0xbd84e09e	-0.06488155
216	0xbc69630e	-0.014244808
217	0xb960e676	-0.00021448158
218	0xbcf9fdab	-0.030516466
219	0xbd37e5e5	-0.04489698
220	0x3d6a6366	0.0572237
221	0x3bfaf3be	0.007658451
222	0xbdb20b64	-0.08693579
223	0x3bfa3fd1	0.007637002
224	0xbd809026	-0.06277494
225	0x3bab184b	0.005221402
226	0x3cea84b1	0.028627725
227	0xbcf10348	-0.02942051
228	0xbd7e8f15	-0.062148172
229	0xbca81171	-0.02051613
230	0xbd2cca98	-0.042185396
231	0x3d57244b	0.052524846
232	0x3b1a25a2	0.0023520966
233	0xbd975a19	-0.07390232
234	0x3c951bc3	0.018201714
235	0x3d9028a7	0.07039004
236	0x3d4fa9f7	0.0506992
237	0xbcef8bf5	-0.029241541
238	0xbd4649a8	-0.048410088
239	0x3d5febfe	0.05466842
240	0x3b3bf170	0.0028677844
241	0xbca1616f	-0.01969978
242	0xbcea58c5	-0.028606782
243	0x3d1136b6	0.035452567
244	0x3cbb78fa	0.022884835
245	0xbdc40ca0	-0.095727205
246	0xbddac3a7	-0.10681849
247	0x3cf7d744	0.030254014
248	0x3d01514b	0.031571668
249	0xbcedddb2	-0.029036377
250	0x3d556866	0.052101515
251	0x3ce2254b	0.027605673
252	0x3c86dd83	0.016463047
253	0x3d579d9a	0.052640535
254	0x3a4a43f3	0.00077158137
255	0x3d292c00	0.041301727

decoder.decoder_net.7.bias f4 [16]
0	0x3d965c94	0.073418766
1	0x3d8cdceb	0.06878074
2	0xbdcc61fe	-0.09979628
3	0x3d50d10d	0.050980616
4	0x3c36005e	0.011108486
5	0xbd1f5dbe	-0.03890776
6	0xbd94e145	-0.07269529
7	0xbd319b40	-0.04336095
8	0xbda0e6d3	-0.07856526
9	0xbb365280	-0.002782017
10	0x3e02178c	0.12704295
11	0x3d860fed	0.06546006
12	0xbd9d66a4	-0.07685593
13	0x3dae4d22	0.08510806
14	0xbdc23096	-0.09481923
15	0x3d691dfc	0.05691336

decoder.decoder_net.9.weight f4 [16]
0	0x3f791564	0.97298265
1	0x3f6b53b7	0.91924614
2	0x3f6ae716	0.9175886
3	0x3f6eb0cd	0.93238527
4	0x3f6f30c6	0.934338
5	0x3f6ed4e0	0.9329357
6	0x3f6c71b9	0.92361027
7	0x3f6df9a0	0.9295902
8	0x3f66290e	0.89906394
9	0x3f6ea36f	0.9321813
10	0x3f6ee3ce	0.9331635
11	0x3f679f38	0.90477324
12	0x3f6edbf8	0.93304396
13	0x3f6ddf99	0.9291931
14	0x3f6afaeb	0.9178912
15	0x3f6540f4	0.89552236

decoder.decoder_net.9.bias f4 [16]
0	0x3d96dbde	0.07366155
1	0x3d0901e3	0.033449065
2	0x3d9ac384	0.07556823
3	0xbc6e3e7c	-0.014541265
4	0xbd773963	-0.060357463
5	0x3df4861b	0.11939641
6	0xbe48c538	-0.19606483
7	0x3d8e6a65	0.06953887
8	0xbdded70d	-0.108808614
9	0xbe03d9f3	-0.1287611
10	0x3d54289a	0.051796533
11	0x3e1b901c	0.15191692
12	0xbc110ebb	-0.00885361
13	0x3d95052a	0.072763756
14	0xbdcebbe6	-0.100944325
15	0xbe2f811c	-0.17139095

decoder.decoder_net.9.running_mean f4 [16]
0	0x3d92491d	0.071428515
1	0x3d92491d	0.071428515
2	0x3d92491d	0.071428515
3	0x3d92491d	0.071428515
4	0x3d92491d	0.071428515
5	0x3d92491d	0.071428515
6	0x3d92491d	0.071428515
7	0x3d92491d	0.071428515
8	0x3d92491d	0.071428515
9	0x3d92491d	0.071428515
10	0x3d92491d	0.071428515
11	0x3d92491d	0.071428515
12	0x3d92491d	0.071428515
13	0x3d92491d	0.071428515
14	0x3d92491d	0.071428515
15	0x3d92491d	0.071428515

decoder.decoder_net.9.running_var f4 [16]
0	0x3b8cdb88	0.004298631
1	0x3b368cf0	0.0027855001
2	0x3b6ca51d	0.0036109157
3	0x3b95a798	0.004567098
4	0x3b35b7f6	0.0027728057
5	0x3b0ea250	0.0021764226
6	0x3b0e1ee6	0.0021685897
7	0x3b0128d3	0.001970817
8	0x3ac06a44	0.0014680107
9	0x3b2784a5	0.002556124
10	0x3b28794c	0.0025707064
11	0x3ac1891e	0.0014765596
12	0x3b1a3cd7	0.0023534799
13	0x3b220f2d	0.0024728284
14	0x3b3d7bf2	0.0028912988
15	0x3b391918	0.0028243717

decoder.decoder_net.10.weight f4 [16, 1, 3, 3]
0	0x3ddbb60b	0.10728081
1	0xbecee728	-0.40410733
2	0xbe822cef	-0.25424907
3	0x3d908be8	0.07057935
4	0x3dd63400	0.10459137
5	0x3992d974	0.00028009305
6	0x3d3a4bff	0.04548263
7	0xbe534733	-0.20632629
8	0xbcfc6828	-0.030811384
9	0xbe1af29b	-0.15131609
10	0x3e4bfb83	0.19920163
11	0xbdcd5dc7	-0.10027652
12	0x3e19765b	0.14986555
13	0xbd60a264	-0.054842368
14	0x3e17cb54	0.14823657
15	0x3e17bf0d	0.14818974
16	0x3def7a6f	0.11693274
17	0x3d6fd056	0.058548294
18	0xbd95649e	-0.07294582
19	0x3e6f0da1	0.23345043
20	0x3dc222f0	0.0947932
21	0x3e273609	0.16329207
22	0x3e4d26ef	0.20034383
23	0xbd8a7f72	-0.067625895
24	0x3e4b9b95	0.19883569
25	0x3e876a44	0.26448262
26	0x3e840aa3	0.25789365
27	0x3da90146	0.08252196
28	0xbe710973	-0.23538761
29	0xbe0713e6	-0.13191184
30	0x3d8a9158	0.06766003
31	0xbe0cf53a	-0.13765422
32	0x3e1c3486	0.15254411
33	0xbdd104c0	-0.10205984
34	0xbe4075df	-0.18794964
35	0xbe802094	-0.25024855
36	0x3e55dc46	0.20884809
37	0x3e2e2714	0.17007095
38	0xbe2039f2	-0.15647104
39	0x3e54958e	0.20760176
40	0xbe6a8dc6	-0.22905645
41	0xbdd05502	-0.10172464
42	0x3df56acf	0.11983263
43	0xbe8049c8	-0.2505629
44	0x3deb891d	0.11500762
45	0x3dae2ea7	0.08504992
46	0x3d99c944	0.075090915
47	0x3d7ad772	0.06124062
48	0x3e3353b3	0.17512397
49	0x3e5325bc	0.20619863
50	0xbbe3645b	-0.0069394535
51	0x3e1e7272	0.15473345
52	0x3d1eb7ff	0.03874969
53	0x3ca1e9d8	0.019764826
54	0x3e48d3e6	0.19612083
55	0x3dfbd53b	0.1229653
56	0x3dde7779	0.10862631
57	0xbe79977c	-0.24374193
58	0xbe2f79fd	-0.17136379
59	0xbe49be5c	-0.19701523
60	0x3dca0022	0.098633066
61	0xbe43da93	-0.19126348
62	0x3de81f5b	0.113341056
63	0xbdacc700	-0.08436394
64	0xbdb1b029	-0.08676178
65	0x3ddd7363	0.10813024
66	0xbdea2d89	-0.114344664
67	0x3dd2a77c	0.10285851
68	0x3df6224e	0.12018262
69	0x3d9bc605	0.076061286
70	0x3e862947	0.26203367
71	0x3e13ba41	0.14426519
72	0xbd296681	-0.04135752
73	0x3d44fdb0	0.048093498
74	0xbe360f31	-0.17779233
75	0x3cbd680e	0.023120906
76	0xbe152ced	-0.14567919
77	0xbe04c29e	-0.12964866
78	0xbe1661bc	-0.1468572
79	0xbdf1b2ec	-0.11801705
80	0xbce792f8	-0.028268322
81	0xbe3a23b3	-0.1817768
82	0xbe26b4cb	-0.16279905
83	0xbe24d20f	-0.16095756
84	0xbc10f671	-0.008847819
85	0xbdbd429d	-0.09241221
86	0xbe12e1b5	-0.14343913
87	0xbddfec2f	-0.1093372
88	0x3e33fdd0	0.1757729
89	0x3e6043a8	0.21900809
90	0x3e7b0288	0.24512684
91	0x3e0f5744	0.13998133
92	0x3e0231fd	0.12714382
93	0x3e80f426	0.2518627
94	0x3e0c75e8	0.13716853
95	0x3cdae7e3	0.0267219
96	0xbd9aa028	-0.07550079
97	0x3e495b7a	0.19663802
98	0xbdaaaacc	-0.08333358
99	0x3df2cc86	0.11855416
100	0x3df7ec83	0.12105658
101	0x3e1bae43	0.15203194
102	0x3cec7306	0.028863441
103	0x3dd2c4c6	0.10291438
104	0x3e0f7824	0.14010674
105	0xbe3d94de	-0.1851382
106	0xbe06f599	-0.13179626
107	0xbc8fcd7a	-0.017554034
108	0xbe450a34	-0.19242173
109	0xbe0bd932	-0.13657072
110	0xbd560688	-0.052252322
111	0xbe4466f2	-0.19179896
112	0x3e676859	0.22598399
113	0xbd4a8320	-0.049441457
114	0xbe634894	-0.22195655
115	0x3db4efaf	0.088347785
116	0xbda0290b	-0.07820328
117	0x3d78ea7f	0.060770508
118	0x3ddd22ef	0.10797679
119	0x3df2638d	0.11835394
120	0xbcd96b3d	-0.026540393
121	0x3e3a31d2	0.18183067
122	0x3caa9d22	0.02082688
123	0xbd8507b7	-0.06495612
124	0x3e356ba2	0.1771684
125	0x3db46310	0.08807957
126	0xbe55cc79	-0.20878781
127	0xbe6e497f	-0.23270224
128	0xbe446ae6	-0.19181404
129	0xbe522752	-0.20522812
130	0xbdbe2f49	-0.09286363
131	0x3e059f5c	0.13049072
132	0x3e2f4fc0	0.17120266
133	0x3e04d4a5	0.12971742
134	0xbe30c53b	-0.17262737
135	0x3df064e3	0.117379926
136	0xbceafcaa	-0.028684933
137	0xbd63d870	-0.055626333
138	0xbe299622	-0.16561177
139	0xbe9b1a23	-0.30293378
140	0xbd2993b2	-0.04140062
141	0x3a08ce5f	0.000521874
142	0xbda5a311	-0.08087743
143	0xbda1900d	-0.07888804

encoder.encoder_net.0.weight f4 [16, 1, 3, 3]
0	0xbe90b364	-0.28261864
1	0xbd393f1a	-0.045226194
2	0x3e040708	0.12893307
3	0xbe997ccf	-0.29978034
4	0x3e900bc5	0.2813398
5	0xbeaacf6d	-0.33361378
6	0xbe738576	-0.2378138
7	0x3e3822a6	0.17981967
8	0xbe0cacdb	-0.13737814
9	0x3d0b61c2	0.034028776
10	0x3e3a836b	0.18214194
11	0x3d83cc43	0.06435444
12	0x3de5224f	0.111881845
13	0xbdb7b932	-0.0897087
14	0x3e2428ac	0.1603114
15	0x3d4f44a8	0.050602585
16	0xbe2986f7	-0.16555391
17	0x3caccae0	0.021092832
18	0xbeca1fd1	-0.394774
19	0xbe93d73d	-0.2887515
20	0x3dc75bf1	0.09734333
21	0x3d622697	0.055212583
22	0xbdd9adc6	-0.10628848
23	0xbeb1a450	-0.34695673
24	0xbe1c3266	-0.152536
25	0x3e82fb4c	0.2558235
26	0xbe885427	-0.26626703
27	0xbe01f5d9	-0.1269144
28	0x3e387242	0.18012336
29	0x3d713da5	0.05889668
30	0x3c2db4b1	0.010602162
31	0x3ea876d7	0.32903168
32	0x3e43d658	0.19124734
33	0xbdb92f02	-0.09042169
34	0x3e9ddd7a	0.30833036
35	0xbdb8f498	-0.090310276
36	0x3e6a1db5	0.22862895
37	0x3c3d6524	0.011559758
38	0xbe93ca34	-0.28865206
39	0x3d2872b9	0.041125033
40	0x3e112dde	0.14177653
41	0xbe6d282f	-0.2315986
42	0x3e961f51	0.29320768
43	0x3e4c44a4	0.1994806
44	0xbd9fbf3f	-0.07800149
45	0xbe9e2b3a	-0.30892354
46	0xbeaf8cce	-0.34287113
47	0xbe854bb8	-0.2603433
48	0x3e3b574d	0.18295021
49	0xbe3a3543	-0.1818438
50	0x3d627618	0.055288404
51	0xbd3312ab	-0.043718975
52	0xbd906d1e	-0.070520625
53	0xbd931c5a	-0.07183142
54	0x3e7e079b	0.24807589
55	0xbdcb5d23	-0.09929874
56	0xbe157199	-0.14594115
57	0xbdab9a1a	-0.08379002
58	0xbe324ce7	-0.17412148
59	0x3d97b6fc	0.074079484
60	0xbdb3c392	-0.087775365
61	0xbd8cc22d	-0.068729736
62	0xbe2f1947	-0.17099486
63	0xbcd71df9	-0.02625941
64	0x3e68b931	0.22726895
65	0xbe486233	-0.1956871
66	0x3e2a8f9a	0.16656342
67	0x3e5c8b6d	0.21537562
68	0xbe60e7a2	-0.21963361
69	0xbe647278	-0.22309291
70	0x3e9f9660	0.31169415
71	0x3d3e7853	0.04650147
72	0xbe1a375f	-0.15060185
73	0xbd816d08	-0.06319624
74	0x3e387b77	0.18015848
75	0xbe990b23	-0.2989131
76	0xbe984a79	-0.29744318
77	0xbe355f4f	-0.17712139
78	0x3e12276b	0.1427285
79	0x3d72afa6	0.059249543
80	0x3e8b8de1	0.27256683
81	0xbe9e65f3	-0.30937156
82	0xbaffb498	-0.0019508777
83	0x3eb93d69	0.36179665
84	0x3e694573	0.22780399
85	0x3de718a6	0.11283998
86	0x3e9a5447	0.30142424
87	0x3cac5b89	0.021039741
88	0xbe698135	-0.22803195
89	0x3e8ce644	0.2751943
90	0x3cc2b0be	0.023765918
91	0xbe9eda4b	-0.3102592
92	0x3d049d9b	0.032376867
93	0x3d548df9	0.05189321
94	0x3e2e784c	0.17038077
95	0xbd8994e4	-0.06717852
96	0x3cdb5fc2	0.02677906
97	0xbd7f1ecf	-0.06228524
98	0x3e8792d4	0.26479208
99	0xbeae1320	-0.33998966
100	0xbe23c8a9	-0.15994515
101	0xbebbe43e	-0.36697572
102	0xbdaffb7f	-0.08592891
103	0x3e1cb5ce	0.15303728
104	0x3e943be1	0.28951934
105	0x3e0b13c0	0.13581753
106	0x3eab0222	0.33400065
107	0xbd8b8e8e	-0.068142995
108	0x3e0d8a55	0.138223
109	0x3e90a074	0.28247416
110	0xbdd40971	-0.10353363
111	0xbe4dce45	-0.20098217
112	0x3eadd6b2	0.33952862
113	0x3e6ca08a	0.23108116
114	0xbdde135a	-0.10843535
115	0xbe4dd355	-0.20100148
116	0x3e0fec4e	0.14054987
117	0xbe5a2051	-0.2130139
118	0xbe80a9d2	-0.25129563
119	0xbe2408e2	-0.16019014
120	0xbe9fdd88	-0.31223702
121	0xbe49cb95	-0.19706567
122	0x3de81c28	0.113334954
123	0xbd11bcef	-0.03558057
124	0x3def580f	0.11686718
125	0xbe4c0b43	-0.19926171
126	0xbe4f9b05	-0.20273979
127	0xbea54cc5	-0.32285133
128	0xbebfc615	-0.37455812
129	0xbdc12c80	-0.09432316
130	0x3e621129	0.22076859
131	0x3d962cfc	0.07332799
132	0xbe73a4c4	-0.23793322
133	0xbd67fa5f	-0.056635257
134	0xbdad3245	-0.08456854
135	0xbd57beeb	-0.052672308
136	0x3d894773	0.06703081
137	0x3d1ca98f	0.03824764
138	0x3e298a58	0.1655668
139	0x3e3523be	0.17689416
140	0x3d314fe3	0.043289077
141	0xbd090128	-0.03344837
142	0x3e3fcce9	0.18730511
143	0x3e58ae5d	0.21160264

encoder.encoder_net.0.bias f4 [16]
0	0xbe8f0b61	-0.2793837
1	0xbd3565b4	-0.044286445
2	0xbdbb3d80	-0.091425896
3	0xbe062852	-0.13101318
4	0xbe7968f9	-0.2435645
5	0x3d7aed80	0.061261654
6	0x3e1f50fd	0.15558238
7	0x3e860fdc	0.26183975
8	0xbe82247d	-0.25418463
9	0x3e966765	0.2937576
10	0x3dc9b700	0.098493576
11	0x3e98bdb6	0.29832238
12	0x3ea1fd68	0.31638646
13	0xbe850c3a	-0.2598589
14	0xbe019857	-0.1265577
15	0x3e8ad064	0.27112114

encoder.encoder_net.2.weight f4 [16]
0	0x3f85cdac	1.0453391
1	0x3f8392de	1.0279195
2	0x3f9184df	1.1368674
3	0x3f90535e	1.1275442
4	0x3f8c47b5	1.0959383
5	0x3f877ca4	1.0584912
6	0x3f82cdb5	1.0219027
7	0x3f7f7f6e	0.9980382
8	0x3f85b9bb	1.0447305
9	0x3f84702d	1.0346733
10	0x3f8212b8	1.0161963
11	0x3f878f6b	1.0590643
12	0x3f84874a	1.0353787
13	0x3f811f62	1.0087702
14	0x3f842171	1.0322706
15	0x3f916907	1.1360177

encoder.encoder_net.2.bias f4 [16]
0	0x3ce118ba	0.02747761
1	0xbc5ce1a9	-0.013481536
2	0xbd87bd99	-0.0662796
3	0x3db739f9	0.08946604
4	0x3ca3b258	0.019982502
5	0xbcfd3149	-0.03090729
6	0xbd472c60	-0.048626304
7	0x3d2d0246	0.042238496
8	0xbca263fd	-0.019823069
9	0x3d9a40f5	0.07531921
10	0x3cb6b971	0.022305222
11	0x3cc6d16e	0.024269786
12	0x3da93e13	0.08263793
13	0xbceb7c1a	-0.0287457
14	0xbd401eae	-0.04690426
15	0xbc8b1af7	-0.016980631

encoder.encoder_net.2.running_mean f4 [16]
0	0x3d92491d	0.071428515
1	0x3d92491d	0.071428515
2	0x3d92491d	0.071428515
3	0x3d92491d	0.071428515
4	0x3d92491d	0.071428515
5	0x3d92491d	0.071428515
6	0x3d92491d	0.071428515
7	0x3d92491d	0.071428515
8	0x3d92491d	0.071428515
9	0x3d92491d	0.071428515
10	0x3d92491d	0.071428515
11	0x3d92491d	0.071428515
12	0x3d92491d	0.071428515
13	0x3d92491d	0.071428515
14	0x3d92491d	0.071428515
15	0x3d92491d	0.071428515

encoder.encoder_net.2.running_var f4 [16]
0	0x38ed197c	0.000113057875
1	0x38469bb9	4.7351907e-05
2	0x396dd4fc	0.00022681424
3	0x39816fc5	0.00024688072
4	0x390349b3	0.00012520589
5	0x395cd325	0.00021059492
6	0x389f6c7e	7.601919e-05
7	0x38778037	5.90088e-05
8	0x38bb2d44	8.925286e-05
9	0x398921f8	0.00026155985
10	0x37f480de	2.9147075e-05
11	0x39147676	0.0001415851
12	0x39004569	0.00012232889
13	0x397897c6	0.00023707663
14	0x395a5a9b	0.00020823853
15	0x394b5caa	0.00019394109
