miniproject2/experiment_123/model_decoder_1.pt (torch, 143309 bytes, 37 tensors)

prior.mean f4 [2]
000000 00 00 00 00 00 00 00 00
       0.0 0.0

prior.std f4 [2]
000000 00 00 80 3f 00 00 80 3f
       1.0 1.0

decoder.decoder_net.0.weight f4 [512, 2]
000000 83 cd e5 be c4 5e 36 3f 18 8a 0c 3f dc 81 23 3f
       -0.44883355 0.7123835 0.54898214 0.63870025
000010 c2 73 72 be 02 6c 03 bf bf e8 2d 3f ff ac 75 3e
       -0.2367697 -0.5133668 0.6793327 0.23991774
000020 04 6c cd 3e 66 22 b0 3e 34 9f 00 3f e8 70 9f 3e
       0.40121472 0.34401244 0.50242925 0.31140828
000030 83 86 27 bf 89 10 19 bf 0e 3a 99 3e d5 a7 93 be
       -0.65439624 -0.59790856 0.29927105 -0.28838983
000040 5d ec 0b bf dd d7 fd be 66 f4 ed 3e 32 c2 96 be
       -0.54657537 -0.49578753 0.46475524 -0.29445034
000050 ff 36 f8 3d 16 42 41 bf e4 f1 21 3f 66 ef 15 bf
       0.12119865 -0.75491464 0.6325972 -0.5856842
000060 41 03 9d 3d b6 96 b4 be 40 54 2b 3e 37 7a e8 3e
       0.07666636 -0.35271233 0.16731358 0.45405743
000070 7e c3 bd be 69 ae 85 3f e8 d6 45 3c 6c 12 27 3f
       -0.3706321 1.0443851 0.012075163 0.65262485
000080 22 e9 d0 be 07 03 7d be 31 db 0a 3e 65 e2 96 bd
       -0.40802866 -0.24708186 0.13560177 -0.073674
000090 57 70 0c 3f 4c e0 1a 3c ae fd c0 be be c6 a5 3e
       0.54858917 0.009452891 -0.37693542 0.3237819
0000a0 8d 0a 98 be 96 c0 1c 3f dc b4 29 3f 2b dc 27 be
       -0.2969555 0.6123136 0.66291595 -0.16392581
0000b0 87 45 aa 3b 6f c1 19 bf 6a e3 ca be 0e b0 a1 3e
       0.0051962766 -0.6006078 -0.39626628 0.31579632
0000c0 09 ba 97 3e 6c 3f b4 3e 24 14 e3 3d 6e 2d e9 3d
       0.2963412 0.35204637 0.11087826 0.11385618
0000d0 39 0f c9 3e 84 3e 00 bf 2c 88 c6 be 7e 9b c1 3e
       0.39269426 -0.5009539 -0.38775766 0.37813944
0000e0 41 42 4e 3d 10 55 c0 3e 6f 7c 17 bf 7f 99 77 bf
       0.050356153 0.37564898 -0.59174246 -0.9671859
0000f0 6e c9 06 3f 0e a0 56 3e 4a f0 85 be 79 27 10 3f
       0.5265111 0.20959494 -0.26159889 0.5631023
000100 f1 95 9e 3e 72 62 a8 be 3a f7 c5 3c 41 7a 28 3f
       0.3097377 -0.32887608 0.024165738 0.65811545
000110 84 af c8 be 23 de 81 bd dd 07 1b bf 57 38 1d bf
       -0.39196408 -0.06341197 -0.60558873 -0.6141409
000120 a7 72 02 3f c8 bf d2 be b6 79 17 bf cd d6 9b 3e
       0.50956196 -0.41161942 -0.5917009 0.30437317
000130 e8 21 09 3f e3 41 08 bf a4 14 03 bf 66 0f 30 3f
       0.5356736 -0.53225535 -0.5120337 0.68773496
000140 fd 87 0d be 00 e4 39 bf 1d 88 b4 be 94 c6 3e 3f
       -0.13821407 -0.72613525 -0.35260096 0.74521756
000150 c4 e7 0b 3f f9 e9 7b 3f a2 dd ad be 3d f6 b9 3e
       0.5465052 0.9840389 -0.33958155 0.36320677
000160 51 d3 b8 3e 72 1a 18 3f 78 82 d0 3e 4e 47 aa bd
       0.36098722 0.5941535 0.4072454 -0.083143815
000170 0e a0 44 bf 8e 22 fd be 07 39 b5 be 89 35 89 be
       -0.76806724 -0.49440426 -0.3539507 -0.26798657
000180 5b 2e a8 be 19 e5 f0 3e 53 0b b5 3e db a8 49 bd
       -0.32847866 0.47049788 0.35360202 -0.0492333
000190 68 36 30 be 73 19 3b 3f a5 93 a2 be b1 55 ed 3e
       -0.17208254 0.7308571 -0.3175327 0.4635444
0001a0 ac 58 97 be 33 72 a7 3e 17 41 db be 47 97 2b be
       -0.2955984 0.32704315 -0.42823097 -0.16756926
0001b0 69 3c 8b 3c 32 7a 1e bf db 0e 61 be b9 21 4c 3d
       0.01699658 -0.61905205 -0.21978323 0.049836848
0001c0 12 be 1f be de a5 10 3f 9c db 01 3e 97 40 a0 be
       -0.1559985 0.56503093 0.1268143 -0.31299278
0001d0 f6 48 c8 be d9 5c 23 3f 97 a1 7a 3e e3 c6 8a be
       -0.39118165 0.6381355 0.24475704 -0.27104864
0001e0 f8 4b ed 3e b9 92 ca 3d 81 0d c4 be e4 5a 5c 3d
       0.46347022 0.098912664 -0.38291553 0.053797618
0001f0 b4 ac 63 bf ea 35 5a 3e 8b 86 ce 3e 84 e9 ca bd
       -0.889354 0.21309629 0.40337023 -0.09907821
000200 10 1f 07 3e 74 5c 39 3e f4 99 be be af c4 2b 3f
       0.13195443 0.18101674 -0.37226832 0.6709699
000210 26 37 09 bf 46 53 68 3e 4b 72 15 3e e1 7e da 3e
       -0.53599775 0.22688016 0.1459438 0.42674926
000220 43 15 2f bf 97 2d 37 bf 14 59 0b bf 9a 02 13 bf
       -0.6839182 -0.7155394 -0.544328 -0.57425845
000230 be 34 df 3e f8 24 c9 3e f2 ef 16 bf f0 77 7a be
       0.43594927 0.39286017 -0.5895988 -0.24459815
000240 3a 5d cf be 14 a5 99 3e 26 0a e4 be 18 34 23 3f
       -0.40500814 0.30008757 -0.44538993 0.63751364
000250 3a fa ff 3e 06 7c 28 3d 0a a4 03 3e c7 a5 f8 3e
       0.49995595 0.041133903 0.12855545 0.48563978
000260 4a e3 ec be fc 7e 74 be 7c d9 90 be c9 1f 1d 3f
       -0.46267158 -0.23876566 -0.28290927 0.61376625
000270 b0 ac 7e 3e 4b 15 81 3e 0d bd 9a 3d b3 2d 1f 3f
       0.24870563 0.25211558 0.0755559 0.62179106
000280 d4 bf 6d 3e ac 19 99 3e 66 61 57 3f 20 98 19 bf
       0.23217708 0.299024 0.84132993 -0.5999775
000290 58 be 65 be b7 bb 9b 3e cc 42 11 3f 33 df bc 3e
       -0.22435892 0.30416653 0.5674255 0.36889037
0002a0 07 3b 14 bf 7d 4a 0f bf 6c 24 ee 3e e8 ad 68 3e
       -0.5790257 -0.55973035 0.46512163 0.2272259
0002b0 86 27 97 3e d0 d6 17 3f 27 b7 18 3f 27 00 78 3e
       0.2952234 0.5931215 0.5965447 0.24218808
0002c0 cf a3 c6 3d 34 51 5f be 1a 85 13 be 1e 7d 2d bf
       0.09699213 -0.2180832 -0.14406243 -0.6776904
0002d0 17 a8 03 3f 9b 86 10 be 58 39 06 be d8 91 55 3e
       0.5142836 -0.14113848 -0.13107812 0.20856416
0002e0 4b 63 6b bc 79 af e9 3e ee 28 c5 bc 70 db 11 3f
       -0.014366935 0.45641688 -0.024067368 0.5697546
0002f0 0d 4a 16 3f fe 99 1e 3f 3e cb 4c 3c bb 7c 98 3e
       0.5870674 0.61953723 0.012499629 0.29782662
000300 aa f1 0c 3d 88 57 0b bf 09 32 49 3e 49 15 9f 3e
       0.034410156 -0.5443044 0.19647993 0.31070927
000310 9e 23 ce bd ab c6 13 3f a6 90 0d 3f 34 b7 65 3d
       -0.10065387 0.5772502 0.5529884 0.05608292
000320 a8 a7 73 be c4 4c 9f 3e 8c a0 a9 be 6b 00 86 be
       -0.23794425 0.31113255 -0.331303 -0.26172194
000330 ca 0e 1a 3f d2 cc 31 3d d0 ea 2a 3f f0 1b cb be
       0.60178816 0.043408222 0.66764545 -0.39669752
000340 78 57 eb 3d b0 cc 85 3e bc 5d 3a bf 9f 6f 13 bf
       0.11491293 0.26132727 -0.7279928 -0.57592195
000350 a4 05 75 3e c8 6c 1c bf 94 c6 98 be cc 48 3a be
       0.23927933 -0.61103487 -0.29839003 -0.18191832
000360 46 c4 70 be 2d c2 08 3f 53 02 0c 3d ad e5 a5 3e
       -0.23512372 0.5342129 0.034181904 0.3240179
000370 f5 62 f3 3a e7 ab 45 be 1e 8e e2 3d de 82 c5 3e
       0.001856892 -0.19303857 0.11062263 0.38576406
000380 77 43 a3 3d 39 81 36 bf 75 2c 78 3e cc d7 aa bd
       0.07971852 -0.7129093 0.24235709 -0.08341941
000390 68 f5 a2 be 22 9a 7d bf c5 46 a5 be 2e 56 07 bf
       -0.31827855 -0.99063313 -0.32280555 -0.52865875
0003a0 f4 3e cf 3c ee cd 79 3e ea b0 1b 3f 5f 2f 17 bf
       0.025298573 0.24394962 0.60816824 -0.5905666
0003b0 01 df 03 3f 0f 44 15 3f dd 95 9d be 9c 6e 1b 3f
       0.5151215 0.58306974 -0.307784 0.6071565
0003c0 15 a8 0b 3f 01 2a ca 3d b5 c6 93 be b9 ec 1c 3f
       0.5455335 0.09871293 -0.2886254 0.6129871
0003d0 a9 c9 23 3f e6 c5 0c 3e b1 28 1e bf a6 49 99 3e
       0.63979584 0.13747367 -0.6178084 0.29939002
0003e0 ae be b0 3d ec a3 aa be a2 f6 32 bf 23 bb 05 3f
       0.08630119 -0.33328187 -0.6990758 0.5223867
0003f0 14 0d 58 bf c9 54 ce be 63 4f c4 3d e1 8b f6 3e
       -0.84394956 -0.4029906 0.09585454 0.48153594

decoder.decoder_net.0.bias f4 [512]
000000 ad 98 f2 3d 9a a5 ef be 9f d2 53 3e d1 80 5f 3e
       0.11845527 -0.4680603 0.20685814 0.21826483
000010 c2 d0 cc 3e e6 b0 10 3f 4f fb 63 3e e4 4d 6d be
       0.4000302 0.56519926 0.22263835 -0.23174244
000020 60 ad ab 3e 1d fc 71 3e 7f d5 3e bf c8 cb de 3e
       0.33530712 0.2363133 -0.7454452 0.43514848
000030 83 ad 60 bc 5d d6 2f be c1 3e bc 3d 6b 13 03 be
       -0.013713243 -0.17171617 0.09191657 -0.12800376
000040 04 41 cc be 2a 4d 98 be 92 d4 e1 3e 25 6e e1 3e
       -0.39893353 -0.29746372 0.4410749 0.44029346
000050 83 5c 10 bf 3b fb b0 3e 42 7a f8 bd 25 b7 52 3c
       -0.5639116 0.34566674 -0.12132694 0.012861048
000060 ab 65 83 be 54 94 84 3e 5b 96 25 3f 46 c0 0e 3f
       -0.25663504 0.25894415 0.6468255 0.55762136
000070 72 17 21 3f 01 83 29 bf 3c 48 61 3e b9 70 20 3e
       0.629264 -0.6621552 0.22000211 0.15668
000080 c4 61 cd bd 18 45 68 ba aa 39 0d bf 83 5f 3a 3e
       -0.10028413 -0.00088603934 -0.55166113 0.18200497
000090 f8 1d 58 bd aa 00 18 be 4d b9 44 3e 61 b8 18 bf
       -0.052762955 -0.14844003 0.19211312 -0.5965634
0000a0 88 6b 83 bf 9f fb 53 3d ed e8 9c be 1f 0d f8 3e
       -1.0267191 0.051753636 -0.30646458 0.4844751
0000b0 1a ae 65 be d4 73 2e be 5c 90 57 bd a6 d0 0a 3f
       -0.22429696 -0.17036372 -0.052627906 0.5422462
0000c0 f6 42 b5 3d 28 c4 07 be d8 0f 54 3f 03 6f 4f bf
       0.088506624 -0.13258421 0.82836676 -0.81028765
0000d0 60 17 a2 3d 3b d7 e4 3e d4 58 9f be e3 9c bd be
       0.07914615 0.44695458 -0.31122458 -0.37033758
0000e0 4d 13 e8 be cd a0 01 3f 74 43 cf be a2 d9 72 bd
       -0.45327225 0.5063599 -0.4048115 -0.059289582
0000f0 3d 49 38 3d 91 8b fa 3e 32 b8 66 bf a0 40 c3 3e
       0.04499172 0.48934606 -0.9012481 0.38135242
000100 4e 0d 00 bf e2 61 46 3f 39 7e e2 3e 36 32 bd be
       -0.500203 0.7749311 0.44236925 -0.3695237
000110 c9 fa 10 be 51 e2 28 bf 69 59 0a 3f 1c 78 f2 be
       -0.14158167 -0.6597033 0.5404268 -0.4735726
000120 44 d5 b0 3e 69 a9 51 bf 5b ea 97 be d6 33 fe 3e
       0.3453771 -0.81899124 -0.29670987 0.49648923
000130 31 3c c5 3e 0b 78 47 3e ca 2c 3e bf 06 cf c0 be
       0.38522485 0.19479387 -0.7428709 -0.37657946
000140 98 c8 33 3f 19 81 63 be 07 35 82 bf 4e c2 6a 3e
       0.70227957 -0.22217216 -1.0172433 0.22925684
000150 c7 28 cd 3e ef e0 6c be 91 eb 36 be 60 14 c0 3e
       0.40070173 -0.2313268 -0.17863299 0.37515545
000160 f7 74 9b 3d 5f af 70 3e dc e1 e3 be 74 97 1a bf
       0.07590669 0.23504399 -0.44508255 -0.6038735
000170 6c 22 0a bf 82 e6 aa be 70 1a 08 bf b2 37 03 bf
       -0.53958774 -0.33378989 -0.5316534 -0.5125686
000180 29 c6 80 bd fc 68 df 3e 94 56 69 3f 14 07 3e bf
       -0.06287796 0.43634784 0.9114773 -0.7422955
000190 35 f7 60 3e b5 0d 2e bf 06 a5 4c bf b4 45 3e 3f
       0.21969302 -0.67989665 -0.79939306 0.7432511
0001a0 ae 31 ff be 13 a2 fc be 85 ce 22 bf 10 c2 0a bf
       -0.4984259 -0.49342403 -0.63596374 -0.54202366
0001b0 7a 30 6a 3e f1 02 a8 bd fe 56 99 bd 9d 1b 87 be
       0.22870055 -0.08203686 -0.074872956 -0.26388255
0001c0 f8 fa e6 be b1 4c 8b be 21 3f f0 3e b5 70 c2 bd
       -0.4511335 -0.27206948 0.46923164 -0.094941534
0001d0 58 70 a0 3e 1f d4 23 3f c5 4e c4 3d 1f e6 13 bf
       0.3133571 0.63995546 0.095853366 -0.5777301
0001e0 2b 9c 06 bf 4a ad 83 be 9e 5c e9 3e 00 f0 0a bf
       -0.52582043 -0.25718147 0.45578474 -0.5427246
0001f0 46 79 5d be 84 a8 9e be dd 09 e0 be f9 d3 3c be
       -0.21628293 -0.30987942 -0.43757525 -0.18440236
000200 b8 f8 34 bf 1c 0b 95 3e 4a 34 4d 3f 7c e4 26 bf
       -0.70692015 0.29110038 0.8015791 -0.6519239
000210 16 ee 08 3f 53 a2 3c bf 80 d3 1e 3e 31 47 15 bf
       0.5348829 -0.7368519 0.15510368 -0.58311754
000220 4e da 42 bf 87 2f 9d 3d 2f 8f 48 bf ec ac c2 be
       -0.76114357 0.07675081 -0.7834348 -0.38022554
000230 30 64 a4 be 31 67 b5 3e 06 e0 ed be 79 20 0c 3f
       -0.32107687 0.3543029 -0.4645998 0.5473705
000240 88 4a ee bd cb da 65 bf 86 a3 8d 3e e7 f1 30 3f
       -0.116353095 -0.89786977 0.2766382 0.69119114
000250 0e 8f 25 3f 65 7b cf 3d 9f 93 2d be 3e 46 29 3e
       0.6467141 0.101309575 -0.16950844 0.16530702
000260 55 da a0 bd 36 c6 11 bf 67 3b 0d 3f 7d 3d a8 3d
       -0.078541435 -0.5694307 0.55168766 0.08214853
000270 33 ae 8b 3e c5 d6 23 3f 3b da 6d 3e 1e 16 91 be
       0.2728134 0.6399959 0.2322778 -0.28337187
000280 ef cb 0d 3e a9 57 4b 3d af cf 1f bf e6 55 b2 3e
       0.13847326 0.049644146 -0.62426275 0.3483116
000290 04 b0 7a be d2 ba 31 3e cf 2c 6e 3e 7a 3d ac 3e
       -0.24481207 0.17356423 0.2325928 0.33640653
0002a0 94 b3 bc 3e a1 e7 21 bd 92 4e b2 be 03 54 8b be
       0.36855757 -0.03952754 -0.3482557 -0.27212533
0002b0 41 91 5a bd f2 86 2b 3f 3d f0 98 3e 56 45 3e bd
       -0.05336118 0.67002785 0.29870787 -0.046452843
0002c0 36 c3 0c bf c5 45 10 bf 4f ba 7d 3e c9 65 d3 be
       -0.5498537 -0.5635646 0.24778102 -0.41288593
0002d0 b5 89 d8 3e ef 15 98 3d fb 05 f1 be 8d 17 9e be
       0.42292562 0.074260585 -0.47074875 -0.30877343
0002e0 d7 29 99 be ec b7 3a bf b7 f0 7a 3c f3 98 3a bf
       -0.29914734 -0.7293689 0.01531618 -0.7288963
0002f0 30 6f 21 3f 20 63 13 3f 3a ae 2c bf 8f 2e c1 3d
       0.63060284 0.5757313 -0.6745335 0.094327085
000300 43 a2 1f 3f 16 13 05 bf 94 83 6d bd 35 94 4d 3e
       0.62356967 -0.5198225 -0.05798681 0.20076068
000310 7d 87 21 bf 3c e0 55 be e0 d8 a9 3e 27 d8 33 3e
       -0.63097364 -0.2088632 0.33173275 0.17562924
000320 62 85 56 3c ed ca f4 3e b4 f6 a0 be 75 8a 47 3e
       0.013093324 0.4781107 -0.3143822 0.19486411
000330 35 49 e0 3d c1 29 88 3e 29 9d 9f bd c3 e8 2f bf
       0.10951463 0.26594356 -0.07793648 -0.6871454
000340 73 35 2e bf a8 57 2e bf a0 cf 16 3e ce 63 eb 3e
       -0.6805031 -0.681025 0.1472764 0.45974582
000350 6f f9 1f bf 17 f9 c2 3e c4 a1 18 3f 20 e0 69 be
       -0.6248998 0.38080665 0.59621835 -0.22839403
000360 82 59 14 be 16 fc 27 bf 22 3d 8c bd e4 a5 25 be
       -0.1448727 -0.6561903 -0.06847598 -0.16176564
000370 36 19 36 bf 72 24 6a 3e 0f 22 e6 be 5d bc c6 be
       -0.7113222 0.22865465 -0.4494786 -0.38815585
000380 2b fd d2 bd 1a 68 98 3e a9 c8 b6 be 83 1c 1e bd
       -0.10302194 0.29766923 -0.35699967 -0.03860141
000390 f2 a3 b2 be 8f 00 f6 be 47 fb e2 3e bc 93 04 bf
       -0.34890705 -0.480473 0.44332334 -0.51787925
0003a0 70 48 cb 3e 7c 8a bf 3e 77 03 84 3e fa ff 82 3e
       0.39703703 0.37410343 0.25783893 0.2558592
0003b0 d1 04 28 3f b6 04 d9 be 0b 86 4a be c7 69 96 3d
       0.6563235 -0.42386407 -0.19777696 0.07344394
0003c0 cc 45 6e 3d d6 e7 26 3f b1 a1 0e 3f 19 d4 e2 bb
       0.058172032 0.65197504 0.5571547 -0.0069222567
0003d0 db ef 1c 3f c7 04 4e 3f be 23 ff 3e 45 2b d4 3e
       0.6130349 0.8047604 0.49831957 0.41439262
0003e0 4f 22 ad 3e 62 9d 85 bd 39 17 50 bf 50 7e c6 3e
       0.33815238 -0.06524159 -0.81285435 0.38768244
0003f0 b9 c2 88 3e b1 07 2f bf 4e 95 2e 3f f3 5c 86 3e
       0.26711062 -0.6837111 0.6819657 0.2624279

decoder.decoder_net.3.weight f4 [32]
000000 12 fd 85 3f 9e 46 82 3f 3c 7e 82 3f 14 20 8c 3f
       1.0467856 1.0177801 1.0194774 1.094729
000010 17 42 84 3f b1 df 84 3f 4c 2a 8d 3f 9c 51 81 3f
       1.0332669 1.0380765 1.1028533 1.010303
000020 df 89 81 3f 3a ef 82 3f 37 3b 7f 3f 63 7f 8c 3f
       1.01202 1.0229256 0.9969973 1.0976375
000030 24 ca 82 3f 63 7f 81 3f e9 98 7c 3f 77 e0 7e 3f
       1.0217938 1.0117 0.9867082 0.99561256
000040 a2 f3 89 3f b9 c6 73 3f 81 38 8a 3f ef 20 81 3f
       1.0777476 0.952251 1.0798494 1.0088176
000050 aa de 82 3f 77 76 8d 3f 91 dd 89 3f 07 34 7c 3f
       1.0224202 1.1051778 1.0770742 0.9851689
000060 fe 5b 74 3f 58 2c 7f 3f 23 4d 87 3f a4 c1 7a 3f
       0.9545287 0.9967704 1.0570415 0.9795172
000070 be a6 84 3f 2c 9e 7b 3f 62 a3 85 3f aa 72 7d 3f
       1.0363386 0.98288226 1.0440485 0.9900309

decoder.decoder_net.3.bias f4 [32]
000000 ae b1 37 bd 05 fc a9 bc 36 af 34 bd 42 94 7c 3d
       -0.044847183 -0.020750055 -0.044112407 0.061664827
000010 d6 8d 94 bc 74 ea 8a 3c c9 e6 a2 3d 08 aa 22 bd
       -0.018134039 0.0169575 0.07954175 -0.039712936
000020 19 6d b8 3d 7b 24 9a 3c 6a d9 58 bc 2d d6 50 3d
       0.09005184 0.018816223 -0.013235429 0.050985504
000030 23 66 94 3d f5 92 d0 bc 68 4b 8a bd c3 2b 8d bd
       0.072460435 -0.0254607 -0.06752664 -0.068931125
000040 9a d4 3d bc 15 9e 91 bd 9f f5 96 3d bd 0f 04 bd
       -0.011586333 -0.0711023 0.07371067 -0.03224157
000050 d4 91 25 bd 1c c7 dd bc 56 d7 47 bd 61 97 90 bd
       -0.040422276 -0.027072482 -0.048789345 -0.07060123
000060 43 5e 68 bb 8a 94 a7 bb d0 a7 a3 3b 2e b5 82 3c
       -0.0035456575 -0.005114143 0.00499437 0.015955534
000070 39 c3 e3 3c 15 fb bc 3a af 0c 04 3c 0c fb 55 3c
       0.02780305 0.001441809 0.008059665 0.0130603425

decoder.decoder_net.3.running_mean f4 [32]
000000 fc ff 7f 3e fc ff 7f 3e fc ff 7f 3e fc ff 7f 3e
       0.24999994 0.24999994 0.24999994 0.24999994
000010 fc ff 7f 3e fc ff 7f 3e fc ff 7f 3e fc ff 7f 3e
       0.24999994 0.24999994 0.24999994 0.24999994
000020 fc ff 7f 3e fc ff 7f 3e fc ff 7f 3e fc ff 7f 3e
       0.24999994 0.24999994 0.24999994 0.24999994
000030 fc ff 7f 3e fc ff 7f 3e fc ff 7f 3e fc ff 7f 3e
       0.24999994 0.24999994 0.24999994 0.24999994
000040 fc ff 7f 3e fc ff 7f 3e fc ff 7f 3e fc ff 7f 3e
       0.24999994 0.24999994 0.24999994 0.24999994
000050 fc ff 7f 3e fc ff 7f 3e fc ff 7f 3e fc ff 7f 3e
       0.24999994 0.24999994 0.24999994 0.24999994
000060 fc ff 7f 3e fc ff 7f 3e fc ff 7f 3e fc ff 7f 3e
       0.24999994 0.24999994 0.24999994 0.24999994
000070 fc ff 7f 3e fc ff 7f 3e fc ff 7f 3e fc ff 7f 3e
       0.24999994 0.24999994 0.24999994 0.24999994

decoder.decoder_net.3.running_var f4 [32]
000000 df a1 88 3d 5c 81 0d 3d 1f 90 92 3d 9a 0a 44 3d
       0.066714995 0.034547195 0.07156395 0.047861673
000010 85 d1 3e 3d 56 9f 3b 3d 18 15 81 3d 1e b8 70 3d
       0.046586532 0.04580625 0.063028514 0.058769338
000020 e6 03 5d 3d 9c a9 6b 3d 9c ea 62 3d 85 1d 8b 3d
       0.053958796 0.0575348 0.055399522 0.0679274
000030 aa 13 90 3d 93 4a 5a 3d 20 a8 4c 3d 6e be 95 3d
       0.070350006 0.053293776 0.049965024 0.07311712
000040 5e bf 9d 3d a3 0f 9b 3d 87 48 8f 3d c8 37 63 3d
       0.07702516 0.07571342 0.06996255 0.05547312
000050 9c c4 7f 3d 97 6f 8c 3d 22 0a 1d 3d 8e 76 43 3d
       0.06244336 0.068572216 0.03833974 0.047720484
000060 52 3c 6d 3d c3 a3 53 3d 24 5e b3 3d a8 4c 68 3d
       0.057918854 0.051669847 0.0875819 0.05671373
000070 31 04 6a 3d e2 a6 51 3d 3d dc 8b 3d 01 0e 74 3d
       0.057132903 0.051184542 0.068291165 0.059583668

decoder.decoder_net.4.weight f4 [32, 32, 3, 3]
000000 f8 6a 99 bd 43 92 3d bc 45 3f 86 3d 29 72 00 bd
       -0.07491106 -0.011570516 0.065550365 -0.03135887
000010 43 e6 5f bd ef 2c 47 bd 22 e1 9c bd bf 92 94 bb
       -0.054662954 -0.048626836 -0.07660128 -0.004534095
000020 88 c0 7d bc a1 0d ed 3c 0b 84 a9 bd 7c 0f d9 3c
       -0.015487798 0.028937163 -0.08277138 0.026496641
000030 2a 92 ab bd 4f a0 22 3d 13 22 95 bd fc 01 6d bd
       -0.08377488 0.039703663 -0.0728189 -0.05786322
000040 1e a4 d9 3c 3a 27 05 3c 92 a6 50 3d 6b 14 9e 3c
       0.026567515 0.008127028 0.050940104 0.019296845
000050 d5 9e 78 3d 74 5c 00 be f5 66 77 bc ca a8 07 bc
       0.06069835 -0.12535268 -0.01510023 -0.008279989
000060 c5 1b 90 3c e4 76 2c 3d 86 23 5b bd 1d d0 24 bb
       0.017591367 0.04210557 -0.053500675 -0.002514846
000070 4f c1 87 3c 80 4a 54 3d 04 74 2c 3d 4b 28 33 bd
       0.016571669 0.05182886 0.04210283 -0.0437396
000080 a2 a7 d8 ba 32 99 96 bc 07 d8 30 3d 66 b3 1a 3c
       -0.0016529451 -0.018383596 0.04317477 0.009442186
000090 61 0c 89 bc 1d 22 14 bc d7 63 1d bd 9a ed d6 3c
       -0.016729536 -0.009041336 -0.038425293 0.026236344
0000a0 a0 7a c2 3d 9f de 9f 3c c5 42 85 3d f9 c6 d2 3c
       0.09496045 0.019515334 0.06506876 0.025729643
0000b0 02 14 44 bc 20 57 2a bd f0 21 9c bd 76 93 3c bd
       -0.011967661 -0.041586995 -0.076236606 -0.046039067
0000c0 d8 9a 26 3d 1b b7 3e 3d 92 8d fd bc 52 1d 82 ba
       0.040675014 0.04656134 -0.030951295 -0.0009926951
0000d0 71 0b 39 bd b8 8e 43 3c d2 1d 38 bc c2 30 ad bc
       -0.045176927 0.011935882 -0.0112375785 -0.021141414
0000e0 cc 80 c7 3c ac 74 44 bd da 07 cd 3c 10 a1 b2 bd
       0.024353407 -0.04796283 0.025028158 -0.087221265
0000f0 c9 2f 11 bd 4a 29 0f bd d2 a6 21 bd 36 2d 09 3d
       -0.035445962 -0.034951486 -0.039465733 0.033490382
000100 d2 7a 48 3d 19 68 77 3d 99 b9 9b 3d e5 5e 33 bd
       0.048945256 0.06040201 0.07603759 -0.04379167
000110 3d 10 31 3c 4f 65 a3 bc 31 63 fd 3c e2 d6 61 bd
       0.010807094 -0.019945769 0.030931087 -0.05513657
000120 7f aa 87 bc 9d 62 ad bc 56 3d 03 3d b4 6a e2 3c
       -0.016560791 -0.021165187 0.032040916 0.02763877
000130 c4 6a 4d bd 5b 61 6e bd 57 f8 22 bc d9 fe 8e 3d
       -0.050150648 -0.058198314 -0.009946904 0.06982202
000140 ac 4c 8a 3d 63 f3 04 bd 07 92 7c 3d b7 68 7c 3d
       0.06752905 -0.032458674 0.0616627 0.0616233
000150 b3 28 44 bd 16 c9 08 3d 53 55 07 bd f9 f9 e2 bd
       -0.047890376 0.033394895 -0.033040356 -0.11082835
000160 e6 0b 87 bd c5 8b a3 3c 73 88 e2 3c f2 83 a0 3d
       -0.06594066 0.019964108 0.027652955 0.078376666
000170 9f 38 f8 3c d4 29 55 3d 40 2d 14 3d e4 a6 d3 3c
       0.030300437 0.052041844 0.036175966 0.025836416
000180 90 2e ad 3d cc 2a 0b 3d fd 0f a5 3c 09 ff 8f 3c
       0.08456147 0.03397636 0.020149225 0.017577665
000190 53 a6 7e 3d 89 7e e6 3c 00 39 52 3d a3 81 34 bd
       0.062170338 0.028136509 0.05132389 -0.044068944
0001a0 95 f7 92 3d 5e 5f 38 bd 16 a3 ec 3c fd 47 b5 3c
       0.07176129 -0.045012824 0.02888636 0.022129053
0001b0 f3 ac 20 bd be b7 84 bc 22 12 fa bc bd 2a 84 bd
       -0.039227437 -0.016200896 -0.030526225 -0.06453464
0001c0 f0 47 5c bd e8 4d 7d bd a4 3e 03 bd 9a 6c 18 bd
       -0.053779542 -0.061841875 -0.03204216 -0.037212946
0001d0 74 d2 2e 3d 30 f7 12 bc 1c 97 07 3d 9c d8 18 3d
       0.042681172 -0.008970067 0.033103094 0.03731595
0001e0 9a 07 a3 3c 8e da 04 bd de d8 50 3d 50 63 bf 3d
       0.019901086 -0.032434992 0.05098807 0.09345114
0001f0 e8 7a c8 3c 29 d2 9b 3b 8d a9 95 bd a3 e6 ca bc
       0.024472669 0.0047552777 -0.0730773 -0.02476818
000200 2a d4 b2 3c fe e8 57 3c 63 50 57 3d c4 33 83 3d
       0.021829683 0.013178108 0.052566897 0.06406358
000210 53 3c b3 3d 98 76 09 3d d6 17 2d 3d 02 1b 0f bd
       0.0875174 0.033560365 0.04225906 -0.034937866
000220 a3 63 7b 3b 96 1e d7 ba 4e 61 59 bd 92 1a 11 3d
       0.0038358949 -0.0016412314 -0.053071313 0.03542573
000230 c1 8b 8a 3c 97 9e 85 bc 88 4e e1 bc dc 2c b9 3c
       0.016912343 -0.016310973 -0.027503267 0.022604398
000240 53 91 6d 3d 40 9a 9e 3d b5 a4 f7 bb 26 bf 86 3d
       0.05799992 0.077442646 -0.0075574764 0.065794274
000250 11 4f 12 3d 2b 56 cb 3b d3 59 d0 bb 9f 0f 1c bd
       0.035719935 0.0062053404 -0.006358364 -0.038100835
000260 d9 7b 8f bd 8b aa 2f bd 13 bf 87 3d 9d f2 84 bc
       -0.07006044 -0.04288725 0.066282414 -0.016228968
000270 9a 46 8a 3d d5 67 dc bb 19 af 93 bc dd 1b cb 3c
       0.067517474 -0.006726245 -0.018027829 0.02479356
000280 3b ab 8b 3c 06 15 ea 3b de a5 fc 3c bf b3 1c bd
       0.017049422 0.0071436195 0.03084081 -0.038257357
000290 c6 17 d0 3c c9 ea 50 3d 64 90 ed 3c 3a 93 27 3d
       0.025401961 0.05100516 0.028999515 0.04091189
0002a0 a3 c5 ca 3c 98 e7 97 bd 02 47 88 3d 50 e4 9a bd
       0.024752444 -0.0741722 0.06654169 -0.075630784
0002b0 4e a2 e1 bc 5a 83 0e 3d 50 2b 22 bb eb 13 21 3d
       -0.027543213 0.034793235 -0.0024745055 0.039325636
0002c0 25 88 08 3d e7 28 15 3d c5 38 ad bd 02 cc 4b 3c
       0.033332963 0.03641596 -0.084580936 0.012438776
0002d0 51 a8 15 bc a1 ed 1d bd 22 a0 9c 3c 49 c1 e1 3c
       -0.009134368 -0.0385567 0.019119326 0.027557986
0002e0 2d 0e 0a bc 4a 05 62 bd 07 46 50 3d 19 b1 0c bd
       -0.008426231 -0.055180825 0.050848033 -0.03434858
0002f0 d4 65 c8 3c 1d 63 e4 3c 4f d2 01 bb 20 8c b0 bc
       0.024462618 0.027879292 -0.0019809192 -0.021551192
000300 0f ec c4 bd 86 66 84 3d ca f8 72 bd dd 25 9e bd
       -0.09615337 0.06464867 -0.059319295 -0.077220656
000310 f1 b3 bc bc af 7e 9b 3d 7b 07 95 bc e1 ff aa bb
       -0.023035021 0.07592522 -0.018192044 -0.0052184914
000320 82 66 94 3d e4 3d 5a 3d 30 21 4f 3d e6 32 87 bd
       0.07246114 0.05328168 0.05056876 -0.06601505
000330 ec cb 4e bd 7c 78 0b 3d 85 aa 1c bd d5 1f f0 3c
       -0.050487444 0.03405045 -0.038248558 0.029312054
000340 c7 44 81 3b 6e 28 f5 3b 9e e0 4d 3b cf 6b 24 3d
       0.0039449665 0.0074816262 0.00314144 0.040141877
000350 ee 71 af bc 1e ea 39 bc d6 49 cb bc f9 b4 3e bd
       -0.02141663 -0.011347322 -0.024815481 -0.046559308
000360 0d 55 32 3d 6a 03 7f 3d 6a 6b b0 bd 79 ba d8 3d
       0.043538142 0.062259115 -0.086142376 0.10582442
000370 34 95 97 3c d5 83 13 bd ee 0e d1 3c 8e ed 72 bc
       0.018503763 -0.036014397 0.025519814 -0.014827145
000380 65 bf 7e bd 8e 15 dd bc 5c b6 f2 b9 2b 9a 01 bd
       -0.062194247 -0.026987817 -0.00046293705 -0.031641167
000390 2a 4f 95 bd fa 51 a8 3d 47 b0 37 bc 3e 4c bf 3c
       -0.0729049 0.08218761 -0.011211461 0.023351785
0003a0 3c b4 74 3d 9f 16 3d 3d cf 24 05 3d 0a 83 c3 bc
       0.059742197 0.04616415 0.032505807 -0.023866195
0003b0 ad 63 26 3d e2 f7 4c bd 6b 4c 33 bd dd 32 18 bd
       0.040622402 -0.050041087 -0.04377405 -0.037157882
0003c0 8e af b9 3c 10 dc 2c bd 63 46 e9 bc 38 9f 0b 3c
       0.022666719 -0.042202055 -0.028475946 0.008521847
0003d0 f1 26 26 3d 6c 03 1d bd 63 4b ea 3b f6 76 97 3d
       0.04056448 -0.03833334 0.0071501 0.07395737
0003e0 f6 5d 12 bd a4 be 4a bd 06 2f 08 bd c6 61 35 3d
       -0.03573414 -0.049498215 -0.03324797 0.044282697
0003f0 b7 83 2f 3c 62 1b b2 bc 57 d9 0d 3c df 43 4c bd
       0.010712556 -0.021741573 0.008657775 -0.049869414

decoder.decoder_net.4.bias f4 [32]
000000 4e 23 1f bd f8 3c 20 3d bb ae 04 bc 5f b3 1c 3d
       -0.03885203 0.039120644 -0.0080983 0.038257
000010 f4 3c 8c ba a9 5a 71 3d 2e e6 c6 bd 1d 50 3f 3d
       -0.0010699318 0.05892435 -0.09711872 0.04670726
000020 0e 2b 24 3b 3a 84 05 3e 56 d7 5d bd f6 e6 36 bd
       0.0025050077 0.13038722 -0.05416044 -0.044653855
000030 92 d9 d2 3c f0 bc 51 bc b7 56 94 bd e4 ee 96 3d
       0.025738511 -0.012801394 -0.07243102 0.073697835
000040 cc 12 21 bd 5a 29 fb 3c 91 b0 61 3d 04 77 e4 39
       -0.039324567 0.030659366 0.055100027 0.00043576222
000050 72 97 68 bc 88 44 1e 3c c7 9b 7f bd a1 08 83 3c
       -0.014196264 0.009659894 -0.06240442 0.015995326
000060 76 6a 25 3d 3b 82 e3 bd 35 ef c1 3c b3 81 e7 3c
       0.040384732 -0.11108824 0.023673633 0.028260088
000070 2e 0f be 3d 9e 72 3e bd 79 55 ee bc 7d 9f 8b 3a
       0.09280239 -0.046496026 -0.02909349 0.001065239

decoder.decoder_net.6.weight f4 [32]
000000 3a 96 67 3f 1e 45 52 3f 1c f6 6f 3f 20 86 6a 3f
       0.904636 0.82136714 0.9373491 0.9161091
000010 8f 04 66 3f 2f ed 67 3f f8 9e 6b 3f 8c 89 7b 3f
       0.89850706 0.9059629 0.9203944 0.98256755
000020 47 e9 6d 3f b9 b9 72 3f 81 90 6e 3f 92 f0 67 3f
       0.9293408 0.9481464 0.93189245 0.90601456
000030 f8 70 76 3f f8 d9 7b 3f df ff 86 3f 4c 67 7b 3f
       0.96266127 0.9837947 1.0546836 0.98204494
000040 d4 56 78 3f 26 5a 71 3f 79 da 73 3f a8 6d 69 3f
       0.9700749 0.9427818 0.9525524 0.9118295
000050 e3 72 6b 3f 2a 18 76 3f 0f b0 6d 3f 45 af 5f 3f
       0.9197218 0.9613062 0.9284677 0.87376815
000060 8c b5 62 3f 03 3a 68 3f 4b 1c 78 3f 2c 9b 71 3f
       0.8855827 0.9071352 0.9691817 0.943774
000070 4c 5d 7f 3f a5 e5 65 3f 17 c9 82 3f 13 62 61 3f
       0.99751735 0.89803535 1.0217618 0.88040274

decoder.decoder_net.6.bias f4 [32]
000000 bd c9 c8 3c 0e 28 4d 3d ff 0d 8c 3d be b8 3f 3d
       0.024510259 0.050087027 0.06838607 0.046807043
000010 04 64 a6 bd 3c 0b 63 bc 7a 67 6a 3d 24 51 c8 bd
       -0.08124545 -0.013857659 0.05722759 -0.09781101
000020 f4 fd ba 3d ae 43 d0 3d 88 b2 b3 3c b4 d6 ab bc
       0.09130469 0.10169159 0.021935716 -0.020976402
000030 51 f0 c0 bc 89 f8 08 3c 70 ae ed 3d 3f 31 ab bd
       -0.023552092 0.008360037 0.11605537 -0.08359002
000040 50 36 8b bd 8d 20 34 bc 1a 18 e2 bb ab 2e f0 bd
       -0.06797469 -0.010994089 -0.006899846 -0.11727651
000050 99 9e d8 3c d5 d1 44 3d 41 1a 0b bd 52 76 2d 3d
       0.026442813 0.048051674 -0.033960585 0.042349167
000060 af a3 da bc 84 c9 2b 3d f9 de 63 3d bc 90 e3 3d
       -0.026689379 0.041940227 0.055632565 0.1111159
000070 40 55 ce 3d d8 fc c7 bd 94 c7 95 3d 16 0f 74 3d
       0.10074854 -0.09765023 0.07313457 0.0595847

decoder.decoder_net.6.running_mean f4 [32]
000000 1d 49 12 3e 1d 49 12 3e 1d 49 12 3e 1d 49 12 3e
       0.14285703 0.14285703 0.14285703 0.14285703
000010 1d 49 12 3e 1d 49 12 3e 1d 49 12 3e 1d 49 12 3e
       0.14285703 0.14285703 0.14285703 0.14285703
000020 1d 49 12 3e 1d 49 12 3e 1d 49 12 3e 1d 49 12 3e
       0.14285703 0.14285703 0.14285703 0.14285703
000030 1d 49 12 3e 1d 49 12 3e 1d 49 12 3e 1d 49 12 3e
       0.14285703 0.14285703 0.14285703 0.14285703
000040 1d 49 12 3e 1d 49 12 3e 1d 49 12 3e 1d 49 12 3e
       0.14285703 0.14285703 0.14285703 0.14285703
000050 1d 49 12 3e 1d 49 12 3e 1d 49 12 3e 1d 49 12 3e
       0.14285703 0.14285703 0.14285703 0.14285703
000060 1d 49 12 3e 1d 49 12 3e 1d 49 12 3e 1d 49 12 3e
       0.14285703 0.14285703 0.14285703 0.14285703
000070 1d 49 12 3e 1d 49 12 3e 1d 49 12 3e 1d 49 12 3e
       0.14285703 0.14285703 0.14285703 0.14285703

decoder.decoder_net.6.running_var f4 [32]
000000 e2 8c 82 3b bd 03 a3 3b 72 03 f1 3b ff d3 85 3b
       0.0039840797 0.004974811 0.007355147 0.00408411
000010 5d 27 87 3b 4b b4 92 3b 08 81 73 3b 31 6c 99 3b
       0.0041245655 0.004477059 0.0037155766 0.004682087
000020 6c 52 89 3b 72 c8 a4 3b a8 52 63 3b 2f b0 38 3b
       0.0041907337 0.0050287778 0.0034686718 0.0028181185
000030 c0 e7 47 3b 40 f2 f6 3b 6d 9f 5b 3b a0 18 d9 3b
       0.0030503124 0.0075362027 0.0033511773 0.00662525
000040 e2 46 6a 3b a1 0b 5b 3b 5d 9b d2 3b 4f eb 57 3b
       0.0035747816 0.003342368 0.006427212 0.0032946651
000050 c5 06 3f 3b 1d 6c c7 3b e2 35 a4 3b 5e 97 90 3b
       0.0029148322 0.006085886 0.005011306 0.0044125756
000060 7e ee a6 3b 86 57 76 3b 54 f3 31 3b 15 03 32 3b
       0.0050943485 0.003758879 0.0027153092 0.0027162482
000070 87 aa a6 3b d3 1a 18 3c 97 1d 0e 3c 20 eb d8 3b
       0.0050862464 0.009283739 0.008674047 0.006619826

decoder.decoder_net.7.weight f4 [32, 16, 3, 3]
000000 7b b8 8b 3d 45 bc c4 3d ca ca 88 3c 19 13 1b bd
       0.06822296 0.09606222 0.01669826 -0.03786001
000010 d7 22 c0 bd b5 05 e5 bd 26 f7 7c bd cc c9 7e 3d
       -0.09381645 -0.11182729 -0.061759137 0.062204167
000020 bb 6f 5f bc f9 de bd 3c 5d e6 91 bc 43 93 88 3d
       -0.013637478 0.02317761 -0.017810041 0.06668713
000030 ad 7c 1b 3d 36 50 3b 3b 0e 26 1c 3d 5d f4 7e 3d
       0.037960697 0.0028581745 0.03812223 0.06224476
000040 cf 1a b5 bd 06 27 ca 3b 94 9f 9a 3d ee e1 3d 3b
       -0.08843004 0.0061692027 0.07549968 0.0028973776
000050 e7 5f 0c bd 7b 08 20 bd e9 be 46 3d 36 21 ee bb
       -0.034271147 -0.039070588 0.04852191 -0.0072671426
000060 c1 a0 74 bd d6 eb d8 3d 0c f3 92 3c 76 be 07 3d
       -0.05972362 0.10591857 0.01793816 0.033140622
000070 57 fc 56 3c 3e 95 8b 3c ed ae 5e 3c 7f b2 cf b9
       0.013121686 0.017038938 0.01359151 -0.00039615107
000080 aa 3f ff bc 96 f7 9b 3d 03 f4 3b 3d bb 6e 54 bd
       -0.031158287 0.07615583 0.045887005 -0.051863413
000090 17 f1 5d bc 2b 3a ff 3c ec 82 a1 3d 87 09 f8 bc
       -0.01354625 0.031155666 0.078862995 -0.03027798
0000a0 b0 04 8f 3d eb 3c 71 bd e4 29 6e 3d 92 c2 d4 3d
       0.06983316 -0.058895987 0.05814542 0.10388674
0000b0 a9 75 6a 3d ec 13 41 bd 4a 7c a8 3d 7f 9b 85 3d
       0.057241116 -0.04713814 0.08226831 0.06523799
0000c0 1b 9b c4 ba 8a 15 47 bd 5f 6e fe 39 59 83 13 bd
       -0.0014999838 -0.048604526 0.00048528888 -0.036013935
0000d0 1c 7d f6 3c 7f d3 24 bc b8 fb 4e 3d d5 ce 71 3c
       0.030088954 -0.01006019 0.050533026 0.014758785
0000e0 bb 19 a0 3d b2 a6 9e 3c 3c 2d 22 bc 75 3b a5 bd
       0.07817408 0.019366596 -0.00989848 -0.08067981
0000f0 9f 09 60 3c cf e1 8d bc 7a 43 5e bd ac 4b 06 bc
       0.013674169 -0.017319588 -0.05426357 -0.0081967525
000100 fe 15 01 ba fe 30 0a 3c 16 7c e2 bc 56 21 f9 3c
       -0.00049242366 0.008434532 -0.02764706 0.030411404
000110 39 9d f9 3c 13 eb 7c 3d 07 00 41 bc 53 a4 d7 bc
       0.030470477 0.06174762 -0.011779792 -0.026323473
000120 aa 3f 93 3c 2a 47 00 bd 2b 5d 34 bd 73 1c 4f bb
       0.017974693 -0.031317867 -0.044034164 -0.003160265
000130 e7 4c 41 bd da 6a ad bd be 11 cc bc 98 96 74 bd
       -0.04719248 -0.08467646 -0.024910804 -0.05971393
000140 29 87 b7 3c 70 eb aa bd 82 71 47 bd 5d 54 05 3d
       0.022403317 -0.083456874 -0.048692234 0.03255116
000150 70 d3 b8 b9 3d 20 02 3e 2f 18 ec bb d9 30 3d 3c
       -0.00035252748 0.1270761 -0.0072050313 0.011547291
000160 e7 3c a5 3d 77 36 cf bc 76 97 c3 bc 64 c1 27 3d
       0.08068257 -0.025294526 -0.023875933 0.040955916
000170 77 50 35 bd b9 db 1d bd d6 e7 0d 3d 3f 82 80 bc
       -0.04426619 -0.038539622 0.034644924 -0.015687106
000180 d7 f1 07 bd 10 23 1c bc 22 c6 47 bc 5a 58 8e 3d
       -0.03318962 -0.009529844 -0.012193235 0.069504455
000190 b4 8e 95 bc 7e 2a 11 bd a4 66 4a 3a 22 8b 8a 3d
       -0.018256523 -0.035440914 0.0007720983 0.06764819
0001a0 0d 22 85 bc 82 ae d4 bc 3b c3 1c 3d 7e a1 a0 3b
       -0.016251588 -0.025962118 0.038272124 0.004902064
0001b0 73 0a ea bc 14 f6 e0 bd ad 82 18 3d 6a b2 40 bc
       -0.028569436 -0.10984436 0.037233997 -0.011761287
0001c0 5d 73 de bd c1 69 e6 bc 3a 50 a0 bd f4 e1 75 bd
       -0.108618475 -0.0281266 -0.07827802 -0.06002994
0001d0 c8 a6 9e 3d 47 54 84 bd 62 73 8b bd c9 fa ae bc
       0.07746655 -0.06461387 -0.06809117 -0.021359818
0001e0 ce db 67 bd 6c e7 1d bd 55 80 cc 3a c7 cd 78 bd
       -0.056606106 -0.03855078 0.0015602211 -0.06074312
0001f0 1b 78 36 3c 4c 35 33 bd 61 53 0e 3d 32 5c da bc
       0.011137034 -0.043752 0.034747485 -0.02665529
000200 88 f1 be 3c 38 76 88 bb 95 1b ce 3c 0f 82 49 3d
       0.02330853 -0.0041644834 0.025159637 0.0491963
000210 78 4c bc 3a 56 2a 70 bd 0f 59 6e bc 1c a3 db bb
       0.0014366051 -0.058634125 -0.0145476 -0.0067027938
000220 18 ac 9a 3d 0b 3f cb 3d d0 f1 00 bd 05 f2 67 3d
       0.075523555 0.09924134 -0.03148061 0.056627292
000230 1d 40 97 3c f6 7e 80 bd 9b 69 97 3d df 5b 44 3d
       0.018463189 -0.06274216 0.073931895 0.047939178
000240 db eb 05 bd 4c 31 54 bd 41 59 04 bd 3a 08 86 bd
       -0.032695632 -0.051804826 -0.03231168 -0.06544538
000250 07 e3 f1 bc 51 4d 1a 3d 24 c7 43 3d dd 55 a9 3c
       -0.0295272 0.03767139 0.047797337 0.020670826
000260 56 17 21 bc 77 6f 18 3a 7b da 47 bd 06 8a d5 bd
       -0.009832224 0.00058149494 -0.048792344 -0.104267165
000270 b4 dc 28 bc af 4a 5d 3d 63 f0 7c bd 62 a2 1b bd
       -0.010306526 0.054026302 -0.06175269 -0.037996657
000280 6c e2 ba bc 4d 57 ca 3d cd c1 7f bc 83 34 a8 3c
       -0.022813044 0.098799326 -0.015610171 0.020532852
000290 dd 43 e4 3c 43 a9 83 bc 55 10 24 bd cc e0 01 3d
       0.027864391 -0.016071921 -0.040054638 0.031708524
0002a0 21 74 f3 bc e2 f1 0d 3d df 2b 55 bd a8 12 16 bd
       -0.02971846 0.034654506 -0.05204379 -0.036638886
0002b0 72 12 27 3d dd f7 28 3d ba 86 02 bd e1 3f 7b bc
       0.040789075 0.041252006 -0.031866767 -0.015335054
0002c0 41 21 93 bb 64 8c 41 3d c5 60 bd 3b fd 83 02 bd
       -0.004490048 0.047253028 0.005779358 -0.031864155
0002d0 80 d9 1b bb bb e9 c8 bc 5b 17 6d 3d 3e c7 b3 3c
       -0.0023780763 -0.024525514 0.0578836 0.021945592
0002e0 17 ff 4d 3b ba 31 4e 3d c9 99 51 bc d6 c0 8f bb
       0.0031432563 0.05034039 -0.012793013 -0.0043870015
0002f0 fc 66 34 bd 25 b9 89 3c 76 a4 86 3d 59 31 66 bd
       -0.044043526 0.016811917 0.06574337 -0.056199405
000300 db ac 83 3c e2 27 7e bc 52 66 83 3c 10 ae 22 bd
       0.016073635 -0.0155124385 0.016040001 -0.03971678
000310 5c 10 49 bd 20 d8 e2 bb 0b 86 19 bb cb 97 b1 bc
       -0.049087867 -0.0069227368 -0.0023425843 -0.021678826
000320 91 c9 2b bd 92 52 a6 bc f8 93 56 3d 00 1f df bc
       -0.041940276 -0.020303044 0.052387208 -0.027236462
000330 eb d6 d5 3c 0e 1b 3e 3d c5 fc 15 3d 46 59 45 3d
       0.026103457 0.04641252 0.036618013 0.04818084
000340 39 a9 0d bd 93 ca 87 3d 7e 2a e8 3c 14 ce a3 3c
       -0.03458521 0.06630435 0.028340574 0.019995727
000350 c7 85 7e bd d2 1a a8 bc 7b 0a 67 bc fd cf ae bd
       -0.0621393 -0.020520601 -0.01410162 -0.08535764
000360 c5 f1 99 3c 0a 29 13 bd d0 28 ff 3c 8e a9 12 bd
       0.018792043 -0.03592781 0.03114739 -0.03580623
000370 16 f7 f2 bb e0 08 6c 3d 52 46 44 3c 9f e0 6e 3d
       -0.007414709 0.05762565 0.011979656 0.058319684
000380 93 80 22 3c cf 06 46 3d 43 fe 13 3d 6a 4f bb bd
       0.00991835 0.048346337 0.036131155 -0.091460064
000390 cc a2 10 bd 83 65 c5 3d bf 1d 15 3d 6d fb 86 3d
       -0.035311505 0.096385024 0.03640532 0.065909244
0003a0 ea 74 37 bd 26 54 49 bd f4 2a 2f bd f4 a1 1b 3d
       -0.044789232 -0.049152516 -0.042765573 0.037996247
0003b0 62 44 96 bc 16 ca 63 3d 8f de c5 bb c3 38 94 bd
       -0.018343154 0.055612646 -0.006038494 -0.07237389
0003c0 4c dc cc 3b 5e d0 7d 3d 86 67 6e bd 3c 55 a0 3c
       0.0062518474 0.061966293 -0.058204196 0.019571893
0003d0 1c 49 6b bd 87 a1 19 bd 6b bd 7c bd 28 30 58 3d
       -0.05744277 -0.03750756 -0.06170408 0.0527803
0003e0 cc 10 ab bc 8e c5 aa bd b5 2e 55 bd 1a 30 f1 3c
       -0.020882033 -0.08338462 -0.052046496 0.029441882
0003f0 07 70 83 bd 82 5b 32 bd 71 3a cb 3c c2 69 fd 3c
       -0.06417852 -0.0435443 0.02480814 0.030934218

decoder.decoder_net.7.bias f4 [16]
000000 f1 3d ce 3c a2 2f 99 3d 4a 9f 5b bd 04 c9 81 bd
       0.02517602 0.07479788 -0.053618707 -0.06337169
000010 f0 0d 8a 3d d8 6d 26 3d 67 c2 64 3b 93 80 3f bd
       0.067409396 0.0406321 0.0034905912 -0.046753477
000020 bb d2 cc bd 2f d5 6f bc 11 f1 a8 bd 7d b2 29 bc
       -0.10001131 -0.014638229 -0.08249105 -0.010357496
000030 4b 52 e7 3d b6 9a 94 3d 56 75 08 3d 2f 8c c9 bd
       0.11294993 0.07256071 0.033315025 -0.09841191

decoder.decoder_net.9.weight f4 [16]
000000 da 02 6e 3f 22 de 6f 3f 96 6e 7b 3f ad ce 6d 3f
       0.929731 0.9369832 0.98215616 0.9289349
000010 51 18 6e 3f f3 ea 64 3f bd 22 6c 3f dd 44 6e 3f
       0.93005854 0.89421004 0.92240506 0.9307383
000020 62 e6 70 3f fe 4e 6b 3f 60 95 69 3f a8 e3 68 3f
       0.94101536 0.9191741 0.91243553 0.90972376
000030 b8 18 63 3f 7e d2 5f 3f 12 4e 64 3f b0 ca 6f 3f
       0.8870959 0.8743056 0.89181626 0.9366865

decoder.decoder_net.9.bias f4 [16]
000000 70 89 f2 bd ba b3 73 3d df eb 2e 3d 76 4c ba 3d
       -0.118426204 0.059497572 0.042705413 0.09096615
000010 6b 76 9c be 47 c4 b0 bd 5a e8 fd 3d 16 c7 3c bd
       -0.30559096 -0.08631187 0.12397833 -0.0460883
000020 d0 59 f8 3d f1 16 2c bd 50 10 8b bd 11 d7 a0 3c
       0.121265054 -0.042014066 -0.06790221 0.019633802
000030 fa 91 08 bd 45 81 73 3d 62 17 c8 bd f0 fd 0d be
       -0.03334234 0.059449453 -0.09770085 -0.138664

decoder.decoder_net.9.running_mean f4 [16]
000000 1d 49 92 3d 1d 49 92 3d 1d 49 92 3d 1d 49 92 3d
       0.071428515 0.071428515 0.071428515 0.071428515
000010 1d 49 92 3d 1d 49 92 3d 1d 49 92 3d 1d 49 92 3d
       0.071428515 0.071428515 0.071428515 0.071428515
000020 1d 49 92 3d 1d 49 92 3d 1d 49 92 3d 1d 49 92 3d
       0.071428515 0.071428515 0.071428515 0.071428515
000030 1d 49 92 3d 1d 49 92 3d 1d 49 92 3d 1d 49 92 3d
       0.071428515 0.071428515 0.071428515 0.071428515

decoder.decoder_net.9.running_var f4 [16]
000000 c2 28 2f 3b d1 9f 82 3b 47 e0 71 3b ab b3 12 3b
       0.0026727174 0.0039863368 0.0036907361 0.0022384922
000010 4b 21 27 3b e6 ff 88 3a 7c fc 00 3b c1 14 0f 3b
       0.0025502022 0.001045224 0.0019681742 0.0021832439
000020 63 37 32 3b 09 6c 6e 3b 99 c0 fb 3a 84 87 26 3b
       0.0027193658 0.0036380312 0.0019207179 0.0025410363
000030 cf 92 b5 3a 9c 35 a7 3a 1f 60 a1 3a 62 f8 1f 3b
       0.0013852956 0.0012757066 0.0012311972 0.0024409522

decoder.decoder_net.10.weight f4 [16, 1, 3, 3]
000000 7e ae 5a 3e 89 d8 07 3e 3e ea a5 bd 21 2d 5a be
       0.21355626 0.13266195 -0.08101319 -0.21306278
000010 93 50 44 be ce 92 e5 3d 88 5f ef 3d e8 ec f5 bb
       -0.19171362 0.112096414 0.11688143 -0.007505048
000020 49 4d 17 3e 7d 6c bf bd a3 f9 50 3d bc 74 8c be
       0.14775576 -0.09346864 0.051019322 -0.2743281
000030 c1 33 eb bd 82 1e b0 bd b3 b6 9e 3d cf 85 8f bc
       -0.11484481 -0.08599569 0.07749691 -0.01751986
000040 c5 b8 5a be d9 e3 4c be 50 57 62 be bf 46 ab be
       -0.21359546 -0.20008792 -0.2210362 -0.33452412
000050 99 3d 39 be 64 d1 4e bc 84 7a 6b bd dc 9e 6e 3c
       -0.18089904 -0.012623165 -0.057489887 0.014564242
000060 be cb 51 be a1 b6 67 be 50 a2 c8 3d 7d 36 32 3d
       -0.20487878 -0.22628261 0.09796584 0.043508995
000070 9c 4e 79 3e 93 7c f6 3d fc 3b 7b 3e 03 f2 85 3e
       0.24346393 0.120354794 0.24534601 0.26161203
000080 0e d7 ae bd 04 3a 0a 3d 42 94 4b be 20 ef 64 be
       -0.08537112 0.033746734 -0.19880775 -0.22356844
000090 50 bc 8f be 47 21 4a be cd 12 05 bd 49 e9 26 be
       -0.2807336 -0.19739257 -0.032488633 -0.16299929
0000a0 0e 7f 8c bb aa f7 1f 3e c1 e5 77 3e ac 78 6f 3e
       -0.004287607 0.1562182 0.24208738 0.23385876
0000b0 a2 6c a4 bc 3a 3a 49 3d 7e a3 12 bd ef d2 cf 3c
       -0.020071331 0.049127795 -0.03580045 0.025369136
0000c0 2a 51 32 be b2 4c 50 be 5b b7 0e be a0 6e 8c bd
       -0.17413774 -0.20341757 -0.13937132 -0.068570375
0000d0 26 26 d9 bd 7c c7 8d 3d b5 4a fd 3d fe 71 49 be
       -0.10602979 0.06922814 0.12367765 -0.19672391
0000e0 c5 76 6b be 78 ca bd 3d 7a 54 8b 3d 2c 32 1f be
       -0.22994526 0.092671335 0.06803222 -0.15546483
0000f0 e4 2e cc 3c 0c 0f b3 3d 3e 56 1f 3d 4e e0 1c 3d
       0.024924703 0.08743104 0.038900606 0.03829985
000100 06 25 07 3d 2e b1 c8 bd 64 dd 76 3d 49 1b 11 3e
       0.032994293 -0.09799419 0.06026973 0.14170565
000110 05 b2 66 3e 29 08 90 bc 2d 40 4f 3e 20 99 fc 3d
       0.22528847 -0.017582016 0.20239325 0.12333894
000120 f1 0d e4 bd 46 87 4f be 90 92 02 3e 19 f5 74 3e
       -0.111354716 -0.20266446 0.12751222 0.23921622
000130 f1 77 0e be 09 cc 81 be f8 b3 74 be f9 98 47 3e
       -0.13912942 -0.2535098 -0.23896778 0.19491948
000140 33 04 17 3e 74 54 17 3e a1 ca 99 3d 74 c3 87 3e
       0.14747696 0.1477831 0.075093515 0.26516306
000150 8b 9b f9 3d c0 ea e3 3d b6 d1 d5 bd c1 0c 1b 3e
       0.121878706 0.111287594 -0.1044039 0.15141584
000160 37 d5 c3 3d c6 5a 47 3e cc 2c 09 3e 53 64 c4 bd
       0.09562152 0.19468221 0.13395995 -0.09589448
000170 18 6c 71 3d b5 9e 09 be 63 aa 49 bc 79 7a 5c bc
       0.058940977 -0.13439448 -0.01230869 -0.013456934
000180 de 1f 55 3d 3c af d1 bd ab c5 8d bd 86 e7 08 3e
       0.052032344 -0.102385014 -0.06922468 0.13369569
000190 f3 6c 7e bc 8c b9 67 be a1 ac 39 be 2d 10 2e be
       -0.015528905 -0.22629374 -0.18132259 -0.16998358
0001a0 18 02 14 bd cd 92 9d bb fb a3 d2 bd 9d 4f 77 bd
       -0.03613481 -0.00480876 -0.10285183 -0.06037866
0001b0 96 5c 2b be 48 c2 eb 3d 1a c1 cb bd 0e bc 9f bd
       -0.16734537 0.115116656 -0.099489406 -0.077995405
0001c0 b5 4d 93 3d 2f 85 94 3c 85 d6 d9 bd 05 f1 61 be
       0.07192556 0.018129913 -0.106366195 -0.22064598
0001d0 2c 0a 37 be f7 78 b7 3d 32 d5 32 bd 41 9f 3c bc
       -0.17874974 0.08958619 -0.04366035 -0.011512578
0001e0 62 11 99 bd 08 0d 15 be 85 37 db bd fa 15 a4 3d
       -0.07474019 -0.14555752 -0.10703949 0.08012004
0001f0 f2 e2 0c bd 4d ae f8 3d 42 93 46 be 8c c6 e8 bc
       -0.03439612 0.1214262 -0.19392112 -0.028414987
000200 ca f3 00 be d6 05 02 be 8f f9 e5 bd 29 2e a0 bd
       -0.12592998 -0.12697539 -0.1122924 -0.07821304
000210 dd 2f 52 bd 4f 2b 4b bd dc c4 f0 3d c1 51 6b be
       -0.051315177 -0.04960185 0.11756298 -0.22980405
000220 b3 f0 6e bd 7c 71 80 3e 67 77 16 3e 8d fd 37 3e
       -0.058335017 0.25086582 0.14693986 0.17967816
000230 01 4d 39 3d da e9 df bd 45 e7 73 3e 86 1a c3 3d
       0.045239452 -0.109332755 0.23818691 0.09526543

encoder.encoder_net.0.weight f4 [16, 1, 3, 3]
000000 25 80 18 3e a7 2b 0a be 3c 10 0a 3d 65 5b a3 3d
       0.14892633 -0.13493215 0.03370689 0.079764165
000010 4c 3c 08 be 71 dd 79 3e 05 69 5e 3e d4 90 aa 3d
       -0.13304251 0.2440088 0.2171975 0.08328405
000020 09 80 8f 3e 13 8c 1c 3e 46 1d 99 3e 0e f4 1f 3e
       0.2802737 0.15287809 0.29905146 0.15620443
000030 5f 51 69 3d 98 20 12 3e 32 5c 4c be 46 73 3b be
       0.056962367 0.14270246 -0.19957045 -0.18305692
000040 77 b8 88 3e ad ef ad be 3f bd 03 3b d8 8e 4d 3d
       0.26703236 -0.3397192 0.0020101813 0.050185055
000050 74 9d 55 3d 4f 02 80 3c 08 98 b7 3e 94 0a c3 bd
       0.052152112 0.0156261 0.35858178 -0.09523502
000060 93 11 37 bc 10 0e 62 bd fd 48 07 3e bc eb 40 3e
       -0.011173624 -0.055189192 0.13211437 0.18839926
000070 99 f5 3f 3e 99 2e 83 3d f8 a6 5b bd 59 42 80 3e
       0.18746032 0.06405372 -0.05362603 0.2505062
000080 c9 dd a1 3d d1 4f 7b be aa 12 b1 be 53 80 77 be
       0.0790363 -0.24542166 -0.34584552 -0.24170046
000090 83 57 0b bc 3d dc 86 be b6 f1 de 3d 64 50 72 be
       -0.008504751 -0.26339903 0.108859465 -0.23663479
0000a0 b5 b5 53 be f6 47 ae be b4 c5 95 be ac c4 2c 3c
       -0.20674784 -0.34039277 -0.29252398 0.010544937
0000b0 95 03 82 bc e1 89 f9 3b 94 f8 aa 3b b6 d2 5c be
       -0.015870849 0.0076153134 0.005217621 -0.21564755
0000c0 24 df cd bd 8a 20 8e be 91 b4 e1 bc ac a1 cb 3d
       -0.10052326 -0.277592 -0.027551921 0.09942946
0000d0 90 cc fa bd c6 ae a7 bd e2 17 1d bc 07 90 f2 3d
       -0.122460485 -0.08187632 -0.009588214 0.11843877
0000e0 29 58 93 bd cc 24 c0 be 9e 26 50 bc f2 96 98 3e
       -0.071945496 -0.37528074 -0.01270452 0.29802662
0000f0 78 6e 0c 3e a0 78 16 3e 0d 75 32 3e e4 e9 99 3d
       0.13714015 0.14694452 0.17427464 0.07515314
000100 b5 f2 86 bd 83 b7 69 bd be 75 15 be 1c f5 8e be
       -0.065892614 -0.057059776 -0.14595696 -0.2792138
000110 c5 c9 db bd 3c 56 64 be 57 65 6d be 23 f1 3c be
       -0.10731844 -0.22298521 -0.2318319 -0.18451361
000120 e5 12 9e 3e 80 58 af 3e f2 93 2d 3e bd 83 5d 3d
       0.3087379 0.34247208 0.16950968 0.054080714
000130 7a 3f 42 be 1a 84 6e 3e b8 e3 9b be 6b 81 56 be
       -0.18969527 0.2329258 -0.30447173 -0.20947807
000140 b9 37 9f 3e c9 67 69 be 03 5b c0 be 57 aa e6 3c
       0.310972 -0.22793497 -0.37569436 0.028157396
000150 68 1a 9c bd 64 96 3e 3e 89 f2 89 bd 48 c6 e8 bd
       -0.07622224 0.18612057 -0.06735713 -0.11365944
000160 8d 9f 81 be 05 69 5c be 3f 43 10 be bb 53 ac 3c
       -0.2531704 -0.21524437 -0.14088152 0.02103602
000170 ab 0f 99 3e 5a 08 80 bd 93 84 e9 bd 7a a5 69 be
       0.29894766 -0.06251593 -0.1140224 -0.2281703
000180 5e 0d 3a be b0 97 9e bd ad e9 ce 3c e2 a5 b5 be
       -0.18169162 -0.07743776 0.02525791 -0.3547812
000190 d6 3b 82 be b5 6d be bd f0 0c 2c be 0c e8 12 3e
       -0.25436276 -0.09298269 -0.1680181 0.14346331
0001a0 d6 7e b8 be 4f be 54 be 30 50 91 be fb 42 e5 3d
       -0.36034268 -0.20775722 -0.2838149 0.11194416
0001b0 2d 9b 6b be 51 bd 2d bc 11 80 97 3d 0c 29 25 be
       -0.23008414 -0.010604219 0.073974736 -0.1612894
0001c0 f3 e1 88 be ed cf af be 2a 32 46 3d 87 34 88 3d
       -0.26734886 -0.34338322 0.048387684 0.06650644
0001d0 d9 55 58 3d d0 a9 ad bd 02 75 81 3e 9e 80 8a be
       0.052816246 -0.08479655 0.25284582 -0.27051252
0001e0 c2 89 96 3d 7a fb c8 3d 1b d9 63 bd 39 6d d4 3d
       0.07350494 0.0981359 -0.05562697 0.10372395
0001f0 6e 56 bf 3d 03 10 9c 3e 01 57 98 be c2 c2 a4 be
       0.09342657 0.30480966 -0.2975388 -0.32179838
000200 de f2 63 3e 2b 83 fb 3d 4b f2 65 3d e3 c0 78 bd
       0.22260615 0.12280878 0.05613927 -0.060730826
000210 83 78 63 3e 68 52 4e 3e c3 b7 3f 3e 6f 3d 7b 3e
       0.2221394 0.20148623 0.18722443 0.24535154
000220 7a e7 2e 3e 75 33 f2 3d f9 f2 a6 bd b1 8d 87 3e
       0.17080489 0.11826221 -0.08151812 0.2647529
000230 c4 08 ae be a2 c1 63 3e d1 53 5f be 55 3b 0f 3e
       -0.33991063 0.22241834 -0.21809317 0.13987477

encoder.encoder_net.0.bias f4 [16]
000000 13 74 63 be 87 3b 6d be 69 db 2c be 8c c9 91 be
       -0.22212248 -0.23167239 -0.16880573 -0.2847408
000010 0c 25 fc bd 98 d8 6e be 96 0f 39 3e 4a 4a fb 3d
       -0.12311754 -0.23324811 0.18072352 0.12270029
000020 bb 1a 4b 3e 25 c5 9e bd 0e 88 96 3e c0 00 05 3e
       0.19834416 -0.07752446 0.29400676 0.12988567
000030 46 2f fc 3d dd 2b 91 bd 3f 7e 7e be af 6f 9a 3d
       0.12313704 -0.070884444 -0.24852847 0.07540833

encoder.encoder_net.2.weight f4 [16]
000000 22 10 7e 3f d5 fa 8f 3f ab c3 84 3f 61 be 83 3f
       0.99243367 1.1248423 1.0372213 1.0292474
000010 2f 54 93 3f 49 90 87 3f 1c fd 87 3f cd f9 8b 3f
       1.1510066 1.0590907 1.0624118 1.0935608
000020 59 d7 87 3f 3b 75 92 3f 22 a1 80 3f 1f f4 8a 3f
       1.0612594 1.1442026 1.0049174 1.085575
000030 cd 93 80 3f e0 dd 80 3f 12 52 82 3f 00 35 80 3f
       1.0045105 1.0067711 1.0181296 1.0016174

encoder.encoder_net.2.bias f4 [16]
000000 c9 28 c3 3d a5 79 5e 3d 8b fb 98 bd 70 ae 6e 3d
       0.095292635 0.054315228 -0.07469853 0.058271825
000010 3d 9e d4 3c 64 37 c9 3d fb a7 a8 3d 9c 76 46 bd
       0.02595436 0.09825018 0.08235165 -0.04845296
000020 a7 9a 06 3d b6 9a 96 bd 0d f9 86 3c be 00 1e 3d
       0.03286233 -0.073537275 0.016476179 0.038574927
000030 f2 82 4d bd 60 ed 5b bd 32 3f 13 3d 9b 76 02 bd
       -0.050173707 -0.053693175 0.03594894 -0.031851392

encoder.encoder_net.2.running_mean f4 [16]
000000 1d 49 92 3d 1d 49 92 3d 1d 49 92 3d 1d 49 92 3d
       0.071428515 0.071428515 0.071428515 0.071428515
000010 1d 49 92 3d 1d 49 92 3d 1d 49 92 3d 1d 49 92 3d
       0.071428515 0.071428515 0.071428515 0.071428515
000020 1d 49 92 3d 1d 49 92 3d 1d 49 92 3d 1d 49 92 3d
       0.071428515 0.071428515 0.071428515 0.071428515
000030 1d 49 92 3d 1d 49 92 3d 1d 49 92 3d 1d 49 92 3d
       0.071428515 0.071428515 0.071428515 0.071428515

encoder.encoder_net.2.running_var f4 [16]
000000 ac a6 39 39 5c 7a 17 39 39 04 86 38 0d 3f f5 38
       0.00017705065 0.00014446065 6.3904045e-05 0.000116942545
000010 6e 09 8f 39 27 ec e5 38 33 22 e6 38 6d b4 8c 39
       0.0002728211 0.00010963558 0.00010973625 0.00026837309
000020 63 f6 7d 39 44 87 53 39 7f 28 88 38 6d 64 b1 39
       0.00024219746 0.00020172918 6.492528e-05 0.00033834894
000030 33 7d 07 39 98 6d d2 38 0f 33 18 39 4d 86 f0 38
       0.00012921244 0.00010033994 0.0001451487 0.00011469107
