miniproject2/experiment_6/model.pt (torch, 140599 bytes, 37 tensors)

prior.mean f4 [2]
000000 00 00 00 00 00 00 00 00
       0.0 0.0

prior.std f4 [2]
000000 00 00 80 3f 00 00 80 3f
       1.0 1.0

decoder.decoder_net.0.weight f4 [512, 2]
000000 eb 77 07 3e a5 59 06 3e 42 6c 38 3f 6e ea 28 3e
       0.13229339 0.13120134 0.7204019 0.16495678
000010 ba 94 de be 2d ac 9b 3b 5e ad 83 3e 5e 8f 92 3e
       -0.43472844 0.0047507496 0.25718206 0.28625005
000020 7d 43 f4 3c cd a5 df be 06 43 83 be 95 5c 0f be
       0.029817337 -0.43681183 -0.25637072 -0.14000161
000030 9c ce 97 3e 52 78 3a 3e a6 da ed be 8c 64 c3 3e
       0.29649818 0.18209961 -0.46455878 0.3816265
000040 90 21 10 3f cf 77 c7 3c 41 b4 96 be 41 42 84 be
       0.5630121 0.024349121 -0.29434398 -0.25831798
000050 d4 0b 16 bf 6b f4 57 be fa 4c 5b bd 89 14 fc 3e
       -0.586118 -0.21089332 -0.053540207 0.49234417
000060 f3 ff 00 3e a8 3d 4d bd 37 17 bf be 77 fa ff 3e
       0.12597637 -0.050107628 -0.373224 0.49995777
000070 a3 56 d1 be 9d 7f 00 be 79 60 90 bd 3e 21 17 bf
       -0.4088641 -0.1254868 -0.07049651 -0.590351
000080 30 03 15 3f 2e ba ed be fd 68 b8 3e 73 2d 0c 3e
       0.5820799 -0.46431106 0.360176 0.13689213
000090 10 94 85 be 4b bd 17 bf cb af 05 3f e3 bc 65 be
       -0.26089525 -0.59273213 0.52221364 -0.22435336
0000a0 20 a5 1b 3f 1d a0 c6 bd cc 9b 1c 3f 1b df ce 3e
       0.60798836 -0.09698508 0.6117523 0.4040459
0000b0 46 81 70 be ee 16 47 be e6 38 15 3d cb 60 bc 3e
       -0.23486814 -0.1944234 0.036431216 0.36792597
0000c0 de 0c 9b 3d 82 f4 89 be 09 32 90 3d b1 dd d7 3b
       0.075708136 -0.26944357 0.070407934 0.006587707
0000d0 64 3a 2e 3f 49 ea 9f 3e 12 da db be 9c b0 0c bf
       0.6805785 0.31233433 -0.42939812 -0.54956985
0000e0 b6 10 05 bf a8 05 32 3e 69 b3 af 3d 9f 55 e9 bd
       -0.51978624 0.1738497 0.08579142 -0.11393284
0000f0 5a b8 26 3e 8f 3d 17 3f 3e d4 73 bc 63 ec c7 3e
       0.16281262 0.59078306 -0.014882145 0.39047536
000100 08 08 d4 bd 76 90 df 3d d5 1b ed 3e 65 83 85 be
       -0.10353094 0.109162256 0.46310297 -0.2607681
000110 c5 30 c3 be 0e 13 65 be d6 f0 5e 3e 12 28 ab be
       -0.38123146 -0.2237055 0.21771559 -0.3342901
000120 3f bd 27 3f 7b 89 96 3e f9 a9 0d bf 55 4d 53 be
       0.6552314 0.29401764 -0.5533748 -0.20634969
000130 16 41 14 3f d2 c4 63 be 18 8f 2e bf d1 24 ba 3e
       0.57911813 -0.2224305 -0.68187094 0.36356214
000140 cf b2 df be 23 4f 20 be 26 ea 48 be 94 81 97 be
       -0.43691108 -0.15655188 -0.1962057 -0.29591048
000150 80 03 37 3f c3 de c3 3e 35 c7 8d be 62 4a 0c bd
       0.71489716 0.3825589 -0.27691045 -0.034250624
000160 50 1f a2 be 9c fd ea 3c 10 08 a4 3e 95 ac 90 bd
       -0.31664515 0.028685383 0.320374 -0.070641674
000170 e5 62 7c 3e ef 59 52 be 76 82 19 bf 60 7a 3b 3f
       0.246471 -0.2054212 -0.5996469 0.73233604
000180 45 32 1b 3f b6 c7 7f be bb 9f 96 be 75 1a 2e be
       0.6062358 -0.24978527 -0.2941874 -0.1700228
000190 d9 50 d0 3e 57 6a 1b 3f 24 16 90 3e 2d 96 1e be
       0.40686682 0.60709137 0.28141892 -0.15486975
0001a0 7c 67 b4 3d a3 b0 53 3e 0b 0b 08 3e f5 62 19 3f
       0.088088006 0.2067285 0.13285463 0.5991662
0001b0 8d f4 89 3e 7e 01 13 bf 7a a6 1a bf 37 91 f5 3e
       0.2694439 -0.5742415 -0.60410273 0.47962353
0001c0 7a f1 3e be 04 f8 7e be dc 79 a9 3e d6 66 23 be
       -0.18646803 -0.24899298 0.33100784 -0.15957198
0001d0 90 97 0d bf b5 c5 a5 be cf 55 41 bd c7 81 9e be
       -0.5530939 -0.323774 -0.047200974 -0.30958387
0001e0 81 74 a2 3e 30 14 63 be 14 94 4b 3f 1c e5 7e 3e
       0.3172951 -0.2217567 0.79522824 0.24892086
0001f0 85 0f ab be 73 f8 1e bf 60 4d e2 be 3d 50 e1 3e
       -0.33410278 -0.62097853 -0.44199657 0.4400653
000200 db 3a 6c be 38 10 9b bb 86 2f 15 3f c8 70 2e be
       -0.23069327 -0.004732158 0.5827564 -0.1703521
000210 96 e2 cf bd 67 39 e3 be ec dc 13 3f 93 4f 81 3e
       -0.1015064 -0.44379732 0.57758975 0.25256023
000220 05 58 c6 bd 73 34 ad be 9f 25 0d 3f 93 b6 b7 3e
       -0.09684757 -0.33829078 0.5513553 0.3588148
000230 49 a5 4d 3e 9c e2 88 3e 1b b3 2e 3f 7c 68 66 3e
       0.20082583 0.2673539 0.68242043 0.22500795
000240 fa b2 21 bf 55 b0 cb be 86 f9 d8 be fd ca 31 3f
       -0.6316372 -0.39782968 -0.4237787 0.6945036
000250 52 ab c0 3e a1 9c bd be 2d 48 37 3e 40 e8 a9 be
       0.37630707 -0.3703356 0.17898627 -0.33185005
000260 8d 4a 24 3f d4 5a 26 be 70 a8 ae 3e e2 6e ed 3e
       0.64176255 -0.16245586 0.34112883 0.4637366
000270 d3 89 01 3f 5d 95 bf bd 98 b3 1b 3f d9 8e 15 3e
       0.5060093 -0.09354661 0.60820913 0.14605273
000280 fa 18 a2 bd 46 1f f1 be e9 27 0a 3e e9 8f 5b bd
       -0.0791492 -0.47094172 0.13491787 -0.05360404
000290 41 4a ce bd af d9 14 bf 9d 96 06 3f 71 d3 96 be
       -0.100727566 -0.5814466 0.5257357 -0.29458192
0002a0 9b 52 70 be d7 81 00 be 3f 85 f1 bd 4a ea b8 be
       -0.23469011 -0.1254953 -0.11792993 -0.36116248
0002b0 ce 9e 20 3f 0f 7a 49 3f 9c f0 f1 be 8d 05 c7 be
       0.62742317 0.7870187 -0.47253883 -0.38871422
0002c0 ac 08 70 3d fb 29 d1 3c 29 5f 9f be a8 ff 21 bf
       0.05860202 0.025532713 -0.3112729 -0.63280725
0002d0 2f 78 2f 3f bb 0f 79 be c9 18 1e 3f eb 5c 87 be
       0.6854276 -0.24322407 0.6175657 -0.26438078
0002e0 39 07 01 be 10 c3 c4 3d 93 f8 8d 3d 7f 92 62 bd
       -0.12600411 0.09607518 0.069321774 -0.05531549
0002f0 d1 6f 6a be ac c0 2e 3f 03 06 b5 3e 7b 99 e7 3d
       -0.22894217 0.68262744 0.3535615 0.11308571
000300 63 55 1e 3f e4 40 f9 3d ef 90 40 3f 13 d3 64 bc
       0.6184904 0.1217058 0.7522115 -0.01396634
000310 5e b2 28 3f 61 b5 4f 3e b8 36 e6 be e6 2e d4 be
       0.65897167 0.20284034 -0.44963622 -0.4144203
000320 c7 8b 3f bf 73 2d 50 3e 11 ea 8c 3e e7 dc 2a 3f
       -0.7482266 0.20329838 0.27522328 0.6674332
000330 be 29 e1 be 6f 74 e9 bd 32 33 28 bf 87 06 c9 3e
       -0.4397716 -0.11399161 -0.6570312 0.39262792
000340 31 b1 d7 bd cd 8d 80 be 7b f2 4a be 68 d4 2a 3e
       -0.105318435 -0.25108185 -0.19819061 0.16682589
000350 8d e3 14 3f c5 fa 8a be 95 c8 e7 3c a8 0c c5 be
       0.58159715 -0.27144447 0.028293887 -0.38486218
000360 69 62 91 3e 27 6c d5 3c 9a 23 94 3e b7 41 cc 3e
       0.28395393 0.026052548 0.28933412 0.39893886
000370 45 74 8b 3e 0d 23 ec bd 39 a7 29 bf b4 ab e5 bc
       0.27237144 -0.11530123 -0.66270787 -0.028035976
000380 4d 08 9b be 58 2c 44 3c 20 31 fe be 3d f2 74 3d
       -0.3027977 0.011973463 -0.49646854 0.05980133
000390 52 37 2d bf 75 6c 99 3e b8 01 e1 be bf b2 22 bd
       -0.6766254 0.2996556 -0.43946624 -0.039721247
0003a0 f6 a0 21 3f 88 e2 a5 3d 1e cb fa be 8a a5 ed be
       0.6313623 0.08099848 -0.4898309 -0.4641536
0003b0 99 96 02 3e 01 c0 1f bf 1a f2 03 3f f3 e9 28 3d
       0.12752761 -0.6240235 0.5154129 0.041238736
0003c0 4d 26 15 bf d4 23 81 39 e8 04 13 3f db 8f 57 be
       -0.5826157 0.0002463149 0.5742936 -0.2105097
0003d0 42 1e 22 bf 4d ee 09 be 7d 2a 04 bf c4 64 a3 3e
       -0.6332742 -0.13469811 -0.5162733 0.31912816
0003e0 f2 24 ca be 3b 7a bb be 9b bf ff be 62 ad 00 3f
       -0.39481312 -0.36616692 -0.4995087 0.5026456
0003f0 67 bf 06 bf e5 87 9d 3e 44 95 c7 be 72 ad 8f be
       -0.52635807 0.30767742 -0.38981068 -0.28062016

decoder.decoder_net.0.bias f4 [512]
000000 18 44 97 bd 48 12 ae be 29 fa 9f bd 31 35 30 3f
       -0.07386035 -0.33998322 -0.07811386 0.68831164
000010 08 9e 81 3e 41 40 18 3f 70 89 0f 3f 92 5a 1c bf
       0.2531588 0.59473044 0.5606909 -0.610757
000020 5e 42 dc be 3c 7b 46 bf 5f 29 c3 bd c0 05 6e 3e
       -0.43019384 -0.7753179 -0.09529375 0.23244381
000030 a5 2d 14 bf fa 16 5b 3d f9 29 74 be 0a 8e d9 be
       -0.5788215 0.05348871 -0.23844136 -0.4249118
000040 8d 6d 5f be c2 c3 5b be 5b d0 fb 3c 58 5a 05 bf
       -0.21819134 -0.21461394 0.030739 -0.5209098
000050 5c 59 bf 3a 6a ae 07 bf 38 65 f9 3e 86 b0 ac be
       0.0014598775 -0.5300051 0.48710036 -0.33728427
000060 58 6c 04 3f 6d a4 0c 3f 82 ab 01 bf 5a e3 01 bf
       0.5172782 0.54938394 -0.50652325 -0.50737536
000070 13 5d cf be 21 e6 46 3e 9a cd 11 be 6a ee 8b 3e
       -0.40500697 0.19423725 -0.14238587 0.27330333
000080 c8 93 0b bf cc 08 90 3e 50 4b 27 3e 44 bf 9e 3e
       -0.5452237 0.2813171 0.16337323 0.310053
000090 e2 c4 e5 be 0d 40 ae 3e f4 b8 eb 3e 2a 9e 09 3f
       -0.44876772 0.34033242 0.46039546 0.53756964
0000a0 e3 7e 3e 3e f2 a3 75 3e 64 4c b7 be d1 ee 05 3f
       0.18603091 0.23988321 -0.3580047 0.5231753
0000b0 44 ac 8d bd be f9 ac be bc e3 7d 3d 2f 49 13 3f
       -0.06917623 -0.33784288 0.061984763 0.57533544
0000c0 b6 9e ec be 77 7f 4c 3e 16 d9 00 be 00 52 3c bf
       -0.46214837 0.19970499 -0.12582812 -0.7356262
0000d0 dc d8 c9 3e 03 c6 18 3f 7f c2 9e 3e 05 b9 19 bf
       0.39423263 0.5967714 0.31007764 -0.6004794
0000e0 9e e3 61 3d 06 1d aa 3d 34 5e 3c be 6a 28 21 bf
       0.055148713 0.08306317 -0.1839531 -0.6295229
0000f0 0c bc 82 be d4 a4 a9 be a7 fa d3 3d 4d 75 19 be
       -0.25534093 -0.33133566 0.103505425 -0.14986153
000100 b9 b1 5a 3e 2f 88 89 3f b3 02 41 3d 82 49 61 bc
       0.21356858 1.0744685 0.047121715 -0.013750436
000110 68 27 63 3e 48 e9 38 bd d8 b9 a0 3e 27 57 ef 3e
       0.22183001 -0.04514435 0.31391788 0.4674618
000120 91 e5 8e bd 74 62 9b be 80 98 70 3e ff 74 e7 3e
       -0.0697738 -0.3034855 0.23495674 0.45206448
000130 a4 b0 ac 3d 1b c3 35 be d9 ec f3 3e 83 a2 51 3e
       0.08432129 -0.17750208 0.47641638 0.2047215
000140 6c bf 65 3c c9 81 fb 3e c9 aa f0 be 7c 99 c4 3d
       0.014022689 0.49122456 -0.470053 0.09599587
000150 af 32 78 3c bf 4c 56 bf 58 8f de bd ec a5 4b be
       0.015148803 -0.83710855 -0.108671844 -0.19887513
000160 40 53 16 bf f7 64 2e bf f3 4b 20 bf 19 64 17 3f
       -0.5872078 -0.6812281 -0.6261589 0.5913711
000170 e1 b6 4e bf 3f a3 20 be a0 88 de be 35 8e d4 be
       -0.807478 -0.15687273 -0.43463612 -0.41514745
000180 9f 52 d2 be ac de 32 3f b9 65 c0 be 7f f5 31 3f
       -0.4107866 0.6987102 -0.37577608 0.6951522
000190 a0 3d 1e 3f e0 39 49 3e 0a ff c6 3e 1f 01 3a bf
       0.6181278 0.19650984 0.38866454 -0.7265796
0001a0 fb 8c ae be 13 ed 81 be 3d 81 14 3f 4d af e6 3e
       -0.34091935 -0.25376186 0.580097 0.4505562
0001b0 3f 4a 52 be 2c 5d 9c bd a8 43 3b bf 89 6a 2a be
       -0.20536135 -0.076349586 -0.7315011 -0.16642202
0001c0 ff be 37 3d e9 71 6f bd e5 03 0a 3f 3c 29 68 be
       0.044859882 -0.058458243 0.5391219 -0.2267198
0001d0 26 fa 27 be fa 33 ed 3d c6 02 16 be dc b8 07 3f
       -0.16404018 0.11582179 -0.14649495 0.5301645
0001e0 a8 bf 6c 3c 41 a2 33 bf 8c 12 48 bf 04 2b ee 3e
       0.014449991 -0.70169455 -0.781533 0.46517193
0001f0 ef 0b 00 bf 96 d9 d7 bd 5d 2e 09 bf b8 47 9c be
       -0.5001821 -0.10539548 -0.5358637 -0.30523467
000200 7f eb 83 3e 06 54 21 bf bd 2d 22 bf 91 df c6 3e
       0.25765607 -0.63018835 -0.6335104 0.38842443
000210 f5 cf 98 be 08 ae c2 be c7 0b 15 be f3 6f ff be
       -0.2984616 -0.380234 -0.14555274 -0.49890098
000220 86 7d 3c 3f c5 e4 9f be 3f e8 dd bd 46 38 4b be
       0.73629034 -0.31229225 -0.10835313 -0.19845685
000230 34 3b 07 bf 9f 21 93 bd 32 a8 32 bf 19 34 ce be
       -0.5282471 -0.07184147 -0.69787896 -0.40274122
000240 19 c1 b0 3e 95 6f dd be 27 81 39 bf 72 41 c7 3d
       0.34522322 -0.43249193 -0.72462696 0.097292796
000250 3d 31 d0 3e d0 5c 2b 3e 12 16 00 bf ec 81 20 3f
       0.40662566 0.16734624 -0.50033677 0.62698245
000260 65 f5 2b 3f f8 d8 34 3e 0a 9f 31 3f c1 a0 93 3e
       0.6717132 0.17660892 0.693833 0.28833583
000270 a3 7e 17 3f 1a 50 39 bf 64 c8 7a bd 81 76 c0 bd
       0.5917761 -0.7238785 -0.061226264 -0.09397603
000280 20 c4 7f be 2e 0d 10 be 17 c2 5c bf 25 4c 27 3f
       -0.2497716 -0.14067528 -0.8623366 0.6535056
000290 c6 8a bb be c5 26 22 bf 6c 3f ad 3e af 9d 24 3f
       -0.36629313 -0.6334041 0.3383745 0.64303106
0002a0 75 6a 16 bd d0 08 f2 3e 86 72 3e 3d d1 e3 f5 3e
       -0.03672262 0.47272348 0.046495937 0.48025373
0002b0 3b 3c 7b 3e da a4 58 be 61 c0 26 bf 2d ee cc 3e
       0.24534695 -0.21156636 -0.65137297 0.40025464
0002c0 a1 4a 1f 3f 86 9d d7 be 35 b4 c2 3d 8d 70 1a bf
       0.6222325 -0.42112368 0.09507028 -0.6032799
0002d0 dc de 3e bf d3 78 f0 3e b5 d7 d4 3e 0e 66 0e bf
       -0.74558806 0.46967182 0.4157082 -0.55624473
0002e0 cd 34 1f bf b1 ff 65 3e 87 36 89 be 09 81 af 3e
       -0.6218994 0.2246082 -0.26799414 0.34278134
0002f0 35 bd 8e be 1a 00 e7 be a5 72 15 3f b0 9a 03 3f
       -0.27878729 -0.45117265 0.5837806 0.5140791
000300 79 a7 2d bc fe a9 73 bd 7b 8d e3 be 58 7d cb be
       -0.010599011 -0.05948829 -0.4444388 -0.39744067
000310 e4 6d 8c be 92 29 8b bd e9 79 2c 3e 9b e7 08 3f
       -0.2742759 -0.06795038 0.1684338 0.534784
000320 da 36 a2 3c fa f2 f0 3e 9f a7 b6 3e ba c4 ff 3e
       0.019801546 0.47060376 0.3567476 0.49954778
000330 16 04 1e bf c7 3b 25 3e 15 7e dc 3e b4 ee a5 be
       -0.61724985 0.16136084 0.43064943 -0.3240868
000340 1d 38 0d bf d8 70 34 3e 2f f0 6c bf 7b d4 19 3f
       -0.5516375 0.17621171 -0.9255399 0.60089844
000350 60 75 f6 3e 9b f5 7f 3d 34 4b 39 3f 08 b2 81 bd
       0.48136425 0.062490087 0.72380376 -0.06332785
000360 0a 48 13 3f d3 fe 05 3e 90 f9 3c bf 58 ca 02 bf
       0.575318 0.13085489 -0.738183 -0.5109
000370 71 55 f6 be fa b3 c3 3e 4a 7c b3 be 92 81 e6 3e
       -0.48112062 0.3822325 -0.35055763 0.4502073
000380 34 11 97 3d 20 55 1d bf 37 ae 1b be cb 80 e4 be
       0.07376328 -0.61458015 -0.15203176 -0.4462951
000390 5e b5 ea 3e 9f 78 65 3e 97 63 b0 be fe 98 a4 3e
       0.45841497 0.22409295 -0.3445098 0.32147974
0003a0 02 35 ea be 5d 9b 37 be dc 87 42 bf e5 65 b2 3e
       -0.45743567 -0.1793036 -0.75988555 0.34843364
0003b0 26 91 c4 bd 31 eb 3c 3d bc ed 3e bf 79 37 0a 3f
       -0.09597997 0.046122734 -0.74581504 0.53990895
0003c0 c8 00 2a bf e1 bc b9 bd 2d 42 2a bf 4e 54 31 3e
       -0.6640744 -0.09069229 -0.66507226 0.17317316
0003d0 b1 1d 3c 3f bc 49 0d bf 2d d1 8e bd 7c a6 92 3e
       0.73482805 -0.55190635 -0.06973491 0.28642642
0003e0 f7 93 d5 3e 80 db 47 3e b4 1c 0a 3f 9d 3a 36 be
       0.4171445 0.19517326 0.5395005 -0.17795797
0003f0 94 e2 3d bf 6e c9 22 3f b0 1e 93 be 3b 76 06 3e
       -0.74173856 0.6358861 -0.2873435 0.13131039

decoder.decoder_net.3.weight f4 [32]
000000 97 51 78 3f 66 6f 7d 3f e9 42 80 3f 8e 24 7d 3f
       0.96999496 0.98998106 1.0020419 0.98883903
000010 79 f8 8a 3f c3 8e 85 3f 0b d6 75 3f 9c 5f 79 3f
       1.0857078 1.0434192 0.9602973 0.97411513
000020 8c a5 8c 3f 03 db 89 3f 96 43 7d 3f 1a 52 75 3f
       1.0988021 1.0769962 0.9893125 0.958284
000030 2c 9a 7c 3f 2b d0 83 3f 80 d2 7c 3f 3a 3f 87 3f
       0.9867275 1.0297903 0.987587 1.056617
000040 2b 6b 8d 3f 7e f3 86 3f 4b eb 81 3f b6 80 8c 3f
       1.104833 1.0543058 1.0149931 1.097678
000050 ac 60 90 3f 4d cc 86 3f cf 18 81 3f 09 6a 7e 3f
       1.1279502 1.0531098 1.0085696 0.99380547
000060 4e ab 7d 3f 80 07 87 3f c4 2b 81 3f 22 35 7e 3f
       0.99089515 1.0549164 1.0091481 0.99299824
000070 9c 36 83 3f cf 7f 7d 3f e4 e2 85 3f 2e 97 6e 3f
       1.025104 0.99023145 1.0459867 0.9319943

decoder.decoder_net.3.bias f4 [32]
000000 51 d7 48 bc 3f ad b7 bc 73 f7 20 3d 0c 58 00 bd
       -0.012258367 -0.022421477 0.039298486 -0.031333968
000010 72 83 5e 3c 43 ec 23 bd 9c 18 50 bd 60 bc b4 bc
       0.013581144 -0.04002024 -0.05080472 -0.02206248
000020 43 2c c0 3d 92 1f fe bc ab e0 c1 bd aa a9 09 bd
       0.09383442 -0.031020913 -0.0946668 -0.03360907
000030 5b 32 56 bd 51 5e b0 bd 0b 84 fb 3d ae 60 42 3d
       -0.052294116 -0.086117394 0.122810446 0.047455482
000040 f0 be 12 bc 47 ed 2f bc 3a 0e 95 bb e0 aa b6 3c
       -0.008956656 -0.010737724 -0.004548815 0.022298276
000050 3c f9 1b bb 6f 67 b2 bc ac f4 ce bc 91 a5 83 bc
       -0.0023799678 -0.021777837 -0.025263153 -0.01607016
000060 a2 85 15 3d 52 8e b3 3c 09 a0 31 3d a0 4e 4f bd
       0.036504395 0.02191845 0.043365512 -0.050612092
000070 40 cc 01 bc 8c 79 a0 3d 3f f7 07 bd 41 ec b5 3c
       -0.007922232 0.07835683 -0.033194777 0.022207381

decoder.decoder_net.3.running_mean f4 [32]
000000 fc ff 7f 3e fc ff 7f 3e fc ff 7f 3e fc ff 7f 3e
       0.24999994 0.24999994 0.24999994 0.24999994
000010 fc ff 7f 3e fc ff 7f 3e fc ff 7f 3e fc ff 7f 3e
       0.24999994 0.24999994 0.24999994 0.24999994
000020 fc ff 7f 3e fc ff 7f 3e fc ff 7f 3e fc ff 7f 3e
       0.24999994 0.24999994 0.24999994 0.24999994
000030 fc ff 7f 3e fc ff 7f 3e fc ff 7f 3e fc ff 7f 3e
       0.24999994 0.24999994 0.24999994 0.24999994
000040 fc ff 7f 3e fc ff 7f 3e fc ff 7f 3e fc ff 7f 3e
       0.24999994 0.24999994 0.24999994 0.24999994
000050 fc ff 7f 3e fc ff 7f 3e fc ff 7f 3e fc ff 7f 3e
       0.24999994 0.24999994 0.24999994 0.24999994
000060 fc ff 7f 3e fc ff 7f 3e fc ff 7f 3e fc ff 7f 3e
       0.24999994 0.24999994 0.24999994 0.24999994
000070 fc ff 7f 3e fc ff 7f 3e fc ff 7f 3e fc ff 7f 3e
       0.24999994 0.24999994 0.24999994 0.24999994

decoder.decoder_net.3.running_var f4 [32]
000000 82 88 ae 3d f1 da 5b 3d c6 d8 9f 3d d8 7f 89 3d
       0.085221305 0.053675596 0.07805018 0.067138374
000010 49 49 6d 3d c3 bd 62 3d e0 1d 97 3d 01 6f dc 3d
       0.05793122 0.055356752 0.07378745 0.1076336
000020 93 03 a3 3d 6e 2a 35 3d b6 2e 84 3d e2 7a 83 3d
       0.07959666 0.044229917 0.06454222 0.064199224
000030 d3 61 ae 3d 9c ae 56 3d ff 30 46 3d 83 bc 8b 3d
       0.08514752 0.052412614 0.04838657 0.06823065
000040 83 ba 8a 3d 46 26 be 3d a9 41 a4 3d 99 b8 86 3d
       0.067738555 0.09284644 0.08020336 0.06578178
000050 07 1d 84 3d 92 f1 8a 3d ef e4 5c 3d 59 8a 3a 3d
       0.06450849 0.06784357 0.053929266 0.045542095
000060 5e 06 4c 3d c2 31 3f 3d cf 55 97 3d 43 c9 9a 3d
       0.04981076 0.046678312 0.073894136 0.07557919
000070 d5 83 84 3d 48 39 8e 3d 79 41 8a 3d c1 0f 6f 3d
       0.064704575 0.06944519 0.06750769 0.058364633

decoder.decoder_net.4.weight f4 [32, 32, 3, 3]
000000 ab 29 ac 3c a4 7e 63 3d 20 77 1f 3c cc 69 37 bd
       0.021015963 0.055540696 0.009732991 -0.04477863
000010 ac cb 01 3c aa 89 bf 3b 5a b0 84 3c 69 62 23 bd
       0.007922094 0.0058452683 0.016197372 -0.039888773
000020 80 c9 54 3d 00 69 38 3c f6 ff 88 bd bf 4a 58 bc
       0.051949978 0.011255503 -0.06689446 -0.013201415
000030 1d 3f db 3c a0 d4 7f 3d 53 61 2b bd 6d bb 90 bd
       0.026763493 0.062458634 -0.041840862 -0.07066999
000040 eb df b9 3d 9f 07 fe bc fc d4 32 3d 8e c0 8d 3c
       0.09075912 -0.031009493 0.04366015 0.017303731
000050 3a ef 19 bc cd 06 4c 3d 12 6d ab bb b5 91 08 3c
       -0.009395415 0.049811173 -0.005231508 0.0083355205
000060 ef d1 3e 3d 82 6e 6a 3d fd 9c ea bc 06 e5 1f 3c
       0.046586927 0.057234295 -0.028639311 0.009759193
000070 ee d0 33 3d 60 ec a9 3c 56 68 51 bd 3b 69 7b bc
       0.043900423 0.020742595 -0.051124893 -0.015344913
000080 89 78 ae 3c a1 ee 14 3c fb a4 cd 3c 75 43 11 3d
       0.02129771 0.009090097 0.025103083 0.035464723
000090 55 b4 63 bd bc a3 a7 3c 05 f3 1e bc 9a 23 72 3c
       -0.0555919 0.020463817 -0.009701495 0.014778996
0000a0 b6 62 90 bc 4c 2f f4 3a 01 a3 8c bd 5d 1e 8d bd
       -0.017625194 0.0018629818 -0.06867028 -0.06890557
0000b0 d5 43 2f 3d aa b2 66 3d 76 ef 37 3c 9a 14 ca 3c
       0.0427893 0.05632273 0.0112265255 0.024668027
0000c0 8f cd b0 3c 9a 5e 58 3d b3 e6 8a bc d7 8f cc bc
       0.021582393 0.052824594 -0.01695571 -0.024970932
0000d0 82 5b 01 3d 9a d2 3b 3d 55 30 2a bd 19 a6 56 bd
       0.03158141 0.045855142 -0.04155 -0.052404497
0000e0 44 6e e1 bc 0f 15 a1 3b 56 59 fb 3c 26 f8 01 bd
       -0.027518399 0.0049158405 0.030682247 -0.031730793
0000f0 b7 a2 9a bc bc d0 87 bc 06 7a 9e bc a6 81 e3 bc
       -0.018876417 -0.016579024 -0.019345295 -0.027771782
000100 a8 83 89 3d 6a 03 f7 3c ef 94 ec bc b7 20 60 3d
       0.067145646 0.030152995 -0.02887961 0.0547187
000110 60 bd 38 bd 57 c9 64 3d e1 ea ba bc 4a 6b ab bd
       -0.045102477 0.055856075 -0.022817077 -0.08370073
000120 93 af 34 bd 89 2a 7e 3c 2e 6d b1 3c 22 63 bd 3c
       -0.044112753 0.015513071 0.021658506 0.02311856
000130 e7 7a ab 3c 78 40 db 3c 24 42 e1 3c 8e c9 14 3d
       0.020932628 0.02676414 0.027497359 0.03632503
000140 c2 1a 31 ba c5 f6 75 3c 66 c9 f6 bc 2f 5c 1d 3d
       -0.00067560014 0.015012448 -0.030125331 0.03841799
000150 44 86 35 3d 80 20 d3 3b 4c 26 10 bc 80 88 f3 bc
       0.0443175 0.0064430833 -0.008798193 -0.029728174
000160 40 d6 9a 3a 5e d7 3a bd e3 f3 11 3d 7c 6b 55 3d
       0.0011813119 -0.045615546 0.03563298 0.05210446
000170 a4 12 71 3b ed 36 16 bc 0e df 00 3d 66 e2 1e 3d
       0.0036784792 -0.009168369 0.03146272 0.03879013
000180 94 75 c3 3b ed 8f 29 3b f0 ba 37 bd 27 bd 09 3c
       0.005964944 0.002587314 -0.044856012 0.008406914
000190 cc dd 50 bd 8f 07 6b bd 74 e5 3e bd fc 92 32 3c
       -0.050992772 -0.057380255 -0.046605542 0.010899302
0001a0 ae 64 38 3d 6b 68 4b 3d 41 ce 55 bc a5 a4 bd bc
       0.04501789 0.049660128 -0.013049663 -0.023149798
0001b0 6f cf 2a bd e5 95 45 3d f6 a7 c6 bc 00 be 81 bc
       -0.04170173 0.048238654 -0.024250012 -0.01583767
0001c0 d6 9a 9e bc 57 fb f8 3c bc 0a 12 3a 58 58 4d bc
       -0.01936094 0.030393286 0.00055710576 -0.01253327
0001d0 f1 f3 8e 3d 27 8c 12 3c 01 09 95 bd 4c 06 e7 bc
       0.06980122 0.008944548 -0.07277108 -0.028201245
0001e0 41 f0 80 3d b3 ae 7d 3d 89 a3 aa bb d5 5d a2 bc
       0.06295825 0.061934184 -0.005207483 -0.019820133
0001f0 3e d6 a5 bd dc 9b 11 3d 03 2d a9 bc 1d 03 96 bd
       -0.08097504 0.03554903 -0.020651346 -0.073248126
000200 cb 11 a8 3d 8e 77 8f bd 3c 58 c5 39 e6 28 e5 3c
       0.08206519 -0.07005225 0.00037640508 0.027973603
000210 2a f0 cf 3c ff 44 b1 ba 34 e8 88 3c 98 c7 50 3d
       0.025383074 -0.0013524591 0.016712286 0.050971597
000220 73 ec 09 bc fd c9 05 3b ba b4 b4 3c 90 87 97 b9
       -0.00841819 0.0020414584 0.022058833 -0.00028901966
000230 bd 85 fb bc ed 99 f7 3b 64 00 80 3d a9 aa 20 3d
       -0.03070342 0.007556191 0.062500745 0.039225254
000240 35 a9 26 3d 41 80 0d bd b8 48 d7 3c ba fd 1d 3d
       0.040688712 -0.03454614 0.026279792 0.03857205
000250 a2 dd 99 bc 2a ec 19 3c e6 36 00 bd 73 3e c1 3c
       -0.01878244 0.009394685 -0.031302355 0.023589348
000260 0e 62 3e bd ec 2a 2b bd 73 92 5c bd ee 1a 9a bd
       -0.04648023 -0.04178898 -0.053850602 -0.07524668
000270 62 8c 56 bb 04 92 ab 3c d7 06 54 bd 8e 2b a5 3d
       -0.0032737483 0.02094365 -0.051764335 0.08064948
000280 91 c1 5c 3c 12 78 9d 3d 87 87 17 bd 73 95 a7 3c
       0.013473884 0.07688917 -0.036994483 0.020457005
000290 c5 8d 78 bd d9 2d 84 bc ad b0 9a 3c 09 ca 51 3d
       -0.060682077 -0.016135143 0.018883074 0.051218066
0002a0 12 30 a3 3c 9e 0b 45 bd 31 fc 23 bc 7b fe de bc
       0.019920383 -0.048106782 -0.010008858 -0.027220955
0002b0 cf 37 41 bd c3 a5 1e bc ba 3c c3 bd a6 0f f2 39
       -0.047172364 -0.009683075 -0.09533067 0.00046169496
0002c0 8b ab 19 bc bc 48 47 bd 53 e6 c0 3c a5 62 02 3d
       -0.009379278 -0.04865335 0.023547327 0.031832356
0002d0 f2 bd 32 bd ba 41 1a bc d1 45 15 3d 6e be ea 3c
       -0.043638177 -0.0094150845 0.036443535 0.028655257
0002e0 8a 5a 66 bd 71 a9 74 3c bd a5 3a bc 35 85 4e 3d
       -0.05623869 0.014932976 -0.011392054 0.050420005
0002f0 20 e0 5b bd 70 fa 4a bd 8f 0e b9 bd 23 26 c8 3c
       -0.05368054 -0.049555242 -0.0903598 0.024432248
000300 2d 8f d9 bc 4b fa 8b bd df 80 0c 3d 25 56 9c bd
       -0.02655753 -0.06834849 0.03430259 -0.07633618
000310 01 ba d2 3a c8 8a 25 bd cb 71 b1 39 e9 1b 89 3d
       0.0016077162 -0.040415555 0.00033844853 0.066947766
000320 e7 91 c5 bc 26 03 00 bc 26 1d 64 bb 34 2b 54 3d
       -0.024117423 -0.007813251 -0.0034807413 0.051799014
000330 8f 00 16 bd 38 9a d0 bc 81 7e dd bc cc c2 d7 3d
       -0.036621626 -0.025464162 -0.02703786 0.105352014
000340 be 3c 0b 3d 51 4c 17 3d c6 56 29 bd 70 ed 46 bd
       0.033993475 0.036938015 -0.04134252 -0.04856628
000350 dd 65 03 bd 1a ad ce bc 95 ba db 3b 9e 56 51 bd
       -0.032079566 -0.025229026 0.006705592 -0.051107995
000360 c7 94 0e bc 6c f9 60 3d c9 7d c6 bd 8d d0 47 3d
       -0.0087024635 0.054925367 -0.0969196 0.048782874
000370 e1 21 3f bc cf 0d 30 bd 01 14 88 bd 11 df 60 3d
       -0.011665792 -0.04298192 -0.066444404 0.054900233
000380 fe 76 b5 3c db b6 70 3b 61 58 cc bc 3b 46 22 3d
       0.022151466 0.0036730084 -0.024944486 0.03961776
000390 29 7e c9 bd 1f dc 2c 3c 10 0d ec bd ef e5 a0 3c
       -0.09838516 0.010550528 -0.11525929 0.01964089
0003a0 16 bc 1d 3d b1 f1 39 3d 8f 68 15 3d 93 c8 21 3d
       0.03850945 0.04539651 0.036476668 0.039497923
0003b0 0c a6 6f 3d c7 db 7b bd 9f 22 ce 3c 19 cd c7 3c
       0.058507964 -0.061488893 0.025162993 0.02438979
0003c0 50 81 1b bb 12 ef 85 3d ce 3c 2c 3c 7d 84 0a 3d
       -0.00237282 0.0653974 0.010512544 0.033817757
0003d0 45 94 fb bb 43 38 38 3d aa 2b 5d 3d 68 bc 88 bd
       -0.007677587 0.04497553 0.05399672 -0.06676561
0003e0 7a 9c 11 bd 82 4c bd bb ee 70 63 3c 83 5f 85 bd
       -0.03554962 -0.0057769427 0.013881905 -0.06512358
0003f0 74 c1 0a 3c 34 15 f8 3c df 04 62 bc e7 48 ed bc
       0.008468974 0.030283548 -0.013795107 -0.028965427

decoder.decoder_net.4.bias f4 [32]
000000 06 e4 b1 3c 34 c1 f3 bd ad ec 84 3b 5a a8 5d 3c
       0.021715175 -0.11902085 0.0040565343 0.013528908
000010 c7 00 33 3b dc b0 9c 3c 54 f4 3a 3d 64 3c 03 be
       0.0027313696 0.019127302 0.045643166 -0.12816006
000020 a3 90 06 bd f8 18 25 bc 39 0c ad bd 9c 51 02 bd
       -0.03285278 -0.010076754 -0.08449597 -0.03181611
000030 c1 5c 2a bc 50 a6 59 bd 86 5e c4 3d 1c 2f 8a bd
       -0.010398091 -0.053137124 0.095883414 -0.06747267
000040 6c fb bd 3d 45 2b 4e bb 31 4b e2 3d 32 74 1f 3d
       0.092764705 -0.0031458896 0.11049498 0.03892917
000050 32 cb 97 bd a9 2d df bd d9 84 ab 3d be 3a f5 3c
       -0.07411803 -0.10897381 0.08374948 0.029935237
000060 6d b8 b0 3d b8 67 a4 3d 66 8e e5 3c 17 eb c1 3d
       0.086289264 0.08027595 0.028022002 0.09468668
000070 a8 39 9e bb e6 37 ab bc 7c af f2 3d 0d 05 66 bc
       -0.0048286505 -0.020900678 0.11849877 -0.01403929

decoder.decoder_net.6.weight f4 [32]
000000 8f eb 68 3f a0 0d 6a 3f 42 cd 74 3f b8 e4 66 3f
       0.90984434 0.9142704 0.956257 0.9019275
000010 a9 b9 5a 3f d5 cf 6b 3f 8f 7e 79 3f 77 b8 66 3f
       0.85439545 0.92114 0.9745874 0.9012522
000020 75 15 70 3f 18 8a 68 3f 1d b3 80 3f 05 3e 69 3f
       0.9378274 0.90835714 1.0054661 0.9111026
000030 42 6d 67 3f b0 12 71 3f f2 f1 64 3f 61 f8 71 3f
       0.9040109 0.9416914 0.8943168 0.9451962
000040 f9 1b 78 3f 5e ec 5e 3f 61 72 7e 3f f1 d0 5c 3f
       0.9691768 0.8707942 0.9939328 0.8625632
000050 1e e0 62 3f aa 97 6f 3f 33 5a 70 3f 51 40 65 3f
       0.88623226 0.93590796 0.93887633 0.89551264
000060 3c 14 68 3f f2 74 62 3f 0b f2 7e 3f 49 76 71 3f
       0.90655875 0.88459694 0.9958808 0.94321114
000070 f1 56 6f 3f 71 d5 7c 3f 4d 0e 5d 3f 51 e0 78 3f
       0.9349204 0.98763186 0.86349946 0.9721728

decoder.decoder_net.6.bias f4 [32]
000000 6e c3 62 3d f4 b6 70 bc 54 92 55 3d 79 04 f9 3c
       0.055362158 -0.014692057 0.052141502 0.03039764
000010 45 28 d7 bc db 59 19 3d e5 08 a0 bd 58 cd 48 3d
       -0.02626432 0.03743921 -0.078141965 0.049023956
000020 fb d9 d7 bc 5d ea 06 bd b2 68 57 3c 56 b9 d0 3d
       -0.026349058 -0.03293835 0.01314752 0.101916
000030 0b 40 31 bc f7 81 7a bc 91 98 50 bd 4e 32 e3 bc
       -0.010818492 -0.015289775 -0.05092675 -0.027733948
000040 b9 18 4b 3d 63 b0 aa 3c 0c 53 45 3d 46 b2 a3 bc
       0.049584124 0.02083606 0.048174903 -0.019982468
000050 44 07 2e bc 8f a4 2a bd 8d 17 48 bd 40 10 83 bd
       -0.010621849 -0.04166084 -0.048850585 -0.06399584
000060 70 1b 2a 3d df 90 a2 bc 10 26 bb 3d 2c 02 42 bd
       0.041530073 -0.01984447 0.09138119 -0.047365353
000070 b4 65 df 3c 38 52 c3 3d 0c f1 fb 3c 3f ee cb bc
       0.027270176 0.09537166 0.030754589 -0.024893878

decoder.decoder_net.6.running_mean f4 [32]
000000 1d 49 12 3e 1d 49 12 3e 1d 49 12 3e 1d 49 12 3e
       0.14285703 0.14285703 0.14285703 0.14285703
000010 1d 49 12 3e 1d 49 12 3e 1d 49 12 3e 1d 49 12 3e
       0.14285703 0.14285703 0.14285703 0.14285703
000020 1d 49 12 3e 1d 49 12 3e 1d 49 12 3e 1d 49 12 3e
       0.14285703 0.14285703 0.14285703 0.14285703
000030 1d 49 12 3e 1d 49 12 3e 1d 49 12 3e 1d 49 12 3e
       0.14285703 0.14285703 0.14285703 0.14285703
000040 1d 49 12 3e 1d 49 12 3e 1d 49 12 3e 1d 49 12 3e
       0.14285703 0.14285703 0.14285703 0.14285703
000050 1d 49 12 3e 1d 49 12 3e 1d 49 12 3e 1d 49 12 3e
       0.14285703 0.14285703 0.14285703 0.14285703
000060 1d 49 12 3e 1d 49 12 3e 1d 49 12 3e 1d 49 12 3e
       0.14285703 0.14285703 0.14285703 0.14285703
000070 1d 49 12 3e 1d 49 12 3e 1d 49 12 3e 1d 49 12 3e
       0.14285703 0.14285703 0.14285703 0.14285703

decoder.decoder_net.6.running_var f4 [32]
000000 71 2f ad 3b a9 3f e5 3b d0 04 9e 3b 9a 9f a0 3b
       0.0052851965 0.0069961143 0.004822351 0.0049018385
000010 6a aa f8 3b 54 bf 9f 3b 55 18 f9 3b 60 8a c3 3b
       0.0075886743 0.004875103 0.0076017776 0.0059674233
000020 14 d1 8f 3b b9 3f 53 3b 60 a1 83 3b 31 10 b5 3b
       0.0043889377 0.0032234027 0.00401704 0.005525612
000030 de aa c2 3b ef 98 1e 3c 26 fd a1 3b d8 a3 90 3b
       0.005940779 0.009680017 0.0049435077 0.004414063
000040 2a 5b bc 3b a2 bd 80 3b f1 3f 4b 3b c9 5a 3a 3b
       0.0057481723 0.003928856 0.0031013454 0.002843546
000050 09 0b a9 3b 4a e7 f4 3b 2b 73 bc 3b 01 b6 b6 3b
       0.005158786 0.007473861 0.005751034 0.005575896
000060 c3 01 c5 3b 59 16 ce 3b c0 95 4e 3b 0e 73 8c 3b
       0.006012173 0.006289285 0.0031522363 0.0042861765
000070 d5 1c 9b 3b b8 6c 91 3b 95 63 4a 3b d3 5d 8e 3b
       0.0047336617 0.004438009 0.003088211 0.004344681

decoder.decoder_net.7.weight f4 [32, 16, 3, 3]
000000 ea 8e 84 3d 30 a6 58 bd 23 ea d1 bd b4 b7 40 bd
       0.06472571 -0.052892864 -0.10249736 -0.047050193
000010 7e 1c 30 3c 9f fd ff 3b d5 d0 04 3d 22 be a1 bc
       0.010748981 0.0078122164 0.03242572 -0.019743983
000020 0b 9e 68 3d 24 ec 4f bd 73 2a c5 3d 8d 3d 47 bd
       0.056791347 -0.05076231 0.09627237 -0.048642684
000030 bd 69 ec bc de 8d ab 3d 19 6e 9c 3d 60 9a a2 bd
       -0.028859014 0.083766684 0.07638187 -0.07939601
000040 6b db 3e bd 8e cb 39 3c 48 e3 42 3d 09 bb f9 3c
       -0.046595972 0.011340035 0.047580034 0.030484693
000050 33 a1 56 bd 75 ac cf 3d 1a 72 c1 ba de 05 9e bc
       -0.052399825 0.101403154 -0.0014758736 -0.019289907
000060 f2 b5 74 bd dd 27 8c bd e8 39 2c bb cc 16 f2 3c
       -0.05974383 -0.06843541 -0.0026279632 0.029551886
000070 d9 e4 12 3d cd 76 3d bd 59 11 c7 3c fc f5 4f bd
       0.035862777 -0.046255875 0.024300264 -0.0507717
000080 86 f3 46 3c d0 1b 73 3d e3 22 80 3c 5f ab 32 3d
       0.012143021 0.059352696 0.015641635 0.043620463
000090 12 aa 65 bb 58 ef 4e bd e8 0b 11 3d 9c 64 14 3d
       -0.0035043997 -0.050521225 0.035411745 0.03622876
0000a0 1c 3a 02 3b 4f 9d 0e 3c 6b 99 81 bd 99 86 2d 3d
       0.0019871062 0.0087044975 -0.0632809 0.04236469
0000b0 d7 a0 2b 3d c2 d5 a7 bb 5b 15 a1 3c 7f 15 d6 bd
       0.041901436 -0.0051219175 0.019663503 -0.10453319
0000c0 9b 67 81 bd a4 fb 84 bc 5e b7 79 bd 74 bc 5b 3c
       -0.06318589 -0.016233273 -0.06096589 0.01341163
0000d0 a9 95 b9 bc 6a 67 14 bd 5d 22 2a 3d e4 e3 7c 3c
       -0.022654371 -0.036231436 0.041536678 0.015435193
0000e0 64 ec ed 3c c5 57 8c bd cd 17 10 3d 5c e2 f4 3c
       0.029043384 -0.06852678 0.03517895 0.029893093
0000f0 be 14 ba 3c 19 42 be 3c 84 45 be bc 12 eb 48 3d
       0.022714969 0.023224877 -0.023226507 0.049052306
000100 ac 5b 70 bd e6 02 3a 3d 1e 4a 9d bc b6 12 4c bd
       -0.058681175 0.04541292 -0.01920038 -0.04982253
000110 f6 20 93 3d cf 9f d6 3d c5 3d bb bb 79 e6 ad 3b
       0.07184021 0.104797 -0.0057141506 0.0053070155
000120 e9 11 05 bd 78 a2 36 3c c8 1d d5 bc 91 b9 73 3d
       -0.032487784 0.011147134 -0.026015177 0.05950314
000130 dd 0d ee bd 71 66 b3 3b 0f ca 0b 3d ff 51 ef 3c
       -0.11623738 0.0054748585 0.034128245 0.029213903
000140 6a f7 08 bc a6 75 e2 38 ec 91 60 bd ad 9b 66 3d
       -0.008359769 0.000107984335 -0.054826662 0.056300808
000150 e4 ff 6f bd 93 a1 d5 3c 10 45 68 3c e9 0c fd 3a
       -0.058593646 0.026078021 0.014176622 0.0019306216
000160 b2 0a fa bc 23 78 61 bd 9c a4 42 3d d8 09 22 bd
       -0.030522678 -0.055046212 0.047520265 -0.03956017
000170 b9 f2 97 bd 9d 04 87 3d 35 2f 89 bb 52 95 8a 3d
       -0.074193425 0.06592677 -0.0041865357 0.06766762
000180 31 98 47 3d 96 bb 5d bd 87 ac aa bb 11 6f 9d bd
       0.048729125 -0.054133974 -0.005208555 -0.076872
000190 fb 0e ae 3d 6b 9a 76 bd 13 e6 25 3d 5b cf 49 bd
       0.08498951 -0.06020586 0.04050262 -0.049270015
0001a0 42 27 9c bc fc e5 a7 3d cb 09 18 bd 94 da d4 bc
       -0.019061688 0.08198163 -0.037118714 -0.025983132
0001b0 92 a2 97 bc 7d c4 6f bc 15 a0 27 3d 16 11 1c 3c
       -0.018510137 -0.014634249 0.04092415 0.009525558
0001c0 00 38 2d bd 89 ca d7 bb 25 85 25 3d 67 14 be 3d
       -0.042289734 -0.0065854234 0.04041018 0.09281235
0001d0 8e f1 4f bd 3c ae 47 bd 52 18 10 3d a5 87 e1 bb
       -0.050767474 -0.048750147 0.035179444 -0.006882625
0001e0 e9 70 12 3d 7f c1 6e bd b7 5a d4 3b d1 95 a5 3c
       0.03575221 -0.05829 0.0064805406 0.02021304
0001f0 56 71 e9 3c da 55 39 bd b4 49 d3 3d be fb 6f bd
       0.028496426 -0.04524789 0.10316792 -0.05858969
000200 6a 9b 78 3c e4 29 ac bc 6e 2b 8d bc 1b eb 6e bd
       0.015173772 -0.021016069 -0.017232623 -0.058329683
000210 54 17 03 bc dd 69 ec bb 19 44 86 bd e5 80 8d bc
       -0.008001167 -0.0072147683 -0.06555957 -0.017273376
000220 b1 6b 88 3d 1c 6a db bd 16 6a 3e bd 28 4a a1 bc
       0.066611655 -0.10713598 -0.04648789 -0.01968868
000230 01 16 85 bd 32 fb ca 3c 96 0a 73 3d 06 a0 4e 3d
       -0.064983375 0.024777982 0.059336267 0.05044558
000240 d2 74 d1 bc 6a 89 f9 3c ce 8c 0d bb 1f e0 87 3d
       -0.0255684 0.030461032 -0.0021598819 0.066345446
000250 24 0a 4f 3d 75 5f 8b 3c 8f 60 bf 3c e6 83 86 bc
       0.05054678 0.01701329 0.023361472 -0.016420316
000260 4e d3 88 3c e9 4d ae 3d 2e 78 3a 3d c6 77 3b 3b
       0.01670232 0.08510954 0.04552477 0.0028605326
000270 60 b2 c3 bc 34 3f ed bc ca b4 55 3d ac 83 95 bb
       -0.023888767 -0.028960802 0.052174367 -0.0045628157
000280 44 e7 bd 3d e4 06 4e 3d de 72 62 3b bd 70 07 3c
       0.09272626 0.05029954 0.003455333 0.008266625
000290 90 51 27 3d 39 33 e4 3b 92 9c b1 3d a3 49 9b bd
       0.04084927 0.006964114 0.086724415 -0.075824045
0002a0 e3 a9 18 3d 70 46 62 3d e7 85 b3 bd dc c8 24 bc
       0.03727139 0.055242956 -0.08765774 -0.010057654
0002b0 5b a9 98 bd 80 d9 05 3d 45 74 29 bd 2d e1 3d bd
       -0.07454177 0.032678127 -0.04137065 -0.046357322
0002c0 5a 5c 2b 3d b9 43 2b 3d c6 43 71 bc 46 a6 9b bd
       0.04183612 0.041812632 -0.014725631 -0.076000735
0002d0 28 bc bf 3b 23 e0 7f 3b 99 46 9e 3b ad 42 a4 bc
       0.0058512874 0.0039043508 0.0048301932 -0.020051325
0002e0 a1 ce 1f 3c d5 5c 16 3d 9a 83 7d bc 84 55 a3 3c
       0.009753854 0.036709625 -0.015473271 0.019938238
0002f0 ce a6 b4 3d c1 61 17 bd d1 b5 8a bd 04 42 87 bd
       0.08820878 -0.03695846 -0.0677296 -0.06604388
000300 b3 70 0f bc 34 a7 31 3c 44 44 b3 3d aa dd 52 3d
       -0.008754897 0.010843087 0.08753255 0.051480927
000310 1a 24 f9 bc 0c c9 9b 3d fb 61 24 bd 47 93 3b bd
       -0.030412722 0.07606706 -0.040132504 -0.04579475
000320 38 45 ba bd 34 e7 4d bc b9 fe 1e bd 8c e6 bc 3d
       -0.09095234 -0.01256733 -0.03881714 0.09223661
000330 ff 6d 5d 3d 01 61 9a 3d 54 4d 72 bb f6 d7 7a bd
       0.05405998 0.07538033 -0.003697236 -0.061241113
000340 51 f4 82 bd 45 2c 94 bd 18 da 2b 3d 6e 73 ce 3c
       -0.06394256 -0.07235006 0.041956037 0.025201526
000350 79 ca 9d 3c aa 92 88 bc dd f5 03 3d fc d0 c0 bb
       0.019261586 -0.016671497 0.032216895 -0.005884288
000360 0e bc c0 bd 85 57 f7 3c 24 70 2f bd 87 4b 01 be
       -0.094108686 0.0301931 -0.042831555 -0.12626468
000370 52 87 57 bd 05 4a 4d bd f8 65 cb bd b5 84 25 3d
       -0.052619286 -0.05011942 -0.09931558 0.040409762
000380 d5 dd 37 3d 80 9f 4a 3d ac fa 62 bd 85 c5 d2 bc
       0.04488929 0.049468517 -0.05541484 -0.02572895
000390 89 05 89 3d fc 99 c3 3b c8 63 b5 bd 00 09 36 3c
       0.06690509 0.005969284 -0.088569224 0.011110544
0003a0 b7 40 82 3d a8 50 91 bc c8 33 f3 bc d3 fe 3d bc
       0.063599996 -0.017738655 -0.029687777 -0.011596399
0003b0 e4 76 03 3b 46 12 ce 3c 9a a4 3f bd 74 74 d0 3c
       0.0020059878 0.025155198 -0.046787836 0.025446154
0003c0 7a 7e 81 3c 75 c8 d9 3c a5 85 2b bc 7b d1 ba bb
       0.015807379 0.026584843 -0.010468875 -0.0057012415
0003d0 9f 84 70 bd f1 6b 0e be e2 f4 43 bd cd 18 95 bc
       -0.058720227 -0.13908364 -0.04784096 -0.018200302
0003e0 2a f8 1d bd c6 10 fc 3c df c7 03 bd f8 f8 ff bb
       -0.038566746 0.030769717 -0.032173034 -0.007811662
0003f0 1e b7 32 3d 4f 08 a9 3c 76 6a 19 3d 8a bc 4a bd
       0.043631665 0.020633845 0.037455045 -0.04949621

decoder.decoder_net.7.bias f4 [16]
000000 de 79 8f 3d 41 d8 87 bd eb 09 0d bd d6 e6 68 3d
       0.07005666 -0.06633044 -0.034433287 0.056860767
000010 ec 29 3f bd e9 3c 1a be 63 ee 22 bd bf 78 fc 3d
       -0.04667084 -0.15062298 -0.039778125 0.12327718
000020 54 b7 08 bd 5a b7 e6 3c 79 1d 01 be 8b 8c 95 bd
       -0.03337796 0.0281636 -0.12608899 -0.07302197
000030 4b 68 9b bc 3f 41 78 3c 6f d6 f1 bc bd 2a 37 3d
       -0.01897063 0.015152275 -0.029521195 0.044718493

decoder.decoder_net.9.weight f4 [16]
000000 7a b0 6f 3f cd 95 65 3f 98 31 72 3f 31 1c 6f 3f
       0.93628657 0.896817 0.94606924 0.9340239
000010 3e 52 65 3f 01 4c 64 3f ce 25 6a 3f 41 4b 73 3f
       0.89578617 0.8917847 0.91463935 0.95036703
000020 3b 19 6c 3f f7 44 67 3f 48 4f 67 3f 0d fb 6a 3f
       0.92226 0.90339607 0.9035535 0.91789323
000030 28 f6 61 3f 11 2a 67 3f cf 78 72 3f 1a 88 6c 3f
       0.8826623 0.90298563 0.9471559 0.92395175

decoder.decoder_net.9.bias f4 [16]
000000 66 06 58 bd 50 f4 68 3d d1 26 52 3d a7 ec 89 3c
       -0.052740477 0.05687362 0.05130655 0.016836477
000010 25 2f 7e bd 11 94 24 be 4c b1 62 be f6 db 0a 3c
       -0.06205668 -0.16072108 -0.22137946 0.008475294
000020 92 e7 8c 3c ed 24 35 be d2 02 ad bd 88 8f 20 3d
       0.017200265 -0.17689867 -0.084478036 0.039199382
000030 59 3b 80 3e 5d a9 4c 3e a0 cc c5 3d 43 b6 f7 bc
       0.2504528 0.19986482 0.0965817 -0.030238276

decoder.decoder_net.9.running_mean f4 [16]
000000 1d 49 92 3d 1d 49 92 3d 1d 49 92 3d 1d 49 92 3d
       0.071428515 0.071428515 0.071428515 0.071428515
000010 1d 49 92 3d 1d 49 92 3d 1d 49 92 3d 1d 49 92 3d
       0.071428515 0.071428515 0.071428515 0.071428515
000020 1d 49 92 3d 1d 49 92 3d 1d 49 92 3d 1d 49 92 3d
       0.071428515 0.071428515 0.071428515 0.071428515
000030 1d 49 92 3d 1d 49 92 3d 1d 49 92 3d 1d 49 92 3d
       0.071428515 0.071428515 0.071428515 0.071428515

decoder.decoder_net.9.running_var f4 [16]
000000 7a 70 10 3b b9 a1 31 3b 1c fe 29 3b 54 76 e1 3a
       0.0022039698 0.002710445 0.0025938815 0.0017201402
000010 ca 51 ac 3a 5e e8 c1 3a 4c a0 31 3b fc 01 0a 3b
       0.0013146934 0.0014793982 0.00271036 0.0021058312
000020 c0 1f 11 3b 2a de e6 3a b8 d3 c2 3a 61 ae 06 3b
       0.0022144169 0.0017613817 0.0014864122 0.0020550715
000030 21 42 9d 3a b8 5b dd 3a 60 01 2c 3b c3 28 ce 3a
       0.0011997857 0.0016888296 0.0026245937 0.0015728701

decoder.decoder_net.10.weight f4 [16, 1, 3, 3]
000000 9f a1 2a 3d bf c0 87 be cd 77 b4 3d e0 19 ed 3d
       0.04165804 -0.2651424 0.08811913 0.11577201
000010 c1 ca ba 3c 68 fe d2 bd 6e 61 b1 3d b0 44 ae 3d
       0.022801759 -0.103024304 0.08661161 0.08509195
000020 b4 61 d8 3d 66 9a c8 bd 11 36 14 3e 68 fa 4d 3e
       0.105655104 -0.09795074 0.1447375 0.20115054
000030 8b 9a 22 3e 02 8a 12 3e 32 4e 07 be a7 d1 66 3d
       0.15879266 0.14310458 -0.13213423 0.056352284
000040 4d 05 e0 3d 06 c6 c3 bd ff c1 87 be c8 84 ab be
       0.10938511 -0.09559254 -0.26515195 -0.33499742
000050 02 74 36 be 79 ed 12 bd f1 58 c0 bd 84 03 09 3d
       -0.17817691 -0.035871003 -0.09391964 0.03345062
000060 45 a0 13 3d 27 33 14 be 38 fc 8a bd 09 22 26 3d
       0.036041517 -0.14472638 -0.06786388 0.040559802
000070 bd 3d cb 3d 57 d9 a0 3d 89 07 cf bd f8 0f 20 be
       0.09923885 0.07853954 -0.10108859 -0.15631092
000080 9c 4b 03 3e 9f 69 01 be cd 3d 85 be 2c e8 e0 bd
       0.12821811 -0.12637947 -0.26023713 -0.10981783
000090 14 fa a4 bd 44 ef 4c be c9 b1 52 3e eb 2a 10 bd
       -0.08055511 -0.20013148 0.20575632 -0.03519718
0000a0 46 3e 2e 3e 76 99 70 3e c4 8a a7 bd b5 58 fe bd
       0.17015943 0.2349604 -0.08180764 -0.12419263
0000b0 86 5b cd bd 0e 6e 4a bd a1 8a bb bd d0 5a 4d 3e
       -0.10027222 -0.049421363 -0.09157301 0.20054173
0000c0 c2 24 51 be 9e 64 5f 3d a3 17 22 3e 04 cb d9 3d
       -0.20424178 0.054539315 0.15829329 0.10634425
0000d0 8a 40 87 3e 02 b1 11 bd 5f cb d8 bd e3 18 f7 3d
       0.26416427 -0.0355692 -0.10585665 0.12065294
0000e0 71 9c a8 bd ee e8 2c bd ac 4d 9e bd 53 97 a3 3d
       -0.08232964 -0.042214327 -0.077296585 0.07987847
0000f0 d7 1c a9 bd 92 ca 72 3d bb 4b 50 3e 15 7e 29 3e
       -0.08257454 0.059275217 0.20341389 0.16552003
000100 fb ad 6b 3e 04 13 9f 3d d6 99 76 3e 0b b5 07 3e
       0.23015587 0.07767299 0.24082121 0.13252656
000110 65 a9 de bc 14 f8 d3 3d 27 29 51 bc 6b e7 10 be
       -0.027180383 0.103500515 -0.012766159 -0.14150779
000120 d3 a5 32 be c1 9e e7 bc c6 70 80 bd e5 db 29 bd
       -0.1744607 -0.028273942 -0.0627151 -0.041469473
000130 44 53 76 be cd fe 94 bd c2 56 ea 3d d9 74 1a 3c
       -0.24055201 -0.07275162 0.11442329 0.009427273
000140 10 8b 00 3d 2b 0e 9a bd db 54 57 be 5c 99 a4 3d
       0.03138262 -0.075222336 -0.21028464 0.080370635
000150 3d 61 4a be 86 dc f2 3c 87 84 6b 3e 4a cf 4e be
       -0.19763656 0.02964617 0.22999774 -0.20196262
000160 c4 5f 1c 3d 96 b0 3b 3e 9c 41 0a 3e dd bb 78 3e
       0.038177267 0.18329081 0.1350159 0.24290414
000170 5c 6a 2b 3e 7b 34 c7 bd 4c c7 48 3e 70 1e 73 3d
       0.16739792 -0.09726807 0.19607276 0.0593552
000180 a7 59 88 bd 2f ea a1 3c 03 fd b2 bc 94 68 4e be
       -0.06657725 0.019764988 -0.021849161 -0.20157081
000190 8c 97 71 bd 56 9a 11 be 5c 28 5c be c8 ab e9 3d
       -0.058982417 -0.1421903 -0.21499771 0.11409718
0001a0 0c d6 2a be 30 a9 b5 bd 61 ac a1 bd 62 b9 2c 3e
       -0.16683215 -0.088701606 -0.07894207 0.16867593
0001b0 11 21 a0 bd 7a d1 ef 3c e0 e0 d6 3d 05 98 c4 3d
       -0.07818807 0.02927469 0.1049211 0.09599308
0001c0 e8 33 2c 3e cd 7c 18 bd 52 e6 27 be 9d f5 f0 bd
       0.16816676 -0.037228394 -0.16396454 -0.11765597
0001d0 7f 42 5b bd 9d ec 44 3e a2 83 e0 bd d6 f2 20 3e
       -0.053530212 0.19230886 -0.10962607 0.15717635
0001e0 a6 e3 3c 3e 48 13 65 be 2b b7 cb bd c1 c4 24 3c
       0.18446216 -0.22370636 -0.09947046 0.010056675
0001f0 4e d8 68 bd d6 1a 1a be cf e7 a7 be 6b 74 af bd
       -0.05684691 -0.150493 -0.32794043 -0.08567127
000200 08 a3 24 3d 58 bb e6 bb 01 91 8e bc 32 ba 0f be
       0.04019454 -0.007041376 -0.017403128 -0.14035872
000210 fd 65 42 3e d0 7f 16 bd 2a ea 69 be 3b 47 0a be
       0.18984218 -0.036742985 -0.22843233 -0.13503735
000220 89 c0 ed bd fd 1a f2 bd e1 42 57 3e 3e 71 b9 3d
       -0.11608989 -0.11821554 0.21021606 0.09054802
000230 bf 76 1d 3d ab 50 19 3e 8d 94 08 3e d2 a2 5d 3d
       0.038443323 0.14972179 0.13337918 0.054110356

encoder.encoder_net.0.weight f4 [16, 1, 3, 3]
000000 30 b3 bd be c3 7b 7d bd 77 aa 8b be ce 78 ac be
       -0.37050772 -0.061885606 -0.27278492 -0.33685917
000010 ba e6 2d 3d e3 9e e7 3d 15 b0 36 3e 8d cc ba 3d
       0.042456366 0.11309602 0.17840607 0.09121046
000020 c8 2a 21 3c 39 28 8d 3d 16 f0 18 3e 34 51 ad 3d
       0.00983686 0.068924375 0.14935336 0.08462754
000030 07 f2 88 be 92 b8 de 3d 15 cd 39 ba cf c7 f1 bb
       -0.26747152 0.10875048 -0.00070877495 -0.0073785554
000040 3e b7 97 3e ae 3a 69 be e4 47 76 3e 26 43 98 3e
       0.2963199 -0.22776291 0.24050862 0.2973873
000050 1a 91 60 bd be 94 b7 3c 01 dc 46 3c d9 9d 2c 3c
       -0.05482588 0.022409793 0.012137414 0.010535681
000060 84 e2 0c 3e fb 6f 45 bd f9 fe ca 3d a9 c3 55 be
       0.13758284 -0.048202496 0.099119134 -0.2087542
000070 46 7b 46 be b7 94 33 be 49 fb 81 3d a6 4e d4 bc
       -0.19382963 -0.17537199 0.06346757 -0.025916409
000080 84 ed 1f 3e 50 ed 6d be 55 fe 57 3e 55 ce 6c 3e
       0.15617949 -0.23235059 0.21093114 0.23125584
000090 3a fb 8d be a6 26 a0 be b0 5a 0c be 42 47 27 be
       -0.27730733 -0.31279486 -0.1370647 -0.16335776
0000a0 66 8c 50 bb 16 39 9b be 08 1c 58 be ad b2 8b be
       -0.0031821965 -0.3031699 -0.21104443 -0.27284756
0000b0 55 ed 54 be ec 47 c9 bd 18 da 10 3b c9 65 91 be
       -0.2079366 -0.09828171 0.002210265 -0.28397968
0000c0 af 9b 4a be 9a f1 b4 be 0c f1 88 3e 1b 53 d3 3c
       -0.19785951 -0.35340577 0.26746404 0.025796464
0000d0 30 c6 68 be 7c e9 61 3e 48 78 cb bd 27 61 9a be
       -0.22731853 0.22061723 -0.09935051 -0.30152246
0000e0 20 48 d6 bd d3 30 a8 3e c6 3b ba bc f5 ae f2 bc
       -0.104629755 0.3284975 -0.02273358 -0.029624442
0000f0 ff 0a 97 bd 6e 4b a4 3e c9 10 bd 3e a8 28 84 be
       -0.07375144 0.32088798 0.3692687 -0.25812268
000100 94 f4 ee bd 61 42 d8 bd a6 04 63 3e 0d 4d bf be
       -0.11667743 -0.10559536 0.22169742 -0.37363473
000110 ce 96 71 3d 4b f5 c7 bd 8c 22 aa be 63 a1 87 be
       0.05898171 -0.09763583 -0.33229482 -0.26490316
000120 c7 dc 9f bd d7 aa 66 3e a5 21 d7 bd ba df c0 be
       -0.07805782 0.22526108 -0.10504464 -0.3767069
000130 57 d3 a6 3d 79 70 29 be 04 e7 0e be f0 bb 3a 3e
       0.081457786 -0.16546811 -0.13955313 0.18235755
000140 d0 89 23 bc dc 4d 10 be 1c 11 1b be bf ad 9e 3e
       -0.0099815875 -0.14092201 -0.15143245 0.30991933
000150 35 e9 ac 3e 99 a7 94 3e a3 0e cf bd 45 7d 8f 3e
       0.33771673 0.29034117 -0.101102136 0.2802526
000160 fa f1 7f be 7b ea 56 be d2 1b 81 3e 0e 96 8f 3e
       -0.2499465 -0.20987885 0.25216538 0.2804417
000170 f9 2b 17 3d 7c f5 9f 3e d0 c5 7e 3e 2c af 9b 3d
       0.03690717 0.31241977 0.24880147 0.07601771
000180 72 2e 0e bd a2 db c5 3b 31 d2 bd be 28 e2 59 be
       -0.034712262 0.006038145 -0.37074426 -0.21277678
000190 c5 f9 80 3e a7 73 58 3d 20 c7 58 bd 55 94 20 3d
       0.2519056 0.05284467 -0.052924275 0.03920396
0001a0 0b 81 64 3d 87 7e 8f be fd 5a 43 3e 4e 23 ba 3e
       0.055787127 -0.2802622 0.19077678 0.3635506
0001b0 ec f0 64 be 7b ae 99 3e c2 53 d4 bd 02 46 fa 3b
       -0.2235753 0.3001593 -0.10367538 0.00763774
0001c0 91 01 ca 3d 06 67 3a be 59 b1 86 3e 4b a0 af 3d
       0.0986358 -0.18203363 0.2630718 0.08575495
0001d0 02 17 2a be 0b 44 85 3e 5a eb 84 3e 38 ed d8 3d
       -0.1661034 0.26028475 0.2596081 0.10592121
0001e0 3c 1c a6 3e 2d 72 82 3e 55 0e 95 bc 0e b9 02 3e
       0.32443416 0.25477734 -0.01819531 0.12765905
0001f0 09 54 1f be 8a cf f0 3c bf 18 56 3e 78 d7 92 be
       -0.155594 0.029395837 0.20907877 -0.28680015
000200 82 52 b4 3d 81 33 96 be a3 dc 41 be f9 52 23 be
       0.088047996 -0.2933617 -0.18931822 -0.1594962
000210 80 14 73 3e 80 0e d3 3d bf 0f 68 bd 34 96 48 be
       0.23738289 0.103055 -0.05665564 -0.19588548
000220 74 f1 fd bd c6 f4 32 3e d6 8d 92 be df f3 b1 be
       -0.12399569 0.17476186 -0.28623837 -0.3475637
000230 65 e7 62 be 36 9c 86 be b2 0c 2d bd 9e e6 0d be
       -0.22158583 -0.26291054 -0.042248435 -0.13857505

encoder.encoder_net.0.bias f4 [16]
000000 5e a8 9b 3e 9b ec 39 be e5 f1 82 3e 47 09 8d 3e
       0.3040189 -0.18156664 0.25575176 0.2754614
000010 a6 95 7f be a4 3f 2e be 3d a5 ad be 58 bd c4 3e
       -0.2495943 -0.17016464 -0.3391513 0.38425708
000020 cc 52 96 3e be 1f 1e 3e 98 f9 a2 be 16 9a e8 3d
       0.29360044 0.15441796 -0.3183105 0.113575146
000030 da 49 89 be a3 23 89 3e 38 e5 2f 3e f0 3b 02 be
       -0.26814157 0.26785 0.17177284 -0.12718177

encoder.encoder_net.2.weight f4 [16]
000000 31 db 88 3f 2a 1a 84 3f ef 68 86 3f a7 b8 86 3f
       1.0691892 1.0320485 1.0500773 1.0525101
000010 96 ce 8c 3f 7c dc 85 3f a4 a4 7a 3f 91 94 86 3f
       1.1000545 1.0457911 0.9790747 1.0514089
000020 62 08 7a 3f 10 9d 7a 3f cf 91 87 3f 38 d2 86 3f
       0.9766904 0.9789591 1.0591372 1.0532904
000030 d0 60 82 3f 83 b3 81 3f 64 57 7c 3f 98 f1 85 3f
       1.0185795 1.0132908 0.9857085 1.0464354

encoder.encoder_net.2.bias f4 [16]
000000 4b 22 b2 3c b5 27 12 bd 70 a4 a5 3d de 78 71 bd
       0.021744868 -0.0356824 0.080880046 -0.05895316
000010 5e 1a d0 bb 4e 63 3a bd 27 c0 d9 3c 56 e6 df 3c
       -0.0063507995 -0.04550486 0.026580883 0.027331512
000020 e0 65 e2 3c 7e 40 93 3c ed 65 44 bd 1d 56 30 bc
       0.027636468 0.017975088 -0.047948766 -0.0107627185
000030 6d 71 35 3c 8a 31 08 bd f2 93 0e 3d 17 8c 04 3c
       0.011074406 -0.03325037 0.03480906 0.008090041

encoder.encoder_net.2.running_mean f4 [16]
000000 1d 49 92 3d 1d 49 92 3d 1d 49 92 3d 1d 49 92 3d
       0.071428515 0.071428515 0.071428515 0.071428515
000010 1d 49 92 3d 1d 49 92 3d 1d 49 92 3d 1d 49 92 3d
       0.071428515 0.071428515 0.071428515 0.071428515
000020 1d 49 92 3d 1d 49 92 3d 1d 49 92 3d 1d 49 92 3d
       0.071428515 0.071428515 0.071428515 0.071428515
000030 1d 49 92 3d 1d 49 92 3d 1d 49 92 3d 1d 49 92 3d
       0.071428515 0.071428515 0.071428515 0.071428515

encoder.encoder_net.2.running_var f4 [16]
000000 d4 17 0c 39 9c bd 0f 38 d6 57 1a 39 9a 85 c5 38
       0.00013360317 3.4270444e-05 0.00014719306 9.418577e-05
000010 37 12 05 3a 60 bd 0e 39 d5 3b 2c 39 f1 dc 91 39
       0.00050762616 0.00013612723 0.00016425487 0.0002782117
000020 55 3c 41 38 38 d7 0f 39 85 3b df 39 d0 cf 0c 39
       4.6070974e-05 0.00013717718 0.0004257822 0.00013428857
000030 0b 87 41 38 c1 93 08 3a 42 4c 6d 38 eb b2 b9 39
       4.6140554e-05 0.00052100053 5.6576224e-05 0.00035419254
