miniproject2/experiment_6/model_decoder_2.pt (torch, 143309 bytes, 37 tensors)

prior.mean f4 [2]
0	0x00000000	0.0
1	0x00000000	0.0

prior.std f4 [2]
0	0x3f800000	1.0
1	0x3f800000	1.0

decoder.decoder_net.0.weight f4 [512, 2]
0	0x3f011a99	0.5043121
1	0xbeaadb7c	-0.33370578
2	0x3e1a1b03	0.15049367
3	0x3ec5420d	0.38526955
4	0x3e38a9cd	0.18033524
5	0xbfa52ac0	-1.2903671
6	0x3f050878	0.5196605
7	0xbf33cdd6	-0.70235956
8	0x3f068cd2	0.52558625
9	0xbe9b445a	-0.30325586
10	0x3e7ac4de	0.24489161
11	0x3c42c8fd	0.01188874
12	0xbf1d8c50	-0.61542225
13	0xbd3d0bd7	-0.04615387
14	0xbe83284d	-0.25616685
15	0x3f19be72	0.6005622
16	0xbecb56d7	-0.3971469
17	0xbb64aa7f	-0.0034891663
18	0x3e4b65eb	0.19863097
19	0xbee06876	-0.43829697
20	0xbd93cf75	-0.07217304
21	0x3f89a284	1.0752721
22	0x3f0ed2a9	0.5579019
23	0x3ebe83dd	0.3720998
24	0x3f411025	0.7541526
25	0xbe05469e	-0.1301522
26	0xbd3ef695	-0.046621878
27	0xbc9d37fc	-0.019191734
28	0xbf57f8be	-0.84363925
29	0xbea45e6e	-0.32103294
30	0x3f34fda2	0.7069951
31	0xbc858b25	-0.0163017
32	0xbde20a1a	-0.11037083
33	0x3ab71dd2	0.0013970679
34	0xbed04ae1	-0.40682128
35	0xbf078cf7	-0.5294947
36	0xbe93a0c8	-0.28833604
37	0x3e390e97	0.18071972
38	0xbeac08f6	-0.33600587
39	0x3d501433	0.050800513
40	0xbe84f46d	-0.25967732
41	0xbeb7802a	-0.3583997
42	0x3defebb6	0.1171488
43	0xbeced448	-0.40396333
44	0x3f086252	0.53275025
45	0xbf309b4f	-0.6898698
46	0xbdf6bac0	-0.120473385
47	0x3e2b4289	0.167246
48	0xbebf630b	-0.3738025
49	0x3d3e5778	0.046470135
50	0xbcb2449d	-0.021761233
51	0xbe8aa925	-0.27082172
52	0x3e5f6b6e	0.21818325
53	0x3ec3272f	0.38115832
54	0xbee70cca	-0.45126945
55	0x3e27eaa1	0.16398098
56	0x3e0a0223	0.13477378
57	0x3ecd58c7	0.40106794
58	0xbf0939fa	-0.5360409
59	0xbf41fb99	-0.7577453
60	0x3ec4e8e3	0.38458928
61	0x3ef94d0f	0.48691604
62	0xbdf2544e	-0.11832486
63	0x3e6428dc	0.22281212
64	0xbed6ee16	-0.4197852
65	0xbf1e5557	-0.6184897
66	0x3ee879a9	0.4540532
67	0x3e9ee748	0.3103583
68	0xbf038870	-0.5138006
69	0x3cad02dc	0.021119528
70	0x3e4a4b3d	0.19755264
71	0x3ecd8620	0.40141392
72	0x3e5a446d	0.21315165
73	0xbf111bf4	-0.5668328
74	0x3f2e4663	0.6807615
75	0xbe80beac	-0.2514547
76	0xbf007b08	-0.5018773
77	0x3d8d98ff	0.06913947
78	0xbeaf26bf	-0.34209248
79	0xbe7f3f47	-0.24926482
80	0x3e3b5093	0.18292455
81	0x3f31f3df	0.6951274
82	0x3ece5a84	0.40303433
83	0x3eb57848	0.3544333
84	0x3ec37e8b	0.38182482
85	0xbf1e41c1	-0.6181908
86	0xbf02ca6d	-0.5109013
87	0xbed06c22	-0.407075
88	0x3e2e4355	0.17017873
89	0xbee72036	-0.45141762
90	0x3edf88b6	0.4365899
91	0xbf055e1e	-0.52096736
92	0x3ed640ce	0.41846317
93	0xbedd5594	-0.43229353
94	0xbcbb4260	-0.022858799
95	0xbd9b831f	-0.07593369
96	0x3f239b10	0.6390848
97	0xbd555277	-0.052080598
98	0x3f2664aa	0.6499735
99	0xbe892068	-0.26782537
100	0xbde22335	-0.110418715
101	0x3f82e4d8	1.0226088
102	0xbed7837b	-0.420925
103	0x3f288e25	0.65841895
104	0x3f0ef866	0.55847776
105	0xbec1f798	-0.37884212
106	0x3e42f814	0.19039947
107	0xbef2e625	-0.4744121
108	0x3e90707a	0.28210813
109	0xbf858828	-1.0432177
110	0x3ed02172	0.40650517
111	0xbe8ba0f2	-0.2727123
112	0xbec6d793	-0.38836345
113	0x3eaab356	0.33339947
114	0x3ef94076	0.48681992
115	0xbe5ccec9	-0.21563257
116	0x3c8297a3	0.015941447
117	0x3ef1fc61	0.47262862
118	0x3f036b7c	0.51335883
119	0xbe1378c6	-0.1440154
120	0xbbe03e47	-0.0068433615
121	0x3e1a729e	0.15082785
122	0xbc35b539	-0.01109057
123	0x3f167d15	0.5878461
124	0xbf223e9e	-0.63376796
125	0x3e1affcf	0.15136646
126	0xbf050c4b	-0.5197188
127	0x3f1a6e89	0.60324913
128	0x3e3078fe	0.17233655
129	0xbe0bc176	-0.13648018
130	0xbe608157	-0.21924339
131	0x3e8a75a7	0.27042887
132	0xbd894d86	-0.067042395
133	0x3f1a3339	0.6023441
134	0x3e479e7e	0.19494054
135	0x3e2edd3d	0.17076583
136	0xbe526ccb	-0.20549314
137	0xbe9d6539	-0.3074129
138	0xbf1161dd	-0.5678995
139	0x3ecd2a13	0.40071163
140	0xbe83e03c	-0.25757015
141	0xbe60a7ef	-0.21939062
142	0xbea6e2fd	-0.32595053
143	0x3e0ded3d	0.1386003
144	0x3ecb2228	0.39674497
145	0x3d1dc6f9	0.038519833
146	0x3f1e6fbe	0.61889255
147	0x3d4af1e1	0.04954708
148	0xbf072f7f	-0.5280685
149	0x3e311cf9	0.17296208
150	0xbed661f6	-0.41871613
151	0xbf308761	-0.6895657
152	0x3ead4114	0.33838713
153	0x3e6af48d	0.22944851
154	0x3e67630e	0.2259638
155	0x3e9b1a29	0.30293396
156	0xbd12f75e	-0.03588044
157	0x3db3f743	0.08787396
158	0xbe9763bb	-0.29568276
159	0x3f134927	0.57533497
160	0x3eeda496	0.46414632
161	0xbe5e5737	-0.21712957
162	0x3ee5ea46	0.449053
163	0x3da9a7a8	0.08283931
164	0xbf2dcd09	-0.67890984
165	0xbee953b2	-0.45571667
166	0xbf07fccd	-0.5312012
167	0x3f2b64be	0.66950595
168	0x3f1a97ff	0.6038818
169	0xbeb608a6	-0.35553473
170	0x3ec8027b	0.39064392
171	0xbd2a2573	-0.04153962
172	0x3e2ca96a	0.16861501
173	0x3e14276b	0.14468162
174	0xbefd0c61	-0.49423507
175	0xbf198c6b	-0.59979886
176	0xbee3fa75	-0.4452702
177	0xbd5d9914	-0.054101065
178	0xbecb547c	-0.39712894
179	0x3eb30397	0.34963676
180	0x3f291150	0.6604204
181	0x3e09b382	0.13447383
182	0x3f2db147	0.6784863
183	0xbedcfb30	-0.4316039
184	0xbe36a0aa	-0.17834726
185	0xbecce254	-0.40016425
186	0x3f38151d	0.71907216
187	0xbef41f6e	-0.4768023
188	0xbec4c56f	-0.3843188
189	0x3f6818d9	0.90662915
190	0x3e1eb195	0.1549743
191	0xbee976fb	-0.45598587
192	0x3ed7268a	0.4202159
193	0x3e512669	0.20424809
194	0xbe95e236	-0.29274148
195	0xbe016b3e	-0.12638566
196	0xbefaf4b4	-0.4901482
197	0x3f52a248	0.8227887
198	0xbec8ed83	-0.39243707
199	0xbf05ad4a	-0.52217543
200	0x3f395d73	0.7240822
201	0x3dbe138d	0.09281073
202	0xbd048b33	-0.032359313
203	0xbc695f68	-0.014243938
204	0x3f0780ea	0.5293108
205	0x3f3d7473	0.7400581
206	0x3dace00a	0.084411696
207	0x3e660799	0.22463836
208	0x3d2b9980	0.041894436
209	0xbeac3db4	-0.33640826
210	0x3eabc84c	0.33551252
211	0x3ed71360	0.4200697
212	0x3f0855d2	0.5325595
213	0xbe248990	-0.16068101
214	0x3e58b7e6	0.21163902
215	0x3e6591af	0.22418855
216	0x3efc84db	0.4932011
217	0x3e9b995b	0.30390438
218	0x3f0bfec9	0.54685646
219	0x3edd9408	0.43277
220	0xbeffa868	-0.4993317
221	0xbf4d695c	-0.8023889
222	0xbf1323c2	-0.5747644
223	0x3d3125ba	0.04324887
224	0xbe7d47da	-0.2473444
225	0xbd384686	-0.04498913
226	0xbe9243ac	-0.28567255
227	0xbf111b08	-0.5668187
228	0x3f08d9a0	0.5345707
229	0x3e9212a1	0.28529838
230	0xbdc249bb	-0.09486719
231	0xbea89945	-0.32929435
232	0x3dda483c	0.10658309
233	0xbecffc50	-0.40622187
234	0xbf1012d8	-0.56278753
235	0xbdfc561a	-0.1232111
236	0x3e2640be	0.16235635
237	0xbed2860f	-0.41117904
238	0xbe9f66ea	-0.31133205
239	0x3f056fdd	0.52123815
240	0xbe53c2c7	-0.2067977
241	0xbf2bfa9c	-0.67179275
242	0xbf06132b	-0.52373
243	0xbd5e4c34	-0.05427189
244	0x3e41231d	0.18861051
245	0xbede8fc8	-0.4346907
246	0xbeb90b39	-0.36141375
247	0xbd810c4e	-0.06301175
248	0xbed05a2c	-0.40693796
249	0xbf07a34a	-0.52983534
250	0x3f5c04c1	0.85944754
251	0xbf1e53c0	-0.6184654
252	0x3f46d028	0.7766137
253	0xbf09a81f	-0.5377216
254	0xbed3511d	-0.41272822
255	0x3e8bd1b7	0.27308437

decoder.decoder_net.0.bias f4 [512]
0	0x3db0b5e3	0.08628442
1	0xbf0c3b6a	-0.5477816
2	0xbf0d344f	-0.5515794
3	0xbe306044	-0.17224222
4	0x3f1bdae7	0.60880893
5	0x3cdb6cc5	0.026785264
6	0xbf0b198b	-0.5433585
7	0x3f1b336c	0.6062534
8	0x3d5e2670	0.054235876
9	0x3f1f0df8	0.6213069
10	0x3ecee7b9	0.40411165
11	0x3e2c3d6e	0.16820309
12	0x3debbcc9	0.11510617
13	0xbdd740d5	-0.105104126
14	0xbf2111bf	-0.62917703
15	0x3f26cf83	0.6516039
16	0xbea671fd	-0.3250884
17	0xbf1cb612	-0.6121532
18	0xbf1b2d59	-0.6061607
19	0xbbfe64e1	-0.0077634905
20	0xbece1cdf	-0.40256402
21	0x3e6f7da6	0.23387775
22	0x3f40d29d	0.7532137
23	0x3ec2c6bc	0.38042247
24	0xbe5630ba	-0.20917025
25	0xbe3a6cef	-0.18205617
26	0xbe903b56	-0.2817027
27	0xbe6224e6	-0.22084388
28	0x3ef7f1d9	0.48426703
29	0xbf2f64b5	-0.6851304
30	0x3e8d3076	0.27576035
31	0xbea4d31c	-0.32192314
32	0xbe0244bf	-0.12721537
33	0xbeaf72d0	-0.34267282
34	0xbf0dd298	-0.55399466
35	0xbe8b33b3	-0.2718788
36	0x3ea645ab	0.32475027
37	0xbdb41e46	-0.08794837
38	0x3af88c3b	0.001896269
39	0x3eb107e4	0.34576333
40	0xbb69a863	-0.0035653345
41	0xbea036f0	-0.31291914
42	0x3e600875	0.21878226
43	0xbf1e8858	-0.61926794
44	0x3e7583c7	0.2397605
45	0xbf33a47e	-0.7017287
46	0x3ec12c3f	0.3772907
47	0x3dea9643	0.114544414
48	0x3f22875a	0.6348778
49	0xbf1b9bed	-0.607848
50	0xbed1d9aa	-0.40986377
51	0x3f25c115	0.64747745
52	0x3f304d83	0.68868273
53	0xbe06ab19	-0.13151206
54	0xbf48010f	-0.78126615
55	0x3f0326e1	0.512312
56	0xbe29913a	-0.16559306
57	0xbf00170b	-0.5003516
58	0xbd92942e	-0.07157169
59	0x3f26120c	0.6487129
60	0x3f2a90d2	0.6662723
61	0xbe5326c1	-0.20620252
62	0xbe42a9cc	-0.19010085
63	0x3e9532b4	0.29140246
64	0xbeef3672	-0.46721226
65	0xbf2d327c	-0.6765516
66	0xbeb8c11a	-0.36084825
67	0x3eb2dd35	0.34934393
68	0x3eb17559	0.34659842
69	0xbe44aa1f	-0.19205521
70	0x3f254c14	0.6456921
71	0xbe1e979b	-0.1548752
72	0xbe89ed8c	-0.26939046
73	0x3f14d031	0.58130175
74	0x3d9f99c9	0.07793004
75	0x3d8e12ce	0.069371805
76	0xbd8cca36	-0.06874506
77	0xbf0e364f	-0.5555162
78	0x3ef3bcd8	0.47605014
79	0xbed4f56e	-0.41593498
80	0x3ec9fee9	0.39452294
81	0xbedd8812	-0.43267876
82	0xbef0b0cd	-0.47009888
83	0x3e98afc1	0.2982159
84	0xbe899dd0	-0.26878214
85	0xbe45221e	-0.19251296
86	0x3f2dff23	0.6796743
87	0x3da87c1f	0.08226799
88	0x3ebd0ecb	0.3692535
89	0x3d0f2dfd	0.034955967
90	0xbeca1102	-0.394661
91	0x3e49016e	0.19629452
92	0xbe8be0e1	-0.27320006
93	0xbe89da77	-0.26924488
94	0xbf303163	-0.6882536
95	0x3d412767	0.047156718
96	0xbeedb3d2	-0.46426255
97	0xbefa1a79	-0.48848322
98	0xbee49d4c	-0.44651258
99	0xbcf968c8	-0.030445471
100	0xbee1b0bd	-0.44080153
101	0xbe9d0bd5	-0.3067309
102	0x3e5d34b6	0.21602139
103	0x3f0e8ce0	0.5568371
104	0xbecb4d1d	-0.3970727
105	0x3ee82db2	0.45347363
106	0xbe9562bf	-0.291769
107	0x3e94726c	0.28993547
108	0x3c8d3056	0.017234962
109	0x3eb50d98	0.35361934
110	0xbf309c45	-0.6898845
111	0x3f4aecfc	0.7926786
112	0x3f27ed5a	0.65596545
113	0x3f495a25	0.78653175
114	0x3ef69df9	0.481674
115	0xbf509159	-0.8147178
116	0xbf35659c	-0.7085817
117	0x3c58e126	0.013237273
118	0xbf224484	-0.63385797
119	0x3f1e53c2	0.61846554
120	0xbdeb8087	-0.11499124
121	0x3e9e411c	0.3090905
122	0xbce107a4	-0.027469464
123	0x3f59845b	0.84967583
124	0x3df3c6ce	0.11903153
125	0xbf00932b	-0.5022456
126	0xbea0ff7e	-0.31444925
127	0xbf102d40	-0.56319046
128	0xbef1e2b8	-0.47243285
129	0x3f2900a1	0.66016585
130	0xbf08f7a5	-0.53502876
131	0xbd85ca6a	-0.06532748
132	0x3f2df5e5	0.6795333
133	0x3e354292	0.17701176
134	0x3de9dd8b	0.11419209
135	0xbf00118e	-0.50026786
136	0xbb415240	-0.0029498488
137	0x3e0d2e2e	0.13787147
138	0xbf3b8832	-0.7325469
139	0xbea7a738	-0.32744765
140	0x3ef823ce	0.48464817
141	0x3c80bc04	0.015714653
142	0xbda98e7d	-0.082791306
143	0xbec22132	-0.3791595
144	0x3f0e16b7	0.5550341
145	0xbf26287d	-0.6490553
146	0xbf15db47	-0.58537716
147	0xbd9d65b5	-0.07685415
148	0xbedddc52	-0.43332154
149	0x3da9a03c	0.082825154
150	0x3dae52af	0.085118644
151	0x3e15a862	0.14615014
152	0x3e610d99	0.21977843
153	0x3eefe3da	0.46853524
154	0x3f07fff6	0.5312494
155	0x3efeb7cf	0.4974961
156	0xbf290495	-0.66022617
157	0xbf2b4545	-0.6690257
158	0x3f0c37a0	0.54772377
159	0xbf2570fc	-0.64625525
160	0xbf1c55b6	-0.61068285
161	0xbe70e003	-0.23522954
162	0xbf2395ea	-0.63900626
163	0xbe2227a3	-0.15835433
164	0xbec4123d	-0.38295165
165	0xbcef6916	-0.029224914
166	0xbc5d0c7f	-0.013491749
167	0xbdb8ff98	-0.09033126
168	0xbd71db6b	-0.059047144
169	0x3ec40657	0.38286087
170	0x3f0de7b1	0.5543166
171	0x3f17032a	0.589892
172	0xbdc3d03e	-0.095612034
173	0x3ed7d905	0.4215776
174	0x3f2394c9	0.63898903
175	0x3ef54041	0.47900584
176	0x3f58fc0a	0.8475958
177	0x3e9057fb	0.28192124
178	0xbeed6a74	-0.4637028
179	0xbf26634b	-0.6499526
180	0x3e1dfc3a	0.15428248
181	0xbd64fe71	-0.055906717
182	0x3f0f16f1	0.5589438
183	0x3e4f0165	0.20215376
184	0xbf2bca1b	-0.67105263
185	0x3ee1b709	0.44084957
186	0x3e147282	0.14496806
187	0xbe6c3fc1	-0.23071195
188	0x3e25ddfc	0.16197962
189	0xbf1774b3	-0.59162444
190	0xbd7de5e6	-0.061986826
191	0x3e86616f	0.2624621
192	0x3cc6d795	0.02427272
193	0x3f001795	0.50035983
194	0x3ec1ea31	0.37873986
195	0x3ee67a8f	0.4501538
196	0x3f49fab4	0.7889817
197	0xbdeec713	-0.11659064
198	0xbe9d332c	-0.30703104
199	0xbebbd5a1	-0.36686423
200	0xbf252224	-0.6450522
201	0x3f1e0be4	0.61736894
202	0xbe643b80	-0.22288322
203	0xbe839f33	-0.25707397
204	0xbe2e9743	-0.1704989
205	0xbf415fef	-0.7553701
206	0x3f46daa9	0.776774
207	0x3dac38fc	0.084093064
208	0xbf1ec323	-0.62016505
209	0x3e7eae7e	0.24871251
210	0xbf50ebcb	-0.8160979
211	0x3de5c995	0.11220089
212	0x3dd53f12	0.1041242
213	0xbeab6197	-0.33472893
214	0xbf25911e	-0.64674556
215	0x3f131529	0.5745416
216	0x3ed6e13a	0.4196871
217	0xbe889c7a	-0.26681882
218	0x3f29ca6b	0.6632449
219	0x3e60dcaf	0.21959184
220	0x3dafa640	0.085766315
221	0xbeff6dab	-0.49888358
222	0xbf1e9098	-0.6193938
223	0xbe192b7e	-0.14957997
224	0xbe8f9a1a	-0.28047258
225	0x3eb74788	0.35796762
226	0x3f3347ad	0.70031244
227	0x3d98ceb2	0.07461299
228	0xbe771464	-0.24128872
229	0x3f13b09e	0.5769137
230	0xbf09a8d9	-0.53773266
231	0xbdc346db	-0.09534999
232	0x3f1c1558	0.6097007
233	0xbf149ec2	-0.58054745
234	0xbcfe6da8	-0.031058148
235	0xbea30a66	-0.3184387
236	0xbec5932f	-0.38588855
237	0x3ed724bb	0.4202021
238	0xbeceeebc	-0.40416515
239	0xbe5868fa	-0.21133795
240	0xbf621b7c	-0.8832319
241	0x3e57fad2	0.21091774
242	0xbea7e1d8	-0.32789493
243	0x3f0bf293	0.54667014
244	0x3f2a2de9	0.66476303
245	0x3eb3e8de	0.351386
246	0xbe78b72f	-0.24288629
247	0x3f1042d6	0.56351984
248	0x3f1ca2bb	0.61185807
249	0xbeb1aace	-0.34700626
250	0x3ee1651a	0.44022447
251	0xbea89246	-0.32924098
252	0xbe051ed9	-0.13000049
253	0x3e8737e5	0.26409832
254	0xbf080515	-0.53132755
255	0x3f07064f	0.52744

decoder.decoder_net.3.weight f4 [32]
0	0x3f83d5f9	1.0299674
1	0x3f827ebc	1.0194926
2	0x3f827e56	1.0194805
3	0x3f85d2e2	1.0454981
4	0x3f77eda9	0.96847016
5	0x3f7c24d2	0.98493683
6	0x3f7cd4b8	0.98762083
7	0x3f8563c2	1.0421069
8	0x3f797b31	0.974536
9	0x3f7e793f	0.99403757
10	0x3f8160d4	1.0107675
11	0x3f8cde40	1.1005325
12	0x3f83a4cb	1.0284666
13	0x3f909fca	1.1298764
14	0x3f800993	1.0002922
15	0x3f826531	1.0187131
16	0x3f7f2551	0.99666315
17	0x3f8c83b7	1.0977696
18	0x3f86957d	1.051437
19	0x3f70c00f	0.9404306
20	0x3f86625e	1.0498769
21	0x3f85fafc	1.0467219
22	0x3f87cf26	1.0610092
23	0x3f79a13e	0.9751166
24	0x3f8508d3	1.0393318
25	0x3f83ec08	1.0306406
26	0x3f6f36a2	0.9344274
27	0x3f8da310	1.1065388
28	0x3f854fc0	1.0414963
29	0x3f73f99a	0.95302737
30	0x3f88ab4b	1.0677274
31	0x3f7bb1ad	0.98317987

decoder.decoder_net.3.bias f4 [32]
0	0x3cdb5209	0.026772516
1	0x3d09224b	0.03347997
2	0x3d2fabdb	0.042888504
3	0xbd0ca23e	-0.034334414
4	0xbd21f211	-0.039537493
5	0x3c249c95	0.010047098
6	0x3d7e630f	0.06210619
7	0xbcb3d3d8	-0.0219516
8	0x3cedadea	0.029013593
9	0x3be02a22	0.00684096
10	0xbc932606	-0.017962467
11	0xbd0ea125	-0.03482165
12	0xbc09fdf7	-0.008422366
13	0xbc8c48b2	-0.017124508
14	0x3cbde766	0.023181628
15	0x3c77f746	0.015134638
16	0x3c9ac794	0.018893994
17	0x3bf72101	0.007541776
18	0xbb56a271	-0.0032750631
19	0x3d39a264	0.045320883
20	0xbd388325	-0.045046944
21	0xbbf9f187	-0.0076276693
22	0x3d19790f	0.037468966
23	0x3d2f7147	0.04283264
24	0xbcd1d45f	-0.025613962
25	0x3c89e230	0.016831487
26	0x3c19ef31	0.009395407
27	0xbc19f552	-0.009396868
28	0x3d3c8a6d	0.04603045
29	0xbd28f9ea	-0.04125396
30	0x3e032f89	0.12811102
31	0x3d6efba0	0.058345437

decoder.decoder_net.3.running_mean f4 [32]
0	0x3e7ffffc	0.24999994
1	0x3e7ffffc	0.24999994
2	0x3e7ffffc	0.24999994
3	0x3e7ffffc	0.24999994
4	0x3e7ffffc	0.24999994
5	0x3e7ffffc	0.24999994
6	0x3e7ffffc	0.24999994
7	0x3e7ffffc	0.24999994
8	0x3e7ffffc	0.24999994
9	0x3e7ffffc	0.24999994
10	0x3e7ffffc	0.24999994
11	0x3e7ffffc	0.24999994
12	0x3e7ffffc	0.24999994
13	0x3e7ffffc	0.24999994
14	0x3e7ffffc	0.24999994
15	0x3e7ffffc	0.24999994
16	0x3e7ffffc	0.24999994
17	0x3e7ffffc	0.24999994
18	0x3e7ffffc	0.24999994
19	0x3e7ffffc	0.24999994
20	0x3e7ffffc	0.24999994
21	0x3e7ffffc	0.24999994
22	0x3e7ffffc	0.24999994
23	0x3e7ffffc	0.24999994
24	0x3e7ffffc	0.24999994
25	0x3e7ffffc	0.24999994
26	0x3e7ffffc	0.24999994
27	0x3e7ffffc	0.24999994
28	0x3e7ffffc	0.24999994
29	0x3e7ffffc	0.24999994
30	0x3e7ffffc	0.24999994
31	0x3e7ffffc	0.24999994

decoder.decoder_net.3.running_var f4 [32]
0	0x3d8a8bfa	0.0676498
1	0x3d896d67	0.0671032
2	0x3d53d792	0.051719256
3	0x3d6be8d6	0.057595097
4	0x3d886fd0	0.066619515
5	0x3d9a6741	0.07539225
6	0x3d7b472b	0.061347168
7	0x3d9657a6	0.07340936
8	0x3d290a62	0.041269667
9	0x3db0be64	0.08630064
10	0x3d59a053	0.053131413
11	0x3d90d92e	0.07072674
12	0x3da94da1	0.0826676
13	0x3da64e46	0.08120398
14	0x3d8cf59d	0.068827845
15	0x3d98e156	0.074648544
16	0x3d5b5673	0.05354924
17	0x3da3e706	0.080030486
18	0x3d940796	0.072280094
19	0x3dca8277	0.098881654
20	0x3d91585f	0.070969336
21	0x3dbe2f7d	0.092864014
22	0x3d88ee6f	0.066861026
23	0x3d944a2d	0.072407104
24	0x3d9154a1	0.0709622
25	0x3d9faab1	0.07796229
26	0x3da4b1f2	0.08041753
27	0x3d60673f	0.054785963
28	0x3da8e601	0.08246995
29	0x3dbebc4a	0.09313257
30	0x3d9eb26c	0.07748875
31	0x3d76e43f	0.060276266

decoder.decoder_net.4.weight f4 [32, 32, 3, 3]
0	0xbaf676d2	-0.0018803722
1	0x3d83a1e8	0.064273655
2	0xbd122d85	-0.035687942
3	0x3d25be18	0.04046449
4	0xbc43c016	-0.011947652
5	0x3c1db708	0.009626158
6	0xbcd2c23f	-0.02572739
7	0xbc85cd7f	-0.01633334
8	0xbb641c61	-0.0034806954
9	0x3d1673b1	0.036731426
10	0xbdc2b934	-0.09507981
11	0x3d67fe95	0.056639273
12	0x3d587e0a	0.052854575
13	0xbc3dab7d	-0.0115765305
14	0xbd80ca45	-0.0628858
15	0xbd9f096f	-0.07765471
16	0x3d56e5b2	0.05246515
17	0xbc6ef975	-0.014585842
18	0xbd441bb5	-0.047877986
19	0xbb6082af	-0.003425758
20	0xbd079ba5	-0.03310742
21	0xbd8cd6a8	-0.0687688
22	0xbd3a044b	-0.04541425
23	0x3d09b5d3	0.033620667
24	0x3d96f51f	0.07370972
25	0x3cb9ca41	0.02267945
26	0xbd3f4d96	-0.04670485
27	0x3c3b7979	0.011442536
28	0xbc947812	-0.01812366
29	0xbd839aa2	-0.06425978
30	0xbca5a6fa	-0.020221222
31	0x3cf25dc4	0.029585727
32	0xbacda0a1	-0.001568813
33	0x3c80f964	0.015743919
34	0x3c39bc5d	0.011336413
35	0x3db75db7	0.089534216
36	0xbcf17b0b	-0.029477617
37	0xbb38a726	-0.00281758
38	0x3cb71da8	0.022353008
39	0x3d80f846	0.062973544
40	0x3d2e85c1	0.042608026
41	0xbd8c29d6	-0.06843917
42	0xbd6ba8c2	-0.057533987
43	0x3bfe8ac4	0.007768007
44	0xbd3365c6	-0.04379823
45	0xbd74d394	-0.05977209
46	0xbc02ca8b	-0.00798286
47	0xbd58584e	-0.05281859
48	0x3d084813	0.03327186
49	0x3cd72390	0.026262075
50	0x3d2680cb	0.04065017
51	0xbd0f7b32	-0.035029598
52	0x3c06f8b1	0.008238004
53	0x3c846eb3	0.016166067
54	0xbc75ba18	-0.0149979815
55	0xbbf2c103	-0.0074082627
56	0x3d071c7d	0.032986153
57	0x3d958e26	0.07302503
58	0x3d38f742	0.04515768
59	0x3dbab1b9	0.09115929
60	0xbd58a845	-0.05289485
61	0x3d101599	0.035176847
62	0x3d0d2149	0.03445557
63	0xbbe56771	-0.0070008566
64	0x3d5580d7	0.052124824
65	0x3d450abb	0.048105936
66	0x3d38b102	0.045090683
67	0x3c922ee4	0.017844625
68	0x3d93dea4	0.072202
69	0x3d82aee5	0.06381015
70	0x3bb0f6f7	0.0054005343
71	0x3d7233d9	0.059131477
72	0xbd749079	-0.059708092
73	0xb9821eaa	-0.0002481838
74	0xbc2f20be	-0.010688959
75	0xbd31bd62	-0.0433935
76	0xbcf74d1d	-0.030188138
77	0xbb3328f1	-0.0027337635
78	0x3d860125	0.06543187
79	0xbd878594	-0.06617275
80	0x3d77632a	0.060397305
81	0xbba65532	-0.005076074
82	0xbd710240	-0.058840036
83	0x3d550e81	0.052015785
84	0xbd6020c1	-0.054718737
85	0x3dc665d1	0.09687389
86	0x3c882b63	0.01662225
87	0x3d7de498	0.061985582
88	0xbd275972	-0.040856786
89	0xbcbbbce1	-0.022917213
90	0xba8f31d2	-0.0010924882
91	0xbd0854e6	-0.03328409
92	0xbd407d2a	-0.046994366
93	0xbde46518	-0.111520946
94	0x3c4eaa8f	0.0126139065
95	0xbdcd3498	-0.10019797
96	0x3d127b4d	0.03576212
97	0x3d4733d9	0.04863343
98	0xbc9fd330	-0.019509882
99	0x3c161534	0.009160329
100	0x3d8674cd	0.06565247
101	0xbd9b34c5	-0.07578424
102	0xbb36d314	-0.0027896808
103	0xbcf79064	-0.030220218
104	0xbda65ea7	-0.08123522
105	0xbcbaa515	-0.022783795
106	0xbc277456	-0.010220608
107	0xbc92a103	-0.017899042
108	0xbd543983	-0.05181266
109	0xbcd65e11	-0.026167901
110	0x3d99a014	0.075012356
111	0xbccaedd9	-0.024771618
112	0x3da6f395	0.08151928
113	0xbc5af9e6	-0.0133652445
114	0x3c4eed5e	0.012629835
115	0x3d81ed94	0.063441426
116	0x3ddfd0ce	0.10928498
117	0xbb9ac604	-0.0047233123
118	0x3d66ce03	0.05634881
119	0x3da70c90	0.08156693
120	0xbbdfa327	-0.006824869
121	0x3d2c48a7	0.042061474
122	0x3d6576f5	0.05602165
123	0x3c75f6b7	0.015012435
124	0xbd2f8f0a	-0.042861022
125	0x3da90e8c	0.08254728
126	0x3d4cc8cb	0.04999618
127	0xbc875c1d	-0.016523415
128	0xbcd617a1	-0.026134314
129	0xbd63ec35	-0.055645186
130	0xbc3b3962	-0.011427255
131	0xbd509164	-0.050919905
132	0xbc1dfec5	-0.009643261
133	0xbcc5da93	-0.024152076
134	0x3d7b53b8	0.061359137
135	0xbd9cebcf	-0.076621644
136	0x3d44c14f	0.048035916
137	0xbd061816	-0.032737814
138	0xbd3717a3	-0.044700276
139	0x3cf34217	0.0296946
140	0xbd493e30	-0.049131572
141	0x3d947098	0.07248038
142	0xbdb81d05	-0.0898991
143	0x3d40b77f	0.047049996
144	0xbb47cae3	-0.003048592
145	0x3cf0845e	0.029359993
146	0x3d0a28ec	0.033730432
147	0xbd3da2ae	-0.04629772
148	0x3d26ec67	0.040752795
149	0x3be68964	0.007035421
150	0xbc9ea935	-0.019367794
151	0xbccf6a29	-0.025319176
152	0xbb92ab36	-0.0044759763
153	0xbd1dea34	-0.03855343
154	0xbd1ea7d1	-0.03873426
155	0xbbb907b3	-0.00564667
156	0xbdaa79d4	-0.08324018
157	0x3d2129e7	0.0393466
158	0xbd5ae014	-0.053436354
159	0xbd2e0fae	-0.042495422
160	0xbcef95f8	-0.029246315
161	0x3d8b81aa	0.06811841
162	0x3ca2d03c	0.019874685
163	0xbce21e27	-0.027602268
164	0x3ca08c15	0.019598046
165	0x3c6650d9	0.0140573615
166	0xbd64cd9c	-0.055860147
167	0x3bc354f0	0.005961053
168	0x3cfed463	0.031107133
169	0x3b6cf310	0.0036155619
170	0xbd997262	-0.0749252
171	0x3dbd85ac	0.092540115
172	0xbc9f8196	-0.019470971
173	0xbdd04215	-0.10168854
174	0xbd4e357c	-0.050343975
175	0xbd3fdc3a	-0.046840884
176	0x3cee23ab	0.029069742
177	0x3d3a8f1d	0.04554664
178	0x3d7da25a	0.06192241
179	0xbd02d8b5	-0.03194495
180	0x3d7b55fd	0.0613613
181	0xbc8ce78c	-0.017200254
182	0xbc9519e1	-0.018200817
183	0xbbe5a017	-0.0070076096
184	0xbb6b3ad1	-0.0035893212
185	0x3b901bd0	0.0043978468
186	0xbd89cc8d	-0.06728468
187	0x3d83a2fb	0.064275704
188	0xbc846a3f	-0.016163943
189	0x3ce697b2	0.028148506
190	0x3d23c69c	0.03998433
191	0xbc7c1eed	-0.015388233
192	0x3d1b5f15	0.037932474
193	0xbb0c1935	-0.002137733
194	0xbcb82bad	-0.022481764
195	0xbdca2d4b	-0.0987192
196	0xbcc290fc	-0.023750775
197	0x3c8384ee	0.016054597
198	0x3d3a5d20	0.045498967
199	0x3d390386	0.045169376
200	0x3c0ef5eb	0.008725624
201	0xbcd3efa7	-0.025871111
202	0xbc55732c	-0.013027947
203	0x3de5bd6b	0.11217769
204	0x3cd1abe5	0.025594661
205	0x3d1cc4da	0.03827367
206	0x3d2e0eac	0.04249446
207	0xbd2c9808	-0.042137176
208	0x3c512980	0.012766242
209	0x3cbd8047	0.023132456
210	0xbb9a2f87	-0.0047053727
211	0x3d44ff98	0.048095316
212	0xbd8c9934	-0.06865159
213	0xbc5abc9e	-0.013350634
214	0xbcc3b1da	-0.023888517
215	0x3cbdd7ec	0.023174249
216	0xbc40be5e	-0.011764137
217	0xbc4560e1	-0.0120470235
218	0xbbf42109	-0.007450227
219	0x3d1b58b3	0.037926387
220	0x3d7b4eec	0.061354563
221	0x3d7a8222	0.06115926
222	0x3d07cf65	0.03315677
223	0x3d35a467	0.04434624
224	0x3bdf43d1	0.0068135043
225	0x3d8ff971	0.07029999
226	0xbc0125b3	-0.007882523
227	0xbc9f9db5	-0.01948438
228	0x3cc1f301	0.023675444
229	0xbd190330	-0.037356555
230	0x3d0d4981	0.034493927
231	0xbb7dbe6d	-0.003871824
232	0x3cf857a9	0.030315237
233	0xbcba536e	-0.02274486
234	0x3d9b64ca	0.07587583
235	0xbd5c584b	-0.05379514
236	0x3d2d49fc	0.042306885
237	0xbd15ee8d	-0.036604453
238	0xbc9525f3	-0.018206572
239	0x3dc95dff	0.098323815
240	0xbc3c37d2	-0.011487918
241	0x3c5b0056	0.013366779
242	0xbd8eda54	-0.069752365
243	0x3dc0b654	0.09409776
244	0x3c8c8487	0.017153038
245	0x3cd8f68b	0.026484748
246	0xbb54981a	-0.0032439292
247	0x3d4ee57a	0.050511815
248	0x3cb25fff	0.02177429
249	0xbcb12b99	-0.021627234
250	0xbb91b58c	-0.004446691
251	0xbd9203a4	-0.07129601
252	0x3d4e8852	0.050422974
253	0xbc685417	-0.014180205
254	0x3d4cb30a	0.049975432
255	0x3d18f71e	0.037345044

decoder.decoder_net.4.bias f4 [32]
0	0x3c707681	0.014676691
1	0x3d9e9568	0.07743341
2	0xbd0a3993	-0.033746313
3	0xbda38067	-0.07983475
4	0xbe14c89f	-0.14529656
5	0xbceaf5ae	-0.028681602
6	0x3d14a2e8	0.036288172
7	0x3b0487f3	0.0020222634
8	0x3b9b80e7	0.004745591
9	0xbd8bcf1f	-0.068266146
10	0xbc91c8ae	-0.017795887
11	0x3c71364e	0.01472242
12	0xbdb11742	-0.08647014
13	0xbc237149	-0.00997574
14	0xbd082a8b	-0.033243697
15	0xbd3c3471	-0.04594845
16	0x3d562673	0.05228276
17	0x3e1129ff	0.14176176
18	0xbcddd4bc	-0.027078979
19	0x3d888054	0.06665102
20	0xbd8f579e	-0.069991335
21	0xbda21897	-0.079148464
22	0x3d8ffd05	0.070306815
23	0x3c2fd37d	0.010731575
24	0xbcc8ad56	-0.024496716
25	0xbcd37b9b	-0.025815776
26	0xbe1fa066	-0.15588531
27	0xbd898a17	-0.06715792
28	0x3cbd7c39	0.023130523
29	0x3c5de45d	0.013543216
30	0xbd92aec7	-0.071622424
31	0xbc3ca232	-0.01151328

decoder.decoder_net.6.weight f4 [32]
0	0x3f74ebec	0.9567249
1	0x3f6aedde	0.91769207
2	0x3f6fe6f6	0.93711793
3	0x3f737bdd	0.95110875
4	0x3f608f37	0.8771853
5	0x3f7086a3	0.9395544
6	0x3f6f486b	0.93469876
7	0x3f677248	0.90408754
8	0x3f72e37b	0.9487836
9	0x3f5a301b	0.85229653
10	0x3f6b13bc	0.9182699
11	0x3f889d4c	1.0673003
12	0x3f693b10	0.9110575
13	0x3f716fd3	0.94311255
14	0x3f6ef3f5	0.93341
15	0x3f683ac4	0.9071467
16	0x3f6adf26	0.9174675
17	0x3f66f590	0.9021845
18	0x3f76efa1	0.96459395
19	0x3f706194	0.9389889
20	0x3f6bf47a	0.92169917
21	0x3f7325b0	0.9497938
22	0x3f6d5713	0.9271099
23	0x3f712ee2	0.9421216
24	0x3f74fa66	0.9569458
25	0x3f823855	1.0173441
26	0x3f742239	0.9536472
27	0x3f59f5d5	0.85140735
28	0x3f5781ff	0.84182733
29	0x3f6f07b7	0.93371147
30	0x3f6a5dc2	0.91549313
31	0x3f7621ac	0.9614513

decoder.decoder_net.6.bias f4 [32]
0	0x3d733857	0.0593799
1	0xbc492098	-0.012275837
2	0xbd1e1b5a	-0.038600303
3	0xbc243753	-0.010022956
4	0x3d23931c	0.039935216
5	0xbc25f550	-0.010129288
6	0x3d5211b8	0.05128643
7	0x3d17a36b	0.037021082
8	0x3d105ae1	0.03524292
9	0x3d3f7f9a	0.04675255
10	0x3d511cbb	0.05105279
11	0x3c88a0de	0.01667827
12	0x3d48d1d0	0.049028218
13	0x3dd7e117	0.10540979
14	0xbbe22de0	-0.0069024414
15	0xbd00fda7	-0.0314919
16	0x3c82f33e	0.015985128
17	0xbd1ebd16	-0.038754545
18	0xbd002742	-0.03128744
19	0xbd10488a	-0.03522543
20	0x396fcc22	0.00022868862
21	0x3c97d470	0.018533915
22	0xbd1a6623	-0.03769506
23	0x3d940bc5	0.07228807
24	0x3dcb514f	0.09927618
25	0x3d2646d0	0.040594876
26	0xbd10b5ee	-0.03532975
27	0xbc30225c	-0.010750379
28	0xbc3eef0e	-0.011653675
29	0xbd43c8e9	-0.047799025
30	0xbd75a126	-0.059968136
31	0xbd3e852d	-0.046513725

decoder.decoder_net.6.running_mean f4 [32]
0	0x3e12491d	0.14285703
1	0x3e12491d	0.14285703
2	0x3e12491d	0.14285703
3	0x3e12491d	0.14285703
4	0x3e12491d	0.14285703
5	0x3e12491d	0.14285703
6	0x3e12491d	0.14285703
7	0x3e12491d	0.14285703
8	0x3e12491d	0.14285703
9	0x3e12491d	0.14285703
10	0x3e12491d	0.14285703
11	0x3e12491d	0.14285703
12	0x3e12491d	0.14285703
13	0x3e12491d	0.14285703
14	0x3e12491d	0.14285703
15	0x3e12491d	0.14285703
16	0x3e12491d	0.14285703
17	0x3e12491d	0.14285703
18	0x3e12491d	0.14285703
19	0x3e12491d	0.14285703
20	0x3e12491d	0.14285703
21	0x3e12491d	0.14285703
22	0x3e12491d	0.14285703
23	0x3e12491d	0.14285703
24	0x3e12491d	0.14285703
25	0x3e12491d	0.14285703
26	0x3e12491d	0.14285703
27	0x3e12491d	0.14285703
28	0x3e12491d	0.14285703
29	0x3e12491d	0.14285703
30	0x3e12491d	0.14285703
31	0x3e12491d	0.14285703

decoder.decoder_net.6.running_var f4 [32]
0	0x3ba33d65	0.004981684
1	0x3b9e81b7	0.0048372406
2	0x3bc0ecef	0.0058876197
3	0x3be7aa9b	0.0070698983
4	0x3c05cfd2	0.008167224
5	0x3b9d93a8	0.0048088618
6	0x3bdd7b7c	0.0067591053
7	0x3b98adc8	0.004659388
8	0x3bf51c61	0.0074801897
9	0x3b8b2bb2	0.0042471522
10	0x3bb35129	0.0054723215
11	0x3b903cee	0.0044017946
12	0x3bd589eb	0.0065166852
13	0x3bc8a071	0.0061226417
14	0x3bbf8ef5	0.005845899
15	0x3b8dee25	0.0043313676
16	0x3bba31cd	0.0056822062
17	0x3b37c1d7	0.0028039122
18	0x3ba4733f	0.005018621
19	0x3b692a80	0.003557831
20	0x3bb659b4	0.0055648927
21	0x3b921416	0.004457961
22	0x3bc216a0	0.0059231073
23	0x3c00365d	0.007825461
24	0x3b86d44c	0.004114663
25	0x3b9c4882	0.004769386
26	0x3b88fef9	0.0041807857
27	0x3b95142d	0.0045495243
28	0x3c0e7231	0.008694218
29	0x3be66326	0.0070308624
30	0x3bc4a1fe	0.0060007563
31	0x3b532211	0.003221635

decoder.decoder_net.7.weight f4 [32, 16, 3, 3]
0	0xbab22528	-0.0013591396
1	0xbc4a2718	-0.012338422
2	0xbba10741	-0.004914195
3	0xbdc01498	-0.09378928
4	0xbd9de34d	-0.0770937
5	0xbcf747ee	-0.030185666
6	0xbdcc2cc4	-0.09969476
7	0x3c7151b4	0.014728952
8	0x3bc64fec	0.006052008
9	0xbcdc3ec6	-0.026885401
10	0xbd0225a5	-0.031774182
11	0xbd3e15a9	-0.046407375
12	0x3d0f53f3	0.03499217
13	0xbd501e1e	-0.050809972
14	0x3d3b7fa1	0.045776013
15	0xbd09dfa5	-0.03366055
16	0xbd879d2f	-0.06621777
17	0x3cc6abfd	0.024251932
18	0x3d072e58	0.03300318
19	0xbd9f08ec	-0.077653736
20	0x3d6260cd	0.055268098
21	0xbce0c70b	-0.027438661
22	0x3c4afb48	0.012389012
23	0x3d507c6a	0.0508999
24	0xbd4b6b6d	-0.049662996
25	0xbd03abf0	-0.032146394
26	0xbdc52135	-0.09625474
27	0xbcd625ab	-0.026141008
28	0xbe21954d	-0.1577961
29	0x3d2e8d96	0.042615496
30	0x3d9010cb	0.07034453
31	0xbd81d43d	-0.06339309
32	0x3df0c9ca	0.11757238
33	0x3a147c04	0.0005664232
34	0xbd0383bb	-0.03210805
35	0x3d26de8c	0.04073958
36	0x3c2e777b	0.010648604
37	0xbd116d7d	-0.035504807
38	0x3d5b115f	0.053483363
39	0x3dc0ac1e	0.09407829
40	0xbc8d8e03	-0.01727963
41	0x3cd77bda	0.026304174
42	0xbd15e103	-0.03659154
43	0xbc97fabc	-0.018552177
44	0xbd8e08b1	-0.069352515
45	0xbd7248c3	-0.059151422
46	0x3d78a23a	0.060701586
47	0xbdc0aaf4	-0.09407607
48	0x3c610a81	0.0137354145
49	0xbc5d663e	-0.013513146
50	0x3c6a5022	0.014301332
51	0xbd89aee1	-0.06722809
52	0xbc42f45e	-0.011899082
53	0x3d06c7e1	0.032905463
54	0xbca24c61	-0.01981181
55	0xbd706e52	-0.05869896
56	0x3b5a8cd8	0.003334811
57	0x3c701e2c	0.014655631
58	0x3d657f28	0.05602947
59	0x3d0a1610	0.033712447
60	0xbb5fcc9c	-0.0034149056
61	0x3d0d2f52	0.034468956
62	0xbd257dc4	-0.040403143
63	0xbb736414	-0.0037138509
64	0xbbc10862	-0.005890892
65	0x3a911f41	0.0011071936
66	0x3d2466f3	0.040137243
67	0xbd27bf76	-0.040954076
68	0xbd9ce266	-0.076603696
69	0xbd76e4d7	-0.060276832
70	0x3d64c828	0.055854946
71	0x3d21cf37	0.039504256
72	0xbda285df	-0.0793569
73	0xbc8ff24a	-0.017571587
74	0xbd075147	-0.033036496
75	0x3d9b3d70	0.07580078
76	0xbba8b420	-0.0051484257
77	0x3a0c602b	0.00053549063
78	0x3d1ea484	0.038731113
79	0xbd431bfa	-0.047634102
80	0xbd2d4ffd	-0.04231261
81	0x3b1bbfa4	0.002376535
82	0xbd384257	-0.04498514
83	0x3d7f3ba2	0.06231273
84	0xbd08eda4	-0.033429757
85	0x3c87cca1	0.016577067
86	0xbd46d74c	-0.048545167
87	0xbd8f92c2	-0.07010414
88	0x3d2989fe	0.041391365
89	0x3c675f49	0.014121839
90	0x3d34a4f4	0.044102624
91	0xbc9ba030	-0.018997282
92	0xbd490e2a	-0.049085774
93	0x3d4f041a	0.05054102
94	0xbbd8e8a3	-0.0066195293
95	0xbdfe3b1d	-0.12413619
96	0xbd478ca6	-0.048718117
97	0xbc87d09f	-0.01657897
98	0xbd96534f	-0.073401086
99	0xbce2e519	-0.027697133
100	0xbdff046f	-0.124520175
101	0xbc94e43d	-0.018175239
102	0xbde508d5	-0.11183325
103	0xbd1311b5	-0.03590556
104	0xbca5f72d	-0.020259464
105	0x3d0c446d	0.034244943
106	0xbcf45040	-0.029823422
107	0x3aa7c064	0.0012798426
108	0xbe02fb96	-0.12791285
109	0xbdcc2d81	-0.09969617
110	0xbdea70e0	-0.114473104
111	0xbd7ebac8	-0.062189847
112	0xbd8b831a	-0.06812115
113	0x3dbfc391	0.09363473
114	0xbd11cf74	-0.035598233
115	0xbd805bfe	-0.06267546
116	0xbc904c83	-0.017614609
117	0x3ca7770a	0.020442504
118	0xbba42366	-0.0050091026
119	0x3c59268c	0.013253819
120	0xbbbbb34e	-0.005728162
121	0xbdc73867	-0.09727555
122	0x3d26d09d	0.040726293
123	0xbd6436ab	-0.055716198
124	0x3d54fca2	0.051998742
125	0xbd815fbf	-0.0631709
126	0xbd064126	-0.032776974
127	0xbce03de8	-0.02737327
128	0xbc00dd2c	-0.0078652315
129	0xbde8def8	-0.11370653
130	0xbdaaa0e9	-0.083314724
131	0xbc8ac508	-0.016939655
132	0xbcd51c0a	-0.026014347
133	0xbceabb35	-0.02865372
134	0x3d4c41a3	0.049867284
135	0x3d665bc2	0.05623985
136	0xbd493cbe	-0.049130194
137	0xbce78d0f	-0.028265504
138	0xbd698b9a	-0.0570179
139	0xbd819c06	-0.06328587
140	0xbd4deff6	-0.050277673
141	0x3cd34854	0.025791325
142	0xbca3da95	-0.020001689
143	0x3ca50599	0.02014427
144	0x3d51e948	0.051247865
145	0xbcf16b3a	-0.029470075
146	0x3d77572e	0.060385875
147	0x3c30d0d3	0.010791975
148	0xbcae0d4a	-0.021246571
149	0x3c8e6340	0.01738131
150	0xbd8116f9	-0.0630321
151	0xbda69fa0	-0.08135915
152	0xbcc1b41e	-0.023645457
153	0xbc04b061	-0.008098693
154	0xbd164094	-0.03668268
155	0xbdb318c1	-0.08744956
156	0x3c9e2082	0.01930261
157	0x3da33719	0.079694934
158	0x3d357274	0.044298604
159	0x3d361ac1	0.04445911
160	0xbd5379fd	-0.05163001
161	0x3cb934d6	0.022608202
162	0x3d3a1b9f	0.045436498
163	0xbd2f4455	-0.042789776
164	0x3c13916c	0.009006839
165	0x3cd70ef9	0.026252257
166	0xbdeb18c3	-0.11479332
167	0xbcf40659	-0.029788183
168	0x3d00cee4	0.031447306
169	0xbd3fd9af	-0.04683846
170	0xbcd68e4d	-0.026190901
171	0xbdb39cbf	-0.08770131
172	0x3ba78b2a	0.005113025
173	0x3d53479f	0.051581975
174	0x3dca4045	0.0987554
175	0x3cadeab8	0.021230087
176	0x3d80e811	0.06294263
177	0xbd84ff3f	-0.06493997
178	0xbca53e0e	-0.020171192
179	0xbd67a26a	-0.056551374
180	0x3cd0aa00	0.025471687
181	0x3d30b0e4	0.043137446
182	0xbd0cfabb	-0.034418803
183	0xbc6d2b17	-0.014475605
184	0x3c40bc02	0.011763575
185	0xbbac3709	-0.005255584
186	0x3d8f439e	0.06995319
187	0x3d1bcc8b	0.038036864
188	0xbc8b6afc	-0.017018788
189	0x3c52bc92	0.0128623415
190	0x3d7f5357	0.06233534
191	0xbe03d119	-0.12872733
192	0xbd2b8498	-0.041874498
193	0xbcb67730	-0.02227363
194	0x3d81ed1c	0.06344053
195	0x3b7dbad6	0.00387161
196	0xbd779011	-0.060440127
197	0x3c5fe5b9	0.01366561
198	0xbca4439c	-0.02005177
199	0xbd443e4c	-0.047910973
200	0xbc85ce24	-0.016333647
201	0x3d718295	0.058962423
202	0x3dc7fb3c	0.09764716
203	0x3b3f8d20	0.0029228404
204	0x3d2c0fe8	0.042007357
205	0x3ce24f4e	0.027625706
206	0xbd973940	-0.073839664
207	0xbd0dda24	-0.034631863
208	0xbdd30f35	-0.10305635
209	0xbccebf43	-0.025237685
210	0xbda86cf3	-0.082239054
211	0xbcc4dc85	-0.024030933
212	0x3cdc00c2	0.02685583
213	0x3d9f42bc	0.077764004
214	0xbc25f052	-0.010128098
215	0xbb8148ca	-0.0039454447
216	0x3d42111e	0.047379605
217	0xbc72a89b	-0.0148107065
218	0xbc5c23ff	-0.0134363165
219	0x3d3b1c63	0.04568137
220	0xbd8053bd	-0.06265972
221	0xbc0e9fc7	-0.008705086
222	0xbd8abf1e	-0.06774734
223	0x3d42fc25	0.047603745
224	0xbca82b19	-0.020528363
225	0x3dfae084	0.12249854
226	0xbd8f085d	-0.06984017
227	0x3b6af6bc	0.0035852632
228	0xbcdeac8c	-0.027181886
229	0xbd79fa85	-0.06102993
230	0xbc61e06d	-0.013786417
231	0xbd5c2158	-0.053742737
232	0x3d30e764	0.04318942
233	0x3d8340c5	0.06408838
234	0xbda7cb4c	-0.08193073
235	0xbd34606f	-0.04403728
236	0xbb1f499f	-0.0024305356
237	0xbdaa87c1	-0.08326674
238	0xbd3d4713	-0.04621036
239	0xbda76793	-0.08174052
240	0xbd056018	-0.032562345
241	0x3d7be6d5	0.061499435
242	0x3c7bb032	0.015361832
243	0xbbdea805	-0.006794932
244	0xbd8f89f8	-0.07008737
245	0xbd42c26a	-0.04754869
246	0x3d017efd	0.031615246
247	0xbd1acca1	-0.037792806
248	0x3c1e7b99	0.009673023
249	0x3cae49be	0.021275397
250	0x3c1b8f7f	0.009494661
251	0x3ca64066	0.02029438
252	0xbb589645	-0.0033048552
253	0xbccb6e92	-0.024832997
254	0xbd2e8bcf	-0.0426138
255	0xbd8cf121	-0.06881929

decoder.decoder_net.7.bias f4 [16]
0	0xbd03d3bd	-0.03218435
1	0x3cb22f58	0.02175109
2	0x3de055d6	0.10953872
3	0x3d9a2892	0.075272694
4	0xbccb07f0	-0.024784058
5	0xbd061ad0	-0.032740414
6	0xbb3d725f	-0.0028907282
7	0x3add760f	0.0016896146
8	0xbc745c54	-0.014914591
9	0xbde25326	-0.110510156
10	0x3ddbb2ac	0.10727438
11	0xbd941792	-0.07231058
12	0x3d3f03f1	0.04663462
13	0x3e025dd9	0.12731113
14	0xbcbc95c4	-0.023020633
15	0xbcdb97d3	-0.026805794

decoder.decoder_net.9.weight f4 [16]
0	0x3f7002e8	0.93754435
1	0x3f7ad818	0.9798598
2	0x3f6bea90	0.9215479
3	0x3f6ddf55	0.929189
4	0x3f6dc221	0.9287434
5	0x3f70b6c4	0.9402888
6	0x3f8a08ba	1.0783913
7	0x3f6ccf3a	0.925037
8	0x3f6b405c	0.9189508
9	0x3f7123eb	0.9419543
10	0x3f71d228	0.944613
11	0x3f74c1b2	0.95608056
12	0x3f6bb7bb	0.92077225
13	0x3f658779	0.8965984
14	0x3f687aed	0.9081257
15	0x3f60d666	0.87827146

decoder.decoder_net.9.bias f4 [16]
0	0x3e19dbf7	0.15025316
1	0x3c975677	0.018473847
2	0xbcc0538d	-0.02347734
3	0x3c9614f3	0.018320536
4	0xbc8d9268	-0.017281726
5	0xbdb96b8a	-0.090537146
6	0x3cb6785e	0.022274192
7	0xbdc54064	-0.09631422
8	0x3cbebc1c	0.023283057
9	0x3ae4410a	0.0017414403
10	0xbc93e991	-0.01805571
11	0x3d6b89a9	0.05750433
12	0x3e59b354	0.21259815
13	0x3d4b4e75	0.04963537
14	0x3cd47910	0.025936633
15	0xbe115c44	-0.14195353

decoder.decoder_net.9.running_mean f4 [16]
0	0x3d92491d	0.071428515
1	0x3d92491d	0.071428515
2	0x3d92491d	0.071428515
3	0x3d92491d	0.071428515
4	0x3d92491d	0.071428515
5	0x3d92491d	0.071428515
6	0x3d92491d	0.071428515
7	0x3d92491d	0.071428515
8	0x3d92491d	0.071428515
9	0x3d92491d	0.071428515
10	0x3d92491d	0.071428515
11	0x3d92491d	0.071428515
12	0x3d92491d	0.071428515
13	0x3d92491d	0.071428515
14	0x3d92491d	0.071428515
15	0x3d92491d	0.071428515

decoder.decoder_net.9.running_var f4 [16]
0	0x3b626db1	0.0034550244
1	0x3ba55650	0.0050456896
2	0x3b066401	0.0020506384
3	0x3b76b7e0	0.003764622
4	0x3b17c3fc	0.0023157587
5	0x3b835b29	0.00400867
6	0x3ba71a89	0.005099599
7	0x3ac116da	0.0014731542
8	0x3b24626c	0.0025083078
9	0x3b41ce30	0.002957236
10	0x3b83bd8d	0.004020399
11	0x3b2b341a	0.0026123584
12	0x3b2a06ba	0.002594395
13	0x3a5ec55c	0.0008498037
14	0x3b184ca7	0.0023239048
15	0x3a282397	0.00064139947

decoder.decoder_net.10.weight f4 [16, 1, 3, 3]
0	0xbe3ddd3d	-0.18541427
1	0x3e2b23bd	0.16712852
2	0xbdcfbbba	-0.10143228
3	0x3e8d026a	0.27540904
4	0x3e702e01	0.23455049
5	0xbe0a843c	-0.13527006
6	0x3de7a2da	0.11310358
7	0x3dd7d7ed	0.105392314
8	0x3e55fc1d	0.20896955
9	0x3e90b53c	0.2826327
10	0xbe52b3d8	-0.20576417
11	0xbe8c3186	-0.27381533
12	0x3dea3817	0.114364795
13	0x3da5c353	0.08093896
14	0x3bb2f455	0.0054612556
15	0x3e2845eb	0.16432922
16	0x3d4511f8	0.04811284
17	0xbe86349b	-0.2621201
18	0x3c9baf70	0.019004554
19	0x3cb00b3a	0.021489728
20	0x3a85216b	0.0010157054
21	0x3daf31f6	0.08554451
22	0x39a44d46	0.0003133809
23	0xbe3a3106	-0.18182763
24	0x3e2ed67b	0.17074005
25	0xbe509140	-0.20367908
26	0xbd0a6aee	-0.033793382
27	0x3d99e3be	0.075141415
28	0x3d9bc9ba	0.07606836
29	0x3e2693ff	0.16267394
30	0x3dd5c329	0.104376145
31	0xbe6a5dc9	-0.22887339
32	0x3e19bc6d	0.15013285
33	0xbe818fbb	-0.2530497
34	0xbe653f9c	-0.22387546
35	0x3e008a91	0.12552859
36	0xbe4ce869	-0.20010532
37	0xbdecc4c0	-0.115609646
38	0xbe8a84fc	-0.27054584
39	0x3daa0187	0.083010726
40	0xbdf591d7	-0.11990707
41	0xbe49d3d2	-0.1970971
42	0xbe60e8ba	-0.21963778
43	0x3e5f98f3	0.21835689
44	0x39878612	0.00025849097
45	0xbe1e8587	-0.15480624
46	0x3e2102be	0.15723702
47	0x3d914233	0.070927046
48	0xbe8d5ea0	-0.27611256
49	0xbe4f9c72	-0.20274523
50	0xbe34f931	-0.17673184
51	0xbe463666	-0.19356689
52	0xbc59ea04	-0.013300423
53	0x3e6451dd	0.22296853
54	0xbe8f8e8b	-0.2803844
55	0xbef3b60f	-0.47599837
56	0xbe87fd44	-0.26560414
57	0x39b8b4e0	0.00035229977
58	0xbb16d898	-0.0023017284
59	0x3ccd4702	0.025058273
60	0xbccd9d52	-0.02509943
61	0xbcf6a3b9	-0.030107366
62	0x3d3e7f88	0.046508342
63	0xbe248616	-0.16066775
64	0x3cca8b37	0.024724586
65	0x3d0409bb	0.032235842
66	0xbe8f4d2b	-0.27988562
67	0xbe0e4cfb	-0.13896553
68	0x3e291a47	0.1651393
69	0x3db93de9	0.090450116
70	0xbe7cdafa	-0.24692908
71	0xbe0cd3e9	-0.13752712
72	0xbe205e02	-0.15660861
73	0xbd24a080	-0.040192127
74	0x3e70b4da	0.2350649
75	0xbd71fe09	-0.059080157
76	0x3d46e3f6	0.048557244
77	0x3de977e1	0.11399818
78	0x3e1557b5	0.14584239
79	0xbe43d2a6	-0.19123325
80	0x3e4e2781	0.20132257
81	0x3e662bd3	0.22477655
82	0x3e86a18c	0.26295125
83	0x3db2b0e0	0.087251425
84	0xbddf28c6	-0.10896449
85	0x3e44e39a	0.19227448
86	0xbd5ad636	-0.053426944
87	0x3e8e7c6e	0.27829307
88	0x3e39c36f	0.18140958
89	0x3e2910be	0.16510293
90	0xbe637b87	-0.2221509
91	0xbdc5d41f	-0.096595995
92	0x3e577e1c	0.210442
93	0xbd8fc83f	-0.07020616
94	0xbdc0f201	-0.094211586
95	0x3e0acc0d	0.13554402
96	0xbe196ad7	-0.14982162
97	0xbd88a926	-0.066728875
98	0xbe7a987e	-0.24472234
99	0xbe247aeb	-0.16062514
100	0x3e46fe73	0.19433002
101	0x3e6864d9	0.2269472
102	0xbe5f75ea	-0.21822324
103	0x3e9b573c	0.30339992
104	0x3e495014	0.19659454
105	0x3dcd54ea	0.10025962
106	0xbdb4fb0b	-0.08836945
107	0xbbf52ce2	-0.007482157
108	0x3dda3c2f	0.1065601
109	0x3d3f0e46	0.04664447
110	0xbdced5e7	-0.100993924
111	0x3e01c7a9	0.1267382
112	0x3e1c2079	0.15246762
113	0xbd389724	-0.045066014
114	0xbde9b9b3	-0.114123724
115	0xbe56a8b6	-0.20962796
116	0x3da65ead	0.08123527
117	0xbcae9b34	-0.021314241
118	0x3dc07bce	0.09398614
119	0x3dda2426	0.10651426
120	0x3de02930	0.10945356
121	0xbc13fb1a	-0.009032035
122	0x3e41d529	0.1892897
123	0xbd923705	-0.071394004
124	0x3d59f4fd	0.053212155
125	0xbd9e0f4b	-0.07717761
126	0x3dc574ac	0.09641394
127	0x3e52df57	0.2059301
128	0xbe138b8c	-0.14408702
129	0x3e7e4c09	0.24833693
130	0xbe58e827	-0.21182309
131	0x3ddbcb07	0.10732084
132	0xbe39d374	-0.18147069
133	0x3e4495ba	0.19197741
134	0x3d828d34	0.063745886
135	0x3d1d1e22	0.038358815
136	0x3db46454	0.088081986
137	0xbdf873b9	-0.12131447
138	0xbde60054	-0.11230531
139	0xbe4226c1	-0.18960096
140	0xbd90d040	-0.070709705
141	0xbbd01800	-0.0063505173
142	0xbda0c568	-0.07850152
143	0x3e0aed11	0.13566996

encoder.encoder_net.0.weight f4 [16, 1, 3, 3]
0	0xbd0aab62	-0.03385485
1	0x3e6390b7	0.22223173
2	0xbe595a90	-0.21225953
3	0x3e22d05b	0.15899794
4	0x3e2ee4bf	0.17079447
5	0xbd9234e5	-0.07138995
6	0xbe1763b7	-0.14784132
7	0x3df5d66e	0.1200379
8	0x3e72ab46	0.23698148
9	0xbd8a1013	-0.06741347
10	0x3de37124	0.11105564
11	0x3dc0d142	0.09414913
12	0x3e5c8099	0.21533431
13	0x3e9b44e4	0.30325997
14	0x3ae83b73	0.0017717913
15	0x3e92d4bb	0.28677925
16	0xbe8a2c92	-0.2698713
17	0x3d1ac6df	0.037787315
18	0xbd4c9aa0	-0.04995215
19	0xbe9e88d4	-0.30963767
20	0xbe17a49e	-0.1480889
21	0xbe5c4e47	-0.21514235
22	0xbc2296d2	-0.009923654
23	0xbdf43cdc	-0.119256705
24	0xbded1a08	-0.11577231
25	0x3d38bb96	0.04510077
26	0xbe0c5e35	-0.13707812
27	0x3e95bf2d	0.29247418
28	0xbe4c1123	-0.19928412
29	0x3d460ea8	0.04835382
30	0x3cfd01f6	0.030884724
31	0x3e17b983	0.14816861
32	0xbd72decf	-0.059294518
33	0x3e1635be	0.14668939
34	0x3cf84919	0.030308293
35	0x3e871cfb	0.26389298
36	0x3ea0d66c	0.3141359
37	0x3db10d25	0.08645085
38	0x3d00833d	0.03137516
39	0xbe6bd772	-0.23031405
40	0x3e344195	0.17603143
41	0x3d8592d3	0.06522145
42	0x3ccb6a41	0.02483094
43	0x3ca5f597	0.020258708
44	0x3dc43893	0.09581103
45	0xbd99f512	-0.075174466
46	0x3e35eda6	0.17766437
47	0x3d767729	0.060172234
48	0xbe0157cc	-0.12631148
49	0x3e96e0cb	0.29468378
50	0x3d2e7dae	0.042600326
51	0x3e8992d0	0.26869822
52	0xbced4608	-0.028964058
53	0x3dd70580	0.10499096
54	0x3da94d86	0.082667395
55	0x3d3060aa	0.043060936
56	0xbea914a6	-0.33023566
57	0x3d218ea4	0.039442673
58	0xbdc292d3	-0.09500661
59	0xbec0abfb	-0.3763121
60	0x3dd3f7da	0.10350008
61	0xbe1c453a	-0.15260783
62	0xbe931efc	-0.28734577
63	0xbe431533	-0.19051056
64	0xbe9ff7d0	-0.31243753
65	0xbe480e33	-0.19536667
66	0xbde4d653	-0.111736916
67	0xbea968b3	-0.33087692
68	0xbe963fe2	-0.29345614
69	0xbe885a1c	-0.26631248
70	0xbe530272	-0.20606402
71	0xbe40e6a2	-0.1883798
72	0xbda4484c	-0.08021602
73	0x3e65b71d	0.22433133
74	0x3d79d147	0.060990598
75	0x3e8e4b19	0.2779167
76	0x3e2c24de	0.16810939
77	0x3e76f540	0.24116993
78	0xbd497c67	-0.049190905
79	0x3e4d750e	0.20064184
80	0xbdb3c848	-0.08778435
81	0xbca7aed1	-0.020469101
82	0xbd02939a	-0.031879045
83	0x3e9cb557	0.306071
84	0x3eb03f27	0.3442318
85	0x3c585caf	0.013205691
86	0xbea087ce	-0.3135361
87	0xbe2f7d4d	-0.17137642
88	0x3c493ac7	0.01228208
89	0xbe83bbb7	-0.25729153
90	0xbdfa3733	-0.1221756
91	0x3eabb552	0.33536774
92	0x3ea31d4a	0.31858283
93	0xbe8105cf	-0.25199744
94	0x3e83b630	0.25724936
95	0x3d14332e	0.03618162
96	0xbda19fa0	-0.07891774
97	0xbe3dcd21	-0.18535282
98	0xbe3eb8ab	-0.18625133
99	0x3c2189e8	0.00985954
100	0x3e652a77	0.2237948
101	0x3e933ea2	0.28758723
102	0x3c35a6de	0.0110871475
103	0x3d2e1162	0.042497046
104	0xbe084e16	-0.13311037
105	0xbe8bde79	-0.2731817
106	0x3e99c64d	0.30034104
107	0xbe694aa7	-0.22782384
108	0x3e6be8e6	0.23038062
109	0xbe7a4851	-0.24441649
110	0xbd70cd28	-0.058789402
111	0x3e93ed0d	0.28891793
112	0xbe4c11e5	-0.19928701
113	0xbdc8c62a	-0.09803422
114	0x3caf5eb6	0.021407466
115	0x3eaadb08	0.33370233
116	0xbe3c48bb	-0.1838712
117	0x3e02d49b	0.12776415
118	0xbe1cfa40	-0.15329838
119	0x3d6026cc	0.0547245
120	0xbd35ffca	-0.044433393
121	0x3ddbcea3	0.10732772
122	0xbe958d60	-0.29209423
123	0x3e82de58	0.2556026
124	0x3dea84e3	0.114511274
125	0xbe9bfbb7	-0.3046548
126	0x3e76e8e3	0.24112277
127	0x3e1ddb70	0.1541574
128	0x3e6291f5	0.2212599
129	0x3e9288f4	0.28620112
130	0xbe7fbd1f	-0.24974488
131	0x3e67a94c	0.22623175
132	0x3dfc1318	0.12308329
133	0x3de5bb49	0.112173624
134	0x3e81f9f8	0.25386024
135	0x3e6820a8	0.22668707
136	0x3e3bbe59	0.1833433
137	0xbe9ef9f9	-0.3105009
138	0x3e427bd8	0.18992555
139	0xbe1b1160	-0.15143347
140	0x3d1f2bda	0.03886018
141	0xbdf27b34	-0.118399054
142	0x3e0e23ab	0.13880794
143	0xbe2ff992	-0.17185047

encoder.encoder_net.0.bias f4 [16]
0	0xbe40cb70	-0.18827605
1	0x3e85daa4	0.26143372
2	0x3e768548	0.2407428
3	0xbe9426a9	-0.28935745
4	0x3d887d55	0.0666453
5	0x3e31f162	0.17377236
6	0xbce4765a	-0.027888466
7	0xbe52a9a8	-0.20572531
8	0x3e7c02ff	0.24610518
9	0x3e232ce5	0.15935095
10	0xbe91f8f5	-0.28510252
11	0xbe9fc7ce	-0.31207126
12	0x3de4f3f2	0.111793414
13	0x3e968f44	0.29406178
14	0x3e931f4f	0.28734824
15	0x3e9037ed	0.28167668

encoder.encoder_net.2.weight f4 [16]
0	0x3f8c4389	1.095811
1	0x3f85a2f0	1.044035
2	0x3f8bef4e	1.0932405
3	0x3f8a4c6d	1.0804573
4	0x3f8a190a	1.0788891
5	0x3f8793f1	1.0592023
6	0x3f885dad	1.0653588
7	0x3f901e17	1.1259183
8	0x3f9423c0	1.157341
9	0x3f832d3d	1.0248181
10	0x3f806d46	1.0033348
11	0x3f80d75c	1.0065722
12	0x3f7f7493	0.99787253
13	0x3f801493	1.0006279
14	0x3f81b90a	1.0134594
15	0x3f82bcb8	1.0213842

encoder.encoder_net.2.bias f4 [16]
0	0x3d747bc6	0.059688352
1	0x3c92b398	0.017907903
2	0xbd5f1030	-0.054458797
3	0xbce8cb87	-0.028417362
4	0xbce3f0b3	-0.027824735
5	0xbccec212	-0.025239024
6	0xbc4cfe86	-0.012511855
7	0x3d4dd0d9	0.050248
8	0x3d998a5b	0.07497092
9	0xbd90c3d6	-0.07068603
10	0x3d1326fb	0.035925847
11	0xbe148bbb	-0.14506428
12	0x3d0d7779	0.034537766
13	0xbda954e9	-0.082681485
14	0xbd100c76	-0.035168134
15	0xbdad6c4c	-0.084679216

encoder.encoder_net.2.running_mean f4 [16]
0	0x3d92491d	0.071428515
1	0x3d92491d	0.071428515
2	0x3d92491d	0.071428515
3	0x3d92491d	0.071428515
4	0x3d92491d	0.071428515
5	0x3d92491d	0.071428515
6	0x3d92491d	0.071428515
7	0x3d92491d	0.071428515
8	0x3d92491d	0.071428515
9	0x3d92491d	0.071428515
10	0x3d92491d	0.071428515
11	0x3d92491d	0.071428515
12	0x3d92491d	0.071428515
13	0x3d92491d	0.071428515
14	0x3d92491d	0.071428515
15	0x3d92491d	0.071428515

encoder.encoder_net.2.running_var f4 [16]
0	0x389b9e7b	7.420495e-05
1	0x394b5818	0.00019392406
2	0x39523358	0.00020046288
3	0x38fc9706	0.00012044427
4	0x38bb8efe	8.943489e-05
5	0x3931269a	0.00016894416
6	0x39754533	0.000233908
7	0x3a1befdc	0.00059485226
8	0x39a5cf50	0.00031625712
9	0x388cd48b	6.7153094e-05
10	0x38f71a68	0.00011782796
11	0x389a4d92	7.357741e-05
12	0x3881b55b	6.1849794e-05
13	0x387af432	5.983207e-05
14	0x39ec770e	0.0004510213
15	0x386d1a43	5.652966e-05
