miniproject2/experiment_5/model_decoder_0.pt (torch, 143309 bytes, 37 tensors)

prior.mean f4 [2]
0.0 0.0
00000000: 0000 0000 0000 0000

prior.std f4 [2]
1.0 1.0
00000000: 0000 803f 0000 803f

decoder.decoder_net.0.weight f4 [512, 2]
0.35508868 -0.31886077 0.6544566 0.42010748 0.6147724 -0.6448934 -0.346319 0.31537014
-0.35666856 0.67482793 0.10043379 -0.07369707 -0.90522826 0.17396092 0.24636328 0.09401611
0.53183866 0.21636224 -0.6073759 0.68830955 0.39153954 -0.22266792 -0.65885794 0.40365222
0.5760983 -0.57638407 -0.19792329 0.2529127 -0.45259437 -0.15503684 -0.5965059 -0.18751195
-0.5901826 -0.061488148 0.44531506 0.36178142 0.5648978 -0.6077069 -0.1017114 0.5797205
0.09765875 -0.19678472 -0.8695635 0.327613 0.7468485 0.59811866 0.5642762 0.11006773
0.44104612 -0.1987324 0.58156514 -0.0030122276 -0.5650045 -0.31760004 0.41246793 0.36700565
0.5244924 -0.40903017 -0.4009607 0.5694942 -0.15026921 -0.5729336 -0.2985856 -0.15774064
-0.35860866 0.5706517 0.07248197 0.18979892 0.4477479 -0.54208654 0.45892084 -0.33408338
-0.18688045 0.5533397 0.71821624 0.5796805 0.41871908 0.8242069 -0.2336838 -0.053160407
-0.28339383 -0.12290769 -0.11461876 0.46324173 0.56919026 -0.69070596 -0.30248234 -0.18732668
0.069333985 -0.27133888 -0.71278435 -0.12137216 -0.34237882 -0.074212156 -0.47112712 -0.25449127
-0.33301222 -0.06291201 0.5918966 0.47312143 -0.33541468 -0.7528045 -0.5507747 -0.23425369
-0.08822483 -0.28471568 -0.5427966 0.026623823 -0.03231138 -0.24714664 -0.1966799 0.600057
-0.5645993 -0.04341612 0.3067715 0.51364166 -0.6362368 -0.04701509 0.5898652 0.05214048
0.19759376 -0.3318641 0.4840376 -0.33312953 -0.25201276 0.7274916 0.116917744 0.09103722
-0.39050493 -0.15427329 -0.7591872 -0.6137947 -0.14672343 0.15997426 -0.5609005 0.6061048
0.3991441 -0.6289314 0.4954831 -0.43744358 -0.4915837 0.64735013 -0.32799548 -0.14568333
0.124646954 0.3857199 0.07207837 -0.15601291 0.017597802 -0.39623562 -0.5409124 0.19284692
0.04762835 0.35078883 -0.46305534 -0.69822484 -0.34471208 -0.7334199 -0.008899039 0.39026454
0.16015068 0.48572856 0.2300206 0.37135747 0.68891865 0.061873604 0.13292699 -0.2773594
0.3374364 0.47081542 -0.4527655 0.64672637 0.16815144 -0.060418814 -0.565322 -0.6714301
-0.5667709 -0.59113604 -0.5350631 -0.24196817 -0.7060879 -0.5082157 -0.062067457 -0.6228039
-0.06243914 0.21479993 0.04983166 0.4289429 0.42194515 -0.42764148 -0.30077943 -0.019608911
0.653904 0.48266357 -0.5833758 -0.38293853 0.14229858 0.092377685 -0.38518167 -0.3392951
-0.30325428 -0.12298732 -0.41659045 0.21303041 0.5489831 0.10337517 0.25945434 0.42621723
0.43565804 -0.752746 0.75162446 0.28525463 -0.78484 0.26825714 -0.3499914 0.73482025
0.39268166 -0.5007941 -0.6472964 0.017841617 -0.2787108 0.29163617 -0.44839543 0.44381616
0.049686432 0.04485978 -0.53525746 -0.05393064 0.53557545 0.8300042 -0.42432615 -0.35625482
0.106336996 0.366113 -0.6350469 -0.24895701 -0.63929343 0.44999278 -0.25953898 0.44187328
0.3997931 0.1007273 0.24565677 0.5479379 -0.09636718 0.50650567 -0.05372822 0.07259402
0.27867213 -0.674176 -0.30237478 -0.5946927 -0.19444035 -0.19120255 0.28067625 -0.5962798
00000000: 2fce b53e b841 a3be 788a 273f 5418 d73e
00000010: b961 1d3f bc17 25bf b950 b1be 3278 a13e
00000020: 439d b6be 86c1 2c3f 3bb0 cd3d 7dee 96bd
00000030: 0abd 67bf d022 323e a846 7c3e 858b c03d
00000040: 9426 083f 108e 5d3e fd7c 1bbf 0e35 303f
00000050: df77 c83e 0f03 64be eaaa 28bf 81ab ce3e
00000060: 2e7b 133f e88d 13bf 67ac 4abe c67d 813e
00000070: 73ba e7be fac1 1ebe 9cb4 18bf 2203 40be
00000080: 3516 17bf ffda 7bbd 5600 e43e 6a3b b93e
00000090: 249d 103f ae92 1bbf 114e d0bd 9068 143f
000000a0: 5001 c83d ef81 49be b79b 5ebf e4bc a73e
000000b0: 7731 3f3f 4e1e 193f 6874 103f 316b e13d
000000c0: ccd0 e13e 8280 4bbe 74e1 143f cb68 45bb
000000d0: 23a4 10bf 799c a2be ff2e d33e 2ae8 bb3e
000000e0: 2245 063f 676c d1be b94a cdbe 5fca 113f
000000f0: 2ce0 19be c7ab 12bf 36e0 98be c386 21be
00000100: 8e9b b7be 3b16 123f 6d71 943d a65a 423e
00000110: 363f e53e 2fc6 0abf acf7 ea3e fa0c abbe
00000120: 975d 3fbe aca7 0d3f 05dd 373f f165 143f
00000130: 5962 d63e 39ff 523f ce4a 6fbe babe 59bd
00000140: ff18 91be 07b7 fbbd 3ebd eabd 052e ed3e
00000150: 74b6 113f 1bd2 30bf f7de 9abe 91d2 3fbe
00000160: fafe 8d3d eeec 8abe 0979 36bf f891 f8bd
00000170: 474c afbe 8bfc 97bd 9337 f1be ae4c 82be
00000180: 9480 aabe 03d8 80bd 8986 173f f93c f23e
00000190: 79bb abbe ccb7 40bf 92ff 0cbf 33e0 6fbe
000001a0: 38af b4bd 41c6 91be b8f4 0abf 341a da3c
000001b0: f058 04bd 0214 7dbe 7566 49be 569d 193f
000001c0: 9489 10bf 1ad5 31bd 2711 9d3e 057e 033f
000001d0: 6ae0 22bf e592 40bd 6801 173f 4291 553d
000001e0: 0556 4a3e 17ea a9be c7d3 f73e f48f aabe
000001f0: d107 81be e43c 3a3f 9272 ef3d b971 ba3d
00000200: 43f0 c7be d1f9 1dbe 185a 42bf a621 1dbf
00000210: ab3e 16be 4bd0 233e 2d97 0fbf af29 1b3f
00000220: 9e5c cc3e a601 21bf f6af fd3e 9bf8 dfbe
00000230: dcb0 fbbe bdb8 253f 06ef a7be 032e 15be
00000240: e746 ff3d 147d c53e d39d 933d d9c1 1fbe
00000250: 4429 903c 65df cabe 3c79 0abf aa79 453e
00000260: f215 433d 989a b33e 9715 edbe ddbe 32bf
00000270: 1a7e b0be 68c1 3bbf 46cd 11bc c1d0 c73e
00000280: 8afe 233e 6ab1 f83e 858a 6b3e 9122 be3e
00000290: f95c 303f 2d6f 7d3d 031e 083e 0d02 8ebe
000002a0: 77c4 ac3e b80e f13e e1d0 e7be dc8f 253f
000002b0: e42f 2c3e b879 77bd f1b8 10bf d8e2 2bbf
000002c0: e617 11bf b154 17bf e5f9 08bf 81c6 77be
000002d0: 2dc2 34bf 6d1a 02bf 723a 7ebd 1470 1fbf
000002e0: 2fc0 7fbd 83f4 5b3e 481c 4c3d 679e db3e
000002f0: 3209 d83e d3f3 dabe c3ff 99be dea2 a0bc
00000300: 4166 273f ae1f f73e 1e58 15bf 8510 c4be
00000310: b8b6 113e 8330 bd3d 8836 c5be 16b8 adbe
00000320: 2544 9bbe c7e0 fbbd 584b d5be a524 5a3e
00000330: 288a 0c3f 5cb6 d33d 33d7 843e 2539 da3e
00000340: 920e df3e f6b3 40bf 766a 403f e50c 923e
00000350: 46eb 48bf 0059 893e 1332 b3be 2e1d 3c3f
00000360: 920d c93e 0b34 00bf 38b5 25bf 9528 923c
00000370: 2fb3 8ebe 5651 953e 1694 e5be df3b e33e
00000380: 0084 4b3d e4be 373d a206 09bf 60e6 5cbd
00000390: 791b 093f 287b 543f 4741 d9be 0867 b6be
000003a0: 36c7 d93d 2a73 bb3e 6f92 22bf 96ee 7ebe
000003b0: bca8 23bf 7465 e63e 4be2 84be 373d e23e
000003c0: aeb1 cc3e 1d4a ce3d 738d 7b3e a945 0c3f
000003d0: 285c c5bd 5baa 013f 1f12 5cbd 2cac 943d
000003e0: 1dae 8e3e cc96 2cbf ded0 9abe c83d 18bf
000003f0: 5f1b 47be 9aca 43be ccb4 8f3e cba5 18bf

decoder.decoder_net.0.bias f4 [512]
0.49244308 -0.12141805 0.1641204 0.007600921 0.1445912 0.027833074 -0.04268359 -0.46247295
-0.35809314 0.39925316 0.09008096 -0.36625153 -0.3617294 -0.72821844 -0.17333141 -0.115870595
0.12667264 -0.34211743 0.5890346 -0.24228227 -0.55539167 0.056754746 -0.5141402 -0.460405
-0.4403346 0.42623004 0.6211663 -0.46380654 -0.22866449 -0.19417489 0.40639898 -0.22311236
-0.049252234 -0.27156183 0.47749034 -0.41887468 0.2204724 0.0930551 -0.05029692 0.19729744
-0.294339 -0.2951287 -0.42269114 -0.15311223 0.40802512 -0.39499778 -0.4571544 -0.25942257
-0.46856052 0.06700232 -0.025810027 -0.00028643425 -0.1274142 -0.21149437 -0.5217537 -0.57513046
0.13319619 -0.23961179 0.30710575 -0.3583808 -0.062383473 0.17290525 -0.043967843 0.5508764
0.26517856 0.23820846 -0.06754833 0.03418482 0.5627286 -0.106143825 -0.30631587 0.7214941
0.38981017 -0.23039062 0.67378616 0.5562638 0.0058827773 -0.4109803 -0.28925553 -0.4007345
0.60699695 0.64626133 -0.029141882 -0.22236677 -0.15563275 -0.058645796 -0.86305934 -0.7868489
-0.41989943 -0.49943087 -0.2756646 -0.5393098 0.4371896 -0.29152754 -0.43111777 -0.12752035
0.43246588 -0.226438 -0.50888735 0.67897874 -0.74224913 -0.7187324 -0.13650528 -0.516339
0.2447071 0.1401061 -0.6286199 0.12158857 -0.010686122 -0.21004285 0.27412277 0.37145528
0.08311788 0.42562166 -0.62264055 -0.10529353 -0.56133324 -0.5417245 0.70581466 0.71652836
-0.015375324 0.54751396 0.07441346 -0.51659447 0.34000102 -0.73410934 -0.40594593 0.51167846
0.40379545 -0.23210643 -0.28841022 -0.14783804 0.37719166 0.7738828 -0.06414758 0.49940202
-0.5021149 0.06102599 -0.22386406 -0.67628276 0.5820966 0.7228999 0.29153693 0.33542386
-0.27294704 -0.002238715 -0.70531493 -0.4327211 -0.6284866 -0.5240918 0.9551656 0.25079376
0.45490178 -0.016250977 -0.6606553 -0.5154544 -0.43424338 0.17407283 -0.07428317 0.61563885
-0.1331922 0.51969004 -1.1038891 -0.13073187 -0.7015617 -0.23079969 -0.726093 0.03431489
-0.21408197 -0.54864985 0.28542122 0.18750714 0.35907486 -0.5583153 0.16053873 -0.39272135
0.25883308 -0.8003037 -0.40912613 0.0690629 0.18456067 0.60908794 0.47140947 0.61990833
-0.33147943 0.6847888 -0.018795516 0.24457361 0.6986279 -0.75848484 0.5280221 -0.72148997
-0.65624416 -0.043396704 -0.65846586 -0.41106603 0.29997465 -0.52461356 0.7596337 0.2059897
0.2735378 0.5264645 0.6056847 0.16501017 -0.22755393 -0.5402022 0.31317258 -0.11129017
-0.16178936 -0.23593867 -0.9292511 0.4018597 -0.5465862 -0.15572664 0.3386148 -0.39887324
0.51249665 0.18419106 0.27832356 -0.4746579 0.2625385 -0.25569734 -0.29789773 0.14648722
-0.081640445 -0.4688879 -0.031094851 -0.5253676 0.2240411 0.55252504 -0.74615914 -0.2578974
-0.43183565 0.11807242 0.28548005 -0.011254666 -0.5116092 0.6710844 -0.64911664 0.6091591
-0.29467902 0.5153698 -0.11338212 0.6824242 -0.16684826 -0.57238716 0.0325173 0.33718738
-0.7274633 -0.66785395 0.44538784 0.3677307 0.2909522 0.43102908 -0.6268164 0.54406816
00000000: 8021 fc3e 07aa f8bd 2e0f 283e 2611 f93b
00000010: b70f 143e 3002 e43c fdd4 2ebd 41c9 ecbe
00000020: fc57 b7be e96a cc3e 5e7c b83d 5285 bbbe
00000030: 9934 b9be 866c 3abf ca7d 31be 904d edbd
00000040: 79b6 013e 042a afbe f9ca 163f d818 78be
00000050: 262e 0ebf aa77 683d b19e 03bf 34ba ebbe
00000060: 8973 e1be d33a da3e c104 1f3f 0d78 edbe
00000070: 0627 6abe c8d5 46be 8713 d03e 9177 64be
00000080: b6bc 49bd 270a 8bbe 9d79 f43e be76 d6be
00000090: 84c3 613e ac93 be3d 2504 4ebd 5708 4a3e
000000a0: 9ab3 96be 1c1b 97be f96a d8be 74c9 1cbe
000000b0: abe8 d03e 263d cabe 2410 eabe 09d3 84be
000000c0: 2ae7 efbe 8338 893d 8d6f d3bc 8e2c 96b9
000000d0: de78 02be fb91 58be a791 05bf c03b 13bf
000000e0: 9564 083e cb5c 75be f73c 9d3e b07d b7be
000000f0: d085 7fbd 130e 313e a017 34bd 3c06 0d3f
00000100: 7cc5 873e ebec 733e c756 8abd 6205 0c3d
00000110: fb0e 103f ef61 d9bd 6fd5 9cbe d6b3 383f
00000120: 3395 c73e 85eb 6bbe 407d 2c3f 4e67 0e3f
00000130: 50c4 c03b 036c d2be 4d19 94be 132d cdbe
00000140: 2764 1b3f 6271 253f f5ba eebc 1db4 63be
00000150: 315e 1fbe 9336 70bd 75f1 5cbf ee6e 49bf
00000160: 0ffd d6be 67b5 ffbe e923 8dbe 3510 0abf
00000170: 51d7 df3e 1943 95be 78bb dcbe b294 02be
00000180: 2b6c dd3e 5ddf 67be 7146 02bf 8dd1 2d3f
00000190: 0a04 3ebf d9fe 37bf 0ac8 0bbe cb2e 04bf
000001a0: 7f94 7a3e f977 0f3e 3ced 20bf 6e03 f93d
000001b0: d814 2fbc 7915 57be d259 8c3e 632f be3e
000001c0: b539 aa3d 15eb d93e 5f65 1fbf 22a4 d7bd
000001d0: 89b3 0fbf 75ae 0abf 45b0 343f 676e 373f
000001e0: c8e8 7bbc e029 0c3f 1666 983d 893f 04bf
000001f0: 9d14 ae3e 97ee 3bbf 25d8 cfbe 5cfd 023f
00000200: 47be ce3e 4fad 6dbe 81aa 93be db62 17be
00000210: 441f c13e 2f1d 463f ce5f 83bd 9fb1 ff3e
00000220: 9a8a 00bf 63f6 793d 9f3c 65be de20 2dbf
00000230: 4804 153f f80f 393f 5444 953e adbc ab3e
00000240: b7bf 8bbe 68b7 12bb 858f 34bf 9f8d ddbe
00000250: 7fe4 20bf e12a 06bf bc85 743f 0a68 803e
00000260: e3e8 e83e c520 85bc b520 29bf d2f4 03bf
00000270: 2655 debe 2640 323e c621 98bd 829a 1d3f
00000280: 8963 08be 680a 053f 3d4c 8dbf 93de 05be
00000290: 8c99 33bf c156 6cbe 3be1 39bf c58d 0c3d
000002a0: 4e38 5bbe 5174 0cbf bb22 923e df01 403e
000002b0: a9d8 b73e c0ed 0ebf 4464 243e c612 c9be
000002c0: c585 843e b4e0 4cbf fb78 d1be da70 8d3d
000002d0: 79fd 3c3e 30ed 1b3f 955c f13e 50b2 1e3f
000002e0: acb7 a9be 524e 2f3f 0ef9 99bc 8171 7a3e
000002f0: 47d9 323f 102c 42bf 752c 073f 91b3 38bf
00000300: 9eff 27bf bec0 31bd 3891 28bf 3f77 d2be
00000310: 4796 993e 134d 06bf 5b77 423f f7ee 523e
00000320: 260d 8c3e 61c6 063f 270e 1b3f 6df8 283e
00000330: e603 69be b14a 0abf 2858 a03e 1aec e3bd
00000340: 1cac 25be e899 71be 66e3 6dbf 8ec0 cd3e
00000350: 13ed 0bbf ce76 1fbe eb5e ad3e 1d39 ccbe
00000360: fb32 033f 959c 3c3e 6d80 8e3e 5c06 f3be
00000370: 726b 863e c3ea 82be 0d86 98be bf00 163e
00000380: 1b33 a7bd 1312 f0be a1ba febc 7e7e 06bf
00000390: 086b 653e 4872 0d3f 4904 3fbf 210b 84be
000003a0: 9019 ddbe f4cf f13d 712a 923e 7e65 38bc
000003b0: d2f8 02bf 30cc 2b3f 822c 26bf daf1 1b3f
000003c0: 2be0 96be 46ef 033f e334 e8bd 5ab3 2e3f
000003d0: 45da 2abe f787 12bf dc30 053d d3a3 ac3e
000003e0: 093b 3abf 7af8 2abf e009 e43e 3347 bc3e
000003f0: b0f7 943e d8af dc3e 0a77 20bf 0d48 0b3f

decoder.decoder_net.3.weight f4 [32]
1.0585306 1.0210053 1.0291998 0.9772744 1.0017716 1.08241 0.94580454 0.965189
0.98541754 1.0077888 1.0338187 0.9887955 1.0326582 1.0369791 1.0974255 0.99715406
0.94891983 0.95181155 0.97062725 1.0238767 0.9983507 1.1348128 1.1179079 1.0570482
1.0818677 1.005859 0.9821495 0.985761 0.9381028 1.0146276 1.019948 1.0805565
00000000: ee7d 873f 4db0 823f d2bc 833f a82e 7a3f
00000010: 0d3a 803f 698c 8a3f 3f20 723f a016 773f
00000020: 5344 7c3f 39ff 803f 2c54 843f b421 7d3f
00000030: 252e 843f bbbb 843f 7078 8c3f 7d45 7f3f
00000040: 69ec 723f eca9 733f 077b 783f 640e 833f
00000050: e993 7f3f 8c41 913f 9b17 8f3f 5b4d 873f
00000060: a47a 8a3f fdbf 803f 266e 7b3f d55a 7c3f
00000070: 8127 703f 51df 813f a88d 823f ad4f 8a3f

decoder.decoder_net.3.bias f4 [32]
0.023258917 -0.0405906 0.017015703 -0.010910738 -0.0503048 0.00062372576 0.027850464 -0.0035390225
0.02419156 -0.06567339 -0.079028256 0.051817827 -0.021012442 -0.06690924 0.08900993 -0.04692595
-0.06257287 0.008042408 0.08055113 -0.0112300925 -0.064216204 0.047891837 0.08414887 0.012127803
0.016978683 0.023865318 -0.016661499 0.0035534669 0.07283863 0.023849359 0.08445684 -0.020207081
00000000: 7c89 be3c 5442 26bd 8464 8b3c f4c2 32bc
00000010: 680c 4ebd 8781 233a a826 e43c f2ee 67bb
00000020: 612d c63c c57f 86bd 91d9 a1bd ee3e 543d
00000030: 4922 acbc b607 89bd d74a b63d 6d35 40bd
00000040: 3426 80bd 4ec4 033c fef7 a43d 6cfe 37bc
00000050: c983 83bd 3b2a 443d 3e56 ac3d b1b3 463c
00000060: e116 8b3c 3381 c33c b27d 88bc 48e1 683b
00000070: 6b2c 953d bb5f c33c b5f7 ac3d 5289 a5bc

decoder.decoder_net.3.running_mean f4 [32]
0.24999994 0.24999994 0.24999994 0.24999994 0.24999994 0.24999994 0.24999994 0.24999994
0.24999994 0.24999994 0.24999994 0.24999994 0.24999994 0.24999994 0.24999994 0.24999994
0.24999994 0.24999994 0.24999994 0.24999994 0.24999994 0.24999994 0.24999994 0.24999994
0.24999994 0.24999994 0.24999994 0.24999994 0.24999994 0.24999994 0.24999994 0.24999994
00000000: fcff 7f3e fcff 7f3e fcff 7f3e fcff 7f3e
00000010: fcff 7f3e fcff 7f3e fcff 7f3e fcff 7f3e
00000020: fcff 7f3e fcff 7f3e fcff 7f3e fcff 7f3e
00000030: fcff 7f3e fcff 7f3e fcff 7f3e fcff 7f3e
00000040: fcff 7f3e fcff 7f3e fcff 7f3e fcff 7f3e
00000050: fcff 7f3e fcff 7f3e fcff 7f3e fcff 7f3e
00000060: fcff 7f3e fcff 7f3e fcff 7f3e fcff 7f3e
00000070: fcff 7f3e fcff 7f3e fcff 7f3e fcff 7f3e

decoder.decoder_net.3.running_var f4 [32]
0.06855021 0.055146985 0.076027706 0.058930907 0.051186018 0.059238885 0.08228261 0.084179334
0.053206433 0.05896647 0.061828192 0.058966413 0.07239247 0.06843297 0.06003537 0.08668691
0.06886046 0.07317347 0.06909007 0.09299344 0.06427171 0.06486291 0.09256742 0.083748914
0.097619034 0.07872191 0.083139956 0.08832096 0.09079528 0.058812086 0.078462645 0.0831447
00000000: 0d64 8c3d cee1 613d 6ab4 9b3d 8961 713d
00000010: 6ea8 513d 79a4 723d c983 a83d 3766 ac3d
00000020: fdee 593d d386 713d 8f3f 7d3d c486 713d
00000030: 8142 943d 9626 8c3d a6e7 753d e888 b13d
00000040: b606 8d3d f9db 953d 187f 8d3d 5873 be3d
00000050: e3a0 833d d8d6 843d fd93 bd3d 8d84 ab3d
00000060: 7dec c73d f438 a13d 4845 aa3d 9fe1 b43d
00000070: e0f2 b93d f1e4 703d 06b1 a03d c547 aa3d

decoder.decoder_net.4.weight f4 [32, 32, 3, 3]
-0.015575099 -0.020633887 0.00074839604 0.029680684 0.04630341 -0.064647324 -0.03293353 0.0012154335
-0.021066435 -0.023054035 0.066244334 -0.039701793 0.00688401 0.042743385 -0.076763146 -0.09525941
0.019740045 0.090070516 0.017215949 -0.03464409 0.022478372 -0.031294618 0.023159252 0.033323273
-0.026817461 0.036593556 -0.040364727 -0.036389828 0.101909265 -0.05441 -0.017368507 -0.022749973
0.03851202 -0.07038856 0.09567551 0.026413934 0.0015935313 0.055851523 -0.070046656 -0.06342164
-0.08801383 -0.03681492 0.028039822 -0.016875897 -0.0072453264 -0.056192283 -0.010430421 -0.014801074
0.026577363 0.01327531 0.007459538 0.016120745 0.008151389 0.016909678 0.09487851 0.05197954
0.022836655 -0.02422506 -0.0063135237 0.029350782 -0.03236995 0.078569576 -0.038375158 -0.023204135
-0.0009760888 -0.04268697 0.035352714 -0.04333314 -0.016368289 0.014458532 -0.02197632 -0.020461015
0.06740918 -0.05446556 -0.048459042 0.043322742 -0.052210063 0.030834736 -0.07940974 0.04191935
-0.02432336 0.028727293 0.068667226 0.059399858 0.030213024 -0.10955111 -0.0121083325 0.03269616
-0.04774055 0.02197752 0.04952063 -0.054016985 -0.010645626 -0.06376342 0.06882956 0.021231145
-0.01629344 -0.047282334 -0.049266867 0.048508454 0.02486499 -0.027446492 0.015888363 -0.05393397
-0.01668586 0.010490948 0.055925056 -0.033697743 0.098767884 -0.021212129 -0.06837099 -0.048141774
-0.035697293 -0.054231245 -0.06804375 0.09278207 -0.011599493 0.024813984 0.07405783 -0.10901784
-0.050286647 0.0016933146 0.047534786 -0.07169107 0.009285726 0.021150835 0.0609992 0.063931316
-0.081785925 -0.009329009 0.13800657 -0.03565707 -0.014282493 0.034431133 -0.011399564 -0.047600005
0.02527532 0.014629601 -0.017651364 0.016304158 0.044671226 0.07719744 -0.024815705 -0.020304406
-0.031603944 0.011883952 -0.0076530413 -0.029124765 0.043039143 0.050117403 -0.028410476 0.04949774
-0.034953963 0.036727667 0.009592055 -0.03236457 0.006812887 0.045803912 0.03227809 -0.033127774
0.0050712745 0.0029173442 -0.008085476 0.041230578 -0.019847061 0.007395832 -0.0262471 0.09096988
0.019908056 -0.032003798 -0.026737167 -0.04791075 -0.019601548 -0.04218335 -0.030969165 -0.034932703
-0.05391152 0.008249183 -0.009405841 0.0045771096 0.014114455 0.0061447816 0.038451955 -0.048280053
0.076567724 -0.012671665 0.029387025 -0.07391236 0.066274896 -0.040064417 0.081149004 0.10859898
-0.08229014 0.070602745 -0.0834817 -0.015228846 -0.050414726 0.0022406983 -0.005854029 0.032266684
-0.023855628 0.061329678 0.02506979 -0.030307464 -0.03722702 0.08438027 -0.07869026 0.025367977
0.016680412 -0.057785865 0.0202274 -0.04053155 0.044174116 0.01959935 0.03028618 -0.030535484
0.059430968 0.05310819 0.06594468 0.012846538 -0.044583637 -0.10721401 -0.081733935 -0.03741125
-0.017081695 -0.025282852 0.009906137 0.020147776 0.08499744 -0.06458172 0.04071 -0.026161848
-0.056613408 0.009176901 0.08732882 0.0632965 0.016152142 -0.015054443 0.0021599797 -0.0070826137
0.101544574 0.013460944 -0.029687976 0.02876128 -0.014666648 0.04221014 0.0789594 -0.0076288017
0.03544883 -0.018933479 -0.010000344 0.01749828 0.11087828 0.012130299 -0.0967536 -0.028160464
00000000: b32e 7fbc 6608 a9bc 0230 443a e824 f33c
00000010: a5a8 3d3d d165 84bd 4fe5 06bd 2e4f 9f3a
00000020: 8493 acbc d1db bcbc 1cab 873d 599e 22bd
00000030: 4393 e13b b013 2f3d ff35 9dbd 5e17 c3bd
00000040: e0b5 a13c e476 b83d 7608 8d3c f6e6 0dbd
00000050: 9024 b83c c92e 00bd 79b8 bd3c fc7d 083d
00000060: 4bb0 dbbc 20e3 153d 7c55 25bd 800d 15bd
00000070: ceb5 d03d 05dd 5ebd 6648 8ebc 275e babc
00000080: c8be 1d3d e127 90bd 86f1 c33d 0962 d83c
00000090: 0ade d03a 91c4 643d 9f74 8fbd 34e3 81bd
000000a0: 9840 b4bd 3ecb 16bd c5b3 e53c 523f 8abc
000000b0: 346a edbb e129 66bd 5be4 2abc 3480 72bc
000000c0: c5b8 d93c b080 593c 246f f43b a70f 843c
000000d0: 678d 053c 2a86 8a3c aa4f c23d 80e8 543d
000000e0: f013 bb3c a273 c6bc ade1 cebb 0d71 f03c
000000f0: 5a96 04bd 16e9 a03d 452f 1dbd 9916 bebc
00000100: 36e0 7fba 88d8 2ebd 02ce 103d 177e 31bd
00000110: ca16 86bc 7be3 6c3c af07 b4bc dc9d a7bc
00000120: d30d 8a3d 4717 5fbd fd7c 46bd 3073 313d
00000130: 38da 55bd 2199 fc3c 93a1 a2bd a0b3 2b3d
00000140: c841 c7bc 8055 eb3c 67a1 8c3d 444d 733d
00000150: 4e81 f73c 555c e0bd 0762 46bc 69ec 053d
00000160: 988b 43bd 330a b43c 25d6 4a3d ea40 5dbd
00000170: fe6a 2ebc 6596 82bd 83f6 8c3d f0ec ad3c
00000180: d279 85bc 1fab 41bd 0ecc 49bd cdb0 463d
00000190: aab1 cb3c 77d7 e0bc 5028 823c dee9 5cbd
000001a0: c9b0 88bc 3ae2 2b3c ac11 653d a506 0abd
000001b0: d146 ca3d 0fc5 adbc 1706 8cbd 4f30 45bd
000001c0: 5337 12bd 9521 5ebd 865a 8bbd 8704 be3d
000001d0: cd0b 3ebc b246 cb3c a2ab 973d bf44 dfbd
000001e0: 5ff9 4dbd 36f2 dd3a d6b3 423d c5d2 92bd
000001f0: 2823 183c 8444 ad3c 4cda 793d 6cee 823d
00000200: 617f a7bd b3d8 18bc 9851 0d3e 260d 12bd
00000210: 1e01 6abc a907 0d3d 3dc5 3abc 39f8 42bd
00000220: 300e cf3c feb0 6f3c 9899 90bc 4c90 853c
00000230: 2df9 363d b119 9e3d 4e4a cbbc 6d55 a6bc
00000240: 2373 01bd e8b4 423c 5dc6 fabb 0f97 eebc
00000250: d049 303d e847 4d3d 16bd e8bc 24be 4a3d
00000260: e32b 0fbd c06f 163d ff27 1d3c b690 04bd
00000270: a33e df3b e29c 3b3d 0836 043d fdb0 07bd
00000280: ef2c a63b ea30 3f3b f278 04bc 65e1 283d
00000290: 4e96 a2bc bc58 f23b 2904 d7bc 6b4e ba3d
000002a0: 3816 a33c 6a16 03bd e707 dbbc 103e 44bd
000002b0: 6d93 a0bc 73c8 2cbd 0cb3 fdbc 9815 0fbd
000002c0: 53d2 5cbd 9527 073c f51a 1abc 94fb 953b
000002d0: 5140 673c 2a5a c93b cc7f 1d3d 4ec1 45bd
000002e0: 8acf 9c3d d19c 4fbc 0fbd f03c 5d5f 97bd
000002f0: 22bb 873d 961a 24bd 7331 a63d 2469 de3d
00000300: bc87 a8bd 2c98 903d 74f8 aabd 6982 79bc
00000310: ac7f 4ebd aed8 123b 28d3 bfbb 122a 043d
00000320: e16c c3bc d434 7b3d 295f cd3c 5c47 f8bc
00000330: 5c7b 18bd 90cf ac3d 5c28 a1bd 81d0 cf3c
00000340: 5ca5 883c dfb0 6cbd efb3 a53c 6904 26bd
00000350: ebef 343d d18e a03c b91a f83c 8d25 fabc
00000360: e36d 733d f987 593d 010e 873d 497a 523c
00000370: 559d 36bd 0593 dbbd 1f64 a7bd 8a3c 19bd
00000380: e9ee 8bbc fc1d cfbc 5a4d 223c f30c a53c
00000390: 2313 ae3d 6c43 84bd 87bf 263d 5f51 d6bc
000003a0: 76e3 67bd b65a 163c 74d9 b23d 98a1 813d
000003b0: 7f51 843c e9a6 76bc 728e 0d3b 4515 e8bb
000003c0: 9af6 cf3d 4b8b 5c3c 3334 f3bc c79c eb3c
000003d0: 614c 70bc 8ae4 2c3d 77b5 a13d 07fb f9bb
000003e0: cb32 113d 621a 9bbc 7cd8 23bc 8e58 8f3c
000003f0: 2714 e33d 29be 463c c026 c6bd c6b0 e6bc

decoder.decoder_net.4.bias f4 [32]
-0.018933415 0.062425043 -0.007148346 -0.02085746 -0.072588 -0.108776584 0.013786605 -0.094731115
0.016439162 0.052571233 0.04299725 -0.004453829 0.058017917 -0.050294053 0.10571035 -0.09040956
-0.010723476 -0.011631425 -0.050830666 -0.059149876 0.04527106 -0.024826236 0.023551997 -0.0056665167
-0.013338125 0.010027281 0.025628904 -0.08978375 -0.08454454 0.024657264 0.058735836 -0.059399683
00000000: 401a 9bbc 67b1 7f3d ac3c eabb 44dd aabc
00000010: 04a9 94bd 42c6 debd 36e1 613c 6302 c2bd
00000020: 6cab 863c ef54 573d e21d 303d 6df1 91bb
00000030: 32a4 6d3d 2301 4ebd ab7e d83d a628 b9bd
00000040: 85b1 2fbc bb91 3ebc d133 50bd 2447 72bd
00000050: 266e 393d 6460 cbbc 1ef0 c03c 30ae b9bb
00000060: 2788 5abc 7749 243c b5f3 d13c 8be0 b7bd
00000070: b025 adbd 08fe c93c fd94 703d 154d 73bd

decoder.decoder_net.6.weight f4 [32]
0.9175945 0.93671656 0.9217009 0.9278619 0.91091996 0.92004275 1.0071676 0.9563393
0.90704817 0.8732047 0.9637318 0.8812447 1.010776 0.9833344 0.93520546 0.9558638
0.9382733 0.9230259 0.89258707 0.9764902 0.92641085 0.9465271 0.9756236 0.9040465
0.9325842 1.0101873 0.9469345 0.95741546 0.8925317 0.96089035 0.9820949 0.9366773
00000000: 79e7 6a3f a8cc 6f3f 97f4 6b3f 5c88 6d3f
00000010: 0d32 693f ec87 6b3f deea 803f a7d2 743f
00000020: 4f34 683f 588a 5f3f 21b7 763f 4199 613f
00000030: 1c61 813f cebb 7b3f a069 6f3f 7db3 743f
00000040: ae32 703f 6d4b 6c3f 9680 643f 43fb 793f
00000050: 4329 6d3f 9a4f 723f 78c2 793f 976f 673f
00000060: d7bd 6e3f d14d 813f 4d6a 723f 2e19 753f
00000070: f57c 643f e9fc 753f 926a 7b3f 15ca 6f3f

decoder.decoder_net.6.bias f4 [32]
0.060496587 0.058041297 -0.058316812 0.021372816 -0.048398003 0.05823531 0.100348316 -0.039536107
0.049258783 -0.109378844 0.085402116 0.02732933 0.018429272 0.11742772 -0.051869642 0.04076532
0.018287126 -0.021019906 0.034583926 0.028953744 -0.013397191 -0.06441637 0.043658733 -0.015239672
-0.0036164464 -0.010605872 0.02159268 -0.018207075 0.020586427 -0.024968566 -0.024975749 -0.047013123
00000000: 45cb 773d b6bc 6d3d 9cdd 6ebd 0b16 af3c
00000010: fc3c 46bd 2688 6e3d 6b83 cd3d 9df0 21bd
00000020: 94c3 493d 0402 e0bd 4ee7 ae3d c2e1 df3c
00000030: fcf8 963c f27d f03d 4375 54bd 89f9 263d
00000040: e2ce 953c f031 acbc e0a7 0d3d 6730 ed3c
00000050: e47f 5bbc bbec 83bd 80d3 323d d1af 79bc
00000060: e701 6dbb 40c4 2dbc 22e3 b03c 0127 95bc
00000070: dea4 a83c e18a ccbc f199 ccbc d590 40bd

decoder.decoder_net.6.running_mean f4 [32]
0.14285703 0.14285703 0.14285703 0.14285703 0.14285703 0.14285703 0.14285703 0.14285703
0.14285703 0.14285703 0.14285703 0.14285703 0.14285703 0.14285703 0.14285703 0.14285703
0.14285703 0.14285703 0.14285703 0.14285703 0.14285703 0.14285703 0.14285703 0.14285703
0.14285703 0.14285703 0.14285703 0.14285703 0.14285703 0.14285703 0.14285703 0.14285703
00000000: 1d49 123e 1d49 123e 1d49 123e 1d49 123e
00000010: 1d49 123e 1d49 123e 1d49 123e 1d49 123e
00000020: 1d49 123e 1d49 123e 1d49 123e 1d49 123e
00000030: 1d49 123e 1d49 123e 1d49 123e 1d49 123e
00000040: 1d49 123e 1d49 123e 1d49 123e 1d49 123e
00000050: 1d49 123e 1d49 123e 1d49 123e 1d49 123e
00000060: 1d49 123e 1d49 123e 1d49 123e 1d49 123e
00000070: 1d49 123e 1d49 123e 1d49 123e 1d49 123e

decoder.decoder_net.6.running_var f4 [32]
0.010230566 0.0058461986 0.005729705 0.011487996 0.004278981 0.006582729 0.0036425868 0.003600828
0.0039365124 0.004964444 0.0031740572 0.0042737816 0.0032097467 0.0045433994 0.004788353 0.0038825423
0.006062717 0.002896518 0.004997652 0.003796264 0.005313525 0.0056205275 0.011500838 0.004406777
0.0060276026 0.008704826 0.0048611388 0.0035674372 0.004305071 0.0039342856 0.004453275 0.003942429
00000000: 1b9e 273c 7891 bf3b 40c0 bb3b 2638 3c3c
00000010: b236 8c3b efb3 d73b 77b8 6e3b defb 6b3b
00000020: dcfd 803b c6ac a23b d803 503b 140b 8c3b
00000030: 9d5a 523b cce0 943b 9ee7 9c3b 4072 7e3b
00000040: c2a9 c63b 82d3 3d3b 58c3 a33b beca 783b
00000050: 141d ae3b 672c b83b 036e 3c3c ba66 903b
00000060: 3283 c53b b09e 0e3c 304a 9f3b aacb 693b
00000070: 8e11 8d3b 2eeb 803b c7ec 913b 7e2f 813b

decoder.decoder_net.7.weight f4 [32, 16, 3, 3]
0.021486152 0.059889276 -0.08063811 -0.0321683 0.012713126 -0.01881246 0.067516364 -0.0026750034
0.021801839 0.0049433196 -0.058198296 -0.011785 -0.07979933 -0.024327401 0.02770487 -0.07340773
0.0009446367 0.002050259 -0.04281319 -0.06274001 -0.08316504 -0.086174645 0.041023746 -0.053433478
-0.0046595726 -0.0025665713 -0.04626187 0.04384736 -0.022224706 0.0356153 -0.061443344 -0.03692623
-0.04873423 -0.033949148 0.06567187 -0.09326243 0.05754613 -0.03694173 0.019571133 0.042814523
0.0209645 0.0014785639 -0.005837404 -0.04532332 -0.056664445 0.0048340796 -0.010176701 -0.07540742
-0.060687527 -0.01914148 -0.07873749 0.043694977 0.06135534 0.007731126 -0.019894477 0.028049001
-0.011624523 -0.092827 -0.016000545 -0.04889324 -0.032738168 0.050616276 -0.07316736 0.02116559
-0.018093979 0.10836469 0.010448131 0.017062645 0.019557906 0.010604412 -0.07663786 0.03327619
0.012912811 -0.057217557 0.03463061 -0.026279684 -0.0004655217 -0.037871882 0.07125411 0.056695674
0.043425906 0.021862524 0.0058582732 -0.033661902 -0.013793388 0.006631994 0.06666833 -0.012623272
0.069695726 0.073677346 -0.031520996 0.05429032 -0.002213855 -0.09954218 0.06366628 0.052624565
0.012227146 0.020911466 0.0057141986 0.054833174 -0.050477725 0.007576902 0.06566577 -0.022236371
0.032341223 0.076247685 -0.01088443 0.014355455 0.037588343 -0.0117834145 0.00808757 -0.042389266
-0.054965883 -0.0021838762 0.020564273 -0.0012323032 -0.019734258 0.0361421 -0.014657081 0.023207335
0.04052227 -0.029876675 -0.0210887 0.006445642 -0.03938383 -0.0523908 0.047230367 0.045414902
-0.043609068 -0.09994977 -0.0469152 0.0385191 -0.057692666 -0.038500935 -0.11490408 0.013885357
-0.03957343 -0.030078625 0.08968378 0.069483906 0.024944808 0.061079368 0.015588287 -0.041461147
-0.005697945 0.06433071 0.04516405 0.04120157 0.021682197 0.03193504 0.026323633 -0.033153456
-0.050279714 -0.048896812 -0.04490881 -0.048112407 0.040578876 0.035097048 0.042068385 0.076674156
-0.09275134 0.007094978 -0.03989105 -0.07077049 -0.04473957 -0.003283215 0.017293716 -0.023222348
-0.02013658 -0.119624555 0.017673548 0.08353996 0.056072 0.006160452 -0.07832737 -0.07072588
-0.06293353 0.09156291 -0.0469974 0.03237984 -0.015301661 -0.05872133 -0.003283199 0.043905593
0.0032930276 -0.10089431 0.07691045 0.00552263 -0.033659384 0.07199085 0.060201008 0.032009065
-0.042844802 -0.056922805 -0.095900595 -0.052561443 -0.040712718 -0.062440045 -0.0009312801 0.029035708
-0.032317493 0.12706937 0.040803704 -0.09471189 -0.048377402 -0.12981364 0.011949066 0.06431562
-0.054098018 0.093649186 0.003838769 0.054979734 -0.033264738 0.05224341 -0.066222005 -0.021393241
0.115254946 0.06713667 0.008036417 -0.008477108 0.024529789 -0.015321593 0.026918627 -0.09162531
-0.051219944 0.04453697 0.07662853 0.051161528 0.05919828 -0.08507274 0.089018464 -0.04091387
-0.015336325 0.07600601 0.01207606 0.0759008 -0.053697143 0.011543292 0.03258217 -0.0034402679
-0.077173226 -0.021546055 -0.016943116 0.030314414 -0.06280401 0.09582996 0.06612515 -0.017512098
0.0094097685 0.086781204 -0.013148771 0.0016764564 0.016949292 0.083303005 0.054649215 0.070570216
00000000: ba03 b03c 754e 753d 9825 a5bd e8c2 03bd
00000010: b74a 503c 971c 9abc 0546 8a3d 1c4f 2fbb
00000020: c599 b23c 92fb a13b 5661 6ebd df15 41bc
00000030: d56d a3bd 424a c7bc 53f5 e23c cb56 96bd
00000040: 7fa1 773a a35d 063b e25c 2fbd d67d 80bd
00000050: 6f52 aabd 557c b0bd 8408 283d 10dd 5abd
00000060: 54af 98bb ec33 28bb 167d 3dbd 4a99 333d
00000070: 9610 b6bc 59e1 113d 04ac 7bbd f53f 17bd
00000080: 8b9d 47bd 430e 0bbd f97e 863d 5f00 bfbd
00000090: 7eb5 6b3d 3650 17bd a453 a03c 485e 2f3d
000000a0: bebd ab3c 5fcc c13a b247 bfbb f2a4 39bd
000000b0: fa18 68bd 3367 9e3b 2dbc 26bc 356f 9abd
000000c0: 7c93 78bd 98ce 9cbc 1f41 a1bd 81f9 323d
000000d0: bd4f 7b3d 6355 fd3b bef9 a2bc 05c7 e53c
000000e0: c974 3ebc 151c bebd 9313 83bc 4744 48bd
000000f0: 7518 06bd 0353 4f3d c5d8 95bd 7663 ad3c
00000100: d339 94bc 4eee dd3d a32e 2b3c f6c6 8b3c
00000110: e737 a03c 21be 2d3c 4ff4 9cbd 9d4c 083d
00000120: 4190 533c f55c 6abd d4d8 0d3d 7e48 d7bc
00000130: 4411 f4b9 8c1f 1bbd aded 913d b939 683d
00000140: 5ddf 313d 0919 b33c c2f6 bf3b 10e1 09bd
00000150: aafd 61bc 3351 d93b 6889 883d d7d1 4ebc
00000160: a2bc 8e3d 26e4 963d 291c 01bd 875f 5e3d
00000170: 5316 11bb c5dc cbbd 7763 823d db8c 573d
00000180: 5e54 483c 864e ab3c 2c3e bb3b c098 603d
00000190: bbc1 4ebd a947 f83b c67b 863d 0d29 b6bc
000001a0: 3b78 043d bf27 9c3d 9c54 32bc 2433 6b3c
000001b0: 3cf6 193d 390f 41bc ba81 043c 5ea0 2dbd
000001c0: e823 61bd 5d1f 0fbb 6876 a83c 3c85 a1ba
000001d0: bda9 a1bc bd09 143d 4124 70bc 4f1d be3c
000001e0: aefa 253d eebf f4bc 36c2 acbc f735 d33b
000001f0: f050 21bd bc97 56bd a174 413d fa04 3a3d
00000200: 6c9f 32bd 77b2 ccbd 272a 40bd 34c6 1d3d
00000210: 254f 6cbd 28b3 1dbd d552 ebbd 697f 633c
00000220: c017 22bd 7367 f6bc 21ac b73d 944d 8e3d
00000230: 0e59 cc3c 5c2e 7a3d 0466 7f3c 2ad3 29bd
00000240: d4b5 babb d2bf 833d f0fd 383d fac2 283d
00000250: dd9e b13c 51ce 023d a9a4 d73c ebcb 07bd
00000260: 1af2 4dbd 0648 48bd 4df2 37bd 8411 45bd
00000270: 0936 263d ecc1 0f3d e64f 2c3d 5707 9d3d
00000280: 6af4 bdbd fd7c e83b cc64 23bd 1ef0 90bd
00000290: d740 37bd 352b 57bb 8dab 8d3c cb3c bebc
000002a0: 78f5 a4bc b8fd f4bd 1ec8 903c 0017 ab3d
000002b0: c1ab 653d 9edd c93b 1a6a a0bd bbd8 90bd
000002c0: 4be3 80bd 5685 bb3d 5880 40bd b9a0 043d
000002d0: d1b3 7abc c785 70bd f02a 57bb 5ad6 333d
000002e0: d6cf 573b ada1 cebd 3a83 9d3d 2ef7 b43b
000002f0: 6cde 09bd f06f 933d 5595 763d f01b 033d
00000300: 087e 2fbd e327 69bd 8867 c4bd ab4a 57bd
00000310: 61c2 26bd 22c1 7fbd 2621 74ba 4bdc ed3c
00000320: 595f 04bd 791e 023e c921 273d 4ff8 c1bd
00000330: 6227 46bd deed 04be 04c6 433c e8b7 833d
00000340: e295 5dbd 25cb bf3d db93 7b3b 6e32 613d
00000350: 9b40 08bd 30fd 553d 679f 87bd e140 afbc
00000360: c90a ec3d f37e 893d 2dab 033c 91e3 0abc
00000370: b2f2 c83c 6b07 7bbc 7484 dc3c 0da6 bbbd
00000380: 01cc 51bd 666c 363d 6bef 9c3d c08e 513d
00000390: e579 723d 9e3a aebd 504f b63d 4d95 27bd
000003a0: 3645 7bbc 0aa9 9b3d abda 453c e171 9b3d
000003b0: 89f1 5bbd 1320 3d3c e274 053d 1e76 61bb
000003c0: ff0c 9ebd 5a81 b0bc 4acc 8abc ef55 f83c
000003d0: 649f 80bd 8042 c43d 9f6c 873d 8875 8fbc
000003e0: 6e2b 1a3c 58ba b13d f16d 57bc 8bbc db3a
000003f0: 3ed9 8a3c c49a aa3d dbd7 5f3d 1e87 903d

decoder.decoder_net.7.bias f4 [16]
0.035369895 0.089578785 0.017717257 0.08741091 0.033573575 0.020352732 -0.1229122 -0.10011668
0.068887144 0.015739989 -0.0395277 0.0022578174 0.059816215 0.021830978 0.028629486 0.08149685
00000000: 06e0 103d 1575 b73d c823 913c 7e04 b33d
00000010: 7284 093d c6ba a63c 64b9 fbbd f909 cdbd
00000020: b414 8d3d 26f1 803c cce7 21bd e4f7 133b
00000030: d901 753d e1d6 b23c 6288 ea3c d2e7 a63d

decoder.decoder_net.9.weight f4 [16]
0.9227787 0.9144435 0.90921205 0.9146858 0.90907073 0.8725465 0.88301474 0.9389013
0.8852342 0.920018 0.9316241 0.90096617 0.9033874 0.9473907 0.9565118 0.9098653
00000000: 3a3b 6c3f f818 6a3f 1fc2 683f d928 6a3f
00000010: dcb8 683f 355f 5f3f 410d 623f d65b 703f
00000020: b59e 623f 4d86 6b3f eb7e 6e3f b8a5 663f
00000030: 6644 673f 3288 723f f5dd 743f efec 683f

decoder.decoder_net.9.bias f4 [16]
0.01051317 -0.011678868 0.2438536 0.09951027 0.12560426 0.15528348 0.14401467 -0.08200834
0.17691095 0.093867585 -0.14071089 -0.009039899 0.022964321 -0.04625212 0.1124714 0.11934795
00000000: 6e3f 2c3c b958 3fbc c2b4 793e 0acc cb3d
00000010: 679e 003e a202 1f3e 9578 133e fdf3 a7bd
00000020: 2528 353e a63d c03d 8416 10be 161c 14bc
00000030: ac1f bc3c dd72 3dbd 6857 e63d b36c f43d

decoder.decoder_net.9.running_mean f4 [16]
0.071428515 0.071428515 0.071428515 0.071428515 0.071428515 0.071428515 0.071428515 0.071428515
0.071428515 0.071428515 0.071428515 0.071428515 0.071428515 0.071428515 0.071428515 0.071428515
00000000: 1d49 923d 1d49 923d 1d49 923d 1d49 923d
00000010: 1d49 923d 1d49 923d 1d49 923d 1d49 923d
00000020: 1d49 923d 1d49 923d 1d49 923d 1d49 923d
00000030: 1d49 923d 1d49 923d 1d49 923d 1d49 923d

decoder.decoder_net.9.running_var f4 [16]
0.0036502792 0.003077301 0.0031262084 0.001132259 0.0027963982 0.0016266719 0.0012901797 0.004328465
0.0020842215 0.00213789 0.0035826822 0.0032033077 0.0033512611 0.0046891035 0.003767384 0.0015406335
00000000: 8639 6f3b 8bac 493b 13e1 4c3b 4f68 943a
00000010: c743 373b 0d36 d53a 3f1b a93a ccd5 8d3b
00000020: 6f97 083b d81b 0c3b 6fcb 6a3b 96ee 513b
00000030: d5a0 5b3b 0da7 993b 37e6 763b 15ef c93a

decoder.decoder_net.10.weight f4 [16, 1, 3, 3]
0.22630575 -0.19007789 0.1406657 -0.11082838 0.21739613 -0.21866764 -0.25098586 0.028624738
-0.18279772 -0.18033151 0.14995791 -0.24588574 -0.16626374 -0.10545857 0.16326044 -0.068047926
0.011168336 0.053246744 -0.15397207 -0.22364937 -0.10736091 0.065503515 0.28280798 0.17116822
-0.21861693 -0.058653496 0.22331373 0.09568895 0.098848306 -0.024664503 0.078141235 0.13286154
0.047716264 0.12870313 0.06342572 0.08024506 0.18322898 0.19812389 0.18180628 0.21923313
0.25579062 0.22143416 -0.06075654 -0.17410304 -0.09351861 -0.030743277 0.13128117 -0.10806044
0.073296495 0.1222156 0.17403625 -0.18259163 0.1845779 0.21871896 -0.100070365 0.17723988
0.13956316 0.13094814 0.1990829 0.09739677 0.124071404 0.05025823 -0.12090345 -0.28970963
-0.091595985 -0.19707198 0.12093098 -0.2312887 -0.25591466 -0.13547318 0.19037633 0.15933721
0.104206465 -0.018495446 -0.14293937 -0.07857265 0.17314631 0.19450335 0.11931356 0.0189834
-0.17509128 0.118384235 0.22069198 0.21527882 0.059068754 0.095716536 0.06170487 -0.08264442
-0.005551631 0.0936346 0.06632273 -0.17057942 -0.28747904 -0.11213639 -0.23330966 0.07452106
-0.01283073 -0.22527528 -0.23303595 0.26487568 0.112320274 0.034785833 0.024251565 -0.04569679
0.097977646 0.005223808 -0.032577258 -0.2049734 0.20875615 0.1942632 0.045063976 0.15526024
-0.14795615 0.07961253 0.14660777 -0.06201518 0.24771452 -0.049294308 -0.15984546 -0.0040572546
-0.3291807 0.0759107 0.04493273 -0.051543612 -0.21900283 -0.12781149 -0.09519812 -0.2077985
-0.03610134 0.17491196 0.073950686 -0.1179553 0.18399444 0.30881616 0.04681845 0.16131212
0.20603701 -0.011463389 0.16405977 0.2831216 0.1361093 -0.0072194412 0.19389737 0.21359915
00000000: b2bc 673e c7a3 42be ab0a 103e fdf9 e2bd
00000010: 179d 5e3e 69ea 5fbe 3881 80be 6d7e ea3c
00000020: 532f 3bbe d3a8 38be 918e 193e 79c9 7bbe
00000030: 0b41 2abe aafa d7bd bf2d 273e b65c 8bbd
00000040: 65fb 363c 4219 5a3d dbaa 1dbe 5704 65be
00000050: 09e0 dbbd b526 863d 35cc 903e b946 2f3e
00000060: 1edd 5fbe a63e 70bd 5bac 643e 91f8 c33d
00000070: fb70 ca3d 360d cabc 8308 a03d db0c 083e
00000080: 2172 433d c1ca 033e 58e5 813d 8657 a43d
00000090: 61a0 3b3e fde0 4a3e 6d2b 3a3e a67e 603e
000000a0: fdf6 823e a3bf 623e dadb 78bd 1148 32be
000000b0: af86 bfbd 53d9 fbbc 926e 063e cb4e ddbd
000000c0: 791c 963d 2c4c fa3d 8f36 323e 4df9 3abe
000000d0: fd01 3d3e ddf7 5f3e b1f1 ccbd 5f7e 353e
000000e0: a5e9 0e3e 4517 063e 63dc 4b3e f577 c73d
000000f0: 2619 fe3d 93db 4d3d 3a9c f7bd d254 94be
00000100: ad96 bbbd 3dcd 49be a9aa f73d f2d6 6cbe
00000110: 3f07 83be 7bb9 0abe 03f2 423e 4b29 233e
00000120: 336a d53d c383 97bc b35e 12be b3ea a0bd
00000130: 444d 313e e32b 473e ab5a f43d 1383 9b3c
00000140: 214b 33be 6f73 f23d 14fd 613e 0d72 5c3e
00000150: 14f2 713d 0807 c43d 3fbe 7c3d 7a41 a9bd
00000160: 75ea b5bb 7fc3 bf3d 36d4 873d 5fac 2ebe
00000170: 7430 93be c3a7 e5bd bae8 6ebe 7f9e 983d
00000180: fb37 52bc 90ae 66be faa0 6ebe c99d 873e
00000190: 2c08 e63d 977b 0e3d 38ab c63c 8f2c 3bbd
000001a0: 81a8 c83d 7a2c ab3b bb6f 05bd 8ce4 51be
000001b0: 2cc4 553e efec 463e 0195 383d 8afc 1e3e
000001c0: d181 17be e50b a33d 5920 163e a103 7ebd
000001d0: e0a8 7d3e d4e8 49bd 87ae 23be b8f2 84bb
000001e0: 5f8a a8be 1277 9b3d 620b 383d 651f 53bd
000001f0: 4742 60be 04e1 02be 3bf7 c2bd 21c9 54be
00000200: 00df 13bd 1f1c 333e 7573 973d 8c92 f1bd
00000210: 0a69 3c3e 271d 9e3e b4c4 3f3d 012f 253e
00000220: 5efb 523e f0d0 3bbc 49ff 273e 50f5 903e
00000230: 3d60 0b3e 1091 ecbb 088d 463e bcb9 5a3e

encoder.encoder_net.0.weight f4 [16, 1, 3, 3]
0.012684655 -0.33888212 -0.23692721 0.08509856 -0.18973544 -0.20147465 0.12475127 0.13509957
0.28654566 -0.0041713947 0.36835045 -0.18091184 0.23966178 0.14470647 -0.19034459 0.15992393
0.13798656 -0.23092781 -0.29985788 0.010410354 0.36756396 0.23307757 0.26159284 0.028066507
0.027344888 0.3870315 0.07439394 0.22939998 -0.35315993 -0.2639057 0.31039295 -0.224094
0.0037219236 0.0968514 0.062351897 0.24630411 -0.34111813 -0.2301997 0.05394369 -0.30160847
-0.1095476 0.12108332 0.023717389 0.0416399 0.098537646 -0.01267746 -0.00012997986 -0.13829808
0.19787079 -0.117651485 -0.27354172 -0.297366 0.12345106 -0.27017555 0.14792724 0.119833246
0.30084395 -0.080381036 -0.16365442 0.14198992 -0.2121213 0.02404847 -0.1051455 0.04075645
-0.3241277 0.20688833 -0.28638035 -0.10781424 0.21337685 0.2079754 -0.3105967 -0.2989768
0.02287399 0.050632544 0.24803856 0.31475258 0.31464761 0.09294714 0.13495645 0.27044556
0.23141335 -0.3826222 0.118085496 -0.37603334 0.1961387 -0.33699426 0.22566772 -0.33749315
0.22061613 -0.12006301 0.16246241 -0.04587988 0.16396889 0.33985776 0.22855578 0.18189771
0.30265215 0.19458237 -0.14670816 0.16728005 -0.3382362 -0.024446163 -0.28574112 -0.000610948
-0.124814846 -0.28162923 -0.44404995 -0.32774734 -0.03148819 0.27532375 0.36193386 -0.09012159
-0.15987884 -0.1574093 0.23778214 -0.12748753 0.35953146 -0.23643069 -0.050345954 0.019075746
-0.2543152 -0.280872 -0.3184279 0.04406266 0.3070203 0.18303637 0.2048542 -0.07206263
0.0117502455 -0.14206058 0.033221297 -0.32931164 0.09559457 -0.1368706 -0.024767747 0.10154329
0.28396624 -0.2881502 -0.13239594 -0.2654352 -0.13963977 -0.3385002 -0.15209529 0.01633517
00000000: 4dd3 4f3c f581 adbe 0c9d 72be 2748 ae3d
00000010: 024a 42be 5f4f 4ebe 987d ff3d 8b57 0a3e
00000020: 1db6 923e 32b0 88bb 6e98 bc3e f440 39be
00000030: e669 753e ef2d 143e b1e9 42be 19c3 233e
00000040: 594c 0d3e 5778 6cbe f986 99be 3090 2a3c
00000050: 5831 bc3e e3ab 6e3e 7fef 853e bbeb e53c
00000060: 6302 e03c fe28 c63e da5b 983d d4e7 6a3e
00000070: 61d1 b4be a61e 87be d3eb 9e3e e678 65be
00000080: 84eb 733b 075a c63d b464 7f3d 2537 7c3e
00000090: 09a7 aebe 78b9 6bbe 0ff4 5c3d 6d6c 9abe
000000a0: 7e5a e0bd 88fa f73d f84a c23c 9a8e 2a3d
000000b0: 1bce c93d 1fb5 4fbc 344b 08b9 039e 0dbe
000000c0: a49e 4a3e 43f3 f0bd a90d 8cbe 5b40 98be
000000d0: e9d3 fc3d 7354 8abe 3d7a 173e 226b f53d
000000e0: 3808 9a3e d09e a4bd 0695 27be ce65 113e
000000f0: 5336 59be 4c01 c53c 8656 d7bd 3cf0 263d
00000100: 11f4 a5be 89da 533e 72a0 92be b6cd dcbd
00000110: 767f 5a3e 81f7 543e 8806 9fbe 7d13 99be
00000120: 3c62 bb3c 1264 4f3d d2fd 7d3e 4027 a13e
00000130: 7e19 a13e 125b be3d 0632 0a3e d777 8a3e
00000140: 9ff7 6c3e 0fe7 c3be cfd6 f13d 7187 c0be
00000150: 95d8 483e 838a acbe 7015 673e e7cb acbe
00000160: 32e9 613e 98e3 f5bd 8c5c 263e 8bec 3bbd
00000170: 76e7 273e d601 ae3e 870a 6a3e 6543 3a3e
00000180: 39f5 9a3e 9a40 473e aa3a 16be 764b 2b3e
00000190: 4c2d adbe 5243 c8bc a94c 92be 0728 20ba
000001a0: ed9e ffbd b531 90be 845a e3be 80ce a7be
000001b0: c3f9 00bd 3cf7 8c3e 654f b93e ab91 b8bd
000001c0: 47b7 23be e72f 21be 297d 733e 178c 02be
000001d0: 8214 b83e e31a 72be 8f37 4ebd bd44 9c3c
000001e0: 9a35 82be 74ce 8fbe fb08 a3be 0c7b 343d
000001f0: c431 9d3e e36d 3b3e 4dc5 513e 9295 93bd
00000200: 1a84 403c 5478 11be 0e13 083d 899b a8be
00000210: 16c7 c33d ce27 0cbe bbe5 cabc eef5 cf3d
00000220: 0664 913e 6c88 93be cd92 07be 1fe7 87be
00000230: bafd 0ebe e64f adbe debe 1bbe 56d1 853c

encoder.encoder_net.0.bias f4 [16]
0.2812445 -0.25521508 -0.29188657 0.27641964 0.17979889 0.21977293 0.09026272 0.2735773
-0.28087947 -0.12907876 0.29229477 -0.30993158 -0.071065694 -0.030857155 0.1771067 0.15683877
00000000: 47ff 8f3e 8dab 82be 2872 95be e086 8d3e
00000010: 331d 383e 280c 613e a9db b83d 5312 8c3e
00000020: 6fcf 8fbe 392d 04be a9a7 953e 5aaf 9ebe
00000030: e48a 91bd 25c8 fcbc 755b 353e 589a 203e

encoder.encoder_net.2.weight f4 [16]
1.0887341 1.1393209 1.0619731 1.013111 1.0610696 1.0546675 1.0643358 1.0451622
1.0033566 0.9800115 1.0886886 1.0694083 1.0346011 1.05771 1.0000433 1.0376613
00000000: a45b 8b3f 44d5 913f bcee 873f 9fad 813f
00000010: 21d1 873f 58ff 863f 283c 883f e0c7 853f
00000020: fd6d 803f 09e2 7a3f 265a 8b3f 5fe2 883f
00000030: cf6d 843f 0b63 873f 6b01 803f 16d2 843f

encoder.encoder_net.2.bias f4 [16]
0.021156285 0.02792576 0.078221 0.017848482 0.18577375 -0.026826816 -0.021281235 0.0078006657
0.08616614 0.021955471 -0.051421598 0.04900128 0.05838953 0.07014552 0.0028415066 -0.007826449
00000000: f24f ad3c 90c4 e43c 5532 a03d fb36 923c
00000010: 793b 3e3e e9c3 dbbc fc55 aebc ba9c ff3b
00000020: e077 b03d f6db b33c 749f 52bd 91b5 483d
00000030: dc29 6f3d 74a8 8f3d 9238 3a3b 823a 00bc

encoder.encoder_net.2.running_mean f4 [16]
0.071428515 0.071428515 0.071428515 0.071428515 0.071428515 0.071428515 0.071428515 0.071428515
0.071428515 0.071428515 0.071428515 0.071428515 0.071428515 0.071428515 0.071428515 0.071428515
00000000: 1d49 923d 1d49 923d 1d49 923d 1d49 923d
00000010: 1d49 923d 1d49 923d 1d49 923d 1d49 923d
00000020: 1d49 923d 1d49 923d 1d49 923d 1d49 923d
00000030: 1d49 923d 1d49 923d 1d49 923d 1d49 923d

encoder.encoder_net.2.running_var f4 [16]
0.00011655242 0.00017972266 0.00049308845 9.037595e-05 0.00015903825 0.00013641923 6.735116e-05 0.00010806526
0.00088418997 0.00012762276 0.0006545766 0.000439515 0.00011978459 0.00013576876 5.667352e-05 0.00019529092
00000000: 9b6d f438 ef73 3c39 9b42 013a 3888 bd38
00000010: 81c3 2639 c20b 0f39 e13e 8d38 18a1 e238
00000020: fcc8 673a 79d2 0539 e497 2b3a b46e e639
00000030: dd34 fb38 265d 0e39 bbb4 6d38 02c7 4c39

encoder.encoder_net.3.weight f4 [32, 16, 3, 3]
0.02274597 -0.052288637 -0.042050995 0.0511597 -0.054045197 -0.08684142 0.039488375 0.0034863749
-0.0067140977 0.0031194678 0.04808618 -0.09430212 0.06845787 -0.08555877 -0.06451071 -0.019624386
0.00015006185 -0.013045084 0.013342674 -0.10037713 -0.048617568 -0.05068118 0.06814269 -0.057021517
-0.016387424 0.088015705 0.020498741 -0.024141988 0.0062953327 0.064150035 -0.05032231 0.047473975
0.05174264 -0.00827992 -0.0045747636 0.07434388 -0.015972123 0.017979495 -0.036441583 -0.10014784
-0.022686776 0.03349653 -0.04989639 0.040291846 0.056327302 -0.07894874 0.02560656 0.006109993
-0.0008715231 0.021734407 0.021098357 -0.019247163 -0.059626423 0.0834208 0.037013665 -0.08947912
-0.031100556 0.0039411606 0.03091176 0.00397253 0.04727415 -0.081118375 0.021705423 0.057495475
0.0393162 -0.04475654 -0.0642063 -0.061299205 -0.027977144 0.06549076 0.039945513 0.05657504
0.09647664 -0.09169416 -0.09255281 0.020753136 -0.020357708 -0.07192724 -0.017490225 0.09158812
-0.05921284 -0.065884516 -0.08153553 0.045369867 -0.037475146 0.05876278 -0.05332665 -0.010176678
0.039943267 0.0033994094 -0.036907267 -0.05296779 -0.069321565 0.09107438 -0.041155547 -0.024411233
-0.002325185 0.052917868 -0.0018752794 0.066733986 0.008938928 0.018684782 0.02323462 -0.047126323
0.06382846 0.08802556 0.020398181 0.073938735 0.06709985 -0.013077288 0.04929956 0.031458214
0.0030515278 -0.00877151 0.037854984 0.05382979 0.032767285 -0.074533455 -0.13431142 0.069416754
-0.09283549 -0.010460505 0.062677965 -0.007990226 -0.014389331 -0.08220425 -0.05803455 -0.020905994
-0.006003557 0.062204912 -0.017185993 -0.06732622 0.04230166 0.02928811 -0.04095845 -0.0031757522
-0.05025394 0.035759054 -0.05940533 -0.042275574 0.01640468 0.019703444 -0.01846594 0.047238313
-0.061981343 -0.013387006 0.08333909 0.01762202 -0.01685941 0.025197972 -0.016493395 -0.038944237
-0.031595297 0.028913463 0.18217652 0.051774513 -0.008791861 -0.008375575 0.019846624 -0.053496778
-0.008927518 0.07774309 0.023864357 0.044556078 0.016149204 0.009639833 0.022413757 0.058869794
-0.013407038 0.05282887 -0.047178812 0.053056385 -0.058483854 0.048516255 0.03903471 0.033949006
0.07158547 0.03210803 -0.033974994 -0.035030093 -0.04177144 -0.052486718 -0.01304877 -0.08200767
-0.053408805 -0.08570727 0.052214976 -0.059251796 0.007246363 -0.041246094 -0.024316465 -0.035454884
-0.035572626 0.015163181 -0.074022815 0.056882817 -0.061682787 -0.07772346 -0.0017530213 0.14549027
0.02517513 0.010575222 -0.038305055 -0.019872734 0.04869521 -0.009764301 -0.050835676 0.022508316
-0.12283318 0.023144145 0.038986005 -0.030593246 0.044473782 0.03459248 -0.014096588 -0.013790727
-0.044400495 0.08867521 -0.030490486 0.07406412 -0.018459892 -0.05285065 -0.07371951 0.06276563
0.031318016 -0.112610444 -0.06397801 -0.025489325 -0.036530767 -0.064282924 -0.07159056 -0.021088058
0.017983207 0.054921698 0.07738803 0.05047938 0.07042665 0.008367258 -0.014468542 -0.023408968
0.013772249 0.06923076 -0.04243502 -0.053017017 -0.10452731 0.010178091 -0.038341977 -0.03267554
-0.0097994 0.055376608 0.0077379635 -0.03470164 0.115059175 0.030059403 -0.09180203 0.08491575
00000000: c255 ba3c 9c2c 56bd aa3d 2cbd d58c 513d
00000010: 7f5e 5dbd ead9 b1bd 90be 213d aa7b 643b
00000020: ef01 dcbb fc6f 4c3b 04f6 443d 7821 c1bd
00000030: a433 8c3d 7039 afbd 311e 84bd 52c3 a0bc
00000040: ec59 1d39 0cbb 55bc 3b9b 5a3c 8692 cdbd
00000050: 3723 47bd 1297 4fbd 658e 8b3d 658f 69bd
00000060: eb3e 86bc 9441 b43d faec a73c 6bc5 c5bc
00000070: 1449 ce3b 1861 833d c41e 4ebd 1274 423d
00000080: 17f0 533d 80a8 07bc e6e7 95bb 9b41 983d
00000090: f8d7 82bc bc49 933c c543 15bd 501a cdbd
000000a0: 9ed9 b9bc a833 093d 2860 4cbd 1009 253d
000000b0: 75b7 663d e1af a1bd d9c4 d13c 5636 c83b
000000c0: ed76 64ba 5b0c b23c 76d6 ac3c 3aac 9dbc
000000d0: d63a 74bd 86d8 aa3d a49b 173d d440 b7bd
000000e0: 98c6 febc da24 813b a93a fd3c ff2b 823b
000000f0: 8aa2 413d 6421 a6bd 92cf b13c 6080 6b3d
00000100: 060a 213d a252 37bd 987e 83bd e014 7bbd
00000110: 5330 e5bc 0520 863d e89d 233d 3bbb 673d
00000120: 8b95 c53d 26ca bbbd 548c bdbd 7b02 aa3c
00000130: 35c5 a6bc 974e 93bd a947 8fbc 8d92 bb3d
00000140: 2a89 72bd 76ee 86bd 1afc a6bd c1d5 393d
00000150: 8a7f 19bd 3eb1 703d 0c6d 5abd 15bc 26bc
00000160: 8d9b 233d a0c8 5e3b 132c 17bd c1f4 58bd
00000170: 77f8 8dbd 3485 ba3d b892 28bd 11fa c7bc
00000180: 2262 18bb 68c0 583d efcb f5ba d4ab 883d
00000190: 9574 123c d410 993c 8856 be3c 8807 41bd
000001a0: 7fb8 823d bf46 b43d 161a a73c 316d 973d
000001b0: a56b 893d 1f42 56bc 56ee 493d 54da 003d
000001c0: 24fc 473b 61b6 0fbc d40d 1b3d a07c 5c3d
000001d0: fd36 063d ffa4 98bd ef88 09be 5f2a 8e3d
000001e0: 8920 bebd 8a62 2bbc 4e5d 803d 70e9 02bc
000001f0: 3bc1 6bbc b45a a8bd a3b5 6dbd 0c43 abbc
00000200: 7cb9 c4bb 94ca 7e3d a4c9 8cbc 54e2 89bd
00000210: 8144 2d3d 9eed ef3c 0cc4 27bd 4820 50bb
00000220: 13d7 4dbd 1678 123d 0153 73bd 2729 2dbd
00000230: 1c63 863c 1e69 a13c e245 97bc f67c 413d
00000240: 26e0 7dbd 2c55 5bbc afad aa3d 0e5c 903c
00000250: bf1c 8abc fa6b ce3c 281d 87bc fe83 1fbd
00000260: 126a 01bd eddb ec3c 7b8c 3a3e 8311 543d
00000270: bd0b 10bc b539 09bc 6395 a23c 701f 5bbd
00000280: b944 12bc c537 9f3d 2f7f c33c 6f80 363d
00000290: 564b 843c 64f0 1d3c 0e9d b73c 7421 713d
000002a0: 31a9 5bbc 1663 583d 923e 41bd a751 593d
000002b0: c48c 6fbd fbb8 463d dce2 1f3d 1d0e 0b3d
000002c0: 679b 923d b683 033d 5d29 0bbd b77b 0fbd
000002d0: 8818 2bbd 50fc 56bd 82ca 55bc a3f3 a7bd
000002e0: 31c3 5abd 4b87 afbd 5fdf 553d 03b2 72bd
000002f0: e672 ed3b aaf1 28bd 5333 c7bc 2439 11bd
00000300: 9ab4 11bd fe6e 783c 4699 97bd f5fd 683d
00000310: 17a7 7cbd 7a2d 9fbd a2c5 e5ba 67fb 143e
00000320: 133c ce3c b243 2d3c c3e5 1cbd 25cc a2bc
00000330: a174 473d 72fa 1fbc 1239 50bd 5c63 b83c
00000340: f68f fbbd ca98 bd3c caaf 1f3d b09e fabc
00000350: 242a 363d d8b0 0d3d 60f5 66bc 80f2 61bc
00000360: 4bdd 35bd 599b b53d 2fc7 f9bc eeae 973d
00000370: 3339 97bc ec79 58bd 41fa 96bd 448b 803d
00000380: 5247 003d 4ea0 e6bd e706 83bd fdce d0bc
00000390: 49a1 15bd c4a6 83bd 129e 92bd ddc0 acbc
000003a0: 8551 933c 93f5 603d 9e7d 9e3d 77c3 4e3d
000003b0: d93b 903d d316 093c 770d 6dbc 2ac4 bfbc
000003c0: 00a5 613c dbc8 8d3d 58d0 2dbd 5f28 59bd
000003d0: 6a12 d6bd 02c2 263c 7a0c 1dbd c9d6 05bd
000003e0: aa8d 20bc 95d2 623d be8e fd3b 4f23 0ebd
000003f0: 25a4 eb3d 233f f63c b402 bcbd 4fe8 ad3d

encoder.encoder_net.3.bias f4 [32]
-0.016031105 -0.030883607 -0.00038145581 -0.035387333 -0.06138874 -0.06791133 -0.05836437 -0.037845913
0.027586125 0.07409584 -0.06702279 -0.046919435 0.037176356 0.02219618 0.024250811 0.048034217
-0.038048424 -0.027716666 -0.0062348666 0.036635913 0.07678358 -0.011378043 0.019932019 0.033151746
-0.07434257 -0.07441725 -0.04259543 0.11044788 -0.020529253 0.051216338 0.029489823 -0.03470573
00000000: aa53 83bc 9eff fcbc 22fe c7b9 4ff2 10bd
00000010: c272 7bbd 1815 8bbd 7a0f 6fbd 5104 1bbd
00000020: 4cfc e13c 8fbf 973d 3f43 89bd 982e 40bd
00000030: 3c46 183d c3d4 b53c a3a9 c63c 87bf 443d
00000040: aad8 1bbd 100e e3bc da4d ccbb 8a0f 163d
00000050: b640 9d3d f96a 3abc 7948 a33c 20ca 073d
00000060: eb40 98bd 1268 98bd 8c78 2ebd 8032 e23d
00000070: f72c a8bc 39c8 513d a494 f13c 9827 0ebd
