miniproject2/experiments/ensemblyVAE/ND2/modelSeed773nD2.pt (torch, 215616 bytes, 56 tensors)

prior.mean f4 [2]
000000 00 00 00 00 00 00 00 00
       0.0 0.0

prior.std f4 [2]
000000 00 00 80 3f 00 00 80 3f
       1.0 1.0

decoders.0.decoder_net.0.weight f4 [512, 2]
000000 fa 01 a4 3c 4a 80 20 bf 1d 4f 53 bf 8f 4c 3f 3f
       0.020020474 -0.62695754 -0.8254259 0.74726194
000010 7b cf e5 3e 4f ce 72 be 1c 45 80 3e c9 0c 2e be
       0.44884858 -0.23711513 0.25052726 -0.16997065
000020 03 86 19 bf 7d 8b 6f be 23 44 0c bf f4 a8 5d bf
       -0.5997011 -0.23393054 -0.5479147 -0.86585927
000030 60 3d a3 3e 4c b6 30 3f 86 ca a5 3e 08 24 f5 3e
       0.31882763 0.6902816 0.32381076 0.47879052
000040 27 0e 6d be 57 2f 86 3e 54 6b d4 bc 80 04 20 3f
       -0.2314993 0.26207992 -0.025930084 0.62506866
000050 94 ad 99 be 03 eb 6b 3f 3e 30 75 be 61 1f 0f bc
       -0.30015242 0.92155474 -0.23944184 -0.008735509
000060 2e b3 93 3d d8 a9 cc 3d fb f9 a3 be a5 b6 eb bd
       0.0721191 0.099933326 -0.32026657 -0.11509446
000070 27 74 68 bf ae e4 8c bf 85 2d 26 3f b9 43 03 3d
       -0.90802234 -1.1007288 0.6491321 0.032047007
000080 0c da da bd 6e 31 d5 3d 26 63 87 be 85 33 73 3f
       -0.106861204 0.104098186 -0.26442832 0.9500049
000090 dd 4b f8 be 40 a9 07 bf 27 8f 44 be 90 08 66 be
       -0.4849538 -0.5299263 -0.19195233 -0.22464204
0000a0 ac 13 0d 3f 2b 27 06 be f1 f0 de 3e b0 2a 07 3f
       0.5510814 -0.13100879 0.435432 0.5279951
0000b0 37 66 90 be 3a ed 2b bf fc ad e6 3d aa 12 dc be
       -0.28202984 -0.67158854 0.11263654 -0.4298299
0000c0 20 b5 b5 3e 2c 4f 82 be 68 78 ce be ad dd 73 be
       0.3548975 -0.25451028 -0.40326238 -0.23815031
0000d0 56 a1 1c 3f cb 0c 27 3f 7e 68 40 3e 29 bf 90 3e
       0.6118368 0.65253896 0.1878986 0.28270844
0000e0 96 8e 51 bd e9 67 32 be 33 17 cc 3e 18 95 40 3e
       -0.05116137 -0.17422451 0.3986145 0.18806875
0000f0 95 3f 73 3e cf 6d 11 bf 6d 7c 10 3f 35 8c d8 3e
       0.23754723 -0.5680818 0.5643986 0.4229447
000100 f9 21 d6 be 0b df f0 3e 93 a6 1f bf 59 1f 9d 3e
       -0.41822794 0.47045168 -0.6236355 0.3068798
000110 de 42 f6 be 22 51 73 be 6b 23 ec 3e 44 7f 13 3f
       -0.4809789 -0.23761418 0.46120772 0.57616067
000120 d9 57 42 be c0 31 2c 3e 73 74 71 3f 8b 5c 2c bf
       -0.18978824 0.16815853 0.9431831 -0.6732871
000130 d2 5f 8d 3c 17 a0 48 3e 3d 0e fe be e8 9e 43 bd
       0.017257605 0.1959232 -0.49620238 -0.047758967
000140 59 10 8d 3e 20 83 0e bf ae 00 a0 3e 14 a6 bd 3e
       0.27551535 -0.5566883 0.3125052 0.3704077
000150 84 a7 1c 3f cd b2 91 be 96 33 79 be 40 8e 66 be
       0.6119311 -0.28456727 -0.24336085 -0.22515202
000160 49 a7 05 3f bd 27 0a bf 61 1b 9f 3e 62 23 c3 bd
       0.5220838 -0.53966886 0.31075576 -0.09528233
000170 99 33 d4 3e ca f3 1a be 2a ab b7 be 27 df 15 bd
       0.41445616 -0.1513206 -0.35872775 -0.036589768
000180 b0 35 34 3e 3a 5b 50 bf 3f 39 c2 be 9c 35 a7 3e
       0.17598605 -0.813892 -0.379343 0.32658088
000190 b9 22 7c bf ad f1 fe 3e 61 d4 c9 3e a3 cc 1d bf
       -0.9849048 0.4979376 0.39419845 -0.61640376
0001a0 7c 13 00 3f aa 74 01 bf 73 d2 83 3d f4 00 2a bf
       0.5002973 -0.5056864 0.064366244 -0.66407704
0001b0 30 a3 30 be bd d1 6d bd 03 b2 08 bf 9d 40 eb 3e
       -0.17249751 -0.05806135 -0.53396624 0.45947734
0001c0 80 e2 1e bd 3e 86 b9 bd b5 c9 08 bf 99 f6 24 3f
       -0.038790226 -0.09058808 -0.5343278 0.6443878
0001d0 9c 89 d5 b7 a8 0f 08 bf 12 b6 3f 3e 60 59 89 3c
       -2.5455658e-05 -0.5314889 0.18721798 0.01676625
0001e0 68 3b e1 bc 43 e7 d8 3c 7b e8 7f bc 0f db 0b bf
       -0.027494147 0.026477462 -0.0156193925 -0.5463113
0001f0 3b 2c 43 3e a1 0b 66 be 3c a9 87 be 94 d6 12 3f
       0.19059841 -0.22465374 -0.26496303 0.5735867
000200 9d af d0 bd f2 2b d6 bb 54 b5 cd be 5e c2 e8 be
       -0.101897456 -0.0065360004 -0.40177405 -0.4546079
000210 f0 59 88 be af 0e b9 3d a8 34 0f be d1 32 d6 3e
       -0.26631117 0.09036004 -0.1398493 0.41835645
000220 70 46 94 3d 7c 0d a9 be cf 98 2c 3f 60 be 1e bf
       0.072399974 -0.330181 0.6742067 -0.6200924
000230 b1 d7 1c bf 1d 33 dc be 5e cc 27 3f 29 c6 df be
       -0.6126662 -0.43007746 0.65546215 -0.43705872
000240 e3 99 e5 be e4 c4 0f be ab f8 dd 3e a5 61 e8 be
       -0.4484397 -0.14039952 0.4335378 -0.45386997
000250 c8 4f 2d be 49 39 54 3f 5a ea 1b 3f ed 07 02 3f
       -0.16924965 0.8289991 0.6090447 0.50793344
000260 f0 b4 1a be dd 01 4a 3e 89 62 08 bf b2 d1 d9 3e
       -0.15108085 0.19727273 -0.5327535 0.42542797
000270 46 c3 06 3f c3 3f 89 be ad ed 75 be 5f 28 07 3f
       0.52641714 -0.2680646 -0.24016447 0.52795976
000280 bd f1 d5 3e d1 72 5b be 03 7d f9 3e 14 2a f0 be
       0.41785994 -0.21430518 0.4872819 -0.46907103
000290 74 ec 29 bf bd 4d 95 be bd 2a 14 3d f4 54 4e bf
       -0.66376424 -0.29160872 0.03617357 -0.8059838
0002a0 09 7b 09 3f ab 06 f3 bd 70 10 b0 bd 6e 20 9a 3e
       0.5370336 -0.11866506 -0.08596885 0.30102867
0002b0 4b 8d d8 3d 49 26 20 3f b0 65 90 3e 82 14 4a be
       0.105738245 0.6255842 0.2820258 -0.19734386
0002c0 36 a8 18 3e c6 58 06 bf b3 41 ee be b7 8c 48 be
       0.14907917 -0.5247921 -0.465345 -0.19584928
0002d0 de ba 10 bf 5f 10 54 3c 25 5c c2 3e 6e 23 23 3f
       -0.56535137 0.012943356 0.37960926 0.63725936
0002e0 bf 99 0e 3f 0d 93 5c be 9e e0 30 3f 54 57 e4 be
       0.5570335 -0.2154047 0.6909274 -0.44597876
0002f0 24 85 b1 be 73 04 de be ba 0a 58 3f 3b 9f 22 bf
       -0.3467189 -0.4336277 0.8439137 -0.63524216
000300 ce 2f 0b 3f 6e c6 3b 3e d1 c4 14 3f 2e 93 0a bf
       0.5436982 0.18337414 0.5811282 -0.5413083
000310 a3 7b de 3d 28 51 27 3f 58 02 9f be 8c 72 10 3f
       0.108634256 0.6535821 -0.31056476 0.56424785
000320 71 ff 1f 3f fd 8a a6 3e 24 c7 82 bf b1 68 c9 3e
       0.6249915 0.32527915 -1.0217023 0.39337686
000330 e1 06 e3 3e 57 ca 0c 3f 69 0d b6 3c 06 86 66 3e
       0.44341186 0.54996246 0.022223191 0.22512063
000340 2f d9 11 bf 78 98 7e be d8 26 38 3f 7d 86 a4 3e
       -0.5697202 -0.2486285 0.7193427 0.32133856
000350 6c af 15 3f e4 7e 05 bf 9d 21 1c be f4 12 28 bf
       0.584708 -0.52146745 -0.15247197 -0.6565392
000360 db 07 84 bd 38 74 ff 3e 05 cc 26 3e 9a fc b3 3e
       -0.06446811 0.49893355 0.16288765 0.35153657
000370 39 3f ca 3e bd f0 23 bf 88 f0 3c 3e 11 4e 08 be
       0.3950136 -0.6403921 0.1845113 -0.1331103
000380 79 a8 ef 3d d0 ea a3 3e 09 4d 28 3e 2a 73 f0 3e
       0.117020555 0.32015085 0.16435637 0.46962863
000390 81 26 82 3e cd f9 94 3e cd 99 5b 3e 4f da a9 be
       0.2542 0.29096833 0.21445389 -0.3317437
0003a0 a3 c1 7e be 98 78 c8 3e 60 0b 9e 3e de 0f 63 bf
       -0.24878554 0.39154506 0.30868053 -0.88696086
0003b0 8f a7 9c 3e f1 51 00 3e fb aa 18 bf af 97 1a bc
       0.30596587 0.12531258 -0.59635895 -0.009435578
0003c0 3f 84 03 be 96 f3 88 3e cb 44 1f 3f ce 92 31 3f
       -0.12843417 0.2674834 0.62214345 0.6936463
0003d0 c8 6b 93 3d 42 66 04 3e ad 8a 0d bf 4e 97 66 3e
       0.07198292 0.12929633 -0.5528973 0.22518656
0003e0 24 a2 e1 3e 1b 5c 90 3e 8e bd c2 be 68 c0 b7 be
       0.44069016 0.2819527 -0.38035244 -0.35888982
0003f0 75 97 c3 3e 85 33 4e bf 74 7b e4 3d f1 34 db be
       0.3820149 -0.8054736 0.11156359 -0.4281383

decoders.0.decoder_net.0.bias f4 [512]
000000 14 d8 b3 be 3d 2b 6e 3e 86 38 b3 3e 0e 19 d7 bb
       -0.35125792 0.23258682 0.3500406 -0.006564266
000010 97 65 0e 3f 3b 79 01 bf ce 56 1a 3f 77 06 9f 3e
       0.55623764 -0.5057561 0.60288703 0.3105962
000020 63 a4 e9 be 00 49 d0 3d 15 ae a1 3e c8 90 20 be
       -0.4563323 0.10170174 0.31578127 -0.1568023
000030 08 6f 37 3f ba c4 19 bf 01 20 a8 be fb 66 1f be
       0.71653795 -0.60065806 -0.32836917 -0.15566628
000040 a5 f7 15 bf d3 0c 34 3f 98 a5 91 bd bf f5 19 bf
       -0.58581 0.7033207 -0.071116626 -0.60140604
000050 99 5e 0b bf 84 ae 33 3e 60 54 8b 3e fc de e2 3e
       -0.5444122 0.17547041 0.2721281 0.4431075
000060 fc ba 20 3d f3 ee f0 be b2 4d 2c 3f cd 75 09 bf
       0.039240822 -0.47057304 0.67306054 -0.53695375
000070 e0 30 dd be 75 cc 15 be 5e 83 3d 3f 77 b1 a7 be
       -0.4320135 -0.14628775 0.74028575 -0.32752582
000080 70 21 92 bd 7a a7 96 be 3b f8 12 be f9 84 16 3e
       -0.07135284 -0.2942465 -0.14352505 0.14699163
000090 07 33 e8 3e 41 28 16 3f 3f 5b 44 bf 8c 00 70 be
       0.4535143 0.5865517 -0.7670173 -0.23437709
0000a0 74 7d 6d be 22 cd b8 be d0 b6 e1 3e c2 d1 01 3f
       -0.23192388 -0.36094004 0.44084787 0.5071069
0000b0 c0 f2 87 be 4a 76 60 bf 3c b0 4a bd 96 88 94 3e
       -0.2655239 -0.87680495 -0.049484476 0.29010457
0000c0 64 d3 10 3f 39 40 3f 3f ab 20 ee bd ba 0c 07 bf
       0.56572556 0.7470737 -0.11627325 -0.52753794
0000d0 2a 3e c8 3e 41 ed 26 bf 81 bf 0c bf 13 1a e6 be
       0.39109927 -0.6520577 -0.5497971 -0.44941768
0000e0 59 a8 e9 be 20 77 29 bf 76 4a f8 3e 3e d4 2a 3e
       -0.45636252 -0.66197395 0.4849431 0.16682526
0000f0 2d 66 33 3c 72 26 56 bf 18 04 ee be 13 33 2b be
       0.010949654 -0.8365241 -0.46487498 -0.16718702
000100 ac 9c 04 3f 86 93 0e bf 20 f9 f4 3e 9e d0 e4 be
       0.5180156 -0.5569385 0.47846317 -0.44690412
000110 3e f1 2d bf 69 92 de be 94 a2 15 3f 75 ab 03 3d
       -0.6794623 -0.43471077 0.584512 0.032145936
000120 e4 61 07 bf 87 0f 2b 3f d3 d8 c9 bc 95 ec d3 3e
       -0.52883744 0.6682057 -0.024639523 0.41391435
000130 cc 1d 0e 3f 17 dd 2e bf 12 a4 39 be 12 d8 28 bf
       0.55514216 -0.68306106 -0.18128994 -0.659547
000140 08 56 2a 3e ee 15 ab bd 22 cb 1a 3f ea 5a f7 be
       0.16634381 -0.08353792 0.60466206 -0.4831155
000150 96 b8 f2 be 76 ca 69 be f8 f6 16 3f c9 37 4b 3f
       -0.47406453 -0.22831139 0.58970594 0.79381996
000160 71 44 ca 3e 2d 9c c0 3d 7b 08 10 3d c1 81 18 3d
       0.39505342 0.09404788 0.035164338 0.037233118
000170 07 5b 71 3e 47 45 5b 3e bb 65 51 3e 6f b5 03 bf
       0.2356988 0.21413146 0.20448963 -0.5144872
000180 52 18 ef 3e 3b f9 16 3f bb d6 ae bb 60 ea 01 3f
       0.46698242 0.58974046 -0.0053356565 0.5074825
000190 79 b0 dd be cb bc 14 bf dd 52 0a bd 51 6a d9 be
       -0.432987 -0.58100575 -0.03377043 -0.42463925
0001a0 5c f8 d2 3e 07 c4 f3 be 1f 9e 24 3c 34 55 81 be
       0.41205108 -0.47610494 0.010047465 -0.25260317
0001b0 47 1c 13 bf a8 22 86 be 40 87 18 3f c9 71 a2 be
       -0.5746502 -0.26198316 0.59581375 -0.31727436
0001c0 cd 44 82 3c db 60 9c 3d dc 35 6e bf d1 5a 0c 3f
       0.015901947 0.07635661 -0.9305093 0.54826075
0001d0 0f a1 e2 bc c1 21 37 bf ea 7f 00 3f 7d c1 16 3e
       -0.02766469 -0.7153588 0.5019518 0.14722247
0001e0 40 26 0d 3f 44 9a 80 bd c8 3f 9b 3e 53 8e 26 3f
       0.5513649 -0.06279424 0.303221 0.6506092
0001f0 20 ed 1f 3e 4c 1a 2f be d7 e0 9c be 9e fe d6 3e
       0.156178 -0.17099875 -0.3064029 0.41991132
000200 7b e8 05 bf 9b cd 4c 3f 53 f7 48 3f fc f6 5a 3e
       -0.5230786 0.8000123 0.78502387 0.2138328
000210 b6 6a 05 bf ce 90 26 bf 7b cf 3d 3e 91 54 d7 3e
       -0.5211595 -0.65064704 0.18536179 0.42056707
000220 c7 e5 29 3f 43 bd 8d 3c 0c 76 6e bf a3 28 06 bf
       0.6636624 0.017302161 -0.93148875 -0.52405757
000230 98 31 c2 3e 83 20 91 3e b8 27 f9 3e 3f 1b 2f be
       0.37928462 0.28345117 0.48663116 -0.17100237
000240 09 6c ac 3e 6b 9e 05 bf b4 2e 09 3f 6a a4 2c 3f
       0.33676174 -0.5219485 0.5358689 0.67438376
000250 41 2a f4 3e 22 ef d1 be 16 a9 51 be 47 22 a9 3e
       0.47688487 -0.41002756 -0.20474657 0.33033964
000260 63 b2 43 be 90 2a 72 be 2b 5b c9 be c8 81 17 bf
       -0.19111018 -0.23649049 -0.39327368 -0.59182405
000270 ec 97 a5 be d5 71 9e 3a aa 66 80 3e 31 95 20 be
       -0.3234247 0.0012088368 0.25078326 -0.15681912
000280 fd 31 d6 be 38 52 f2 bd fb 0d ea bd de 91 25 bf
       -0.41835013 -0.11832088 -0.11428448 -0.646757
000290 35 21 aa 3e b9 cf 3d 3f f6 98 03 3e 88 2e 18 bf
       0.3322846 0.74145085 0.12851319 -0.59446
0002a0 b7 56 ee 3e f2 7e 8c 3e d7 ce cc 3e f3 45 03 3f
       0.46550533 0.27440602 0.40001556 0.5127861
0002b0 1c c0 43 bd 23 a7 03 bf 56 6a f8 be 4a 72 0e bf
       -0.04779063 -0.51426905 -0.48518628 -0.5564314
0002c0 cd aa 41 be 53 51 98 3e 6d 38 c1 3e d8 44 98 bd
       -0.18912812 0.29749545 0.37738362 -0.07435006
0002d0 44 1d 8b be 57 aa dc be 72 b9 58 bf 5f b8 0e 3f
       -0.27170765 -0.4309871 -0.8465797 0.5575008
0002e0 b6 a0 34 bf 61 23 1f 3f 10 e8 12 3f 42 30 b2 3c
       -0.70557725 0.6216336 0.5738535 0.021751527
0002f0 db 18 e5 3e 99 7b 2f 3d b9 1e 2d 3f 7a 64 07 3f
       0.44745526 0.04284248 0.67625004 0.5288769
000300 4f 23 e0 3e 85 c1 be bd 7a 4b 2b 3f d5 66 cc 3e
       0.43776938 -0.09314255 0.66912043 0.39922205
000310 62 06 b3 3e 1f e2 23 3e 78 69 fa 3e 58 76 e3 3e
       0.34965807 0.16004227 0.4890859 0.44426227
000320 ed 7e 05 3f ce 15 96 3e 15 fa e8 be 72 14 ad be
       0.521468 0.2931351 -0.45503297 -0.3380466
000330 72 0f c6 be 11 04 f6 3d fa e9 cf 3e 2c a2 12 3f
       -0.3868366 0.12012494 0.40608197 0.57278705
000340 a8 64 80 3e 4d 43 3c be 62 f7 24 3f f2 a2 a8 be
       0.25076795 -0.18385048 0.64439976 -0.32936817
000350 2c 5b 3a 3f 04 12 d7 3e 3a 00 a0 3d 3e 7d 21 3e
       0.7279537 0.42005932 0.07812543 0.15770432
000360 ac 23 80 be 24 3a 4e 3e 55 7b 4e bf 79 bd 4c 3f
       -0.25027215 0.20139366 -0.8065694 0.7997661
000370 27 7b 0d 3e aa 54 28 3d 59 86 b1 be e3 c5 89 be
       0.1381651 0.041096367 -0.34672812 -0.26908788
000380 cb 44 30 be f6 8b cb 3e 31 1b 90 3f d6 52 f1 be
       -0.17213742 0.3975522 1.1258298 -0.4713351
000390 0b 8e e4 3e 3c ec 85 bd 4b 19 3a 3e b1 8e da 3d
       0.4463962 -0.06539199 0.18173711 0.106717475
0003a0 b0 e8 0d 3f 5d 2c 99 be b2 d3 06 bf 94 e2 2f 3e
       0.5543318 -0.2991666 -0.5266677 0.17176276
0003b0 6f 95 0c bc 6a ef 8d 3e ca 20 b2 be 4a c3 d6 be
       -0.00858055 0.2772172 -0.3479064 -0.4194587
0003c0 25 6f 92 3e ef fa ba 3e 2e bb c2 be cc 51 ef bb
       0.28600422 0.36519572 -0.38033432 -0.007303452
0003d0 b3 a0 ae bd 8e 27 52 be cf cf 2c 3d 24 bd b7 be
       -0.08526745 -0.20522901 0.04219037 -0.3588649
0003e0 ef 59 9a bd 54 57 b8 3e 1f 55 fb bb aa b0 1a 3f
       -0.07536685 0.36004126 -0.0076700593 0.6042582
0003f0 25 7b 1f 3f 30 06 04 bf d7 e8 06 bf 15 6b 27 be
       0.6229728 -0.5157194 -0.52699035 -0.16349442

decoders.0.decoder_net.3.weight f4 [32]
000000 37 61 8d 3f 5c c4 8a 3f fe bc 85 3f 07 b1 85 3f
       1.1045293 1.0841174 1.0448301 1.044465
000010 24 bc 80 3f af 39 7c 3f a6 66 8e 3f 68 16 7f 3f
       1.0057416 0.9852552 1.1125076 0.99643564
000020 d8 81 8d 3f 9e 47 7d 3f 65 c0 78 3f 45 e2 83 3f
       1.105525 0.98937404 0.9716857 1.0303427
000030 0f 31 87 3f 5a bd 85 3f 86 ec 87 3f f8 10 73 3f
       1.0561846 1.044841 1.0619056 0.9494777
000040 76 d5 7f 3f 67 93 7b 3f 24 d2 8b 3f 80 2a 89 3f
       0.9993509 0.98271793 1.0923505 1.0716095
000050 1e 9f 81 3f fb 29 80 3f f6 06 74 3f 94 aa 84 3f
       1.0126684 1.0012811 0.9532312 1.0364556
000060 9e 0e 7a 3f dc fa 8a 3f 0b 67 89 3f a5 66 83 3f
       0.97678554 1.0857806 1.0734571 1.02657
000070 9b 76 80 3f a3 f1 88 3f 77 2c 84 3f bb 35 80 3f
       1.0036196 1.0698742 1.032607 1.0016397

decoders.0.decoder_net.3.bias f4 [32]
000000 9c d9 84 bc ae cd 0d bb 78 72 a2 3b 14 fc 8e 3d
       -0.016217045 -0.0021637487 0.0049574934 0.06981674
000010 32 23 ad bc 25 0f 3d 3d af 45 47 3d 79 f1 5d bc
       -0.021134946 0.04615702 0.04865044 -0.013546341
000020 96 12 00 bc d5 79 90 3b d1 57 fd 3b 76 73 59 3c
       -0.007816931 0.0044090548 0.007731416 0.013272157
000030 b3 6d 5e 3d d8 3e 61 3d d8 da df bc c8 29 2a bc
       0.054303836 0.054991573 -0.027326033 -0.010385938
000040 5a 16 b4 3c b9 62 98 bd a8 fe aa 3c 67 39 b6 bd
       0.021983314 -0.07440705 0.020873383 -0.088976674
000050 76 a6 8f 3d 54 89 84 3b 06 12 3c bd 11 7d 2e bd
       0.07014172 0.004044691 -0.045915626 -0.04259974
000060 ab f5 40 bd 23 a7 6a 3d 6f c6 94 3d 7d 26 88 3c
       -0.047109287 0.0572883 0.07264411 0.016619915
000070 02 4c e2 3b ff ee 48 3d 39 a3 17 bc 98 26 db bc
       0.0069060335 0.04905605 -0.009255224 -0.026751801

decoders.0.decoder_net.3.running_mean f4 [32]
000000 f8 ff 7f 3e f8 ff 7f 3e f8 ff 7f 3e f8 ff 7f 3e
       0.24999988 0.24999988 0.24999988 0.24999988
000010 f8 ff 7f 3e f8 ff 7f 3e f8 ff 7f 3e f8 ff 7f 3e
       0.24999988 0.24999988 0.24999988 0.24999988
000020 f8 ff 7f 3e f8 ff 7f 3e f8 ff 7f 3e f8 ff 7f 3e
       0.24999988 0.24999988 0.24999988 0.24999988
000030 f8 ff 7f 3e f8 ff 7f 3e f8 ff 7f 3e f8 ff 7f 3e
       0.24999988 0.24999988 0.24999988 0.24999988
000040 f8 ff 7f 3e f8 ff 7f 3e f8 ff 7f 3e f8 ff 7f 3e
       0.24999988 0.24999988 0.24999988 0.24999988
000050 f8 ff 7f 3e f8 ff 7f 3e f8 ff 7f 3e f8 ff 7f 3e
       0.24999988 0.24999988 0.24999988 0.24999988
000060 f8 ff 7f 3e f8 ff 7f 3e f8 ff 7f 3e f8 ff 7f 3e
       0.24999988 0.24999988 0.24999988 0.24999988
000070 f8 ff 7f 3e f8 ff 7f 3e f8 ff 7f 3e f8 ff 7f 3e
       0.24999988 0.24999988 0.24999988 0.24999988

decoders.0.decoder_net.3.running_var f4 [32]
000000 0e bf aa 3d 5e ba 6f 3d 1c 02 8c 3d 36 b8 80 3d
       0.08337222 0.058527343 0.0683634 0.062851354
000010 2f 41 7b 3d df 82 82 3d 6f 08 aa 3d 6e cb 41 3d
       0.06134146 0.06372618 0.0830239 0.047313146
000020 7e ee b5 3d 7d 8b 65 3d 83 8f 01 3d 5e 26 5e 3d
       0.088833794 0.05604123 0.031631004 0.05423581
000030 31 83 5b 3d ab 79 53 3d 7c a9 65 3d 3a 8b a0 3d
       0.05359191 0.051629703 0.056069836 0.07839055
000040 de d6 a7 3d 6d 1d 63 3d 41 45 96 3d 89 9e 4a 3d
       0.081952795 0.055447984 0.07337428 0.049467597
000050 42 66 90 3d 27 df 4b 3d d5 16 95 3d 59 7b 81 3d
       0.07050754 0.04977336 0.072797455 0.06322355
000060 86 95 69 3d f4 77 65 3d a3 46 21 3d 4f 30 a8 3d
       0.057027362 0.0560226 0.039374005 0.08212339
000070 8e fb 7b 3d 54 01 94 3d 08 15 9d 3d 94 90 43 3d
       0.061519198 0.07226816 0.07670027 0.047745302

decoders.0.decoder_net.4.weight f4 [32, 32, 3, 3]
000000 06 c9 59 3c 32 04 a6 3c 65 ab 8e bc c8 30 18 3d
       0.013292557 0.020265672 -0.017415712 0.037155896
000010 99 cb 10 3c 70 7d 7d bd 78 68 cc 3d a2 75 87 bd
       0.008837604 -0.061887205 0.09980863 -0.066142336
000020 c2 45 c8 3d a8 75 2e bd 3f 6b af ba ca 77 c3 bc
       0.0977893 -0.042592674 -0.0013383402 -0.02386083
000030 35 3f 8c 3b 1c 9a 21 3e 72 cc c9 bd aa e1 a1 3d
       0.004279996 0.15781444 -0.09853448 0.0790437
000040 4d a8 87 3b 9e 94 00 3d e2 8d 64 3c 8f bb c3 3c
       0.004139936 0.031391732 0.013949843 0.023893146
000050 e5 34 18 bd 04 0f 90 3d 9b 22 0e bc cf bd be bb
       -0.03715982 0.07034114 -0.008675243 -0.005820967
000060 3c f0 23 bd 33 0a 9e bc 14 76 e5 3c 61 26 ca ba
       -0.040024027 -0.019291973 0.028010406 -0.0015422815
000070 74 7a 03 bc dd 21 b2 bc 32 85 20 3d 38 92 1b 3d
       -0.008024801 -0.021744663 0.039189525 0.037981242
000080 3e 82 84 3c 08 14 2d 3d b9 c5 3d 3d 43 0d 30 bd
       0.016175386 0.04225543 0.04633114 -0.042981397
000090 63 b6 ed 3c ba 1d b4 3c a1 a6 85 3d 3b 54 d5 bc
       0.029017633 0.021986831 0.065259226 -0.02604114
0000a0 3e 48 b0 3c 78 2c e3 bd 0f dc e4 3c e1 55 01 bd
       0.021518823 -0.11092466 0.027936963 -0.03157604
0000b0 28 7f 3a bd ef 1b 57 bd 8f 5d 6f bd 2f 9a 14 3d
       -0.045531422 -0.052516874 -0.058438834 0.036279853
0000c0 04 cf 0b bd 20 9c 06 3c 88 8d b9 bb 9d 86 6c 3c
       -0.034132972 0.008215934 -0.005662624 0.014436391
0000d0 93 5a 1a 3b 44 06 99 3b 7f 5a 82 3d 5c aa 58 3c
       0.0023552522 0.0046699364 0.06364917 0.013224211
0000e0 08 bf a3 bd 74 2e c7 bd a1 22 22 3c 81 37 4f bd
       -0.07995421 -0.09725657 0.0098959515 -0.050590042
0000f0 3a ae fc 3b 6b 6a 57 bd 3f 56 01 3e 67 68 b2 bd
       0.007711199 -0.052591722 0.12630557 -0.087113194
000100 b4 5c 76 bb 12 9e 7f 3d 2a 3f 21 bc 8d 28 04 bd
       -0.0037591876 0.062406607 -0.00984172 -0.032265235
000110 0c f8 99 bc ab b7 0f bc 6c 5c c3 3b 43 5f 7d 3d
       -0.018795036 -0.008771817 0.0059619453 0.061858427
000120 97 d3 d2 3b 10 ff 83 3d 92 dc 40 3c 68 dd 1e be
       0.006433915 0.06445134 0.011771338 -0.15514147
000130 b8 14 9e bd 4a 07 15 3d 7b b1 c9 bc 25 37 a1 bc
       -0.077187955 0.036383905 -0.024620762 -0.019679615
000140 5a 2e 62 3c c2 93 d4 bd ab eb 8f 3c 10 6f d5 3d
       0.013804996 -0.10379745 0.01756843 0.10421574
000150 27 8d 16 3d 98 cc 84 3d 1c 35 95 3d 94 ba 1d 3c
       0.036755707 0.06484336 0.072855204 0.009627003
000160 2f d7 56 3d 72 46 ab bd 11 0b d2 3c 04 2c 80 bd
       0.05245131 -0.08363046 0.025640042 -0.06258395
000170 5e 7a 50 bc 83 33 ea bb ec b9 56 3d dc db a0 bd
       -0.012724487 -0.007147254 0.052423403 -0.07854435
000180 e3 35 81 bb fa 2b b3 bc 7b 1a a6 3b d8 e1 85 bd
       -0.0039431914 -0.021871556 0.0050690747 -0.06537217
000190 7b fa dc 3c 3c 02 ae 3d 36 a0 48 bd 0d 00 ac bd
       0.026974907 0.0849652 -0.048980914 -0.08398447
0001a0 cf cc ca bc cc fb 09 ba 5d 40 32 ba 10 7f 90 bc
       -0.024755863 -0.0005263656 -0.0006799752 -0.017638713
0001b0 2a e9 89 3d 82 a9 91 3d e1 12 e0 3d 04 aa c7 3a
       0.06733926 0.07112409 0.10941101 0.0015233164
0001c0 33 d0 03 3c a2 db 0a 3d 1e c9 4c 3d 22 dc 3d 3d
       0.008045244 0.033900864 0.049996488 0.046352513
0001d0 c5 68 6e 3d 3b fc 50 bd 0a 12 27 bd ca 6a 78 bd
       0.058205385 -0.051021796 -0.040788688 -0.060648717
0001e0 17 0c 3a 3d 03 f0 28 bc d4 fd 9a bd 40 93 0a 3d
       0.045421686 -0.0103111295 -0.07567945 0.033831835
0001f0 02 34 ac bc be 1f 14 bc 68 c6 0e bd f5 08 bc 3b
       -0.021020893 -0.009040771 -0.034857184 0.0057383724
000200 36 76 cd bd d1 fb 0c 3e 7d c7 0d 3d be c7 bd bd
       -0.100323126 0.13767935 0.034614075 -0.092666134
000210 22 b0 0c 3c 57 fb 8e 3c 40 b6 3a 3d d2 2f 85 bd
       0.008586915 0.017453833 0.045583963 -0.065032616
000220 cb be db bd 82 41 fa 3c 3b d4 37 bd 70 2a 4a 3c
       -0.1072975 0.030548815 -0.044880133 0.012339219
000230 11 0d c3 bd f5 2d 72 3d fd 2d 72 bd d8 ca d6 3c
       -0.095239766 0.05912586 -0.05912589 0.02621977
000240 9b 64 36 bd 53 75 4a bd 56 3d eb 3c bd ca d1 bd
       -0.04452954 -0.049428295 0.02871577 -0.102437474
000250 2c 68 5c 3c d9 ac 8e 3c e3 42 15 bd 42 ea be 3c
       0.013452571 0.017416405 -0.03644074 0.023305062
000260 34 1c d6 bc 70 5a 5d 3c 04 27 36 bd 7b c5 54 3d
       -0.026136495 0.0135103315 -0.044470802 0.051946145
000270 be 7b 20 3d 5f 31 5e 3c 9d 06 a1 3c 85 69 10 bc
       0.03918051 0.013561576 0.019656474 -0.00881422
000280 93 e7 f8 3b 2f c8 87 3b 6e 7c 0b 3d 97 c5 e3 3c
       0.007595965 0.004143737 0.034054212 0.02780418
000290 84 db 2e bc 71 a1 a9 bc c3 1d ff 3c 66 49 84 3d
       -0.010672454 -0.020706864 0.031142121 0.06459312
0002a0 97 09 94 bb 28 7e 96 bd fe a3 f8 3c ad 24 30 3d
       -0.0045177448 -0.07348281 0.030351635 0.043003727
0002b0 6e e4 59 bd be b9 85 3d 7b f1 81 3d 5b 49 8e bc
       -0.053196363 0.06529568 0.06344887 -0.017368963
0002c0 2f 17 b6 3d af 77 62 bc 55 9e 2d bd 22 0f 00 3d
       0.08891141 -0.01382248 -0.042387325 0.03126443
0002d0 80 c9 af 3d ae ef 99 3c f2 30 8d bd e4 07 98 3d
       0.08583355 0.018791046 -0.06894101 0.0742338
0002e0 24 0f 53 3e 40 7b 50 bd 84 a4 c7 bd 41 2e ac 3b
       0.20611244 -0.05089879 -0.09748176 0.0052545373
0002f0 0e d0 31 3b f2 14 29 bd d0 97 a9 ba b9 fb 98 bd
       0.0027132067 -0.04127974 -0.001293892 -0.07469887
000300 f4 24 b3 bb 8b 5d 17 3d 06 39 8b bd 9a 94 58 bd
       -0.0054670516 0.036954444 -0.06797986 -0.052876092
000310 42 82 4e 3d 83 c8 97 bd 20 b5 63 3c e9 6d 17 bc
       0.050417192 -0.074112915 0.013898164 -0.009242513
000320 95 00 c5 3c 54 5a 3c bd 2d 20 98 bd 22 af 88 bd
       0.02404813 -0.04598458 -0.07428012 -0.06674029
000330 36 98 f4 bc 41 11 21 3d 63 53 0c bd 7a 21 5f 3d
       -0.029857736 0.039323095 -0.03425921 0.054475285
000340 ae 31 b4 bd b3 2c 43 bc 21 ee 25 bd ef aa a4 bd
       -0.08798538 -0.011912513 -0.0405103 -0.080404155
000350 0a a6 93 bd cb a7 3d bc 58 9c cd 3c 08 64 3c bd
       -0.07209404 -0.0115756495 0.025098965 -0.045993835
000360 0e 9c 8c bb 56 72 14 bd 0b a0 4d bc eb 64 0d 3d
       -0.004291064 -0.03624185 -0.012550364 0.03452007
000370 2c a4 83 3c 51 6f 16 be 32 e2 48 3c 83 fd 29 bd
       0.016069494 -0.14690901 0.01226096 -0.041501533
000380 5a c3 50 bc 42 ad 43 3d ca ef 53 bc 33 c8 07 3d
       -0.012741888 0.047772653 -0.012935588 0.03314991
000390 be 44 b3 3d 1c 02 35 bc fc 85 01 bd 50 b1 a5 bd
       0.08753346 -0.011047866 -0.031621918 -0.0809046
0003a0 ec e3 64 3d 41 6a a8 bd c8 71 ad bc b3 e9 3e 3c
       0.055881426 -0.08223391 -0.02117242 0.011652398
0003b0 d7 1b f7 bc 49 c2 1e 3d 43 1a 4e 3d c5 3b 5f bd
       -0.030164642 0.038759504 0.050318014 -0.05450036
0003c0 70 15 fd 3c 04 50 52 3c a3 2b 55 3c 74 8d ae 3b
       0.030894011 0.01283646 0.013010892 0.005326921
0003d0 26 bd 4e 3c 06 65 4b 3d d1 db d5 bd 62 9b da 3c
       0.012618339 0.04965689 -0.10442317 0.02668542
0003e0 49 0a 86 3c c8 c9 72 3d bc b8 4a 3c f6 7f 72 3d
       0.016362326 0.059274465 0.012373146 0.059204064
0003f0 c3 b2 15 bc 98 33 4b bc b3 e5 fc bc 8e 89 d6 3c
       -0.009136858 -0.012402438 -0.030871248 0.026188638

decoders.0.decoder_net.4.bias f4 [32]
000000 b5 0f 9a 3d e3 46 12 be 46 f9 12 3c 21 50 94 3d
       0.07522527 -0.14284854 0.008970564 0.07241846
000010 69 5c 97 bd 41 28 7d 3d f7 86 69 3c 4e 6d 97 3d
       -0.07390673 0.061805967 0.0142533695 0.07393895
000020 4e 3c c4 3c 02 e0 68 bd ed cc ca 3d 44 66 91 bd
       0.023954537 -0.056854255 0.09902368 -0.07099584
000030 91 d1 f3 bd ef c0 21 3d 82 8e 0b 3d fa 10 e3 bc
       -0.11905206 0.039490636 0.034071453 -0.027718056
000040 42 31 44 bd 1f 98 ed 3c 64 9b b1 3c e3 7b d5 bc
       -0.04789854 0.029003201 0.021680541 -0.02606005
000050 38 90 1b bc 28 d0 65 3d 38 d9 b4 ba 62 0d a6 bd
       -0.009494834 0.056106716 -0.0013797646 -0.08108021
000060 c5 18 53 bd 37 5a 1a bd 2e e8 80 bc 15 03 c0 3c
       -0.051537294 -0.03768369 -0.015735712 0.02343897
000070 dc 79 8a 3d 3e 94 05 bc ab d8 1e 3c f0 cb b3 bc
       0.06761524 -0.0081530195 0.009695212 -0.02194783

decoders.0.decoder_net.6.weight f4 [32]
000000 4c d9 64 3f c3 d5 79 3f 4d 5f 5d 3f ab a4 75 3f
       0.8939407 0.975918 0.8647354 0.9595439
000010 7b 02 72 3f 8e 2d 6d 3f e3 14 6d 3f 8f 3d 68 3f
       0.94535035 0.92647636 0.92609996 0.9071893
000020 6f 9a 5b 3f 38 fa 68 3f 00 75 69 3f ee 7b 65 3f
       0.8578252 0.91006804 0.9119415 0.89642227
000030 c7 57 58 3f 56 d6 66 3f 9b 77 74 3f 9d 5c 60 3f
       0.8450894 0.901708 0.95495003 0.87641317
000040 44 b6 80 3f de c8 6b 3f 8e f7 6d 3f e0 86 77 3f
       1.0055623 0.92103374 0.92955863 0.9669018
000050 12 00 76 3f e9 4c 6e 3f ac 06 5e 3f 0d bb 6f 3f
       0.9609386 0.93086106 0.8672893 0.9364479
000060 db e2 7b 3f 90 18 7f 3f 72 75 75 3f 6b eb 69 3f
       0.9839303 0.99646854 0.9588233 0.91374844
000070 32 f3 6d 3f cd 6d 7e 3f 00 1d 6a 3f 90 b8 74 3f
       0.9294921 0.9938629 0.914505 0.9559412

decoders.0.decoder_net.6.bias f4 [32]
000000 90 47 bb bd 75 7c 93 bc 6f 9d 0a bd 60 3f d0 3c
       -0.09144509 -0.018003682 -0.033841547 0.025420845
000010 5f f7 45 bd b8 a4 9b bd 74 79 d6 bd 13 b0 2d 3e
       -0.048331615 -0.07599777 -0.10472384 0.16961698
000020 d1 70 8b bc 69 d1 19 3e 07 91 2d 3d 9a 11 dd bd
       -0.017021568 0.1502129 0.042374637 -0.10794373
000030 d6 00 78 3d 44 83 1c bc a2 a7 83 bd fb 5c a0 3c
       0.060547672 -0.009552781 -0.06428458 0.019575587
000040 d2 f7 be 3d 5c 0e 14 bd 4f e5 bd 3c 45 4d e6 3c
       0.09324612 -0.036146507 0.023180632 0.028113017
000050 f3 92 ed bc d6 7e 77 3d 78 f6 85 bd 6c c8 f1 3c
       -0.029000735 0.060423695 -0.06541151 0.029514514
000060 76 a0 d6 bb f3 6d 6b ba e2 0c b8 bd 7f e5 89 3d
       -0.00654989 -0.0008980922 -0.08986832 0.06733226
000070 27 98 09 be 55 86 07 3d 98 1e e1 bd 54 dc 09 bd
       -0.13436948 0.033087093 -0.109921634 -0.033657387

decoders.0.decoder_net.6.running_mean f4 [32]
000000 1e 49 12 3e 1e 49 12 3e 1e 49 12 3e 1e 49 12 3e
       0.14285704 0.14285704 0.14285704 0.14285704
000010 1e 49 12 3e 1e 49 12 3e 1e 49 12 3e 1e 49 12 3e
       0.14285704 0.14285704 0.14285704 0.14285704
000020 1e 49 12 3e 1e 49 12 3e 1e 49 12 3e 1e 49 12 3e
       0.14285704 0.14285704 0.14285704 0.14285704
000030 1e 49 12 3e 1e 49 12 3e 1e 49 12 3e 1e 49 12 3e
       0.14285704 0.14285704 0.14285704 0.14285704
000040 1e 49 12 3e 1e 49 12 3e 1e 49 12 3e 1e 49 12 3e
       0.14285704 0.14285704 0.14285704 0.14285704
000050 1e 49 12 3e 1e 49 12 3e 1e 49 12 3e 1e 49 12 3e
       0.14285704 0.14285704 0.14285704 0.14285704
000060 1e 49 12 3e 1e 49 12 3e 1e 49 12 3e 1e 49 12 3e
       0.14285704 0.14285704 0.14285704 0.14285704
000070 1e 49 12 3e 1e 49 12 3e 1e 49 12 3e 1e 49 12 3e
       0.14285704 0.14285704 0.14285704 0.14285704

decoders.0.decoder_net.6.running_var f4 [32]
000000 e4 cc 90 3b cf 06 5a 3b 8d 25 92 3b 67 9f b1 3b
       0.004418956 0.0033268218 0.004460043 0.0054206136
000010 f7 30 98 3b b4 ba 91 3b 29 1f 9e 3b d9 74 6a 3b
       0.004644509 0.0044473056 0.004825492 0.0035775213
000020 84 97 8c 3b 6b 93 ec 3b f9 8b 8f 3b be 34 3f 3b
       0.004290523 0.007219722 0.0043806997 0.0029175724
000030 85 f1 99 3b 3b 64 ac 3b a6 6d 66 3b b9 e0 98 3b
       0.004697981 0.005260972 0.003516057 0.004665461
000040 34 10 13 3c 8d dd 9c 3b ab 11 5a 3b cf 35 be 3b
       0.008976031 0.004787153 0.003327469 0.0058047543
000050 d3 fb ba 3b 3a a6 4a 3b 57 c4 e3 3b ba 18 74 3b
       0.0057062893 0.0030921833 0.006950896 0.0037246183
000060 d5 44 b5 3b 4f cc d2 3b a0 11 f4 3b 70 9a 4a 3b
       0.005531887 0.006433047 0.00744839 0.0030914806
000070 0a 2d b5 3b ba 54 c6 3b 57 ff 72 3b 7f c2 af 3b
       0.0055290507 0.0060525807 0.0037078464 0.005363762

decoders.0.decoder_net.7.weight f4 [32, 16, 3, 3]
000000 11 40 61 bb d2 a1 56 3d 43 91 0c 3d be 63 25 bd
       -0.0034370462 0.052400418 0.03431822 -0.040378325
000010 90 78 7f bd 55 3b f3 3c 0c 34 88 bc cf e3 74 bc
       -0.062370837 0.029691378 -0.01662638 -0.014946892
000020 ae e3 6d 3d 59 49 da bc 13 bc b8 bb a4 f5 2d bd
       0.05807846 -0.026646303 -0.0056376546 -0.04247059
000030 0d 91 8b 3c f1 b3 93 3c fd 1c 13 3c 2c 2c cf bb
       0.017036939 0.018030139 0.008979079 -0.0063224044
000040 b1 d8 7f 3d fd 4d e8 3c 10 b2 c2 3d db 3c 9d bd
       0.062462512 0.0283575 0.09506619 -0.07677623
000050 a9 64 1c 3d 7e 7f 51 bd 06 2f fa 3c c9 93 98 bb
       0.038181935 -0.051146977 0.03054 -0.0046562892
000060 4c 7f 2c 3d a4 a5 4b bc cf d2 a3 3d 3a 5e 88 bc
       0.042113587 -0.0124296285 0.07999193 -0.016646493
000070 30 f1 5d 3d a2 91 32 3c 07 15 75 bc 53 ed e0 3d
       0.054185092 0.010898979 -0.014958627 0.10982766
000080 9a 02 c0 3b 53 26 c4 ba ff fc c1 bb 1b c2 c9 bc
       0.005859685 -0.0014965035 -0.005920052 -0.02462869
000090 69 db b3 3d 48 ee a8 3d dd 00 49 3d 09 e0 74 3d
       0.087820835 0.082485735 0.04907309 0.05978397
0000a0 57 76 d4 bb 96 6a 62 bd 83 1c 60 3d a7 9b 85 3d
       -0.006483834 -0.05527743 0.05471469 0.06523829
0000b0 28 6a 64 3c d9 7d b6 bc 82 9d 2f bd e9 0d 2d bd
       0.013941325 -0.022276806 -0.04287482 -0.042249594
0000c0 a1 e8 23 3d 90 ab 8a 3d af 77 06 3d 33 7e 07 bd
       0.040016774 0.06771004 0.032828983 -0.033079337
0000d0 4f 93 3e 3d 91 f5 81 bd a0 a9 2f 3c 99 8b bf 3c
       0.046527203 -0.06345666 0.010721594 0.023381995
0000e0 7d 0c 17 bd 38 77 98 bd d8 6b 7a 3d 2f 75 52 bd
       -0.036877144 -0.07444614 0.061138004 -0.051381286
0000f0 22 83 99 bd 9a 8a 54 bd 4f 10 bf 3c 5c 3f 98 3d
       -0.07495715 -0.051889993 0.023323206 0.0743396
000100 f8 4a 64 bd 0a 7c 29 bd 24 7b 8d 3c b3 6a 29 3b
       -0.05573556 -0.04137806 0.017270632 0.0025850951
000110 75 a8 5a 3d c8 d5 89 3d 27 b8 ab 3c 3b 3f 3b 3c
       0.05338331 0.06730229 0.020961834 0.01142865
000120 40 99 a1 bc 14 7e 94 bd 2b aa cc bc b0 bf 4e bb
       -0.019726396 -0.0725061 -0.024983486 -0.003154736
000130 98 f0 ac bd f9 7f be bc 60 14 a1 3d a0 5f 59 3d
       -0.08444327 -0.023254381 0.07865214 0.05306971
000140 f0 46 2f bd 41 bb 27 bd b9 53 b3 bd f5 75 31 3d
       -0.04279226 -0.040950064 -0.08756203 0.043325383
000150 14 89 e5 3b e3 d6 f4 bd 05 5c a6 bc 25 64 76 3d
       0.0070048664 -0.11955049 -0.02030755 0.0601541
000160 4d a0 0d bd c3 4d a0 ba be 38 9b 3d da 9e 8e bc
       -0.034576703 -0.0012230206 0.07579182 -0.01740973
000170 0a c5 a1 3b 66 cb ef 3c c0 7b 37 3d e1 71 a7 bb
       0.004936819 0.029271793 0.04479575 -0.005110011
000180 a0 f9 eb 3c 54 ce 8b 3d 59 34 b9 3b 2d 1c 1e 3c
       0.028805554 0.06826463 0.0056519923 0.009650272
000190 ca 79 29 bd 72 d6 c2 bc 93 4f 5e bc 8c f7 a5 3d
       -0.041375913 -0.023783896 -0.013568777 0.081038564
0001a0 82 24 60 3d 73 6a 36 bd 07 14 ca 3d 72 9c 3a bd
       0.054722317 -0.04453511 0.09867101 -0.045559354
0001b0 a9 96 58 3d 5d f5 4c 3c 56 b3 25 3c 7e a0 5f bd
       0.052878056 0.012509671 0.010113558 -0.054596417
0001c0 2a a6 4d 3d 92 f6 91 3d 27 be 9f 3c fe a9 fc 3d
       0.050207295 0.07127108 0.019499851 0.12337111
0001d0 d4 64 53 bd 91 d5 42 3c e3 2e d9 3d 5e b9 ec 3c
       -0.05160983 0.0118917385 0.10604646 0.028896984
0001e0 b4 2c 93 bd 4c a4 8e 3d 6d b8 41 bc 78 83 88 3d
       -0.07186261 0.06964931 -0.011823756 0.06665701
0001f0 72 35 33 bc 1d 7e 1e bb 23 c8 fd bc 1b b8 21 3b
       -0.010938035 -0.0024184056 -0.030979222 0.0024676386
000200 8d f7 92 3d ec 80 17 3d c5 74 a8 3d 3a 1b fe ba
       0.07176123 0.036988184 0.08225397 -0.0019386776
000210 85 04 4c bd 17 f3 9e 3d cd 03 be 3c 55 a1 ef bb
       -0.049808998 0.077612095 0.023195172 -0.0073129334
000220 1e 32 96 3d c3 c9 53 bd 2e ae 66 bd dc ac 71 bd
       0.07333778 -0.051706087 -0.056318454 -0.059002742
000230 9f b1 47 3d 33 08 a1 bb cd 53 8f bc fa 51 88 3a
       0.048753377 -0.0049143075 -0.017496014 0.0010400407
000240 dd dc 97 3c 35 5e 43 bd 96 c4 d2 3c 7f 86 4f bd
       0.018537933 -0.047697265 0.025728505 -0.050665375
000250 ee 64 6d 3d 5c 66 3f bb 19 88 95 3d e9 22 27 3d
       0.057957582 -0.0029205298 0.07301349 0.040804777
000260 d3 a8 07 bd 47 31 41 3c 38 96 64 3d aa 4d 8e 3d
       -0.033119988 0.011791534 0.055807322 0.06948407
000270 ed e6 47 3c 74 01 76 3c ff bb 33 3d e9 11 56 3d
       0.012201053 0.015014995 0.04388046 0.052263174
000280 e2 a4 b3 3a f3 1a df 3c 0f 9f 85 3c ad 8c 53 bd
       0.0013705755 0.02723453 0.016311197 -0.05164783
000290 b0 62 f8 bc 43 31 77 3c d2 e5 8f 3d 47 f6 6a bd
       -0.030320495 0.0150874285 0.070262566 -0.057363775
0002a0 be d0 62 3d c8 e4 a1 bb 40 3f 2b bb 19 20 d4 3d
       0.055374853 -0.004940603 -0.002613023 0.10357685
0002b0 e8 61 1e 3d 31 62 cb 3c 9b 91 6f 3d dc 32 59 bb
       0.03866759 0.024827095 0.05848847 -0.0033141887
0002c0 f4 ba f9 3d 4c d8 6d bd 53 0c c1 3c 77 73 9d 3c
       0.121938616 -0.058067605 0.023565447 0.019220097
0002d0 85 31 63 3c 22 b5 17 bd c6 94 2d bc 22 82 0c 3d
       0.013866787 -0.037037976 -0.010594552 0.03430379
0002e0 c7 1d a5 ba d7 aa 2f 3d 68 77 44 3d ab 5c a1 3d
       -0.0012597375 0.042887535 0.047965437 0.07879003
0002f0 23 b1 b7 bc 56 ab d6 3c 03 98 ad 3d fa 7a 6e 3d
       -0.022423333 0.026204746 0.084762596 0.05822275
000300 e8 af df bc 65 ee f7 3c b2 cb 60 3d 82 7a 65 bd
       -0.027305558 0.030265043 0.05488176 -0.056025036
000310 6d b7 35 3d 13 11 87 3c 1c b1 42 3d de 74 97 3d
       0.04436438 0.016487634 0.047532186 0.073953375
000320 36 c8 27 3d c7 89 0a be 00 66 30 be 49 70 e3 bd
       0.04096242 -0.1352912 -0.1722641 -0.11105401
000330 e6 20 5d bd 2f 21 78 bd f4 44 96 3b f9 53 73 3d
       -0.053986453 -0.06057852 0.0045858566 0.059406254
000340 74 9d 07 3c ea f2 43 bd 4e 04 b5 3d 03 14 0e 3d
       0.008277286 -0.047839083 0.08838712 0.034687053
000350 e6 50 4d 3c 70 a8 46 bc a8 d8 3a 3b 6f 3e a3 bc
       0.012531495 -0.01212512 0.0028510485 -0.019927232
000360 bd 61 03 3c 83 69 dc bd 6e a3 01 3c 83 60 6d bd
       0.008018908 -0.10762312 0.0079125 -0.05795337
000370 1b 43 23 3d fc 90 25 bd ee 54 43 bd 32 47 36 3d
       0.03985892 -0.04042147 -0.047688417 0.04450149
000380 7f 63 47 3d f4 46 5b 3c 4c 4b 18 be 70 7e 86 3b
       0.04867887 0.013383616 -0.14872473 0.004104428
000390 36 a8 13 3c 5c 87 3d bd a0 20 9d bc 8e 87 b6 bb
       0.009012273 -0.046271667 -0.019180596 -0.0055703586
0003a0 eb d3 90 3d 74 2b 15 bd 5b 02 4a 3c 92 ec 8e bc
       0.0707167 -0.036418393 0.012329663 -0.01744679
0003b0 f6 e4 28 bc 71 7a 82 bc f1 e8 40 3d 66 9c e3 3c
       -0.010308495 -0.015927525 0.04709715 0.027784538
0003c0 52 e3 83 3d c7 1a cd bd a1 48 11 3d 10 81 a1 3b
       0.06439842 -0.10014873 0.035469655 0.0049287155
0003d0 4e 39 bd 3d 95 ba 54 bd 5c f8 d6 3c 82 f7 20 3e
       0.092394456 -0.05193575 0.026241474 0.15719417
0003e0 28 97 b5 3d 96 f3 2b 3d 80 75 02 bd aa a3 26 3c
       0.088667214 0.04198035 -0.031850338 0.0101708565
0003f0 58 e0 08 3d c9 df 82 bd d8 5b 36 3d c3 0f 64 3b
       0.033417076 -0.0639034 0.044521183 0.0034799434

decoders.0.decoder_net.7.bias f4 [16]
000000 6d 1c ed 3c d4 12 a4 3d 32 82 33 bd 37 8a 83 bc
       0.028944219 0.08011404 -0.043825336 -0.016057117
000010 5f 9a 0f 3e 4d 16 29 3d 65 a4 23 3c 9d 73 72 bd
       0.14023732 0.041281033 0.009987925 -0.05919229
000020 a3 22 33 3d 6f 77 81 3d c5 f8 58 bd 74 e9 a5 3d
       0.043734204 0.06321608 -0.05297162 0.08101168
000030 91 67 ff bd 7a 5a 96 3d bf 8e ee 3c 98 3f b3 3c
       -0.124709256 0.07341476 0.029120801 0.02188091

decoders.0.decoder_net.9.weight f4 [16]
000000 7e bb 6a 3f d9 db 62 3f d1 2c 6d 3f 75 70 69 3f
       0.9169234 0.8861671 0.9264651 0.9118722
000010 dc 37 6a 3f 9e 4d 6b 3f 02 82 8c 3f 49 e5 65 3f
       0.91491485 0.9191531 1.0977175 0.89802986
000020 4d 70 6a 3f fd 47 70 3f a0 aa 5e 3f 4a ad 6c 3f
       0.9157761 0.93859845 0.86979103 0.9245192
000030 ca b9 6a 3f e0 c7 74 3f 5f 27 66 3f 3f a9 67 3f
       0.9168974 0.95617485 0.89903826 0.90492624

decoders.0.decoder_net.9.bias f4 [16]
000000 cc bd 4c be b6 ac a8 bc 0d fe d7 bc 89 f5 eb bd
       -0.19994277 -0.020590167 -0.026366258 -0.115214415
000010 da 60 3d 3e 44 49 cf bd 51 f1 a3 3c 3d 8a b2 bd
       0.18493977 -0.10121396 0.02001253 -0.08717773
000020 8f 97 92 be 79 2d d5 bc 40 61 10 be 7f 47 c0 bd
       -0.28631255 -0.02602266 -0.14099598 -0.09388637
000030 0d 2f 2a 3e 61 6e b4 bc 86 1e 13 be f1 8f 17 be
       0.16619511 -0.022025289 -0.14367113 -0.14801003

decoders.0.decoder_net.9.running_mean f4 [16]
000000 1e 49 92 3d 1e 49 92 3d 1e 49 92 3d 1e 49 92 3d
       0.07142852 0.07142852 0.07142852 0.07142852
000010 1e 49 92 3d 1e 49 92 3d 1e 49 92 3d 1e 49 92 3d
       0.07142852 0.07142852 0.07142852 0.07142852
000020 1e 49 92 3d 1e 49 92 3d 1e 49 92 3d 1e 49 92 3d
       0.07142852 0.07142852 0.07142852 0.07142852
000030 1e 49 92 3d 1e 49 92 3d 1e 49 92 3d 1e 49 92 3d
       0.07142852 0.07142852 0.07142852 0.07142852

decoders.0.decoder_net.9.running_var f4 [16]
000000 58 49 01 3b 3e 6f ae 3a c7 4a 1d 3b 8a 41 10 3b
       0.0019727554 0.0013308299 0.002400087 0.002201172
000010 83 73 38 3b 8d 04 c6 3a 44 f7 9e 3b 1a 68 0a 3b
       0.0028145022 0.0015107557 0.0048512537 0.0021119178
000020 6e 69 32 3b b9 aa 38 3b f7 9c 96 3a 6b 7d 16 3b
       0.0027223486 0.002817793 0.0011490871 0.0022962939
000030 8d c9 68 3b d6 87 7a 3b 5b 7d e5 3a ba dd 22 3b
       0.0035520524 0.0038227937 0.0017508672 0.0024851398

decoders.0.decoder_net.10.weight f4 [16, 1, 3, 3]
000000 78 37 68 be e3 65 2e bb 4d 00 80 3e db 69 6d bd
       -0.2267741 -0.0026611022 0.2500023 -0.05796228
000010 16 37 41 3e 73 7a 19 3e 01 dc 29 be 5e d1 08 3e
       0.1886867 0.14988117 -0.16587831 0.13361117
000020 d0 ee 4b bd bf 6a 1a 3d 1c f7 51 3e 51 2a 42 bc
       -0.049788296 0.037699457 0.20504421 -0.011850909
000030 37 09 af 3c cb c7 12 3e 89 8a e8 3a 0f 6f c4 bd
       0.021366699 0.14334027 0.0017741482 -0.09591495
000040 7c af 4b bd 8c f2 2b 3e da 47 59 3e a2 82 43 3e
       -0.0497279 0.16791743 0.21218815 0.19092801
000050 09 ab 81 bd 6b 86 27 3e 78 99 4a 3e cf c4 ca 3d
       -0.063314505 0.1635987 0.19785106 0.099008195
000060 fa f9 52 3e 52 b6 ef bd 48 d4 db 3d 85 c9 83 bc
       0.20603171 -0.11704697 0.10733849 -0.016087303
000070 6e 93 34 3e 17 00 84 3d 43 92 3e be 58 89 0b 3e
       0.17634365 0.0644533 -0.18610482 0.13626611
000080 20 cf 02 3e bc 45 2c ba 9b 36 f8 bc f2 78 51 be
       0.12774324 -0.00065716705 -0.030299475 -0.20456293
000090 80 e6 16 be da c8 78 3e 68 94 83 be 41 b5 0b 3c
       -0.14736366 0.24295369 -0.25699162 0.008527101
0000a0 6f ca 2f 3c 1c d5 d7 3b 3a 87 e3 bd 3b c1 43 bd
       0.010729416 0.006586684 -0.11109777 -0.0477917
0000b0 fb 30 17 be b8 0d cd 3d 5f 02 67 3d 96 5e 0e 3e
       -0.14764778 0.10012382 0.056398746 0.13903269
0000c0 02 e9 a6 3d ed d3 20 3e 73 15 03 3e 71 33 e0 bd
       0.081499115 0.15705843 0.12801151 -0.10947312
0000d0 0b a2 da bd 2b 96 30 3d 64 10 7e be e7 b5 eb be
       -0.106754385 0.04311196 -0.2481094 -0.46037218
0000e0 11 e6 a2 be a1 82 2d 3c 88 38 0e 3d 5f 4f 7d 3c
       -0.31816152 0.010590226 0.03472188 0.015460818
0000f0 4b 76 05 3d 58 c0 aa bc d6 19 3f bd 98 31 31 be
       0.032583516 -0.02084367 -0.0466555 -0.17304075
000100 e1 27 35 be 88 61 ce 3c 8b 53 56 be 18 d9 07 be
       -0.17690994 0.02519299 -0.20930307 -0.13266408
000110 05 41 92 3c a0 0b e8 bc 46 d8 46 be 8c f3 a4 bd
       0.01785327 -0.028325856 -0.1941844 -0.080542654
000120 84 9c 13 be 60 40 4b 3e 53 1e 3e be 38 67 9d be
       -0.14415175 0.19848776 -0.18566255 -0.30742812
000130 de c6 24 bd 74 2b 91 3d 84 6f 00 3e da 96 f9 3d
       -0.040228717 0.07088366 0.1254254 0.12186976
000140 5b 01 bf 3d 66 b6 1a 3e a5 14 16 be 01 9a fb 3d
       0.093264304 0.15108642 -0.14656313 0.12285233
000150 45 da 62 3e 8e 24 35 3d 44 be a5 3c 5c 63 85 3c
       0.22153576 0.044224314 0.020232327 0.01628273
000160 bc f5 6b 3e 31 87 6c 3d 48 1b 17 3e 52 2b 34 bd
       0.23042959 0.057746116 0.147565 -0.043986626
000170 7e 43 38 3e 46 8b 8c bd 77 4a 0b be c1 ef 5e bd
       0.17994496 -0.06862502 -0.13602625 -0.054427866
000180 31 59 18 3d 8c 8a 53 bc 19 c4 ab bc 66 64 59 3d
       0.037194435 -0.01291145 -0.02096753 0.053074263
000190 24 9b 09 3e 87 55 2a 3d c6 a9 da 3d fe 93 dc 3d
       0.13438088 0.04158547 0.10676913 0.10770415
0001a0 77 c5 23 3e 30 0d 03 3b a0 b7 e9 3d 63 19 4a 3e
       0.15993296 0.0019996874 0.11411977 0.19736247
0001b0 20 60 32 3c 93 7a 31 be 25 c8 f2 3d 6c 5d bc bc
       0.010887176 -0.17331915 0.11854581 -0.022993766
0001c0 7e cf 99 bd 00 28 7a be 05 3d 30 3e 7b 9a 46 bd
       -0.07510279 -0.24429321 0.17210777 -0.048487168
0001d0 3d fc 43 be 7e 60 37 bd f2 62 64 be 23 f3 fd bd
       -0.1913919 -0.044769756 -0.2230337 -0.1239989
0001e0 53 9e 52 3d 73 d5 7e be 7a 6c de bd d3 5a ef bd
       0.05142052 -0.24886112 -0.10860534 -0.11687245
0001f0 98 10 23 be 96 40 22 3e 9c ec 20 bd 31 33 ed bc
       -0.15924299 0.1584495 -0.03928815 -0.028955074
000200 35 54 fb 3d bd 87 67 bd 97 ab 7a b9 0b 8a 13 3e
       0.122719206 -0.056525934 -0.0002390578 0.14408128
000210 d4 64 64 3e e3 bf 51 3e 87 6d 3d be fe f2 16 3e
       0.22304088 0.20483355 -0.18498813 0.14741132
000220 e3 04 c0 3d 80 05 cb 3d fe f6 01 bd 69 99 5a 3d
       0.09375932 0.099131584 -0.03172969 0.05336896
000230 ab 49 56 3e a2 71 b3 3c ca 51 64 3c 02 9b ab bd
       0.2092654 0.02190477 0.013935516 -0.08379175

decoders.1.decoder_net.0.weight f4 [512, 2]
000000 2b 33 3f 38 cc 65 0a bf e3 aa 4b bf 0d 4b 2c 3f
       4.5585602e-05 -0.5406158 -0.7955763 0.6730202
000010 c7 c2 05 3f 45 8d 8d be 9a a6 b8 3e 2c 8f 2b be
       0.5225033 -0.27646843 0.36064607 -0.16753834
000020 83 80 18 bf 41 fb a4 be 9a 29 10 bf aa 2b 5d bf
       -0.59571093 -0.32222942 -0.5631348 -0.8639475
000030 39 d8 a7 3e da 5c 2e 3f 74 8b af 3e 2e b3 da 3e
       0.32782152 0.6811043 0.34286082 0.42714828
000040 a5 8e 78 be 83 a7 a8 3e 62 06 2c bd d0 57 29 3f
       -0.24273165 0.329403 -0.041998275 0.66149616
000050 b3 20 9a be 7a 4e 63 3f 75 54 a0 be f4 79 16 3d
       -0.30103073 0.8879162 -0.31314436 0.036737397
000060 74 8d b7 3d 03 6e fa 3d d6 eb ad be 15 ea 10 be
       0.08962527 0.12228014 -0.3396899 -0.14151795
000070 39 d9 63 bf 3e 73 9e bf 9f db 31 3f a3 21 f1 3c
       -0.8900333 -1.2378919 0.6947574 0.029434985
000080 ad 70 da bd 01 2b 02 3e b0 ce 83 be 68 67 61 3f
       -0.106660224 0.12711717 -0.25743628 0.8804841
000090 3b 81 01 bf 9e f9 06 bf d8 e0 4c be a9 68 58 be
       -0.50587815 -0.52724636 -0.20007646 -0.21133675
0000a0 d3 2e 03 3f fe 47 e9 bd 36 56 dd 3e 86 ec 0c 3f
       0.51243323 -0.113906845 0.43229836 0.55048406
0000b0 eb 3d 8a be 20 9c 25 bf c7 42 08 3e 5f 03 dd be
       -0.27000365 -0.6469135 0.13306724 -0.43166634
0000c0 4f 1d bf 3e 49 cd 7f be 3b 7a d6 be bb c1 46 be
       0.37327048 -0.24980654 -0.4189013 -0.1940984
0000d0 a4 5b 19 3f fa 6d 2e 3f e1 92 27 3e f1 e7 7a 3e
       0.5990546 0.6813656 0.16364624 0.24502541
0000e0 11 91 2c bd e4 4c 3b be 5c 78 d2 3e 26 83 2e 3e
       -0.042130534 -0.1829105 0.41107452 0.17042217
0000f0 24 50 89 3e b5 69 17 bf 66 f9 0e 3f 06 d3 dc 3e
       0.26818955 -0.5914567 0.558493 0.43129748
000100 b1 46 c4 be 16 73 d8 3e 59 e9 1e bf 51 fb 95 3e
       -0.38335183 0.42275304 -0.6207481 0.29293302
000110 d2 27 fb be 30 9b 6c be d3 78 cd 3e 6e 82 11 3f
       -0.49053818 -0.23106074 0.40131244 0.56839645
000120 24 a3 4d be a5 49 71 3e e5 d2 72 3f 60 d3 3c bf
       -0.20081764 0.2356325 0.9485305 -0.7376003
000130 4b 34 06 3d 89 a6 89 3e 80 f9 fa be f9 32 a6 bd
       0.032764714 0.2688487 -0.49018478 -0.08115191
000140 49 e8 81 3e 0b ea 09 bf a0 ef 97 3e 52 74 ad 3e
       0.25372532 -0.53872746 0.29675007 0.33877808
000150 5b 1a 1c 3f da f0 bf be 53 70 7b be 59 54 55 be
       0.60977715 -0.37488443 -0.24554567 -0.20832957
000160 0e 17 e6 3e 16 1b 06 bf 4a 60 95 3e e4 05 fc bd
       0.44939464 -0.5238508 0.29175025 -0.12305811
000170 26 6f e2 3e 14 be 3e be f3 bc b5 be 80 bb 5d bd
       0.44225425 -0.18627197 -0.3549572 -0.054133892
000180 1c 78 46 3e fb ba 5e bf c5 75 c2 be 03 21 c6 3e
       0.19381756 -0.8700406 -0.37980476 0.3869706
000190 db be 57 bf e5 d5 b0 3e b6 3f cc 3e 1a a1 01 bf
       -0.842756 0.3453819 0.39892358 -0.50636446
0001a0 f8 17 fe 3e 61 ba 00 bf ad f7 09 bc 96 54 39 bf
       0.49627662 -0.5028439 -0.008420867 -0.7239469
0001b0 b5 d7 90 be 7e c6 13 3d a5 d8 05 bf 28 13 fe 3e
       -0.2828957 0.03607797 -0.522837 0.4962399
0001c0 c9 15 96 bd 78 f2 a6 bd 6e 28 0b bf a1 a1 1c 3f
       -0.07328374 -0.08151716 -0.54358566 0.61184126
0001d0 e2 1f 3d bd ba 13 0e bf bf cd 35 3e aa b7 aa bd
       -0.046172984 -0.5549885 0.17754267 -0.083358124
0001e0 64 34 e6 3b 8d 7e b1 bb a8 5f ef bb a7 8d 22 bf
       0.0070252884 -0.0054166974 -0.0073051043 -0.63497394
0001f0 d2 21 52 3e 98 a1 a3 be 19 5f 8d be b9 aa 16 3f
       0.20520714 -0.31959224 -0.27611616 0.5885425
000200 1d c5 ab bd ad 9c ad 3c b3 af cb be d5 da e1 be
       -0.08387206 0.021192873 -0.39782485 -0.44112268
000210 5e 8f 85 be 62 df 0d 3e 24 20 15 be 42 1f e7 3e
       -0.26085943 0.13854745 -0.14563042 0.45141035
000220 97 aa 4e 3d 0e 83 91 be cb 6a 2c 3f 97 3f 0e bf
       0.050455656 -0.284203 0.67350453 -0.5556578
000230 fb 0c 17 bf 13 56 95 be ae 1f 2a 3f b8 84 24 bf
       -0.5900418 -0.29167232 0.6645459 -0.6426501
000240 69 6b e0 be d0 5b fe bd d7 dc fc 3e bb 34 d6 be
       -0.43831947 -0.124198556 0.49387237 -0.41837105
000250 d7 70 53 be de ce 33 3f 55 2d 2d 3f 86 03 ea 3e
       -0.20648514 0.7023753 0.67647296 0.45705813
000260 b7 ea 33 be fe 91 2f 3e af 3b 0c bf e1 3b cb 3e
       -0.17570005 0.17145535 -0.5477857 0.3969412
000270 e3 5c 00 3f 55 d0 9e be 3b 56 82 be 26 67 0e 3f
       0.50141734 -0.3101832 -0.25456414 0.5562614
000280 ae 42 d3 3e 91 b6 90 be 28 46 f1 3e a2 c0 d3 be
       0.4126181 -0.28264287 0.47123837 -0.41357905
000290 0c 33 20 bf 14 f1 90 be 7f 30 1b 3d c0 5f 3c bf
       -0.6257789 -0.28308928 0.037888046 -0.735836
0002a0 09 42 07 3f 51 17 74 be 5f cb b5 bd 65 70 93 3e
       0.52835137 -0.2383702 -0.088766806 0.28796688
0002b0 26 88 16 3e 0d 0b 22 3f 19 74 8e 3e da 2f 60 be
       0.14700374 0.6329811 0.2782295 -0.21893254
0002c0 c1 04 0a 3e 6d 5f fb be af 54 ef be a8 59 48 be
       0.13478376 -0.49096242 -0.46744296 -0.19565451
0002d0 5d e7 13 bf 1c 61 28 3d 0c 57 bd 3e f6 0d 26 3f
       -0.5777491 0.041108236 0.36980474 0.6486505
0002e0 41 5e 11 3f 8f b3 59 be 27 31 3d 3f f0 c6 f2 be
       0.56784445 -0.21259902 0.73903126 -0.47417402
0002f0 d4 e3 bb be 82 a0 11 bf 65 76 59 3f 03 dc 27 bf
       -0.36697257 -0.5688554 0.8494628 -0.65570086
000300 28 28 0b 3f 5a 8d 5e 3e 35 ec 28 3f 55 e8 0b bf
       0.5435815 0.21733609 0.65985423 -0.54651386
000310 3e 98 ae 3d d4 0e 17 3f 9e 83 9b be 7b d4 07 3f
       0.08525132 0.59007 -0.30373853 0.53058594
000320 1d 47 11 3f 68 c3 9e 3e 0c 6a 7a bf 72 66 d2 3e
       0.56749135 0.31008458 -0.97818065 0.41093785
000330 34 f5 da 3e 81 da 14 3f c2 3c 09 3d 98 6e 81 3e
       0.427652 0.5814591 0.03350521 0.2527969
000340 f4 a8 12 bf 50 7b 66 be 79 01 51 3f 15 e5 96 3e
       -0.5728905 -0.22507977 0.8164287 0.2947165
000350 28 2c 1c 3f 53 e3 04 bf 5b f9 23 be 20 6b 17 bf
       0.6100488 -0.5190937 -0.1601309 -0.59147835
000360 7a a5 88 bd 73 c4 04 3f f9 86 4f 3e 32 64 d3 3e
       -0.06672187 0.5186226 0.20266332 0.4128738
000370 9b 18 d0 3e b1 27 22 bf dc bb 40 3e 8e 6d f9 bd
       0.40643772 -0.63341814 0.18821663 -0.12179099
000380 37 d8 cc 3d 27 bc d7 3e 34 f5 3c 3e 4f af fe 3e
       0.10002177 0.42135736 0.18452913 0.49743125
000390 24 19 6a 3e e2 e1 78 3e aa 16 5a 3e f7 01 a2 be
       0.22861153 0.24304917 0.21297708 -0.31642124
0003a0 c0 86 7f be 47 22 da 3e 02 96 b9 3e 3d 20 43 bf
       -0.24953747 0.42604277 0.3624726 -0.76221067
0003b0 dd 87 9b 3e 16 7a 2e 3e 35 68 16 bf 88 3c 33 bd
       0.30377093 0.1703876 -0.5875276 -0.0437589
0003c0 74 da f9 bd 92 53 8b 3e ef 25 1c 3f 17 fe 2e 3f
       -0.1219987 0.27212197 0.6099538 0.6835646
0003d0 19 89 9d 3d 63 eb 00 3e 6f 1d 0d bf bd cf 57 3e
       0.07692165 0.12589793 -0.5512304 0.2107534
0003e0 46 03 e9 3e 0b 68 72 3e 47 53 d3 be 90 dd cc be
       0.4551031 0.23672502 -0.41274473 -0.4001279
0003f0 05 73 c6 3e e5 3f 5a bf 5a e8 bc 3d bc 78 c0 be
       0.38759628 -0.85253745 0.09224005 -0.37592113
