miniproject2/experiments/ensemblyVAE/ND2/modelSeed268nD2.pt (torch, 215616 bytes, 56 tensors)

prior.mean f4 [2]
000000 00 00 00 00 00 00 00 00
       0.0 0.0

prior.std f4 [2]
000000 00 00 80 3f 00 00 80 3f
       1.0 1.0

decoders.0.decoder_net.0.weight f4 [512, 2]
000000 2b 29 f9 be 83 7f 93 bd 82 97 27 3f 2a aa 51 3e
       -0.4866422 -0.07202055 0.6546556 0.20475069
000010 72 41 89 be 7b 1b 35 bf fd 2e b2 be 25 04 16 bd
       -0.26807743 -0.70745057 -0.34801474 -0.036625046
000020 3d 25 10 3f 77 ec ec be 8e 1b 39 3e 7f 28 10 3f
       0.5630682 -0.46274158 0.18076918 0.5631179
000030 5d cf 1a 3f 32 a8 33 be 13 d7 9f be af c3 8a be
       0.6047266 -0.1754463 -0.31218776 -0.2710242
000040 fd 0e 1f 3e 0a c4 e5 3e 30 e1 4a 3e 06 f4 16 be
       0.15533061 0.44876128 0.19812465 -0.14741525
000050 09 69 28 3d 08 5d 12 3f 8c 3d cf 3d 5a 59 d9 3e
       0.041115794 0.57173204 0.10119161 0.42450982
000060 9f 25 6f bc e0 60 24 bf 25 d2 f1 be 17 d5 10 3f
       -0.014596372 -0.6421032 -0.4723064 0.5657515
000070 35 d5 2f 3f 3e c3 d2 be 70 61 d7 be ff bd 81 bb
       0.68684703 -0.41164583 -0.42066526 -0.003959417
000080 52 a8 0b 3f 53 74 1f bf c7 d0 1b 3e 56 70 0c 3e
       0.5455371 -0.6228687 0.15216361 0.13714728
000090 83 20 18 bf 9f 1c c6 3d 2f 6f 8b be ef 9e 94 3d
       -0.5942461 0.09673428 -0.27233264 0.07256877
0000a0 14 7d 36 be 70 df c7 be 72 d5 36 3f fa ab c1 3c
       -0.17821151 -0.39037657 0.7141944 0.023641575
0000b0 b5 bf 0f 3f 3b e1 01 3f 53 28 64 be f0 d8 a2 3e
       0.56151897 0.507343 -0.22281007 0.31806135
0000c0 7e e3 10 3f cc c9 47 bd 98 5b cf be c3 9e 60 bf
       0.56597126 -0.048776433 -0.40499568 -0.8774225
0000d0 8e 51 c5 be a1 60 0b 3f 28 f7 c0 be 79 51 d7 3e
       -0.38538784 0.5444432 -0.37688565 0.42054346
0000e0 13 10 96 be 1f 82 36 bf 56 32 cf 3e 17 36 30 3e
       -0.2930914 -0.712923 0.4046809 0.17208134
0000f0 1a b1 40 3f 76 c1 f6 3e 16 2d 84 be 83 3f 00 3f
       0.75270236 0.48194474 -0.25815648 0.5009691
000100 0c 91 8e 3e 53 42 1d 3f b2 38 fd 3e 57 b2 39 3f
       0.27845037 0.6142933 0.49457318 0.7253775
000110 39 4e 0c 3f ca 98 a6 3e ed 96 ad be 58 c0 df 3e
       0.5480686 0.32538444 -0.3390421 0.43701434
000120 ed 97 4c 3e d9 0d 25 3f 4b f6 1d 3e 35 09 f7 be
       0.1997983 0.64474255 0.15425985 -0.48249212
000130 44 1b e1 be bf cf d4 bc b4 85 96 3e 80 e4 9e be
       -0.43966115 -0.025977967 0.29398882 -0.31033707
000140 1b 1a 57 3d b6 ca b1 3c cd 68 06 3f c2 0c 5b 3f
       0.05251513 0.021703105 0.52503663 0.8556634
000150 73 8f 00 bf 90 09 cb 3e 73 61 08 bf ca 2a 81 bd
       -0.50218886 0.39655733 -0.53273696 -0.063069895
000160 2e af 29 3e f4 d1 5d be a5 20 4c bd 14 c6 21 bf
       0.16570732 -0.21662122 -0.04983582 -0.6319287
000170 e7 14 31 3f bd e8 5d be 4d 2e 57 3e 81 a9 3c be
       0.6917252 -0.21670814 0.21013756 -0.18424036
000180 fc 6a d7 3d 21 47 43 bf 9c ba 8b 3e cf 5f 45 3e
       0.105184525 -0.7628041 0.2729081 0.1927483
000190 23 b3 e7 bd 22 28 96 be 99 d7 72 be ad 11 0e 3f
       -0.113134645 -0.29327494 -0.23715056 0.5549572
0001a0 99 0d c5 be 22 ae 0e 3f 3a eb 0e bf 2f 85 35 bf
       -0.38486937 0.55734456 -0.5582768 -0.7090635
0001b0 17 77 7e 3d b3 05 04 3e df 08 26 bf d9 38 0d 3f
       0.06212529 0.12892799 -0.64857286 0.5516487
0001c0 1d 57 1e bf 4c 05 f2 be a6 57 a8 be b3 fb 2d 3f
       -0.61851674 -0.47269666 -0.3287937 0.6796219
0001d0 8f c3 df 3e 28 4d c7 bd 72 b1 13 be d9 df 02 3f
       0.43703887 -0.09731513 -0.14423159 0.51122814
0001e0 04 9a db 3e b3 1a 43 be 0e 55 fb bd 9c 3b f1 be
       0.42890942 -0.19053154 -0.12272082 -0.4711579
0001f0 65 ec 01 bf 47 67 01 3f b9 6c 2a bf 6b 19 e5 3e
       -0.50751334 0.50548214 -0.6657215 0.44745955
000200 19 ce 97 3e 9e ab ce be 99 7c 14 3f ca 1c 02 3e
       0.29649428 -0.4036531 0.5800262 0.12706295
000210 09 8f 4b 3f 00 ee d5 3b b3 7a 80 be a9 21 b1 be
       0.7951513 0.006528616 -0.25093612 -0.34595993
000220 e7 70 b2 bd 65 5d 12 3e 07 ac 98 be 09 14 c5 be
       -0.08712941 0.1429344 -0.29818746 -0.38491848
000230 dd 06 9e 3e 24 a4 47 be c6 97 13 bf b3 00 18 bf
       0.3086461 -0.19496208 -0.5765346 -0.59376067
000240 53 d3 88 3e 34 27 11 3f 04 32 3b 3f 9a b3 e7 bd
       0.26723728 0.56700444 0.7312319 -0.11313553
000250 8c 28 c7 3e 2e e5 17 3e e3 9d 09 bf a0 88 a4 be
       0.38898122 0.14833519 -0.5375654 -0.32135487
000260 8b b8 3c be 09 1a 0e 3e 24 43 f1 3e 64 4d ce be
       -0.18429773 0.13877119 0.47121537 -0.4029342
000270 e5 dd b3 be 46 68 21 bd 44 f8 00 bf fc ce a7 be
       -0.3513023 -0.039406084 -0.50378823 -0.32775104
000280 7c 9e 6c 3b ab 1a 2a 3e 92 f5 50 3e 8e ab 22 3f
       0.0036105206 0.16611736 0.20406178 0.6354302
000290 f5 09 44 3e 9f 63 01 3f 35 57 35 3f f1 5f 02 3d
       0.19144423 0.50542635 0.7083619 0.031829778
0002a0 19 58 0b 3f 3a 5a 16 3f 49 d1 ec 3c 8d 53 62 be
       0.544313 0.58731425 0.028908389 -0.22102185
0002b0 ae d5 3a 3f fa eb 59 3e bd 44 1e be 25 79 98 3e
       0.729823 0.21281424 -0.15455909 0.29779926
0002c0 74 86 45 3d 3e ca b2 3d c8 bf 26 3e 33 a6 0c 3f
       0.048223928 0.08729981 0.16284096 0.549411
0002d0 f8 b5 14 3f d6 0a 08 bf 69 43 05 3e 66 0a 73 be
       0.5809016 -0.53141534 0.13013996 -0.23734435
0002e0 5d 91 c1 bb dd c5 dc be 7a 9e 49 3e a3 e1 14 bf
       -0.005907221 -0.43119708 0.1968936 -0.58156794
0002f0 a5 46 f5 3e 02 23 39 be 83 e2 0f 3e 27 bf 04 bf
       0.4790546 -0.1807976 0.14051251 -0.51854175
000300 7e 86 11 3e 50 4c 0f bf 34 4a 4b bf 5b c3 04 3f
       0.14211461 -0.5597582 -0.794101 0.5186059
000310 6c 0d e3 bd 15 7f 6f be 4c 75 0a be 06 92 8b 3d
       -0.110865444 -0.23388322 -0.13521308 0.06814961
000320 9e 27 e6 be 66 04 73 3e ab 94 c0 3e 7e 70 4b be
       -0.449521 0.23732147 0.37613425 -0.19867131
000330 8d bd ab 3d a7 4b 45 3e e7 f1 3e 3e 16 1e 40 bf
       0.08385763 0.1926714 0.18646966 -0.7504591
000340 87 b8 1c bf 27 78 26 3e 8f d4 42 bd 0e 1d 35 be
       -0.61219066 0.16256772 -0.047565993 -0.17686865
000350 fa 2a 13 3f cc c7 d9 3e 32 fb d4 be 8d ac 9d be
       0.5748745 0.42535245 -0.41597897 -0.30795708
000360 6f 51 3a 3d a3 6f 4c be 97 92 02 3c 86 7c 2c be
       0.045487817 -0.19964461 0.00796952 -0.16844377
000370 52 f8 3a bd 00 c9 97 3d a0 de 67 be 0a 35 fe 3e
       -0.045646973 0.074113846 -0.22643518 0.4964984
000380 91 b8 5f bc 24 9f 07 3e d2 f3 ea 3e 1d 73 1c 3f
       -0.013654844 0.13244301 0.45889145 0.6111315
000390 5c 66 8c 3c a2 18 18 3f 04 3a 6f be 3e 39 f7 3e
       0.017138653 0.59412587 -0.23361975 0.4828586
0003a0 39 e1 2a 3f e5 77 19 bf ee d6 0a 3e 5b 1a d5 be
       0.6674991 -0.5994857 0.13558552 -0.4162167
0003b0 74 68 40 bf 8e 53 87 3e a1 a2 52 be 48 94 ca be
       -0.7515938 0.26430935 -0.2056985 -0.39566255
0003c0 02 28 f3 3e 99 90 21 3f aa 1e 76 be b0 8d f6 be
       0.4749146 0.63111264 -0.24035135 -0.48154974
0003d0 b8 34 2a bf 1c c0 6b 3e 2e 39 8c bb 03 0b 1a bf
       -0.6648669 0.23022503 -0.0042792773 -0.6017305
0003e0 95 88 22 3f 20 9d 12 bf fb 54 5b be d8 34 9b be
       0.6348966 -0.57271004 -0.21419136 -0.30313754
0003f0 e6 5c 73 3e 38 ec e3 3e 3a 27 89 be 66 f4 d4 3e
       0.23765907 0.44516158 -0.2678774 0.4159271

decoders.0.decoder_net.0.bias f4 [512]
000000 ec bb af be 7a 06 74 be 72 13 31 bf 5b 81 e5 3e
       -0.3432306 -0.23830596 -0.69170296 0.44825253
000010 dc 47 2f bf 6b 90 ef be c1 b3 2a 3f 3a 29 0e 3f
       -0.68469024 -0.4678987 0.6668053 0.55531657
000020 3d d0 98 3e a9 f9 48 bf 66 39 34 3f 90 be 69 3d
       0.29846373 -0.7850595 0.70400083 0.0570665
000030 f7 43 13 3e 5b 94 6c be 3f e8 cf bd f0 b7 06 3f
       0.14381395 -0.23103468 -0.10151719 0.52624416
000040 c5 df 02 3f e3 43 a6 bd ef e7 20 3f ba 5d 1c be
       0.51122695 -0.08118417 0.628539 -0.15270129
000050 a7 ee b3 3e d3 45 0e 3f 38 41 8a bd e3 aa ec 3e
       0.35143015 0.55575293 -0.06750721 0.46224126
000060 27 19 f2 be 6f c4 d9 be 9d 89 12 3c 5f 67 15 be
       -0.47284815 -0.4253268 0.008943942 -0.14590214
000070 c8 58 7c be 38 27 ae bd 7c d9 49 bf 83 10 06 bf
       -0.24643242 -0.08503574 -0.7884748 -0.52368945
000080 0d 6e 2c 3f 1b 7f c9 3e e1 56 56 3f 15 6e 50 be
       0.67355424 0.39354786 0.83726317 -0.20354493
000090 e7 db 93 3e fc 8e 49 3d c8 87 b5 bd de 34 a2 be
       0.2887871 0.049208626 -0.08863789 -0.3168096
0000a0 2b 4c 3a 3f b4 af 9d be 1b 6c db be e7 59 4a bd
       0.72772473 -0.30798113 -0.42855915 -0.049402144
0000b0 2c 1f a8 3e ac c7 9a be 4a e6 04 3e 54 5c 9c 3e
       0.32836282 -0.30230463 0.12978473 0.3053919
0000c0 9f 2f 13 bf 47 58 1d bf ad b8 14 3f 86 52 8c 3e
       -0.5749454 -0.61462826 0.5809429 0.2740671
0000d0 fb 8b 06 bf 1e a1 e0 be f0 13 0c bf d6 b7 b3 be
       -0.52557343 -0.43872923 -0.5471792 -0.35101193
0000e0 7d f3 e9 3d bc 7f 1f 3f ce 2f 60 3c 81 40 2a bf
       0.11423395 0.6230428 0.0136832725 -0.66504675
0000f0 c5 7d b0 3e a5 be 2f bf db 63 f2 3e f2 6e 29 3f
       0.34470955 -0.68650275 0.4734181 0.66184914
000100 5a f8 1a 3f ca 20 0f 3f 22 e3 38 bf 80 22 0f 3f
       0.60535204 0.5590941 -0.7222158 0.5591202
000110 7a 63 44 3f ca 43 43 bf 9e 1e 05 3e b0 6f cc 3e
       0.7671429 -0.7627531 0.12999961 0.3992896
000120 36 00 53 be 6a af 17 be e3 c1 07 bf 57 0c 6b 3e
       -0.20605549 -0.14813009 -0.5303022 0.22953926
000130 c4 3d aa be 12 ed 5b bd 7a 5b 65 3e 18 0b bd 3e
       -0.33250248 -0.053692885 0.22398177 0.36922526
000140 d3 8f 2b bd f6 b1 c5 be 06 84 6c bf f7 db 96 be
       -0.04188521 -0.38612336 -0.9238895 -0.29464695
000150 4c eb 19 be 29 34 da 3e 85 54 0d 3f 96 c3 83 3e
       -0.15031165 0.4261792 0.5520709 0.25735158
000160 ca 1e da 3c 3e 79 4c 3e 8c a1 f1 3e 72 52 d9 be
       0.02662601 0.19968125 0.47193563 -0.42445713
000170 39 56 0c 3f 4d 1c 8f 3e 6b 0a b2 bb a4 85 18 3e
       0.54819065 0.2795128 -0.005433371 0.1489473
000180 b9 d5 b1 3e 59 4f e7 3e 7c 19 db 3d 16 0c 85 bd
       0.3473337 0.45177725 0.1069822 -0.06496446
000190 2f c4 15 3f 90 7f f2 be 81 56 d6 3d b5 75 14 bf
       0.5850248 -0.47362947 0.10465718 -0.57992107
0001a0 19 e9 97 3e d2 c9 f1 3e 7a c7 33 3f 55 ad d4 be
       0.29670027 0.4722429 0.7022625 -0.41538492
0001b0 ac 82 18 bf 98 74 cb 3e b1 da bf 3e 36 1a 16 bf
       -0.5957439 0.3973739 0.37471536 -0.58633745
0001c0 9c 3f 0d 3e 11 08 32 bf 59 05 a7 be 3a 78 26 3f
       0.13793796 -0.6954356 -0.32621267 0.650272
0001d0 b2 b9 31 bd 6a dd 15 bf e5 7b b8 3d 2b 83 5c be
       -0.043389983 -0.58540976 0.09008006 -0.21534412
0001e0 f6 11 2a bf f7 31 49 bd c6 83 bd be 57 f2 f9 be
       -0.66433656 -0.049119916 -0.37014598 -0.48817703
0001f0 3f 4b 01 bf 8a 27 e3 3e f8 0c 2c 3f 73 ab 0c bf
       -0.5050544 0.44366103 0.6720729 -0.5494911
000200 4a 54 33 3b 7e ab 3b 3f 4b bf df 3e 86 c9 1e 3f
       0.0027363473 0.7330855 0.43700632 0.6202625
000210 4e 15 35 bf 18 b8 91 3e f7 c8 67 3e b1 9e 01 3d
       -0.70735633 0.28460765 0.22635256 0.03164548
000220 79 4a 5d be 5b b9 cb be 4c 6d 35 bf f8 86 27 bf
       -0.2161044 -0.39789852 -0.708699 -0.6544032
000230 bd 82 1b 3f 0b 01 50 bf d0 ea 17 3f fc 83 df 3e
       0.60746366 -0.8125159 0.5934267 0.43655384
000240 89 53 16 bf 38 a3 9d 3c fc 64 8d 3f 73 68 4b be
       -0.58721215 0.019242868 1.1046443 -0.19864063
000250 76 4c 38 be e8 8a 9f bd c7 3d 6e 3e e0 5c 06 bf
       -0.17997918 -0.07790166 0.23265754 -0.52485466
000260 43 ca e4 be 0b 1d f7 be 49 08 dc be b9 de e1 3e
       -0.44685563 -0.48264346 -0.4297507 0.44115236
000270 5a 22 5f be ac e9 eb 3e 42 6c 34 bf 6b 89 d4 be
       -0.21790448 0.46076715 -0.7047769 -0.41511092
000280 34 db 7c 3c c4 5b b2 be 48 f4 60 bf e6 07 f8 bb
       0.0154331215 -0.34835637 -0.87872744 -0.007569301
000290 71 04 a8 3d 7e 00 db 3e 28 67 fa 3e 1d 93 80 be
       0.08203972 0.42773813 0.48906827 -0.2511224
0002a0 37 c9 66 be 2e da ac 3b 4d 7d b1 3b 00 5c 83 3e
       -0.22537695 0.0052750325 0.0054165483 0.25656128
0002b0 de 71 17 bf fe eb cb be 00 78 48 3e 89 e3 fd be
       -0.5915812 -0.39828485 0.19577026 -0.49587658
0002c0 9c 65 a0 be af 9b ba be 94 47 bb 3d 5d 6c 19 3e
       -0.31327522 -0.36446902 0.09144512 0.14982744
0002d0 2a 19 2a 3f e5 4b 10 3f 60 19 a8 be 38 99 45 be
       0.6644465 0.56365806 -0.3283186 -0.1929673
0002e0 bf 9c 05 3f 9f 15 9f 3e 46 c8 00 bf 71 d3 f1 bd
       0.521923 0.31071183 -0.50305593 -0.118079074
0002f0 5d a2 01 bd 24 ac 39 bf 33 22 cf be 03 95 16 3f
       -0.031648982 -0.7252829 -0.4045578 0.58821124
000300 97 d1 4b bf 0b 5b c7 3e 06 35 ed 3e 30 2c 0b 3f
       -0.79616684 0.38936648 0.46329516 0.543643
000310 9f 85 b3 be 43 ec 4b 3e 41 24 bd be 54 77 b7 be
       -0.35062882 0.19914345 -0.36941722 -0.35833228
000320 89 a2 6f be ea e9 bd 3e 8c 30 f8 bc b4 28 c2 3e
       -0.23401846 0.37092525 -0.030296586 0.3792168
000330 b8 0d 5b 3e 91 d6 16 be 2e 60 8b 3e 9b e5 3d 3f
       0.21391952 -0.14730288 0.27221817 0.74178475
000340 65 36 c4 3d cd f7 3d 3f 01 ea 23 bf c1 05 9a 3c
       0.095806874 0.7420624 -0.64028937 0.018801572
000350 a4 5a af be cd 0b 05 bf f7 b5 0b bf 28 7c 55 3e
       -0.3424884 -0.5197113 -0.5457453 0.20848143
000360 2d 7a 38 3f 8c 43 f0 be 60 91 49 3e f1 0d 86 3d
       0.72061425 -0.46926534 0.19684362 0.06545628
000370 55 5a 80 be fd d2 1d 3f eb 93 24 be 7b 49 f3 3e
       -0.25068918 0.6165007 -0.16072051 0.47517
000380 95 25 63 3e 46 8d 72 3e 96 46 f3 be 04 61 4b 3f
       0.22182305 0.23686704 -0.4751479 0.7944491
000390 22 9d f9 3e 72 12 1f 3f 5d 53 05 bf 4d bc 32 bf
       0.48752695 0.6213752 -0.5208033 -0.69818574
0003a0 c2 fd bd 3e be 69 87 be fb 90 0b 3d 8d 6c 8d be
       0.37107664 -0.26447862 0.03407381 -0.2762188
0003b0 cb 44 f7 3d 55 99 ce bd 22 ef f9 be 38 0a 48 be
       0.12073668 -0.100878395 -0.48815256 -0.19535148
0003c0 d7 c3 3b 3e 73 59 6e 3e 25 62 c3 3f 4d 6b 0e 3f
       0.18336426 0.2327631 1.5264326 0.5563248
0003d0 74 71 11 bf 56 78 0f bf f7 e0 32 bf 80 7c 2c be
       -0.5681374 -0.56042993 -0.6987452 -0.16844368
0003e0 63 e8 26 bf 8b 7f 97 bc fa 2d 76 bf ce 83 05 bf
       -0.65198344 -0.018493434 -0.96163905 -0.52154243
0003f0 cb 44 ee bd e4 19 f3 3e 5d f4 16 3e e3 63 65 be
       -0.11634215 0.4748069 0.14741655 -0.22401385

decoders.0.decoder_net.3.weight f4 [32]
000000 94 b1 84 3f 90 44 84 3f fe c6 84 3f 90 f9 70 3f
       1.0366693 1.0333424 1.0373228 0.941308
000010 63 01 87 3f 93 3f 87 3f 34 f1 7e 3f 31 b0 80 3f
       1.0547298 1.0566276 0.99586797 1.0053769
000020 bb 63 83 3f 3f b0 86 3f 20 2c 74 3f d1 26 84 3f
       1.026481 1.0522536 0.9537983 1.0324346
000030 56 f2 81 3f 1a f0 77 3f 39 92 79 3f a6 9b 98 3f
       1.015208 0.9685074 0.97488743 1.19225
000040 a7 b3 7f 3f 52 a9 7a 3f 75 d1 88 3f 41 16 81 3f
       0.998835 0.9791461 1.0688921 1.0084916
000050 b9 08 84 3f 6e ad 74 3f 6d 46 82 3f 22 bd 7a 3f
       1.0315162 0.9557713 1.0177742 0.97944844
000060 8e 24 85 3f 4a 9e 81 3f 65 a7 84 3f 64 ba 88 3f
       1.0401781 1.0126431 1.0363585 1.0681882
000070 5c 1c 8a 3f e3 02 82 3f 5b f1 88 3f 45 20 81 3f
       1.0789905 1.0157131 1.0698656 1.0087973

decoders.0.decoder_net.3.bias f4 [32]
000000 fc 20 e0 3c d4 d0 1e 3d 38 2e 09 3c 53 3c 99 3c
       0.027359478 0.038773373 0.008372836 0.018705523
000010 e5 36 88 3c db 21 5a bd 17 f6 83 3c 64 2d 35 3d
       0.016627738 -0.053254943 0.016108556 0.04423274
000020 4c 0e bc bc 77 17 62 bc e8 36 3d bd 15 ab fa 3c
       -0.022956036 -0.01379954 -0.04619494 0.030599156
000030 17 b6 18 3b c1 d4 a1 bd 86 0b ef bc 10 a1 4c 3d
       0.0023301893 -0.07901908 -0.0291803 0.04995829
000040 69 9c cc bb 4a 3a 10 3d a0 8f d2 3b f2 b0 ea bc
       -0.0062442315 0.03521184 0.006425813 -0.028648827
000050 e9 d8 9c 3c 64 49 b6 bc 01 81 3b 3d 82 17 28 3a
       0.0191464 -0.022251792 0.045777325 0.00064121943
000060 f1 41 60 bc f6 a6 0b 3c fe a5 fc 3c 17 b3 1a 3b
       -0.013687597 0.008523693 0.03084087 0.002360528
000070 7f a4 50 3d ec ea db bc 46 2d 5b 3d 80 f3 da 3b
       0.050938126 -0.026845418 0.053509973 0.0066818595

decoders.0.decoder_net.3.running_mean f4 [32]
000000 f8 ff 7f 3e f8 ff 7f 3e f8 ff 7f 3e f8 ff 7f 3e
       0.24999988 0.24999988 0.24999988 0.24999988
000010 f8 ff 7f 3e f8 ff 7f 3e f8 ff 7f 3e f8 ff 7f 3e
       0.24999988 0.24999988 0.24999988 0.24999988
000020 f8 ff 7f 3e f8 ff 7f 3e f8 ff 7f 3e f8 ff 7f 3e
       0.24999988 0.24999988 0.24999988 0.24999988
000030 f8 ff 7f 3e f8 ff 7f 3e f8 ff 7f 3e f8 ff 7f 3e
       0.24999988 0.24999988 0.24999988 0.24999988
000040 f8 ff 7f 3e f8 ff 7f 3e f8 ff 7f 3e f8 ff 7f 3e
       0.24999988 0.24999988 0.24999988 0.24999988
000050 f8 ff 7f 3e f8 ff 7f 3e f8 ff 7f 3e f8 ff 7f 3e
       0.24999988 0.24999988 0.24999988 0.24999988
000060 f8 ff 7f 3e f8 ff 7f 3e f8 ff 7f 3e f8 ff 7f 3e
       0.24999988 0.24999988 0.24999988 0.24999988
000070 f8 ff 7f 3e f8 ff 7f 3e f8 ff 7f 3e f8 ff 7f 3e
       0.24999988 0.24999988 0.24999988 0.24999988

decoders.0.decoder_net.3.running_var f4 [32]
000000 08 e1 82 3d 85 99 9b 3d af 2b 76 3d a8 2f 97 3d
       0.063905776 0.07597641 0.060100254 0.073821366
000010 a6 bc 79 3d 38 d4 a8 3d 7a e6 74 3d d7 cb 3f 3d
       0.060970925 0.082436025 0.059790112 0.046825256
000020 0c e4 8f 3d 66 70 83 3d 2f 97 a5 3d c2 1f 8c 3d
       0.07025918 0.06417923 0.080854766 0.06841995
000030 22 ed 97 3d 70 fe 77 3d 5a 77 c3 3d 22 20 b9 3d
       0.07418276 0.060545385 0.09544249 0.09039332
000040 2d 28 89 3d 9a 67 d3 3d 64 81 78 3d 79 df 90 3d
       0.06697116 0.10322495 0.06067027 0.07073874
000050 d5 97 ad 3d 54 97 b6 3d 81 c1 a3 3d a5 b6 b9 3d
       0.08476225 0.08915582 0.07995892 0.0906804
000060 1b 67 5d 3d f0 c4 83 3d 95 72 c8 3d 78 b6 b8 3d
       0.054053407 0.06434047 0.0978748 0.09019178
000070 61 c0 a2 3d d5 0f a1 3d f3 ab 96 3d 0b a1 97 3d
       0.079468496 0.07864348 0.073570155 0.074037634

decoders.0.decoder_net.4.weight f4 [32, 32, 3, 3]
000000 92 b4 8b 3d a6 31 63 3d 7f 17 51 bd 9a 5c 02 b9
       0.068215504 0.05546727 -0.0510478 -0.00012432263
000010 1c e0 94 3c e8 cb fc bc 2d ca 07 3d 21 21 83 3d
       0.01817327 -0.030858949 0.033151794 0.06402803
000020 d9 a5 a1 3c 2d 28 3a bd 41 f7 f7 3c 48 cb 29 ba
       0.019732403 -0.04544847 0.030269267 -0.00064771296
000030 8e 20 21 bd d9 3b 43 3d df 9b 85 bd a9 f6 3b 3d
       -0.039337687 0.047664497 -0.06523871 0.04588953
000040 d4 6c ff 3c 71 3f ac bd 42 27 6c 3b 73 bd cc 3d
       0.031179823 -0.08410538 0.0036034142 0.09997072
000050 65 f7 38 3d 94 19 0e bd de 6b 7d 39 68 61 90 bc
       0.04515781 -0.034692362 0.00024168144 -0.017624572
000060 d0 eb d4 bc d1 bf 85 bd 77 bf 86 bd 1f 39 e4 bc
       -0.02599135 -0.06530727 -0.06579488 -0.027859269
000070 cd ec 73 3c de 90 d1 ba 36 82 e5 bd 9b c5 8d 3c
       0.014888001 -0.0015988608 -0.112064764 0.01730614
000080 a6 32 0a 3d 3e 1e 2e bd 28 ce bd bc b6 13 04 3d
       0.03373971 -0.04250931 -0.023169592 0.03224536
000090 9a 39 2f 3d 5a 6e 43 bd c7 1c 49 bd 6e 70 30 ba
       0.042779543 -0.04771266 -0.04909971 -0.00067306205
0000a0 02 a3 e0 bd 10 ae a8 3d c0 ad 2a 3c 1c a7 8d bc
       -0.10968591 0.08236325 0.010417402 -0.017291598
0000b0 24 f1 18 bc ec 10 e3 bc a4 97 38 3c fd 7c a0 3b
       -0.009334836 -0.02771803 0.011266623 0.0048977123
0000c0 86 6d df bc 84 fa a8 3c 9b 76 94 bd 2e 17 dd 3c
       -0.027273905 0.020627268 -0.07249185 0.026988592
0000d0 e7 ff df 3d d0 65 1a bd 51 48 17 bd 95 33 77 3c
       0.109374814 -0.037694752 -0.0369342 0.015087982
0000e0 fc 55 76 3c 77 bb 9b bd ca d8 7b bc fb f9 6f bc
       0.015035149 -0.076041155 -0.015371511 -0.014647002
0000f0 6a ea 92 bc 2b 59 da 3c 16 b8 fa 3c f3 d0 97 bd
       -0.017934043 0.026653847 0.030605357 -0.07412901
000100 5e b3 7e bc 05 16 58 bd ab e3 56 3d f4 7f 31 bd
       -0.015545694 -0.052755374 0.052463215 -0.043334916
000110 dd ca 9c bd 28 fb 3e 3d 2f 1e ba 3c ce b4 81 bd
       -0.076558806 0.04662624 0.02271947 -0.06333314
000120 cf de 93 bd a9 19 22 3d f1 37 02 3d af 81 d0 bc
       -0.07220232 0.039575253 0.03179163 -0.025452463
000130 47 e8 c7 bc 9d bd a7 bc 06 05 2d 3d bb a1 8f 3c
       -0.02440275 -0.020476157 0.04224112 0.017533174
000140 4e 5e 0a 3c 2b eb 29 3c e6 e2 fa bd 64 8f a7 bd
       0.008445336 0.01037101 -0.12250309 -0.081816465
000150 a2 96 4c 3d 76 92 91 bb 11 df 97 3d cd 4d 4f bb
       0.049948342 -0.0044425083 0.074155934 -0.0031632066
000160 15 87 14 3d 15 a4 88 3c d4 ff 0b bd 93 43 a0 3b
       0.036261637 0.016679803 -0.034179524 0.004890868
000170 c5 81 7e 39 8c 16 2a bd 4d 67 c4 3d 80 c7 8b 3b
       0.0002427167 -0.04152541 0.095900156 0.0042657256
000180 04 33 05 bd 40 3c 9e bd cc 6d 05 bc 0d 37 35 bd
       -0.032519355 -0.077263355 -0.008143853 -0.044241954
000190 be 11 77 3c 33 07 ca 3b de 69 8d bc 10 7a ab bc
       0.015079914 0.006165409 -0.017262395 -0.020932227
0001a0 79 2a 40 bc 7a 1c a5 3b 68 48 91 bd 86 c1 78 3d
       -0.011728876 0.005038795 -0.070938885 0.060731433
0001b0 c6 6b 8a 3d 27 e1 51 bd 30 21 1e bd 2b b8 fe 3c
       0.067588374 -0.051240113 -0.03860587 0.031093678
0001c0 1d 1e 8f 3c 4e f7 08 bd 7a 7c 28 3d e2 06 9c 3d
       0.017470414 -0.033438973 0.041134335 0.076185
0001d0 8e 8d 29 3d fb 84 df 3d b0 77 1e 3c 60 e6 5f 3c
       0.041394763 0.10914036 0.00967209 0.0136657655
0001e0 e7 bd 57 3b 09 2f ee bd d1 50 13 3d 84 84 98 3c
       0.0032919587 -0.11630065 0.035965744 0.018617876
0001f0 f5 a7 50 bc 06 3c 11 bb d3 d9 29 3d 71 cc 05 bd
       -0.012735357 -0.002216102 0.0414675 -0.032665674
000200 73 22 d3 bc 11 c1 b3 3c ca cf 60 3c 8c ee f6 bc
       -0.025773263 0.021942647 0.013721416 -0.030143045
000210 ca 42 a4 bd 87 79 77 ba e2 63 53 3d d0 28 4a bc
       -0.080205515 -0.0009440411 0.051608928 -0.012338832
000220 5d 69 ac bc f5 12 27 bd 81 f1 37 bd 5b 04 65 bd
       -0.021046335 -0.040789563 -0.04490805 -0.055912357
000230 51 7f e9 39 9d 07 3c 3c 96 ac 85 bc 28 04 bb 3b
       0.0004453608 0.0114764245 -0.016317647 0.0057072826
000240 d5 90 c0 bd 94 41 10 bd ae 43 37 bd a5 87 8c bc
       -0.094026245 -0.03521879 -0.04474228 -0.017154524
000250 8c d7 bc bd 1b b1 26 3d d5 74 51 bd 47 b0 7d bb
       -0.092208 0.040696245 -0.05113681 -0.0038709806
000260 ad 80 17 3d 22 05 8c 3d b6 5a 04 bd ad 5e b9 3c
       0.03698795 0.068369165 -0.03231307 0.022628153
000270 cf ae 67 bd 52 1d 2f 3d 85 43 44 3d 0b 25 3c bc
       -0.056563195 0.04275257 0.047915954 -0.011483441
000280 3c 84 6e 3c 6c b8 33 bd 56 f7 fa 3c b3 32 82 bd
       0.014557894 -0.04387705 0.030635517 -0.06357326
000290 b2 e9 b3 3d 50 27 20 bd ed d6 35 bd 9c 16 90 bc
       0.08784808 -0.03909999 -0.044394422 -0.017588906
0002a0 9e 09 7d 3c 05 5f 9b bd 31 a8 84 bd db c0 41 bc
       0.015444187 -0.07586483 -0.064773925 -0.0118257655
0002b0 d0 46 46 3b 08 e5 2a bd 31 63 23 3d 77 23 15 3c
       0.003025461 -0.041722327 0.03988952 0.009102694
0002c0 e8 39 06 3d 80 97 48 bd 4a b8 33 3d 1b 92 20 bd
       0.032770067 -0.048972607 0.043876924 -0.039201837
0002d0 04 f3 65 3c 61 0a af bd 9a 43 10 3b f0 56 84 3c
       0.01403499 -0.085469015 0.002201295 0.016154736
0002e0 9e 91 34 3d 10 4b 46 3d b1 0d 96 bd e4 08 84 3c
       0.044084184 0.04841143 -0.0732683 0.01611752
0002f0 68 fa 16 3d fc 3d 8d bc e7 c0 ed bc e7 9b 52 bd
       0.0368599 -0.01724147 -0.029022647 -0.05141821
000300 7f 83 83 bb f3 a5 18 bd f4 e6 cf bc c5 86 3b 3c
       -0.0040134783 -0.037267637 -0.025378682 0.011445706
000310 a0 d4 ac 3b 43 bf e5 bc 50 56 2f bd 8c 47 74 3c
       0.0052743703 -0.028045302 -0.042806923 0.014909636
000320 68 ab 79 bc 56 60 27 3c 17 80 61 bc cf 3e 39 bd
       -0.01523862 0.010215839 -0.013763449 -0.045225915
000330 a5 72 be bc bb fc bd bd 67 b0 af 3d ee ca 07 3d
       -0.023248026 -0.0927672 0.08578568 0.033152513
000340 ea 86 ab bc 32 81 d1 bc df 3c 0d 3d c6 66 b3 bd
       -0.020938355 -0.0255743 0.03448188 -0.08759837
000350 ec f8 f7 bc b2 19 a2 3d 34 99 da bc 86 3e 84 bc
       -0.030270062 0.07915057 -0.026684381 -0.016143095
000360 98 ac 4b bd 03 c9 bd 3d 56 d6 e1 bc 90 9e 8e 3b
       -0.049725145 0.092668556 -0.027568024 0.004352398
000370 ae 8e 2a 3d 2f c0 2b bc f1 32 90 3d 85 49 8d 3b
       0.041639976 -0.010482832 0.07040966 0.0043117427
000380 33 53 33 bd 5e ea d5 3c 33 7f 01 3d df 66 26 bd
       -0.043780517 0.026112732 0.031615447 -0.04062545
000390 45 01 9f 3b 91 0f 59 3d bc 27 f2 bb 49 90 4a 3d
       0.0048524463 0.05299336 -0.0073899906 0.049454007
0003a0 c2 07 b8 bd 41 c5 8d bc 73 2d 79 bb 59 b3 9f 3c
       -0.08985855 -0.017305972 -0.0038021475 0.0194947
0003b0 b5 c8 07 3d cd 12 ab bc 0b 96 28 be a0 5c 55 3c
       0.033150394 -0.020882988 -0.16463487 0.013022572
0003c0 b3 1f e6 3c 18 30 3a bd 1f ad 1a bd bb 8a 67 bd
       0.028091287 -0.045456022 -0.037762757 -0.056528788
0003d0 78 7b 9c bd 14 dc b4 3c 55 ea e5 bc d0 3a 27 3d
       -0.07640737 0.022077598 -0.02806584 0.040827572
0003e0 87 88 42 3c 63 96 1d 3d 2c 46 c7 bd 0c dc 4a bd
       0.011873371 0.038473498 -0.09730181 -0.04952626
0003f0 6c 8b 3c bd bd a9 e8 bc 23 93 22 3c e0 2d 3a 3d
       -0.0460314 -0.02840125 0.009922775 0.045453906

decoders.0.decoder_net.4.bias f4 [32]
000000 4c f5 c7 3d 66 a3 01 3d af 90 d9 bd f0 58 ee bd
       0.097635835 0.03164997 -0.10623299 -0.11638057
000010 ff 0b 32 3d f0 68 1c 3c e1 43 d7 3d 29 7d c9 3d
       0.04346847 0.009546503 0.10510994 0.098383255
000020 3b 2c d6 3d 3e 99 2e bd 03 ac 99 3c 87 a3 7d bd
       0.10457655 -0.042626612 0.01875878 -0.06192353
000030 05 73 f9 bd b0 d7 39 3d 8d 54 15 3c 6e 1a ec bc
       -0.12180141 0.04537171 0.009114397 -0.028821196
000040 e1 c2 42 3a 24 cb cb bc ca eb c2 3d 24 72 ed 39
       0.0007429552 -0.024877138 0.095176294 0.00045289204
000050 a4 d6 44 3d 0a dc 61 bb db 62 96 3d 3a 89 ff 3d
       0.04805626 -0.003446343 0.07343074 0.12477346
000060 53 7c 8f 3c 40 95 1b 3d fa b3 f4 3c 91 fa 8a 3d
       0.017515337 0.037984133 0.029870976 0.06786073
000070 e9 ab 1a bd d4 b2 fe 3c 9e 2f 39 bd 2a 18 f8 3c
       -0.037761603 0.031091131 -0.045211427 0.03028496

decoders.0.decoder_net.6.weight f4 [32]
000000 ad eb 69 3f 28 43 61 3f d5 d9 84 3f d2 f1 87 3f
       0.9137524 0.879931 1.0378977 1.0620673
000010 ea b4 76 3f 54 9b 74 3f 73 0b 70 3f a0 24 62 3f
       0.963698 0.9554951 0.9376747 0.88337135
000020 0f 1c 64 3f c3 1a 77 3f f9 5e 77 3f 6d 45 78 3f
       0.89105314 0.9652521 0.9662929 0.96980935
000030 4e 6e 70 3f a3 2d 70 3f 98 4d 83 3f 07 62 70 3f
       0.9391831 0.93819636 1.0258055 0.9389958
000040 29 0f 68 3f 26 34 6d 3f c8 d4 77 3f bc 0b 6f 3f
       0.9064813 0.926577 0.96809053 0.9337728
000050 30 62 7d 3f d1 ee 72 3f 03 26 73 3f cd 99 6a 3f
       0.9897795 0.94895655 0.94979876 0.9164093
000060 0d ed 73 3f f3 07 6d 3f d8 02 77 3f 2c 0b 71 3f
       0.95283586 0.92590255 0.96488714 0.9415767
000070 18 ff 5f 3f d2 1f 79 3f 85 39 81 3f b0 98 6f 3f
       0.8749862 0.9731418 1.0095679 0.9359236

decoders.0.decoder_net.6.bias f4 [32]
000000 4e 1a d1 3c e9 7d 68 bd 31 4c 07 bc c8 d4 0f bd
       0.025525238 -0.056760702 -0.008257912 -0.035115033
000010 b8 b1 90 3b 88 4d 69 3d e1 e4 62 bd ba 00 46 3c
       0.004415717 0.056958705 -0.055394057 0.012085134
000020 54 d0 d1 3c 6a c3 06 39 10 0a c4 bc bd 25 a1 3b
       0.025612034 0.00012852033 -0.02393058 0.004917829
000030 43 f9 d3 3c 7a 5b 06 bd b5 22 ac 3d 25 60 44 bc
       0.025875693 -0.032802083 0.08405057 -0.011985813
000040 0e 5a b9 bd 89 38 3e 3d d5 1f 92 3d 15 d9 d6 3c
       -0.0905038 0.046440635 0.07134978 0.02622656
000050 e0 a8 93 bc c6 b4 63 bd f9 7d 76 3d 3d 44 44 bd
       -0.018024862 -0.05559232 0.06017873 -0.04791664
000060 b3 16 0d 3d a4 6e 80 bc 6b 86 bd bc 41 52 34 3d
       0.034445476 -0.015677758 -0.023135385 0.044023756
000070 0a 43 88 bd dc 19 5a 3d 69 39 84 bd e6 8c a7 bd
       -0.06653412 0.053247318 -0.064562626 -0.08181171

decoders.0.decoder_net.6.running_mean f4 [32]
000000 1e 49 12 3e 1e 49 12 3e 1e 49 12 3e 1e 49 12 3e
       0.14285704 0.14285704 0.14285704 0.14285704
000010 1e 49 12 3e 1e 49 12 3e 1e 49 12 3e 1e 49 12 3e
       0.14285704 0.14285704 0.14285704 0.14285704
000020 1e 49 12 3e 1e 49 12 3e 1e 49 12 3e 1e 49 12 3e
       0.14285704 0.14285704 0.14285704 0.14285704
000030 1e 49 12 3e 1e 49 12 3e 1e 49 12 3e 1e 49 12 3e
       0.14285704 0.14285704 0.14285704 0.14285704
000040 1e 49 12 3e 1e 49 12 3e 1e 49 12 3e 1e 49 12 3e
       0.14285704 0.14285704 0.14285704 0.14285704
000050 1e 49 12 3e 1e 49 12 3e 1e 49 12 3e 1e 49 12 3e
       0.14285704 0.14285704 0.14285704 0.14285704
000060 1e 49 12 3e 1e 49 12 3e 1e 49 12 3e 1e 49 12 3e
       0.14285704 0.14285704 0.14285704 0.14285704
000070 1e 49 12 3e 1e 49 12 3e 1e 49 12 3e 1e 49 12 3e
       0.14285704 0.14285704 0.14285704 0.14285704

decoders.0.decoder_net.6.running_var f4 [32]
000000 36 22 c1 3b 70 e5 90 3b 6d 02 b4 3b 81 c1 9d 3b
       0.005893971 0.0044218823 0.0054934532 0.004814327
000010 db db 83 3b e1 da ca 3b 26 ea 9b 3b 8c 84 3a 3b
       0.0040240115 0.006190643 0.0047581373 0.0028460352
000020 79 53 8a 3b 6f 68 9e 3b 64 d9 b5 3b 9c 26 87 3b
       0.0042213765 0.004834227 0.0055495966 0.0041244756
000030 86 fb 96 3b 58 ec 9c 3b 6d 4f 8f 3b 98 eb ad 3b
       0.0046076206 0.0047889166 0.004373482 0.005307626
000040 ef e4 b5 3b 67 7a 54 3b be 42 8f 3b 7d 8b 07 3c
       0.0055509727 0.003242159 0.00437197 0.008273003
000050 70 0c 6a 3b d4 aa 7e 3b ec 98 8f 3b 38 c9 c2 3b
       0.003571298 0.0038859146 0.0043822434 0.0059443973
000060 23 cc 60 3b 86 bb a9 3b 8e 06 85 3b 15 6b 83 3b
       0.0034301362 0.0051798252 0.0040596193 0.004010568
000070 cf 86 f2 3b ba 6f 07 3c a9 84 85 3b 28 1a 88 3b
       0.0074013243 0.008266384 0.004074652 0.0041535087

decoders.0.decoder_net.7.weight f4 [32, 16, 3, 3]
000000 66 99 07 bd 30 c4 07 3d ea 68 fa 3c 0e 82 96 bd
       -0.033105277 0.033146083 0.030567605 -0.07349025
000010 f1 1a 4a bd 4e f0 1f 3d af 9f 04 3c e7 9f 54 3d
       -0.0493421 0.03904753 0.008094712 0.051910307
000020 a8 a5 8b 3a 33 d1 8b bd fc 79 a9 39 70 3f 8c 3d
       0.0010654228 -0.06827011 0.00032325077 0.06848037
000030 ff 82 92 bd c7 77 f6 bc ff 07 e9 bc 5a 6d b8 3d
       -0.07153892 -0.030086411 -0.028446196 0.09005232
000040 f9 56 86 3d 88 c3 ec bc 2f 5b 28 bd 82 ad da bd
       0.065595575 -0.02890183 -0.041102584 -0.10677625
000050 2c 34 83 bc 1c 91 66 3c 2b ae 99 bd 5f 3b 31 3d
       -0.016016088 0.014072683 -0.07503923 0.04326951
000060 3c 11 00 bd 02 e9 cf bb d8 74 9b 3c a4 0c a2 3c
       -0.031266436 -0.0063449154 0.018976614 0.019781418
000070 91 bf e6 bd 02 7b 1f bc 3c a2 2e 3d 42 27 92 3c
       -0.11267007 -0.009733917 0.042635188 0.017840985
000080 1e 90 46 bd e8 6f ff bc a5 86 42 3d a1 9e 43 3c
       -0.048477285 -0.03118129 0.04749169 0.011939676
000090 6c 22 19 3d fc d4 c9 bd 39 83 95 3d f1 94 13 bd
       0.037386343 -0.09855077 0.07300419 -0.036030713
0000a0 8f d1 83 bd 78 e1 ff bc c7 60 63 3d b7 b1 22 3d
       -0.064364545 -0.031235442 0.055512216 0.039720263
0000b0 a7 31 65 3d 91 2e 87 3a 38 98 71 bd a0 eb fd 3c
       0.055955555 0.001031356 -0.058983058 0.030996144
0000c0 3a 7c 54 3d f7 2a b5 3d 38 25 0b 3d ab 29 81 bd
       0.051876284 0.088460855 0.03397104 -0.06306776
0000d0 b6 1b 17 bd f4 29 22 3c b9 ab 03 3d 11 58 92 b8
       -0.03689166 0.009897698 0.03214619 -6.978226e-05
0000e0 21 5f 0a bd 49 5e 59 3d 19 ff 3b 3d 81 d1 b1 bc
       -0.03378213 0.053068433 0.045897577 -0.021706345
0000f0 38 87 6b 3d ba 46 03 bd c6 f7 6a bc 85 d7 75 3d
       0.057502 -0.032049872 -0.0143413 0.06001999
000100 23 f0 ce 3b 8b ae 1c bb fa a4 b5 3d 4c 50 93 3d
       0.0063152476 -0.0023907747 0.088693574 0.0719305
000110 01 42 3f bd c2 a3 09 bc 37 36 af bc 26 48 c9 3b
       -0.046693806 -0.008400859 -0.021388156 0.006142634
000120 cb 25 ce 3d 2f 2b 70 bd ff 65 06 3c fd 2c 88 bd
       0.10065802 -0.058634933 0.008203029 -0.06649206
000130 0d 01 34 3c 92 f9 01 bd d7 27 60 bd 1d e6 33 3d
       0.010986579 -0.03173215 -0.054725494 0.043920625
000140 f0 30 3f bc 74 9a 41 bd 26 35 6f 3c fa fc 8e 3b
       -0.011669382 -0.04726644 0.014600074 0.0043636533
000150 f6 83 f8 3b 40 dc d6 bb 07 8e 02 3d 4e 59 70 3d
       0.0075840903 -0.0065570176 0.03187373 0.058678918
000160 c2 4e 98 bc 44 1e 0f 3d 8a 65 44 bc bf 8d 3b 3d
       -0.018592242 0.034940973 -0.011987099 0.045789476
000170 80 ba 8c bc d8 92 a0 bd ec 68 e6 bd 2f 05 4e 3d
       -0.017178774 -0.07840508 -0.11250481 0.050297912
000180 59 20 0a bd 3a d9 ad 3c 26 0f 9f 39 c2 2c 1b bc
       -0.033722255 0.021221746 0.0003033813 -0.00947112
000190 55 4a 98 3d e3 e8 bd 3c fb b8 7b 3d bf 66 c1 bb
       0.07436053 0.023182338 0.061455708 -0.005902141
0001a0 06 37 9d bc 7f 91 0f 3d a2 8c a9 3b 0a f0 5c 3d
       -0.019191276 0.035050865 0.0051742354 0.053939857
0001b0 0d f2 0a 3d e7 f1 c0 3d 0d 15 fc bc 77 f3 47 bd
       0.033922244 0.09421139 -0.030771757 -0.04881617
0001c0 8a db b5 bd 07 6d 2f bd 2a 4c 35 3c d6 c4 b9 bc
       -0.088797644 -0.042828586 0.011065522 -0.022676867
0001d0 e9 78 6d bb 71 4f 06 39 e5 59 08 3d 13 70 f4 bc
       -0.0036235398 0.0001280883 0.033288855 -0.029838597
0001e0 56 a1 5e 3d 6b d8 be bd c5 7b 02 bb 0f d7 cd bc
       0.05435308 -0.09318622 -0.0019910198 -0.025126962
0001f0 bd e6 0f bd e0 0d 07 bd 57 a0 34 3d 7c 36 52 bc
       -0.03513216 -0.032972217 0.044098224 -0.012830373
000200 86 1f 89 3c c4 6a 46 bd 2f 51 78 3c 34 bd bd bc
       0.016738664 -0.048441663 0.015156074 -0.023161508
000210 43 7a 9a bd 65 da d8 ba e7 35 f7 bc 39 01 48 3b
       -0.07542851 -0.0016544579 -0.03017707 0.0030518307
000220 c5 33 c9 3d ea 54 d0 bb b8 87 a5 bd a7 11 0c 3c
       0.098243274 -0.006357779 -0.08082527 0.0085491305
000230 41 fd 48 bc ef 57 1b bd d7 47 45 bd e6 3c 31 bc
       -0.012267412 -0.037925657 -0.048164215 -0.010817742
000240 02 96 c7 3c 8f 8d a9 3d b4 c7 d0 3a 68 31 95 bc
       0.024363521 0.08278953 0.0015928657 -0.018212035
000250 06 cd 4e 3d f8 65 79 bc 50 8b e5 3c 89 4d 64 3d
       0.050488494 -0.015222065 0.028020531 0.055738006
000260 c9 b5 da 3c c3 9e af ba e1 94 90 3d 0a d6 77 3c
       0.02669801 -0.0013398755 0.070596464 0.0151267145
000270 98 a7 a9 3c 9e 45 11 bd f2 f4 01 bb 99 dc c0 3c
       0.020709798 -0.035466783 -0.0019829837 0.02354269
000280 b7 47 5f bc cc 32 07 3d c1 3f cc bc 45 3e fa 3c
       -0.013627938 0.033007428 -0.024932744 0.03054727
000290 7a 85 8a 3d 1f d0 9e bd 38 86 c0 3c a0 ca d7 3d
       0.0676374 -0.0775454 0.0235015 0.105366945
0002a0 ce 85 d2 3c 91 73 4e bd 0b 75 9f 3c 02 62 13 3d
       0.025698569 -0.05040318 0.01946499 0.03598214
0002b0 df 84 cd 3c 1d ea 27 3d 15 85 87 3d b7 3c 92 bd
       0.025087772 0.040994752 0.0661718 -0.07140487
0002c0 21 af 40 bd 9d 5d 0f 3c 93 40 d4 3c ed 6e 4f 3d
       -0.047042016 0.0087503465 0.025909698 0.050642896
0002d0 4a 11 2b bd be 84 a3 3c e5 08 f8 bc 11 8f 85 bc
       -0.041764535 0.019960757 -0.030277679 -0.016303571
0002e0 72 c4 91 bc b6 ee 84 3c d7 2d 87 bd 6f 22 ab 3d
       -0.017793868 0.016227107 -0.0660054 0.08356177
0002f0 58 5e 1a 3d 72 be c9 bc 01 58 53 3d 61 e1 a5 bc
       0.03768763 -0.024626944 0.0515976 -0.02024907
000300 3e f1 e5 3b 05 3b 8f bd bc 85 65 bc c9 9a 8f 3d
       0.0070172837 -0.06993679 -0.014008936 0.07011945
000310 6b d4 41 bd 48 75 0b bd d4 92 82 bd 6b e7 ce 3c
       -0.04732172 -0.034047395 -0.063756615 0.025256833
000320 ba 4d c1 bc a6 bb 86 bd f4 ed 8b 3c e4 e8 b8 bc
       -0.023596633 -0.0657876 0.017081238 -0.022571988
000330 eb 5d 92 bd 56 5a ed 3c 7f 39 58 bd c8 4a 88 bd
       -0.0714682 0.02897374 -0.052789208 -0.066548884
000340 13 e3 81 bd 9a 93 4f 3d 34 f9 25 3d b6 b3 f4 bd
       -0.06342139 0.050677873 0.04052086 -0.1194834
000350 88 02 a2 bd 36 bc 80 bd 1d d2 af 3a bb 04 63 bd
       -0.07910639 -0.062858984 0.0013414059 -0.055424433
000360 dd 4c 79 3d cd bc 0d bd 27 14 31 bd c1 b4 26 bd
       0.06086432 -0.034603883 -0.04323211 -0.040699724
000370 be 5a a5 3d 4b 0e 28 bd 03 82 86 bd 3f ff 14 bd
       0.08073948 -0.041029256 -0.065677665 -0.036376234
000380 7c 23 46 bc f7 5e 8c bd 89 41 c8 bc db 12 e6 bb
       -0.012093421 -0.068540506 -0.024445312 -0.0070212907
000390 f9 1e 24 3d 11 c5 c8 3c 91 4d 81 3d 38 50 12 3d
       0.0400686 0.024508031 0.06313623 0.035721034
0003a0 27 db b1 3d 69 65 0f 3d 8c 40 80 3d a5 73 da 3c
       0.08684378 0.03500882 0.06262311 0.026666472
0003b0 2a cf b2 bc 81 51 42 bd ca 93 d6 bc 3c 51 6c bc
       -0.0218273 -0.04744101 -0.026193518 -0.014423665
0003c0 13 1f 2b bd 7f 37 41 bd e4 2d 68 3d 2d 67 83 3c
       -0.04177768 -0.047172066 0.05668439 0.016040409
0003d0 98 72 6c 3d 4c 10 34 bd 08 6d 13 bd fa 45 ab ba
       0.057726473 -0.043960854 -0.035992652 -0.0013067119
0003e0 b8 74 0d bc a8 04 5a bd 11 2f 08 bb a8 d2 ec bc
       -0.008633785 -0.053227097 -0.0020780007 -0.028909042
0003f0 bc 3e 86 bd 5e e1 35 bc 09 8c 52 bd 86 e7 f6 bc
       -0.065549344 -0.011101095 -0.05140308 -0.030139696

decoders.0.decoder_net.7.bias f4 [16]
000000 00 94 d7 3d b7 01 ac bc bc 69 e0 3c 63 69 1f 3e
       0.10526276 -0.020996911 0.027394168 0.15567546
000010 cd 93 e7 bd 2d e1 26 3d a4 f4 b0 3d e6 19 fc bd
       -0.11307488 0.040742088 0.086404115 -0.12309627
000020 60 7d 81 bc f9 e6 d4 ba 31 98 e0 bc c3 b0 9b bc
       -0.015806854 -0.0016243152 -0.02741632 -0.019005185
000030 a9 ac d7 3d ef 8a 0f 3d f7 a9 20 3d 2b 7f 7c bd
       0.10530979 0.035044607 0.03922459 -0.061644714

decoders.0.decoder_net.9.weight f4 [16]
000000 aa 1d 6e 3f 6f 43 66 3f 1d 19 80 3f db 46 6e 3f
       0.93014014 0.89946645 1.0007664 0.93076867
000010 e4 dc 63 3f 80 32 69 3f 1f f8 6d 3f 42 3e 67 3f
       0.8900893 0.9109268 0.9295673 0.9032937
000020 6d b4 73 3f ca 1d 69 3f d3 5d 73 3f 3b bf 6f 3f
       0.9519718 0.9106108 0.9506504 0.9365117
000030 43 39 6c 3f 4c 6c 69 3f b1 f3 71 3f 14 ed 65 3f
       0.92274874 0.9118087 0.9451247 0.8981488

decoders.0.decoder_net.9.bias f4 [16]
000000 05 13 09 3e d2 23 bf bd 67 fb 89 bd a4 d9 2e 3d
       0.13386162 -0.09333004 -0.06737404 0.042688027
000010 b9 aa c6 bd e4 3e 0f 3e 83 fd f8 3d be 65 db bd
       -0.097005315 0.13988835 0.121577285 -0.10712765
000020 77 47 4a bd c8 67 32 3e 2b 40 c9 bd e7 87 b3 3d
       -0.04938456 0.17422402 -0.09826692 0.08766156
000030 1e 3d a4 bd c9 7e ef bd de ee 2e be 23 90 8c bd
       -0.0801947 -0.11694104 -0.17083308 -0.068634294

decoders.0.decoder_net.9.running_mean f4 [16]
000000 1e 49 92 3d 1e 49 92 3d 1e 49 92 3d 1e 49 92 3d
       0.07142852 0.07142852 0.07142852 0.07142852
000010 1e 49 92 3d 1e 49 92 3d 1e 49 92 3d 1e 49 92 3d
       0.07142852 0.07142852 0.07142852 0.07142852
000020 1e 49 92 3d 1e 49 92 3d 1e 49 92 3d 1e 49 92 3d
       0.07142852 0.07142852 0.07142852 0.07142852
000030 1e 49 92 3d 1e 49 92 3d 1e 49 92 3d 1e 49 92 3d
       0.07142852 0.07142852 0.07142852 0.07142852

decoders.0.decoder_net.9.running_var f4 [16]
000000 b8 e4 66 3b ea 5a 0a 3b bb 9d a1 3b d7 9b 0b 3b
       0.0035231542 0.0021111318 0.004932133 0.0021302605
000010 57 50 14 3b b2 d8 03 3b fc 7e 51 3b 5c f8 a4 3a
       0.0022630894 0.0020118174 0.0031966558 0.0012586224
000020 a3 5d 8c 3b 00 ec 5e 3b 18 4d 49 3b 75 ff 1a 3b
       0.0042836233 0.0034015179 0.0030716117 0.00236508
000030 db ab 39 3b c3 a4 0d 3b 2e e1 77 3b 6c e7 0e 3b
       0.0028331194 0.0021613098 0.0037823427 0.0021805419

decoders.0.decoder_net.10.weight f4 [16, 1, 3, 3]
000000 d8 41 45 be 50 f2 2f 3e 27 c0 24 be 8f 3e 0f be
       -0.19263399 0.17182279 -0.16088925 -0.13988708
000010 b8 83 87 3e e7 0d 04 3e e7 5f ea bd 4b f9 a6 bd
       0.2646768 0.12895928 -0.11444073 -0.081530176
000020 83 f9 85 3c 90 e0 84 3c e2 c3 a5 3c f7 91 71 bd
       0.016354328 0.016220361 0.020235006 -0.058977094
000030 e1 9b 38 be a9 5e 2c be 08 89 1c be 32 cc d4 bd
       -0.18028213 -0.16832985 -0.15286648 -0.1039051
000040 c4 6e 79 3d fb 5d 18 be ba f6 c8 3d ae 56 bf be
       0.06089665 -0.148796 0.09812684 -0.3737082
000050 e3 f5 8c be 54 45 3a be 29 9a af 3d b1 c1 65 bd
       -0.27531347 -0.18190509 0.085743256 -0.05609292
000060 7b 88 9f bc 31 5f 31 3d 78 37 e5 3d 06 b1 58 3e
       -0.019474259 0.043303672 0.111922204 0.21161279
000070 87 95 4e 3e b5 c3 5c 3d d2 8f 83 3e d5 3a 08 3e
       0.20174228 0.05389758 0.25695664 0.13303693
000080 fc ef b3 3c 00 dd 1e 3e 64 90 d0 bc d8 2e 55 bc
       0.02196502 0.15513992 -0.025459476 -0.013011657
000090 8d af c1 bc e4 88 70 bd 56 58 15 3d ae 81 60 be
       -0.02364328 -0.0587243 0.036461197 -0.21924469
0000a0 60 b6 40 bd cc a8 6f be 24 23 df bc 3d 6e 80 3d
       -0.047048926 -0.23404235 -0.027238436 0.06271026
0000b0 bd e9 02 be ed 40 49 3d 2f 13 9b 3d 83 a4 c1 3d
       -0.12784477 0.049134184 0.07572018 0.09455206
0000c0 cf 8d 81 bd 8b 36 2d 3e 34 01 83 3b ea e1 36 be
       -0.06325876 0.16915338 0.003997946 -0.17859617
0000d0 ca 6d e0 3d b8 71 5a 3e b3 70 79 3e 14 4a 4f be
       0.109584406 0.21332443 0.24359398 -0.20243102
0000e0 08 24 e1 3d 9e 48 41 3e 06 a5 d1 3d b0 0f 63 bd
       0.109932005 0.18875358 0.10236554 -0.055434883
0000f0 0f a6 81 be b1 1e 1d 3e a2 2f 19 3e 36 c4 4e 3c
       -0.25322005 0.15343739 0.14959577 0.0126200225
000100 bb c7 e2 3c ad 65 2c 3d d8 2d a4 bd 2e 63 75 be
       0.02768313 0.042089153 -0.080165565 -0.23963615
000110 52 5a 22 be b9 4a ab bd 12 f6 5a be 6a 8e 41 be
       -0.15854767 -0.083638616 -0.21382931 -0.18901983
000120 d5 f2 81 be 97 9b df 3d 10 46 75 be 41 0e 95 bd
       -0.2538058 0.10918348 -0.23952508 -0.07278109
000130 64 6e 65 bc 54 42 b1 bc 35 25 63 bc c4 d6 ba bc
       -0.01400337 -0.021638073 -0.013863851 -0.022807486
000140 9d b9 10 be 38 d4 b2 bd bd 91 38 3d 42 8f 16 be
       -0.14133306 -0.08731884 0.04506086 -0.14703086
000150 d7 63 36 3e 67 f2 8b 3e 6a 00 96 3e 46 44 0d 3e
       0.17811523 0.27333376 0.2929719 0.13795575
000160 85 21 23 be 49 de f0 3c fc 22 15 bd 9d 44 a1 be
       -0.15930755 0.029402869 -0.036410317 -0.3149766
000170 45 a7 22 be c6 ee 6f 3e 5f e6 84 be 51 27 87 bb
       -0.15884121 0.23430929 -0.2595701 -0.00412456
000180 08 f2 da 3d 22 33 c9 bd 5f a2 07 be 7b 9a 00 3e
       0.10690695 -0.09824206 -0.13245533 0.1255893
000190 db 91 0e 3e 56 4f ec bc 66 b3 82 3e 0e 87 66 3e
       0.13922827 -0.028846424 0.25527495 0.22512457
0001a0 76 bb 50 3e b0 01 6f 3e 44 bd 73 3e d7 c7 03 3e
       0.2038401 0.23340487 0.23802668 0.12869202
0001b0 d7 b0 67 be 5c 7b 4a bc 37 b3 35 3d 4f f5 7e be
       -0.22626053 -0.012358513 0.044360366 -0.24898265
0001c0 36 b9 12 be 18 f9 0b be 9b 51 47 be fe 1b c9 bd
       -0.14328465 -0.1366924 -0.19464724 -0.09819792
0001d0 24 5f 0f 3e 92 cf 45 3e b6 8c 6d bd eb dc f0 3d
       0.14001137 0.19317463 -0.05799552 0.11760887
0001e0 ea 86 36 be 2a 12 fb bb 94 57 fe bd bd f3 d0 bd
       -0.17824903 -0.0076620774 -0.12419048 -0.102027394
0001f0 73 cc bf bd cd 7e b4 3d 1a c9 83 bb 93 59 1c be
       -0.093651675 0.08813248 -0.004021776 -0.15268545
000200 c4 26 bb 3d 70 5e 67 3c a2 6d b0 be a9 2a 89 bd
       0.09138253 0.014121637 -0.34458643 -0.0669759
000210 a7 6e 5c 3e 83 cd 07 3e a7 51 66 be 9c 0a 1e bd
       0.21526586 0.1326199 -0.22492085 -0.038584337
000220 91 72 1e 3c fe 05 cd bd 13 43 b8 bc df 78 2f be
       0.009670869 -0.100109085 -0.022492921 -0.17135952
000230 36 8c 28 3e d3 69 94 bd 97 3a 91 be cf 9b 3b be
       0.16459736 -0.07246747 -0.28365013 -0.18321155

decoders.1.decoder_net.0.weight f4 [512, 2]
000000 74 13 02 bf 9d eb a7 bd 35 c9 23 3f 85 18 43 3e
       -0.50810933 -0.081992365 0.6397889 0.19052322
000010 ea a1 9e be a7 17 2f bf 0a 95 ad be ea 46 31 bd
       -0.30982906 -0.68395466 -0.3390277 -0.04328052
000020 de b4 17 3f 5f d1 d5 be 04 80 58 3e c4 b7 12 3f
       0.59260356 -0.417613 0.21142584 0.57311654
000030 f6 e8 1b 3f 17 a7 3b be 00 f1 9f be 16 4e 87 be
       0.60902345 -0.18325458 -0.31238556 -0.26426762
000040 1a f2 ee 3d 9e 4b ec 3e e6 30 4a 3e dc 0e 17 be
       0.11667271 0.4615144 0.19745216 -0.14751762
000050 05 7c 89 3d 7c b9 17 3f 70 6d 35 3e 78 0a dc 3e
       0.06713108 0.592674 0.17717528 0.42976737
000060 b8 0e c7 3c 41 ae 28 bf 6d 40 f7 be 09 78 12 3f
       0.02429901 -0.6589089 -0.4829134 0.5721441
000070 84 ba 31 3f fc 68 e1 be 50 2e e5 be 96 f7 47 3b
       0.69425225 -0.4402541 -0.44761896 0.0030512563
000080 bd 76 08 3f ab e7 18 bf 62 d0 27 3e 62 41 f7 3d
       0.5330618 -0.597285 0.16388085 0.12073018
000090 c7 dc 1f bf 1a 6a b0 3d c7 b5 95 be c3 f3 98 3d
       -0.62446254 0.08613987 -0.29240248 0.07468369
0000a0 e3 57 31 be e4 ee c0 be 68 d6 33 3f 3e 1c 16 3d
       -0.17318682 -0.3768226 0.7024903 0.036648028
0000b0 b2 80 14 3f 86 50 0d 3f 37 44 5d be f3 b8 a5 3e
       0.58008873 0.55200994 -0.21608053 0.32367668
0000c0 7d 45 10 3f 85 71 0f bb 05 15 d5 be 1c 33 5a bf
       0.5635603 -0.0021887731 -0.416176 -0.85234237
0000d0 1b 79 cc be 54 c7 0a 3f dc 3d c5 be 6f de d5 3e
       -0.39936146 0.542104 -0.38523757 0.41771266
0000e0 22 4a 95 be 70 b1 3d bf 4d 78 d8 3e 10 ba 3f 3e
       -0.2915812 -0.74098873 0.42279282 0.18723321
0000f0 dd 95 44 3f 0a 2e ea 3e bc b5 84 be 0b 9f f2 3e
       0.76791173 0.4573825 -0.25919902 0.47386965
000100 8a 62 90 3e 76 87 17 3f 6e d9 fd 3e 18 43 39 3f
       0.2820018 0.5919107 0.49579948 0.72368
000110 34 52 06 3f 6d 8b aa 3e d3 9a a6 be 32 1a d9 3e
       0.5246918 0.33309498 -0.32539997 0.42402798
000120 20 e9 65 3e e8 af 20 3f a9 52 35 3e 76 2b ee be
       0.22452211 0.6276841 0.17707314 -0.46517533
000130 03 8a e7 be 5f f4 83 bc 54 19 a1 3e 25 4d 95 be
       -0.45222482 -0.016107736 0.31464636 -0.2916042
000140 d3 74 3c 3d 51 a7 cd 3c dd 34 08 3f ec e8 4e 3f
       0.04600985 0.025104197 0.5320566 0.8082416
000150 a0 dc fe be ca 69 dd 3e c1 d8 13 bf b5 90 91 bd
       -0.497777 0.43244773 -0.57752615 -0.07107679
000160 75 d2 34 3e 86 bd 5f be 87 6d 97 bd f4 74 26 bf
       0.17658408 -0.21849641 -0.073939376 -0.65022206
000170 96 a6 36 3f b4 1b 75 be bf ce 89 3e d9 25 3b be
       0.7134794 -0.23936349 0.26915547 -0.18276156
000180 c8 1a 11 3e 33 e1 43 bf 87 d4 9b 3e 53 6f 35 3e
       0.14170372 -0.765155 0.30435583 0.17718248
000190 d2 ce ce bd 14 ca 90 be 46 ee 84 be 88 76 10 3f
       -0.100980416 -0.28279173 -0.25963038 0.56430864
0001a0 37 67 cb be d2 ab 0c 3f 59 84 01 bf d3 dd 2d bf
       -0.39727184 0.54949677 -0.5059257 -0.679166
0001b0 40 b7 a5 3d da 98 0f 3e ab 5e 1c bf 44 79 0e 3f
       0.08091593 0.14023152 -0.6108195 0.55653787
0001c0 8b cf 27 bf 45 8b f1 be 4c fe a8 be dc d7 29 3f
       -0.6555106 -0.47176567 -0.33006513 0.66345
0001d0 0d cb ce 3e 85 12 f6 bd d3 28 09 be c0 de fc 3e
       0.4038929 -0.12015251 -0.1339448 0.49388695
0001e0 f0 94 d9 3e 24 ff 3f be 6b 30 52 be 9b 80 f8 be
       0.42496443 -0.18749672 -0.20526282 -0.48535618
0001f0 9d ff ff be 65 d9 04 3f 8f e4 2d bf 2d 49 e0 3e
       -0.49999705 0.5189422 -0.6792688 0.4380583
000200 65 c7 a3 3e 29 69 cb be ce ea 1a 3f df 33 01 3e
       0.31988063 -0.39728668 0.60514534 0.12617444
000210 89 a0 42 3f 88 65 7b bc e2 cf 30 be a8 5e aa be
       0.7602621 -0.015344031 -0.17266801 -0.33275342
000220 03 01 ac bd 37 d7 09 3e d6 03 98 be 1e 22 c7 be
       -0.083986305 0.13461004 -0.29690427 -0.38893217
000230 85 b6 9f 3e f1 e2 48 be 9e 81 16 bf f0 3c 19 bf
       0.3119394 -0.19617821 -0.5879153 -0.5985861
000240 39 1c 83 3e b8 c5 10 3f af e7 2e 3f 7e b8 f7 bd
       0.2560747 0.56551695 0.6832227 -0.12095736
000250 28 bd ca 3e da 94 21 3e 34 83 0a bf 37 d7 af be
       0.3959744 0.15779439 -0.5410645 -0.34343883
000260 95 3c 57 be a2 cb 1b 3e 2d cc f1 3e 40 64 c9 be
       -0.21019204 0.15214399 0.47226086 -0.39334297
000270 21 fb b4 be ec 01 f9 bc c2 2b 04 bf fa 34 a9 be
       -0.35347846 -0.030396424 -0.5162927 -0.3304823
000280 12 6a 0e 3c c7 17 24 3e c6 ba 33 3e 69 c4 31 3f
       0.008692281 0.16024695 0.17551717 0.69440323
000290 69 67 47 3e 20 79 07 3f a7 63 2e 3f 61 b1 08 bc
       0.19473042 0.529192 0.6812081 -0.008343072
0002a0 b4 d7 12 3f 12 c0 1e 3f a2 42 9b 3c 15 95 6c be
       0.57360387 0.62011826 0.018952671 -0.23103745
0002b0 05 fe 3e 3f cf 7a 35 3e 15 d5 14 be c4 f0 9a 3e
       0.74606353 0.17722629 -0.1453441 0.30261815
0002c0 c6 4e d9 3c 47 a5 c3 3d f2 b9 22 3e cd b2 0a 3f
       0.02652682 0.095530085 0.15891245 0.5417908
0002d0 fc 3f 14 3f 15 31 04 bf db 81 ea 3d 57 b4 83 be
       0.5791013 -0.51637393 0.11450549 -0.25723526
0002e0 35 1e 98 ba 61 72 de be 48 5b 53 3e 3a aa 11 bf
       -0.0011605682 -0.4344664 0.2064029 -0.5690037
0002f0 b1 55 f0 3e b5 2a 35 be 92 41 16 3e f0 4f 03 bf
       0.46940377 -0.17692073 0.1467345 -0.5129385
000300 29 0c 02 3e 6e 38 14 bf 99 c9 50 bf 76 e5 06 3f
       0.12699951 -0.57898605 -0.81557614 0.5269388
000310 52 bf bd bd 3d 7e 63 be 10 a1 fc bd 8c 83 bf 3d
       -0.09265007 -0.22216125 -0.12335408 0.093512625
000320 eb c1 e8 be c2 90 79 3e 5c 28 c4 3e 47 dc 1f be
       -0.45460448 0.24371627 0.38312042 -0.15611373
000330 e7 fc 92 3d 26 23 36 3e b1 78 3c 3e 22 a9 3f bf
       0.071771435 0.17786846 0.18405415 -0.7486745
000340 28 ec 18 bf 8f 2a 2d 3e 59 9f 88 bd 17 4d 42 be
       -0.59735346 0.16910766 -0.06671018 -0.1897472
000350 33 b3 08 3f e3 b1 c5 3e 08 48 d1 be b2 54 9c be
       0.53398436 0.3861228 -0.40875268 -0.30533367
000360 f8 5e 4e 3d 00 bf 39 be a5 45 bd 3c 3a 52 32 be
       0.050383538 -0.18139267 0.023104498 -0.1741418
000370 0a 41 3e bd b1 9a ad 3d 13 ac 79 be 99 0b f0 3e
       -0.046448745 0.08476771 -0.24382047 0.46883848
000380 71 ed 81 bc e9 ef 05 3e 2b a0 0c 3f 42 87 1f 3f
       -0.015860291 0.130798 0.54931897 0.6231576
000390 3a 01 1f 3b b4 f0 1b 3f f0 a6 80 be df b0 e5 3e
       0.0024262206 0.6091416 -0.25127363 0.44861504
0003a0 b6 b1 2a 3f ac e0 19 bf 8f c2 2a 3e 4d d6 c1 be
       0.66677415 -0.6010845 0.1667578 -0.3785881
0003b0 a6 c8 42 bf c5 86 7a 3e cd 6b 55 be cf 77 ca be
       -0.76087415 0.24465473 -0.20841904 -0.39544532
0003c0 5b 0e e2 3e 5b 50 28 3f a5 60 7e be 01 51 f8 be
       0.44151577 0.6574761 -0.24841554 -0.484993
0003d0 f8 8b 24 bf bf 29 85 3e d6 a4 3c 3c 14 9c 18 bf
       -0.64276075 0.26008412 0.011513909 -0.59613156
0003e0 ac e9 25 3f 83 0b 12 bf bb e4 56 be ab 46 9f be
       0.6480968 -0.57048815 -0.20985691 -0.31108603
0003f0 a2 ce 3c 3e 74 47 de 3e 9d 96 87 be b4 56 df 3e
       0.18438199 0.4341389 -0.26482096 0.43620837
