miniproject2/experiments/ensemblyVAE/ND2/modelSeed988nD2.pt (torch, 215616 bytes, 56 tensors)

prior.mean f4 [2]
00000000: 0000 0000 0000 0000
0.0 0.0

prior.std f4 [2]
00000000: 0000 803f 0000 803f
1.0 1.0

decoders.0.decoder_net.0.weight f4 [512, 2]
00000000: a5bd ea3e d5a1 963e d885 133f e672 ea3d
00000010: faa4 263f e254 14bc 35e8 b93e e466 b1be
00000020: fb92 5a3d 5ae0 dbbd b112 233f 45af f13d
00000030: 3633 d7be 05d1 143a 0be8 e93e c4ea 053f
00000040: 920b 86be 070e 1abf a6fe 9cbd 6e12 34bf
00000050: cbb0 2e3f 53b3 0cbf 260b 4e3e 6af4 01be
00000060: 8f4d 2d3f 3491 c5be cb73 60be 27a8 7a3f
00000070: 7dae d33d 62c5 fabe 55ee 04bf 1aba 97be
00000080: ac01 24bf 8e65 6a3e 0949 05be 990a 9dbe
00000090: 8ab9 d23e 161a 6c3e a89d 96be eeb7 c43d
000000a0: 940d 5c3e 2674 9fbe faa2 f53e f6b0 563d
000000b0: 5303 1a3f 3dac 6f3e 71ab 27bf 90a3 62be
000000c0: ed15 0dbf ddc0 01bf 9939 17bc 60dc 5ebe
000000d0: 113f 103f f380 803d 07f6 a5be bbd7 143b
000000e0: bf58 85be d428 09bd bf1b 863e 234d 3f3d
000000f0: d73d 683e f09d 0c3f 0034 bc3e 956f 07bf
00000100: 5709 7bbe 5b65 fbbc d389 bdbe 3797 823d
00000110: c3d2 183f 3b16 2ebe 6dd5 883d 7cc9 1e3f
00000120: fa7d 043f a148 a6bd e7ce aebe 0ca3 fd3d
00000130: e763 d63e 9042 583f 28e5 4a3f 5e8e 3abe
00000140: 4be1 b5be dd33 963e a87d e2be 3de1 2e3f
00000150: 8992 a2bd 7b49 ad3c 0c1e 2fbf 3e40 af3e
00000160: 556b debe f01f 0abf f546 f4bd ceb6 ae3e
00000170: ed18 0c3f cc43 483e fdad 0bbf 897e 0a3f
00000180: 117d cbbe 828d 723d 1ebf a53e b2a0 30bd
00000190: e1bf 74bf 17e2 34bf cdd9 83be 1b97 413e
000001a0: 5a49 233f 467a 493e 8729 6bbe 7e67 49be
000001b0: 7810 353f 9c46 303f c43e 113f 0cde 653e
000001c0: d884 c43e 720e 893e 81f5 023f 28e0 813e
000001d0: f1bc be3e 2b80 c3be 16ff 97be a5d5 7ebc
000001e0: 0f32 a93e 4a13 193e 0fd1 b83e a773 8abe
000001f0: 71ed 363f d97c fcbc 90d7 6f3e 9ebb 753d
00000200: 8a64 373d 0bc6 193f b59c 1fbe 1e92 89bc
00000210: 47e4 443f d72f a1be 22e9 95be 8b5b 04bf
00000220: 7b10 d3be 228f 303f 6be1 93bd 3412 8bbe
00000230: 2a63 bf3e ad94 ee3e c732 8c3e c087 5d3f
00000240: fae0 71be a1b3 be3e 8bc8 93bd 491b 8bbe
00000250: d3cb 253f ecef 38bf b369 e439 95dd b53e
00000260: 5322 78be 84e8 93be e399 2f3f faaf 883e
00000270: 4746 253f 5b4d ae3d e7fb d1bd 0981 11bf
00000280: 6dec 46bd 8f8f 26bf 8864 4f3f 3b00 05bf
00000290: 7cf3 05bb c071 8dbd 7ca3 aabe 5af2 da3e
000002a0: c8fd 343e 1263 af3e d454 e7be 9e10 fabc
000002b0: a78c 62be b69c 343f 8103 11bf e3bb a43e
000002c0: 038f efbd ef4d 61be a1d7 153f 320d 73bd
000002d0: 52b3 d4be c2e7 883d c79d 33bd 38bb ecbe
000002e0: aaec 17be bf80 143f 9a9d ed3e b421 4fbe
000002f0: 7fdf c7be dd14 06be 8aa4 be3e b8da ccbc
00000300: 7200 413f 2894 6e3e 8bfd 053f 21b7 823d
00000310: be67 16bf 1bbd 3c3f 5f46 2fbf 6402 043e
00000320: c787 c93e 4365 ce3e be9e 743f 6136 07bf
00000330: 429b 323f 8ad4 103e ad6e 78be 9bde 563e
00000340: 08ae 0abf 4f34 a6be 4f2f 0c3f 125b aabe
00000350: c595 be3e 3d1b 3abf 029b d7be 408d 0bbe
00000360: 1603 003e 256c d3be 7176 24bf 8295 ca3e
00000370: 59a7 2bbe 3416 e73d 4ecc cebe 9095 5e3e
00000380: 0a29 943e 012f a93e 4cc5 353f 541a b13e
00000390: 4884 503d 0f42 0a3f a4b4 bdbd 36e1 32be
000003a0: 162b 27bf 5fdb acbe 7c70 0bbf 7f9e b3be
000003b0: 0044 39bf 93a7 323f b3dd 35bf 35b4 bebe
000003c0: 1624 bdbe 12c4 b5be 4c12 9abe 106a aebe
000003d0: 48cf 643f 6afc 06bf 4d92 5ebe a499 e5be
000003e0: 4d30 b0be ef41 58be 65c2 13bf a639 cebe
000003f0: 2558 d33e 31aa 1f3f 98c3 ccbe 067b 61be
0.45847812 0.29420343 0.57626104 0.114476964 0.65095484 -0.009053441 0.36309972 -0.34648812
0.053362828 -0.10736151 0.63700396 0.11801008 -0.42031258 0.0005676898 0.45684847 0.5231135
-0.26180702 -0.60177654 -0.07665758 -0.7034062 0.68238515 -0.5496113 0.2012144 -0.12690893
0.6769647 -0.38587344 -0.21919172 0.9791283 0.103360154 -0.48978716 -0.51926166 -0.29634172
-0.6406505 0.22890303 -0.13016142 -0.30672148 0.4115718 0.23056826 -0.29417157 0.09605394
0.21489555 -0.31143302 0.47975904 0.052414857 0.6016132 0.23405547 -0.65495974 -0.22132707
-0.5511158 -0.5068491 -0.009230041 -0.21763754 0.5634623 0.06274595 -0.32414266 0.0022711593
-0.2604427 -0.033486202 0.26193044 0.046704423 0.2267984 0.54928493 0.36758423 -0.52904636
-0.24515282 -0.030687978 -0.37019214 0.06376498 0.59696597 -0.17000668 0.06681333 0.6202619
0.51754725 -0.081193216 -0.3414223 0.12384614 0.41873094 0.84476566 0.79255915 -0.18218371
-0.35523447 0.29336444 -0.44236493 0.68312436 -0.079381056 0.021153202 -0.6840522 0.342287
-0.43441263 -0.5395498 -0.119275965 0.34123844 0.54725534 0.19557112 -0.5456236 0.5409933
-0.39743856 0.059216984 0.32372373 -0.043122 -0.95605284 -0.70657486 -0.25752106 0.18905298
0.637838 0.1967555 -0.2296506 -0.19668385 0.70728254 0.6885774 0.567364 0.22447985
0.38382602 0.26768833 0.5115586 0.2536633 0.37253526 -0.38183722 -0.29686803 -0.0155538665
0.33046004 0.14948764 0.36097 -0.2704136 0.71456057 -0.03082125 0.23422074 0.05999338
0.044773616 0.60067815 -0.15587123 -0.016793307 0.76910824 -0.3148181 -0.2927943 -0.51702183
-0.4122351 0.68968403 -0.072207294 -0.27162325 0.37380344 0.46597806 0.2738249 0.86535263
-0.23620978 0.3724642 -0.07215985 -0.27169254 0.64764136 -0.7224109 0.000435663 0.35520616
-0.24231844 -0.28888333 0.6859419 0.2669676 0.6456036 0.08510848 -0.10253125 -0.5683752
-0.048565317 -0.65062803 0.81012774 -0.51953477 -0.0020439317 -0.06906462 -0.33327854 0.42763025
0.17674935 0.34255272 -0.45181906 -0.030525502 -0.22123967 0.7055162 -0.5664597 0.32174596
-0.11697199 -0.22002386 0.5853215 -0.059338756 -0.4154306 0.06684829 -0.04385164 -0.46236587
-0.14836374 0.5800895 0.46409303 -0.202277 -0.390377 -0.13093896 0.37234908 -0.025006637
0.75391304 0.23298705 0.5234 0.06382585 -0.5875205 0.7372605 -0.6846675 0.12891537
0.39361402 0.40311632 0.9555472 -0.5281735 0.69768155 0.14143577 -0.2426097 0.20983355
-0.541718 -0.32461783 0.5475969 -0.33272606 0.3722364 -0.7269781 -0.4211045 -0.13628101
0.12501177 -0.41293445 -0.6424323 0.3956719 -0.16763057 0.11283532 -0.40390247 0.21736741
0.2893756 0.33043674 0.71004176 0.345904 0.050907403 0.5400705 -0.0926297 -0.17468724
-0.6530012 -0.33761117 -0.5446851 -0.3508186 -0.72369385 0.6978695 -0.7104141 -0.37246862
-0.36941594 -0.35501152 -0.30092084 -0.34065294 0.89378786 -0.52728903 -0.21735497 -0.4484378
-0.3441185 -0.21118902 -0.577185 -0.40278357 0.41278186 0.62369066 -0.39992976 -0.22019586

decoders.0.decoder_net.0.bias f4 [512]
00000000: 4b74 5bbe baa6 eebe 0129 423f 60b2 423f
00000010: 3047 723e 5084 c23e b8ca 47be 085c d5bd
00000020: 9f29 f0be e201 573e a95e a4bc 1da8 a93e
00000030: fc57 01bf 5c39 ca3e 6090 98be 05d7 adbd
00000040: bbc9 3fbf d547 493f 83c3 27be f1ac 33bf
00000050: 2db7 e7bd 37d3 8fbe f2c4 253f 0533 673e
00000060: 848f 093f edad 40be 830a 2a3f 13d8 323f
00000070: 1252 133f 28f5 2a3f 91f1 1dbe ef99 853e
00000080: 3222 ddbe 2408 323f a137 e03e e97a 453e
00000090: 042d d53e 55a3 e5be 70fb 13bf a886 f53e
000000a0: 8ae2 163c bc5c 2bbf 6c6e e1bd 1602 233f
000000b0: 0c6a 943e 70ea c93e 570d 14bf 1d3e cb3d
000000c0: 10cd 8ebe eaa2 353f f1ba f23e 835f b33e
000000d0: ceb3 05be 27cd 3fbf 019a 723e 9abe df3e
000000e0: 6ad5 413b 534d 3e3f 9412 223f b073 1d3f
000000f0: 4976 f3be 1707 f23e ca4f 453d c4cb a63e
00000100: becf 2fbd 55b4 503e bc07 f93d 9469 1f3f
00000110: 617b 173f 1431 15bf 9d5f 9ebe d86e 233f
00000120: d07a b5be 6480 1a3f 6246 5bbe fa09 88be
00000130: cf7a bbbc 6602 ba3e 3f78 36bf 1713 d9be
00000140: a100 013f bfff 3f3f 91cc e83e a21a e13c
00000150: 54b8 4f3e 10e3 97be bf43 e23e 0016 033f
00000160: 6102 3d3e 9b4a cfbe d1ba c4be cc99 0c3f
00000170: de6e e7bd a128 93ba 41b4 253f 95b2 f13d
00000180: ecad e93d 2f09 063e 732f 0e3d 5ef0 17bf
00000190: 702d 93bd 7159 5bbf cf05 8dbe 4c53 413e
000001a0: 947f 9fbe 987d aa3d 0985 25be bac8 0d3f
000001b0: 7c3f f83e 4ad4 14bf 2179 9cbe 4cd7 25bf
000001c0: 27fc fb3e de51 83be b3a7 7c3e 8654 d03d
000001d0: 688a 20bf 3745 1b3e 9199 6c3f 4a67 29bf
000001e0: 992f fbbd e9b6 0cbf 05c0 15bf 633a dc3e
000001f0: 65da 3b3f 987e 4c3b f222 47bf 1ae1 133f
00000200: 4127 1abe 4bef a33e 6c64 91be 7c3b c7bd
00000210: 58e4 d63e 3c3f 06be 11b8 043f 1ddf a13e
00000220: 719e ecbe 0589 7b3e 4068 ad3d 2fec f1be
00000230: 024a 75bd d353 e33d 6f61 f93d 5c5c ca3e
00000240: 412c 94be e599 063f 5203 9ebe 8de7 023e
00000250: 36d1 33bf 75d8 9a3e 075c 9c3e faa7 b8be
00000260: 7016 30bf 8b2f afbe 650b 4f3e 7953 3e3f
00000270: 0003 f23e 293c 4fbf 2d4a 8e3e f37c 0a3f
00000280: 76c7 a9bd 4818 3f3f 4a14 653f f67f 27bf
00000290: 230e 1c3f ca47 b6be 2555 25bf 4534 093c
000002a0: 795d 27bf 5ec3 3bbe 3d0d 01bf 8b08 023f
000002b0: 854e 043f 82b2 0f3f e27c f43e b389 ae3d
000002c0: 988c 1fbe 197f 01be f18e ef3e 0fdd 383f
000002d0: 814e e23e fb22 e03e eea3 0f3f 0a98 80be
000002e0: 652f 42be 8bdf 2abe 160e 63be 9b87 433f
000002f0: b737 3b3d acfc dfbb d552 0a3f 848c e53e
00000300: 1c38 103f 8236 ecbe cfe9 89bc b701 41bf
00000310: 0678 1bbf 615c 0d3f 33e9 fd3d 36aa 06bf
00000320: 40e4 a33e 73ef 243f 1614 7c3e b1f9 5e3e
00000330: 703e 0a3f 2719 123d 4879 8e3e fa92 bebe
00000340: 2c3e d5be 0ab7 413f ec5a 98be 8700 b93e
00000350: 018d 38bf 272a af3c 2be1 e43e 4e7a eabe
00000360: 3583 89be 1073 bfbe 4d7e 97be 537e 1a3e
00000370: 87c1 13bf a3c9 f93e ed59 aabc 6376 273f
00000380: caa2 a43d d99a 62be 3ab2 a4bb 0355 8d3e
00000390: 03a6 d4be 3b19 443d 6974 8fbe 2fe3 f03e
000003a0: 2076 d73e 17bc 5b3e 170b 17bf 41ac ddbe
000003b0: e615 abbe c2bc d03e 7324 ab3d 8e29 a9bd
000003c0: c307 123f ee62 c93d 35f4 573f 3d20 c7be
000003d0: 093c 233f 7aaf e73e fb4d 0bbf 3b4d b9bd
000003e0: b1f3 8fbe 141c c0bd 5596 65bf e08a 293e
000003f0: 03d3 1d3e 94c4 b2be be37 7dbd 2e14 d0be
-0.21431081 -0.46611577 0.75843817 0.7605343 0.23659968 0.3799157 -0.19510925 -0.10417944
-0.46906754 0.20996812 -0.020064669 0.33136073 -0.5052488 0.39496887 -0.2979765 -0.08488277
-0.7491719 0.7862523 -0.16383176 -0.7018576 -0.11314235 -0.28090832 0.6475364 0.22578056
0.5373461 -0.18816347 0.6642229 0.69860953 0.57547104 0.6678033 -0.15424182 0.26094005
-0.4319015 0.6954367 0.4379244 0.19285168 0.41635907 -0.44851175 -0.5780554 0.47954297
0.009209285 -0.66938376 -0.110073894 0.6367506 0.28987157 0.39436674 -0.57832855 0.099239565
-0.27890825 0.7095171 0.4740825 0.35033807 -0.13056871 -0.7492241 0.2369156 0.43700105
0.0029576668 0.7433674 0.633096 0.6150465 -0.47551182 0.47271034 0.048171796 0.32577336
-0.042922728 0.20381291 0.12159678 0.62270474 0.59172636 -0.5827801 -0.30932322 0.6384101
-0.3544526 0.6035216 -0.21413568 -0.26570112 -0.022885708 0.36329955 -0.7127723 -0.42397377
0.50391585 0.7499961 0.45468572 0.02747852 0.2028516 -0.29665422 0.4419231 0.51205444
0.18457939 -0.40486607 -0.3842378 0.54922175 -0.11300443 -0.0011227318 0.6472817 0.1180164
0.11410126 0.13089441 0.03471322 -0.59351146 -0.07186401 -0.8568335 -0.27543494 0.18879431
-0.31152022 0.08324736 -0.1616403 0.5538441 0.48485935 -0.5813643 -0.30561164 -0.6478164
0.49215814 -0.25648397 0.24673347 0.101723716 -0.6271119 0.15163122 0.92421824 -0.6617323
-0.12264938 -0.549666 -0.58496124 0.43013296 0.7338012 0.0031203385 -0.777877 0.5776535
-0.15054037 0.32018504 -0.28396928 -0.097281426 0.41971087 -0.1311006 0.51843363 0.31615534
-0.4621463 0.24563988 0.0846715 -0.47250506 -0.059885032 0.110999726 0.12176787 0.3952359
-0.28940013 0.52578574 -0.30861908 0.12783642 -0.70241106 0.3024327 0.3053896 -0.36065656
-0.68784237 -0.3421596 0.2021919 0.7434612 0.47267914 -0.8095117 0.27790967 0.5409691
-0.08289997 0.74646425 0.89484084 -0.6542963 0.6095907 -0.35601646 -0.64583045 0.008374278
-0.65377 -0.18336245 -0.50410825 0.50794286 0.5168231 0.56131756 0.47751528 0.08522358
-0.15580976 -0.1264614 0.46788743 0.7221231 0.4420052 0.43776688 0.5610951 -0.25115997
-0.18963392 -0.16686837 -0.22173342 0.7637879 0.04570743 -0.0068355408 0.5403264 0.44833767
0.56335616 -0.46135336 -0.016835121 -0.7539324 -0.60730016 0.55219084 0.12397995 -0.5260347
0.32010078 0.6442787 0.24617037 0.21774937 0.5400152 0.03566852 0.27826905 -0.3722151
-0.41648996 0.7566992 -0.29756868 0.36133215 -0.72090155 0.021382404 0.4470304 -0.45796436
-0.26857916 -0.37392473 -0.29588547 0.15087251 -0.57717174 0.4878665 -0.020794833 0.6541502
0.08038862 -0.22129382 -0.005026129 0.2760392 -0.41532907 0.047875624 -0.280185 0.47048327
0.4208231 0.2145847 -0.59001297 -0.43295482 -0.33415145 0.4076901 0.083565615 -0.08259879
0.57043093 0.098333225 0.84357005 -0.38891783 0.6376348 0.45251065 -0.54415864 -0.09047934
-0.2811561 -0.093803555 -0.89682513 0.16556883 0.15412526 -0.34915602 -0.061820738 -0.40640396

decoders.0.decoder_net.3.weight f4 [32]
00000000: cd18 863f e39e 863f dd0e 803f d33c 863f
00000010: b6e4 843f 7a45 803f e893 883f 870a 7c3f
00000020: a4af 793f 7590 873f 3554 913f 5dff 843f
00000030: 94af 823f 13a5 7e3f 2308 7d3f 6a46 843f
00000040: e0d5 7c3f 972b 813f 78cd 7d3f 4ff6 7d3f
00000050: f6da 7c3f 6a7c 863f 4843 823f 5273 883f
00000060: 0746 863f dc22 893f fb16 883f d89d 7a3f
00000070: 14be 7b3f 17c9 813f 1c94 8d3f c7ac 823f
1.0476319 1.0517238 1.0004536 1.0487312 1.0382297 1.0021203 1.0670137 0.98453563
0.9753363 1.059096 1.1353823 1.0390431 1.0209832 0.99470633 0.9884054 1.0333989
0.9876385 1.0091428 0.99141645 0.9920396 0.9877161 1.0506718 1.0176783 1.0660193
1.0490121 1.0713763 1.0632013 0.978971 0.9833691 1.0139493 1.1060824 1.0208977

decoders.0.decoder_net.3.bias f4 [32]
00000000: 1d48 993c 1c78 a93d c1b8 edbc 7b02 273d
00000010: 0601 083d 1a4e ce3d 8080 e63c 702a 2f3d
00000020: 3876 2dbb 3ed1 2dbd 32dd 433d 8539 bbbc
00000030: f118 ebbc 3244 31bb 69b3 cc3b 684d c5bb
00000040: 1552 a23d f23d 8a3c 58ab 083c 897d a4bb
00000050: 7bdb 71bd 4bee 2b3d f920 ae3d 4540 233d
00000060: 7d76 8d3c 104f 7fbd 909a a13d 10c1 c1bd
00000070: 753a adbd 2931 1cbd 882d 753d d5d7 cc3c
0.018711144 0.08274862 -0.029018762 0.04077385 0.0332041 0.100734904 0.028137445 0.04276508
-0.002646817 -0.042435877 0.04781837 -0.022854576 -0.028698416 -0.0027048704 0.0062469733 -0.0060211904
0.07925812 0.016875241 0.008341633 -0.005019848 -0.059047204 0.0419753 0.08502383 0.039856214
0.017268414 -0.06233126 0.078908086 -0.09460652 -0.084584154 -0.03813282 0.059857875 0.02500526

decoders.0.decoder_net.3.running_mean f4 [32]
00000000: f8ff 7f3e f8ff 7f3e f8ff 7f3e f8ff 7f3e
00000010: f8ff 7f3e f8ff 7f3e f8ff 7f3e f8ff 7f3e
00000020: f8ff 7f3e f8ff 7f3e f8ff 7f3e f8ff 7f3e
00000030: f8ff 7f3e f8ff 7f3e f8ff 7f3e f8ff 7f3e
00000040: f8ff 7f3e f8ff 7f3e f8ff 7f3e f8ff 7f3e
00000050: f8ff 7f3e f8ff 7f3e f8ff 7f3e f8ff 7f3e
00000060: f8ff 7f3e f8ff 7f3e f8ff 7f3e f8ff 7f3e
00000070: f8ff 7f3e f8ff 7f3e f8ff 7f3e f8ff 7f3e
0.24999988 0.24999988 0.24999988 0.24999988 0.24999988 0.24999988 0.24999988 0.24999988
0.24999988 0.24999988 0.24999988 0.24999988 0.24999988 0.24999988 0.24999988 0.24999988
0.24999988 0.24999988 0.24999988 0.24999988 0.24999988 0.24999988 0.24999988 0.24999988
0.24999988 0.24999988 0.24999988 0.24999988 0.24999988 0.24999988 0.24999988 0.24999988

decoders.0.decoder_net.3.running_var f4 [32]
00000000: 2f69 aa3d 19ff 563d 01ba 823d f52b 953d
00000010: f805 843d 10db 8d3d 2a06 a33d d489 563d
00000020: f0b8 493d 0ebe ab3d 86c6 723d cf90 b03d
00000030: e36d e13d 2e07 a43d db4b 853d 13cf ba3d
00000040: c862 9b3d 3944 733d 977d 9c3d 8461 903d
00000050: e6c4 9b3d b257 3a3d 17ab a73d 8218 873d
00000060: 52a3 1f3d cce3 7c3d 0280 873d 85e1 913d
00000070: cc7d 633d 7c53 9c3d 604e 6a3d 5039 133d
0.083208434 0.052489374 0.06383134 0.07283775 0.06446451 0.069265485 0.0796016 0.052377537
0.049248636 0.083858594 0.059271358 0.0862137 0.11007287 0.08009182 0.06508609 0.091215275
0.075872004 0.059391234 0.07641142 0.0704985 0.07605915 0.04549379 0.0818693 0.06596471
0.038974114 0.06174068 0.066162124 0.071230926 0.05553989 0.07633111 0.05720365 0.03594333

decoders.0.decoder_net.4.weight f4 [32, 32, 3, 3]
00000000: 3663 c7bd 2770 43bd e096 7cbd 7895 0d3c
00000010: 9430 313d 2437 cebd f0b3 723c c3a6 3cbd
00000020: 40d8 823d 2d24 28bd 3088 ac3c 3fda c6bc
00000030: f354 72bd 3090 b0bc ebe0 d63c 38ac 873d
00000040: 1a45 6c3c 9c44 c13b 4aee a6bc f3d9 7e3d
00000050: 9261 adbd df17 1dbc 2f70 a0bc cdce 543d
00000060: c5bc a53c 7214 133d 0231 173c 5166 f3bb
00000070: 83a2 c4bc 22b0 bfbd 5d86 ff3b 7f4e 7a3d
00000080: 05e8 473d 3e49 ef3c 461d d53d f3ad 9ebb
00000090: b684 323d 05f2 32be 3939 28bd 5c6f 15bd
000000a0: 9aa7 793d 58a6 68bd 8ced 903d 7670 e1bb
000000b0: 71ca 883d 2fc8 b6bd 6afd 62bd ce71 2abd
000000c0: 7865 ff3c c7b4 98bc 1805 26bd 5bf0 f638
000000d0: 6015 203c 4469 8b3d 15a4 1dbd c2b2 473c
000000e0: decc 30bd 1fad 863c 059d 423d 76b3 d039
000000f0: 35fd 963c 5e0d c5bb 4916 8a3d b697 d5bc
00000100: 85e9 c93a 66af cbbc 2b00 053d 7e9d 073d
00000110: ad7e 04bd a92f 10bc 64c2 ffbc b087 5d3d
00000120: 6c28 b43b 25ed 5abd 36fb 20bc f69e 36bd
00000130: ce0b b33b 7df7 01bc f5a3 29bd 5851 293d
00000140: 5906 7bbc b44c 463d 3909 473d 31e7 2ebd
00000150: 4916 db3c 1cd1 9d3d 2670 15be dbfa 413b
00000160: 0fc7 3dbd e6a4 7bbd bdcc 16bd 2e5d d5bc
00000170: 70b6 ddbc 4f6a acbc f0dd aabc eab1 e03d
00000180: 4fc1 593d 7f7c 06bd 2f73 13bd d91c bd3c
00000190: a6e2 ccbc a7ba e5bc 7c41 813d d7d3 b7bd
000001a0: b695 a2bd db60 00bd 3da5 f03c 7eef febc
000001b0: bbdb 9f3c 4da9 da3c 551e a1bc dc05 b43b
000001c0: 461b e73c ea0b 1abc c053 3f3d 6d17 d43c
000001d0: 38e8 b4bc b80e 82bb 3a43 44bc 82ee 1ebd
000001e0: 786c 2bbd e07e 5f3d 54ed 46bb 9454 80bc
000001f0: 358d 2dbd 570e 4dbc bb38 5bbb 113c e23c
00000200: a75e 44bc 8f14 87bd 3e44 97bc ba4c a9bd
00000210: 2600 f0bc 3b3b 8f3a 505b 983c 2563 443d
00000220: 35a4 663b 7861 d43d 35c0 303d 3622 f43c
00000230: 1c11 f33d 6197 9e3d 2795 8c3d 4a82 66bd
00000240: bd16 343d 36ff 363c c676 843c f4bc d03c
00000250: 8707 383c a8f5 c1bc 24c1 7a3c ab2f f83b
00000260: d299 3ebd e599 db3c 71ee 20bc 962b e4bb
00000270: e305 eabc 625d 073c f206 5fbb a29d a73d
00000280: dc8b 80bd 3343 bb3c c39a b33d 2cfc 603d
00000290: d5a8 7c3d f7d2 8abc 8a4e 513d 274f 8bbd
000002a0: f163 103d 572b ed3d d167 26bd 9823 a2bb
000002b0: fc38 77bd d852 aa3b c383 273d b04e 913b
000002c0: 971c 18bd 164b e63c 0f1a f33c 921c 803d
000002d0: 0dce 043d 9aa7 a33d adbc 4a3d a472 ec3c
000002e0: f0f2 fc3c a845 e8bc 74a0 88bd ec86 4bbd
000002f0: e622 1fbd 6b94 1338 fc83 babb 1057 1bbd
00000300: f196 be3c e542 26bd f63b a0bd 00c8 903c
00000310: 05fb b33d 8c84 b7bc 27d6 88bc 54cf d4bd
00000320: da79 c2bc 7d75 f83c 617f 5c3d 193d be3d
00000330: 0d1e 353d 201b b33c f01f 933d 78df e83c
00000340: 9914 bfbd fa7f 3cbd e886 0c3c 1338 10bc
00000350: 8463 d73a c288 313d f281 36bd 532a 523d
00000360: 5f9b 563d 9071 9fbc 2b66 b43c 2b8c 4b3d
00000370: 7698 2ebd dd39 30bd 9cdc a63c 4ed6 023d
00000380: 81d6 d3bd 3026 28bd 38f4 8abd 3412 073d
00000390: ce60 d6bc 4404 9e3c 5118 ed3d 4fdd 783c
000003a0: 6a4d 2e3d abc3 bb3c ec36 533d 0f54 0d3d
000003b0: 76e5 b4bc 3ecd ec3c 5f31 6fbd ef58 5b3b
000003c0: 6452 90bc 37fd 89bd fb11 92bc 8f34 a23b
000003d0: 2f4e 4d3d e7d3 8d3d b8fa 9d3d 35c6 0f3c
000003e0: b361 723d 83fb 58bd 3280 1a3d e664 0fbc
000003f0: 917d 693c addb 4f3d 63a2 d5bc ba71 5e38
-0.0973572 -0.04771438 -0.061667323 0.008641593 0.04325922 -0.10069111 0.014813408 -0.046057474
0.06388903 -0.041050125 0.021061033 -0.02427399 -0.059163045 -0.021553129 0.026230296 0.06624645
0.014420772 0.0058980715 -0.020377297 0.06221957 -0.08465876 -0.009588211 -0.019584743 0.051955033
0.020231614 0.03590817 0.009227993 -0.0074279686 -0.024003273 -0.093597665 0.007798 0.061110016
0.048805255 0.02920973 0.10405974 -0.0048425137 0.043583594 -0.17475136 -0.041070197 -0.036483154
0.060950853 -0.056799263 0.070765585 -0.0068798615 0.06679238 -0.08924901 -0.055417456 -0.04161244
0.031176314 -0.018640889 -0.0405322 0.00011774964 0.009770721 0.06807187 -0.03848656 0.012188615
-0.043164127 0.016439972 0.047513027 0.0003980656 0.018431285 -0.0060135564 0.06742532 -0.026073318
0.0015404677 -0.02486391 0.032470863 0.03310918 -0.03234737 -0.008800426 -0.031220622 0.05408448
0.0054979827 -0.053448815 -0.009825518 -0.04458519 0.0054640537 -0.007932541 -0.041416127 0.04133734
-0.015321338 0.048412994 0.04859278 -0.04270095 0.026744025 0.077059 -0.14593562 0.0029598984
-0.046332415 -0.061436556 -0.036816347 -0.026045408 -0.027064532 -0.021046786 -0.020857781 0.109714344
0.05316287 -0.032833572 -0.03599852 0.023085045 -0.025010418 -0.028043104 0.06311318 -0.08975952
-0.07938711 -0.03134237 0.029375667 -0.031120058 0.019513955 0.026692057 -0.019667784 0.0054938626
0.028211247 -0.009402255 0.04671073 0.025890077 -0.022083387 -0.00396904 -0.011978919 -0.038801678
-0.04185149 0.054564357 -0.003035386 -0.01566533 -0.042370994 -0.012515626 -0.0033450562 0.027616533
-0.0119854575 -0.06595718 -0.018465158 -0.082665876 -0.029296946 0.0010927686 0.018598229 0.047946114
0.003519309 0.10370153 0.043152053 0.02980147 0.11868498 0.07743717 0.06864386 -0.056276597
0.043966997 0.0111692455 0.016169917 0.025480725 0.011232263 -0.023676708 0.015304837 0.007574042
-0.046533413 0.026806781 -0.009822474 -0.0069632037 -0.02856726 0.00826201 -0.003403124 0.08184363
-0.06276676 0.022859192 0.08769753 0.05492799 0.06168445 -0.016946299 0.05110029 -0.068022065
0.03525156 0.11580532 -0.04062635 -0.0049480908 -0.06035708 0.005197864 0.040897142 0.004434429
-0.03713664 0.028111976 0.029675512 0.06255449 0.032423068 0.07990952 0.04949634 0.028863259
0.03087756 -0.028353527 -0.06671229 -0.04968922 -0.03885164 3.5185756e-05 -0.0056920033 -0.037924826
0.023265334 -0.04059114 -0.07823937 0.017673492 0.087881126 -0.02240207 -0.016703678 -0.10391107
-0.023739744 0.03032946 0.053832415 0.09288997 0.04421811 0.02186352 0.07183826 0.02842687
-0.093301006 -0.046020485 0.008577086 -0.008802432 0.0016432856 0.043343313 -0.04455752 0.051309895
0.052394267 -0.01946333 0.022021374 0.04969422 -0.042625867 -0.043023933 0.020368867 0.031942658
-0.10343648 -0.041052043 -0.06784862 0.032976344 -0.026169207 0.019289143 0.115769036 0.015189483
0.042554297 0.02292045 0.05156605 0.034503993 -0.022082072 0.02890646 -0.058396693 0.0033469757
-0.017617412 -0.0673775 -0.01783084 0.004950113 0.05012339 0.06925183 0.077138364 0.008775284
0.059175204 -0.052974235 0.037719913 -0.008752083 0.014251129 0.05074661 -0.026078409 5.303484e-05

decoders.0.decoder_net.4.bias f4 [32]
00000000: da91 babc 9cab 3b3d b61e 783d a60f 63bd
00000010: b310 ca3a afb2 53bd 15b3 9d3d 250a 0abb
00000020: 80e2 b33a ce34 4abd 771d 94bd 482c c9bc
00000030: d41f 17b9 9def 13bd 9120 893d 5d2a 533d
00000040: 779f cd3c 92e6 b7bb ec05 6b3d 1ed3 043c
00000050: a858 84bc 853f a9bc 7989 803c 3a8d 62bd
00000060: 9da3 81bc ac3a 9d3d ae14 063d c608 72bd
00000070: 4467 783d 663e 1abc 4aa3 92bb fe52 ffbb
-0.022774626 0.045817956 0.060576163 -0.055434845 0.0015416354 -0.051684078 0.07700173 -0.0021063176
0.0013724118 -0.049366765 -0.072321825 -0.024557248 -0.00014412339 -0.036117185 0.06695665 0.051554073
0.025100453 -0.005612203 0.057378694 0.008106975 -0.016155556 -0.020660171 0.015690552 -0.055310465
-0.015825087 0.076772064 0.032734565 -0.0590904 0.060645357 -0.009414291 -0.004475032 -0.007791876

decoders.0.decoder_net.6.weight f4 [32]
00000000: e7ba 7c3f c9cb 6a3f 4a60 5c3f a79e 773f
00000010: c41d 6c3f 1d7f 773f c16d 633f 0d0b 6f3f
00000020: c8a5 653f 49aa 713f 9007 713f 066b 653f
00000030: c52d 663f e0c9 6c3f bcc5 743f 1fae 623f
00000040: 587b 743f 02eb 6a3f 1f3a 7d3f 6124 693f
00000050: e232 5d3f 032d 703f 75ce 653f 94c0 6f3f
00000060: dc96 703f 1ec7 6b3f 2bda 743f 3c35 653f
00000070: 97d5 623f 211d 743f 97c3 643f 7b07 6d3f
0.9872269 0.917172 0.86084425 0.9672646 0.9223292 0.96678334 0.88839346 0.9337624
0.8970609 0.9440046 0.94152164 0.8961643 0.8991359 0.92495537 0.9561422 0.8854694
0.9550071 0.91764843 0.9891681 0.91071135 0.86405766 0.9381868 0.89768153 0.93653226
0.93980193 0.92100704 0.956454 0.89534354 0.8860716 0.9535695 0.89360946 0.9258954

decoders.0.decoder_net.6.bias f4 [32]
00000000: 2eb9 cebc a8dc b83c 0ffc 25bc 1338 c6bc
00000010: 11c1 693d f283 973d 6189 023d 7d5c a8bd
00000020: 21ce 02bc 232d a9bd 15c4 803d 06fc a3bd
00000030: 2282 f3bc ec7b f1bc c8e2 d1bc 46b2 14bd
00000040: 388f 3d3d 2255 4b3c 8a6e 5abb 81f2 0fbe
00000050: df30 3d3b f7ec cdbc 0ce9 563d f53e 84bc
00000060: 56e0 8abd 0d02 97bd b57a f03c 4f7b 063b
00000070: 2cf6 a5bc f384 d43c 7d34 71bd ce28 d2bd
-0.025234785 0.022566155 -0.010130896 -0.02419666 0.057068888 0.073982134 0.031869296 -0.08220766
-0.007983715 -0.08260562 0.062874 -0.08007054 -0.029725138 -0.029478036 -0.025620833 -0.036302827
0.046279162 0.012410434 -0.0033330047 -0.14057352 0.002886824 -0.025137408 0.052468345 -0.016143302
-0.0678107 -0.07373438 0.029355386 0.0020520275 -0.020258985 0.025942301 -0.058887947 -0.10261689

decoders.0.decoder_net.6.running_mean f4 [32]
00000000: 1e49 123e 1e49 123e 1e49 123e 1e49 123e
00000010: 1e49 123e 1e49 123e 1e49 123e 1e49 123e
00000020: 1e49 123e 1e49 123e 1e49 123e 1e49 123e
00000030: 1e49 123e 1e49 123e 1e49 123e 1e49 123e
00000040: 1e49 123e 1e49 123e 1e49 123e 1e49 123e
00000050: 1e49 123e 1e49 123e 1e49 123e 1e49 123e
00000060: 1e49 123e 1e49 123e 1e49 123e 1e49 123e
00000070: 1e49 123e 1e49 123e 1e49 123e 1e49 123e
0.14285704 0.14285704 0.14285704 0.14285704 0.14285704 0.14285704 0.14285704 0.14285704
0.14285704 0.14285704 0.14285704 0.14285704 0.14285704 0.14285704 0.14285704 0.14285704
0.14285704 0.14285704 0.14285704 0.14285704 0.14285704 0.14285704 0.14285704 0.14285704
0.14285704 0.14285704 0.14285704 0.14285704 0.14285704 0.14285704 0.14285704 0.14285704

decoders.0.decoder_net.6.running_var f4 [32]
00000000: a481 a13b e1cf 773b 86e0 7a3b e009 a23b
00000010: ca34 a43b a451 943b 88e7 923b c9f9 e53b
00000020: 6c48 913b 1dd9 483b 84f3 773b 3cb9 833b
00000030: 2645 b23b 40ef d53b e736 8f3b c3cd 583b
00000040: 9957 613b 2422 493b cb11 8e3b bb32 cc3b
00000050: 4a21 833b c88d 7a3b 302b a33b c5ca 9e3b
00000060: e4cc f13b 2478 923b 4760 893b 19a7 973b
00000070: 145e 203b 7a40 a53b ff0c a03b 1cfc 3e3b
0.0049287844 0.0037813114 0.00382808 0.004945025 0.0050111758 0.004526334 0.004483167 0.007018302
0.004433682 0.0030646988 0.0037834356 0.0040198844 0.005440372 0.006528765 0.0043705585 0.0033081628
0.0034384488 0.0030690515 0.004335617 0.0062316335 0.004001771 0.003823148 0.0049795136 0.0048459494
0.007379161 0.0044698883 0.0041923854 0.004628074 0.0024470137 0.0050430866 0.0048843618 0.0029141968

decoders.0.decoder_net.7.weight f4 [32, 16, 3, 3]
00000000: 2602 da3b 2b56 e93b 5169 293d 9431 8c3d
00000010: bad8 f03d e765 603d 328d 533c 82a0 95bd
00000020: 47b4 c5bc c448 9dbd 823b f9bc 0296 c13c
00000030: 15f2 d7bc 7768 98bd 7c20 9abc 6978 45bd
00000040: b406 253c 44b8 c13c 337c ab3c 4896 53bd
00000050: 13c1 69bd a92b 2fbd cd81 e3bb 39b1 7abd
00000060: c9a9 2a3d 2109 4e3d 7b9d 8cbc cc9a 093d
00000070: 5714 82bd 5ff6 2ebd a85b 26bd d85d 8cbd
00000080: c1c3 523c 8d43 0e3d 3758 37bd 8a3e 423d
00000090: 501e 90bd 5993 cabc aea4 dcbc 77c4 f33d
000000a0: 6093 183e efcc cb3d e9f1 3bbc 7606 613c
000000b0: ac89 b5bc 118c 953c 6dba 093d 9cb3 5cbd
000000c0: fc2b ba3c 2c86 af3d 5213 9fbc 154f a23c
000000d0: 6047 75bd d914 013d 3961 f03c ee42 4bbc
000000e0: 74f0 bcbd 0291 edbc 0e0f bcbd c0b0 1bbc
000000f0: b4e0 86bd a8e0 c2bd 3caa d53b cab6 163d
00000100: 6048 b43c 431e d33c fcf4 01bb cad2 763d
00000110: 1888 2b3d 3f69 ecba 38db 3e3d d51d 383d
00000120: 642a 5abd 0ec5 bfbc 5229 5ebd 65af eabc
00000130: 4a31 e23c 721f 57bc 0e34 76bd 5f17 da3c
00000140: 4409 d3bb bac8 773d 3324 ffbc 6ec2 233d
00000150: 7453 0abe dd4d deb9 e3f6 7d3d bae0 30bd
00000160: 9008 a0bd be19 2b3c 5d99 64bc e371 403d
00000170: 59bf b23c c8a0 a5bc b673 e8bc 39e7 5abd
00000180: 9d89 703d e411 a03c 913a 3cbd 1346 b93b
00000190: 8e33 d3bd 4569 27bd 991d e33c ad78 36bd
000001a0: bea4 413d b414 6a3d 1f23 b53d 3673 ddbd
000001b0: 5c04 8d3d 2cdb 403c 3852 e53b 2862 03bc
000001c0: 30cc 703d 970f 0e3d 0283 223d 92b6 c5bd
000001d0: c580 7b3d c122 efbb 2328 c73d b7b7 20bc
000001e0: 40d5 ed3d 7f79 d13d 369b 733d b90a 023d
000001f0: f129 93bd 51bf 8f3b dd05 a4bd 5539 c7bc
00000200: 52b1 c53c 2f28 94bc 0068 5bbd 0d46 92bd
00000210: 8d09 b7bc aedc 84bd 069b bdbc 3e56 ebbd
00000220: 9bd7 45bc 80b6 aa3c 9610 1c3d c4ef 6a3d
00000230: 5d25 a4bc aa31 6fbd fc23 32bd bec0 583c
00000240: 31c4 58bd a3c0 a1bd 8227 003d 06d7 113d
00000250: b6b0 06bd 37a0 133d 823a 55bd a14f 29bc
00000260: a3ac 00bb f90d 903d 6ebc 46bb 7ed5 ee3d
00000270: cb37 eebc a11b 6fba 57cc 3abd 3f3f 9f3c
00000280: 204d 9f3d ea68 99bd 76e9 0bbd eab0 02bd
00000290: a194 5ebd a713 863d 81b4 38bd f173 0ebd
000002a0: 6977 b53d a508 9a3c 044c 51bd 0f5b da3c
000002b0: ca31 163d 2b55 9b3c 60c7 3ebd 353e 463c
000002c0: 39c8 263d e066 14bc 901f 1339 3849 86bd
000002d0: 4a23 d13c b285 4dbd 1caf 373d 8b2a e53b
000002e0: 973b e43c 25de bf3c a148 c4bb dfd9 04bd
000002f0: 4896 873d 8dd2 2f3d f08c 2c3d a5f7 233d
00000300: d350 abbd 4a53 12bd 02a2 23bb 9942 77bd
00000310: f964 aa3d 5cf0 3cbc a288 c63d 6a04 ddbc
00000320: b9a1 83bd 007e b6b9 b11e 1b3c f76c bf3d
00000330: 8f3e 913b 7871 323c 4ef5 433d c73a 99bc
00000340: 976b d33c ff64 a2bc f784 9a3d 3eda 283d
00000350: ecca 503d 5ea9 b73d f565 7c3d ba4b 50bb
00000360: 3aca d4bc a635 053e 1b86 843d 44cc 4d3d
00000370: 934c 13bd b719 8fbd 6f9a ef3c b87f b8bc
00000380: c67e 82bd d54b 063d 0405 b33c 82e8 0d3d
00000390: 89f5 3bbd 3977 933d 4d7d e13d b99b 59bd
000003a0: bf46 783d e7ff 18bd 9a06 a13d 8a1d 3e3d
000003b0: 310b 7bb9 e5bb a83c 7aef 09bd f67d d53c
000003c0: a6ae 793c 6f14 8c3d 8dff 663d e8cf e43d
000003d0: d2f6 853d 1794 9a3d 7e1a c1bd 89ff cc3b
000003e0: 1880 d7bd 2755 093d 46a7 033d 2904 15bd
000003f0: 390a 87bc e0ea 343d d5f2 fa3b 5339 bebd
0.006653088 0.0071208677 0.041360203 0.06845394 0.11760087 0.05478468 0.012912082 -0.07306005
-0.024133814 -0.076798946 -0.030423883 0.0236311 -0.02636055 -0.074418 -0.018814318 -0.048210535
0.010072399 0.023647435 0.020933246 -0.05165699 -0.057068896 -0.042766247 -0.0069429637 -0.06120417
0.041665826 0.050301675 -0.017164936 0.03359489 -0.06351536 -0.042715427 -0.040614754 -0.06853837
0.012864054 0.03473239 -0.044761863 0.047422923 -0.07037032 -0.024728464 -0.026933994 0.11902707
0.14899969 0.09951197 -0.01147125 0.013734451 -0.022160374 0.018255265 0.033625055 -0.053882226
0.022726052 0.08570513 -0.019418392 0.0198131 -0.05988252 0.031514022 0.029343234 -0.012406094
-0.0922555 -0.02899981 -0.09182559 -0.00950259 -0.065858275 -0.09515506 0.0065205377 0.036795415
0.022007167 0.025771266 -0.001982986 0.060259618 0.041877836 -0.0018036737 0.046595782 0.044950325
-0.053263083 -0.023409393 -0.054238625 -0.028648088 0.027611393 -0.013130056 -0.060108237 0.026622472
-0.0064403135 0.060494162 -0.03114519 0.039980344 -0.13508397 -0.00042401152 0.062003028 -0.043183066
-0.07814133 0.010443149 -0.01395258 0.04698361 0.021819757 -0.020218268 -0.028375488 -0.053443167
0.05872499 0.01953978 -0.04595429 0.0056541055 -0.10312568 -0.040871877 0.027724074 -0.04454868
0.04727625 0.05714865 0.088445894 -0.1081299 0.06885597 0.011771005 0.0069983266 -0.008019008
0.05878848 0.034682836 0.03967572 -0.09653963 0.0614021 -0.007297844 0.09724452 -0.009809426
0.1161294 0.10228252 0.059474193 0.031748507 -0.07185734 0.0043868204 -0.08008931 -0.02431933
0.024132404 -0.018085567 -0.05356598 -0.071422674 -0.022343421 -0.06487404 -0.02314521 -0.11491059
-0.01207533 0.020838976 0.038101755 0.057357565 -0.020037347 -0.058396973 -0.04349135 0.013229547
-0.052921478 -0.07898071 0.031287678 0.035605453 -0.03288337 0.036041465 -0.05205775 -0.010333926
-0.001963415 0.07033915 -0.0030324715 0.11661814 -0.029079339 -0.00091212435 -0.04560503 0.019439338
0.07778382 -0.07490714 -0.034158193 -0.031907 -0.054340962 0.06546717 -0.045094017 -0.03477854
0.08860666 0.01880295 -0.051097885 0.026654748 0.036668576 0.01896151 -0.046576858 0.012099792
0.04071829 -0.00905773 0.0001403077 -0.06556934 0.025529522 -0.05017633 0.04484473 0.006993597
0.027860446 0.023421356 -0.0059901034 -0.03243434 0.06620461 0.042925406 0.042126596 0.040031094
-0.08365025 -0.035723962 -0.002496839 -0.060366247 0.0832004 -0.0115319155 0.096940294 -0.026979644
-0.064273305 -0.00034807622 0.009467767 0.09346955 0.0044325064 0.010891311 0.047841363 -0.018704785
0.025808139 -0.01982355 0.07544892 0.041223757 0.05097477 0.08967851 0.06162067 -0.0031783418
-0.025975335 0.13008747 0.06470891 0.05024363 -0.0359617 -0.069873266 0.029248444 -0.022521839
-0.06371836 0.032787163 0.021852978 0.034645565 -0.045888457 0.07200474 0.11010227 -0.053127024
0.060614344 -0.037353422 0.07862587 0.04641489 -0.00023941394 0.020597408 -0.03367565 0.02606104
0.015239393 0.06839835 0.056396056 0.111724675 0.06541218 0.07547777 -0.09428881 0.006256048
-0.10522479 0.033528473 0.032141946 -0.03638092 -0.016484367 0.044169307 0.0076583424 -0.092882775

decoders.0.decoder_net.7.bias f4 [16]
00000000: 280e 3bbd 6be1 72bd 6a2e ddbc 5207 2d3d
00000010: b753 36bd 9387 cdbb 7dee e1bb 4a9d 0abe
00000020: 89b7 edbd c1e8 b53d 6e09 eeba 4580 10be
00000030: 742c f3bc 73ea e6bc 1784 15be c456 abbb
-0.045667797 -0.059297007 -0.026999671 0.04224331 -0.04451343 -0.006272265 -0.006894885 -0.13536564
-0.11607272 0.08882285 -0.0018160769 -0.14111431 -0.029684283 -0.028187966 -0.1460117 -0.005228849

decoders.0.decoder_net.9.weight f4 [16]
00000000: 1d56 6c3f 9fa2 6e3f 3d35 613f 40de 5a3f
00000010: a28e 6a3f 0507 6c3f fd1a 6b3f dcf4 6c3f
00000020: 4b51 693f 3efa 6c3f e4ff 663f b959 673f
00000030: 6318 633f 0d89 783f 3a7a 6d3f c537 603f
0.923189 0.9321689 0.8797186 0.85495377 0.9162389 0.9219821 0.91838056 0.92561126
0.9113967 0.9256934 0.9023421 0.9037128 0.88709086 0.9708412 0.9276463 0.875851

decoders.0.decoder_net.9.bias f4 [16]
00000000: 3459 87bd b6fe 1bbe 67c3 3f3c 3f60 903e
00000010: 8072 813d b910 cc3d ff3a 713d dc73 a4bd
00000020: 9ff0 b83d 5194 a7ba 39cf ccbd bafe c03d
00000030: fad9 37bc b194 913d 5768 eb3c bf87 2b3e
-0.06608811 -0.15233883 0.011704302 0.2819843 0.06320667 0.09964127 0.058894154 -0.08029911
0.0903027 -0.0012785291 -0.10000462 0.09423585 -0.011221403 0.07108439 0.028736277 0.16751002

decoders.0.decoder_net.9.running_mean f4 [16]
00000000: 1e49 923d 1e49 923d 1e49 923d 1e49 923d
00000010: 1e49 923d 1e49 923d 1e49 923d 1e49 923d
00000020: 1e49 923d 1e49 923d 1e49 923d 1e49 923d
00000030: 1e49 923d 1e49 923d 1e49 923d 1e49 923d
0.07142852 0.07142852 0.07142852 0.07142852 0.07142852 0.07142852 0.07142852 0.07142852
0.07142852 0.07142852 0.07142852 0.07142852 0.07142852 0.07142852 0.07142852 0.07142852

decoders.0.decoder_net.9.running_var f4 [16]
00000000: d74f 023b b225 5a3b fd4c 8e3a b8ec 8a3a
00000010: e58c 343b cb9e 353b 6276 103b b1af c03a
00000020: e2d4 d13a f54c ae3a 0c51 993a 1250 993a
00000030: 4a64 863a 7ed3 803b f5fb 4e3b 92a4 8d3a
0.0019884014 0.0033286628 0.0010856685 0.0010599112 0.00275498 0.0027713056 0.0022043218 0.0014700798
0.0016008879 0.0013298081 0.0011697127 0.0011696836 0.0010253277 0.003931462 0.0031583284 0.0010806492

decoders.0.decoder_net.10.weight f4 [16, 1, 3, 3]
00000000: b25e 0cbe 865b 39be e385 563d 2956 75bc
00000010: aeca cf3c 834a d23d 9d88 183d 816f bc3c
00000020: 7167 6b3c b116 d1bd 8eef a8bc 7623 2bbe
00000030: a3d0 85be d1fe 443e 6808 203e 4895 133e
00000040: 215a e83d 1b8d 1b3d ffd1 fd3d ae13 b13d
00000050: 2fec 8fbd d69c 523d 2d29 fe3c 26cc 0e3e
00000060: b5f0 b8bd 1328 3abe af85 08be 0c31 193d
00000070: 0790 033e f760 dbbd a7d9 213e 2010 0f3e
00000080: e94e 09be 3743 7d3d 479f 27be b87f 35be
00000090: f548 65be 2d97 dabd b644 45be 790d 513c
000000a0: 6685 443d a4fc 983d 7ec8 82bd 976f 4fbe
000000b0: 034d 09be 95de b33c 69d8 07be 392e b53d
000000c0: dbc3 e73c c39e 0b3e 303a a5bd d06e babb
000000d0: 5c6d 51be 5687 3fbe ed8f 98bc 67b2 cbbd
000000e0: 79c7 e1bd de5e a5bd e9a7 3bbe 609f 27bd
000000f0: cba4 64bd c3bf f5bc 5f5d 0a3e af81 9c3d
00000100: 71fa a33d 2d16 1b3e 3477 b43d 87bc 243e
00000110: faee 133e bee4 df3d a1d3 443e 432c d83d
00000120: 740a 473d 5116 50bd 51a4 803d b2be ee3d
00000130: 7417 1bbe 4280 27bd 003b 5cbd 65a8 9ebd
00000140: 18a7 8b3d 32b0 c3bd 0677 1f3c 2041 e2ba
00000150: bf57 6ebd 7b57 97bd 24f6 fbbc cbc4 1ebd
00000160: fc3b 5dbd 2498 51bc 1c64 4ebd a1c9 933d
00000170: 6208 32bd e72b 8abb 53b3 503e 6db4 fc3d
00000180: 18a6 04bd 84a3 373d 5bbc 413d 46e5 e23d
00000190: e29e 633d 93b4 073d b72b 3e3e 1cce 8c3a
000001a0: 9d00 cdbd bf89 8d3d 7d41 9b3c ecd8 7fbc
000001b0: 18e5 e6bc d1b4 c7bd f5c0 e9bd 67b4 163e
000001c0: f37c b93b 946a adbb a950 883d df8c a93d
000001d0: fe89 d93d 2aa6 28be 6371 bebe 250c 20be
000001e0: 38f0 2abd 77cb dfbd a8c0 b5bd d3c1 673c
000001f0: 297b 343e eed5 033e ac95 a13d 6c38 0e3e
00000200: d7be 353e 1304 523e 7486 77be 6e93 18be
00000210: 585e 07be e859 813d 163b 253d 8e7f bbb9
00000220: b514 1d3e 1ad8 bbbd ddd3 1b3e 27c7 0a3e
00000230: b8fd 1fbe a082 bc3c 173a 37be 0e03 2abe
-0.13707998 -0.1810132 0.052373778 -0.014974155 0.0253652 0.10268118 0.03723966 0.023002388
0.014367924 -0.10209406 -0.020622041 -0.16712746 -0.2613574 0.1923783 0.15628207 0.14412415
0.11345316 0.037976366 0.12393569 0.08646332 -0.0702747 0.0514191 0.031025494 0.13945064
-0.09030286 -0.1817935 -0.13332246 0.03740029 0.12847911 -0.10711854 0.15805684 0.13970995
-0.13409008 0.06183168 -0.16369353 -0.17724502 -0.22391112 -0.10673366 -0.19264492 0.01275956
0.04797878 0.074700624 -0.06385897 -0.20257412 -0.13408284 0.021956721 -0.13266148 0.08846707
0.028291633 0.13634782 -0.08067739 -0.0056894794 -0.20451874 -0.1870397 -0.018623317 -0.09946137
-0.110243745 -0.08074735 -0.18325771 -0.040923476 -0.05582122 -0.029998666 0.13512181 0.07641923
0.08006752 0.15145178 0.08811799 0.16087542 0.14446631 0.10932301 0.19221355 0.10555317
0.048593953 -0.050802533 0.06281341 0.11657466 -0.15145665 -0.0408938 -0.053767204 -0.077469625
0.0681898 -0.09555091 0.009732967 -0.001726184 -0.05818915 -0.073897325 -0.030757017 -0.038761895
-0.054012284 -0.012792621 -0.05038844 0.07216192 -0.043465026 -0.0042166593 0.20380907 0.12339101
-0.03238496 0.044833675 0.04729877 0.11078887 0.055571444 0.033131193 0.18571363 0.0010742578
-0.100098826 0.069110386 0.018952126 -0.015615683 -0.028185412 -0.09751285 -0.11413757 0.14717256
0.005660647 -0.005292246 0.0665601 0.08278822 0.10622023 -0.16469637 -0.37195882 -0.15629633
-0.041732997 -0.1092748 -0.08874637 0.014145332 0.17625107 0.12874576 0.07889876 0.1388871
0.17748581 0.20509367 -0.24172384 -0.1489999 -0.13219583 0.063159764 0.040339552 -0.00035762455
0.1533993 -0.091720775 0.15217538 0.13552533 -0.1562413 0.023011506 -0.17893253 -0.16602728

decoders.1.decoder_net.0.weight f4 [512, 2]
00000000: 2cb8 fe3e 4eb4 9b3e 7dfb 0e3f 9f14 093e
00000010: b907 253f e9fc bbbb 378f ac3e 8f99 b6be
00000020: 2e70 713d af9c c9bd 127a 243f faf4 123e
00000030: 794e e1be 568f 3fbc f7cd e53e fe1e 0a3f
00000040: 5c35 8cbe 327d 1dbf 9fcf f6bd f3dd 36bf
00000050: 585a 2f3f 73a4 0cbf 77d3 6b3e cb7d ddbd
00000060: 6768 2e3f ccd0 cdbe 31ea 2bbe d6d1 743f
00000070: 5ebb 093e 8654 f9be 9a6b 04bf d38d a4be
00000080: 1bbc 24bf 1e01 813e 9c9f cfbd 750d adbe
00000090: 6f23 d33e 4ef3 803e e8f9 a6be a69f ca3d
000000a0: 0221 883e 0545 64be 3bbc df3e c7e6 013e
000000b0: f461 1b3f 8aab 513e c059 29bf 9689 58be
000000c0: b0e7 0dbf 58f4 eebe fbf3 0cbd d799 63be
000000d0: f1be 133f 2517 353d 0e99 9cbe 57c4 243c
000000e0: bb40 8cbe 8ef4 28bd ad2a 8a3e 8d80 803d
000000f0: 62da 553e f465 193f aabc c53e 8e44 0ebf
00000100: 4101 81be 377c 3cbd f593 c6be 4766 4d3d
00000110: 0d46 173f 4d60 2ebe 1a0e db3d 746b 163f
00000120: 0b40 073f 8b65 ebbd 09ae aabe d3e9 033e
00000130: c898 d63e deea 4d3f ad86 443f b62c 3cbe
00000140: 53c9 a6be f68f 9a3e bf86 e1be 89fc 2a3f
00000150: 7a5b 97bd b2c4 173d 0eeb 31bf 4298 af3e
00000160: 0950 e0be 430b 04bf 5a67 d5bd 655f c93e
00000170: 21c2 0c3f 27a9 453e e4b8 08bf 8455 0f3f
00000180: 2483 c9be 0375 1d3d 07a6 a13e 0f5b 02bd
00000190: 2245 82bf 3ae1 35bf ca45 8cbe 28a4 413e
000001a0: e4fd 243f 891a 133e 1090 63be c224 5abe
000001b0: 752f 463f 1364 2f3f 8223 0c3f 5f63 7e3e
000001c0: 6a0e ba3e 8851 953e 55a6 063f c750 823e
000001d0: e4d5 bf3e 3686 c9be 9d84 8fbe ebd6 8abc
000001e0: eae6 af3e a530 373e 226e bb3e 0d22 80be
000001f0: 7908 2e3f b1a0 2cbd ca61 673e 4de5 4e3d
00000200: d8c0 123d bdd8 1d3f c602 1ebe daec f1bc
00000210: d033 4c3f 4621 aabe 59ff 99be 45da 00bf
00000220: 5a71 d3be c8b2 313f f868 c5bd 3f78 87be
00000230: af4c ba3e db04 fb3e 2b02 953e 5562 643f
00000240: 9295 61be 73dd d13e 462b 82bd 4673 85be
00000250: f8e6 253f 816a 3abf fcf8 9bbc 48a9 bd3e
00000260: 84bb 83be 865b 87be 7345 303f f8a3 513e
00000270: 6ae2 283f 7b91 d63d 84a6 c9bd 7da5 09bf
00000280: 5105 43bd 44a2 26bf 5a9c 4e3f 9f9a 00bf
00000290: 77e3 013c 1786 8fbd d37a 9cbe fbe2 c73e
000002a0: 2b62 2e3e a86f bc3e 6d73 e4be 05ee 18bd
000002b0: fef7 68be 0e11 263f 5cfa 10bf 4f50 a03e
000002c0: 5a2d 00be b793 6bbe f862 1c3f 44c9 78bd
000002d0: d983 d9be 2834 c63d 1849 83bd db03 f4be
000002e0: f4cd 0cbe e146 123f 5d55 eb3e cef6 5bbe
000002f0: b4f6 bdbe 1926 12be ad2e b33e 93ed 3f3d
00000300: 9f93 4b3f 2e02 533e 7179 0d3f d59c 7a3d
00000310: c290 15bf 5867 383f 22b5 2fbf 9591 f13d
00000320: 9d6a cf3e 4b62 cf3e b06a 803f 652f 08bf
00000330: 9490 2c3f 9269 1e3e 749d 76be 93d2 493e
00000340: 7c3c 0ebf 3b93 b0be 2185 0b3f 0156 b5be
00000350: 39c3 ab3e fc39 32bf eb7b d6be 5dbe 07be
00000360: 4fff e83d 358e c1be 9085 2abf 642d d23e
00000370: 1ce3 0cbe 5ff7 c93d f16b c7be 13fc 583e
00000380: 7b94 913e 89f9 a73e 2b04 2c3f 02a3 913e
00000390: 6640 6d3d 315b 063f af26 11bd c912 44be
000003a0: 1c11 25bf b4ea b4be 04f0 0bbf 1fbc adbe
000003b0: 4c3e 3bbf 1c20 3a3f 290f 3abf 8fce b8be
000003c0: 0e82 c2be 9ea9 b9be 4d48 9cbe d53b a7be
000003d0: 77f0 6b3f 2dcf 03bf 2fb5 49be 6e70 e4be
000003e0: b0ff aebe e74f 21be 7750 13bf 72b2 cdbe
000003f0: 0941 cd3e 812c 203f dffd cfbe a463 5ebe
0.49749887 0.30411 0.5585249 0.13386773 0.6446491 -0.0057369363 0.33703014 -0.3566403
0.058944874 -0.09844338 0.64248765 0.14351264 -0.44005182 -0.011691889 0.448837 0.5395354
-0.2738446 -0.6151916 -0.12051319 -0.7143242 0.6849723 -0.5493843 0.23029886 -0.10815009
0.68128055 -0.40198362 -0.16788556 0.95632684 0.13450381 -0.486973 -0.51726687 -0.32139453
-0.64349526 0.25196165 -0.10137865 -0.3379933 0.4123797 0.25185627 -0.32612538 0.09893732
0.26587683 -0.22291954 0.43698296 0.12685691 0.6069634 0.20475593 -0.6615257 -0.21146235
-0.5543165 -0.46670794 -0.034412365 -0.22226654 0.5771323 0.044211525 -0.3058552 0.010056577
-0.27393135 -0.04124885 0.26985684 0.06274519 0.20884088 0.59921193 0.38620502 -0.55573356
-0.2519627 -0.046016898 -0.38784757 0.050146367 0.59091264 -0.17028923 0.10696049 0.5875771
0.52832097 -0.11493977 -0.33335903 0.12882166 0.41913438 0.80436504 0.76768 -0.18376431
-0.32575473 0.30187958 -0.44048116 0.6679159 -0.07390495 0.037052818 -0.6949929 0.3429585
-0.43811062 -0.51579684 -0.10420103 0.39330593 0.5498372 0.19302808 -0.5340712 0.5598986
-0.39357865 0.03844167 0.3157198 -0.03182512 -1.0177348 -0.71046793 -0.27396995 0.18910277
0.64449906 0.14365591 -0.22222924 -0.21303084 0.77416164 0.68512076 0.5474168 0.24842595
0.36339122 0.29163766 0.5259755 0.25452253 0.37467873 -0.39360207 -0.28030863 -0.016948184
0.3435586 0.1788965 0.36607462 -0.2502598 0.6798168 -0.042145435 0.22595897 0.050511647
0.03582844 0.6165884 -0.15430745 -0.029531885 0.7976656 -0.3322851 -0.30077627 -0.5033305
-0.41297418 0.69413424 -0.09639162 -0.26458928 0.3638663 0.49027142 0.29103217 0.8921254
-0.22029713 0.40989265 -0.0635591 -0.2606451 0.64805555 -0.7281876 -0.019039623 0.37043214
-0.25729 -0.26437014 0.6885597 0.20472705 0.6597048 0.10476967 -0.098462135 -0.5376814
-0.047612492 -0.6509135 0.80707324 -0.50235933 0.007927767 -0.070079975 -0.30562457 0.3904036
0.17029636 0.36803937 -0.44619313 -0.037336368 -0.22750852 0.64869773 -0.5663202 0.3131127
-0.125173 -0.23005567 0.61088514 -0.060738817 -0.42483404 0.09677917 -0.06410426 -0.4765919
-0.1375044 0.571394 0.45963565 -0.21480867 -0.37102282 -0.14272346 0.34996548 0.046857428
0.79522127 0.206063 0.5526343 0.061184723 -0.5842401 0.7203269 -0.6863576 0.11795346
0.40511027 0.4050468 1.0032558 -0.5319732 0.6740811 0.1546996 -0.24083501 0.19709234
-0.5556104 -0.34487328 0.54500014 -0.35417178 0.3354738 -0.6961973 -0.41891417 -0.13256212
0.11376821 -0.37803808 -0.6661005 0.41050255 -0.1375851 0.098616354 -0.3894954 0.21189909
0.28433594 0.32807568 0.6719386 0.28444678 0.057922743 0.524829 -0.035437282 -0.19147791
-0.6447923 -0.35335314 -0.5466311 -0.33932588 -0.7314193 0.72705245 -0.7267938 -0.36095092
-0.3798985 -0.3626222 -0.3052391 -0.32662836 0.92163795 -0.51488 -0.19698022 -0.44617027
-0.3417945 -0.15753137 -0.57544655 -0.40175205 0.4008868 0.6256791 -0.40623376 -0.21717697

decoders.1.decoder_net.0.bias f4 [512]
00000000: 4323 51be bf62 07bf 9d39 403f 3641 413f
00000010: 1dab 5b3e 3e3b b53e c10e 5ebe cb7e bcbd
00000020: e435 e4be 8900 5c3e e2d6 fbbb c0b3 843e
00000030: 613e fdbe 0df5 ce3e 2a2f 99be 514f 9abd
00000040: 7de5 3dbf 16f1 453f 8008 3ebe bdbc 2bbf
00000050: c8f3 c9bd 09fb a8be 3510 2c3f ee37 763e
00000060: a149 093f 84b5 2fbe 200f 273f 2038 2f3f
00000070: 7407 103f 4d3c 303f 5714 14be 2f85 853e
00000080: d463 d1be b0bb 303f e08e e53e 7c48 493e
00000090: d66c 013f c899 e8be c857 16bf 3781 f63e
000000a0: 2ede a0bb 5c84 2cbf 1fef ccbd d73b 243f
000000b0: ddc9 8a3e 8a05 d43e 5100 1abf 8f26 c93d
000000c0: e6a8 96be 0aec 2f3f 05f9 053f 802d b33e
000000d0: 8e99 93bd fece 3cbf 3c70 913e 8a97 c93e
000000e0: 74f6 6a3b 8eeb 413f 92cb 173f 29f2 1f3f
000000f0: 763c 03bf f903 ef3e 2e3a 2c3c fdf0 a13e
00000100: 830f 9abd 4058 4c3e 63d4 ed3d ec06 1a3f
00000110: a07f 1c3f 63bc 14bf e17b 9fbe e0fa 213f
00000120: a82a b4be 8fcb 183f 4cdf 4bbe d643 68be
00000130: f0b0 90bc 0f62 c73e ee9e 3bbf 4850 d9be
00000140: f86f 043f 2794 413f 5a20 e43e ad40 9c3c
00000150: ad3b 493e c801 8dbe 27ce e63e 4669 033f
00000160: 81b9 3e3e ea29 dabe 3f4e bfbe 7018 0c3f
00000170: 5c16 f2bd 2ede 9abd e9f7 1f3f 45b2 f23d
00000180: da04 ff3d bf00 0c3e 4183 703d 8c9a 18bf
00000190: 2cab 99bd b28e 51bf 48b6 79be 6fa8 373e
000001a0: 0f4e a0be 6273 693d 3a8e 45be 1b5e 0e3f
000001b0: 9b5a f73e 8234 11bf d503 9cbe 5df4 27bf
000001c0: 2900 003f e27f 8dbe 4a34 943e 2a56 7a3d
000001d0: 62ef 1ebf ff35 223e 0827 5c3f 3c8e 26bf
000001e0: b25e e9bd 74ff 09bf 57cb 10bf a9f3 d93e
000001f0: a083 393f 67c2 923b 1241 55bf f18a 173f
00000200: 94ac 1ebe 69bd 9a3e 9ef2 9ebe 8c03 b9bd
00000210: c1c9 db3e 9246 0cbe 990e 063f 8e8c a13e
00000220: ae60 f2be d157 883e 360f aa3d a7ac f5be
00000230: 2d15 81bd 90a1 d83d a7fe 233e c26c cc3e
00000240: afee abbe 4d7a 0b3f eb67 9fbe 0131 ff3d
00000250: b97e 2abf 43c0 af3e 1fb4 a13e 7745 afbe
00000260: e359 2ebf 2fd8 b3be 8ed0 513e bef4 3b3f
00000270: ee7a 013f dc01 54bf 9941 8c3e 3c87 0c3f
00000280: 0380 babd 9ef1 463f a1f6 5e3f d192 1fbf
00000290: 7cad 193f f116 b6be 3388 31bf 35da be3c
000002a0: bfef 2dbf 6896 4fbe 74e4 e8be 2768 fa3e
000002b0: aa80 073f f029 0c3f 5006 003f 0e54 5c3d
000002c0: d3fd 1ebe 8195 f0bd d73d e43e 42f0 383f
000002d0: 3ad9 e23e 91e3 e83e d1be 0e3f a906 88be
000002e0: 5ed2 6fbe 5921 32be a959 5abe b333 403f
000002f0: f182 613d 00dc 35bd 2cf6 0e3f dccb 033f
00000300: 843a 0e3f 06d5 d4be b2f7 0f3d 3c3d 3bbf
00000310: c092 19bf 6ed6 0d3f f59d 093e cb21 03bf
00000320: d775 9b3e 50e0 233f 0404 8c3e b2c1 393e
00000330: e969 143f 953b d43c 6797 883e 6d75 b7be
00000340: 5af1 e7be bf26 423f c11c 9dbe 6335 ba3e
00000350: f8f1 3fbf 13ba 6f3c d776 e93e 652f edbe
00000360: acb8 84be 7e85 babe d1a5 9bbe 3dc9 3a3e
00000370: 5272 11bf 2d0c f93e f6aa adbc 2ca0 1f3f
00000380: 53d0 0c3e cdf0 59be 1275 b33a 9236 943e
00000390: 4fbd d4be 7c5f 823d aafe 86be 0d29 ef3e
000003a0: 4b0c d43e 542c 4b3e 0277 1abf 08bf e2be
000003b0: 1f83 adbe e175 d93e 338f c63d ebed 82bd
000003c0: 1350 153f b18a cf3d 47d3 5e3f 3c2c cbbe
000003d0: c875 213f aba2 e73e 4951 15bf 0b5c a5bd
000003e0: 163b 95be 63c1 d3bd f58a 7dbf 3422 3a3e
000003f0: 89f0 203e b36a 83be 2f25 8bbd 8162 dfbe
-0.20423608 -0.5288505 0.7508791 0.7549013 0.21451993 0.3539676 -0.21685316 -0.09203871
-0.44572365 0.21484579 -0.007685528 0.25918388 -0.49461654 0.40421334 -0.29918796 -0.0753466
-0.74178296 0.7732099 -0.1855793 -0.67084867 -0.09860951 -0.33004025 0.6721223 0.24044773
0.53627974 -0.17159086 0.65257454 0.68445015 0.5626137 0.6884201 -0.14460884 0.26078174
-0.40896475 0.6903639 0.44835567 0.19656557 0.50556695 -0.45429826 -0.58727694 0.48145458
-0.0049092984 -0.67389464 -0.10006546 0.6415381 0.27107134 0.41410476 -0.6015673 0.098218076
-0.29425734 0.6871954 0.523331 0.3499565 -0.072070226 -0.73753345 0.2840594 0.39373428
0.0035852464 0.7575005 0.59295 0.6247888 -0.5126413 0.46682718 0.010511918 0.31629172
-0.0752249 0.1995554 0.11612775 0.6016681 0.6113224 -0.58099955 -0.311492 0.6327343
-0.35188794 0.59685606 -0.199094 -0.22682127 -0.017662495 0.38942 -0.7328938 -0.42444062
0.5173335 0.7561669 0.44555932 0.019073809 0.19651671 -0.2754042 0.45079157 0.5133251
0.18625452 -0.42610103 -0.37364385 0.5472479 -0.11820671 -0.07561909 0.62487656 0.118504085
0.12452097 0.1367216 0.058718923 -0.5961082 -0.075033516 -0.8185836 -0.24385941 0.17935346
-0.31309554 0.056994803 -0.19292536 0.55612344 0.48311314 -0.56720746 -0.30471674 -0.65607244
0.50000244 -0.2763663 0.28946143 0.06111733 -0.6208402 0.1584091 0.85997057 -0.6506078
-0.11395015 -0.53905416 -0.5656027 0.4256871 0.7246647 0.004478741 -0.83302414 0.5919638
-0.15495521 0.30222633 -0.31044477 -0.0903388 0.42927364 -0.13698795 0.52366024 0.31552547
-0.47339386 0.266295 0.083036825 -0.47983286 -0.06302867 0.105776906 0.16015111 0.39926726
-0.3358054 0.5448349 -0.3113397 0.12460519 -0.66599613 0.34326372 0.31582734 -0.34232685
-0.68105906 -0.35125872 0.20489714 0.7342032 0.505782 -0.8281534 0.27393797 0.5489385
-0.091064475 0.7771243 0.87095076 -0.623334 0.6003034 -0.35564378 -0.6934845 0.023297409
-0.6794395 -0.20272219 -0.45486796 0.48907587 0.529307 0.5475149 0.5000963 0.0537911
-0.15526514 -0.117472656 0.4457843 0.72241604 0.44306356 0.4548612 0.5575991 -0.2656758
-0.23420092 -0.17395534 -0.21323265 0.75078887 0.055056516 -0.04439926 0.5584438 0.5148294
0.5555804 -0.41568774 0.03514833 -0.7314031 -0.5998955 0.5540532 0.13439162 -0.5122344
0.30363342 0.6401415 0.27346814 0.18140295 0.57974106 0.025907317 0.2667801 -0.35831776
-0.45301324 0.7584037 -0.30686 0.36368856 -0.7497859 0.014631766 0.4559848 -0.46325222
-0.25922143 -0.3642997 -0.30399945 0.18240829 -0.56815064 0.48642102 -0.021199685 0.6235378
0.13751344 -0.21283264 0.0013691506 0.28947884 -0.4155068 0.063658684 -0.26366168 0.46711007
0.4141563 0.19841129 -0.6033784 -0.4428637 -0.338891 0.42472747 0.09695282 -0.063930355
0.5832531 0.10133875 0.87041134 -0.39682186 0.63070345 0.45241293 -0.58327156 -0.080741964
-0.29146641 -0.1033962 -0.99040157 0.1817711 0.15716757 -0.25667343 -0.067942016 -0.4362984
